lightning_logs/version_21/checkpoints/epoch=4-step=800.ckpt (torch, 30427 bytes, 24 tensors)

bayes_fc1.weight_mu f4 [64, 6]
00000000: 3345 7cbe a525 13bf 36fe 62be cd38 b9be
00000010: 096c bfbe 98ee bfbd 2463 f63e 775e 1abe
00000020: 7b8c d23e e075 e9be 48d8 063e 9916 82be
00000030: feb1 b8be 9718 4b3e a4e6 c6be 5e6a 313e
00000040: 726d 53be 2dfe 1b3e eaa4 c2be e992 2e3e
00000050: 0ccf 28bf 36da e93e fc52 dbbd 07af 1bbe
00000060: 9726 ccbe cab9 7a3e 433d efbe 678e 7c3e
00000070: f9bd 1ebe 514b 383e c475 463d 983d 70be
00000080: 8c27 c03e 1640 8bbe 6c51 f53d 2b75 613c
00000090: cc33 d8be 7228 b7be 1b81 7bbe 65a0 85be
000000a0: aa5c b5be 690f 00be 07fe ffbe 98ad 7e3e
000000b0: 1908 b1bd c76a 48bd d6d4 bbbe b24a 1e3e
000000c0: 99a4 a4be adee 333e e16d e7be 3212 d13e
000000d0: 6260 41be 7635 75bc 1368 dbbd 8d26 89be
000000e0: 99af 393e ce23 62be 2328 cb3d 6a43 463e
000000f0: a9b6 c5be 8c7c acbe 1571 d5bd 862c b7be
00000100: e01a 1cbe d7c1 aebd ee65 81be 668d 11bd
00000110: f149 02bf e4f4 aa3e 2262 24be 1705 49be
00000120: 23c1 b6be 8563 dfbd afbd 56be 1823 50be
00000130: 5ae3 debe 524f 0abe 14d9 ea3e b443 31be
00000140: 2735 a13e 0a6a cbbe 71e8 4a3e c286 923c
00000150: 0e88 1fbe fb91 4bbe 5212 c4bd 2dee 96be
00000160: b0c7 d3be fcd1 26bd ed67 38bf 5a4d 7abe
00000170: b934 973d 9f33 88bd 860c ad3d 92cd 3e3f
00000180: d563 b53e cb74 4cbe 7b41 1e3f 6e26 afbe
00000190: 247f 623e 485c 913d 945a bcbe 8755 78be
000001a0: 1f8f cbbd ae11 1abe 88cc 87be 9c42 61bd
000001b0: a5f0 41be 7608 59be dfca 69be f51f a0be
000001c0: 1d00 cebe 9903 35be b32e a23e 2c65 02be
000001d0: 9ec3 173f 1fdb b6be df24 633e 6468 99bd
000001e0: 063e 87be 8102 8f3d fdae b0be 8d9d 823e
000001f0: a655 57be 31fb 743d f21d 99be ba2b 87ba
00000200: 176c e8bd 4133 88be 2715 8abe 7b5f 7c3d
00000210: 5486 6fbe 1821 95be 459d edbd 4b6e b3be
00000220: 9e3d cebe 706c 03be 2b0b cebe 8cb4 393e
00000230: 33a6 f0be 6fc5 8a3e 385d 10be a528 09bc
00000240: bfd1 1abe e5a4 4bbe b9f6 2ebe cde8 a7be
00000250: 61af d6be 92f6 c3bd c28a 5fbe 7d40 9cbe
00000260: fbf0 b7bd 7605 40be 6a6d d3be 488b eabd
00000270: 86e1 bdbe dafc 52be 90af 5abe 6af3 8fbe
00000280: d627 efbd ef64 bbbd a14e 873e 6e1c 09be
00000290: 5fd4 133f 10b4 aebe c6f3 513e 8248 9f3c
000002a0: ae06 a93e 76f1 30be 8600 be3e 4bd5 9cbe
000002b0: 68e5 0f3e 29de 333e 2a04 59be 2e60 bebe
000002c0: 1d74 83be 79a0 80be 5485 adbe e978 77be
000002d0: 3fa9 a6be b479 86be 5d12 3fbe 601a a0bd
000002e0: 80cc aebe 88f7 3bbe 1088 92be 3d3c cebe
000002f0: 910a 76be 9261 73be 02bb 00bf 4ab9 43be
00000300: 3dec 52be cb38 bebe 1f0f 00be 1b7d 0ebe
00000310: 1bb1 68be ba86 a03b 6dfa bcbe c97d a8be
00000320: 7c40 f4bd c4c3 93be 87aa b1be 4a74 1dbc
00000330: 77e6 08be 0796 67be 97bd 1ab9 96ac 84be
00000340: e9b8 a9be 690b 0abe c2f3 063e 6943 73be
00000350: 95d0 9e3e 2c01 e1be 0980 2b3e 8341 ad3d
00000360: 630c eebe 6328 833e 9410 fcbe 8f2f 6e3e
00000370: 09bc f1bd 6d29 ea3d 1866 9ebe 40c2 c7be
00000380: a92a 29be f339 7ebe a1a0 afbe b264 e5bd
00000390: f7ce b3be ae2d 453e d445 bbbd 89fb 7fbd
000003a0: 6ac3 bebe fcd7 0a3e 2849 5cbe d532 55be
000003b0: 403f e1bd 2e55 f6bd 5c22 afbe a03b 223e
000003c0: 6d78 babe e01a 233e 8a4a 04bf 06eb c63e
000003d0: 6b29 d7bd 5248 da3d f918 b3be 0b7e 233e
000003e0: 731c 83be 72f7 763e 687f 2dbe 7831 8d3d
000003f0: 86d5 91be c1e6 dc3c f1b0 b9be 0fef df3e
-0.24635772 -0.57479316 -0.22167286 -0.36176148 -0.37387112 -0.0937168 0.48122513 -0.15075098
0.41122803 -0.45597744 0.13168442 -0.25407866 -0.36073297 0.19833599 -0.3884784 0.17325732
-0.20647219 0.15233679 -0.38016444 0.1704823 -0.6594093 0.45674294 -0.107091874 -0.15203486
-0.39873192 0.24484935 -0.46726426 0.24663697 -0.15502156 0.17997481 0.048452154 -0.23460996
0.37530172 -0.2719733 0.119784206 0.013760845 -0.42227018 -0.35773045 -0.24560969 -0.26098934
-0.3542226 -0.12505879 -0.49998495 0.24870908 -0.08644123 -0.048929956 -0.36685818 0.15458182
-0.32156828 0.17571516 -0.45201018 0.40834194 -0.18884423 -0.014966359 -0.1071321 -0.26787224
0.18133391 -0.22083971 0.09919765 0.19361654 -0.3861592 -0.33688772 -0.10421959 -0.35776156
-0.15244627 -0.08533066 -0.2527308 -0.03553524 -0.50894076 0.33389962 -0.1605306 -0.19630848
-0.35694227 -0.10907654 -0.20970796 -0.20325887 -0.4353283 -0.13506821 0.45868742 -0.17310983
0.31485865 -0.3972934 0.19815232 0.017886523 -0.15579244 -0.19879906 -0.09573807 -0.2947859
-0.41363287 -0.0407276 -0.7203358 -0.2444357 0.07383103 -0.06650471 0.08449654 0.74532425
0.35427728 -0.19966428 0.61818665 -0.34209007 0.22118813 0.070976794 -0.36787856 -0.24251376
-0.099394076 -0.15045807 -0.26523232 -0.054995164 -0.18939455 -0.21194634 -0.22831295 -0.3127438
-0.4023446 -0.17677154 0.31676254 -0.12733907 0.59282863 -0.3571405 0.22182034 -0.07490614
-0.26414508 0.069828995 -0.34508505 0.25510827 -0.21028766 0.059809867 -0.2990566 -0.0010312714
-0.113487415 -0.26601604 -0.26969263 0.061614495 -0.23391086 -0.2912681 -0.116022624 -0.35045084
-0.40281385 -0.12834334 -0.40242895 0.1813528 -0.470018 0.27103755 -0.1409806 -0.008371507
-0.15119074 -0.19887121 -0.17086305 -0.327948 -0.41930678 -0.09568514 -0.21830276 -0.3051795
-0.0898151 -0.18752083 -0.41294414 -0.11452347 -0.37086123 -0.20604268 -0.21356034 -0.28115398
-0.1167752 -0.09150111 0.26427177 -0.13389751 0.5774593 -0.34121752 0.20503148 0.019443754
0.3301291 -0.1727961 0.37109774 -0.3063148 0.14052355 0.17565216 -0.21192995 -0.37182754
-0.25674525 -0.2512243 -0.33890784 -0.24167217 -0.32551 -0.26264727 -0.18659349 -0.07817531
-0.34140396 -0.18356144 -0.28619432 -0.40280333 -0.24027468 -0.23767689 -0.5028535 -0.19113651
-0.2059793 -0.37152705 -0.12505768 -0.13914911 -0.2272381 0.004898873 -0.3690981 -0.32908466
-0.11926362 -0.28860295 -0.34700415 -0.009610245 -0.13369165 -0.22615825 -0.00014757212 -0.25912923
-0.33148888 -0.13480915 0.13178924 -0.23756184 0.3101851 -0.43946207 0.1674806 0.08459761
-0.46493825 0.2561675 -0.49231398 0.2326033 -0.11803443 0.114336826 -0.30937266 -0.39015388
-0.1652018 -0.24826793 -0.34302238 -0.11200847 -0.3511884 0.19255707 -0.09144178 -0.062495742
-0.37258464 0.13558954 -0.21512282 -0.20820172 -0.10998392 -0.120279655 -0.34205902 0.15843058
-0.36420003 0.15928221 -0.5167624 0.38851184 -0.10505947 0.10658325 -0.3497999 0.1596605
-0.25607643 0.2411783 -0.16943133 0.06894201 -0.28483218 0.0269655 -0.36267808 0.43737075

bayes_fc1.weight_rho f4 [64, 6]
00000000: ac2d 80bf 8e2e babf 3607 bc3e e289 62bf
00000010: 9b93 e6bf 43ee 0b3f 44c4 16c0 a2eb 47c0
00000020: f5a1 cfbe e1fd 02c0 eb6d 39c0 8529 92be
00000030: 93a5 fbbf ac46 3dc0 608e 8c3d fb0c e6bf
00000040: 4239 37c0 5d8a 17be cfda 1bc0 0c9a 54c0
00000050: 9262 94be 89e4 21c0 475f 4ec0 5c5e 22bf
00000060: 93b1 0fc0 06e1 48c0 e7b3 40bd 592a 02c0
00000070: 6a09 37c0 8ffa 0dbf 6c99 e4bf 3c32 2dc0
00000080: 1c0d 1abe d86a 04c0 857a 3cc0 b253 57be
00000090: ef6a 8fbf 9c52 d2bf 0782 b23e 5ec8 8fbf
000000a0: d8bf d9bf 32c8 bb3e 6380 e4bf 54c1 2bc0
000000b0: 456d 763e 67dc adbf e332 0ec0 7931 e53d
000000c0: c18a 16c0 5731 41c0 2142 3cbe ae96 10c0
000000d0: 2eaf 3bc0 99bf d5be d580 abbf 4535 0bc0
000000e0: efc3 3b3e d8cc ecbf d1f5 1bc0 b947 16bb
000000f0: d20e 3cbf b509 dbbf 2eac e93e 33f4 4abf
00000100: 6f48 fbbf bd0d 0b3f fd8d 04c0 ae90 31c0
00000110: 27cb 57bd 3c05 0dc0 b3c9 31c0 6666 6ebe
00000120: 2622 adbf 6f1f 13c0 3d55 903e ab57 8abf
00000130: 4677 d9bf 2fc2 893e 9989 29c0 d0a7 54c0
00000140: 993b f9be d117 1cc0 a2db 57c0 7f6d 05bf
00000150: 9f15 a3bf 248b 03c0 3995 c23e 1d4c 7dbf
00000160: 1cdf c3bf 0ed3 c53e 9f44 d7bf 40fc 3fc0
00000170: d9b4 38bf 6e8e 35c0 581e 66c0 006d 87bf
00000180: 8df2 0ac0 2d9b 46c0 58a0 bcbe 914e 1ec0
00000190: 9f98 4bc0 d462 a1be b896 6cbf 1c76 fbbf
000001a0: 8452 0a3f d9d4 70bf 6a96 e4bf b27f e33e
000001b0: 2535 a0bf 7399 fbbf 7aa0 a73e 48b9 9bbf
000001c0: c506 e1bf dcf5 b93e 2bbd 20c0 57ce 4dc0
000001d0: 131c 20bf f496 23c0 fd8e 59c0 4eab ecbe
000001e0: 5a02 04c0 6fca 34c0 3d13 67bd e73f 02c0
000001f0: a914 2dc0 3b1e 18be 30f3 c1bf 3984 29c0
00000200: 264c 733e 58f1 a0bf 42a1 12c0 3c20 283e
00000210: eb88 5fbf 3c1e d3bf 2028 013f f82d 3abf
00000220: 16be a6bf f668 ef3e 901e 00c0 1824 30c0
00000230: d0ae f4bc a7af f0bf 6e0d 39c0 f3ce 23be
00000240: ce0e 93bf 78b8 f3bf 782c 013f e246 39bf
00000250: 0b05 c2bf d6ad dc3e 340e 88bf f981 e7bf
00000260: 3ddc bc3e f27d 8abf 55d3 bbbf 1afa df3e
00000270: 8ff0 9fbf 7713 21c0 4c31 643d fe34 bebf
00000280: f53c 12c0 b6fd f63d 2bc5 22c0 f6d1 56c0
00000290: c0ca 50bf d09b 39c0 b5e0 62c0 f104 30bf
000002a0: 130a 2fc0 6844 5ac0 4de7 1ebf 3622 2cc0
000002b0: 257f 5dc0 6d46 1fbf 964a aebf 7ae0 d3bf
000002c0: e35f 723e 5cc7 8ebf 75ee cbbf c343 8f3d
000002d0: 87a4 95bf e819 f4bf 7eb8 ac3e 52c2 c6bf
000002e0: 365e dcbf a306 293e bebd 84bf 8ba8 dabf
000002f0: 87e8 d73e cd74 8bbf 07d0 b1bf a3f0 bd3e
00000300: 126a 8bbf 791f f8bf de01 043f bd45 88bf
00000310: ed64 ecbf 4acc d03e a026 81bf 89d5 ebbf
00000320: 110c bc3e ac37 7dbf 9bc3 efbf 47ad b23e
00000330: c216 96bf 6fd9 08c0 aef0 ef3e 3a24 68bf
00000340: d47d d7bf 9b73 ee3e fe1a dabf b423 1cc0
00000350: 21d9 0c3e cf67 f1bf e66c 25c0 2128 cf3d
00000360: 6223 1fc0 16cf 4bc0 f11d 84be 9ef2 17c0
00000370: 3d17 4cc0 bca5 d8be db20 89bf d892 dfbf
00000380: 464f 843e b446 7fbf fe34 e6bf dbc6 b23e
00000390: a6d0 edbf c9af 25c0 18b1 833e 897b abbf
000003a0: fd50 0bc0 f014 8e3e a8a3 e6bf c628 12c0
000003b0: 8d6e d8bd 86ad d6bf 9d16 f4bf 1343 0fbe
000003c0: 9697 0fc0 18ac 4ac0 387d 0dbe caff 06c0
000003d0: a410 40c0 ad3d 94be a4de 08c0 48a0 39c0
000003e0: 8783 45bc 3685 09c0 674d 38c0 0970 9fbe
000003f0: a4c9 eabf 4b76 1ec0 d360 473d b5d3 edbf
-1.0013938 -1.4545457 0.36724252 -0.8849164 -1.8013796 0.54660434 -2.355729 -3.123757
-0.4055325 -2.0467455 -2.8973339 -0.28547302 -1.9659904 -2.9574385 0.068630934 -1.7972711
-2.8628697 -0.14798875 -2.43523 -3.3219023 -0.28981453 -2.5295737 -3.2245653 -0.6342523
-2.2452133 -3.1387343 -0.04704657 -2.0338347 -2.8599496 -0.5546045 -1.7859321 -2.706191
-0.15044063 -2.0690212 -2.944978 -0.21028021 -1.1204509 -1.643146 0.34864828 -1.1233022
-1.7011671 0.36676174 -1.785168 -2.6836748 0.2406512 -1.3582886 -2.2218559 0.11191077
-2.3522189 -3.0186365 -0.18384601 -2.2591968 -2.9325671 -0.4174774 -1.3398691 -2.1751263
0.18336461 -1.8500013 -2.4368784 -0.0022930934 -0.73460114 -1.7112337 0.45639175 -0.7927887
-1.963148 0.5431784 -2.0711663 -2.7744555 -0.052683976 -2.2034445 -2.7779357 -0.2328125
-1.3526046 -2.2987936 0.28190032 -1.0808004 -1.6989524 0.26905963 -2.6490233 -3.3227425
-0.48678282 -2.4389536 -3.3727803 -0.521202 -1.2740973 -2.0553675 0.38004473 -0.98944265
-1.5302463 0.38637584 -1.6817816 -2.999771 -0.7215095 -2.8368182 -3.595602 -1.0580139
-2.1710541 -3.1032212 -0.36841083 -2.4735453 -3.1811903 -0.31520712 -0.9241748 -1.9645419
0.5403216 -0.9407478 -1.7858403 0.4443336 -1.2516218 -1.9656204 0.3273962 -1.2165918
-1.7580191 0.36320388 -2.511546 -3.215719 -0.6254284 -2.5560884 -3.3993523 -0.46224445
-2.0626435 -2.8248556 -0.05641483 -2.0351503 -2.704386 -0.14855282 -1.515234 -2.6486952
0.23759517 -1.2573652 -2.2910924 0.16418546 -0.87318295 -1.6493602 0.5045185 -0.7272639
-1.302676 0.46759766 -2.0018654 -2.752203 -0.029868513 -1.8803605 -2.8914447 -0.15996914
-1.1488893 -1.904067 0.5045848 -0.72373784 -1.5157789 0.43101376 -1.0629334 -1.808654
0.36886778 -1.0819685 -1.4673868 0.437455 -1.2495288 -2.516813 0.055711076 -1.4859922
-2.2849705 0.1206011 -2.5432842 -3.356565 -0.8155937 -2.900135 -3.544965 -0.6875754
-2.73499 -3.4104252 -0.62071687 -2.689588 -3.4608853 -0.62216836 -1.3616512 -1.655288
0.2366939 -1.115459 -1.5932146 0.069953464 -1.1690835 -1.9070406 0.33734506 -1.5528052
-1.7216251 0.16506438 -1.0370405 -1.7082685 0.42169592 -1.089502 -1.389161 0.37097654
-1.0891745 -1.9384605 0.5156535 -1.0646282 -1.84683 0.4078086 -1.0089912 -1.8424541
0.36727956 -0.98913074 -1.8731569 0.34897825 -1.1725695 -2.138271 0.46863312 -0.9068028
-1.6835275 0.46572575 -1.7039487 -2.4396791 0.13754703 -1.8859805 -2.5847716 0.10115076
-2.4865346 -3.1845145 -0.25804093 -2.3741832 -3.1889184 -0.42313945 -1.0713152 -1.7466688
0.2584173 -0.9971726 -1.7984922 0.3491734 -1.85793 -2.588854 0.2572105 -1.3397075
-2.1768181 0.2775035 -1.8018694 -2.2837386 -0.10567961 -1.6771705 -1.9069401 -0.1399043
-2.243627 -3.1667538 -0.13817298 -2.1093621 -3.0010157 -0.28953305 -2.138589 -2.9004078
-0.012055284 -2.1487556 -2.8797243 -0.31140164 -1.8342786 -2.47597 0.048676323 -1.8580233

bayes_fc1.bias_mu f4 [64]
00000000: 5b5d 30be 833a 7a3d 2acd 7abc 3541 86be
00000010: 0555 bdbd a4b5 403e e9fa b6bd 189f ec3d
00000020: cc3c 12be 561d 793e c13f eabd df53 a2be
00000030: 09b8 0bbe 56fe 243e 28e6 81bd 31fe 423f
00000040: 6f82 5f3e 0447 bfbd e03b 11be 893a 3f3e
00000050: 9a5f 7cbe 6020 45bd c95c 02be 1d12 00be
00000060: 4138 ebbd da30 bcbd e94d 5dbd 3a8e 6f3e
00000070: 334e 0c3e 69eb 3fbe 33ee 58be a5a0 19be
00000080: 0e9a e0bd 1cc7 fdbd 05b3 bdbd 00c1 e03d
00000090: 9073 2abe 45d2 04be 01ad 033e 1461 82bd
000000a0: 1bb2 44be c7ef e6bd 7986 43be c107 48be
000000b0: dd6e f4bd e315 30be 51ae 3cbe 08f6 3ebd
000000c0: 8576 a8bd 881c 1dbe a3c3 f2bd e4fc 20bd
000000d0: f1b2 f9bd c452 3b3e a1d1 13be 6841 6c3e
000000e0: a28d 36bd d29c ae3e 8057 ae3e 223e 883e
000000f0: 4e6d 3bbe 7d77 623e b354 5bbe 3059 d7bd
-0.17223112 0.061090957 -0.015307704 -0.26221624 -0.09244732 0.1881929 -0.08934576 0.11553782
-0.14281005 0.24327597 -0.11437941 -0.31704614 -0.13644423 0.16112646 -0.06342727 0.76169115
0.218271 -0.09339717 -0.14182997 0.18674673 -0.24645844 -0.04812658 -0.12730707 -0.1250691
-0.11485339 -0.09189005 -0.05402938 0.23394099 0.13701706 -0.18742146 -0.21184616 -0.15002687
-0.109668836 -0.12391493 -0.09262661 0.10974312 -0.16645646 -0.12970836 0.12858965 -0.063661724
-0.19208567 -0.11276203 -0.19094266 -0.19534208 -0.11935208 -0.17195849 -0.18425871 -0.046621352
-0.08225731 -0.15342915 -0.11853721 -0.039303675 -0.121923335 0.18293291 -0.14435436 0.23071826
-0.044568665 0.3410402 0.34051132 0.26609904 -0.18303415 0.22115894 -0.21419029 -0.10515058

bayes_fc1.bias_rho f4 [64]
00000000: 52e8 24be a990 8ebf 8c77 81bf 3840 99bf
00000010: 2096 90bf 3255 9abf 8895 abbe 3764 1dbf
00000020: 107e 93bf 7f69 0ebf 7d37 b7bd 33c7 70bf
00000030: 7b1c fbbe ee05 bcbf eebe dabe 7efb e3bf
00000040: 5108 a3bf 6b3f b8be 5844 c4be 0c3c bcbf
00000050: 5439 6abf 4800 38bf 4cfe e6bd 0486 82bf
00000060: a10c 1cbe b645 5abe 0b46 63bf 94b0 cabf
00000070: 3adf d1bf 802b e3be 65c5 d1be 3bfd 5cbe
00000080: dcfe 33be c341 a1be 98c0 99be 192e 42bf
00000090: cba1 c0bf 6e3b 15bf d13f 00bf 2cc6 43bf
000000a0: c598 93bf a0a8 89bf a28b 56bf 85d0 90be
000000b0: dae7 93be ce27 2fbe e05e 07bf 66ae 88bf
000000c0: ab0a c7be 5ff3 4fbe ad02 6dbe e0e9 9dbe
000000d0: b29b 5abe b106 c8bf 8801 adbe ac31 c4bf
000000e0: 92ea 79bf 9955 a0bf b468 a3bf 2408 01bf
000000f0: 0828 8ebe 3e77 9bbf 914e a8bf cbf7 bdbe
-0.16104248 -1.1137897 -1.0114608 -1.1972723 -1.1295815 -1.205725 -0.3351252 -0.6148104
-1.1522846 -0.55629724 -0.089461304 -0.94053954 -0.49045166 -1.468931 -0.42723793 -1.7811124
-1.2736913 -0.35985884 -0.38333392 -1.4705825 -0.91493726 -0.7187543 -0.11278972 -1.0197148
-0.15239193 -0.21315655 -0.8877875 -1.5835137 -1.6396248 -0.44369125 -0.40970913 -0.21580975
-0.1757769 -0.31495485 -0.3002975 -0.7585159 -1.5049375 -0.5829381 -0.50097376 -0.7647426
-1.1530997 -1.0754585 -0.8380681 -0.28284088 -0.28887826 -0.17105028 -0.5287914 -1.0678222
-0.38875327 -0.20307682 -0.23145552 -0.30842495 -0.21348456 -1.5627042 -0.3379023 -1.5327659
-0.9762355 -1.2526122 -1.2766328 -0.50403047 -0.27764916 -1.2145765 -1.3148977 -0.37103114

bayes_fc1.prior_mu_old_bias f4 [64]
00000000: 6859 67be 6f2a 353d 4b47 a2bd a0f8 94be
00000010: 9ff0 debd 9dd5 633e 1085 f6bd c7b7 123e
00000020: 88b7 4abe 9918 743e 8f64 f0bd c166 c9be
00000030: b727 0dbe b30c 293e 3bae c3bd f998 403f
00000040: 6efe 6b3e fd6d dbbd 9419 5dbe 2c70 583e
00000050: c007 95be 7583 4abd ba10 69be 2e69 38be
00000060: 8195 22be 59e7 22be b2bd bfbc 25ce 8f3e
00000070: 8cfa 353e 6eb6 49be a6e4 6fbe 92e4 41be
00000080: 3593 2abe 1e8e 2ebe ac6c d4bd 6cd8 eb3d
00000090: 2e55 63be 438e 3ebe 62bd fe3d 7ca5 0abd
000000a0: b316 68be 80f4 3bbe 3915 77be 269e 6dbe
000000b0: 5baa f4bd b747 4abe 60e6 71be 67f0 91bd
000000c0: 2fc1 e3bd 4b79 42be 8ed9 1bbe e027 3bbd
000000d0: 3497 32be a054 443e 8da6 48be 6a48 933e
000000e0: fde2 2bbd 304a b93e 3a42 c93e 710d 883e
000000f0: 1922 71be 43c3 903e e7e4 7ebe 0f46 23be
-0.225927 0.04422992 -0.07923754 -0.29095936 -0.108857386 0.22249456 -0.120370984 0.14327918
-0.19796574 0.23837508 -0.1173793 -0.39336208 -0.13784681 0.1650875 -0.09554716 0.7523342
0.23046276 -0.10714338 -0.21591789 0.2113654 -0.29107475 -0.049441773 -0.22760287 -0.18008873
-0.15877344 -0.15908565 -0.023405883 0.28086963 0.17771357 -0.19698498 -0.23427066 -0.18934849
-0.16657718 -0.17046401 -0.1037229 0.115158886 -0.22200462 -0.18608956 0.12438466 -0.033849224
-0.22664909 -0.18354988 -0.2412919 -0.2320486 -0.11946555 -0.1975392 -0.23623037 -0.07125931
-0.11120831 -0.18991582 -0.1521971 -0.045692325 -0.17440492 0.19172907 -0.19594784 0.28766185
-0.04196452 0.36189413 0.3930834 0.26572755 -0.23548163 0.28273973 -0.24892007 -0.15944694

bayes_fc1.prior_sigma_small_bias f4 [64]
00000000: 1507 213f a1b1 923e 07aa 9e3e 6bb3 883e
00000010: ae65 8d3e c4e0 8b3e 47eb 093f 1bca d43e
00000020: 140e 8a3e 2b6e e43e 44f0 2e3f bf8e a63e
00000030: 24ce f63e 3962 573e fb7d fb3e b264 223e
00000040: 69b7 803e bc36 093f c0b6 083f 1501 563e
00000050: 91a7 af3e 0084 d13e c9dc 223f 790a 9e3e
00000060: ce72 253f 55c8 1c3f 6c95 b33e 589a 3b3e
00000070: 700e 2d3e bbc1 013f b250 033f 2462 183f
00000080: b8df 203f 08e7 0a3f effd 103f a462 c63e
00000090: 8b1a 553e 1a5f e13e 7de7 f83e cc3c ce3e
000000a0: 4dfa 933e 2a06 923e c2c2 b73e b737 173f
000000b0: 68df 103f 41cb 203f 7f6e f23e 5daa 993e
000000c0: 3222 023f 0d6a 1d3f cea6 1c3f 7a24 0f3f
000000d0: 1b4e 173f 34bb 423e b842 0c3f 09ff 543e
000000e0: 91bb a63e 3374 843e 4bc9 743e 8e0d ef3e
000000f0: 3099 113f 57e9 823e 5792 713e 4cd3 073f
0.6290143 0.28651145 0.30989096 0.26699385 0.27616638 0.2731992 0.5387463 0.41560444
0.26963866 0.446153 0.68335366 0.32530782 0.48204148 0.21033563 0.49119553 0.15858725
0.2513993 0.53599143 0.53403854 0.2089885 0.3430753 0.4092102 0.6361814 0.30867365
0.64628303 0.6124318 0.35074937 0.18320596 0.16900039 0.50686234 0.51295006 0.5952475
0.6284137 0.54258776 0.5663747 0.38747132 0.20810907 0.4401787 0.48614112 0.4028076
0.28901902 0.28520328 0.35890776 0.5906939 0.5659089 0.6281014 0.47349927 0.3001279
0.5083343 0.61489946 0.61192024 0.55915034 0.59103554 0.19016725 0.54789305 0.20800413
0.32564977 0.25869903 0.23904912 0.4669003 0.5687437 0.2556865 0.2359098 0.5305679

bayes_fc1.prior_mu_old f4 [64, 6]
00000000: 5aa3 79be b208 14bf 2e84 5cbe 237a b3be
00000010: 3d06 b4be 85d2 c3bd 340b f73e 4cf3 1abe
00000020: 7175 c33e 9aa6 d9be 7434 183e 6382 62be
00000030: e5c5 d5be b996 203e 4e13 d4be bc49 b03d
00000040: 482c 76be 5197 9a3d 5841 bcbe 42d1 333e
00000050: 4065 16bf 2f5d ec3e 4cd7 cdbd 20c9 1ebe
00000060: 8edc c7be d1c8 643e 6270 e8be dfc0 6e3e
00000070: 7fb9 26be 535b 113e 1ede 5d3d 0626 69be
00000080: 7a53 b33e 437a 8cbe 3ae5 053e 016d 2b3b
00000090: 2022 c4be 8f82 b2be 793e 77be a761 64be
000000a0: ae75 b4be 4765 f0bd ff2a f9be a8eb 823e
000000b0: f675 8ebd bc73 4bbd 3a5a bfbe dbec 073e
000000c0: 137d a4be ad8a 353e b20f debe 2d85 c33e
000000d0: 9df3 40be 819c 88bd 707e 50be db98 99be
000000e0: dd53 be3d 0505 67be 05f7 873d 37e6 393e
000000f0: b6f1 bdbe da16 a2be 1a21 afbd 5a68 a1be
00000100: 2e5c 01be 3bdb 5fbd 08e4 6bbe 4bbc bfbc
00000110: dd5f f9be 5b08 b23e 54cd 12be b598 31be
00000120: 5b3c a3be 1778 b4bd 4797 2bbe 65ac 43be
00000130: a9a0 d1be 8fd4 0cbe 32e5 e43e afb9 3fbe
00000140: f781 793e 5818 cabe 3615 443e c2a0 b83c
00000150: 818b 1abe 65e5 3fbe a75b d9bd 5fee 99be
00000160: 5825 d3be 5176 3abd 930a 35bf 8027 81be
00000170: 904c 2b3d 86b0 4fbd b185 c73d ccfc 383f
00000180: c009 ab3e b325 43be 5de8 0a3f 5ab6 adbe
00000190: 139c 613e 4a08 1e3d 6f04 babe 32f0 65be
000001a0: 813c 03be a177 2ebe 8354 97be de1d 54bd
000001b0: ae94 39be 34fc 56be 256c 82be 5198 99be
000001c0: 9131 c2be b10f 39be 0ab3 953e 4050 13be
000001d0: 0bc5 073f 69b0 adbe 5801 583e cd5e 93bd
000001e0: 36a7 84be 04a3 9d3d 2179 a0be 3e48 843e
000001f0: e7e9 47be 4cc6 dc3c 31ec 97be b4d9 7ebb
00000200: dd71 ebbd c05c 82be 4f73 8dbe 6f9a 963d
00000210: 6436 8dbe a643 aebe 0166 16be e5cd c7be
00000220: 42d7 f2be edc9 06be 76e2 c9be bc5b 3d3e
00000230: 27a5 e5be ef9b 823e bf65 08be a6eb 37bd
00000240: 972e e5bd bc03 35be c7bc 2fbe 430d 98be
00000250: 299a e1be 2aa5 ffbd 1d5a 43be b1b0 9cbe
00000260: 25de a6bd 7f98 32be 14d0 d4be 4fee edbd
00000270: ba42 bcbe 2fdb 3ebe 3b3b 50be d385 8ebe
00000280: 5599 c0bd d8e1 82bd 01e2 813e f6f5 01be
00000290: 94e6 043f 9845 a9be c8be 563e b329 b83c
000002a0: 9ad2 a23e 9bfb 36be 2105 9a3e 5ba9 96be
000002b0: 91ba 163e 9d0c 423e be6e 3dbe 0e94 b0be
000002c0: c99c 61be cf7e 50be 87ca aabe f54f 44be
000002d0: 627c aabe 6813 70be d973 23be 628d 7bbd
000002e0: 6f93 a4be 904c 2dbe 76c6 7cbe 6daa b9be
000002f0: a645 6dbe 544f 3bbe 8fed edbe 616e 35be
00000300: 15d4 57be f36c b0be da5e f8bd d27f 0bbe
00000310: 3df0 7bbe b975 bfbb 9fca c7be 6138 acbe
00000320: 0898 0fbe 9ed9 8fbe da97 a8be 378d 1cbc
00000330: c384 04be 4efd 6bbe 1f0d 49bb 3aee 80be
00000340: bbee a6be 1444 debd ce1a 083e 300c 5ebe
00000350: 6f78 813e a221 e2be 5bec 253e 8a2f 9c3d
00000360: 8486 edbe 881a 843e 0061 edbe 5223 633e
00000370: d18e f9bd 576e 8c3d 3522 99be 3f4b ccbe
00000380: dadd 36be 5076 85be 1b1a abbe 8df5 e6bd
00000390: 1d01 b0be 9422 363e 0f4c b5bd 6ea9 8cbd
000003a0: 14bc cabe aedf a23d 2a47 70be b5a2 47be
000003b0: b15f dcbd 882d ebbd 2bb3 a4be b23a 513e
000003c0: d9f1 b7be 1f11 143e abbe f5be 5c3f bc3e
000003d0: 61a7 d7bd 1a2a 953d 98c7 babe e366 053e
000003e0: 24de 7ebe 450e 5c3e 95ea 41be f9f1 d83c
000003f0: 851a 8bbe 28f2 9c3c 0dcb aebe 7db4 da3e
-0.2437872 -0.5782577 -0.21534798 -0.3505412 -0.3516101 -0.09561638 0.48250735 -0.15131873
0.38175538 -0.4250992 0.1486376 -0.22120051 -0.41752544 0.15682496 -0.41420978 0.08607814
-0.2404033 0.075483926 -0.36768603 0.17560294 -0.58748245 0.46164843 -0.1005083 -0.1550641
-0.39035457 0.2234223 -0.4539824 0.23315762 -0.16281699 0.14194994 0.054166906 -0.22768411
0.35024625 -0.27437028 0.13075724 0.00261575 -0.38307285 -0.34865233 -0.24144925 -0.22302876
-0.35246032 -0.11738067 -0.48665616 0.25570416 -0.06956093 -0.04967092 -0.37373525 0.13273947
-0.32126674 0.17728682 -0.4337135 0.38187543 -0.18842931 -0.06670476 -0.20360732 -0.29999432
0.092933394 -0.22560509 0.06638912 0.18154226 -0.37098473 -0.3165806 -0.085512355 -0.31524926
-0.1263282 -0.054652434 -0.23036206 -0.023405215 -0.4870595 0.34772 -0.14336139 -0.1734341
-0.31881985 -0.08811968 -0.16756926 -0.19108732 -0.40942886 -0.1375296 0.44706112 -0.18723176
0.24365984 -0.39471698 0.19148716 0.022537593 -0.15092279 -0.18739851 -0.106131844 -0.30064675
-0.4123943 -0.04552299 -0.7071926 -0.2522545 0.041821063 -0.050705455 0.097422965 0.7226074
0.33405876 -0.1905735 0.5426081 -0.33928186 0.22032194 0.038582124 -0.36331508 -0.22454908
-0.12816049 -0.17037822 -0.29556665 -0.051786296 -0.18123123 -0.20994645 -0.25473133 -0.2999902
-0.3792844 -0.18072392 0.29238158 -0.14386082 0.5303504 -0.33923653 0.21094263 -0.07195816
-0.25908822 0.076971084 -0.31342414 0.25836366 -0.1952282 0.026950024 -0.29672387 -0.0038887085
-0.11496327 -0.25461388 -0.27627036 0.073536746 -0.2758056 -0.34035987 -0.14687349 -0.39024273
-0.47429854 -0.13162966 -0.39430588 0.18492025 -0.44852564 0.25509593 -0.13320063 -0.044902466
-0.11190527 -0.17677206 -0.17161857 -0.29697618 -0.44062927 -0.124826744 -0.19077344 -0.30603555
-0.081478395 -0.17440985 -0.41565 -0.116177194 -0.36769658 -0.186383 -0.20335095 -0.27836475
-0.09404246 -0.063907325 0.2536774 -0.12691483 0.51914334 -0.33060908 0.20971215 0.022480821
0.318013 -0.17869417 0.30082038 -0.29426083 0.14719607 0.18950124 -0.18499276 -0.34487957
-0.22032465 -0.20360874 -0.3335764 -0.19171126 -0.33298022 -0.23444903 -0.15962161 -0.06141413
-0.32143733 -0.16923738 -0.24685082 -0.36262837 -0.231711 -0.1829198 -0.46470305 -0.17717887
-0.21076997 -0.34458122 -0.121274665 -0.13622978 -0.24603362 -0.005842891 -0.39021775 -0.33636764
-0.14022839 -0.28095716 -0.32928354 -0.009555153 -0.1294127 -0.23045847 -0.0030677987 -0.25181752
-0.32604012 -0.108528286 0.13291475 -0.21684337 0.25287196 -0.44166285 0.16203444 0.07626255
-0.4639169 0.25801492 -0.46363068 0.22181442 -0.12185443 0.06856983 -0.2990891 -0.39901158
-0.17858067 -0.26066828 -0.33418354 -0.11277304 -0.3437585 0.17786628 -0.08852398 -0.06868254
-0.39596617 0.0795282 -0.23464647 -0.19495662 -0.10760439 -0.11483294 -0.32167944 0.20432547
-0.35926703 0.14459656 -0.4799703 0.3676709 -0.10529972 0.07283421 -0.36480403 0.1302753
-0.24889427 0.21489818 -0.18937142 0.026482569 -0.2716867 0.019158438 -0.3413929 0.42715827

bayes_fc1.prior_sigma_small f4 [64, 6]
00000000: 84c1 9c3e 0bb2 543e 0d15 633f b050 ad3e
00000010: f930 1b3e 066b 743f febd bd3d f517 373d
00000020: 6d2d 083f 545c 013e 774a 5e3d cb61 153f
00000030: 17e9 023e 3f68 4b3d 583d 383f 07ba 163e
00000040: 5fcc 6c3d 709b 1d3f f663 ad3d 1cc5 1d3d
00000050: 75f8 103f 7103 a13d cec0 263d 30a8 d83e
00000060: dea0 d53d 81cb 393d 7d70 283f 33b1 073e
00000070: 36d1 743d 481b e83e af51 1b3e 0fb8 853d
00000080: edb2 223f 1f5e fe3d 4eec 543d 780a 193f
00000090: b11d 933e 18dc 313e 55f3 633f e2bb 923e
000000a0: 062d 243e 3946 643f 10d6 213e 2678 8c3d
000000b0: bdc4 513f d659 6a3e cfa5 cd3d c6f0 3d3f
000000c0: 4af3 bc3d 27f0 483d aeac 1b3f a930 d03d
000000d0: d206 5e3d 7b57 fc3e 3327 623e 9016 dc3d
000000e0: 376c 433f 4cf8 163e 7757 aa3d 8144 363f
000000f0: 331c c93e 31d3 2a3e 72e3 713f c67d c33e
00000100: b220 0a3e 08db 7e3f 20d8 f43d 1253 813d
00000110: 47a0 2a3f 600d de3d 9147 7b3d ac64 193f
00000120: ede4 6a3e d4bc c73d e1d6 593f 7066 983e
00000130: 0b5a 303e ff2c 573f 16ab 923d 65db 153d
00000140: c2d4 f03e 791d b13d 5033 0b3d 00c2 ed3e
00000150: d36d 803e 8083 f43d 472f 653f e307 a03e
00000160: 034f 433e 7186 633f f341 343e 234c 4a3d
00000170: fd5c d13e 64cb 713d 75de e93c 23f6 9d3e
00000180: feb5 e93d 930b 363d 94c9 063f 471c ae3d
00000190: d175 2b3d d16c 0e3f 3729 ac3e 0f5d 063e
000001a0: d9e5 733f fac7 a33e 6887 163e 7b69 703f
000001b0: dc20 7c3e d01b 073e 2849 573f 847e 823e
000001c0: e851 1f3e f980 5b3f 0f60 a73d b249 283d
000001d0: 7695 dc3e 8405 9d3d e80b 0f3d aeb1 003f
000001e0: 84c3 f23d 17a1 763d 8941 2a3f 227c f83d
000001f0: 9673 883d aa66 183f b434 4c3e db4a 893d
00000200: 3400 513f 1484 7b3e 56e5 bd3d 3ea2 4b3f
00000210: edbc a33e 15af 293e 17b8 743f 1e49 c13e
00000220: 0ade 693e 8e9b 733f 14f0 ff3d be02 7f3d
00000230: 7ff9 2f3f bbf8 163e f191 623d 7306 1b3f
00000240: db7d 8c3e 7e16 113e 432d 773f 17e6 ce3e
00000250: 6986 443e 6f10 6d3f 5807 993e 1e2c 163e
00000260: 4b7e 653f 894d 933e 33d1 4f3e 76ac 6f3f
00000270: edb8 803e a0fd a33d f455 363f 3d09 533e
00000280: af5f c73d 9ccb 423f 15d4 a53d 2479 183d
00000290: 99e1 be3e f08d 673d 79b1 f93c 86b4 d03e
000002a0: 743d 853d 6a0d 0e3d 75c9 d53e b67f 893d
000002b0: 51c1 ff3c eb55 de3e 72e0 6c3e 1b65 353e
000002c0: 351b 503f 69a0 963e 6065 3c3e 9fe4 3c3f
000002d0: a810 893e 9978 113e 2d45 623f 7bda 423e
000002e0: 02e1 2a3e e884 493f 5624 9f3e ba89 2d3e
000002f0: 074d 643f 4761 993e c4e2 6a3e 649f 673f
00000300: 7943 923e ccc1 0e3e ee5f 763f b3e5 963e
00000310: 02dc 103e 3cbd 663f ae2f 9d3e a704 113e
00000320: f0c3 613f 118e 9c3e 6b45 123e 90a8 5e3f
00000330: b12e 843e 7353 dc3d bb23 723f 7827 ad3e
00000340: 7696 303e 7908 783f 7219 353e 568a af3d
00000350: 496e 3b3f 51d9 143e 9130 933d 04ef 3d3f
00000360: 3889 a83d b335 2d3d acdb 133f 5a2d b83d
00000370: ff3e 283d 1390 023f cab4 933e 99aa 1b3e
00000380: d66a 503f bd9d 9d3e ebee 193e 902f 603f
00000390: bdd3 153e ffa0 9a3d 8eee 513f e405 683e
000003a0: de1d d83d 5a18 533f 1203 1a3e d772 cc3d
000003b0: 895e 253f 3ef2 293e 3a45 073e 32db 1e3f
000003c0: db24 da3d 8649 2d3d 3a0c 203f 865f fa3d
000003d0: bc89 553d 6fd4 123f 209a e93d b2cc 613d
000003e0: cbb2 2e3f 0abd e83d eb07 5b3d 52de 0c3f
000003f0: bcbd 183e 8528 a33d aebd 363f 3059 133e
0.3061639 0.20771043 0.88703996 0.33850622 0.151554 0.95475805 0.09264754 0.04470058
0.53194314 0.12632877 0.054270234 0.58352345 0.12784229 0.049659964 0.71968603 0.14719401
0.05781209 0.61565304 0.08466332 0.038518056 0.56629115 0.078619845 0.040711217 0.42315817
0.104310736 0.045360092 0.65796643 0.1325119 0.05976983 0.45333314 0.15167879 0.06529247
0.6355427 0.12420296 0.05198317 0.597816 0.2873359 0.17369115 0.8904317 0.28658968
0.160328 0.8916965 0.15804315 0.06858854 0.81940824 0.22885832 0.10041391 0.74195516
0.09226091 0.049057152 0.60810363 0.10165531 0.054205723 0.49285492 0.22085266 0.10746491
0.76337 0.14743155 0.08317464 0.7119828 0.39279327 0.16682126 0.9448768 0.38181895
0.13489035 0.99552965 0.11955285 0.063146725 0.66650814 0.10842395 0.061347548 0.5991924
0.22938891 0.09752813 0.85093504 0.29765654 0.17221849 0.84053034 0.07161538 0.036586184
0.4703732 0.086481996 0.033984482 0.46437073 0.2508379 0.11939144 0.89525265 0.31256017
0.1907311 0.88877016 0.17603283 0.049389016 0.40891257 0.05903186 0.028548459 0.3085185
0.114116654 0.04444463 0.52651334 0.08501487 0.041860405 0.5563479 0.33625194 0.13121437
0.95272595 0.31988508 0.14700091 0.9391095 0.2462191 0.13194203 0.84096 0.2548715
0.15558589 0.8574367 0.081726186 0.041085906 0.4308278 0.07667068 0.034923464 0.5027112
0.11853698 0.06021222 0.6650625 0.121330515 0.06662671 0.5953165 0.1994198 0.06703731
0.81640935 0.24562103 0.09272258 0.79544437 0.31980076 0.16570695 0.955934 0.37751096
0.22838607 0.9515923 0.12496963 0.062258475 0.68740076 0.1474332 0.05531496 0.60556716
0.2743977 0.14168736 0.9655344 0.4040992 0.19191898 0.926032 0.29888415 0.14665267
0.8964583 0.28770092 0.20294647 0.9362253 0.25141087 0.080073595 0.71224904 0.20608993
0.09735047 0.76091933 0.08097092 0.037224904 0.37281492 0.056531847 0.030480133 0.40762728
0.06505862 0.03468076 0.41755262 0.06713812 0.03122011 0.43424925 0.23132494 0.1771435
0.81291515 0.29419258 0.18398046 0.7378635 0.2677052 0.1420616 0.88386804 0.19028656
0.16687396 0.78718424 0.3108241 0.1694707 0.89180034 0.2995703 0.22938067 0.90477586
0.28567103 0.13941115 0.9624013 0.29472122 0.14146426 0.901325 0.3070044 0.14161931
0.881896 0.30577138 0.14284293 0.86975956 0.25816873 0.10758104 0.9458577 0.33819175
0.17244896 0.9688793 0.17685488 0.08571307 0.73215157 0.14536025 0.07186998 0.74192834
0.082292974 0.04228754 0.5775707 0.08993025 0.041075703 0.5100109 0.2884887 0.15201797
0.8141302 0.30784407 0.15032546 0.87572575 0.14631553 0.07550239 0.8200463 0.22658497
0.10552572 0.8245903 0.15040234 0.099828415 0.64597374 0.16596314 0.13210002 0.62053216
0.10651561 0.042306446 0.62518656 0.12225251 0.052133307 0.573554 0.1140635 0.055126853
0.68241566 0.11364181 0.053474348 0.55026734 0.14916128 0.07966713 0.7138318 0.14389491

bayes_fc2.weight_mu f4 [1, 64]
00000000: 9f97 f03d 51d0 b93d ff15 9fbd 83d3 d5bd
00000010: 8b2f a8bd 4b40 ab3d e6cc c43d dfc9 97bd
00000020: c727 b8bd 465a f63d 7411 5c3d 1ff9 d0bd
00000030: 2c01 67bd 3a80 cc3d d1f6 e2bc 770c d33e
00000040: d875 c33d 24eb 9d3d c869 c43c 3aad ce3d
00000050: 9bff c9bd c8dc b8bd f457 cbbb 91ca a4bd
00000060: 41a1 e13b 8d99 c0bc 4311 123e cf8a e63d
00000070: 119e 9d3d f5b1 5dbd 721b 43bd a620 a73c
00000080: 577b 19bc 2655 2ebd c0d9 1fbc 0851 923d
00000090: 8e58 babd ae65 823d 733a 6ebd cc78 483e
000000a0: 1fd2 ddbd 570e cfbd 1cf2 94bd d6fe 943c
000000b0: 7926 e43b cfd9 553d 39a3 d0bd 8a38 88bd
000000c0: dbc9 e63d 78de 393b 878d 193c 71fe cebd
000000d0: cae1 cc3d 7652 ed3d dffc 323b 3963 cb3d
000000e0: 52b7 563d 304b cc3d 4370 d33d b24b 923d
000000f0: b6ff a33c 3156 853d c8a6 dfbd 0d04 2ebc
0.117476694 0.09072936 -0.07767867 -0.10440733 -0.08212193 0.08361872 0.09609394 -0.07411551
-0.08991962 0.12028937 0.053727582 -0.10203766 -0.056397602 0.09985395 -0.027705582 0.41220447
0.09543961 0.07710865 0.023976222 0.10091634 -0.09863206 -0.09026486 -0.006205553 -0.08046449
0.006885678 -0.023510719 0.14264397 0.112569444 0.076961644 -0.05412479 -0.047633596 0.02040131
-0.009367785 -0.042561673 -0.0097565055 0.07144362 -0.09098922 0.0636705 -0.05816121 0.1957733
-0.10831093 -0.10110157 -0.07272741 0.018187921 0.006962594 0.05220967 -0.10187382 -0.06651409
0.112689696 0.0028361361 0.009372122 -0.101071246 0.10004003 0.11587994 0.0027311367 0.099310346
0.05242092 0.099752784 0.103241466 0.07143344 0.020019393 0.0651058 -0.10920483 -0.010621083

bayes_fc2.weight_rho f4 [1, 64]
00000000: 09c0 8abf 94b0 61c0 84f5 49c0 634c 58c0
00000010: 0552 53c0 18e2 48c0 a7b8 a7bf 7a0c 55c0
00000020: 342a 53c0 7f54 26c0 f1f1 1fc0 197f 31c0
00000030: fe0c 04c0 b51f 67c0 c7c9 cdbf 327a 1bc0
00000040: 97fc 64c0 98d1 01c0 7b16 d9bf ac0c 5bc0
00000050: b216 31c0 f9c0 0fc0 070d dabf 9c21 51c0
00000060: 367d 1ec0 d100 0fc0 979d 5ebf 4c07 5bc0
00000070: 0914 5ac0 241e 8dbf 79b3 80bf 1f12 cabf
00000080: bd92 0bc0 05fe 95bf 5b47 08c0 b011 50c0
00000090: ab09 61c0 6a89 0ebf 0da3 54c0 8200 8ebf
000000a0: 3515 4dc0 a13f 44c0 e503 42c0 ad04 f1bf
000000b0: 081d f4bf bcd6 acbf f3cd c9bf 551b 52c0
000000c0: 93d2 9dbf 8cb6 1bc0 d41d 1fc0 1c3c 2cc0
000000d0: 819e d0bf df57 65c0 7572 c4bf 5cad 60c0
000000e0: fc0e 3dc0 9dd4 4fc0 f679 3fc0 69fb 40c0
000000f0: 118e abbf ce25 5fc0 fefa 5bc0 72ec 02c0
-1.0839854 -3.5264025 -3.15561 -3.3796623 -3.301881 -3.1387997 -1.3103226 -3.3288865
-3.2994509 -2.5989072 -2.499142 -2.7733824 -2.063293 -3.6113102 -1.6077203 -2.4293332
-3.5779169 -2.0284176 -1.6959985 -3.4226484 -2.7670102 -2.246153 -1.7035226 -3.2676764
-2.4763923 -2.2344248 -0.86959213 -3.4223204 -3.4074728 -1.1024823 -1.0054771 -1.578678
-2.1808312 -1.1718146 -2.1293552 -3.2510796 -3.516215 -0.5567843 -3.3224518 -1.1093905
-3.2044194 -3.0663836 -3.0314877 -1.8829552 -1.907136 -1.3503032 -1.5765976 -3.2829182
-1.2329887 -2.4330168 -2.4861956 -2.6911688 -1.6298372 -3.5834882 -1.534743 -3.510581
-2.9540396 -3.247352 -2.991819 -3.0153449 -1.340273 -3.4866824 -3.4371943 -2.0456815

bayes_fc2.prior_mu_old f4 [1, 64]
00000000: 732b 6e3d 0f92 cb3d ebbb 69bd 17da e1bd
00000010: ac47 b0bd cd0e c73d 755b 983d 2692 aabd
00000020: cdc1 99bd 2cad e23d c0dd 2d3d 0ba4 ccbd
00000030: 54f6 84bd 35e2 bc3d 3439 dabb 38b9 e43e
00000040: e4d3 a83d 956a 363d a664 28bc adaa ad3d
00000050: dad8 d2bd 713d 76bd 3720 15bd 7a83 90bd
00000060: f758 933c 6f7c 923b 1006 093e 5a18 fa3d
00000070: 3611 963d 2bcc adbd 1cb0 78bd 8999 ff3c
00000080: 6643 2f3c e915 debb fcfd 7ebc b93b a33d
00000090: 1725 c1bd 21ae 823d 70af 62bd bbd8 0a3e
000000a0: b3c4 f2bd 6dd7 a6bd 8163 adbd 26ad 443c
000000b0: 5bab f63c 5da7 333d 7814 d9bd 12b1 a9bd
000000c0: 4dd2 d03d 1a38 f9ba ba30 343c 0d56 d0bd
000000d0: 0b52 903d 8b73 f63d 0f77 8bbc a9ff db3d
000000e0: ccf1 903d 2da6 e93d c76d e23d d822 8d3d
000000f0: 73ec 273d b609 9f3d d016 dabd 7501 a5bc
0.058146905 0.09939968 -0.05706398 -0.110279255 -0.0860742 0.0971962 0.07439319 -0.08328657
-0.07507668 0.11068186 0.042447805 -0.09992226 -0.06492296 0.09222833 -0.006659651 0.4467256
0.0824354 0.04453524 -0.010277903 0.084798194 -0.102952674 -0.06011719 -0.036407676 -0.07056327
0.017986758 0.0044704 0.13381219 0.12211676 0.073275015 -0.084862076 -0.060714826 0.031201141
0.010697221 -0.0067775142 -0.015563484 0.079703756 -0.094309025 0.06380869 -0.05534309 0.13559239
-0.11853924 -0.08146558 -0.084662445 0.012004172 0.030111006 0.043860782 -0.10599607 -0.082857266
0.10196362 -0.0019013912 0.010997945 -0.10172663 0.070468985 0.12033757 -0.017024545 0.10742123
0.07077369 0.11408649 0.110560946 0.068914115 0.04099698 0.07765524 -0.106488824 -0.020142296

bayes_fc2.prior_sigma_small f4 [1, 64]
00000000: 233b 943e 5173 003d 1b90 2f3d d2d2 123d
00000010: 8919 183d ee1b 393d 1f01 7a3e 6fc0 163d
00000020: 132a 1e3d ea73 9b3d 9f04 a83d eb75 823d
00000030: 928e fb3d 7235 ea3c d6a6 393e eba6 b43d
00000040: 94f9 f03c 09c0 003e 95f7 293e 3341 0a3d
00000050: e501 803d 2e97 ce3d 7190 223e b027 223d
00000060: b76a a63d 6c85 cb3d 384f b53e c05d 0d3d
00000070: d9bc 0e3d 2407 953e b249 a33e 1410 493e
00000080: 5908 d43d e7c6 8a3e 056f e33d 6a4d 203d
00000090: e404 013d eb77 e43e a4d1 163d 52c1 973e
000000a0: e399 2b3d a6cb 4e3d 8b79 473d 415b 113e
000000b0: d994 0f3e d7e4 6f3e dba2 443e d54c 1e3d
000000c0: e366 803e 1d73 ad3d 20c2 a33d 9d7a 883d
000000d0: 4143 3a3e 78e0 fa3c 0d85 433e 8c3d 003d
000000e0: 947d 533d 469b 1d3d 668a 483d 1e84 473d
000000f0: 7f3a 6e3e 944e fe3c 243b 0d3d 4c8a eb3d
0.28951368 0.031359974 0.04286204 0.035845585 0.037133727 0.04519265 0.2441449 0.036804613
0.038614344 0.07590468 0.082040064 0.06370147 0.122830525 0.028589938 0.18130049 0.088208996
0.029415883 0.12573256 0.16598351 0.033753585 0.06250361 0.10087429 0.15875413 0.03958863
0.08125823 0.099375576 0.35412002 0.034513235 0.034848068 0.2910701 0.31892163 0.1963504
0.10353155 0.27104875 0.1110516 0.039136328 0.031498805 0.4462274 0.036821023 0.2963968
0.041894805 0.050487183 0.048699897 0.14194967 0.14021625 0.23427139 0.1920275 0.03864749
0.25078496 0.08469222 0.07996011 0.066640116 0.18189718 0.030624613 0.19093724 0.031308696
0.051633433 0.03847816 0.048960112 0.04870998 0.23264502 0.031043328 0.03448023 0.115009874

exp_avg f4 [64, 6]
00000000: c78b d638 2dbb 2537 b890 2338 397b 8738
00000010: fcba 2439 7438 3338 0f0b 993a 2e53 8a3b
00000020: 35ce 1db7 6567 603a 2470 c33b 001d f239
00000030: c5b2 d739 3321 a93b b535 f337 8346 463a
00000040: 4fbb b83a 3a28 8cb5 4265 35bb 1d6d 0fbc
00000050: 5474 83b9 40f2 3ebb 8082 0ebc 571f 31b9
00000060: 38ab a33a 5277 df3b 35f1 3a38 4615 a1ba
00000070: 8fe8 0b3b 5467 2535 7720 0a3b eda0 4aba
00000080: 34df ae39 b88c 353b 791c a33b 5911 a738
00000090: 82c0 e838 7c71 2a39 062d efb7 7fa7 5db9
000000a0: cb57 04ba 8300 49b8 7231 deba 22f3 fdbb
000000b0: 6206 07b9 b307 01bb 09d8 94ba 2880 4bb9
000000c0: 1179 8abb b162 b4bb be77 8eb9 8191 91bb
000000d0: d6e1 d7bb fa0a a7b9 393f fc39 1f5d 08ba
000000e0: f1dc 8838 7269 683a 6ccc 6fbb 6022 be38
000000f0: ae0c 2c3a 2498 19b9 ad0a b7b7 3c78 e739
00000100: fc8b 0638 388a 06b8 89bd 0c3a 58d2 8fba
00000110: b929 82b8 426b 333a 7e35 a2ba e0db 79b8
00000120: 213b 4339 f567 853a 9ec5 6338 c1cf 9039
00000130: 3e39 efb8 6745 8c37 3458 223b 7dcb e13a
00000140: 283d fe39 a75c 063b 5e48 3c3c ebad 043a
00000150: 51b7 27b8 f122 1239 26b6 2bb7 8fde 3037
00000160: 987f a5b7 44ba 2536 4a68 053a 040f 0e3b
00000170: f45d b3b8 1e4e 2c3b ff80 603c dc11 41b9
00000180: 84ae a23b 7449 553c be14 0b39 3dce 3d3b
00000190: 86d4 9c3b 2e69 6039 1554 f9ba a06d abbb
000001a0: 1d1e 04b8 bbe8 e2ba 1f3b f8ba efdc 61b9
000001b0: eef1 7e38 f4e8 4db9 7c18 cb37 6674 17b9
000001c0: 458e 53b9 ae2b 46b6 8002 453b be4b e33b
000001d0: 812b 8c38 dc50 4a3b 10ce afba 9d78 a339
000001e0: ae57 19bb 6baf febb a84d 5eb9 8dd7 adbb
000001f0: 1df0 bbbb 169a e7b9 370d 8d39 128b 8d38
00000200: 971f ecb6 4eb5 ee38 4bf5 5739 2c54 b635
00000210: a32b 0d37 0667 9239 1401 d5b5 ae6b 4cb8
00000220: 54e4 ceb8 d914 47b7 650a 2fbb 8e1e bbbb
00000230: 1bd0 14b9 59c8 013b c6b8 bcba 742f 8b39
00000240: 3571 ef39 30b0 713a 1334 9937 e09f 3e39
00000250: 8e92 2b38 f487 2eb6 c27c fdb9 8882 98b9
00000260: 0cd8 3eb8 2439 0eb8 2d6d beb8 2326 12b8
00000270: 3f2e 703a 667c f93a 1ee0 fc38 e735 b1b9
00000280: f417 b1ba 362d 6739 67af c03a 9632 cd3a
00000290: 1fb8 8539 0769 4f3b 9ca5 5e3c 66f1 1e3a
000002a0: 2992 e5b9 339c b8ba ef92 94b8 1649 aaba
000002b0: d564 99bb 5707 72b8 59cd 8239 7f1a 083a
000002c0: db59 4b37 93ec 1f39 af6d 9c39 81df 8a38
000002d0: 7489 1639 982b 0b3a ca40 1a39 6d7b bb37
000002e0: 34cc b43a 472e b337 99b1 b137 2f72 e4b8
000002f0: fd89 aab7 8928 46b8 4f5c b3b5 f83e a036
00000300: 0fc5 b3b7 80bf 74b9 cfc9 73b6 c881 7739
00000310: 810a 9639 94e2 5237 3b3d 37b8 21d6 1c38
00000320: e1dc 22b8 d22d fc37 b89a 1bb9 82df d537
00000330: cdf6 95b8 c8e0 d3b8 9f8e 40b8 6da9 2f38
00000340: fd09 ac39 61f1 83b6 579b 94b9 6ee7 493b
00000350: 95ad b636 c676 3bba cec0 883b dee8 bd38
00000360: a562 ccba 093a d2bb b51e 21b9 4cb4 46bb
00000370: bb1b 2bbb 7d8b bbb8 4add 26b8 97bd f3b7
00000380: 65e0 cfb6 5731 f7b6 917e 18ba 9351 bcb8
00000390: 5cf7 d4ba 7b9b 7abb a87b 80b8 a688 9eb9
000003a0: bd6d ceba 5f5d 92b8 02fb 4eb9 90f6 adb9
000003b0: 169b d6b6 2d29 d538 d29c ffb8 6c9a 0138
000003c0: e565 66bb c3ef 39bc 47ee 4fb9 dc20 c0bb
000003d0: 14cc 29bc 6e64 0aba 81e9 b3ba 31a6 16bc
000003e0: 31fb e4b8 6f6a 75ba c53c d5bb a9d9 71b9
000003f0: fd5e 6e3a 7ecf ee3a 1af5 0739 9b6d 2dba
0.00010230351 9.878347e-06 3.899701e-05 6.460254e-05 0.00015709916 4.27295e-05 0.0011676269 0.0042213416
-9.405941e-06 0.0008560329 0.005964296 0.00046179444 0.0004114119 0.0051614284 2.8992867e-05 0.00075636077
0.0014093908 -1.044252e-06 -0.0027678763 -0.008754042 -0.00025072938 -0.0029136091 -0.008698106 -0.0001689171
0.001248694 0.006819644 4.4570497e-05 -0.0012289665 0.0021348333 6.161765e-07 0.002107648 -0.0007729668
0.00033354165 0.0027702283 0.0049777594 7.966412e-05 0.000110984794 0.0001625474 -2.8511986e-05 -0.000211386
-0.00050484826 -4.792261e-05 -0.0016951992 -0.007749931 -0.00012876981 -0.0019688427 -0.0011355887 -0.0001940733
-0.004225858 -0.005504929 -0.00027173565 -0.0044423942 -0.006588201 -0.000318609 0.0004811229 -0.00052018644
6.526139e-05 0.000886581 -0.003659035 9.066309e-05 0.0006563169 -0.00014647894 -2.1820271e-05 0.00044149335
3.207846e-05 -3.2076816e-05 0.0005368819 -0.0010972722 -6.2066545e-05 0.0006844291 -0.0012375561 -5.9571e-05
0.00018618676 0.0010178076 5.4305063e-05 0.0002762061 -0.0001140707 1.6721619e-05 0.0024771811 0.0017226782
0.0004849222 0.0020502002 0.011491863 0.0005061316 -3.998663e-05 0.00013936662 -1.0234804e-05 1.0542236e-05
-1.9728948e-05 2.4695337e-06 0.00050890876 0.002167643 -8.552885e-05 0.0026291679 0.01370263 -0.00018412567
0.0049646515 0.013018001 0.000132638 0.002896204 0.004786077 0.00021401487 -0.0019022251 -0.005231574
-3.1499298e-05 -0.0017311791 -0.0018938518 -0.00021539976 6.0783634e-05 -0.00019637105 2.4210887e-05 -0.00014443844
-0.00020175528 -2.9529724e-06 0.0030061305 0.0069365194 6.6838234e-05 0.003087095 -0.0013412852 0.00031179647
-0.0023398208 -0.0077723763 -0.00021200499 -0.0053052367 -0.005735411 -0.00044174556 0.00026903462 6.749308e-05
-7.0370256e-06 0.00011382495 0.00020595377 1.3584554e-06 8.414415e-06 0.00027924048 -1.587005e-06 -4.8737675e-05
-9.865375e-05 -1.1866178e-05 -0.0026709076 -0.0057104295 -0.00014191905 0.0019803254 -0.0014398328 0.000265475
0.00045669978 0.00092196744 1.826327e-05 0.0001817937 4.0906067e-05 -2.6007156e-06 -0.00048348872 -0.00029088953
-4.550074e-05 -3.3908655e-05 -9.0802416e-05 -3.484463e-05 0.00091621646 0.0019034266 0.000120580415 -0.0003380023
-0.0013511167 0.00022046719 0.0014700711 0.0015655335 0.00025504918 0.0031648295 0.013589289 0.0006063193
-0.00043787181 -0.0014084637 -7.0845585e-05 -0.0012991752 -0.0046812096 -5.7704132e-05 0.00024948528 0.00051919365
1.2120664e-05 0.00015251552 0.0002983636 6.6219836e-05 0.0001435632 0.0005308925 0.0001471072 2.2349612e-05
0.0013793767 2.1360012e-05 2.1182745e-05 -0.000108931556 -2.0329835e-05 -4.724463e-05 -1.3363405e-06 4.775702e-06
-2.1430225e-05 -0.00023340993 -3.632729e-06 0.00023604103 0.00028618056 1.256973e-05 -4.3687625e-05 3.739272e-05
-3.882952e-05 3.0062078e-05 -0.00014839589 2.5495658e-05 -7.150844e-05 -0.00010103133 -4.5909193e-05 4.188104e-05
0.00032813838 -3.9322044e-06 -0.00028344497 0.003080811 5.4442303e-06 -0.00071511825 0.0041733747 9.055597e-05
-0.0015593363 -0.0064156097 -0.00015365596 -0.0030319868 -0.0026109058 -8.9428366e-05 -3.9783576e-05 -2.9056142e-05
-6.1952037e-06 -7.3669175e-06 -0.00058171997 -8.979733e-05 -0.0016248035 -0.0038239646 -6.1265484e-05 -0.0003023792
-0.0015749257 -6.979214e-05 -0.00019739199 -0.00033180835 -6.3957514e-06 0.00010164301 -0.000121885576 3.0899813e-05
-0.0035155949 -0.011348668 -0.00019829824 -0.005863292 -0.010363597 -0.00052792474 -0.0013726206 -0.009194897
-0.00010918675 -0.0009361868 -0.0065074884 -0.00023064636 0.0009093134 0.0018219796 0.0001296591 -0.0006615759

exp_avg_sq f4 [64, 6]
00000000: 07f8 5837 b4c9 b636 40b6 aa33 5402 9036
00000010: 1ba0 3538 3a8b 7333 2950 2239 8033 673a
00000020: 29f8 9335 e8b9 fa38 09fa 7d3a a9ce 6a35
00000030: 6bd7 1638 3b1e e439 5b03 ee38 5338 5238
00000040: b529 4a39 5939 e134 12a3 0e39 6094 b03a
00000050: 6115 6135 1294 7c39 ed17 a93a 8b26 c235
00000060: f710 b538 a697 5a3a 8be6 0735 a1f3 f938
00000070: 6445 1d3a fbd2 6b35 e77d 3438 9f8e 2f39
00000080: efc5 fd34 dbdf 1b38 70a4 d939 9051 d234
00000090: 69dc 5c36 0fc5 9937 4f38 f333 0a4e 9d37
000000a0: e6a3 6538 9805 2b34 397d c637 8fc3 7d39
000000b0: bff0 4a34 b54c ac37 b291 7538 deb8 9f34
000000c0: 23c7 b138 72b2 553a 821f 0535 fc7f 0139
000000d0: 90e4 253a fe75 5e35 1d80 fe37 abee e838
000000e0: 9097 af34 00ac 4438 5426 af39 95d2 f034
000000f0: b128 a436 0077 9837 aa9d 5533 50b4 1536
00000100: 90c9 2637 6a0b 3733 cb03 8d37 a461 4439
00000110: 8b6b 2c34 5193 5538 2b92 1839 5faa b034
00000120: 1db5 2636 7d0c d637 015a 2433 da6a 9336
00000130: 808a 0337 d78a 5733 d8ce 3d39 3ab7 883a
00000140: 4844 a435 5d92 1a39 d247 a13a 8e75 8635
00000150: 7995 9a36 5f89 3a38 af3d fc33 950f 3637
00000160: bae0 b636 dc87 f433 84da 0b38 2cd1 e339
00000170: f8a5 2836 df1a e039 c740 4a3b a48e ca36
00000180: 1f16 1639 1906 673a b880 9235 528f 1d39
00000190: 47ef 953a cc5a 9335 78fb 0837 801a 7738
000001a0: 459d e333 ac09 6737 d7c7 1e38 3517 4f34
000001b0: 26ea 1536 4101 8737 18ab 8432 dd30 5d35
000001c0: cd63 4836 f225 2933 5d17 1439 a1f2 683a
000001d0: d491 8335 6152 0f39 2557 973a dc64 6035
000001e0: 9383 3e38 5d50 fb39 2fdd 9634 8a1a 8d38
000001f0: 758c 8639 05ec 0c35 b059 b936 513c 8338
00000200: 8ab9 c133 2dff 9036 489d b037 a9a0 2434
00000210: 1e06 9f36 f6d0 e437 0436 4a33 2ace c135
00000220: d840 e637 e0fb 4033 dc20 7438 4364 333a
00000230: 7e6c db34 07cc cc38 ae6b 083a 70c8 3635
00000240: f996 a435 9cf4 2737 3efd 7732 84ee fe35
00000250: 547f 5536 3ddf 4632 7d9e 0c36 9a1d 1237
00000260: 2b39 a932 49c1 b735 8670 0136 1e64 a832
00000270: 31c4 4f36 d254 9937 ef36 0734 e472 0237
00000280: 807e 9538 3eb1 9b34 04c3 5939 cd3b a83a
00000290: b85f da35 5bdf 5439 2e66 dc3a 57a2 c335
000002a0: 0955 c538 3a3c 013a f878 5335 5e8c a638
000002b0: b88c 413a 1d60 2b35 11b7 9736 fbbe 0338
000002c0: ea54 0634 4e03 9f36 502c 5737 8177 1034
000002d0: 16cb 0c37 728a a238 f3e5 4734 8e9c 2337
000002e0: 98e8 7437 296d d833 1b84 d336 0cbf 4e37
000002f0: b091 f533 d586 ed36 7906 7038 dec3 7a33
00000300: fb88 7d36 778a 3f36 456a 2533 bcd0 a136
00000310: e99b 3f37 5180 d732 034a 2937 0207 ab38
00000320: 8bf5 a533 5076 8936 28b6 2436 2634 3b33
00000330: 279f 2436 cf64 ee36 67c0 1933 b389 3936
00000340: 2ec0 b037 2e0e 6633 2100 6e38 1ae1 9d39
00000350: 5b46 0935 26ad 5138 5624 f339 8591 0535
00000360: 450b cc38 bd41 8b3a bf32 1835 5e03 1739
00000370: 7b62 5a3a c411 8435 3e88 aa36 5e50 9e36
00000380: 65f6 eb33 9d92 6737 b348 8c38 e1de 4734
00000390: e462 7237 381a 2039 5fb9 f233 2c7c 6637
000003a0: c2d4 cb37 edaa 3134 988c 9235 d6ef 8f36
000003b0: 81a4 2734 23ff 2537 1977 1836 0673 5c34
000003c0: 4442 2239 50fa bf3a 055a 7635 f2a2 8b39
000003d0: 019c b53a 261b e735 0616 3938 0034 003a
000003e0: 5d98 9334 8e2f 8b38 830f aa39 0c8b 0835
000003f0: 0994 1f38 ff2f 9f39 8d47 8d34 2b8f b438
1.2932352e-05 5.447504e-06 7.949393e-08 4.2918055e-06 4.3302873e-05 5.6704472e-08 0.00015479386 0.0008819625
1.1024578e-06 0.00011955557 0.0009688442 8.7472523e-07 3.596341e-05 0.00043510072 0.000113493494 5.0120358e-05
0.00019279758 4.1951242e-07 0.00013602924 0.0013471954 8.385014e-07 0.00024087753 0.0012900807 1.4465344e-06
8.6339125e-05 0.00083386374 5.0626903e-07 0.00011918625 0.0005999415 8.785134e-07 4.30326e-05 0.00016742431
4.7268938e-07 3.716336e-05 0.0004151198 3.9174893e-07 3.291085e-06 1.8330784e-05 1.1325812e-07 1.8752198e-05
5.4750497e-05 1.5927651e-07 2.366175e-05 0.00024200811 1.8900299e-07 2.0539717e-05 5.854824e-05 2.9750566e-07
8.47711e-05 0.00081518956 4.959221e-07 0.00012350077 0.0006328309 8.2873146e-07 3.0338817e-05 0.000111070774
3.2706566e-07 4.689023e-05 0.00033407158 4.4856702e-07 4.892318e-06 1.8175226e-05 4.973632e-08 2.2307686e-06
9.941301e-06 4.261839e-08 1.6810276e-05 0.0001872839 1.6057872e-07 5.0920356e-05 0.00014550301 3.2906516e-07
2.484135e-06 2.5516603e-05 3.8266084e-08 4.3933806e-06 7.8404555e-06 5.0184862e-08 0.000181015 0.0010430582
1.2238825e-06 0.00014741109 0.0012304729 1.0017991e-06 4.6069586e-06 4.4473793e-05 1.17458846e-07 1.0851673e-05
5.4501843e-06 1.1386848e-07 3.334369e-05 0.0004345266 2.5130557e-06 0.0004274463 0.0030861364 6.0366747e-06
0.00014313355 0.00088128593 1.091531e-06 0.00015026078 0.0011439108 1.0978779e-06 8.164781e-06 5.891407e-05
1.05991184e-07 1.3770925e-05 3.785625e-05 1.928682e-07 2.2339023e-06 1.6093838e-05 1.5444627e-08 8.240002e-07
2.9860414e-06 3.938289e-08 0.00014123083 0.0008886252 9.802702e-07 0.00013668231 0.0011546357 8.359327e-07
4.5422068e-05 0.00047934326 2.810061e-07 6.728347e-05 0.0002566312 5.249752e-07 5.5238706e-06 6.2578016e-05
9.021012e-08 4.321241e-06 2.1054075e-05 1.5332138e-07 4.7392814e-06 2.7277023e-05 4.7080917e-08 1.4439622e-06
2.7448332e-05 4.4932563e-08 5.8204736e-05 0.0006843248 4.0870867e-07 9.765481e-05 0.0005204034 6.809196e-07
1.2262891e-06 1.0010928e-05 1.4434873e-08 1.8993892e-06 3.1813588e-06 1.1575875e-08 2.0953878e-06 8.70917e-06
1.9700186e-08 1.3690816e-06 1.9287995e-06 1.9603302e-08 3.0959602e-06 1.8278519e-05 1.259284e-07 7.775354e-06
7.128436e-05 2.899996e-07 0.00020767382 0.0012835205 1.6270124e-06 0.00020301102 0.001681512 1.4575879e-06
9.409531e-05 0.0004929934 7.877966e-07 7.941642e-05 0.00073833345 6.384233e-07 4.5214624e-06 3.14107e-05
1.2510614e-07 4.738954e-06 1.2825316e-05 1.345452e-07 8.391935e-06 7.7505494e-05 1.8616974e-07 9.752008e-06
1.4597688e-05 1.007814e-07 6.303669e-06 1.2323038e-05 1.1435202e-07 7.078847e-06 5.7226487e-05 5.83858e-08
3.777967e-06 2.8541815e-06 3.8513708e-08 4.822474e-06 1.1420788e-05 2.5087646e-08 1.0090417e-05 8.155221e-05
7.728075e-08 4.0966916e-06 2.4543933e-06 4.358676e-08 2.4530543e-06 7.1046884e-06 3.5798077e-08 2.76473e-06
2.1070326e-05 5.3563944e-08 5.6743742e-05 0.00030113087 5.113886e-07 4.999074e-05 0.00046375644 4.975812e-07
9.729577e-05 0.001062445 5.669826e-07 0.00014401737 0.0008330715 9.839937e-07 5.0822555e-06 4.718123e-06
1.0987859e-07 1.3802809e-05 6.6892615e-05 1.8614402e-07 1.4447349e-05 0.00015268556 1.1302722e-07 1.3737979e-05
2.4298559e-05 1.6546592e-07 1.0918766e-06 4.2896527e-06 1.5612933e-07 9.89417e-06 2.271909e-06 2.0530942e-07
0.0001547421 0.0014646742 9.1773137e-07 0.0002663355 0.0013855697 1.7218742e-06 4.4127948e-05 0.0004890561
2.7491743e-07 6.636894e-05 0.00032436484 5.086629e-07 3.8046423e-05 0.00030362603 2.6315357e-07 8.609736e-05
