lightning_logs/version_80/checkpoints/epoch=49-step=800.ckpt (torch, 30427 bytes, 24 tensors)

bayes_fc1.weight_mu f4 [64, 6]
000000 ab c6 83 be 64 f9 f0 be 08 aa 1c be bd a2 a5 be
       -0.2573751 -0.4706527 -0.15299237 -0.32350722
000010 e1 d3 5e be 8f 83 31 be c7 0b ef 3e 21 7f c2 bd
       -0.21760513 -0.17335342 0.46688673 -0.09496904
000020 b5 7e b9 3e 8a 21 c8 be ff 9c f4 3d 5e 10 35 be
       0.36229482 -0.39088088 0.11944007 -0.17682025
000030 5b 3e b3 be ac b8 e9 3d 80 cb 8c be 61 85 25 3e
       -0.3500851 0.114121765 -0.27499008 0.16164161
000040 c3 95 20 be 53 20 3f bc ad aa a7 be 10 77 08 3e
       -0.1568213 -0.011665422 -0.32747403 0.13326669
000050 37 b9 ea be 18 1e db 3e 12 37 c6 bd b9 7d 8d bd
       -0.45844433 0.42796397 -0.096784726 -0.06908745
000060 6d a5 ab be 73 05 0f 3e e5 8b b6 be 70 72 8a 3e
       -0.33524647 0.13966922 -0.35653606 0.27040434
000070 2f d4 0f be d5 05 b7 bc 7d 14 1c 3e 6f d4 d5 bd
       -0.14045785 -0.022341648 0.1524219 -0.10440909
000080 29 8a da 3e 0c 42 61 be c3 b8 e2 3d 7f dc 98 bd
       0.42683533 -0.21997851 0.11070397 -0.07463931
000090 05 1b 6d be 05 df aa be 88 99 04 bd fd 2d 36 be
       -0.23154838 -0.33373275 -0.03237298 -0.1779098
0000a0 6b 8b ac be 20 3f 81 bd 62 41 dd be 52 18 2e 3e
       -0.33700117 -0.06310868 -0.43213946 0.17001465
0000b0 6a a8 70 be 95 35 da bc 7a c8 9e be 07 d5 97 3c
       -0.23501745 -0.026636878 -0.31012326 0.018534197
0000c0 2c 4e 8a be 7c 25 e1 3d cd 15 0a bf 1e 02 da 3e
       -0.27012765 0.10993478 -0.53939515 0.4257974
0000d0 8b e4 fd bd a6 64 8b 3b a6 86 22 be 18 19 7f be
       -0.12397107 0.0042539416 -0.15871677 -0.24911916
0000e0 0e e4 16 bd a8 64 4c be eb 9b cc bb 13 63 27 bc
       -0.036838584 -0.19960272 -0.006244173 -0.010216492
0000f0 6e ae 8f be 02 72 80 be 94 30 ed bd f7 79 8e be
       -0.28062767 -0.2508698 -0.11581531 -0.27827427
000100 23 96 02 bc 4b fb b7 bd 0e d8 47 be ec 1d e4 3c
       -0.007970366 -0.08983477 -0.19516012 0.0278463
000110 2d 0d 1f bf 37 28 eb 3e b1 30 97 bd 81 23 93 bd
       -0.6212948 0.4592912 -0.07382334 -0.07184506
000120 88 77 6f be df db 83 bd 17 27 d7 bd 27 2f 25 be
       -0.23385441 -0.064384215 -0.10505503 -0.16131268
000130 16 8f c4 be 5a 8c a8 bd 73 57 ee 3e 72 96 de bd
       -0.38390416 -0.08229895 0.46551093 -0.10868539
000140 6d f6 ab 3e d1 03 ab be 46 e8 fd 3d 30 3b af bd
       0.33586445 -0.3340135 0.12397818 -0.08556211
000150 a7 e2 8f bd 59 c5 2d be 59 35 71 bd e8 03 c7 be
       -0.070256524 -0.16969813 -0.058888767 -0.38870168
000160 f6 47 c7 be 3a df 05 be 83 f5 df be ee f9 70 be
       -0.3892209 -0.13073435 -0.43741998 -0.2353284
000170 9e 18 ba 3d 31 f1 1b be 91 47 7d 3c bd 27 7b 3e
       0.090867266 -0.15228726 0.015458957 0.24526878
000180 a8 3d 9e 3e fa 43 f3 bd 2a d1 1b 3f 9c 01 b7 be
       0.30906415 -0.118782 0.60866034 -0.35743415
000190 7c b2 22 3e ad e6 ba bd 6b 78 93 be 0f 33 95 bd
       0.15888399 -0.09126029 -0.2880281 -0.07285129
0001a0 9b 21 8f bd f0 71 24 be b0 28 52 be cd d6 9e bb
       -0.069888316 -0.16059089 -0.20523334 -0.0048473836
0001b0 81 4d 5d be 4b 56 78 be 90 94 f6 bd ed 30 97 be
       -0.21611597 -0.24251668 -0.12040055 -0.29529515
0001c0 c3 51 90 be 10 82 e3 bd 4a d2 88 3e fc bb 96 bd
       -0.2818738 -0.11108792 0.26722938 -0.07360074
0001d0 65 eb f1 3e 08 88 b4 be d5 e8 27 3e 6a 87 40 be
       0.47249904 -0.35260034 0.16397412 -0.18801656
0001e0 f5 bf 94 be ee 24 61 3d 5f 48 bf be fa 2f 84 3e
       -0.29052702 0.05496686 -0.37359902 0.25817853
0001f0 f1 ab d7 bd 91 d9 85 3d e6 01 95 be 9b cf 00 3d
       -0.10530842 0.06535638 -0.2910301 0.031447988
000200 23 8a 23 be 08 27 85 be 7d 99 e5 bd 7a 54 4e 3c
       -0.15970664 -0.2600634 -0.11210916 0.012593383
000210 c8 88 57 be 76 46 a3 be 3e b6 00 be a4 5c a7 be
       -0.21048272 -0.31889695 -0.1256952 -0.32687867
000220 19 00 b5 be cf 72 e8 bc 75 5b aa be a7 a7 a1 3d
       -0.35351637 -0.028375058 -0.332729 0.07893305
000230 88 d8 76 be b2 37 40 3e a5 2b 3c be 01 23 b7 bc
       -0.24106038 0.18771246 -0.18376024 -0.022355558
000240 bf b6 cf bc 0d 1d e4 bd 85 23 01 be 87 df a9 be
       -0.025355695 -0.111383535 -0.12611206 -0.3317835
000250 4a 65 b6 be ce c3 4b bd 5a 1e 62 be c5 7d 8e be
       -0.35624152 -0.04974728 -0.2208189 -0.2783033
000260 6a 4b 20 be 1d 74 2c bb a0 5b c3 be 00 01 2c bd
       -0.15653768 -0.0026314326 -0.38155842 -0.04199314
000270 ff 33 a4 be 3a 33 f9 bd ff 81 d8 bc 25 fe 93 be
       -0.3207092 -0.12167974 -0.026429174 -0.28904834
000280 48 db 1c be 84 f2 75 bd df fd 66 3e 12 6e c3 bd
       -0.15318024 -0.060045734 0.22557782 -0.095424786
000290 84 95 18 3f 62 a7 b2 be e3 df 2e 3e a2 6b b7 bc
       0.5960314 -0.34893328 0.17077594 -0.02239019
0002a0 3e 1a ad 3e e9 ca 8f bd 28 42 bd 3e 4b 9d 8c be
       0.33809084 -0.07021124 0.36964536 -0.27463755
0002b0 bb 23 e0 3d 8c e5 f0 3d a3 d1 4a be aa 6d 8c be
       0.10944315 0.117625326 -0.19806533 -0.27427417
0002c0 66 0d 0a bc 80 cc 5d be 62 bf 85 be 41 c6 01 be
       -0.008426046 -0.21660042 -0.26122576 -0.12673284
0002d0 be 3a 82 be 7e c6 42 be ee a3 3c be 1c 2d c8 3c
       -0.25435442 -0.19021031 -0.18421909 0.024435572
0002e0 62 da 96 be 13 05 e8 bd 8e 40 0e be 31 ec 88 be
       -0.29463488 -0.11329093 -0.13891813 -0.267427
0002f0 71 68 0b bd 6c ef 06 be c2 5f d1 be 59 36 d2 bd
       -0.03403515 -0.1317727 -0.4089337 -0.10264272
000300 34 50 f6 bd 4d a9 3a be 12 25 12 be 2b 92 3d be
       -0.12027016 -0.18228646 -0.14271954 -0.1851279
000310 06 7c 2e be b5 b4 87 bd b9 d3 91 be 38 95 59 be
       -0.17039499 -0.06626264 -0.28481844 -0.21248329
000320 d2 bc 21 bd c2 4e ae be 79 f5 64 be a6 51 01 bd
       -0.039486714 -0.34044462 -0.22359265 -0.031572007
000330 e3 ff 20 be a6 8c 17 be ef 25 2a be 23 d4 93 be
       -0.15722613 -0.14799747 -0.16616033 -0.28872785
000340 83 15 c4 be 17 f0 65 be d0 c9 a0 3d 2e 86 23 be
       -0.38297662 -0.22454868 0.07850993 -0.15969154
000350 33 64 9a 3d fa c3 ef be 54 e1 e8 3d ee c6 61 bc
       0.07538643 -0.46829206 0.11371103 -0.013780339
000360 f7 f1 c2 be 05 d0 57 3e 70 46 f0 be 32 4a 52 3e
       -0.3807523 0.21075447 -0.4692874 0.20536116
000370 71 d8 a1 bd e6 bf 03 3e fd 27 9e be 53 ad 8e be
       -0.07902611 0.12866172 -0.30889884 -0.2786661
000380 25 ac 61 3d e3 86 ac be df c1 a0 be 17 e0 af bd
       0.05509581 -0.3369666 -0.31397912 -0.085876636
000390 50 0d a2 be f6 04 12 3e ff 77 b9 bd 77 cb b9 bd
       -0.31650782 0.14259705 -0.090560906 -0.09072011
0003a0 0f 81 9e be e1 74 96 bd b7 fc 14 be 56 c4 1a be
       -0.3095784 -0.07346512 -0.14549528 -0.15113959
0003b0 81 b3 d5 3c 6e c7 99 bd a7 26 96 be 21 35 1b 3e
       0.02608657 -0.07508741 -0.29326364 0.15156986
0003c0 99 44 b5 be 01 8e e7 3d 50 7d e7 be 46 69 9c 3e
       -0.35403898 0.11306382 -0.45212793 0.30549067
0003d0 bc dd c8 bd 8d 05 c2 3d f2 06 a3 be ab 9b 8b 3d
       -0.098079175 0.09473715 -0.31841236 0.06816801
0003e0 20 68 8b be 05 cf 46 3e 64 a0 06 be 58 c1 76 3a
       -0.2722788 0.19414909 -0.13147122 0.0009412966
0003f0 0f 24 82 be 75 da 55 3d 3a 4e bf be d1 59 f5 3e
       -0.25418136 0.05221029 -0.3736437 0.47920087

bayes_fc1.weight_rho f4 [64, 6]
000000 e3 7c 98 bf 48 30 a9 bf be 98 df 3e ab a8 7d bf
       -1.1913112 -1.3217859 0.4367122 -0.9908549
000010 29 2c ef bf db d4 e8 3e 11 3d 14 c0 9a 38 42 c0
       -1.8685352 0.45474896 -2.3162272 -3.0347047
000020 48 20 d6 bd 39 59 0a c0 0c 55 40 c0 06 d2 8b 3d
       -0.10455376 -2.1616957 -3.0051908 0.06827168
000030 7a 17 0b c0 10 18 3b c0 c0 1a b1 3d 04 86 dd bf
       -2.173308 -2.9233437 0.0864768 -1.7306523
000040 7c 02 36 c0 28 d3 47 3c 7a c3 23 c0 cf ad 5c c0
       -2.8439016 0.01219634 -2.558806 -3.4481084
000050 f2 c6 16 be fb 1b 30 c0 62 3b 5a c0 07 bc 88 be
       -0.14724329 -2.7517078 -3.4098744 -0.26705953
000060 4f 83 0e c0 18 2d 42 c0 b6 5d 97 bb 07 d5 06 c0
       -2.2267644 -3.0340023 -0.0046193255 -2.1067522
000070 96 c6 3c c0 7c 89 d0 be c1 fb f6 bf 63 e1 2e c0
       -2.9496207 -0.40729892 -1.9295579 -2.7325065
000080 96 a2 47 bd c3 f4 0e c0 9a 0b 3c c0 4b 39 44 bd
       -0.04873904 -2.233689 -2.938208 -0.0479062
000090 58 3e 5d bf 30 9e df bf 34 e6 bb 3e 1e c9 6c bf
       -0.86423254 -1.747015 0.3669907 -0.9249438
0000a0 39 c3 e5 bf 4b 59 96 3e 5f 47 ce bf e5 56 29 c0
       -1.7950202 0.29365 -1.6115531 -2.6459286
0000b0 b4 b4 83 3e e5 1f 95 bf 3a 20 06 c0 f1 94 66 3e
       0.25723803 -1.1650358 -2.095717 0.22517754
0000c0 18 f2 19 c0 c5 6b 4d c0 71 ca 46 bd e0 f1 1f c0
       -2.4054012 -3.2097027 -0.048532907 -2.4991379
0000d0 db e4 45 c0 c7 e5 73 be 88 ff a3 bf 81 9e 0c c0
       -3.0920932 -0.23818122 -1.2812357 -2.1971743
0000e0 b9 2d 8a 3e 75 32 de bf 90 76 19 c0 a5 fc 18 3e
       0.2698801 -1.7359148 -2.3978615 0.14940126
0000f0 c5 75 5b bf b1 47 04 c0 a5 d1 c5 3e e9 cc 84 bf
       -0.8572658 -2.0668757 0.3863651 -1.0375034
000100 5f 11 06 c0 d0 7c 07 3f c5 40 17 c0 8f 48 44 c0
       -2.0948102 0.52924824 -2.3633282 -3.0669286
000110 7b 45 34 bd ce 52 1f c0 b8 aa 4d c0 a3 57 50 be
       -0.044011574 -2.489429 -3.2135448 -0.20345931
000120 4b 35 b6 bf 17 8a 1e c0 d3 92 ab 3e 7e da 9a bf
       -1.4235014 -2.4771783 0.33510455 -1.2097929
000130 82 88 cf bf 31 5a d4 3e 5e 61 2d c0 01 97 58 c0
       -1.6213534 0.4147506 -2.7090678 -3.3842165
000140 e9 6a b5 be 3e 03 28 c0 52 c0 55 c0 12 26 b8 be
       -0.35433128 -2.625198 -3.3398633 -0.35966545
000150 cd 66 cb bf 69 18 11 c0 c1 42 a3 3e d4 4b 8d bf
       -1.5890747 -2.2671149 0.31886867 -1.1038766
000160 7b 0f dd bf 09 ab cb 3e b4 e8 b3 bf 5b 8a 1b c0
       -1.7270349 0.39778927 -1.405539 -2.4303195
000170 35 f7 a2 bd c1 7e 16 c0 77 b5 3c c0 d5 b5 9b be
       -0.07957307 -2.3514864 -2.9485757 -0.30412164
000180 10 72 0c c0 ad 8a 47 c0 8a f5 cd bc 3b e8 1b c0
       -2.1944618 -3.117839 -0.025141496 -2.4360492
000190 f4 89 4b c0 58 08 aa bd 3c d6 ab bf 3c 9e 0b c0
       -3.180295 -0.08302373 -1.3424754 -2.1815329
0001a0 6b d4 c6 3e 9d 3e 9d bf e1 bc f2 bf fc 31 98 3e
       0.38833937 -1.2284733 -1.8963891 0.29725635
0001b0 74 32 97 bf 5f be f8 bf e0 b4 db 3e 86 9c 97 bf
       -1.1812272 -1.9433097 0.42911434 -1.1844642
0001c0 f0 8e fa bf c1 39 92 3e 23 9d 28 c0 00 f3 55 c0
       -1.9574871 0.28559688 -2.6345909 -3.3429565
0001d0 39 66 2d be 38 d7 25 c0 d2 bc 52 c0 2b 28 4e be
       -0.16933526 -2.591261 -3.2927747 -0.2013251
0001e0 58 90 02 c0 af 30 39 c0 f2 29 33 bc 72 d9 08 c0
       -2.04006 -2.8935964 -0.0109352935 -2.1382718
0001f0 57 fe 41 c0 8a ee 0f be 28 a3 da bf f9 3a 2a c0
       -3.0311487 -0.14055839 -1.7081041 -2.6598494
000200 bd 1c 40 3e 9f 42 b5 bf 60 d8 1c c0 ab ad 2e 3e
       0.18760963 -1.4160956 -2.4507065 0.17058437
000210 b6 59 40 bf 82 4e e4 bf bb 99 02 3f 0b 21 14 bf
       -0.7513689 -1.7836459 0.51015824 -0.5786292
000220 44 56 a6 bf 97 89 eb 3e 96 13 f9 bf 53 d4 29 c0
       -1.2995076 0.4600341 -1.9459102 -2.6535842
000230 fc 18 32 3e c0 29 ee bf 3c 90 1f c0 72 23 c5 3d
       0.17392343 -1.8606491 -2.4931784 0.09625901
000240 bd 40 96 bf 3a df 03 c0 0a 88 de 3e 9c 9a 2f bf
       -1.1738507 -2.0604997 0.43463165 -0.6859529
000250 8a 78 ca bf e2 10 f4 3e 5f 78 8a bf 8a 1c f1 bf
       -1.5818036 0.4766913 -1.0817984 -1.8836834
000260 04 d4 d7 3e 9f 3b 93 bf 3b 36 c1 bf 8b d3 ce 3e
       0.42153943 -1.150257 -1.5094675 0.4039577
000270 ca 53 b6 bf 98 25 21 c0 3c 46 75 3e 7f d1 ba bf
       -1.424432 -2.5179195 0.23952574 -1.4595183
000280 6e 6e 1a c0 5c 97 94 3e d9 4e 2e c0 c5 22 5b c0
       -2.41299 0.29021728 -2.7235625 -3.4239972
000290 fa cd 2f bf ef 6a 37 c0 77 4f 68 c0 9f c7 1c bf
       -0.6867367 -2.8659017 -3.6298501 -0.612421
0002a0 ae 74 36 c0 f2 15 69 c0 71 ce 2e bf 26 a0 34 c0
       -2.8508716 -3.6419644 -0.68283755 -2.8222747
0002b0 b6 5b 68 c0 4d 75 17 bf de 11 93 bf 94 d1 ee bf
       -3.6305976 -0.5916336 -1.1489828 -1.8657708
0002c0 7f ea c0 3e 48 cd 98 bf 2d 2f e5 bf 4d 45 1f be
       0.37678906 -1.1937647 -1.7905022 -0.1555378
0002d0 fa ce ad bf 84 64 05 c0 8a ba 97 3e d9 a8 d4 bf
       -1.3578789 -2.08426 0.29634506 -1.6614028
0002e0 d5 4e 02 c0 02 04 70 3e cd a6 90 bf e8 c1 ef bf
       -2.0360615 0.23439029 -1.1300904 -1.873105
0002f0 b6 12 8b 3e 6d 7e 85 bf 28 4a b8 bf 55 60 d3 3e
       0.27162713 -1.0429207 -1.4397631 0.41284433
000300 37 55 97 bf 44 40 00 c0 cd 86 9f 3e 27 7c 8a bf
       -1.182288 -2.0039225 0.31157532 -1.0819138
000310 ff 8b 09 c0 8e 34 d2 3e 0b 4e 86 bf b5 3b ff bf
       -2.1491697 0.4105572 -1.0492567 -1.9940096
000320 76 09 94 3e e7 73 95 bf c6 93 01 c0 a4 72 9c 3c
       0.28913468 -1.1675996 -2.0246444 0.019097634
000330 99 87 a2 bf eb d0 0a c0 24 ba ba 3e 78 6a 58 bf
       -1.2697631 -2.1690013 0.3647014 -0.8453746
000340 06 a7 da bf 2b 8c e5 3e 7e 71 c4 bf bf eb 10 c0
       -1.7082222 0.44833502 -1.5347135 -2.2643888
000350 7f 72 37 3e bf 83 c5 bf 83 17 29 c0 44 d7 0d bb
       0.1791477 -1.5430831 -2.64206 -0.00216432
000360 34 4a 16 c0 05 f6 52 c0 1b b2 03 be 40 9b 17 c0
       -2.348279 -3.2962658 -0.1286091 -2.3688507
000370 64 2a 50 c0 f1 95 a3 bd 06 9a 86 bf 33 74 ef bf
       -3.2525873 -0.079875834 -1.0515754 -1.8707336
000380 09 fe 7e 3e 62 98 7b bf 75 fe e0 bf 1a 0b 9b 3e
       0.24901594 -0.9827939 -1.7577654 0.30281907
000390 ec e0 c1 bf 4b 8d 1b c0 36 78 53 3e 14 4d 99 bf
       -1.5146766 -2.4304988 0.20651326 -1.1976647
0003a0 d6 70 06 c0 fc 04 9c 3e 70 0b d5 bf b9 6e 21 c0
       -2.100637 0.30472553 -1.6644115 -2.522383
0003b0 22 5e ec bc de f8 ee bf aa f8 f4 bf 55 2b 5f bd
       -0.02885348 -1.8669698 -1.9138386 -0.054484684
0003c0 93 24 1a c0 b5 d7 47 c0 81 95 95 bd 4b 56 0e c0
       -2.4084823 -3.1225407 -0.07303906 -2.224017
0003d0 b2 2c 49 c0 b6 2a 2c bd d9 e9 07 c0 0d ba 36 c0
       -3.143353 -0.04203292 -2.123648 -2.8551056
0003e0 41 f5 0a 3e 2e de 04 c0 ae 10 30 c0 af 81 65 bd
       0.1357012 -2.0760608 -2.751018 -0.05603188
0003f0 21 6a fe bf c2 52 38 c0 b7 26 c5 3d 32 e0 03 c0
       -1.9876138 -2.8800511 0.09626525 -2.0605588

bayes_fc1.bias_mu f4 [64]
000000 31 ee 3a bc 26 23 9b 3d f6 f4 b1 bc 72 7b 05 bd
       -0.011409328 0.075750634 -0.021723252 -0.03258843
000010 f3 43 8e 3c 8d 09 14 3d 17 df b7 3c 59 da 46 bd
       0.017366385 0.03614192 0.022445245 -0.048548076
000020 ab fc 28 bd cb 92 2c 3c 04 d2 f3 3c ad c0 33 bd
       -0.041256588 0.010533045 0.02976323 -0.04388492
000030 39 d3 fc 3b 2b 2c 0e 3d 90 49 0d bd 1c 7b 1b 3c
       0.0077156094 0.03471009 -0.034493983 0.009489801
000040 71 f4 18 3d b5 80 4e bc 08 87 ba 3c 35 4e 1a 3d
       0.037342492 -0.012603928 0.022769466 0.03767224
000050 ba 65 5f bd 47 a5 ed bc 70 1e fe bb c5 b2 ce 3b
       -0.054540373 -0.029009474 -0.0077550933 0.006307932
000060 cf ea 8f bb 71 52 ba 3a 47 70 cd bc b9 4f eb 3c
       -0.004392005 0.0014215243 -0.025077952 0.028724538
000070 73 db 16 3d cf 05 ca 3c 82 5a a2 bc b8 12 e7 bb
       0.036830377 0.024660973 -0.019818548 -0.007051792
000080 16 fe b7 bc 71 6b c0 bc 60 8e f0 bb a3 d4 40 3c
       -0.022460025 -0.023488732 -0.007341191 0.011769447
000090 52 b5 b7 bc 2e e4 13 3c 2c d5 69 bc 28 2f 18 3d
       -0.022425327 0.00902657 -0.014272016 0.037154347
0000a0 d2 b7 3d bd ff 36 27 bd e4 80 49 bc 76 96 ba bc
       -0.046317883 -0.040823933 -0.012298796 -0.022776823
0000b0 27 e0 0e bd fd c0 98 bc 02 05 f9 3b 57 44 01 bd
       -0.034881737 -0.018646711 0.007599474 -0.031559315
0000c0 6a 49 ce 3c f0 5f 8a bc ef 17 6c bc 48 7d b3 bc
       0.02518149 -0.01689145 -0.014410003 -0.021910325
0000d0 53 64 04 bb d4 71 35 3d 32 7b 68 3c 25 39 af 3c
       -0.00202014 0.044298008 0.014189528 0.021389553
0000e0 e8 ea 3a 3d d4 f3 0c 3d ff 2b 4b 3c da 29 4c bc
       0.04563418 0.03441222 0.012400626 -0.01246115
0000f0 f1 2b 22 3b 7d f9 2b 3b b8 58 0b bd 2e a5 59 bb
       0.002474543 0.0026241236 -0.034020156 -0.0033210027

bayes_fc1.bias_rho f4 [64]
000000 c1 2b d1 be bf af 8b bf ce c7 7f bf 29 d4 a6 bf
       -0.40853694 -1.0913008 -0.9991425 -1.3033496
000010 5c ba 9c bf 14 fc 80 bf 67 37 f1 be bf 87 31 bf
       -1.2244372 -1.0076928 -0.4711258 -0.6934776
000020 95 c0 97 bf 8a 75 3d bf 22 9b cf be e4 8b 9a bf
       -1.1855646 -0.74007475 -0.40548044 -1.2073941
000030 eb 59 1b bf 67 17 b3 bf e4 81 16 bf d9 f3 91 bf
       -0.6068408 -1.3991517 -0.5879195 -1.1402541
000040 c4 b0 8e bf d4 d4 0b bf e5 3a 0a bf 2d 68 ac bf
       -1.1147695 -0.54621625 -0.53996116 -1.3469292
000050 8b 9d 8d bf a5 f6 48 bf 6d 10 a6 be 76 b4 66 bf
       -1.1063703 -0.7850135 -0.32434407 -0.9011911
000060 f1 4b d6 be b6 68 e7 be f3 b7 30 bf e5 13 d6 bf
       -0.41854814 -0.45197076 -0.69030684 -1.6724821
000070 71 7b d4 bf e7 0e 27 bf da e3 2c bf 59 b7 fb be
       -1.6600171 -0.65257114 -0.67535174 -0.4916332
000080 7f b7 07 bf 2d 7f 26 bf 44 09 ea be ca 24 45 bf
       -0.5301437 -0.65037805 -0.45710194 -0.7700926
000090 aa 7e 96 bf ee 87 05 bf 23 17 28 bf 59 3b 68 bf
       -1.1757405 -0.5216054 -0.65660304 -0.9071556
0000a0 73 26 92 bf 8f 02 81 bf 73 1c 85 bf a3 45 09 bf
       -1.1417984 -1.0078906 -1.0399307 -0.5362188
0000b0 fa 33 d6 be f2 70 17 bf 6c 54 31 bf 54 05 77 bf
       -0.4183653 -0.59156716 -0.6926944 -0.96492505
0000c0 07 ba 10 bf 36 88 00 bf 9e 05 21 bf bf bd 33 bf
       -0.56533855 -0.5020784 -0.62899196 -0.70211405
0000d0 5c db e4 be 7b fa bd bf 50 8b 11 bf ad 8d 9c bf
       -0.44698608 -1.4842066 -0.568532 -1.2230736
0000e0 1c 4a 90 bf 41 63 93 bf 92 7a 81 bf f5 fa 2f bf
       -1.1272616 -1.1514665 -1.011553 -0.68742305
0000f0 ac ed d5 be 95 31 7e bf 8c 85 ae bf fc d3 1c bf
       -0.41782892 -0.99294406 -1.3634505 -0.6126096

bayes_fc1.prior_mu_old_bias f4 [64]
000000 45 f8 60 bc c9 d9 71 3c 76 94 87 bc a4 df 73 bc
       -0.013731067 0.014761397 -0.016550284 -0.014884863
000010 45 95 ac 3b cb ec e3 3b 78 2d b6 bc 7c d8 8f bc
       0.0052668178 0.006955718 -0.022238478 -0.017559282
000020 e4 df 8f bc bc 37 26 3c 04 48 01 3c ce 19 fc bc
       -0.017562814 0.010145124 0.007890705 -0.030774023
000030 65 04 8d bc 50 61 d0 3c 0d 9c fa bc 00 1e eb bb
       -0.01721401 0.025437027 -0.030591989 -0.007175207
000040 00 24 81 3d 76 4e 5b bc 13 5c 56 ba 29 5a 02 3d
       0.063056946 -0.013385406 -0.0008177172 0.031824265
000050 a8 e0 eb 3b ee 53 97 bc 1c 72 f7 bb f1 2e c7 3a
       0.007198412 -0.018472638 -0.0075514447 0.0015196485
000060 84 db bd 3a 9e 95 aa bc d6 85 0c bd f5 74 e8 3b
       0.0014484976 -0.020823296 -0.034307323 0.0070940205
000070 c1 c8 df 3c 3f 88 ed 3b 75 da b3 3b 95 4f d9 bb
       0.027317407 0.007248908 0.0054886886 -0.0066318014
000080 39 88 b5 bc 20 0d 0c b8 c9 79 a5 bc 02 7a 5a 3c
       -0.022159683 -3.3390825e-05 -0.020199673 0.013334753
000090 86 ff c8 bc 07 4f 72 bc ae fd 03 b9 19 8c 59 bc
       -0.024535906 -0.014789349 -0.00012587637 -0.013278031
0000a0 2c 22 d0 ba a1 f3 22 bb de c6 5b bc 77 18 70 3b
       -0.0015879325 -0.0024864452 -0.013414113 0.0036635676
0000b0 75 2e e3 bc 9c 7c 71 bc 9c 4a ca bc 4c 39 9e bb
       -0.027732113 -0.014739182 -0.02469378 -0.0048286077
0000c0 74 2f 3e 3c 26 82 0c bc 38 32 75 bc 58 98 9e b7
       0.011607993 -0.008575952 -0.014965586 -1.8906008e-05
0000d0 f6 da 28 bc f3 b2 c5 3c 0e 45 c6 3a 68 b4 ac 3c
       -0.010306111 0.024133181 0.0015126781 0.021082118
0000e0 cd b4 ed 3a ea 86 ff 3c c8 37 f3 ba a8 b4 4e bd
       0.0018135548 0.031192262 -0.0018556053 -0.050465256
0000f0 d0 11 1c bd c8 5f 8b bc ed 9d 6f 3c de b1 5a 3c
       -0.038102925 -0.017013445 0.014625055 0.013348071

bayes_fc1.prior_sigma_small_bias f4 [64]
000000 20 12 02 3f 67 a8 8c 3e 6f fa 98 3e bb 26 6f 3e
       0.50808907 0.2747223 0.29878566 0.23354618
000010 05 69 7f 3e 10 98 9f 3e 3c 45 f6 3e 7d 8d d2 3e
       0.24942406 0.31170702 0.48099697 0.41123572
000020 c3 12 82 3e 54 84 c7 3e 38 8d 00 3f a7 2f 86 3e
       0.2540494 0.38968146 0.5021548 0.2620823
000030 19 b1 d8 3e 7f b5 5c 3e 73 2a e3 3e 1f 96 8c 3e
       0.42322615 0.2155361 0.44368324 0.27458283
000040 e9 d6 8a 3e 4c 02 e9 3e c4 e8 ea 3e 1d 52 77 3e
       0.27117088 0.45509565 0.4588071 0.24152417
000050 c6 61 8f 3e d5 0d b5 3e 17 9b 0c 3f 15 b7 aa 3e
       0.28004283 0.35362116 0.5492415 0.33342806
000060 01 6a 00 3f 92 68 fc 3e 62 b0 cd 3e e8 98 2d 3e
       0.5016175 0.4929853 0.40173632 0.1695286
000070 59 2e 2c 3e 11 15 d4 3e 36 ca d1 3e 96 1f f8 3e
       0.16814555 0.41422322 0.40974587 0.48461598
000080 61 bc ee 3e 43 4d d4 3e 3a 57 f7 3e 89 ca be 3e
       0.46628097 0.41465196 0.48308736 0.37263897
000090 e4 34 87 3e e5 02 e9 3e 13 ef d1 3e 95 8e ac 3e
       0.2640754 0.4551002 0.41002712 0.3370253
0000a0 51 37 8a 3e 15 41 9c 3e 5c eb 9c 3e 44 95 e9 3e
       0.26995328 0.30518404 0.30648315 0.45621693
0000b0 1a 9a 01 3f bf a0 e1 3e 9b 9d cb 3e b5 76 a0 3e
       0.50625765 0.44067952 0.3976868 0.31340566
0000c0 e2 fe de 3e d5 f4 e9 3e 24 1a d2 3e a2 8d d0 3e
       0.43553835 0.45694605 0.4103557 0.40733057
0000d0 49 30 fa 3e 3e d6 4a 3e 59 94 e5 3e 05 86 81 3e
       0.48864964 0.1980829 0.44839743 0.2529756
0000e0 ac 87 8e 3e 24 f5 86 3e ee b9 9b 3e 9b ee cc 3e
       0.27837884 0.26358902 0.3041529 0.40025792
0000f0 8c 6f fa 3e 63 eb 9d 3e 92 47 5d 3e 33 cb d8 3e
       0.4891323 0.30843648 0.21609333 0.4234253

bayes_fc1.prior_mu_old f4 [64, 6]
000000 be 77 73 be b1 bd e9 be 65 65 36 be fe 5d 9d be
       -0.23776147 -0.45652536 -0.17812116 -0.30735773
000010 bb 65 5a be b8 b3 29 be d9 4e db 3e 1a 5e e9 bd
       -0.2132787 -0.16572464 0.42833593 -0.113949016
000020 d2 3c 8c 3e b5 45 d3 be ea 2e d5 3d 94 ce 54 be
       0.27390152 -0.4126412 0.10409339 -0.20781928
000030 22 ec ae be b0 f2 fe 3d 28 82 81 be 75 b0 22 3e
       -0.3416453 0.12448633 -0.25294614 0.15887626
000040 c1 a9 23 be 98 17 1b 3d 99 1b a1 be 28 45 06 3e
       -0.15982725 0.037864298 -0.31466368 0.13112319
000050 cb 6e cb be 5b f4 d8 3e 29 34 ca bd 99 fa 3d bd
       -0.39732966 0.42373928 -0.0987323 -0.046381567
000060 d1 05 b2 be db c7 0d 3e 01 69 bd be e6 be 7d 3e
       -0.34770063 0.1384577 -0.36994174 0.24779853
000070 a4 3f 1b be bf 15 b5 bc 3b a6 e7 3d c4 04 05 be
       -0.15160996 -0.022105096 0.11311003 -0.12990099
000080 14 d0 c5 3e e2 99 79 be 68 ac cf 3d f1 fd cd bd
       0.38635314 -0.24375108 0.10140306 -0.10058201
000090 90 4d 74 be 14 ea b4 be d1 0b 04 bd cc b8 46 be
       -0.23857713 -0.35334837 -0.03223783 -0.19406432
0000a0 d4 8a b1 be 2d f2 c1 bd bb 6d cd be 3f dd 42 3e
       -0.3467623 -0.094700195 -0.4012278 0.19029711
0000b0 03 8c 36 be ba fe 8b 3c 41 e3 94 be a5 cf ab 3d
       -0.17826848 0.017089237 -0.2907963 0.083892144
0000c0 67 8a 8a be 12 91 f8 3d 04 4f fa be a8 71 cf 3e
       -0.27058718 0.12137045 -0.4888841 0.405164
0000d0 66 37 ff bd 00 97 19 3d 39 e9 1d be 18 86 75 be
       -0.12461738 0.03749752 -0.15420999 -0.23976934
0000e0 6c 40 3d bb c6 09 49 be fe b1 a4 b9 c1 30 28 bc
       -0.002887751 -0.19632635 -0.00031413132 -0.01026553
0000f0 42 66 8e be fc 41 79 be fe 16 ac bd 10 ed 83 be
       -0.27812392 -0.24341577 -0.08402823 -0.25766802
000100 d6 bd 72 3b 13 88 9d bd 0c 8a 3d be 77 47 11 3d
       0.003703942 -0.0769197 -0.18509692 0.035468545
000110 f1 1a 13 bf fa 83 df 3e 41 11 b0 bd ad ee 06 bd
       -0.57462984 0.43655378 -0.08597041 -0.032942463
000120 64 f1 65 be 6a 4c 49 bd 50 61 b1 bd 20 54 21 be
       -0.22455364 -0.04914514 -0.08661139 -0.15754747
000130 c4 7c c6 be 89 b2 c0 bd 46 73 ea 3e f9 53 e6 bd
       -0.38767064 -0.09409053 0.45791072 -0.11246485
000140 ef 0d 89 3e f2 8e a7 be 5b 79 06 3e ac b0 d0 bd
       0.26768443 -0.32726246 0.13132231 -0.101899475
000150 10 de 51 bd 6e 26 16 be 81 1f 78 bd a8 de b8 be
       -0.051237166 -0.14663097 -0.06057692 -0.36107373
000160 4a 86 bb be 85 dc 5b bd 16 c7 dd be d4 48 6a be
       -0.36625892 -0.0536771 -0.43315953 -0.22879344
000170 76 88 d3 3d b2 2b 0f be e6 fc ad 3c 8e 78 7e 3e
       0.10328762 -0.13981512 0.021238755 0.24850675
000180 fc 42 94 3e 52 41 f8 bd d5 e3 06 3f bc 37 ac be
       0.28957355 -0.12121834 0.52691394 -0.33636272
000190 e8 be 28 3e 09 b7 ec bd c4 d3 86 be c3 d0 a2 bd
       0.16479075 -0.11558349 -0.2633344 -0.079499744
0001a0 2a d6 5e bd 58 5a 1c be d8 79 4d be 61 dc 2b bc
       -0.05440346 -0.15268838 -0.20066011 -0.010489554
0001b0 3a e5 32 be b8 2c 50 be b8 4e db bd ee cc 88 be
       -0.17470255 -0.20329559 -0.10708374 -0.2671885
0001c0 08 a0 8a be 44 0a c4 bd 72 bc 81 3e 4b 8a 9d bd
       -0.2707522 -0.095722705 0.25339085 -0.07692393
0001d0 73 73 d1 3e e3 e5 aa be 86 a7 2a 3e ca ab 44 be
       0.40908393 -0.33378515 0.16665468 -0.19206157
0001e0 93 98 81 be f3 c9 8d 3d ec a0 ab be 0f 7d 84 3e
       -0.25311717 0.069232844 -0.3352121 0.25876662
0001f0 41 45 da bd 0b 12 e9 3d 2f 24 8d be 64 c8 45 3d
       -0.106577404 0.113803945 -0.27566668 0.04828681
000200 aa f0 fa bd f8 5b 80 be c1 4f c0 bd 71 e1 b1 3c
       -0.12252934 -0.25070167 -0.09390212 0.021713944
000210 6d b7 58 be 0b 41 a0 be 4c bb e0 bd a8 67 ab be
       -0.21163721 -0.31299624 -0.10973224 -0.3347752
000220 99 22 bd be 50 8f 47 bd 81 61 b2 be ce d6 8f 3d
       -0.36940458 -0.048720658 -0.34840015 0.070233926
000230 15 f1 82 be ff 21 2c 3e f6 69 43 be 63 41 38 3c
       -0.25574556 0.16809843 -0.1908339 0.011246058
000240 c1 02 08 bd bc 11 e4 bd 2b 8e 04 be 7f 24 a6 be
       -0.03320575 -0.11136195 -0.12944858 -0.3244972
000250 17 74 b3 be 70 aa 64 bd a2 74 56 be 4b d1 85 be
       -0.35049507 -0.055826604 -0.2094293 -0.2613624
000260 ce 32 20 be d7 88 9a bc 32 43 be be 91 f8 65 bd
       -0.1564438 -0.018864078 -0.3716064 -0.056145255
000270 80 ad 8b be 5c 49 d7 bd b0 92 3b 3b 67 d2 84 be
       -0.27280807 -0.10512039 0.0028621368 -0.25941774
000280 15 f6 02 be 8b 4c 52 bd 54 a6 63 3e bf 4d c4 bd
       -0.12789185 -0.05134253 0.22231418 -0.095851414
000290 28 f8 0a 3f 75 67 b3 be e1 d0 2e 3e d1 d5 28 bd
       0.54284906 -0.3503987 0.17071868 -0.041219536
0002a0 fb 3b a8 3e 94 c0 92 bd 29 2e 9b 3e f8 7d 88 be
       0.3285826 -0.071656376 0.30308655 -0.26658607
0002b0 71 19 e4 3d cc 5c a6 3d c5 64 3a be 75 d0 90 be
       0.11137665 0.08123168 -0.18202503 -0.2828404
0002c0 9e 9f 45 bc 96 f8 54 be 36 41 7c be 8e 06 d4 bd
       -0.0120619815 -0.20797953 -0.24634251 -0.10352813
0002d0 37 c3 83 be fd cb 32 be cd b0 1a be ef e5 1c 3d
       -0.25734875 -0.17460628 -0.15106507 0.03830522
0002e0 66 10 9a be a0 66 10 be 83 d3 0e be 05 d6 89 be
       -0.30090636 -0.14101648 -0.13947873 -0.26921096
0002f0 e2 ae 91 bc 68 c1 14 be e8 4b da be 70 12 ff bd
       -0.017783586 -0.14526904 -0.42636037 -0.124546885
000300 92 c9 f6 bd 7a 69 38 be d4 e2 21 be 41 2d 33 be
       -0.12050165 -0.18008986 -0.15809184 -0.17497732
000310 fa 97 2a be 14 c4 81 bd 58 6a 8b be 2e d6 3a be
       -0.16659537 -0.06336227 -0.2722957 -0.18245766
000320 29 78 a3 bc 37 c5 9a be 93 fb 57 be 10 54 15 bd
       -0.019954758 -0.30228588 -0.21092062 -0.03645712
000330 0b 0e 13 be 64 bc 17 be 08 ac 1b be b1 4a 8f be
       -0.14360826 -0.14817959 -0.15202343 -0.27986673
000340 64 d3 bd be 1f 00 61 be 18 ad 77 3d 74 4c 21 be
       -0.3707534 -0.21972702 0.06046781 -0.15751821
000350 f6 d3 59 3d cf a2 eb be 92 2d fc 3d 3d 72 7b bd
       0.053180657 -0.4602265 0.12313379 -0.061388243
000360 32 45 c6 be c4 fe 5b 3e 6e ad e3 be 85 46 34 3e
       -0.38724667 0.21483904 -0.44468254 0.17605026
000370 b9 24 a5 bd 1a 17 01 3e e3 33 9f be 46 56 81 be
       -0.08063645 0.12606469 -0.31094274 -0.25261134
000380 51 fc 91 3d 97 75 a6 be 46 f0 99 be 08 0d f9 bd
       0.07128204 -0.3251159 -0.30066127 -0.12160689
000390 12 86 99 be 38 29 20 3e f6 a9 c9 bd 21 c0 92 bd
       -0.299851 0.15640724 -0.098468706 -0.07165552
0003a0 76 6d 99 be 7a 3b 2a bd 4c 1b f3 bd 4f 3d 0f be
       -0.29966325 -0.041560628 -0.11870441 -0.13988231
0003b0 ef b9 46 3d 79 a1 99 bd d6 4d 88 be c6 b9 21 3e
       0.048517164 -0.075015016 -0.26621884 0.15793523
0003c0 4a ad b0 be 2d a8 01 3e 4d 5c da be 51 d1 90 3e
       -0.3450721 0.1266181 -0.42648545 0.28284696
0003d0 6a bc d4 bd 33 0a e7 3d 24 7b a2 be 7c 2c 8e 3d
       -0.103875 0.11281242 -0.31734574 0.069420785
0003e0 2c 29 8b be 67 ca 43 3e dd a6 05 be 3f ea 4d 3c
       -0.2717985 0.19120179 -0.13051935 0.012568056
0003f0 5c 45 73 be fd c7 47 3d 82 89 b2 be e0 36 ef 3e
       -0.23756927 0.048774708 -0.34870535 0.46721554

bayes_fc1.prior_sigma_small f4 [64, 6]
000000 af d6 88 3e d6 da 72 3e 2b 0c 71 3f 03 8f a1 3e
       0.2672629 0.23716292 0.9415919 0.31554422
000010 5b 3a 0d 3e b9 12 70 3f b5 1e c2 3d 3d 9b 40 3d
       0.13791792 0.9377857 0.09478513 0.047023047
000020 88 51 23 3f 36 4c de 3d 67 e1 50 3d 52 fe 2e 3f
       0.6379628 0.1085438 0.05099621 0.6835681
000030 a2 91 de 3d 0f 95 5e 3d dd 81 39 3f 15 f1 20 3e
       0.10867621 0.054341372 0.7246378 0.15716965
000040 f4 64 6a 3d c9 a7 2e 3f a2 8f 9f 3d 1c d3 03 3d
       0.057225183 0.6822477 0.07791068 0.03218375
000050 8f 06 1c 3f 41 f7 84 3d ed cd 0a 3d 4e c7 0e 3f
       0.6094751 0.064924724 0.033887792 0.55772865
000060 c4 9b d0 3d 13 21 3e 3d d4 e6 2e 3f c5 95 e5 3d
       0.1018596 0.04641826 0.68320966 0.11210207
000070 89 ad 46 3d 2e c3 00 3f af db 06 3e 25 75 7f 3d
       0.04850534 0.5029782 0.1316974 0.062367577
000080 21 6b 20 3f bb 1f d2 3d 2a d5 52 3d f3 35 26 3f
       0.62663466 0.10259958 0.05147282 0.6492607
000090 06 ab ad 3e 27 3d 1c 3e a4 c3 61 3f 58 6b a4 3e
       0.33919543 0.15257703 0.8818915 0.32113147
0000a0 95 f3 1a 3e 8e 7c 54 3f 74 35 3c 3e f9 dd 90 3d
       0.15131982 0.83002555 0.18379766 0.07073588
0000b0 ff bb 53 3f 31 85 8b 3e 3f 24 e9 3d 5f a0 4e 3f
       0.82708734 0.27250054 0.113838665 0.80713457
0000c0 09 1a ae 3d 60 1d 2c 3d 69 71 2d 3f 28 74 aa 3d
       0.085010596 0.0420202 0.67751175 0.08322936
0000d0 4f 93 3d 3d 8e 5e 10 3f 75 e5 75 3e 17 bf d5 3d
       0.046283063 0.5639428 0.24013312 0.10436838
0000e0 0b ab 56 3f a0 fa 1b 3e 6b 61 b1 3d f4 57 40 3f
       0.8385474 0.15232325 0.08661159 0.75134206
0000f0 05 a2 b3 3e 58 ee f4 3d da 25 6c 3f 7b 45 9c 3e
       0.3508455 0.11959523 0.92245257 0.3052176
000100 b5 4f ec 3d 0b 1b 7e 3f 1b 60 bb 3d 1a f5 46 3d
       0.115386404 0.99260014 0.0914919 0.04857359
000110 a5 56 29 3f dc 0e ab 3d 44 62 29 3d 04 b7 16 3f
       0.66147834 0.083524436 0.04135348 0.5887301
000120 61 06 4f 3e 05 33 a7 3d bf 34 5c 3f 41 fc 81 3e
       0.20217277 0.08164028 0.86017984 0.25387767
000130 26 02 2f 3e 2a 43 67 3f d7 e6 85 3d e7 0f 09 3d
       0.17090663 0.9033686 0.0653817 0.03346243
000140 02 d2 04 3f dd 21 92 3d 7a 67 1b 3d 14 ef 02 3f
       0.51882946 0.07135365 0.03794048 0.51146054
000150 2f b4 3c 3e 4d 91 c8 3d e2 d1 58 3f 00 eb 8e 3e
       0.1842811 0.09793339 0.84695256 0.27913666
000160 bb 2d 28 3e ab 23 63 3f a3 e0 5b 3e 91 5f aa 3d
       0.16423695 0.887263 0.21472411 0.08319009
000170 01 81 1f 3f 48 e1 b9 3d 6d cb 57 3d 9b 2e 06 3f
       0.6230622 0.09076172 0.052684236 0.52414864
000180 a2 d6 dd 3d 95 f6 39 3d c9 b8 24 3f 05 29 b4 3d
       0.108319536 0.045401175 0.6434446 0.08796886
000190 d8 d0 24 3d b6 e5 24 3f 67 5d 71 3e 04 af db 3d
       0.04023823 0.6441301 0.23570786 0.10726741
0001a0 d4 d7 6a 3f 01 f4 84 3e f6 a1 0c 3e 1c 48 5d 3f
       0.9173558 0.2596741 0.13733658 0.86438155
0001b0 05 aa 89 3e ac e6 0f 3e e6 e5 66 3f e0 37 88 3e
       0.26887527 0.14052838 0.9019455 0.2660513
0001c0 3f 70 08 3e 97 3d 58 3f 91 1e 97 3d 0d de 15 3d
       0.13324068 0.8446898 0.07378877 0.036588717
0001d0 66 76 10 3f 6d c2 97 3d af 73 1d 3d 62 52 15 3f
       0.5643066 0.07410131 0.038440403 0.5832883
0001e0 6f 9a f7 3d 81 08 64 3d 30 51 2a 3f d5 d2 e5 3d
       0.12090003 0.055672172 0.6653013 0.11221854
0001f0 ec 2b 3f 3d 87 b0 17 3f 7f 7c 28 3e 82 0c 8f 3d
       0.046672747 0.59253734 0.16453741 0.069848076
000200 32 4f 45 3f 80 62 5f 3e 0c ba aa 3d 75 71 43 3f
       0.7707397 0.21814919 0.08336267 0.76344997
000210 55 83 bf 3e 5c da 1a 3e 29 52 77 3f cb b0 d3 3e
       0.37404886 0.1512236 0.9660974 0.4134582
000220 6f 9b 6e 3e c3 23 6c 3f 32 37 01 3e ab 78 8d 3d
       0.2330148 0.9224207 0.12618712 0.06907781
000230 09 51 48 3f 58 a3 11 3e 81 17 9b 3d 4f ba 3e 3f
       0.7824865 0.14222467 0.075728424 0.74503034
000240 9a 12 86 3e 4f 3e ea 3d ea 1b 6f 3f 75 c1 ce 3e
       0.26186067 0.11437666 0.9340197 0.4038197
000250 00 ea 39 3e 7c 33 6f 3f d3 b6 8b 3e 8a 3d 0f 3e
       0.1815567 0.93437934 0.2728792 0.13988319
000260 70 a0 6e 3f c9 3e 8c 3e 4a 4b 4d 3e 69 eb 68 3f
       0.9321356 0.2739165 0.20048252 0.9098421
000270 8c d0 5f 3e eb c5 9e 3d 2e 8a 52 3f f8 09 59 3e
       0.21856898 0.077525936 0.82242095 0.21195209
000280 b0 d0 b0 3d e4 91 57 3f 18 e2 7e 3d 0c 8f 0b 3d
       0.08633554 0.84206986 0.06222734 0.034071967
000290 e0 d8 c9 3e f1 f2 71 3d 7b ed df 3c ca 56 d7 3e
       0.39423275 0.059069578 0.02733492 0.42058402
0002a0 18 60 68 3d 89 96 e1 3c 9e bb d3 3e ac de 73 3d
       0.056732267 0.027537601 0.41354078 0.05953853
0002b0 ad a9 e3 3c 5b 3d da 3e 1d 29 8b 3e 4e 11 14 3e
       0.027790869 0.42624936 0.27179804 0.14459726
0002c0 d9 bf 64 3f 26 2b 87 3e 74 e3 1e 3e d6 a7 1c 3f
       0.89355236 0.26400107 0.15516454 0.611936
0002d0 f7 91 63 3e f1 56 ee 3d 79 86 58 3f bc 2c 2d 3e
       0.2222365 0.116376765 0.8458019 0.16911596
0002e0 3d 87 fc 3d c6 14 49 3f 3d b9 8b 3e 58 f9 0c 3e
       0.12330482 0.7854732 0.27289763 0.13766992
0002f0 23 18 56 3f c4 be 97 3e 55 88 52 3e 6e 0d 5c 3f
       0.8363058 0.2963773 0.20559819 0.8595799
000300 5d 34 86 3e e2 4e ff 3d 0a 6b 5b 3f 50 a8 93 3e
       0.26211825 0.124662176 0.85710204 0.2883935
000310 1a 3e df 3d 02 28 6a 3f 9a 73 95 3e 47 89 00 3e
       0.10900517 0.914673 0.2918976 0.12552367
000320 bb 18 57 3f 3b b6 88 3e 5a f6 f3 3d 99 f7 2e 3f
       0.8402211 0.2670153 0.11912222 0.68346554
000330 aa f0 6c 3e 15 66 d4 3d 43 05 64 3f ae e9 b7 3e
       0.23138681 0.10371033 0.8907053 0.3592047
000340 27 15 2c 3e 3e fe 6b 3f 76 88 40 3e 2a a1 c5 3d
       0.16804944 0.9218482 0.18802056 0.0964988
000350 8b a0 48 3f 33 31 46 3e 0d fb 92 3d 28 fa 34 3f
       0.7836997 0.19354706 0.071767904 0.7069421
000360 b4 aa b8 3d 9c b8 1e 3d e9 f7 22 3f 25 37 bc 3d
       0.09016934 0.038750276 0.6365953 0.091902055
000370 97 b3 1d 3d 73 94 21 3f 2d 7c 97 3e 94 d7 11 3e
       0.03850135 0.6311714 0.29586926 0.14242393
000380 dc a5 4f 3f 62 be 9d 3e 89 51 1c 3e 7f f1 5a 3f
       0.81112456 0.30809313 0.15265478 0.85524744
000390 ce b8 40 3e d4 61 ad 3d 13 ff 4c 3f 13 79 81 3e
       0.18820497 0.08465925 0.8007671 0.25287685
0003a0 85 69 f0 3d 32 42 5c 3f e6 31 31 3e 04 a6 a0 3d
       0.11738876 0.86038506 0.17304191 0.07844165
0003b0 f1 2e 2c 3f a0 6c 0f 3e bb 4f 0c 3e b4 e8 26 3f
       0.67259127 0.14006281 0.1370229 0.65198827
0003c0 66 4e b4 3d e1 3e 37 3d 93 dc 26 3f 37 d8 d3 3d
       0.08804016 0.0447377 0.6518032 0.10343974
0003d0 55 0d 33 3d 59 16 2b 3f e7 9b e7 3d 6c c0 6f 3d
       0.043713886 0.66830975 0.11309033 0.058533117
0003e0 ee bc 41 3f 58 26 ee 3d b4 02 78 3d e2 cb 27 3f
       0.7567891 0.11628407 0.060549453 0.65545475
0003f0 c5 fb 07 3e 90 f5 62 3d a7 6c 3b 3f 10 5d ef 3d
       0.13279636 0.055409968 0.73212665 0.11687672

bayes_fc2.weight_mu f4 [1, 64]
000000 cf 53 2a 3d 85 f2 e2 3d 89 b9 78 bd a4 6d e2 bd
       0.041583832 0.11081413 -0.060723815 -0.110560685
000010 c7 c1 8f bd ae 11 a6 3d 14 cd 50 3c d0 9e 3d bd
       -0.07019382 0.08108841 0.012744207 -0.046294034
000020 5f 15 ce bd 43 ba d0 3c f4 c4 50 3c 71 ca fc bd
       -0.1006267 0.025479442 0.01274227 -0.123433
000030 22 68 1a bb 51 48 e9 3d a2 bc e5 3b 18 19 9b 3e
       -0.0023560603 0.113907464 0.007011012 0.30292583
000040 25 be d3 3d d6 64 dc bc 82 3b 40 3d ed 7d ea 3d
       0.103390016 -0.026903551 0.04693175 0.114498
000050 54 82 ba bd c0 a5 93 bd 37 b0 85 3c c8 37 92 bd
       -0.09106889 -0.07209349 0.016319377 -0.07139546
000060 35 b5 40 3c 4b bc 33 bc 23 d3 0d 3e e1 07 13 3e
       0.011761953 -0.0109701855 0.13850074 0.14358474
000070 b0 1a 12 3e 7a 5f 34 bc 3d ac 85 bd 75 88 a3 3c
       0.14267993 -0.0110090915 -0.065269925 0.019962529
000080 72 cd 9d bc 82 62 fb bc 19 54 c7 bc 24 09 b5 3d
       -0.019263003 -0.03068662 -0.024332093 0.08839634
000090 17 33 8d bd d0 e3 62 3d 9c 30 ce bc 1e d8 f2 3d
       -0.0689451 0.05539304 -0.025169663 0.11857627
0000a0 50 0f ac bd 40 dd 64 bd 91 5f 9a bd 1e e4 31 bc
       -0.08401358 -0.055875063 -0.07537759 -0.01085761
0000b0 7f 42 09 bd 90 c6 b2 bd 4f d0 85 bb 47 f7 43 bd
       -0.03351068 -0.08729279 -0.00408367 -0.047843244
0000c0 06 71 0b b9 da f9 aa bc f8 99 4b bc 7a 56 ec bc
       -0.00013298178 -0.020871092 -0.012426846 -0.028849829
0000d0 29 b0 6d 3c f9 a8 d5 3d ab e4 33 3d 25 cd be 3d
       0.014507332 0.104326196 0.043919247 0.09316472
0000e0 d5 b0 f0 3d a2 74 db 3d 6b 7c dc 3d 3a 23 38 3d
       0.11752478 0.10715605 0.10765918 0.04495547
0000f0 75 bb 72 3c f9 c8 ae 3d 9f 11 f0 bd 61 5f 05 3d
       0.014815201 0.08534426 -0.11722111 0.032561664

bayes_fc2.weight_rho f4 [1, 64]
000000 91 71 a4 bf 86 27 5b c0 37 f7 44 c0 d5 1d 5d c0
       -1.2847158 -3.4242873 -3.0775888 -3.4549458
000010 57 b4 54 c0 cd 44 4b c0 88 2f 98 bf ba d1 47 c0
       -3.323507 -3.1760743 -1.1889505 -3.1221757
000020 70 f9 59 c0 3c c6 1b c0 4c 27 30 c0 15 66 45 c0
       -3.4058495 -2.4339743 -2.7523985 -3.0843556
000030 91 f6 d7 bf 87 52 61 c0 aa 53 e3 bf f2 c8 c8 bf
       -1.6872121 -3.520662 -1.7759907 -1.5686324
000040 fa 52 5c c0 1e 84 0a c0 2b e7 b3 bf e9 e5 57 c0
       -3.4425645 -2.1643138 -1.4054922 -3.3734076
000050 46 00 3c c0 6a e7 0c c0 af f7 d5 bf f5 c2 43 c0
       -2.9375167 -2.2016244 -1.6716212 -3.0587742
000060 1d 33 28 c0 89 ad 08 c0 23 7d 4c bf cb c6 5a c0
       -2.6281197 -2.1355917 -0.79878443 -3.4183834
000070 92 76 56 c0 cf 42 8a bf 6c 0a aa bf 22 80 b6 bf
       -3.350987 -1.0801638 -1.328443 -1.4257853
000080 f0 70 0e c0 23 ca 9a bf e8 fe 0b c0 4a da 33 c0
       -2.2256432 -1.2092937 -2.1874332 -2.8101983
000090 df c4 56 c0 b9 86 d1 be 10 c1 43 c0 1f 65 6a bf
       -3.355766 -0.40923098 -3.0586586 -0.9156055
0000a0 e0 b8 4d c0 03 33 3a c0 97 a6 4f c0 2d c5 04 c0
       -3.2144089 -2.9093635 -3.2445428 -2.0745347
0000b0 58 61 0b c0 51 bf c1 bf 00 d3 b0 bf 65 c7 46 c0
       -2.1778164 -1.513651 -1.3814392 -3.10592
0000c0 54 28 c2 bf aa 52 2b c0 72 b5 1e c0 df 5a 31 c0
       -1.5168557 -2.6769204 -2.4798245 -2.7711713
0000d0 97 4e c7 bf 27 f3 58 c0 b2 05 a2 bf a7 2a 4a c0
       -1.5570859 -3.3898408 -1.2657988 -3.1588533
0000e0 c9 c6 45 c0 c9 dd 4c c0 c8 b1 24 c0 cb 5b 43 c0
       -3.090258 -3.2010367 -2.573351 -3.0524776
0000f0 cd 18 b3 bf 85 87 4b c0 b7 99 54 c0 94 a8 11 c0
       -1.3991944 -3.1801465 -3.321882 -2.2759142

bayes_fc2.prior_mu_old f4 [1, 64]
000000 1e 09 31 3d 15 65 b7 3d 13 92 99 bd c0 80 dd bd
       0.043221585 0.08954827 -0.074985646 -0.10815573
000010 ac ce 90 bd b0 8e 96 3d fa 44 09 3d a0 fc 82 bd
       -0.070706695 0.07351434 0.033513047 -0.06395841
000020 82 ce da bd b4 7c a4 3c a3 c3 52 3c 9f b8 00 be
       -0.106839195 0.020078994 0.012864026 -0.12570427
000030 4d d5 11 3c 0a 16 e9 3d 60 dc 6a 3a ac df 9b 3e
       0.0089009525 0.11381157 0.000895923 0.30444086
000040 ca 75 c4 3d 89 4b d4 bc 52 4f 8d 3c bd 64 e6 3d
       0.09592779 -0.025914924 0.017249737 0.11249683
000050 6b 64 a7 bd 14 65 80 bd 4e 41 86 3c 5e c8 8c bd
       -0.0817345 -0.06269279 0.016388562 -0.068741545
000060 a1 42 e9 3c ba 69 53 3b ed 6b ed 3d b9 74 10 3e
       0.028474154 0.0032259063 0.11592851 0.14107026
000070 9f 66 0d 3e e2 0d ed ba c7 89 a4 bd 0f a9 8d 3c
       0.13808678 -0.0018085802 -0.080340914 0.017292527
000080 b8 79 9f bc e6 16 28 bd b7 f1 2a bd c0 0e ce 3d
       -0.01946722 -0.041037463 -0.041734423 0.10061407
000090 4a 22 a4 bd 5d 07 84 3d 30 7b d7 bc 14 81 f6 3d
       -0.080143526 0.06446717 -0.026303858 0.120363384
0000a0 b1 ad cb bd 43 c5 92 bd e2 ad a0 bd cb c1 74 bc
       -0.099452384 -0.07166531 -0.078456655 -0.014938782
0000b0 5f 5a df bc 7b 59 42 bd 63 c6 8f bc 1d 54 49 bd
       -0.027264772 -0.047448616 -0.017550653 -0.049152482
0000c0 89 6d f0 3b 68 d5 e7 bb 23 44 68 b8 4c ae 02 bd
       0.0073372764 -0.0070750006 -5.5376568e-05 -0.031904504
0000d0 56 c3 a9 3b 9e 3d d9 3d 28 c5 fd 3c ff e4 c2 3d
       0.0051807566 0.10607456 0.0309778 0.09516334
0000e0 6d cc da 3d f6 a2 ce 3d 6b a9 d3 3d e4 0c 29 3d
       0.106835224 0.10089676 0.10335048 0.04127206
0000f0 e7 05 1e 3c f3 13 ab 3d 9a 90 f9 bd 4a 8f 7a 3c
       0.009644962 0.083534144 -0.12185784 0.015292952

bayes_fc2.prior_sigma_small f4 [1, 64]
000000 16 c3 79 3e 18 0b 09 3d 8e a2 39 3d c6 c8 06 3d
       0.24390826 0.033457845 0.04532104 0.032906316
000010 75 fc 0e 3d fc 65 2b 3d 1e 0e 82 3e 53 c9 34 3d
       0.03490873 0.041845307 0.25401396 0.04413731
000020 4c f6 0a 3d 79 0f a9 3d 32 19 7f 3d 63 be 43 3d
       0.033926293 0.08254904 0.062279887 0.04778899
000030 d4 ab 29 3e 52 c6 f3 3c 35 bc 19 3e 55 16 3d 3e
       0.16569453 0.029757652 0.15013202 0.1846555
000040 86 0b 0c 3d d4 c9 e1 3d f3 76 61 3e 5c 21 12 3d
       0.034190677 0.11024824 0.22018032 0.035676345
000050 a3 33 5e 3d 8d 22 dc 3d ec c9 2a 3e 8d 05 3d 3d
       0.054248463 0.107487775 0.1667859 0.04614787
000060 ee 9e 8f 3d 17 57 e6 3d 8e d9 bf 3e e3 02 0b 3d
       0.07012735 0.1124708 0.3747067 0.0339383
000070 eb cb 0e 3d ff a7 96 3e 72 c1 66 3e e9 c5 52 3e
       0.03486244 0.29425046 0.22534731 0.20583309
000080 2c 52 ce 3d 89 9f 83 3e e0 98 d4 3d bd ae 6d 3d
       0.10074267 0.25707653 0.10380721 0.05802797
000090 34 d7 13 3d c7 f2 02 3f 76 78 3a 3d e9 63 ac 3e
       0.036093906 0.511517 0.045525037 0.33669975
0000a0 82 ef 30 3d 45 8c 5a 3d 86 5e 1f 3d 46 b8 f4 3d
       0.043197162 0.053356428 0.038908504 0.1194921
0000b0 97 06 db 3d c2 41 4a 3e 45 12 65 3e f0 b8 3a 3d
       0.10694616 0.19751647 0.2237025 0.045586526
0000c0 47 16 48 3e 6b 72 89 3d 35 e1 a1 3d 21 f2 80 3d
       0.19539748 0.067112766 0.07904283 0.062961824
0000d0 7b 2c 45 3e 8a 01 03 3d 98 0e 72 3e 50 81 38 3d
       0.19255249 0.03198389 0.2363838 0.045045197
0000e0 1a 70 44 3d e6 47 26 3d af ab 94 3d a8 17 3f 3d
       0.04795847 0.04059591 0.072593085 0.04665342
0000f0 05 d6 5d 3e 88 52 28 3d 6b 29 19 3d 51 ac c4 3d
       0.21663673 0.041094333 0.037393015 0.09603179

exp_avg f4 [64, 6]
000000 a1 5b 8f 3a 78 cd 1c ba 5a c9 99 b8 de d7 c8 b9
       0.0010937342 -0.0005981545 -7.333113e-05 -0.00038307806
000010 ba 84 03 ba d1 46 0b 39 d9 79 93 b9 74 a3 82 3b
       -0.0005017031 0.00013282454 -0.00028128808 0.0039867703
000020 e5 b4 f2 b9 04 1c 41 3b b4 c6 b9 3b 17 54 69 38
       -0.00046292614 0.0029466162 0.005669439 5.5629844e-05
000030 cf 1a 55 ba 7b 39 c7 bb 54 50 8c b9 75 b9 11 b9
       -0.00081293 -0.0060798503 -0.0002676273 -0.00013897366
000040 23 59 80 3a 66 e0 0c 39 66 b4 1e bb 67 91 5f bc
       0.000979219 0.00013435035 -0.0024216413 -0.013645506
000050 3a df 75 b9 5f 16 1a ba 96 35 81 bc 36 ed 2c 39
       -0.00023448179 -0.00058779673 -0.015772622 0.00016491566
000060 0f cc 40 bb 43 7c 4d ba 7b a2 19 b9 5f 50 21 bb
       -0.0029418503 -0.0007838646 -0.00014651746 -0.0024614555
000070 5c d5 03 bc 3a 2f 46 b9 bb 92 10 3c 5f 50 8f 3c
       -0.008046474 -0.00018900345 0.008824046 0.017494379
000080 6d ce 8a b8 8e b9 cb b9 82 75 9f 3c 5b 59 83 39
       -6.6188026e-05 -0.00038857426 0.019465212 0.00025052842
000090 84 9a 8b b9 b5 e9 1f 3b e5 2a 1f b9 96 7c 8f 39
       -0.0002662727 0.0024400775 -0.00015179401 0.0002736791
0000a0 6d 1a 31 b8 ef 6e 80 39 ed e0 39 3a 55 96 48 bb
       -4.22247e-05 0.00024496714 0.00070907065 -0.0030607183
0000b0 67 d7 0c b8 eb 2f 16 3a 22 39 8b 3a c2 17 ea b8
       -3.357921e-05 0.0005729186 0.0010621885 -0.00011162415
0000c0 fd a5 93 bb de 2a a0 bb ba ac 73 b8 01 2d b4 ba
       -0.0045058713 -0.0048879227 -5.809658e-05 -0.0013746322
0000d0 1f bb 2e bc 70 7e cc 37 06 a7 3a b9 4f ab 96 3a
       -0.01066473 2.4377572e-05 -0.00017800563 0.0011495146
0000e0 22 4d c1 35 20 bf 6e ba 7c 2d a4 3a 4a 95 45 b9
       1.4402069e-06 -0.00091074593 0.0012525762 -0.00018842999
0000f0 13 25 3e b9 b1 09 df ba 37 27 ac b8 1f 06 91 3a
       -0.00018133623 -0.0017016438 -8.2089035e-05 0.0011064446
000100 92 dd 29 3b 82 63 9e b8 a3 91 2d bb 61 b1 0f bb
       0.002591942 -7.552562e-05 -0.0026484511 -0.0021925794
000110 90 b7 64 38 7a ab 22 bb 2b eb 0b bb 9f b2 b0 39
       5.4530392e-05 -0.0024821446 -0.0021349888 0.0003370242
000120 d5 c3 ed b9 02 87 08 ba c8 4d 27 b9 b9 5f 96 39
       -0.0004535007 -0.0005208106 -0.00015955337 0.00028681548
000130 19 8d db ba e6 1d 4f b9 f3 e1 d9 3b 3d e0 a6 3b
       -0.0016750424 -0.00019752196 0.0066492497 0.0050926493
000140 68 20 ae 39 1e 2a 6f bb 13 fc 8b 3c 91 bf ea 39
       0.0003321201 -0.003649361 0.017087972 0.00044774686
000150 5f 7f a8 3a b8 99 d9 b8 38 d1 41 b9 a4 2a 37 3a
       0.0012855342 -0.00010375999 -0.00018483854 0.000698725
000160 cc ea ab 3a 2e 82 f9 37 c3 e9 b9 b9 93 ca 72 b8
       0.001311624 2.9743733e-05 -0.00035460116 -5.7885958e-05
000170 cb bf 47 38 81 47 22 39 bb 5d 60 bb e3 cd 7f b9
       4.762392e-05 0.00015476161 -0.0034235555 -0.00024395394
000180 df 73 4d 3b 85 79 c8 ba 0c 8e b2 38 0d 53 87 3a
       0.0031349582 -0.0015295005 8.51416e-05 0.0010324434
000190 cd e2 48 3c 4a 90 f5 38 cc 99 0d 3b 47 b5 84 3b
       0.012261105 0.00011709386 0.0021606563 0.0040499303
0001a0 af 63 25 b8 f2 11 16 3b 13 51 69 3b 97 07 eb b8
       -3.9431903e-05 0.002289888 0.0035601303 -0.00011207087
0001b0 cd 77 28 3a b4 10 51 3a 98 41 15 39 70 61 5f 3a
       0.0006426543 0.0007975206 0.00014234183 0.0008521294
0001c0 19 6d c6 ba 92 a7 ae 38 5b 4a 29 3b 6d 94 2b 39
       -0.0015138715 8.328179e-05 0.0025831673 0.00016363124
0001d0 0d 26 cd 39 97 58 3e 3b 1f 7a 83 3c 7f c0 39 39
       0.00039128997 0.0029044503 0.016049443 0.00017714685
0001e0 01 9c 84 b9 e4 b7 ec 3b b2 a9 ab b7 c8 01 e1 ba
       -0.00025293234 0.00722407 -2.0463809e-05 -0.0017166669
0001f0 f4 89 b1 3b bf a1 66 39 7a 01 92 ba 3c a4 e4 bb
       0.0054180566 0.00021994764 -0.0011139356 -0.006977586
000200 53 c2 fc b6 84 6a 3d bb c6 a9 16 bc 7f 39 91 39
       -7.5328076e-06 -0.00289026 -0.009195751 0.00027699393
000210 48 97 5a 39 90 74 4d 3a 4d d6 bf 38 91 44 58 39
       0.00020846457 0.00078374986 9.147506e-05 0.00020624908
000220 e2 c0 96 b8 b0 df 5d b7 d6 3c 4e 3a 4d ac 7d bb
       -7.1884846e-05 -1.3224708e-05 0.00078673416 -0.0038707436
000230 7e 91 20 b9 75 87 8c 3b ab ef be bb f4 d8 01 3a
       -0.00015312989 0.0042886087 -0.0058269105 0.0004953288
000240 55 d4 25 3a 3b 29 98 3a ce 5d 92 b9 aa fa 37 3a
       0.00063258904 0.0011608967 -0.0002791718 0.0007018248
000250 f8 e0 34 ba e1 82 f8 b7 2f cb a0 ba 95 67 b4 ba
       -0.0006899978 -2.9624849e-05 -0.0012267585 -0.001376378
000260 d6 52 03 b9 96 6e 0b 3a 67 4a b6 b9 67 65 02 b9
       -0.00012523992 0.0005318908 -0.0003476918 -0.00012435541
000270 6f 48 66 3b 2f 20 1e 3a 9e 7c 9a 39 a8 2b ba 3b
       0.0035138389 0.00060320174 0.00029466016 0.0056814738
000280 b7 41 d7 3b f4 5d 40 39 4f b3 2d 3b 85 75 83 3c
       0.006569113 0.00018345547 0.0026504581 0.016047249
000290 8a e8 92 39 d1 c6 61 3c 7b a0 1b 3d c1 01 83 3a
       0.00028020545 0.013780312 0.037994843 0.000999503
0002a0 bb 91 c4 ba b4 4d 92 bb 8b d4 2a ba 5c 03 04 bc
       -0.0014997044 -0.0044648293 -0.0006516657 -0.008057442
0002b0 f3 09 96 bb bf 14 44 ba e1 9e 1a b9 2f 67 58 38
       -0.0045788228 -0.0007479898 -0.00014745771 5.159451e-05
0002c0 00 2c 82 b9 57 db e5 b8 39 95 f8 b8 15 bd 5e 39
       -0.00024828315 -0.00010960426 -0.000118533564 0.00021242008
0002d0 a3 0a 92 3a 47 96 46 bb c7 70 12 38 80 61 23 ba
       0.0011142086 -0.0030301975 3.4914145e-05 -0.0006232485
0002e0 1f ef d7 39 4a bc 06 b8 9c a4 9e b9 2f 74 95 3a
       0.00041186155 -3.2123447e-05 -0.00030258752 0.0011402423
0002f0 54 df 96 b7 5a 32 1a b9 15 62 ef 38 e7 1d a1 b8
       -1.7985389e-05 -0.00014705342 0.00011414677 -7.682648e-05
000300 bc 2d a7 3a 42 98 34 3b 35 6b 96 b8 c5 25 ac 38
       0.0012754719 0.0027556573 -7.172526e-05 8.208634e-05
000310 24 8d 73 ba de 7b 3b 39 e9 c4 86 b9 58 65 85 ba
       -0.0009290746 0.00017879854 -0.0002570518 -0.0010177298
000320 0e a0 26 b9 73 49 8e b8 fe 03 91 39 f2 b1 05 ba
       -0.00015890619 -6.7847686e-05 0.0002765953 -0.0005100063
000330 22 5e 86 b9 d0 fe b0 ba 90 7f 13 b9 3e 22 00 b9
       -0.00025628606 -0.0013503674 -0.00014066533 -0.00012219787
000340 fa 62 d9 ba 4a 32 b4 b8 af 7f 76 ba 5e 50 89 b9
       -0.0016585283 -8.592436e-05 -0.00094031816 -0.00026190554
000350 e0 d5 a8 39 ee 5a 5c 3a 56 a5 3e bb 1f ca e5 38
       0.00032202806 0.00084058836 -0.0029090247 0.00010957219
000360 67 0f c1 bb 1b 39 a1 bc 25 a0 73 b9 eb 4e fd bb
       -0.0058917287 -0.01968055 -0.00023233944 -0.007730355
000370 76 c9 9e bc 2f b0 85 b9 19 93 e8 b9 57 54 02 ba
       -0.019383173 -0.00025499004 -0.00044360085 -0.0004971674
000380 c4 c8 0c 39 79 9f c3 39 73 69 ab 3a 8e 00 d3 b8
       0.00013426231 0.00037312115 0.0013077691 -0.00010061367
000390 10 af 5b ba 31 1e b5 bb a6 e4 a2 b8 01 44 8d ba
       -0.00083802734 -0.0055272807 -7.767351e-05 -0.0010777713
0003a0 f2 3b d9 ba 05 87 0f 37 91 0c af ba f9 62 84 bb
       -0.0016573651 8.554901e-06 -0.0013355186 -0.004040119
0003b0 48 d2 35 b9 af 20 55 3a 44 0d 36 ba f3 cd b0 b9
       -0.00017339841 0.00081301754 -0.0006944726 -0.0003372278
0003c0 fb 51 1d 3b d3 8e 2c bb 85 22 64 b9 02 1f 08 b7
       0.0024005163 -0.0026330247 -0.00021756634 -8.113451e-06
0003d0 64 bd fd 3a 33 45 0a 38 70 d6 19 3b 5e f4 d4 3b
       0.0019358811 3.296621e-05 0.0023473762 0.0064988574
0003e0 95 c2 41 39 ba 0d a7 3a aa a1 19 3b 71 77 40 39
       0.00018478402 0.001274518 0.0023442307 0.00018355042
0003f0 0c 57 de ba 1d dd ba bb 48 f6 01 39 48 11 f9 ba
       -0.0016963198 -0.0057026283 0.00012394146 -0.0019002343
