lightning_logs/version_19/checkpoints/epoch=4-step=690.ckpt (torch, 30427 bytes, 24 tensors)

bayes_fc1.weight_mu f4 [64, 6]
000000 16 3d 5e be 9f 69 09 bf ce 77 46 be bb 35 a7 be
       -0.2170299 -0.5367679 -0.1938164 -0.3265818
000010 93 bf b1 be 38 e7 c7 bd 85 65 e7 3e 70 15 20 be
       -0.34716472 -0.09760898 0.4519464 -0.15633178
000020 ae c3 9c 3e 0e 95 ce be 82 5d 1c 3e 6e ac 79 be
       0.30618042 -0.40348095 0.15270045 -0.24382183
000030 7a 15 bf be 5e df 42 3e 0c 45 b9 be 31 e1 e7 3d
       -0.37321073 0.1903052 -0.3618549 0.11322249
000040 ca 3d 50 be 74 04 e3 3d 3f 02 d3 be c1 9f 14 3e
       -0.2033607 0.11084834 -0.4121265 0.14514066
000050 88 6f 11 bf 2e 00 d3 3e f4 1f 0c be 27 1c 3a be
       -0.5681081 0.41211075 -0.13684064 -0.18174802
000060 78 6a c8 be 9e 5c 6c 3e 14 7c da be f5 2c 68 3e
       -0.3914373 0.23082206 -0.4267279 0.226734
000070 b1 94 26 be 34 87 03 3e f2 23 64 3d a3 b2 6c be
       -0.16267659 0.12844545 0.055698343 -0.2311502
000080 c9 f5 a8 3e 92 40 8e be 8c 1d 0b 3e cf ff 44 bc
       0.3300002 -0.27783638 0.1358549 -0.01202388
000090 6b f8 b6 be 89 43 a9 be ed 7c 78 be e3 a2 6b be
       -0.35736403 -0.33059338 -0.24266405 -0.23011355
0000a0 4b 41 b2 be 61 a4 14 be 0d cd e9 be 1b a1 8c 3e
       -0.3481544 -0.1451583 -0.45664254 0.27466664
0000b0 3a 1e 83 bd f1 39 1e bd ba 6a b2 be e2 44 11 3e
       -0.0640225 -0.038629476 -0.3484705 0.14186433
0000c0 3f 53 96 be 2e 5c 41 3e c2 61 c9 be 26 5d c7 3e
       -0.29360387 0.1888282 -0.39332396 0.38938254
0000d0 35 24 36 be e9 78 49 bd d6 53 60 be 41 c4 9f be
       -0.1778725 -0.049187575 -0.21906981 -0.31204417
0000e0 41 fc 47 3d 5f 56 6c be f1 ed 35 3d cc 8e 14 3e
       0.048824552 -0.23079823 0.04441637 0.14507598
0000f0 a7 ba a4 be 65 aa 8e be 5d 0d 6c bd 3e 42 95 be
       -0.32173654 -0.27864376 -0.05762993 -0.291521
000100 98 3f d8 bd bb a8 16 bd 70 ad 33 be 91 7e 58 3c
       -0.105590045 -0.036782008 -0.1754663 0.0132137695
000110 7e bd d9 be c2 f2 bf 3e 70 4e e9 bd 6e 1d 0a be
       -0.42527384 0.37489897 -0.11391914 -0.13487789
000120 cc e4 91 be 9f da a9 bd e2 f4 05 be 44 59 4e be
       -0.2849487 -0.08293652 -0.13081697 -0.2015124
000130 3f 63 bf be ba ed 07 be 00 43 df 3e 62 55 3d be
       -0.37380406 -0.13274279 0.43605804 -0.18489602
000140 12 7d 5c 3e 98 5b c7 be 06 66 57 3e 7b 6e b8 3c
       0.21532086 -0.38937068 0.21035013 0.022513619
000150 99 d8 ff bd 22 32 47 be c2 bf c1 bd 71 a7 93 be
       -0.124924846 -0.19452718 -0.09460403 -0.28838685
000160 4c 82 c0 be 8b 8f 2c bd cc f9 34 bf 84 e5 8b be
       -0.3759941 -0.04212908 -0.7069366 -0.27323544
000170 8c 37 c0 3c 74 7b 78 bd 84 e5 a9 3d 6f cc 28 3f
       0.023463987 -0.06066461 0.0829573 0.6593694
000180 d3 3a 97 3e 14 d2 41 be 50 e5 ef 3e 54 3c a9 be
       0.29537067 -0.18927795 0.4685464 -0.3305384
000190 d9 7a 6c 3e 6f 29 29 bc e5 96 ad be dd f5 56 be
       0.23093738 -0.01032482 -0.33904186 -0.20992227
0001a0 29 6a db bd 93 40 08 be 6e 9c 97 be 8f 80 e7 bc
       -0.10713608 -0.13305883 -0.29611534 -0.028259544
0001b0 ea 9c 1c be e4 82 40 be c2 08 62 be b7 74 84 be
       -0.15294233 -0.18799931 -0.22073653 -0.25870296
0001c0 b0 7b b9 be 60 93 23 be fe 1c 8e 3e e3 6e 15 be
       -0.3622718 -0.15974188 0.27756494 -0.14593081
0001d0 49 20 eb 3e 99 86 a1 be 95 fb 5d 3e aa b1 96 bd
       0.4592307 -0.31548002 0.21678002 -0.073581055
0001e0 02 79 68 be 8c 9b 9f 3d 07 73 90 be f9 f8 84 3e
       -0.22702411 0.0779334 -0.2821276 0.259712
0001f0 6c 35 43 be 41 6d 3e 3d 4a 07 9d be 25 dd 0b bc
       -0.19063348 0.04649091 -0.30669624 -0.008536612
000200 bb ed 00 be 35 6d 7a be ab a6 84 be ee 58 df 3d
       -0.12590687 -0.24455722 -0.25908408 0.10905634
000210 52 ec 77 be b0 71 9e be 6d 4c 05 be d1 13 bf be
       -0.24211243 -0.30946112 -0.13017435 -0.37319806
000220 e9 82 e4 be 95 7a 22 be 0c d4 cb be e9 5a 37 3e
       -0.44631127 -0.15867074 -0.39810216 0.17905773
000230 53 86 d5 be 3d 43 83 3e d3 bf 08 be 4a 6f 05 bd
       -0.41704044 0.25637236 -0.13354425 -0.032576837
000240 79 2a bc bd ac ff 11 be 51 79 01 be e0 9d 91 be
       -0.091877885 -0.14257687 -0.12643935 -0.28440762
000250 32 b2 cf be f6 4f 02 be 5e 59 21 be 55 f8 88 be
       -0.4056564 -0.12725815 -0.15756747 -0.26751962
000260 c9 74 a8 bd f9 0f 17 be a7 6b bf be 9a e2 f5 bd
       -0.082254 -0.14752187 -0.3738682 -0.120061114
000270 66 0c c3 be 1a d8 45 be f3 da 84 be 13 3f 92 be
       -0.38095397 -0.19320717 -0.25948295 -0.28563747
000280 51 22 f1 bd ca e2 c4 bd 89 85 6c 3e 2b 4a 07 be
       -0.117741235 -0.09613569 0.23097815 -0.13211887
000290 3f f0 e9 3e 2c 41 a9 be 64 3e 56 3e 5a 09 bb 3a
       0.45691106 -0.33057535 0.20922238 0.0014269755
0002a0 c0 d7 a1 3e b9 12 37 be a6 fa 80 3e 22 ea 90 be
       0.31609917 -0.17878236 0.2519123 -0.2830363
0002b0 2d b5 27 3e 6e 72 1d 3e b6 6d 19 be bf f9 a6 be
       0.16377707 0.15375683 -0.14983258 -0.32612416
0002c0 26 d6 56 be cb ed 59 be 42 ba b1 be da 4f 41 be
       -0.20980129 -0.21282117 -0.34712416 -0.18878117
0002d0 61 bf ad be f4 a5 71 be 1a 2f 23 be e6 ba 19 bd
       -0.33935073 -0.23598462 -0.15935937 -0.037531756
0002e0 c3 ca aa be 55 99 2c be 0a 78 5f be 95 97 a3 be
       -0.3335782 -0.16855367 -0.21823135 -0.31951585
0002f0 d9 23 2c be a3 de 60 be 97 11 ee be 72 1c 3d be
       -0.1681055 -0.21959929 -0.46497795 -0.18467882
000300 15 8b 46 be 2a 5b a2 be 99 35 bb bd f6 0a 09 be
       -0.19388993 -0.31710178 -0.09141082 -0.13383088
000310 f3 05 63 be fc 5c 1e bd 11 03 b9 be c1 9f a1 be
       -0.22170238 -0.038662896 -0.36135152 -0.31567195
000320 c3 58 00 be a6 c7 81 be 18 33 a0 be a6 15 ae 3b
       -0.1253386 -0.25347632 -0.3128898 0.0053126393
000330 d3 10 f5 bd 0a 9d 43 be 55 bb 02 3c 35 a2 80 be
       -0.119660996 -0.19102874 0.007979234 -0.25123754
000340 8a d8 ac be b5 17 8a bd 77 b3 19 3e 91 e5 50 be
       -0.33758956 -0.06742803 0.15009867 -0.20400073
000350 5f b1 76 3e 7c 31 d0 be ec 57 42 3e 71 d8 51 3d
       0.24091099 -0.40662754 0.18978852 0.051231805
000360 14 0e eb be b1 50 8d 3e 86 14 dd be 24 91 60 3e
       -0.45909178 0.27600625 -0.4317972 0.21930367
000370 3a 4a f0 bd 1d f9 c7 3d 56 24 70 be 92 c6 b5 be
       -0.117329076 0.097643115 -0.23451361 -0.3550306
000380 55 16 ff bd c7 01 69 be fc 3f 95 be 6f 5e 7f bd
       -0.12455431 -0.22754584 -0.2915038 -0.06234592
000390 57 16 b3 be fe cc 37 3e f7 e7 b2 bd 2c e5 d2 bd
       -0.3497798 0.17949292 -0.0873565 -0.10297617
0003a0 7c 58 c5 be 38 63 26 3d 3f ad 4f be a0 72 1b be
       -0.3854407 0.040621966 -0.20280932 -0.15180445
0003b0 a8 17 1f bd d0 4a bf bd 46 2c 94 be 1b 64 8a 3e
       -0.03884092 -0.09340441 -0.28940028 0.270295
0003c0 4d 36 b3 be 23 8e 17 3e 8b 4b e8 be 70 9a a2 3e
       -0.35002366 0.14800315 -0.45370135 0.3175845
0003d0 24 46 e9 bd e3 a9 89 3d 3a 1d bf be 2b 2a f3 3d
       -0.113903314 0.067218564 -0.37326986 0.11873277
0003e0 31 c0 8a be 32 4d 5d 3e 93 b4 3c be 55 bd 4f 3c
       -0.27099755 0.21611479 -0.18428259 0.012679418
0003f0 13 04 94 be f6 18 92 3c 17 f2 a8 be 10 ec cd 3e
       -0.28909358 0.017834168 -0.329972 0.40219164

bayes_fc1.weight_rho f4 [64, 6]
000000 69 f0 80 bf 6f a2 ba bf 99 ab 9d 3e 0f 10 71 bf
       -1.0073367 -1.4580821 0.3079498 -0.9416513
000010 52 63 e7 bf 50 33 ed 3e 0c 3a 12 c0 b8 f1 40 c0
       -1.8077185 0.4632821 -2.284793 -3.0147533
000020 31 c0 b6 be 1e b5 ff bf 0a 53 35 c0 23 8a 3c be
       -0.35693505 -1.9977148 -2.8331933 -0.1841207
000030 6f e7 fa bf a6 43 3c c0 b3 02 82 3d 2c bd ed bf
       -1.9601878 -2.941629 0.06348171 -1.8573356
000040 7a 00 30 c0 e2 eb ec bd 1d d7 18 c0 6c 5b 4c c0
       -2.750029 -0.115684286 -2.3881295 -3.19308
000050 3f 4d 7a be fb 8e 1b c0 fb f7 4a c0 62 b3 2b bf
       -0.2444353 -2.4306018 -3.1713855 -0.6707059
000060 1d d4 0b c0 b5 ba 43 c0 bf f9 0f bd ad 38 f7 bf
       -2.1848214 -3.0582707 -0.035150286 -1.9314171
000070 18 90 31 c0 0a c4 07 bf 25 bf ec bf b3 40 2c c0
       -2.7744198 -0.53033507 -1.8495833 -2.691449
000080 67 10 22 be 4b 7d 02 c0 e3 9d 3b c0 7f 1b 53 be
       -0.1582657 -2.0388973 -2.9315116 -0.20615958
000090 f5 c5 8e bf 3b 36 d7 bf f4 8e ad 3e bd 45 8e bf
       -1.1154162 -1.6813425 0.33898127 -1.1115032
0000a0 1b 5a e1 bf a8 83 aa 3e 3a df e0 bf ae 12 28 c0
       -1.7605623 0.3330357 -1.7568123 -2.62614
0000b0 dc 75 80 3e 6d 4e ad bf a8 1a 0d c0 6e 3a ab 3d
       0.2508992 -1.3539559 -2.204752 0.08360754
0000c0 77 e2 11 c0 86 3e 3c c0 89 84 15 be 36 d6 0c c0
       -2.2794473 -2.9413161 -0.1460134 -2.2005744
0000d0 12 d1 36 c0 24 0c e9 be d3 96 b3 bf 0f 93 0b c0
       -2.8565106 -0.45517075 -1.4030403 -2.1808507
0000e0 f6 59 7e 3d 3b da e3 bf 7b 8a 1c c0 8e 37 19 3d
       0.062097512 -1.7800974 -2.4459522 0.037406497
0000f0 5d dc 33 bf 32 6c d6 bf 34 0a e7 3e 61 8d 40 bf
       -0.7025812 -1.6751769 0.45124972 -0.7521573
000100 da 1b f7 bf 1f cb 04 3f a9 ac 00 c0 57 fa 2b c0
       -1.9305375 0.5187244 -2.0105383 -2.6871545
000110 f7 1f bc bd f0 7f 09 c0 40 6f 2e c0 2b 8a 62 be
       -0.09185784 -2.1484337 -2.7255402 -0.2212302
000120 21 4a af bf 4f 6e 10 c0 07 1c 99 3e a5 ba 89 bf
       -1.3694497 -2.2567327 0.29904196 -1.0760084
000130 4d 56 d2 bf 8e 91 82 3e d4 78 26 c0 7b 54 52 c0
       -1.6432587 0.25501674 -2.6011248 -3.2864063
000140 f3 37 04 bf 04 90 19 c0 28 1e 55 c0 bc f9 f4 be
       -0.5164787 -2.399415 -3.3299656 -0.47846782
000150 64 ce a0 bf cd d7 03 c0 2f b3 c7 3e 2d 93 7c bf
       -1.2562985 -2.0600464 0.39003894 -0.9866207
000160 97 04 c6 bf 02 6d c0 3e 18 0d d3 bf 55 b8 3f c0
       -1.5470151 0.37583166 -1.6488371 -2.9956257
000170 bd 0c 20 bf 45 bf 31 c0 21 5a 5e c0 40 da 84 bf
       -0.6251944 -2.7772992 -3.474251 -1.0379105
000180 0a d8 08 c0 4b 45 40 c0 a4 02 b7 be b9 e0 16 c0
       -2.138186 -3.0042293 -0.35744202 -2.357466
000190 94 20 47 c0 a9 93 95 be 53 d0 6f bf ab 4b fb bf
       -3.1113634 -0.29214218 -0.9367725 -1.9632467
0001a0 a5 cd ff 3e b7 06 72 bf bf 55 ec bf 6e e7 df 3e
       0.49961582 -0.94541496 -1.8463668 0.43731254
0001b0 5a 48 a2 bf 5b 50 f7 bf 94 31 96 3e 3c 1a 9d bf
       -1.267833 -1.9321398 0.293347 -1.2273631
0001c0 5a 4f e3 bf 90 3c a6 3e 5f c2 1b c0 36 ed 47 c0
       -1.7758591 0.3246808 -2.4337385 -3.1238532
0001d0 74 f6 15 bf 4f 21 20 c0 87 b8 51 c0 a3 4d c4 be
       -0.5857918 -2.502033 -3.2768877 -0.38340482
0001e0 21 bf 00 c0 50 7b 2f c0 38 6b 48 bd cb 8b 02 c0
       -2.0116656 -2.7419014 -0.048930377 -2.0397823
0001f0 9b 15 2c c0 de 57 6b be 09 b0 c0 bf 27 ee 2b c0
       -2.6888187 -0.22982737 -1.5053722 -2.6864107
000200 8f 53 5b 3e be 51 a6 bf 16 b9 15 c0 84 e5 4d 3e
       0.21418594 -1.2993696 -2.3394217 0.20107085
000210 63 97 7a bf 23 96 da bf 3a c9 f0 3e ed 0f 42 bf
       -0.9788725 -1.7077068 0.47028524 -0.7580555
000220 a2 6a aa bf a5 81 e2 3e dc 83 ff bf 8e b1 32 c0
       -1.3313792 0.44239536 -1.9962115 -2.792087
000230 1c df 11 3d ff a0 e8 bf 79 ff 35 c0 23 42 0f be
       0.035613164 -1.8174132 -2.8437178 -0.13990073
000240 3a 35 91 bf b5 94 eb bf 83 b8 f2 3e 72 d9 32 bf
       -1.1344368 -1.8404757 0.47406396 -0.69863045
000250 9c 8e c5 bf 73 e0 d6 3e 13 f1 83 bf 86 4e e7 bf
       -1.5434146 0.41968116 -1.0307945 -1.8070838
000260 fd 60 b6 3e 0a d6 8b bf 91 56 bc bf 0e a2 dc 3e
       0.3562087 -1.0924695 -1.4713918 0.43092388
000270 66 9e a0 bf f7 7d 1e c0 ae 92 2e bc d4 ec c0 bf
       -1.2548339 -2.4764383 -0.010655088 -1.5072274
000280 22 df 12 c0 ed 8c 99 3d 8f c0 1a c0 2d c8 4e c0
       -2.294869 0.074975826 -2.4180028 -3.2309678
000290 ec 0c 4c bf cd 0e 31 c0 51 8d 5a c0 9f 8e 2d bf
       -0.7970722 -2.7665284 -3.4148753 -0.6779575
0002a0 01 88 2a c0 f7 e0 55 c0 31 06 34 bf 68 f4 28 c0
       -2.664551 -3.3418558 -0.7032195 -2.6399174
0002b0 ee 89 59 c0 52 33 26 bf 66 f4 ac bf 2a 05 d0 bf
       -3.3990436 -0.6492206 -1.3512084 -1.6251576
0002c0 7d 90 73 3e 75 90 93 bf 52 8c ce bf c4 1a d1 3d
       0.23785587 -1.152846 -1.6136572 0.10210183
0002d0 03 41 97 bf ea 89 f2 bf a1 fc b2 3e 07 a8 c7 bf
       -1.1816715 -1.8948338 0.34958366 -1.5598153
0002e0 81 51 dc bf 30 e3 36 3e e2 e1 83 bf 5c 9e d5 bf
       -1.7212373 0.17860103 -1.0303309 -1.6688952
0002f0 0b d4 cd 3e 08 e9 89 bf 15 06 b1 bf 6f 2b c6 3e
       0.40200838 -1.077424 -1.3829981 0.38705012
000300 df 68 90 bf 12 f1 f1 bf 9b c0 ef 3e db 05 8c bf
       -1.1282004 -1.8901694 0.46826634 -1.0939287
000310 85 b2 f0 bf 52 e1 b3 3e b7 f6 84 bf 78 53 f0 bf
       -1.880448 0.35132843 -1.0387791 -1.8775473
000320 c8 fd 94 3e a5 5a 83 bf 2e 76 ed bf eb 74 a6 3e
       0.2909987 -1.0262038 -1.855169 0.32511076
000330 ee 4a 9b bf 5f 63 08 c0 00 b5 e4 3e f7 10 68 bf
       -1.2132242 -2.1310651 0.44669342 -0.90650886
000340 03 c7 dd bf 74 14 01 3f b6 90 d2 bf 02 50 1b c0
       -1.7326359 0.50421834 -1.6450412 -2.4267583
000350 90 7c 8b 3d a0 17 ec bf ab b8 21 c0 65 a7 75 3d
       0.06810868 -1.844471 -2.5268962 0.059974093
000360 ca 2c 1d c0 63 d2 4a c0 ee 8b 84 be ea fa 17 c0
       -2.4558587 -3.169091 -0.25888008 -2.3746896
000370 f3 0c 49 c0 8a 6d c3 be 06 e4 8b bf 27 fd e4 bf
       -3.1414154 -0.3816951 -1.0928962 -1.7889756
000380 88 6d 87 3e 96 03 7d bf 4f 36 e4 bf 53 5b b4 3e
       0.26450753 -0.98833597 -1.7829074 0.35225925
000390 bc 5e ec bf a3 ff 21 c0 fc 34 77 3e 14 7c b1 bf
       -1.8466411 -2.5312278 0.24141306 -1.3865991
0003a0 31 be 0c c0 b4 d5 82 3e 7e a6 e6 bf 6a c2 0d c0
       -2.1991084 0.25553668 -1.8019559 -2.214991
0003b0 06 6d ba bd 5f 1e d8 bf f3 be f6 bf 14 09 cc bd
       -0.09102826 -1.6884269 -1.9277023 -0.09962669
0003c0 1d 79 08 c0 e0 82 47 c0 fa 6b c7 bd d2 0b 04 c0
       -2.1323922 -3.117363 -0.09737392 -2.0632215
0003d0 a9 bc 38 c0 2e 5c 68 be 28 8a 06 c0 a8 2b 38 c0
       -2.886515 -0.22691414 -2.1021824 -2.8776646
0003e0 9c 8a da bb 0c 84 07 c0 d6 bb 36 c0 24 92 9b be
       -0.0066693556 -2.1174345 -2.8552146 -0.30384934
0003f0 29 fa e8 bf 06 d7 1f c0 bc 1b 60 3d 3d d8 ec bf
       -1.8201343 -2.497499 0.05471395 -1.8503491

bayes_fc1.bias_mu f4 [64]
000000 f2 0e 64 be b4 27 d3 3a 53 3b 5c bd 46 62 bd be
       -0.22271326 0.0016109855 -0.053767513 -0.3698904
000010 b3 b5 f3 bd 08 8c 8b 3e 3b cc 19 be 75 80 1f 3e
       -0.11899891 0.27255273 -0.15019314 0.15576346
000020 97 86 4f be e2 64 85 3e 1b 19 c3 bd dc 71 d5 be
       -0.20266186 0.2605353 -0.09526273 -0.4168843
000030 60 df fd bd fd 5c 42 3e 3c da c1 bd 09 85 3b 3f
       -0.12396121 0.18980785 -0.09465453 0.7324987
000040 93 68 68 3e cc 4a ee bd 3b 1d 7d be 0c 4e 50 3e
       0.22696142 -0.1163536 -0.24718182 0.20342273
000050 db f4 a7 be 81 71 87 bd b4 28 a4 be be b8 31 be
       -0.32803997 -0.06613446 -0.32062304 -0.1735563
000060 c0 76 33 be 4e f2 4e be 23 df 56 bd df c1 93 3e
       -0.17525768 -0.2020962 -0.052458894 0.2885885
000070 18 6b 6d 3e 3b 73 8a be 3a c7 8d be 05 ce 53 be
       0.23185384 -0.2704104 -0.2769106 -0.20684059
000080 02 70 59 be 1d 2b 46 be b2 84 b1 bd 54 68 c6 3d
       -0.21234134 -0.19352384 -0.08667888 0.09687868
000090 e8 a5 64 be 07 59 3a be f3 eb 17 3e a8 ef 8f 3b
       -0.22328913 -0.18198024 0.14836101 0.004392583
0000a0 2a 43 82 be 35 94 6f be 5f 44 83 be 91 02 86 be
       -0.25441867 -0.2339638 -0.256381 -0.26173833
0000b0 0c da 3d be 55 0d 79 be 87 fe 9a be 01 7f 73 bd
       -0.1854021 -0.24321492 -0.30272314 -0.059447292
0000c0 0b 8f 20 be a9 22 5d be ae 08 45 be 00 ad b7 bd
       -0.15679567 -0.21595253 -0.19241592 -0.08968544
0000d0 51 ea 6c be c4 d4 34 3e e7 3a 5b be e4 d0 9e 3e
       -0.2313626 0.17659289 -0.21409188 0.31018746
0000e0 de 5c 5a bd eb a7 aa 3e c0 39 cb 3e e5 71 92 3e
       -0.05331122 0.33331236 0.39692497 0.2860252
0000f0 a6 dc 8a be 6b d8 a4 3e 74 0c 88 be da 49 17 be
       -0.27121466 0.32196364 -0.26572 -0.14774266

bayes_fc1.bias_rho f4 [64]
000000 04 2e 65 bd 04 ca 8e bf ea 94 7c bf 98 e9 95 bf
       -0.055952087 -1.11554 -0.98664725 -1.1711912
000010 b9 43 95 bf 85 9c 92 bf 98 2f 8c be 15 ef 28 bf
       -1.1661292 -1.1454016 -0.2738006 -0.6598981
000020 db 20 8d bf 1f 7d 19 bf aa 65 58 3d e5 fb 6d bf
       -1.1025652 -0.59956545 0.05283133 -0.92962486
000030 4d be d9 be 41 22 be bf 28 ea df be df 0d e8 bf
       -0.42528 -1.4854203 -0.43733335 -1.8129233
000040 73 bf a5 bf 59 91 a0 be 70 11 ac be 62 e8 b9 bf
       -1.2949051 -0.3136089 -0.33607054 -1.4524043
000050 33 07 68 bf 89 4a 3d bf 2d 3e 3a bd 39 2a 82 bf
       -0.90635985 -0.73941857 -0.04546945 -1.0169135
000060 7c a4 42 bd e2 b1 35 be 2c db 5d bf c7 eb cf bf
       -0.047520146 -0.17743638 -0.86662555 -1.6243829
000070 2a 7f d3 bf 83 6e a1 be cd 30 c5 be 5d a9 23 be
       -1.6523182 -0.31529626 -0.38513795 -0.15982576
000080 f0 f4 4c bd 9f 9d 8e be ca 8e 55 be d2 e4 44 bf
       -0.050038278 -0.2785463 -0.20855251 -0.7691165
000090 78 84 b6 bf 77 e6 17 bf de 02 da be 2e ef 2e bf
       -1.4259176 -0.59336036 -0.42580312 -0.6833371
0000a0 b2 97 8e bf b4 63 8c bf eb b7 4c bf 33 f5 51 be
       -1.1140044 -1.0967927 -0.79968137 -0.20503692
0000b0 05 b0 5e be e9 99 98 bd ae ba f7 be 04 b2 84 bf
       -0.21746834 -0.07451231 -0.48384613 -1.0366826
0000c0 3b 95 dd be bf b7 18 be 1f a3 1c be 82 2d 8b be
       -0.43277916 -0.14913844 -0.15296601 -0.27183157
0000d0 01 bf 57 be 23 a4 c6 bf f9 5a 7c be 23 a5 b7 bf
       -0.21068956 -1.551884 -0.24644078 -1.4347271
0000e0 26 c3 75 bf ec 93 a2 bf 83 19 a9 bf 25 f6 00 bf
       -0.960009 -1.2701392 -1.321091 -0.50375587
0000f0 f5 47 50 be 5b 67 9c bf 1b 3f a6 bf dd f8 9c be
       -0.2033995 -1.2219042 -1.2988008 -0.30658618

bayes_fc1.prior_mu_old_bias f4 [64]
000000 86 fc 54 be d8 9a d9 3b f9 ff 8e bd 08 08 c9 be
       -0.20799455 0.0066407733 -0.06982417 -0.3926394
000010 ef 9f 0b be 0e bb a2 3e 14 47 16 be 06 c5 1e 3e
       -0.13635229 0.31783336 -0.14675552 0.15504846
000020 72 ad 5d be db 6f a8 3e 9c ab 26 be bb 9e f8 be
       -0.21648195 0.3289784 -0.16276401 -0.48558602
000030 0e 9b eb bd 23 e3 5c 3e 97 78 da bd b3 cf 37 3f
       -0.11504184 0.21571021 -0.10667532 0.718013
000040 e2 41 76 3e 52 1a f4 bd 42 97 90 be 58 d2 2c 3e
       0.2404857 -0.11919083 -0.282404 0.16877115
000050 b7 bd b6 be 20 5f b7 bd a0 24 a8 be c2 fa 2d be
       -0.35691616 -0.089536905 -0.32840443 -0.16990188
000060 86 55 26 be e9 dd 54 be 0c 3e a6 bd aa 2a a7 3e
       -0.16243562 -0.20787777 -0.08117303 0.32649738
000070 02 bd 90 3e 11 a6 9a be 05 34 dd be f4 78 40 be
       0.28269202 -0.30204824 -0.4320375 -0.1879614
000080 a7 0d 56 be b1 c3 81 be cb d8 ca bd 47 45 a4 3d
       -0.20903645 -0.25344613 -0.09904631 0.08021026
000090 57 83 8b be 42 30 27 be 46 9a 31 3e 8e 6b 9d 3c
       -0.27248642 -0.16327003 0.17344007 0.019216325
0000a0 70 49 78 be a6 43 9e be 0e 22 88 be 69 fb 8e be
       -0.24246764 -0.30910987 -0.26588482 -0.27926186
0000b0 72 be 46 be 5d e8 86 be 3c d0 c0 be e2 ef 97 bd
       -0.19408587 -0.26349154 -0.3765887 -0.07418801
0000c0 92 7c 01 be 5c 12 4c be 04 e4 5c be 3c a3 b5 bd
       -0.12645176 -0.19928879 -0.21571356 -0.08869025
0000d0 60 9c 84 be d6 4a 4a 3e e8 78 6e be 08 6b a4 3e
       -0.25900555 0.1975511 -0.2328831 0.32112908
0000e0 6d 4a e6 bd ab 7a c6 3e d5 66 e0 3e 66 6f ad 3e
       -0.11244664 0.38765463 0.43828455 0.33874053
0000f0 5a 10 8b be 54 c4 bb 3e 6d 33 9a be ff 0c 2f be
       -0.27160913 0.36673224 -0.3011736 -0.17094801

bayes_fc1.prior_sigma_small_bias f4 [64]
000000 5a a2 2d 3f 17 04 8e 3e 41 31 a1 3e bf 65 87 3e
       0.67825854 0.27737495 0.3148289 0.26444814
000010 d6 80 8e 3e 72 cd 8b 3e 54 ee 18 3f 79 d6 d8 3e
       0.2783267 0.2730518 0.5973866 0.4235113
000020 56 78 98 3e 2c 41 e6 3e d5 38 35 3f f1 f5 aa 3e
       0.2977931 0.44971597 0.70789844 0.33390763
000030 35 f1 07 3f 4b e3 5b 3e 72 09 f4 3e 9e 16 19 3e
       0.5310243 0.21473424 0.47663456 0.14950034
000040 38 95 80 3e f1 d9 0d 3f 03 da 09 3f b1 d4 57 3e
       0.25113845 0.5541068 0.53848284 0.21077229
000050 a5 c6 b0 3e 3c 87 c9 3e 2e 17 2e 3f 01 82 a1 3e
       0.34526554 0.39360988 0.6800412 0.31544498
000060 d3 1c 35 3f 2d 89 20 3f 76 53 af 3e 56 c7 31 3e
       0.7074711 0.62709314 0.34243363 0.17361197
000070 51 0e 35 3e fb 5e 0d 3f d7 a3 04 3f fd ea 24 3f
       0.17681243 0.55223054 0.518125 0.64421064
000080 99 f3 34 3f 11 d7 17 3f d3 dd 1a 3f dc 2b c4 3e
       0.706842 0.5931254 0.60494727 0.38314712
000090 be 55 5c 3e 41 05 e5 3e bc b9 02 3f 1a 3e d7 3e
       0.21517083 0.4473057 0.5106466 0.42039567
0000a0 97 7f 95 3e a9 5b 96 3e cd 16 c4 3e be f4 20 3f
       0.29198906 0.29366806 0.38298646 0.62873447
0000b0 6a 9e 1d 3f 94 08 2d 3f 6f 56 ec 3e b3 dc 9d 3e
       0.61569846 0.67591214 0.46159694 0.30832443
0000c0 d1 8a 07 3f bb 72 22 3f 66 42 24 3f 47 28 19 3f
       0.5294619 0.63456315 0.64163816 0.59827083
0000d0 8d e8 1d 3f c0 36 41 3e a1 71 15 3f 12 fd 53 3e
       0.6168297 0.18868542 0.5837651 0.20702007
0000e0 0c 12 9d 3e 25 a0 66 3e 6f 46 67 3e 8d 8f f6 3e
       0.3067783 0.22522028 0.22585462 0.48156396
0000f0 78 60 20 3f ec 20 82 3e ec 10 77 3e 5e 61 13 3f
       0.626472 0.25415742 0.24127549 0.57570446

bayes_fc1.prior_mu_old f4 [64, 6]
000000 f2 30 3a be 53 10 00 bf ad 69 22 be 90 4e 92 be
       -0.18182734 -0.5002491 -0.15860625 -0.28575563
000010 37 b0 9d be 39 e8 8e bd 0f d3 e8 3e a8 88 03 be
       -0.30798504 -0.06977887 0.45473525 -0.12845099
000020 04 55 8f 3e 18 9f af be c3 94 4f 3e a6 a7 5c be
       0.2799455 -0.34301066 0.20271592 -0.21548328
000030 5b aa b4 be de 94 51 3e 14 da a7 be fd 3c f5 3d
       -0.3528622 0.20466945 -0.32783568 0.11974523
000040 9f 3c 36 be cd 59 87 3d 51 aa c2 be ed b2 32 3e
       -0.17796563 0.06608925 -0.38020566 0.17451067
000050 8f 14 f9 be fe 53 df 3e 39 8e da bd 51 5c 27 be
       -0.48648497 0.43618768 -0.10671658 -0.1634381
000060 4d 67 c7 be 4a 5b 5c 3e 6b 11 ca be 08 52 46 3e
       -0.38946 0.21519199 -0.39466414 0.1936723
000070 ee d9 34 be eb 44 bb 3d 61 0e 9f 3d db 2e 4a be
       -0.17661259 0.091440044 0.077664144 -0.19744436
000080 d6 67 a4 3e 35 57 80 be 3a 83 25 3e ba 8b d9 3b
       0.3211047 -0.25066534 0.1616334 0.006638971
000090 e1 46 a4 be 96 24 9f be 3d fc 44 be fb fb 37 be
       -0.32085326 -0.310826 -0.19236846 -0.17967217
0000a0 bd 53 a1 be ed ef c5 bd d8 95 ed be 56 86 89 3e
       -0.315092 -0.09664903 -0.46403384 0.26860303
0000b0 8d b8 b2 bd a8 4d 7e bd 1f 27 ac be 02 de 9e 3d
       -0.087266065 -0.062085778 -0.33623597 0.077571884
0000c0 e8 a3 93 be 6b 9b 42 3e 05 2a b6 be 49 ed c2 3e
       -0.28835988 0.190046 -0.35578933 0.3807166
0000d0 b3 8f 26 be ad 5a 97 bd 13 b6 33 be cb 21 92 be
       -0.16265754 -0.07390342 -0.17549925 -0.28541407
0000e0 e5 ae c1 3d 59 df 52 be d4 5f 77 3d b8 78 46 3e
       0.094571866 -0.20593013 0.060394123 0.19381988
0000f0 b1 ad ad be cc 26 93 be ca 6c ac bd 4c 52 87 be
       -0.3392158 -0.28740537 -0.08419187 -0.26429975
000100 06 d8 f4 bd c6 63 92 ba 5e c9 45 be 30 f8 6e bc
       -0.11955266 -0.0011168651 -0.19315097 -0.01458554
000110 b4 e4 cb be 3d 53 bb 3e 3e e5 ef bd 12 15 e5 bd
       -0.39822924 0.36586943 -0.11713646 -0.111856595
000120 16 37 8f be d7 a1 8f bd b0 b4 d6 bd 3d 32 4b be
       -0.27971715 -0.070132904 -0.10483682 -0.19843383
000130 57 91 c3 be 03 25 0f be b1 75 d9 3e c4 91 3b be
       -0.38196823 -0.13978963 0.42472604 -0.18317324
000140 46 ba 2d 3e bf 45 c4 be 47 5d 5f 3e bc ce af 3c
       0.16965589 -0.38334462 0.21812926 0.021460883
000150 a8 fa c6 bd 56 bf 27 be 5c 22 ba bd b4 31 90 be
       -0.09715778 -0.16381583 -0.09088585 -0.2816292
000160 7b ba ba be 4e 14 94 bc e9 d5 28 bf b0 a8 90 be
       -0.36470398 -0.018076088 -0.659514 -0.28253698
000170 f1 c4 61 3d 5b 6f 81 bd 21 e2 8d 3d ea 57 29 3f
       0.05511946 -0.063200675 0.06927896 0.6614977
000180 73 ec 8e 3e 2b 1a 57 be 2a b7 d8 3e 1a 8c a7 be
       0.2791477 -0.21006076 0.42327243 -0.32724077
000190 88 e1 66 3e ef 39 85 bc 56 91 b6 be 21 3d 43 be
       0.22546971 -0.016262976 -0.35657758 -0.19066288
0001a0 59 29 91 bd 6a 45 19 be e1 b4 94 be b1 f9 e7 bc
       -0.070879646 -0.14967886 -0.2904425 -0.028317304
0001b0 47 6d de bd 17 af 21 be aa cc 27 be 51 9c 59 be
       -0.10860687 -0.15789448 -0.16386667 -0.21251036
0001c0 92 e0 ad be 7d 8b 11 be 09 8d 69 3e 35 83 31 be
       -0.33960396 -0.14213367 0.22807707 -0.17335208
0001d0 74 fb ca 3e cf 88 b1 be be 3f 42 3e 05 3a 0a be
       0.39644969 -0.3467469 0.18969628 -0.13498695
0001e0 ba 2d 56 be 7f fb ba 3d 69 3b 88 be ce 2b 7f 3e
       -0.20915881 0.0913 -0.26607826 0.24919054
0001f0 b5 cb 22 be 23 da f3 3c 9f 6f a6 be 18 dd ce bb
       -0.1589802 0.029767102 -0.32507035 -0.0063129775
000200 f4 c3 d3 bd 67 05 7a be 64 4d 77 be 9e 73 9a 3d
       -0.103401095 -0.24416123 -0.24150616 0.075415835
000210 ec 35 49 be 4f f6 8f be 64 c6 02 be 62 fb a9 be
       -0.19649476 -0.28117606 -0.12770993 -0.33199602
000220 87 de d4 be bd 37 fc bd b5 e2 ce be c7 aa 33 3e
       -0.41576025 -0.12315319 -0.4040734 0.17545615
000230 d7 60 bc be 4e 25 8f 3e 22 b3 ee bd 57 62 22 bd
       -0.36792633 0.2795815 -0.116552606 -0.039644565
000240 52 95 69 bd 9e 2d 02 be f8 11 d2 bd b7 10 87 be
       -0.05702717 -0.12712714 -0.102573335 -0.2637994
000250 a0 10 c2 be 20 1c e8 bd ce 18 1c be 06 a7 7a be
       -0.3790331 -0.113334894 -0.15243837 -0.24477777
000260 a0 86 a7 bd 11 23 f9 bd 91 e4 b3 be 08 e6 e4 bd
       -0.081799746 -0.121648915 -0.3513532 -0.111766875
000270 f3 74 c0 be be e6 46 be 38 f3 51 be a1 4d 8e be
       -0.37589225 -0.19423959 -0.20502937 -0.277936
000280 dc 17 ee bd 5b 24 cf bd 04 70 54 3e ea 73 0a be
       -0.116256446 -0.10114356 0.20745856 -0.1352078
000290 e8 34 d5 3e a5 ff a4 be f6 1c 5f 3e 0f b6 00 3c
       0.41641927 -0.3222629 0.21788391 0.007855906
0002a0 fb 2c a0 3e 86 ba 45 be 88 78 64 3e 1c 26 8b be
       0.31284317 -0.19309434 0.22311604 -0.27177513
0002b0 84 ea 32 3e de e5 1c 3e 11 33 fc bd 09 74 a0 be
       0.17472273 0.15322062 -0.12314428 -0.31338528
0002c0 c6 b4 51 be 11 bb 63 be 2f b0 a6 be c9 26 28 be
       -0.20479116 -0.22239329 -0.32556292 -0.16421045
0002d0 d8 7b ba be 3d dd 85 be ff ac 31 be 30 bb 79 bd
       -0.3642261 -0.26145354 -0.17351149 -0.06096953
0002e0 24 62 b2 be fe 17 57 be da 9b 4b be 74 c4 9b be
       -0.348405 -0.21005246 -0.19883671 -0.3042332
0002f0 a8 6c 0f be 52 d6 39 be 7e a6 ea be 5d 70 0d be
       -0.14006293 -0.18148163 -0.45830148 -0.13812394
000300 10 53 3b be 22 8d 9a be 48 90 b4 bd 2f 21 06 be
       -0.18293405 -0.301858 -0.08816582 -0.13098596
000310 4c 13 5c be fd eb 46 3c 32 0b a1 be 31 a5 99 be
       -0.21491736 0.012141225 -0.31453854 -0.30008844
000320 5f 6c dc bd 53 3e 75 be 7d 85 95 be ee a0 d7 3c
       -0.10762858 -0.23949556 -0.29203406 0.026321854
000330 3d c1 fd bd e4 5a 33 be 29 4a c6 bc 2d 6c 7b be
       -0.12390373 -0.17515141 -0.024205284 -0.24552985
000340 5b 27 a1 be d2 79 88 bd bd cc f0 3d 89 61 6b be
       -0.31475338 -0.066638604 0.11757801 -0.22986425
000350 bc 59 42 3e ab 63 da be ec 4c 23 3e 8b 60 9d 3c
       0.18979543 -0.42654166 0.15947312 0.019211074
000360 2b 47 f1 be 48 03 88 3e d0 38 da be 6f d3 3f 3e
       -0.4712461 0.26565003 -0.4262147 0.18733
000370 7d 74 01 be 2e 27 54 3d 5f d5 75 be 21 42 af be
       -0.12642093 0.051795177 -0.24007176 -0.3423014
000380 00 25 8a bd 9a 7e 52 be 35 d6 88 be 62 54 82 bd
       -0.067453384 -0.20556107 -0.26725927 -0.06363751
000390 5c 30 a8 be 01 0f 4b 3e d7 c3 85 bd 83 41 91 bd
       -0.32849395 0.19829942 -0.06531494 -0.070925735
0003a0 d0 39 b8 be 84 41 f8 3c 0a ee 41 be 2c b0 0d be
       -0.35981607 0.030304678 -0.18938461 -0.13836735
0003b0 bf 10 56 bd 76 9b ba bd 8b 3a 95 be ee 54 8d 3e
       -0.052262064 -0.09111683 -0.29146227 0.2760386
0003c0 d9 d9 aa be b8 20 27 3e 3e 27 ce be 38 71 a3 3e
       -0.3336933 0.16321075 -0.40264314 0.31922317
0003d0 97 a2 ed bd 72 d1 5f 3d ed 20 c1 be 2b 26 06 3e
       -0.11603277 0.054643102 -0.37720433 0.13100497
0003e0 b6 d5 82 be 76 26 58 3e 7d cd 43 be 34 20 0b 3c
       -0.25553674 0.21108422 -0.19121356 0.008491565
0003f0 65 b9 74 be 5d c5 06 3d 2a 71 8f be 05 a0 d7 3e
       -0.23898847 0.032903064 -0.28016025 0.42114273

bayes_fc1.prior_sigma_small f4 [64, 6]
000000 3a 1a a3 3e f9 9f 5a 3e 03 d0 61 3f b6 7c ac 3e
       0.31855947 0.21350087 0.88208026 0.33688897
000010 2c 82 21 3e 26 82 72 3f a9 b1 cf 3d 87 03 4e 3d
       0.15772313 0.9472984 0.10141308 0.050296333
000020 48 92 06 3f 6c 39 07 3e a4 91 78 3d 21 69 23 3f
       0.5256696 0.13205498 0.06068577 0.6383229
000030 c4 03 0a 3e ea 76 5a 3d ee e1 3c 3f a0 d8 14 3e
       0.13477999 0.05333606 0.7378224 0.14535761
000040 96 3d 81 3d ce 1c 1d 3f 07 4c be 3d a2 9d 2a 3d
       0.06310575 0.6137208 0.09291845 0.041654237
000050 f2 9d 12 3f 2d 8b af 3d b3 0c 31 3d fd 51 d7 3e
       0.57272255 0.085714675 0.043225 0.4205474
000060 6b 56 dd 3d b2 3b 45 3d 17 2d 28 3f c3 19 0c 3e
       0.108074985 0.048152633 0.656938 0.13681702
000070 72 f8 81 3d 1e b0 ed 3e a3 02 17 3e 95 0f 8a 3d
       0.06346215 0.4642343 0.147471 0.06741253
000080 e4 c4 1d 3f 05 17 ff 3d 10 10 61 3d aa 39 1e 3f
       0.61628556 0.124555625 0.05494696 0.6180674
000090 49 c7 93 3e d1 2e 2d 3e 5c b3 61 3f 4a 69 94 3e
       0.2886298 0.1691239 0.88164306 0.2898658
0000a0 45 40 26 3e 11 d5 61 3f 81 d5 26 3e 46 d4 8f 3d
       0.16235454 0.8821574 0.16292383 0.0702291
0000b0 f7 fc 4b 3f f0 61 6b 3e 64 ef dc 3d fe 4d 3b 3f
       0.7968287 0.22986579 0.10787848 0.7316588
0000c0 38 ff d1 3d 9f b4 62 3d 61 5e 20 3f e7 c5 dd 3d
       0.10253757 0.055348035 0.6264401 0.108287625
0000d0 4d 3d 6c 3d d9 f2 f5 3e 2a 5d 66 3e 11 e3 db 3d
       0.05767565 0.4803684 0.22496477 0.10736669
0000e0 c2 86 3a 3f 5e 31 1f 3e ae 28 b1 3d a0 4b 38 3f
       0.72861874 0.15546176 0.08650337 0.71990395
0000f0 cd b7 cf 3e 2e 71 29 3e a7 6c 6d 3f 54 9d c8 3e
       0.40569916 0.16547081 0.92743915 0.39182532
000100 96 24 0a 3e 86 2e 7b 3f 02 d1 03 3e 60 e4 83 3d
       0.13490519 0.98117864 0.12872699 0.064400434
000110 2b 9a 28 3f 3a 12 e9 3d 16 40 7d 3d 57 d5 14 3f
       0.6586024 0.113804296 0.061828695 0.5813803
000120 3a 45 68 3e 8b 3b cb 3d 2a 7d 5a 3f f7 0c 94 3e
       0.22682658 0.09923466 0.85347235 0.2891614
000130 02 ff 32 3e 60 3f 54 3f af 36 9f 3d c1 65 1b 3d
       0.1748009 0.829092 0.07774102 0.037938837
000140 04 c3 ee 3e a0 aa b2 3d 9d 24 0f 3d e2 48 f5 3e
       0.4663316 0.087239504 0.034947027 0.47907168
000150 bb 11 84 3e ba 81 fb 3d c2 68 60 3f 06 fb 9f 3e
       0.25794777 0.12280603 0.8765985 0.31246203
000160 48 91 45 3e 0a bf 67 3f ef 4d 39 3e 43 4e 59 3d
       0.19293702 0.9052588 0.18096136 0.05305315
000170 c7 b0 dd 3e 59 b0 80 3d 20 a3 01 3d 2e 6d 9c 3e
       0.43298933 0.06283636 0.03164971 0.30552047
000180 17 89 e9 3d 9c c2 4c 3d a7 c0 09 3f c8 d2 b6 3d
       0.11403101 0.04999028 0.5380959 0.08926922
000190 cf d1 3a 3d ca 2d 10 3f ff d7 9f 3e 04 f8 05 3e
       0.045610245 0.5631987 0.3121948 0.13082892
0001a0 47 20 7b 3f c3 6c a2 3e be 25 16 3e 44 6a 73 3f
       0.98096126 0.31723604 0.14662835 0.95084023
0001b0 72 62 80 3e b0 1e 0d 3e 82 ac 5d 3f 9e d0 89 3e
       0.25075108 0.13781238 0.8659135 0.26916975
0001c0 61 60 21 3e 09 66 5b 3f bb 47 af 3d c7 78 32 3d
       0.15759422 0.8570257 0.085586034 0.043572214
0001d0 54 5d ea 3e 6d 3e a6 3d 9d ad 21 3d 3e 44 04 3f
       0.4577433 0.081173755 0.03947221 0.5166663
0001e0 8c b6 05 3e 79 6d 83 3d 7e c2 2c 3f 5f 16 fd 3d
       0.13057917 0.064173646 0.6748427 0.123577826
0001f0 ff 07 89 3d 51 85 1c 3f ab 39 42 3e da 13 87 3d
       0.06690978 0.61140925 0.18967311 0.06595583
000200 27 94 4b 3f 71 08 72 3e 45 4f be 3d e9 76 44 3f
       0.7952294 0.23636033 0.09292463 0.7674394
000210 f1 47 a7 3e a1 e2 2b 3e c6 8f 77 3f 24 e4 c7 3e
       0.32672074 0.16785671 0.96703756 0.39041245
000220 a9 59 74 3e b4 7f 6a 3f dc c9 02 3e cb e5 78 3d
       0.23862328 0.9160111 0.12772316 0.060766023
000230 91 e6 3c 3f 3c 8b 1b 3e 4d e5 6b 3d 3e bf 1d 3f
       0.73789316 0.15189832 0.057591725 0.6161994
000240 25 ea 8f 3e 2d 53 18 3e 4e cc 73 3f df 0e d2 3e
       0.28108326 0.14875479 0.9523362 0.4102697
000250 1b e1 49 3e 6a 99 6c 3f 75 28 9b 3e 3f 3a 1d 3e
       0.19714777 0.9242159 0.30304304 0.1535425
000260 7e 2c 5e 3f 6f 57 97 3e 09 6f 56 3e 46 08 71 3f
       0.8678664 0.29558894 0.20940794 0.9415325
000270 a3 91 79 3e 77 fb a5 3d 49 83 36 3f fc f4 42 3e
       0.24371962 0.08104604 0.71294075 0.19038767
000280 3d 2f bc 3d ce da 39 3f bc 11 b1 3d 7e f3 25 3d
       0.091886975 0.72599494 0.08645961 0.040515415
000290 45 f6 c1 3e d1 3c 85 3d 18 a9 08 3d 0d 08 d8 3e
       0.378832 0.065057404 0.033364385 0.42193642
0002a0 48 5b 8f 3d af 67 11 3d e9 14 cb 3e a6 51 90 3d
       0.069998324 0.03549927 0.3966439 0.07046823
0002b0 c4 c3 09 3d e7 1f d3 3e 67 f3 6f 3e 73 6e 3b 3e
       0.033633962 0.41235277 0.23432694 0.18303852
0002c0 84 d2 51 3f 78 69 8a 3e 1a 54 3d 3e 2b ef 3e 3f
       0.81961846 0.2703359 0.18489113 0.7458369
0002d0 22 cc 85 3e ba fa 06 3e 3e 83 5f 3f d5 5f 3e 3e
       0.26132303 0.13181582 0.87309635 0.18591245
0002e0 c0 38 20 3e 57 7a 45 3f db 56 9a 3e b5 e7 33 3e
       0.15646648 0.771398 0.3014439 0.17568858
0002f0 db 40 6b 3f 7f 7f 98 3e 4d 7c 63 3e 93 db 67 3f
       0.91895837 0.29784772 0.22215386 0.9056942
000300 ff 56 92 3e 9f 45 14 3e 22 d5 74 3f 11 8a 93 3e
       0.28581998 0.14479683 0.95637715 0.28816274
000310 87 19 0f 3e 6d 36 63 3f f4 77 9b 3e e1 13 0e 3e
       0.13974582 0.8875492 0.30364954 0.1387477
000320 2a 8e 58 3f 5a 71 9a 3e 66 de 17 3e 98 cc 60 3f
       0.84591925 0.30164605 0.14830932 0.87812185
000330 8a 4d 83 3e 2c 20 e5 3d 4e b6 70 3f d0 5a ac 3e
       0.25645095 0.11187777 0.94028175 0.33663034
000340 16 62 2c 3e 0a 4e 74 3f 81 4e 31 3e c1 6b ab 3d
       0.16834292 0.9543158 0.17315103 0.08370162
000350 4a e4 38 3f 74 f5 13 3e 2e fb 99 3d c3 c5 3a 3f
       0.7222334 0.14449102 0.07518612 0.7295801
000360 7d 4f ae 3d 01 9a 2e 3d 2a af 17 3f b5 df c2 3d
       0.08511255 0.04262734 0.59251654 0.09515325
000370 2d a7 31 3d 0c 38 06 3f 64 16 8d 3e 91 ca 1d 3e
       0.043372322 0.5242927 0.27556145 0.15409304
000380 48 08 5a 3f 5a 65 a0 3e db 86 20 3e a8 88 64 3f
       0.85168886 0.31327325 0.15676443 0.8927102
000390 b6 e5 18 3e b4 ba 9e 3d 64 87 58 3f cb e7 6c 3e
       0.14931378 0.077504545 0.8458159 0.23135297
0003a0 07 5b dd 3d 5e af 55 3f 02 38 1d 3e ce b0 d6 3d
       0.10808378 0.83470714 0.15353397 0.104829416
0003b0 7a 84 25 3f 78 3d 2a 3e 2e 6c 08 3e d6 67 23 3f
       0.6465527 0.16625011 0.13322517 0.63830316
0003c0 08 11 e9 3d be 0e 39 3d fe 6e 27 3f a3 b5 fb 3d
       0.113802016 0.045180075 0.65403736 0.12290504
0003d0 48 94 62 3d 65 d2 13 3f f0 f4 e9 3d 1c 09 5f 3d
       0.055317193 0.5774291 0.11423671 0.054452047
0003e0 d0 71 33 3f a5 23 d6 3d 61 93 65 3d fe 51 0a 3f
       0.7009554 0.104560174 0.056048755 0.5403136
0003f0 a8 47 1d 3e aa 21 a2 3d 12 09 40 3f 97 cb 1d 3e
       0.15359366 0.07916577 0.7501384 0.15409695

bayes_fc2.weight_mu f4 [1, 64]
000000 64 b7 7b 3d ed 11 b6 3d 10 fa ae bd 6a 5d da bd
       0.06145419 0.08890138 -0.085437894 -0.106623486
000010 cf 2e e6 bd b4 bc c7 3d fc a3 8a 3d 8e 77 ae bd
       -0.11239397 0.09752789 0.06769559 -0.08518897
000020 a1 04 cc bd f7 d7 02 3e 89 5c 04 3d 7f 43 c1 bd
       -0.099618204 0.12777697 0.03231481 -0.09436702
000030 e5 9b 63 bd 64 c5 c9 3d 34 0b f4 bc fc 16 e1 3e
       -0.055568594 0.098521024 -0.029790498 0.43962848
000040 7f 50 ac 3d 5d 5e 4c 3d d2 d1 f9 bc 47 43 c3 3d
       0.08413791 0.04989468 -0.030495558 0.095343165
000050 49 04 dc bd 6f cd 53 bd b1 21 91 bd 90 1b 82 bd
       -0.10743005 -0.05170959 -0.07086504 -0.063529134
000060 83 4d cd 3a a5 9e 6d 3c 55 01 09 3e 1c 59 00 3e
       0.0015663359 0.014503156 0.13379414 0.12533993
000070 c2 07 ca 3d 48 67 96 bd 60 cd 94 bd f2 98 c9 3c
       0.09864761 -0.07343918 -0.07265735 0.024609063
000080 59 2c 46 3c 15 1b fe 3b 8a 48 83 ba 2d 2f 8b 3d
       0.012095534 0.0077546933 -0.0010016125 0.067961074
000090 f0 33 c9 bd 31 bd ba 3d ed 7e 85 bd a9 66 24 3e
       -0.098243594 0.09118117 -0.0651835 0.16054787
0000a0 b9 37 d6 bd 27 39 b9 bd 88 55 b4 bd fe 9b 09 3b
       -0.10459847 -0.09044104 -0.08805376 0.002099752
0000b0 82 49 88 3c 04 6d b2 3c 35 97 cb bd 61 56 a9 bd
       0.016636614 0.021780498 -0.0994095 -0.082684286
0000c0 45 49 8d 3d 2b 3b 73 bc 0b ab 7f 3c 01 e3 b5 bd
       0.06898741 -0.01484565 0.015604745 -0.08881188
0000d0 75 a5 b2 3d 11 f6 0d 3e c0 2f 0d bd 24 1d dc 3d
       0.08722965 0.13863398 -0.034469366 0.10747746
0000e0 56 62 a8 3d f7 38 be 3d 66 8a f3 3d 7b b4 a7 3d
       0.08221881 0.09288209 0.11891632 0.08188721
0000f0 fe 21 03 3d ef cc 9f 3d 27 aa d3 bd 69 4c b4 b9
       0.03201484 0.0780276 -0.10335188 -0.00034389205

bayes_fc2.weight_rho f4 [1, 64]
000000 94 cb 88 bf 7e 52 57 c0 80 25 46 c0 b1 33 51 c0
       -1.0687127 -3.36441 -3.0960388 -3.26878
000010 50 2e 50 c0 36 b7 42 c0 50 6e a4 bf 5f 04 50 c0
       -3.2528267 -3.0424323 -1.2846165 -3.2502668
000020 f7 4b 4c c0 a9 4b 21 c0 b5 fd 19 c0 43 75 2a c0
       -3.1921365 -2.520243 -2.40611 -2.663407
000030 26 ec fc bf b8 b3 5e c0 dd a1 cc bf 60 de 16 c0
       -1.9759567 -3.4797192 -1.5986897 -2.3573227
000040 4a 2d 60 c0 4d 60 fd bf bb 14 d9 bf d0 43 56 c0
       -3.5027642 -1.9795014 -1.6959451 -3.347889
000050 b3 4b 2d c0 d5 ee 0e c0 53 22 e3 bf 45 f9 4a c0
       -2.7077453 -2.2333272 -1.774485 -3.1714642
000060 e9 60 1d c0 85 78 0d c0 99 08 62 bf 5a b9 51 c0
       -2.45904 -2.210481 -0.8829437 -3.276938
000070 b5 87 52 c0 c2 fa 8a bf d3 89 78 bf a3 72 c4 bf
       -3.289533 -1.0857775 -0.97085303 -1.5347484
000080 a3 78 0d c0 6b 4d 94 bf c6 3f 05 c0 7b a3 48 c0
       -2.210488 -1.1586126 -2.0820174 -3.134978
000090 b5 65 57 c0 e1 7c 08 bf d0 a1 4f c0 3b 78 86 bf
       -3.3655827 -0.5331555 -3.2442513 -1.0505441
0000a0 49 4d 48 c0 75 75 3a c0 bc 98 3e c0 34 5b ef bf
       -3.129717 -2.913419 -2.9780722 -1.8699708
0000b0 6d 5d f3 bf 93 29 ab bf 7c 82 c0 bf 7e a9 4c c0
       -1.9012886 -1.3372062 -1.5039821 -3.197845
0000c0 5c 0c a2 bf f7 fd 1a c0 7d e3 1d c0 da 80 29 c0
       -1.2660022 -2.4217508 -2.4670098 -2.6484895
0000d0 a2 ba cf bf 7a 0e 57 c0 d8 6d c4 bf 6d 2f 58 c0
       -1.6228831 -3.3602586 -1.5346022 -3.3778946
0000e0 72 bd 39 c0 32 9a 4d c0 c6 c3 3a c0 43 14 3d c0
       -2.9021878 -3.2125363 -2.918199 -2.9543617
0000f0 09 fa a9 bf 9b 03 5a c0 4c fa 52 c0 c5 ce 04 c0
       -1.327943 -3.40647 -3.296527 -2.0751202

bayes_fc2.prior_mu_old f4 [1, 64]
000000 ea e3 ad 3d 74 de ce 3d cd c5 b1 bd 48 85 00 be
       0.08490737 0.10101023 -0.08680306 -0.12550843
000010 1f 81 d8 bd 16 2d e1 3d 47 f5 46 3d cc 27 8d bd
       -0.10571503 0.109949276 0.04857376 -0.06892356
000020 60 fa db bd e1 35 0e 3e 30 5d 34 3d 33 71 cf bd
       -0.107411146 0.1388774 0.044034183 -0.10129013
000030 7a 8d 9f bd 4a a0 cd 3d aa ec 36 bd 74 ba d8 3e
       -0.077906564 0.10040338 -0.044659294 0.42329752
000040 c6 51 d1 3d f2 98 49 3c f6 34 4d bd d1 72 bc 3d
       0.10220675 0.012304531 -0.050099336 0.09201587
000050 e5 82 ce bd f0 fe d9 bc de 6c 76 bd ff 94 73 bd
       -0.1008356 -0.026610821 -0.060162418 -0.059468266
000060 34 a8 82 3c 66 0f 98 bc 64 24 07 3e ff cf 03 3e
       0.015949346 -0.01856203 0.13197476 0.12872313
000070 57 14 09 3e 38 b7 dd bc 8a c0 90 bd 50 b3 a3 3c
       0.13386665 -0.027064905 -0.07067974 0.019982964
000080 0c b0 35 3d 87 de f6 3c 2e 46 1c bc ee 19 6b 3d
       0.044357345 0.030135406 -0.0095382165 0.057397775
000090 6d 66 ec bd 36 74 bc 3d 32 5b a4 bd 59 1e 2f 3e
       -0.11542974 0.09201853 -0.080252066 0.1710142
0000a0 4f 85 0a be 97 02 d4 bd 90 08 a1 bd 42 7d d5 3c
       -0.13527416 -0.103520565 -0.07862961 0.026060704
0000b0 f2 5b 64 3c 2e 3d a4 3c a8 c1 94 bd fa 5d 80 bd
       0.013937937 0.020048704 -0.072634995 -0.062679246
0000c0 db c0 c0 3c 15 54 93 bc 52 9a 8c 3b 0d d7 d0 bd
       0.02352946 -0.01798443 0.0042908574 -0.10197268
0000d0 8e 3b 5d 3d 08 6f 18 3e da 84 a4 bd be 8d e7 3d
       0.054011874 0.14886105 -0.08033152 0.11306332
0000e0 2f 51 8f 3d e3 72 c1 3d f7 4f f2 3d 53 e0 ae 3d
       0.069979064 0.09445741 0.11831658 0.0853888
0000f0 8c a0 cf 3c 42 5f b8 3d 63 77 db bd 41 69 ec bb
       0.02534511 0.09002544 -0.107161306 -0.0072146957

bayes_fc2.prior_sigma_small f4 [1, 64]
000000 11 35 9c 3e a8 b0 14 3d dc 32 3a 3d 46 41 24 3d
       0.30509236 0.036301285 0.04545866 0.040101312
000010 da 6b 20 3d cd 5d 45 3d 9b 32 81 3e 1a 25 23 3d
       0.039165355 0.04818516 0.2523392 0.039830305
000020 f4 b5 30 3d e8 5f a6 3d f9 f8 a9 3d d0 5d 8c 3d
       0.043142274 0.081237614 0.08299441 0.06853831
000030 2e 7c 07 3e a7 8d 08 3d f9 b4 41 3e 3c 65 c2 3d
       0.13230965 0.033338215 0.18916692 0.09491965
000040 31 84 fd 3c b6 3f 04 3e 4f 49 31 3e bc b8 10 3d
       0.030946823 0.12914929 0.17313121 0.035332426
000050 86 4b 88 3d a2 1f ce 3d 21 aa 26 3e e6 74 30 3d
       0.0665503 0.10064627 0.16275837 0.043080233
000060 cd e6 aa 3d 71 28 da 3d 11 e3 b2 3e 20 f7 22 3d
       0.08344803 0.10652245 0.34938863 0.039786458
000070 c3 47 1e 3d 50 b5 98 3e ba eb 9a 3e 00 28 51 3e
       0.038642656 0.2982583 0.3025797 0.20425415
000080 0d 80 dc 3d dc ec 8a 3e 2e a1 f1 3d 5a 05 29 3d
       0.10766611 0.27133834 0.11798321 0.04126487
000090 21 ef 0f 3d a0 be f0 3e e2 4f 28 3d 3e 55 9c 3e
       0.03514016 0.47020435 0.041091807 0.30533785
0000a0 f8 89 38 3d eb 27 4f 3d ed a0 5c 3d 89 12 18 3e
       0.045053452 0.050575178 0.05386441 0.1485082
0000b0 59 12 0f 3e c2 28 6a 3e d2 2c 4c 3e df 37 29 3d
       0.13971843 0.2286711 0.19938973 0.04131305
0000c0 cf c3 83 3e 2f 4b b5 3d f4 cc a8 3d 68 0a 90 3d
       0.25735328 0.08852231 0.08242217 0.07033235
0000d0 15 40 3f 3e fa 4f 13 3d 18 d7 4a 3e 5f a8 14 3d
       0.18676789 0.035964943 0.19808614 0.036293384
0000e0 0a 1b 63 3d d2 f7 22 3d b0 65 5f 3d 69 91 56 3d
       0.05544571 0.03978712 0.054540336 0.052384768
0000f0 52 e7 72 3e 09 bc 0c 3d c2 d9 1a 3d 2b e3 f4 3d
       0.23721054 0.03435901 0.037805326 0.11957391

exp_avg f4 [64, 6]
000000 d7 97 f6 37 2d 79 37 b9 df cb bc b7 3c 60 94 38
       2.9396191e-05 -0.00017497381 -2.2506281e-05 7.075115e-05
000010 fc 53 e2 b7 c9 8c 90 37 bc 05 84 b9 c9 13 f1 bb
       -2.6980408e-05 1.7231696e-05 -0.00025181274 -0.007357095
000020 67 cd 3c b9 ca c8 b7 ba 53 05 52 bc f1 92 30 b9
       -0.00018005595 -0.0014021632 -0.012818652 -0.00016839408
000030 e7 8c a7 3a 2b f9 72 3b be 08 8e 37 7c 3a bd ba
       0.0012783081 0.0037074785 1.693179e-05 -0.0014436985
000040 c6 e5 8a 3b 86 4a 93 b9 f7 3d db 3a fc ed 27 3c
       0.004238817 -0.0002809355 0.0016726841 0.010249611
000050 f0 fe d2 39 b4 bc 13 3b c2 c2 86 3b b8 84 36 38
       0.00040244265 0.0022542896 0.0041125724 4.3515785e-05
000060 78 2a c5 3b 1a da 01 3c 1b 1c ab 39 9d 73 24 bb
       0.0060170256 0.007925535 0.00032636602 -0.0025093325
000070 17 c6 00 bb a7 3d b6 b9 05 6b 80 3b dc bb 0d bb
       -0.001964932 -0.0003475968 0.0039190077 -0.0021626865
000080 66 d2 00 b9 10 06 1e 3b 31 fd 4a 3b 07 d7 c0 b8
       -0.00012285411 0.00241125 0.0030973668 -9.1953254e-05
000090 0e d1 c2 b7 29 21 88 35 25 23 a6 38 75 d6 08 b9
       -2.322395e-05 1.014244e-06 7.922043e-05 -0.00013049862
0000a0 21 bf 2f 39 b1 e0 56 b7 94 d0 94 3b 1e f6 37 3c
       0.00016760502 -1.2807709e-05 0.004541466 0.0112281125
0000b0 4c a3 32 39 1a d9 87 3a 3f 44 31 ba 8f 71 02 b9
       0.00017036236 0.0010364384 -0.00067621836 -0.0001244007
0000c0 1b 4b 14 bb 24 11 e1 bb cf 8b 06 39 6d df c6 ba
       -0.0022627774 -0.0068684984 0.00012831319 -0.0015172787
0000d0 25 5e 55 bb 6b d3 7a b9 d3 97 e4 b8 66 24 6a ba
       -0.0032557335 -0.00023920617 -0.00010900167 -0.00089318154
0000e0 fb 4c a1 b8 58 24 8d b7 0d b7 be ba 7c 1a 96 b8
       -7.691417e-05 -1.6825434e-05 -0.0014550403 -7.1574905e-05
0000f0 02 2e 94 b8 46 75 13 3a 97 67 8f 37 54 25 44 39
       -7.0657596e-05 0.000562508 1.7095166e-05 0.00018705922
000100 28 f7 9b 39 24 7b 3a 38 7b a7 bb 3b f4 b0 55 3c
       0.0002974805 4.446054e-05 0.0057267523 0.013042677
000110 85 da 0a 3a b8 dc e2 3b bb d2 53 3c 27 ff 3c 38
       0.0005296844 0.0069232844 0.01292866 4.5060322e-05
000120 fb 70 b5 3a 01 3c 67 3b d4 df e2 38 91 7b 91 3a
       0.0013842875 0.0035283568 0.00010818211 0.0011099448
000130 cb 52 4a 3b d8 f6 ef 38 a5 ea c5 ba f1 9f 43 bc
       0.0030872102 0.00011442386 -0.0015099837 -0.0119399885
000140 95 cb ea b9 c9 6a b5 b9 8f 3c 8c bb a0 1c 8c 39
       -0.00044783638 -0.0003460257 -0.00427968 0.00026724208
000150 93 af d5 ba 8a bf 3f b9 ac d2 86 b9 53 92 05 bb
       -0.0016302936 -0.00018286533 -0.00025715434 -0.0020381405
000160 94 a2 c3 bb 35 71 57 b9 b5 02 b8 b9 49 05 14 bc
       -0.0059703086 -0.0002054617 -0.00035097232 -0.009034463
000170 f9 c7 85 ba 8f ee 41 bc e1 a4 03 bd 83 85 0c ba
       -0.0010206691 -0.011836662 -0.032139663 -0.0005360471
000180 de d1 a0 b9 4a 70 4e 3b 54 9e 56 39 81 cc ec 3a
       -0.0003067394 0.0031500035 0.00020467612 0.0018066318
000190 d7 8d 8a 3a 9e 6a bb 39 79 99 b8 b6 89 9e 1e 37
       0.0010570836 0.00035746855 -5.501494e-06 9.454446e-06
0001a0 3c 8a df b6 a9 9e 7e b8 e0 8c 09 39 e1 34 b3 b7
       -6.6620105e-06 -6.0706083e-05 0.00013117818 -2.1363086e-05
0001b0 b6 b1 7e 3a 82 76 94 3a db 5e be 39 58 9f 08 b7
       0.0009715812 0.0011326822 0.00036310297 -8.143332e-06
0001c0 cb f0 5f 3b cd b0 ec 39 ba 2a 12 bb c3 08 90 3a
       0.0034170623 0.00045145155 -0.00223033 0.0010988939
0001d0 c5 8c c8 b9 84 1e 85 3a e5 09 9a 3a da 17 39 39
       -0.00038251854 0.0010156189 0.0011752216 0.0001765186
0001e0 96 2a 8a ba 34 83 95 bb 53 59 91 b6 a4 32 f7 38
       -0.0010541256 -0.00456276 -4.3317355e-06 0.0001178731
0001f0 73 1c b1 3a 7f 0d 80 b7 ba 17 8a 37 25 ca e8 39
       0.0013512507 -1.5265074e-05 1.646193e-05 0.00044401098
000200 98 84 2c 38 36 4e 9b 38 4e 8e 00 3a 44 5d 99 37
       4.1131483e-05 7.405544e-05 0.00049040176 1.8282451e-05
000210 73 b9 e4 39 0f 8e c8 3a ae 20 11 39 9b 07 ab 3a
       0.0004362572 0.0015301126 0.00013840452 0.0013048531
000220 3c 1d d5 38 e4 95 0b 39 ea d8 12 bb f5 50 40 bc
       0.00010162077 0.00013311912 -0.0022407123 -0.011738052
000230 81 36 ea 38 31 0c c2 ba 71 db e7 bb 0d e8 94 b9
       0.00011168142 -0.0014804659 -0.00707572 -0.0002840165
000240 1b 76 06 3a b7 d0 be 39 de b9 3d 38 2e 6a 3d 39
       0.00051292934 0.0003639513 4.5234214e-05 0.00018064
000250 5a 7a 3c 39 57 0b 1c b9 a4 31 20 b9 d4 df 27 ba
       0.00017974657 -0.00014881544 -0.00015277282 -0.00064038974
000260 0d 24 59 b8 e0 6d 12 b9 fc 16 00 ba 46 a5 8b b8
       -5.1770407e-05 -0.00013964577 -0.00048862374 -6.658821e-05
000270 a0 82 06 3b c2 b0 c8 3b 13 ae c1 39 e5 07 58 b8
       0.0020524636 0.006124587 0.00036941524 -5.1505765e-05
000280 3c b2 e6 3b 3c 91 ac 38 85 fe 05 bb 62 03 07 3c
       0.00704029 8.228651e-05 -0.0020445895 0.008240553
000290 a3 4f 55 ba e1 a6 6d bb c0 34 16 bc 4e 2d 35 b9
       -0.0008137172 -0.0036262798 -0.00916785 -0.00017278382
0002a0 f8 2f 17 bb bc da a1 bb 0e e7 9e b9 79 a7 a4 bb
       -0.0023069363 -0.0049394052 -0.00030308258 -0.005024847
0002b0 6f c4 39 bc fb de a5 b9 72 67 43 b7 10 69 2a b9
       -0.011338337 -0.00031637386 -1.1646991e-05 -0.00016251602
0002c0 72 66 17 b7 23 b0 14 38 ec 96 a5 b8 51 4f 01 b8
       -9.024154e-06 3.544999e-05 -7.8959245e-05 -3.0829866e-05
0002d0 3d 94 1d 38 82 68 25 39 01 79 b5 b7 ba fd ce 37
       3.7569775e-05 0.00015774558 -2.1633228e-05 2.4675264e-05
0002e0 19 66 96 b6 6c 82 10 38 8a 6b b8 38 7b f6 07 39
       -4.482234e-06 3.445374e-05 8.7938344e-05 0.00012966424
0002f0 ce 3c dc b4 64 5c 06 b8 50 72 7b b8 79 e1 3f b7
       -4.1022435e-07 -3.2034135e-05 -5.9949525e-05 -1.1436984e-05
000300 10 0d b6 b8 77 8a 8b 37 1d 14 3b b7 97 43 46 b8
       -8.680869e-05 1.6634569e-05 -1.1150752e-05 -4.7269827e-05
000310 77 f9 a8 b9 79 65 f4 37 55 e9 05 38 31 c3 87 39
       -0.00032229323 2.9134319e-05 3.192698e-05 0.00025894635
000320 11 4f 04 38 76 3f 8b 39 85 35 63 39 f2 30 11 39
       3.154489e-05 0.00026559428 0.00021668345 0.00013846511
000330 b9 05 9a 39 49 dd 96 39 ba 3b b0 b6 e1 b0 e8 37
       0.00029377433 0.000287751 -5.252162e-06 2.773892e-05
000340 ae a7 99 b8 8e 64 99 37 4e 23 af ba de 26 d2 ba
       -7.326841e-05 1.8285846e-05 -0.0013361962 -0.0016033312
000350 71 67 83 b9 2c aa 17 bb 83 6a e2 bb af 33 43 b9
       -0.00025063337 -0.0023142202 -0.00690967 -0.00018615903
000360 3e 7b 9d 3b 97 db 19 3c 0c 28 b0 39 b5 97 91 ba
       0.0048059514 0.009390733 0.00033599173 -0.0011107834
000370 2e 06 77 3b 65 b2 e8 b8 13 da d6 b7 c5 71 2a b9
       0.0037692892 -0.00011095851 -2.5612337e-05 -0.00016254846
000380 1b a6 76 b8 31 d5 9a 37 1c 00 59 b9 2b 2b af b8
       -5.880567e-05 1.8457506e-05 -0.00020694773 -8.352691e-05
000390 8a 06 c3 39 f3 80 09 3a 56 29 8d b7 20 15 d5 38
       0.0003719817 0.000524535 -1.6827758e-05 0.00010160566
0003a0 bc b0 b0 b9 05 da 11 b8 54 6d 70 b9 c6 5e 14 ba
       -0.00033701013 -3.477374e-05 -0.00022928911 -0.00056598743
0003b0 ed 7a 2b b8 10 7a a2 b9 38 6e f0 b9 4b 1d 8c b8
       -4.088406e-05 -0.00030989992 -0.00045858487 -6.6811765e-05
0003c0 51 c0 86 ba f4 d9 ab bb d1 85 5a 39 e9 97 44 bb
       -0.0010280703 -0.005244488 0.0002083995 -0.0029997772
0003d0 18 d2 cb bb 4a 58 ac b9 6d c2 a8 3a 17 3e 38 3b
       -0.0062201135 -0.00032872177 0.0012875326 0.002811318
0003e0 34 5e 99 34 f7 34 4d ba d9 51 a3 ba ca d6 8e b9
       2.8567013e-07 -0.0007828022 -0.0012460306 -0.0002724438
0003f0 c4 5a ea b8 aa 71 58 ba fb 94 f4 37 86 50 31 ba
       -0.00011174896 -0.00082566834 2.9156441e-05 -0.0006764013
