lightning_logs/version_45/checkpoints/epoch=49-step=6900.ckpt (torch, 30427 bytes, 24 tensors)

bayes_fc1.weight_mu f4 [64, 6]
00000000: f75a 55be fd9f f7be 0858 30be ea39 c1be
00000010: 5533 c1be 074f 62be c20a 003f d389 06be
00000020: 6a52 ce3e 5327 c1be e6af 093e 58c8 7cbe
00000030: c0d8 b9be 23ac 643e a66a bfbe 6263 4c3e
00000040: d81a 29be 8feb 8b3e 3379 bbbe b915 5c3e
00000050: 8f94 21bf 55ab ca3e 8934 f1bd 6097 3dbd
00000060: 00d4 c0be 9bf5 5a3e 93e7 f2be 3080 913e
00000070: df98 31be 6159 733e 8b38 2a3e 683f 21be
00000080: e886 203f 7504 86be 3a14 5f3e 6e9b 1c3d
00000090: 8b9b 8bbe fa04 ccbe bcff 18be ad7a aabe
000000a0: e796 b8be 0975 47be 3b3a ccbe b656 7c3e
000000b0: d0a3 5ebe db1c acbd b692 b5be 505f c73e
000000c0: bbc6 90be 314b 123e 6889 0abf bdee e63e
000000d0: 6ee2 0fbe 5d09 6abd a6c7 8ebe 84a2 abbe
000000e0: a233 25bd fea3 45be 433c 7e3d 9cd5 693e
000000f0: ce21 8bbe 1045 9fbe 8a3b 52bd c98d b7be
00000100: 91e4 b0bd 4d77 2a3c 2dbc 60be 173e 9d3d
00000110: 703b 25bf b17a ce3e 04d0 91bd 78ff 66bd
00000120: d687 8fbe e6ac 11be afcb fbbd aa6e 7ebe
00000130: 4384 e6be 0b7c 1cbe 35ed e83e b748 19be
00000140: f217 bc3e 7020 a2be a079 4d3e 2558 ebbd
00000150: caa3 e2bd 8fa2 4ebe 949f 21be 4c50 8fbe
00000160: 367b ddbe 12fa 8dbd fa9e 4dbf 73dc 62be
00000170: 6b35 79be 41af 5cbd e55d 753d 2513 1b3f
00000180: c5d4 843e f84e 4cbe 9913 1d3f a5e8 97be
00000190: 0c91 653e 23d9 143d 4f47 b7be 110d 95bd
000001a0: 8195 ffbd 9f89 2dbe c3a5 8dbe be01 e7bd
000001b0: 2b88 88be ca5a a2be 6947 12be a43c 83be
000001c0: 1b08 a5be 7d05 02be 3c02 903e 116e 0fbe
000001d0: 93ce 133f 9021 abbe 54c6 513e 7e7b 0abe
000001e0: 02c4 86be c23f 533d 4d83 f7be 210e 733e
000001f0: a611 09be be89 52bc 5b3e aabe 9d93 c13d
00000200: 5adb f1bd ca25 69be 703c 6dbe 0dea 423e
00000210: 7055 64be 44a7 a5be 1cff 38be 238e cbbe
00000220: 8f00 04bf 7328 48be 33c9 c2be 7427 113e
00000230: 5724 cabe a16c 433e 7f00 2ebe d7bd ab3d
00000240: efc1 fcbd 82c7 94be c0fd 98bd 865f 91be
00000250: a035 c2be 95a5 d5bd ccfe 2cbe dc8e b9be
00000260: 36c7 22be b9e5 03be 87b3 d0be e1ac 3cbe
00000270: 0097 9cbe 5dce 76be 33f1 3abe f64b 93be
00000280: f128 1abe a924 eebd 7c61 1c3e cf75 25be
00000290: d7a1 0d3f 404d 9cbe 7d44 473e b738 123e
000002a0: d52b 8e3e 4dce 49be affa c93e 5f02 8cbe
000002b0: a41d 103e ff10 763e 17f5 38be 305f b5be
000002c0: 1dbf fbbd d069 5dbe 46de abbe b870 4dbe
000002d0: 704b 8fbe 85f7 60be b9d3 46be 116d 4fbd
000002e0: 0650 98be 19b6 4bbe dff5 8bbe 59b1 b3be
000002f0: 33d2 fbbd 3a6e 44be e594 dfbe 9047 cabd
00000300: 00fd 44be 744a 9bbe 1584 42be 1870 51be
00000310: 63a5 63be 5ee5 8dbd ff30 a2be 884b 9cbe
00000320: 3ce8 3ebe 6c19 98be 786f 91be c63e 03be
00000330: 6df2 49be d9dd d2bd 3fe1 b5bd 9630 5cbe
00000340: cd93 c8be 05a1 86bc 5526 a73c 668d 80be
00000350: 8c52 b73d 81af cdbe 041a 253e 0c35 a53d
00000360: 5188 ddbe 257d 8f3e 2083 07bf f182 863e
00000370: 4fea f9bd ef91 853e d553 cdbe a205 e0be
00000380: 457b 64be 936c adbe 6c9a aebe 9e76 6abe
00000390: 0f5f aabe 53a7 283e 0305 32bd 8633 e0bd
000003a0: 1395 a7be 0513 dfbb 952a 64be 50b9 62be
000003b0: f3af 54be 395b 2fbe 4c5c a7be c018 8d3c
000003c0: 2b83 9ebe 9f9f 4c3e a999 25bf fd97 9e3e
000003d0: 06ed fdbd 3f39 413e 7860 bbbe f8ee c73d
000003e0: 9cd1 c3be 768c 6d3e 906a 12be bb06 cd3c
000003f0: 8bbb 83be 481c 9c3d 3c1b f4be 4fb4 ea3e
-0.20835482 -0.4836425 -0.17221081 -0.37739497 -0.37734476 -0.22100459 0.50016415 -0.13138513
0.40297252 -0.37725314 0.13446006 -0.246858 -0.3629818 0.2233129 -0.37386054 0.19959787
-0.16514146 0.27328154 -0.36615905 0.21492662 -0.6311731 0.3958384 -0.117775984 -0.04628694
-0.37661743 0.21382754 -0.47442302 0.28418112 -0.17343472 0.23764564 0.16623132 -0.15746844
0.6270585 -0.26175275 0.2178506 0.038234167 -0.27267107 -0.39847547 -0.14941305 -0.3329672
-0.3605263 -0.19478239 -0.39888176 0.24642453 -0.21742177 -0.08403941 -0.35463494 0.38939905
-0.2827662 0.14286496 -0.54115915 0.45104018 -0.1405122 -0.057137836 -0.27886695 -0.33522427
-0.040332444 -0.1930084 0.06206919 0.22835392 -0.27174228 -0.31107378 -0.051326312 -0.3585036
-0.086373456 0.01040442 -0.21946783 0.07677858 -0.6454382 0.4032798 -0.07119754 -0.056395978
-0.28033322 -0.14226112 -0.12294709 -0.24846902 -0.45022783 -0.15281694 0.45493475 -0.14969145
0.3673702 -0.31665373 0.20065928 -0.114914216 -0.110663965 -0.20179199 -0.1578353 -0.2799095
-0.43258065 -0.06932463 -0.80320704 -0.22154407 -0.24336784 -0.053878073 0.059903998 0.6057609
0.2594358 -0.19951999 0.6135803 -0.2966968 0.22418612 0.03633989 -0.35796592 -0.07277883
-0.124796875 -0.1694703 -0.2766553 -0.11279629 -0.26666388 -0.31709892 -0.14285053 -0.25632203
-0.32232746 -0.12697406 0.28126705 -0.14006831 0.5773708 -0.33424044 0.20485812 -0.13523671
-0.26321417 0.051574476 -0.48342362 0.23735859 -0.13385639 -0.012850223 -0.33250698 0.09451983
-0.11809416 -0.22768322 -0.23167586 0.19034596 -0.22298217 -0.32354176 -0.18066067 -0.3975688
-0.5156335 -0.1954668 -0.38044128 0.14175206 -0.3948085 0.19084407 -0.16992377 0.083858185
-0.123416774 -0.29058462 -0.07470274 -0.2839319 -0.37931538 -0.10431973 -0.16894072 -0.36241806
-0.15896305 -0.12880601 -0.40761968 -0.18425323 -0.30583954 -0.24102159 -0.18256073 -0.2876889
-0.1505468 -0.11628086 0.15271562 -0.16158222 0.55325073 -0.30527687 0.1945972 0.14279447
0.27767816 -0.19707604 0.3944907 -0.2734556 0.14073807 0.24029921 -0.18062244 -0.35424185
-0.12292311 -0.21622396 -0.3356802 -0.2006253 -0.27987242 -0.21969421 -0.19416703 -0.050641123
-0.29748553 -0.19893683 -0.27336022 -0.35096243 -0.12295952 -0.19182673 -0.43668285 -0.09876931
-0.19237137 -0.3033024 -0.18995698 -0.20452917 -0.22231059 -0.06928514 -0.31678006 -0.30526376
-0.18643278 -0.29706895 -0.28405356 -0.12816915 -0.19721384 -0.1029622 -0.08880853 -0.21502909
-0.39175263 -0.016434202 0.02040402 -0.25107878 0.089512914 -0.4017296 0.16123205 0.080667585
-0.43268064 0.28025165 -0.52934456 0.26271775 -0.12202894 0.260879 -0.4010302 -0.43754297
-0.22312649 -0.33871898 -0.3410219 -0.22896811 -0.3327565 0.16470079 -0.04346181 -0.10947327
-0.32730922 -0.006807687 -0.22281869 -0.22141004 -0.20770244 -0.17124642 -0.32687604 0.017223716
-0.30959448 0.19982766 -0.6468759 0.30975333 -0.12398724 0.18869494 -0.36597037 0.097623765
-0.38245857 0.23198113 -0.14298463 0.025027623 -0.2572902 0.07622582 -0.47677028 0.4584069

bayes_fc1.weight_rho f4 [64, 6]
00000000: 5389 88bf 8755 b7bf 21a1 8b3e d5ed 89bf
00000010: 2395 e9bf fe54 ca3e c1c2 1ec0 92fd 4cc0
00000020: 0cfc 8dbe f5de 11c0 7408 44c0 7832 49be
00000030: f4e5 16c0 3da9 54c0 2851 1cbe 2f96 04c0
00000040: 9f0d 34c0 2a59 9dbe 706e 2fc0 f771 60c0
00000050: 46d2 c1be 5050 2ac0 1925 63c0 605d debe
00000060: 8506 18c0 ba58 4fc0 8027 49be 7b6b 17c0
00000070: 38e9 49c0 67fe d0be 3dfc 0dc0 7dc7 3cc0
00000080: 1713 eebe 4866 22c0 4e4b 57c0 a376 87be
00000090: 5c3c 86bf 9db2 e4bf 47d0 a73e 6a5c 9abf
000000a0: bfb8 d2bf d1fe 813e 4172 f3bf 3a92 32c0
000000b0: afdf 14bd 46fd b4bf 87cf 0fc0 5354 c43d
000000c0: f30f 1cc0 b329 49c0 4833 a8be cf29 1fc0
000000d0: f094 51c0 247e fcbe 9031 b2bf fc4d 19c0
000000e0: ee41 83bb 612e f2bf b010 26c0 3721 fa3d
000000f0: f725 83bf 7204 03c0 9121 ef3e ffc8 95bf
00000100: 0f2a 04c0 ca1c f43e 8c01 0fc0 db33 49c0
00000110: a8bc 68be 6345 19c0 19a2 45c0 41f7 9abe
00000120: 87c8 a4bf e1bd 0fc0 4b70 aa3e 8cd3 9cbf
00000130: 1660 cabf d5fd 763e a8cb 33c0 ad6b 63c0
00000140: 49d0 2dbf 2123 34c0 5a9c 62c0 3d65 0ebf
00000150: c786 bbbf 1c96 11c0 a894 903e 7b32 80bf
00000160: 75cd dcbf 8a42 b63e bb80 d8bf 7435 43c0
00000170: a3ba 1bbf 636f 3dc0 7983 6cc0 6089 a2bf
00000180: 1c48 0cc0 5e13 45c0 b90f c3be 1d96 1fc0
00000190: 7698 4dc0 997f b0be 6c18 acbf 6c2e 07c0
000001a0: 36c9 a53e 31f3 8fbf 4662 05c0 6627 873e
000001b0: 575b 8cbf dfc8 01c0 1992 ae3e 8d70 a2bf
000001c0: b995 f7bf 60ad b83e c532 2ac0 bec2 5cc0
000001d0: ead6 16bf 1b94 27c0 8eac 5bc0 5e98 26bf
000001e0: f313 07c0 febd 3ec0 2715 efbd 81f7 0fc0
000001f0: 2ee7 3bc0 044a 2dbe 951d eabf 50b0 33c0
00000200: d194 063e 26dc b7bf b5b8 1fc0 f091 e93d
00000210: f497 8fbf 2f03 e0bf a57c d23e af3d 5ebf
00000220: 194a c2bf 859e b43e 3b75 07c0 d2fa 33c0
00000230: 72f3 043d d880 f1bf 338e 31c0 9db0 85bd
00000240: 61e2 92bf 8c9f f1bf 25df e73e 7ef9 67bf
00000250: 76f5 c1bf 2be6 ee3e 86f4 8fbf 60d5 febf
00000260: 50eb ca3e fee4 9fbf 8492 ccbf b58c bb3e
00000270: 6418 a8bf 2115 0cc0 5420 92bd 69b8 d4bf
00000280: 6b38 1ac0 0ed7 10bd 27e7 21c0 da2f 56c0
00000290: 44db 53bf 1b75 36c0 462f 67c0 987c 50bf
000002a0: 8bc5 32c0 9d93 65c0 06c5 4ebf 32e4 37c0
000002b0: 9c6b 6fc0 ca0d 74bf 522f b4bf c5f6 eebf
000002c0: 788b 953e eabb aabf d27b e0bf 8438 ae3d
000002d0: 16ec 9fbf e78e f6bf 0df1 ab3e 3343 d8bf
000002e0: c22e f2bf 46fe c53d 0ea0 88bf f6e2 fcbf
000002f0: 70ab dc3e 518f 99bf 4e5a d3bf 578f b13e
00000300: 775f a7bf 8549 00c0 c8e7 bf3e 5f96 91bf
00000310: a316 02c0 5dcf d53e e3af 92bf ab3f 02c0
00000320: e18a 6f3e 7e38 89bf 2d02 07c0 4464 7d3e
00000330: 80c8 c0bf ca30 0bc0 0fb2 b53e 1736 65bf
00000340: b3fd f8bf 0c12 c13e 3168 bfbf 9254 1ec0
00000350: 1996 443e b2ed d9bf 638d 29c0 4b46 9e3d
00000360: 3f08 2cc0 111d 65c0 b258 a9be 0b95 23c0
00000370: be35 4ac0 b167 14bf 7929 97bf f946 e4bf
00000380: cb1d df3d 8aaa 89bf 131e f0bf d80f 4a3e
00000390: 4e3a d7bf f48d 1bc0 a7dc e33e 2a45 b3bf
000003a0: ba40 ffbf 7191 bb3e 6da7 bbbf caf4 1cc0
000003b0: b30a 863d f602 e7bf 28b9 fbbf 7cd5 7bbe
000003c0: 790d 26c0 0c6e 5dc0 3846 e2be 0ad1 29c0
000003d0: d177 4fc0 1c3f 02bf 51cc 06c0 2744 3ec0
000003e0: 8274 87bd cd68 0fc0 f65c 39c0 f4b0 80bd
000003f0: d2f4 07c0 55e1 36c0 9429 f93c e1ee 08c0
-1.0666908 -1.4322976 0.2727137 -1.0775706 -1.8248638 0.3951797 -2.4806368 -3.2029767
-0.2773136 -2.2792332 -3.063016 -0.19648159 -2.3577852 -3.3228295 -0.15265334 -2.0716665
-2.8133314 -0.3073209 -2.7411156 -3.5069559 -0.37855738 -2.661152 -3.5491393 -0.43430614
-2.375398 -3.2397904 -0.19643974 -2.365935 -3.1548595 -0.40819094 -2.2185204 -2.9496758
-0.4649894 -2.5374928 -3.3639712 -0.264577 -1.048717 -1.7867008 0.3277609 -1.2059453
-1.646263 0.25389722 -1.9019243 -2.790175 -0.036346134 -1.4139793 -2.2470415 0.09586396
-2.4384735 -3.14317 -0.32851624 -2.4869268 -3.2747154 -0.49314988 -1.3921375 -2.3953848
-0.004005662 -1.8920404 -2.5947685 0.122133665 -1.0245961 -2.0471463 0.46705297 -1.1701964
-2.065067 0.47678214 -2.2344694 -3.14379 -0.22728217 -2.39486 -3.0880187 -0.30266765
-1.2873696 -2.2459643 0.33288798 -1.2252059 -1.5810573 0.24120267 -2.8093052 -3.553447
-0.6789594 -2.814644 -3.540793 -0.5562323 -1.4650506 -2.274787 0.28238416 -1.0015405
-1.72502 0.3559764 -1.6914285 -3.0501375 -0.6083166 -2.9599235 -3.6955245 -1.2698174
-2.1919012 -3.079307 -0.38097933 -2.4935372 -3.2124305 -0.3447235 -1.3444953 -2.1122084
0.32380074 -1.1246091 -2.0841231 0.26397246 -1.0965375 -2.0278852 0.3409584 -1.2690598
-1.9342567 0.36069775 -2.6593487 -3.4493861 -0.5892168 -2.6184146 -3.432407 -0.65076244
-2.1105926 -2.9803462 -0.11673956 -2.2494814 -2.935985 -0.16922766 -1.8290278 -2.8076363
0.13142706 -1.4364059 -2.4956486 0.114047885 -1.1218247 -1.7500972 0.4111072 -0.8681287
-1.5178863 0.3527719 -2.1165302 -2.8121839 0.03245873 -1.8867445 -2.7743042 -0.06527827
-1.1475335 -1.8876815 0.45287433 -0.9061507 -1.5153034 0.4665998 -1.1246498 -1.9908867
0.39632654 -1.2491758 -1.5982213 0.36630788 -1.3132443 -2.1887896 -0.07135072 -1.6618778
-2.4096935 -0.035361342 -2.5297334 -3.3466706 -0.8275645 -2.8508976 -3.6122603 -0.81440115
-2.793307 -3.5871346 -0.80769384 -2.873303 -3.740943 -0.9533354 -1.4076941 -1.8669058
0.2920797 -1.3338597 -1.7537787 0.08506873 -1.2493923 -1.926236 0.33582345 -1.6895508
-1.8920519 0.096676394 -1.0673845 -1.9756763 0.43099546 -1.1996862 -1.6511934 0.34679672
-1.3076009 -2.0044873 0.37481523 -1.1374015 -2.0326316 0.41759768 -1.1459926 -2.035136
0.23392822 -1.0720365 -2.1095078 0.2474528 -1.5061188 -2.1748528 0.3548741 -0.8953566
-1.9452423 0.3770908 -1.4953672 -2.4739118 0.19197883 -1.7025664 -2.6492546 0.07728251
-2.6880033 -3.579899 -0.33075482 -2.5559719 -3.1595302 -0.5797072 -1.1809531 -1.7834159
0.108943544 -1.0755169 -1.8759178 0.19732606 -1.6814668 -2.4305391 0.44504282 -1.4005482
-1.9941628 0.366344 -1.4660469 -2.4524407 0.065450095 -1.8047779 -1.966588 -0.24593157
-2.5945723 -3.4598417 -0.44194198 -2.6533837 -3.241688 -0.5087755 -2.1062205 -2.9729097
-0.06614019 -2.2407715 -2.896299 -0.06283751 -2.1243176 -2.8575032 0.030415334 -2.13958

bayes_fc1.bias_mu f4 [64]
00000000: 162e 33bd b301 913d 8cba 50bd 7842 16be
00000010: 2212 96bd 79f8 833e e9d5 efbd c111 273d
00000020: bbb0 c1bd 19e1 1a3e 4273 ddbc 1764 03be
00000030: 7a28 27bd 7ba8 213e 3844 71bc c780 5f3f
00000040: 5dcf 3e3e 8f83 3cbd 2587 d7bd 0397 333e
00000050: 9f83 1fbe 7ec8 a4bb 2807 fabd e356 7bbd
00000060: 1306 50bc 90d0 d2bd aaaf 8abc 2278 f73d
00000070: 3ae8 f93d f8d6 c4bd eeb6 85bd b87c 2f3b
00000080: 688c 32bd 0a0f eebd 8a1c 4abd 480b 083e
00000090: b12a 15be b99c 50bd 0260 2e3d c23c a4bd
000000a0: 8312 25be f500 b1bd 4069 1fbe 5f34 8bbd
000000b0: cba9 b2bd 205c b0bd 9d5a 2cbd ffcc 3abd
000000c0: 32b3 f5bd 71da 8ebd 5312 37bd 60be b8bd
000000d0: ce52 f4bd b5dc 083e 6e93 d8bd dadf 083e
000000e0: 6d42 e13d 8fd1 603e f56c 283e 3d1d a93e
000000f0: 74c8 10be 472c 813e 40ec ccbd 0edd 50bd
-0.043745123 0.07080402 -0.050959155 -0.14673793 -0.07327677 0.25775507 -0.11710722 0.040788416
-0.09457537 0.1512493 -0.027032498 -0.1283115 -0.040810086 0.15786926 -0.014725737 0.87305874
0.1863379 -0.0460239 -0.10523824 0.17538075 -0.15577553 -0.0050287833 -0.12208396 -0.06136216
-0.012696761 -0.102936864 -0.016929466 0.120834604 0.12202497 -0.096113145 -0.06529032 0.002677722
-0.043590933 -0.11623962 -0.049343623 0.13285553 -0.14567067 -0.050930712 0.04257203 -0.08019401
-0.16120343 -0.08642761 -0.15567493 -0.06797098 -0.08723792 -0.086113214 -0.042078603 -0.045605656
-0.119970694 -0.06975258 -0.04469521 -0.09020686 -0.11929856 0.13365443 -0.10574995 0.13366643
0.10998998 0.2195494 0.16447814 0.3303012 -0.14138967 0.25229093 -0.100059986 -0.050992064

bayes_fc1.bias_rho f4 [64]
00000000: 12c0 b2be 1783 a8bf 6a6f a8bf 8f39 c9bf
00000010: ac6c b9bf bced 93bf e620 bcbe c3bf 5cbf
00000020: 5683 afbf ada6 33bf 5c59 debe d2f1 90bf
00000030: 0764 06bf 625c c2bf 0b6a 0cbf 2da0 d9bf
00000040: 573f a3bf 773e 05bf 7b55 c7be 5cf7 c7bf
00000050: 800b 95bf 1ea8 65bf 56f7 82be c1a5 82bf
00000060: 74f8 87be b149 d0be a647 6cbf 2c33 ccbf
00000070: fe28 d4bf dece 05bf 07c1 18bf 1503 a6be
00000080: 81c6 fabe f712 f9be 1f7b 00bf 60a8 33bf
00000090: dc1f b8bf e83a 17bf 1df7 04bf f116 6fbf
000000a0: e638 a8bf d18a 85bf 7220 5dbf a9e0 d4be
000000b0: 1e89 dabe e301 05bf 349b 33bf 7375 82bf
000000c0: 3430 e9be 00c3 c4be 09b0 cfbe a5c4 22bf
000000d0: bc5f bfbe 395c d5bf 8596 1cbf 0c6d babf
000000e0: 51e6 acbf 5aed 9abf a09b 9dbf 29ae 32bf
000000f0: 4f48 fabe 0df9 91bf dc0e acbf 7894 efbe
-0.34912163 -1.3165005 -1.3159001 -1.572069 -1.4486289 -1.1556926 -0.3674385 -0.86230105
-1.3711956 -0.701762 -0.4342755 -1.1323798 -0.5249638 -1.5184443 -0.5484931 -1.7002007
-1.2753705 -0.5204844 -0.38932404 -1.5622363 -1.1644135 -0.8970965 -0.25579327 -1.0206834
-0.26556742 -0.40681222 -0.92296827 -1.5953116 -1.657501 -0.5226878 -0.59669536 -0.32424226
-0.4897957 -0.48647282 -0.5018787 -0.70178795 -1.4384723 -0.5907426 -0.51939565 -0.9339438
-1.3142364 -1.0432988 -0.8637763 -0.41577652 -0.42682737 -0.51956004 -0.70158696 -1.0192093
-0.4554459 -0.38430023 -0.40563992 -0.63581306 -0.37377727 -1.6668769 -0.61167175 -1.4564528
-1.3507787 -1.2103684 -1.2313118 -0.69797 -0.48883292 -1.1404129 -1.3442035 -0.4679296

bayes_fc1.prior_mu_old_bias f4 [64]
00000000: d6e2 95be a043 213c a372 dcbd 59ef b8be
00000010: 03d1 3cbe be82 df3e 1214 28be a330 563e
00000020: 7c14 b2be c769 9b3e 03f6 e8bd db75 f4be
00000030: 4c60 a5bd f6cc 383e 67b8 3abe f5a3 293f
00000040: cbee 963e 7763 07be a864 4fbe 5097 7f3e
00000050: 5057 e1be a407 e63c 45b0 54be 77f5 5ebe
00000060: 6d9d 4cbe 2c95 39be 7f92 19be 2d32 ad3e
00000070: 5913 c53e 8158 64be 3505 c2be 9990 c7bd
00000080: ec17 3fbe ee91 a9be 74f9 8abd a50e 0f3e
00000090: d8ea 81be 1e00 70be 9f15 043e 7337 f3bd
000000a0: 1a02 a2be 9040 a9be 8cc2 96be a924 69be
000000b0: 3045 a0bd e923 0abe 978d b8be 3b7d 7fbd
000000c0: a381 37be 241d f3bd 5442 39be e8b4 5bbd
000000d0: 9820 94be d6ab 6e3e 2f2e 83be fcdb bd3e
000000e0: d402 20bb 01f3 cb3e 1988 013f 15ac aa3e
000000f0: 79b5 86be 0bea c03e 8ce8 d4be d626 76be
-0.29274625 0.009842783 -0.10764053 -0.36120108 -0.18439107 0.43654436 -0.16413906 0.20916991
-0.34781253 0.3035414 -0.11375048 -0.47746167 -0.08075008 0.18046936 -0.18234406 0.66265804
0.2947906 -0.13221537 -0.20253241 0.24960065 -0.44011927 0.028079815 -0.20770366 -0.21773325
-0.19981928 -0.18123311 -0.1499729 0.33827344 0.38491324 -0.22299387 -0.37894598 -0.09744377
-0.18661469 -0.33119148 -0.06785861 0.1397043 -0.25374484 -0.23437545 0.12898873 -0.118758105
-0.31642228 -0.3305707 -0.29445302 -0.22767891 -0.078256965 -0.13490261 -0.36045524 -0.06237529
-0.17920546 -0.118707925 -0.18091708 -0.053639323 -0.28931117 0.23307738 -0.25621173 0.37081897
-0.0024415748 0.39833835 0.50598294 0.33334413 -0.26310328 0.3767856 -0.4158367 -0.24038252

bayes_fc1.prior_sigma_small_bias f4 [64]
00000000: 9cc7 1e3f 6d64 6e3e 50bf 923e a1b2 543e
00000010: d314 863e 6314 613e 9bfa 203f 1201 e23e
00000020: 95a9 833e 95b4 cd3e e60e 223f 1d21 8d3e
00000030: 1217 053f 4b10 5c3e d075 003f c472 183e
00000040: da4f 903e 422d 0a3f 104b 253f 08f0 343e
00000050: 0e8e 943e cd61 b63e dfdb 323f dc6e a23e
00000060: 1e87 313f 2cae 223f 0a02 a93e 33ef 263e
00000070: 14d1 1e3e 6a32 153f d40c 083f 6846 313f
00000080: 125b 233f 6265 0d3f dbda 0e3f 5e6f ec3e
00000090: 0140 783e 8f01 e43e d38b 063f a42b bf3e
000000a0: e20b 8c3e bec6 9b3e 87eb d33e b77b 253f
000000b0: f46a 193f 76ef 1a3f b4bc f23e bc26 a83e
000000c0: fa4c 103f 414d 2e3f ad30 1d3f 0e16 063f
000000d0: 2c9a 213f b000 313e 412b 083f 2aa9 523e
000000e0: 9b42 8f3e 0843 5f3e 87b1 5e3e 1d0a c63e
000000f0: 642c 163f 1d14 883e 88ca 843e f615 0d3f
0.6202333 0.23280497 0.28661585 0.20771267 0.26187763 0.21980433 0.62882394 0.44141442
0.25715318 0.40176836 0.63303983 0.27564326 0.5198833 0.2149059 0.5017977 0.1488753
0.28185922 0.5397531 0.6456766 0.1766969 0.2901463 0.3562149 0.69866747 0.31725204
0.693468 0.63547015 0.33009368 0.16302185 0.15509444 0.5828005 0.53144574 0.69248056
0.6381084 0.5523282 0.55802697 0.46178716 0.24243166 0.4453244 0.52557105 0.37337983
0.27352816 0.30425066 0.4139063 0.646419 0.5992882 0.6052164 0.47409594 0.32842052
0.56367457 0.6808663 0.614024 0.523774 0.6312587 0.17285419 0.53191 0.20572343
0.27980503 0.21802914 0.21747409 0.3867959 0.58661485 0.26577845 0.2593577 0.55111635

bayes_fc1.prior_mu_old f4 [64, 6]
00000000: 34a5 3fbe e7e2 eabe 9b6f 30be 2d4d aebe
00000010: cc1b babe 69cf 21be 8376 f23e a08e 0bbe
00000020: 3a27 933e 26a6 b1be 128c 143e 5d02 34be
00000030: 9864 bdbe 507a 593e d280 a4be ec9d 2b3e
00000040: d96b 18be 29a2 fc3d bba7 bebe 7d42 603e
00000050: 2d8a e7be ca2c cd3e e25e dbbd 49c1 abbd
00000060: bfca b9be 1d9c 5c3e 4210 c6be 576a 813e
00000070: 2e14 2dbe b952 023e 954e eb3d 4868 3fbe
00000080: 3cba e13e 6733 6fbe f57c 5a3e 23b8 a03d
00000090: 12c5 3abe 454a bcbe 4107 05be 51fc 77be
000000a0: 1f6d bdbe c7ef b9bd d1f0 c0be 4188 8a3e
000000b0: 0e4e 31be 2680 4dbd e105 9cbe 828d 5d3e
000000c0: a543 96be a8a1 f73d 9b3b d2be 33b3 db3e
000000d0: d0cb 26be 9a22 8fbd 19d2 56be 15fb acbe
000000e0: e768 8b3d cf7a 33be bf89 753d e9f4 503e
000000f0: aa00 71be d3f2 9abe 25c4 5fbd a158 abbe
00000100: 85fb 65bd 3450 a3bc 8f0d 48be 4c7d 8b3d
00000110: 0734 fdbe e7fc c53e 5a50 8fbd 0487 18bd
00000120: e8e9 8cbe 701c 03be e975 fabd c245 8dbe
00000130: 6dcf e2be c8a8 08be ee1f eb3e 4c76 16be
00000140: c98d 743e d3c5 91be 0dd2 553e 2202 12bd
00000150: 4063 c2bd 2c34 31be 5d8b c9bd c3c2 89be
00000160: 8ef4 e2be 48fb 4bbd 276d 3bbf da75 7abe
00000170: 92ad d7bd f50d 63bd 0c82 3d3d 84bd 103f
00000180: 3292 743e ae20 60be f5e9 e73e 37e0 92be
00000190: fcc2 5b3e 8f47 6dbc 47d6 b0be 9b19 87bd
000001a0: 0508 d2bd e52f 28be d785 81be 602b 88bd
000001b0: 6ea9 65be fc3c 91be 1a80 b9bd c422 47be
000001c0: 0b93 a3be eb84 a6bd cea5 833e 276e 21be
000001d0: 1b66 cc3e a131 a5be 1349 4e3e 6f62 2bbe
000001e0: e5a3 83be 3d67 813d c28a afbe e22f 813e
000001f0: f4ed dcbd efaf 00bd a3e1 aabe 606e c53d
00000200: 1be5 24be 91d9 8abe 5b5a 6ebe d392 ad3d
00000210: 2868 13be ff4d 8bbe 3a6f d6bd 2792 a1be
00000220: 1677 e4be 777d 14be 0362 bebe 07c9 1a3e
00000230: ebd0 b4be 23e0 433e 0811 32be 7c71 21bd
00000240: 2ce4 b9bd e0dc 8ebe 63f9 b4bd b356 a1be
00000250: 2012 cabe a1de 99bd c046 c6bd 025e 9fbe
00000260: c3de 8bbd b47e fabb 276f b1be 638d 88bd
00000270: 44fc 93be 65a4 74be 5a9d 2fbe b76e 88be
00000280: aeea 11be e62f 6cbd b823 063e 26e1 33be
00000290: 170c dd3e d73f 98be 80d7 4e3e c45f dd3d
000002a0: 0230 893e 7de0 53be d670 833e 68e0 86be
000002b0: 07e7 183e 0263 513e 616c c4bd 8295 a8be
000002c0: 72db ddbd 48c0 23be 5a59 a4be 4313 40be
000002d0: a8f8 8dbe 9d66 76be 1f75 f5bd fb42 2bbd
000002e0: 812e 82be 6b4c 4abe 3df9 71be c974 b5be
000002f0: 19b0 a7bd b543 3abe 751c d4be 6f7b ddbd
00000300: 49b9 00be 24b8 80be e9dd bbbd a950 39be
00000310: 79c6 63be 9ee1 16bd 153f 8dbe fb34 8abe
00000320: 653e 26be 1a51 80be 0362 80be 1b5a acbd
00000330: e35d 4bbe ff7a e3bd 3029 d5bd ef2f 5dbe
00000340: 75a9 c5be b871 2dbd c9c9 bf3c 86cd 6cbe
00000350: 2d70 cc3d 8315 c5be e5bb 2b3e 1921 b23d
00000360: a990 d9be f2a0 903e 8560 bcbe 7578 753e
00000370: 16ab efbd 60ff 273e e7da b9be 25bd d2be
00000380: 9068 3abe a98f 96be 89e3 aebe f1ef 37be
00000390: a142 b5be c3d1 073e cc45 41bd 7f12 e3bd
000003a0: 7828 b9be 8534 c8bd 750e 31be 439b 4bbe
000003b0: e6df a6bd 7b51 0bbe be6e a1be 5d91 bd3d
000003c0: 3f42 94be 8c8f 553e 74de 01bf 9784 933e
000003d0: 574b e0bd e2e6 c63d 1513 bebe e24b d93d
000003e0: 312d 90be 4f70 6c3e 1e0d dfbd c6e1 f53c
000003f0: 6787 7dbe 657d 7d3d 23a1 adbe 98a8 ef3e
-0.18715364 -0.45876238 -0.17230074 -0.34043255 -0.36349332 -0.15801777 0.47356042 -0.13628626
0.28740865 -0.34697074 0.14506558 -0.17579027 -0.3699081 0.21238065 -0.32129532 0.16759461
-0.1488489 0.12335617 -0.37237343 0.21900363 -0.45222607 0.40073234 -0.10711457 -0.083864756
-0.36287495 0.21543927 -0.3868428 0.25276443 -0.16902229 0.12726869 0.11489598 -0.18692124
0.44087398 -0.23359452 0.2133673 0.07847621 -0.18239239 -0.36775413 -0.12991048 -0.24217345
-0.36997315 -0.09078937 -0.37683728 0.27057078 -0.17314932 -0.05017104 -0.30473235 0.21636012
-0.29348484 0.1209138 -0.410611 0.42910156 -0.16288686 -0.069890216 -0.20978583 -0.3378531
0.06807118 -0.17527317 0.059945818 0.20405926 -0.2353541 -0.30263385 -0.054630417 -0.33466056
-0.05614807 -0.019935705 -0.19536422 0.06811008 -0.49453756 0.38669512 -0.06997748 -0.037238136
-0.27522206 -0.12803817 -0.12229521 -0.27592283 -0.44298878 -0.13345635 0.45922798 -0.14693564
0.23882212 -0.2847124 0.2088091 -0.035646565 -0.09491587 -0.17305058 -0.098410346 -0.26906404
-0.44327205 -0.049800187 -0.7321343 -0.2445902 -0.10531153 -0.055433232 0.0462666 0.5653918
0.23883894 -0.21887466 0.45295683 -0.28686687 0.214611 -0.014482393 -0.3453848 -0.06596681
-0.10255436 -0.1642452 -0.25297424 -0.06648898 -0.22427914 -0.2836684 -0.090576366 -0.19446856
-0.31948122 -0.08130821 0.25712436 -0.15764676 0.3992165 -0.32264426 0.20145063 -0.16736768
-0.2571098 0.06318519 -0.3428555 0.25231844 -0.107875735 -0.031417783 -0.33375272 0.09640193
-0.16103022 -0.27119115 -0.23276655 0.0847527 -0.14395201 -0.27207944 -0.104704335 -0.31556818
-0.44622105 -0.14500986 -0.37184152 0.15115748 -0.35315642 0.1912847 -0.1738931 -0.039414868
-0.090767235 -0.2790289 -0.08836629 -0.3151146 -0.39466953 -0.07513166 -0.09681463 -0.3112641
-0.06829598 -0.0076444987 -0.34655115 -0.066675924 -0.289034 -0.23890837 -0.17149869 -0.2664697
-0.1424968 -0.057662867 0.13099563 -0.17566356 0.43173286 -0.29736206 0.20199394 0.108092815
0.2679444 -0.20691104 0.25672024 -0.26343083 0.1493188 0.20447925 -0.09590984 -0.32926565
-0.108328715 -0.15991318 -0.3209942 -0.18757348 -0.27728772 -0.24062581 -0.1198523 -0.041811924
-0.25426105 -0.19755714 -0.23630233 -0.35440663 -0.08187885 -0.1818989 -0.4142796 -0.10814559
-0.1257068 -0.25140488 -0.091731854 -0.18097176 -0.2224368 -0.03683626 -0.2758719 -0.26993546
-0.16234739 -0.25061876 -0.25074777 -0.08415624 -0.19860034 -0.11107444 -0.104082465 -0.21600316
-0.38605848 -0.04234478 0.023411648 -0.23125276 0.09982333 -0.38492975 0.16770895 0.08697719
-0.4249318 0.28247792 -0.3679239 0.23971732 -0.11702554 0.16406012 -0.36299822 -0.4115993
-0.1820395 -0.2940648 -0.3415797 -0.17962624 -0.35402396 0.13263611 -0.047185704 -0.11087512
-0.36163688 -0.09775642 -0.17290671 -0.19883446 -0.08148174 -0.13605301 -0.31529802 0.092562415
-0.28956792 0.2085554 -0.5073006 0.28812096 -0.1095187 0.09712006 -0.37123933 0.106101766
-0.28159478 0.23089717 -0.10891174 0.030014884 -0.24758683 0.061887164 -0.33912 0.46808314

bayes_fc1.prior_sigma_small f4 [64, 6]
00000000: c28f 993e 54ee 5a3e 6b49 5b3f d5e4 993e
00000010: 7e63 153e 1401 673f fa8f bb3d 8498 423d
00000020: 220b 093f e795 f53d 36fb 543d fc05 183f
00000030: 9bed c53d 347b 413d f07d 203f af27 013e
00000040: 27f7 7b3d 2a51 143f b09d a53d f7a4 223d
00000050: bf2e 073f 4e71 ab3d 30e9 123d fe73 f33e
00000060: 5d8d dd3d 3eed 3b3d 018c 183f 71d6 dc3d
00000070: 7586 573d 3fc2 f53e 6651 e83d 3ae6 7a3d
00000080: 6500 073f f76f b33d 6ece 363d e134 103f
00000090: 100c a23e ce66 233e 1c90 623f ccb0 893e
000000a0: ce46 303e 9a00 5d3f b1e8 193e 4a0f 863d
000000b0: 13e8 353f 2f91 6b3e 6595 e33d 52fe 3d3f
000000c0: 7bf0 cb3d 6b7c 593d d669 173f 97ea c13d
000000d0: e6c9 423d ffab ef3e 07b1 593e ddef bd3d
000000e0: b7ba 353f 1c8a 143e 73fd a93d c6ea 3a3f
000000f0: aa52 983e 232c f93d 8733 723f aec5 863e
00000100: 983b ef3d dc51 703f 46ed e33d 0dba 533d
00000110: c54a 233f 2712 bd3d f50b 4c3d e3b1 113f
00000120: 367a 6d3e 5cf4 c63d 225b 663f d6d6 6c3e
00000130: 2c9c 3c3e 9f60 563f 9df3 9d3d 4583 113d
00000140: c374 e03e f355 8a3d f83f 383d 3328 053f
00000150: a61a 573e 38f2 df3d 375e 5d3f 9b75 9a3e
00000160: 0c2c 233e e452 623f 9d3d 373e 2ad1 6d3d
00000170: d50a e13e c0fd 7e3d edd5 053d e0aa a03e
00000180: e863 ee3d f4ad 4c3d 19b7 043f 6e06 bb3d
00000190: 4cd0 423d 1222 153f 83b8 6f3e 9d9b e13d
000001a0: 13e3 5f3f 7dbd 873e 1119 013e 5a4e 5e3f
000001b0: 7f88 953e 60bc 053e eb50 683f 6118 853e
000001c0: 3d29 0d3e 3224 673f 4000 983d 5bee 173d
000001d0: ff4b ed3e 31a5 a23d 4082 253d 803b e93e
000001e0: ba77 ea3d 32f6 713d 4977 263f 69b6 e63d
000001f0: 18a6 6b3d 6ae5 143f e46c 183e 4d25 813d
00000200: 9029 3d3f 020f 4c3e c99a a33d cf48 333f
00000210: 34b6 9a3e 6916 213e a305 723f a206 bc3e
00000220: 10a4 5b3e afd0 653f fe8a ed3d d571 7a3d
00000230: 1811 383f 0d20 0d3e 80ed 793d 93a7 1d3f
00000240: f40a 933e af44 163e b753 703f d79f 9f3e
00000250: f793 403e 92c5 783f eba0 923e 954e 0b3e
00000260: 66cd 6b3f 8ee7 8d3e f3d4 4f3e 46ad 6c3f
00000270: 6d90 723e 2e77 c43d 687a 283f e9b7 3b3e
00000280: 864c b33d 8a9c 303f 663e a33d 8203 223d
00000290: 9cee bd3e 7926 8b3d 40f0 073d 7c16 c83e
000002a0: db73 823d 23df 043d f259 c43e e4c4 793d
000002b0: 85f9 fa3c 50c6 b23e 94fe 723e d376 1d3e
000002c0: 9c40 533f 31ba 793e fc74 1e3e 0840 363f
000002d0: fb69 7e3e 4b24 0b3e 9c9f 643f ebc5 2e3e
000002e0: f58f 113e d5d5 3b3f e54b 953e b38d 063e
000002f0: 21d4 6f3f 02a3 883e be9a 353e 36d0 613f
00000300: 7b9c 823e d155 083e 6522 673f 4b7c 8a3e
00000310: 2ea3 fa3d 3e46 693f 158f 8f3e 0976 033e
00000320: 0db3 493f d89c 9a3e 7cb1 ed3d 952d 5f3f
00000330: 9cd9 4b3e a522 cf3d b500 633f 5aba a83e
00000340: 6dcc 093e ba76 5e3f 8051 4d3e 2863 b43d
00000350: e285 443f 5185 353e ffa3 963d a0ba 473f
00000360: ccb2 a13d 954b 0f3d 558f 113f 419d a73d
00000370: 5b3d 2c3d ecc4 f03e 0b20 873e 28dd 203e
00000380: b04c 3f3f a467 983e ff0a 133e 78f0 4f3f
00000390: 78a4 263e f9a9 b03d a5f2 673f 45b1 5d3e
000003a0: 994c 043e 382e 563f 0564 5f3e 6c3b af3d
000003b0: a6ec 3a3f 3550 1a3e 1e49 073e 085c 113f
000003c0: ec6d c53d 7e35 3b3d 637a 0b3f da83 ac3d
000003d0: 0637 4a3d 4e4a f13e 8d19 f23d a476 6e3d
000003e0: 8542 293f 3b9c d93d 1abd 7f3d b1ac 213f
000003f0: 42af fb3d b264 7d3d 47df 3b3f c88f f53d
0.2999249 0.21379977 0.856589 0.30057397 0.14588735 0.9023602 0.09158321 0.04750873
0.5353261 0.11991482 0.051997386 0.5938413 0.0966446 0.047236636 0.62692165 0.12612794
0.061515 0.57936347 0.08086717 0.039708104 0.52805704 0.083712205 0.035866916 0.47549433
0.108179785 0.04588055 0.5958863 0.10783089 0.052618463 0.4799976 0.113436505 0.061254717
0.52734977 0.0876159 0.04463046 0.56330687 0.31649828 0.15957186 0.88501143 0.26892698
0.1721451 0.8632904 0.15030171 0.06545885 0.7105724 0.23004602 0.11112479 0.74216187
0.099579774 0.05309717 0.5914587 0.094685726 0.047555827 0.4681091 0.21258937 0.09274266
0.7098803 0.1450581 0.08300295 0.73014486 0.29750568 0.121666215 0.94609874 0.26322693
0.116812885 0.9387491 0.11129241 0.051691104 0.63785964 0.09231978 0.04981609 0.5691206
0.23191151 0.097145766 0.8998281 0.23128828 0.1841895 0.8374118 0.07712481 0.03552558
0.43839082 0.06754675 0.04498288 0.52014464 0.2100626 0.109348714 0.86471885 0.3016785
0.15934771 0.8840773 0.17894597 0.058060803 0.43953577 0.062253714 0.03267472 0.31380367
0.11640149 0.049970582 0.51841885 0.09132086 0.04756193 0.5825511 0.2341023 0.11016009
0.8745586 0.26511756 0.12607218 0.86838305 0.292057 0.1306014 0.9074847 0.25995162
0.13785262 0.90289605 0.07421923 0.037092548 0.46347043 0.07941664 0.04040742 0.45553207
0.11448617 0.05907268 0.65025765 0.11265261 0.057531446 0.5816256 0.14885288 0.06305943
0.73891544 0.199276 0.07988507 0.7003297 0.30217135 0.15731205 0.9453985 0.3672381
0.21449304 0.8977155 0.11598776 0.061143715 0.71901083 0.13781758 0.061017513 0.6158382
0.28719294 0.14674638 0.9387774 0.31176636 0.18806444 0.9717647 0.28638396 0.13604195
0.9211029 0.27715725 0.20296077 0.92451894 0.23687907 0.09593044 0.6581178 0.18331875
0.0875483 0.6898886 0.07970886 0.039554127 0.37096107 0.067944475 0.033188105 0.39079654
0.06369754 0.032439362 0.38349873 0.060978785 0.030636558 0.34916925 0.23729926 0.15377359
0.8252046 0.24387433 0.15474313 0.71191454 0.24845116 0.13588063 0.89306045 0.17067687
0.14215071 0.73373157 0.29159465 0.13139991 0.9368306 0.26686865 0.1773481 0.8820833
0.2551001 0.13313986 0.90286857 0.27047953 0.12238155 0.91122806 0.2803885 0.12837996
0.78788835 0.30197787 0.11606118 0.8717893 0.1990723 0.1011403 0.88672954 0.32954675
0.13456888 0.8689991 0.20050621 0.08807975 0.7676679 0.17726637 0.073554985 0.7801914
0.07895431 0.03498419 0.5685933 0.08184291 0.0420507 0.4702524 0.26391634 0.15709364
0.7472639 0.29766572 0.14359663 0.812263 0.16273677 0.0862617 0.9060462 0.21649654
0.12919845 0.83664274 0.21815498 0.08556256 0.73017347 0.15069659 0.13211486 0.56781054
0.096401066 0.04570531 0.5448362 0.08423586 0.04936888 0.47127002 0.1182128 0.058218613
0.66117126 0.10625502 0.0624362 0.6315413 0.12289287 0.06186361 0.7338757 0.11990315

bayes_fc2.weight_mu f4 [1, 64]
00000000: 83b0 a8bc 3504 af3d 81a8 8fbd d58b c1bd
00000010: c452 b0bd d601 bb3d db41 7bbd 3483 9cbd
00000020: bd89 88bd 9426 d93d 1b83 9f3c 69c6 9fbd
00000030: 5507 a8bd ef62 c13d 8e10 da3c 2eb3 c83e
00000040: 23f3 943d 3531 2abd 6ae6 42bd 4c08 e03d
00000050: f6a5 9ebd ffdf bbbd 8851 7cbd eec1 88bd
00000060: ce36 91bc ff17 f03c 5659 103e bcd8 c03d
00000070: ef27 e63d 852d 15bd d888 acbc 2c43 393d
00000080: 9eff bf3b 63d3 4fbc 1fbd 7abd 4895 ca3d
00000090: 0f67 c3bd 190f 083e 8983 49bd 5501 da3d
000000a0: 2d0a bfbd 4e39 a5bd edd9 afbd d4bd 13bc
000000b0: bdd2 07bd 6fab 5d3c 3c28 83bd eb73 97bd
000000c0: ec81 e73b dd63 a13b 96e5 8cbc 6270 b5bd
000000d0: acff 3a3d 5598 f43d 9c04 a4ba 5914 bc3d
000000e0: 4e83 b23d 9763 be3d 19df e13d 8de0 c63d
000000f0: bd5f 993c e659 db3d 7bff a5bd 6dcd a73b
-0.02059198 0.08545724 -0.070145614 -0.09450499 -0.08609536 0.091312096 -0.0613421 -0.076422125
-0.066668965 0.10603061 0.019471696 -0.078015156 -0.082045235 0.09442698 0.026619222 0.39199203
0.07272937 -0.041550834 -0.04758302 0.109390825 -0.07746498 -0.09173583 -0.06160119 -0.06677614
-0.017726328 0.029308317 0.14096579 0.09416339 0.112380855 -0.036420364 -0.021061346 0.045230076
0.0058593294 -0.012684676 -0.061215516 0.098917544 -0.09541141 0.1328701 -0.049197707 0.10644785
-0.09328113 -0.080675706 -0.08586488 -0.0090174265 -0.03315996 0.0135296425 -0.064041585 -0.073951565
0.0070650484 0.0049252347 -0.017199319 -0.08859326 0.045653984 0.119431175 -0.0012513581 0.091835685
0.08716451 0.09296339 0.110288806 0.097107984 0.01872241 0.10710506 -0.0810537 0.005120924

bayes_fc2.weight_rho f4 [1, 64]
00000000: 9982 bdbf f27e 74c0 f6ae 62c0 be1d 70c0
00000010: ad05 64c0 47ee 5fc0 ed8b b2bf 9970 60c0
00000020: baa8 60c0 ad11 32c0 0a3b 34c0 ff53 52c0
00000030: 2b29 e1bf 303d 74c0 7617 ddbf b56c 2fc0
00000040: 092c 6dc0 3eaa 18c0 9ce3 ccbf 2a1d 6dc0
00000050: 5597 46c0 e2b6 19c0 49f1 06c0 8cdb 4fc0
00000060: 709b 0ec0 4697 0bc0 997f 74bf c95e 62c0
00000070: e90e 61c0 8f99 9dbf 079c b2bf ad31 c8bf
00000080: b832 15c0 355d b2bf ff8b 06c0 ad12 4dc0
00000090: 9f24 6dc0 8a38 17bf f605 45c0 33a0 46bf
000000a0: c4e5 63c0 cc8d 44c0 5e03 5ec0 7378 03c0
000000b0: 4f0a 0ec0 eb23 c1bf a53b d8bf daf4 5dc0
000000c0: 1717 c7bf 2541 25c0 de7b 12c0 b1f8 31c0
000000d0: 2d8f e5bf f666 79c0 9ec3 a5bf 9919 6fc0
000000e0: 2554 56c0 8187 64c0 6b49 48c0 8964 4ec0
000000f0: 49c4 b3bf ea27 66c0 82cc 63c0 cf90 06c0
-1.480548 -3.8202481 -3.5419288 -3.7518153 -3.5628464 -3.4989183 -1.3948952 -3.5068724
-3.5102983 -2.7823288 -2.8161035 -3.2863767 -1.7590688 -3.8162346 -1.7272785 -2.74101
-3.7058127 -2.3853908 -1.6006961 -3.704905 -3.1029866 -2.4017873 -2.1084769 -3.247775
-2.2282372 -2.181108 -0.955072 -3.5370352 -3.516535 -1.2312487 -1.3953866 -1.564016
-2.3312206 -1.3934695 -2.1022947 -3.2042649 -3.7053602 -0.59070647 -3.0784888 -0.77588195
-3.5608988 -3.0711546 -3.4689555 -2.0542266 -2.2193792 -1.5089086 -1.6893202 -3.4680696
-1.5553921 -2.582101 -2.2888103 -2.780804 -1.7934319 -3.8969092 -1.2950323 -3.7359374
-3.3488858 -3.5707705 -3.129481 -3.2248862 -1.4044276 -3.5961862 -3.5593572 -2.1025884

bayes_fc2.prior_mu_old f4 [1, 64]
00000000: e3b0 84bd a5e3 8b3d 2bca 93bd 91a2 f0bd
00000010: 2403 c6bd 4a34 c83d aff3 4ebd 465e a1bd
00000020: 4452 cabd 84a0 de3d c313 b73b 9f97 82bd
00000030: 04f2 97bd 302f e33d 80cf 563d 1db6 bb3e
00000040: 7bc9 a13d 846c 78bd 0812 9ebc 442a e23d
00000050: 1366 e5bd e82f aebd 0f03 a1bd 8e11 7abd
00000060: 330b 09bc 910c 583d 0342 e63d 91b3 f53d
00000070: 1ba5 133e c887 92bc 7e5d 5abb 373c cd3c
00000080: b01b 023d c507 2abd a81a bbbd 023b af3d
00000090: 5d5d c0bd 53c8 113e 203a 18bd bef9 413d
000000a0: faed fbbd 8fe3 a7bd 9a14 adbd 4be5 293c
000000b0: 23d4 63bd 1b5b c6bc 43d8 a7bd 2785 a0bd
000000c0: 3a74 fb3b 2aaa a23b 0f33 4a3d 8f35 c9bd
000000d0: 0ba1 103d 26f4 e83d d775 67bd d9b2 e73d
000000e0: 658e c43d f160 ac3d 4c5b e23d ba58 ad3d
000000f0: ee4f 8f3c 2fc6 de3d a3d8 adbd 7707 56bb
-0.06479051 0.06830529 -0.07216295 -0.11749757 -0.09668568 0.09775598 -0.050525364 -0.07879309
-0.09878972 0.1087046 0.0055870726 -0.06376576 -0.07419208 0.11092985 0.05244398 0.3666238
0.078997575 -0.060650364 -0.019295707 0.11043218 -0.1120111 -0.08505231 -0.078619115 -0.061051898
-0.0083644865 0.05274636 0.112430595 0.1199714 0.14418451 -0.017887011 -0.0033319886 0.025053127
0.031764686 -0.041511316 -0.09135944 0.08556177 -0.09392808 0.14236574 -0.037164807 0.047357313
-0.1230125 -0.081977 -0.08451195 0.010369609 -0.05562223 -0.024213364 -0.081955455 -0.07837897
0.0076737674 0.004964133 0.0493651 -0.098246686 0.035309833 0.113746926 -0.056508865 0.11313409
0.09597472 0.084169276 0.1105257 0.08464189 0.017494168 0.10877644 -0.08488586 -0.0032658258

bayes_fc2.prior_sigma_small f4 [1, 64]
00000000: be84 613e 2cdc 023d 18ff 1f3d 1015 143d
00000010: 381f 103d a929 2b3d 7e0a 873e 40a7 1a3d
00000020: 76f4 273d 0283 983d 8b52 7d3d b6e8 523d
00000030: 2560 233e a2b6 fc3c 783d 323e 841d c73d
00000040: 354b 153d 63bc c23d 2688 523e b075 113d
00000050: 8cf0 6a3d 9a90 cd3d 4ccd fe3d 7710 363d
00000060: ecf2 d53d 29c4 f23d 9f4c ac3e 304f 1f3d
00000070: faec 1b3d 4af6 8e3e 65c0 6c3e 5d85 483e
00000080: d404 c63d 7b0b 6f3e c118 f13d 5fb4 403d
00000090: a3b9 0c3d e87b e63e e959 523d 0f72 cf3e
000000a0: 3a8a 213d 2e17 703d c257 293d ce6f 053e
000000b0: e34a e23d fb2c 563e 1c4e 343e 9a1c 373d
000000c0: 0394 653e 7196 a63d 3b35 d43d 2c55 8a3d
000000d0: 6ab6 393e d306 fd3c 2586 883e d63f 1a3d
000000e0: 1134 453d 88d9 143d 3508 5e3d 280c 333d
000000f0: a5c9 763e 3ba0 0b3d 9ce1 233d 4361 f53d
0.22023293 0.031948254 0.039061636 0.0361529 0.035186023 0.041787777 0.26375192 0.03775716
0.04100462 0.07446863 0.061846297 0.05149146 0.15954645 0.030848805 0.17406261 0.097224265
0.036448676 0.09508588 0.20559749 0.035512626 0.05735831 0.10037346 0.12441501 0.044449296
0.10446724 0.11853821 0.33652207 0.03889388 0.038067795 0.2792228 0.23120268 0.19582124
0.0966889 0.23344223 0.117722996 0.047047015 0.034356724 0.45016408 0.051355276 0.40516707
0.039438464 0.058615856 0.041343458 0.13030931 0.1104944 0.20915596 0.17607921 0.04470501
0.22419743 0.08134163 0.103617154 0.067545265 0.18135992 0.030887043 0.26664844 0.037658535
0.048145358 0.036340266 0.054207046 0.043712765 0.24100359 0.034088355 0.04001008 0.11981442

exp_avg f4 [64, 6]
00000000: ca69 253a e936 093b bf20 3b39 665c 0239
00000010: 893d 863a d435 0239 9f85 b4ba 8cee 2dba
00000020: 0696 51b9 1a9e 00bb 914d 9abb d5e8 e9b9
00000030: 9d60 37bb d0be b0bb 199c aeb9 4c3d caba
00000040: 5794 8ebb d824 82b9 2acf 583b 0cd9 0cbb
00000050: f164 8639 e758 09bb 34f2 84bb bce2 9fb9
00000060: 8693 ae3a 2140 b4bb bfdb bbb7 f54c 3abb
00000070: d2e5 c7bb a963 08b9 a3c9 6db9 97af dc3a
00000080: 175b 3439 6330 3339 087f 783b 6bfc 17b9
00000090: 97c8 06b9 0202 83b7 538e 71b8 4022 ccb8
000000a0: 6e79 ff37 46ec 8fb7 c287 cd3a 6c09 813b
000000b0: 12ec ea38 d123 5a3a 3d29 a53a c016 b5b7
000000c0: 5577 e23a bd47 e53b 4e77 173a 0f94 243b
000000d0: e194 d83b 9827 2539 6a4a 4a3a 4241 1139
000000e0: a574 7336 47d9 833a 97a0 5b3b 4928 b838
000000f0: d442 2ab9 1794 233a 2511 deb6 9674 c938
00000100: dd2e 9db9 70e9 26b4 d531 353b 22a5 673a
00000110: 4ac7 a739 a981 95ba a681 2db9 254a 1cb9
00000120: 3a4a 3938 c536 c8b8 b430 9a36 40c6 4239
00000130: 03a0 3639 d454 3db7 af74 173b 7792 263c
00000140: 59df 7439 f35a 113b 2d56 563c c41a 0239
00000150: 751e cf37 f1a5 8fb9 db80 5ab7 6e67 0db9
00000160: 4e0f 8438 e752 30b7 3799 93b9 f674 483c
00000170: 5d63 a8b9 e9c2 203c 6b0c be3c 2e19 773a
00000180: 9844 193a 013b cd3a 03f8 4e39 27ad 0d3b
00000190: aced a03b 00ed 84b8 c6ce 15b9 0f78 b6b8
000001a0: 8452 d4b7 678f e739 1975 1e3a 86de 2fb8
000001b0: 07b6 1339 add5 0db6 4a47 3d38 3a02 08b9
000001c0: 5620 32b9 fa22 de37 7dbc 32ba d565 c3bb
000001d0: fedd 0739 ae68 7abb efda 0cbc 8e1b 3839
000001e0: 58d6 0d3a d6b2 c2b9 f946 c7b8 3499 69ba
000001f0: cf1d 10bb d815 3ab9 d567 24ba 674f 97bb
00000200: ec91 bcb9 ebc6 06bb 9b03 60bb 9133 13ba
00000210: ce1b dcba 33de aabb 4731 9eb8 3f61 f7b8
00000220: be10 28ba 31a0 07b9 5f80 0e3a 5c54 97b9
00000230: a264 06b9 2405 03bb 8cbc 2bbb 771c fcb9
00000240: 7f03 faba d1e9 80bb c2df bab9 45d4 6039
00000250: 738a 35b8 c47c 1838 e1af 77b8 2f10 2638
00000260: 7206 cc37 96b7 1eb9 5b1d beb8 95ff 1bb8
00000270: 3e7a 8bb8 b9b0 0fb7 730e 23b8 51da 8db9
00000280: bad5 ff39 897b 8035 0887 693b 1e21 7a3c
00000290: 5e37 c139 1d58 d43a 5d34 b03b 128b 013a
000002a0: 93bd ab3b e348 fc3b 6239 443a 17d7 b139
000002b0: bfd8 863b 69f0 3239 f187 8cb9 6cdc 9838
000002c0: 8165 0db8 2e71 beb8 5dc7 a1b8 0773 2337
000002d0: 253f c2b8 ba96 8738 222b 0fb8 3390 80b9
000002e0: 6207 6bb9 e4e6 f5b7 0252 13b9 e0cf f3b7
000002f0: 28c9 91b5 7489 0839 a659 a839 00cd a037
00000300: b826 dd38 b49b 13ba 0a1b 4bb8 b9b6 8538
00000310: d4d1 fd37 2ab1 40b7 744a ecb8 9ef1 05ba
00000320: 6e78 2bb8 07ff 30b8 fc50 fab9 f221 9f37
00000330: 2ecf ac38 f601 b33a 5edd 4038 cdbe 2e3a
00000340: cf21 9639 41b2 1439 bbb0 4d3a 2eb7 203b
00000350: 3a68 a9b8 911e 5dba f2bc 813b 7a37 94b8
00000360: eeab aaba 99b6 43bc 761f b0b9 dedc 29bb
00000370: 0e8e 42bc e95d 17ba 21b1 51b9 5f97 03b9
00000380: 005d 99b7 4847 81b8 2528 3eb9 413c ebb7
00000390: f0c2 a0ba c4a7 ccbb 3141 47b9 feaa 03bb
000003a0: bf0e 83bb 7bcc d0b9 8924 9538 9adb 84b9
000003b0: 8e9e 2e38 f43a 2539 8165 c538 c728 8e37
000003c0: 5150 91ba ca8e 38bc 2f3a 29b9 9515 6dbb
000003d0: 6410 86bb 0eb4 9cb9 3a8c dc3a 7c41 d43b
000003e0: 88ba ff37 89cb aaba 04ef 02bb 0e52 9538
000003f0: 4655 3cba c322 00bc f336 d0b8 344d 92bb
0.0006310014 0.002093727 0.00017845909 0.00012432187 0.0010241728 0.00012417819 -0.0013772732 -0.00066349725
-0.00019987681 -0.0019625486 -0.0047089537 -0.00044614697 -0.002798117 -0.0053938404 -0.00033304168 -0.0015429645
-0.0043511796 -0.00024822983 0.0033082464 -0.0021491675 0.0002563368 -0.002095753 -0.004057193 -0.00030495774
0.0013319112 -0.005500809 -2.2394464e-05 -0.0028427218 -0.0061003948 -0.00013007097 -0.00022677197 0.0016836998
0.00017200071 0.00017088796 0.0037917513 -0.00014494515 -0.00012853961 -1.5617352e-05 -5.7591427e-05 -9.7338576e-05
3.0454914e-05 -1.7156952e-05 0.0015680718 0.0039378908 0.00011201961 0.0008321377 0.0012600791 -2.1587475e-05
0.0017277995 0.0069970773 0.00057779707 0.0025112664 0.0066095446 0.00015750376 0.0007716777 0.00013852588
3.6277718e-06 0.001005926 0.0033512467 8.7813074e-05 -0.00016237359 0.00062400236 -6.6181115e-06 9.606143e-05
-0.0002998029 -1.5544879e-07 0.002764811 0.00088365574 0.00032001204 -0.001140644 -0.00016546863 -0.0001490494
4.4176566e-05 -9.546945e-05 4.5952274e-06 0.00018575136 0.00017416482 -1.1285028e-05 0.002311032 0.010166756
0.00023352857 0.0022179454 0.013082069 0.00012407737 2.4690506e-05 -0.0002739872 -1.3023814e-05 -0.00013485338
6.297101e-05 -1.050972e-05 -0.0002815218 0.012234917 -0.00032117488 0.009812095 0.02319928 0.00094260543
0.0005846708 0.0015657843 0.00019738082 0.00216181 0.004911145 -6.338395e-05 -0.00014286776 -8.700799e-05
-2.5310794e-05 0.00044166596 0.00060446706 -4.1930492e-05 0.00014086823 -2.1135013e-06 4.5127505e-05 -0.000129708
-0.00016987449 2.648075e-05 -0.0006818248 -0.005963067 0.00012957302 -0.0038209367 -0.00859712 0.00017557872
0.0005410663 -0.00037135807 -9.502279e-05 -0.00089110737 -0.0021990424 -0.0001774648 -0.00062715757 -0.00461762
-0.00035966875 -0.0020565342 -0.0034181837 -0.0005615289 -0.0016792954 -0.0052144765 -7.543206e-05 -0.00011795991
-0.0006411186 -0.00012934279 0.0005435999 -0.00028863817 -0.00012816724 -0.0019992078 -0.0026204912 -0.00048086394
-0.0019074528 -0.003934123 -0.00035643397 0.00021441381 -4.3282704e-05 3.635582e-05 -5.905319e-05 3.9592556e-05
2.4321696e-05 -0.00015136445 -9.065374e-05 -3.719291e-05 -6.650806e-05 -8.564611e-06 -3.8875685e-05 -0.00027056274
0.0004879663 9.572697e-07 0.0035633463 0.015266685 0.0003685308 0.0016200576 0.005377336 0.00049416826
0.005241105 0.0076991185 0.00074853573 0.00033920325 0.0041151936 0.00017064963 -0.00026804165 7.2889816e-05
-3.3711553e-05 -9.0809874e-05 -7.7142126e-05 9.742339e-06 -9.2624025e-05 6.465377e-05 -3.4134027e-05 -0.000245215
-0.00022414097 -2.9313793e-05 -0.00014049563 -2.9064657e-05 -1.0861886e-06 0.00013021176 0.0003211025 1.9168947e-05
0.00010545313 -0.00056308066 -4.8424154e-05 6.375969e-05 3.025766e-05 -1.1485341e-05 -0.00011267225 -0.0005109551
-4.0881736e-05 -4.2199183e-05 -0.00047744054 1.8970084e-05 8.240189e-05 0.0013657201 4.598253e-05 0.0006666005
0.0002863542 0.00014180785 0.0007846464 0.0024523246 -8.077962e-05 -0.00084350357 0.0039592916 -7.067523e-05
-0.001302121 -0.01194539 -0.00033592776 -0.0025919 -0.011874689 -0.00057741866 -0.00019997779 -0.00012549524
-1.8282328e-05 -6.1644765e-05 -0.00018134767 -2.8042241e-05 -0.0012265127 -0.006245585 -0.00019002405 -0.0020090933
-0.0039995606 -0.000398252 7.111679e-05 -0.00025340618 4.16325e-05 0.00015757588 9.4125986e-05 1.6946708e-05
-0.0011086558 -0.011264512 -0.00016138771 -0.0036176194 -0.0040913094 -0.0002988879 0.0016826459 0.006477533
3.048523e-05 -0.0013030629 -0.001997889 7.1201575e-05 -0.00071843376 -0.007820788 -9.928448e-05 -0.0044647697
