lightning_logs/version_42/checkpoints/epoch=4-step=1075.ckpt (torch, 30427 bytes, 24 tensors)

bayes_fc1.weight_mu f4 [64, 6]
-0.4511065 -0.5972703 -0.33817375 -0.48031384 -0.5518716 -0.20041683 0.61639696 -0.114955865
1.2693582 -0.45182085 0.15047084 -0.5315324 -0.38541508 0.2007939 -0.9742737 0.3917971
-0.1409765 0.38207003 -0.3540691 0.1331833 -1.4747797 0.5605524 -0.14271788 0.04948848
-0.45427662 0.21844222 -1.2289038 0.49303836 -0.1525735 0.5790714 0.24629503 -0.17016186
1.1980691 -0.3601901 0.14490624 0.023191296 -0.62193996 -0.49476656 -0.2723948 -0.4970663
-0.6070314 -0.3805421 -0.62874436 0.19260241 -0.2762232 -0.11773081 -0.3442505 0.26670656
-0.40291858 0.1479778 -1.2340192 0.5551567 -0.13644256 0.25171548 -0.34247902 -0.3469494
0.057556115 -0.48842955 -0.05523803 0.028407805 -0.47250873 -0.5102228 -0.19964236 -0.49506667
-0.24004613 -0.14260209 -0.34930623 -0.09133581 -0.4703066 0.16373643 -0.21309991 -0.3016318
-0.5808793 -0.19435863 -0.18355963 -0.4650407 -0.59300727 -0.13020389 0.53721637 -0.14310536
1.2511808 -0.4098268 0.18017259 -0.2653223 -0.30083764 -0.44358692 -0.23080274 -0.51078457
-0.49223945 -0.18998587 -0.9132815 -0.13792403 -0.20990516 -0.07343873 0.07486985 0.65658635
0.52807754 -0.12683845 1.5950959 -0.4143969 0.18415034 -0.112719595 -0.45820147 -0.36068228
-0.07384019 -0.2734872 -0.43818036 -0.16435827 -0.3491519 -0.38386628 -0.257966 -0.4615907
-0.51781684 -0.22339989 0.4145554 -0.11926621 1.5718111 -0.38353664 0.19478606 -0.2203363
-0.3515044 -0.026410615 -0.4979306 0.16071555 -0.19415675 -0.022028424 -0.40278712 -0.105984375
-0.1660332 -0.35603365 -0.27797234 0.012306131 -0.5939075 -0.4987805 -0.2554121 -0.58298373
-0.51622814 -0.03652964 -0.45678082 0.18176043 -1.2850764 0.54646176 -0.1040928 0.24277127
-0.30351388 -0.391582 -0.24006532 -0.5264689 -0.54619706 -0.20553404 -0.46601942 -0.5114268
-0.2158847 -0.38554725 -0.60003966 -0.29216307 -0.5105102 -0.30988267 -0.22492597 -0.4847719
-0.2640359 -0.17813858 0.33504766 -0.119925626 1.4472703 -0.3898421 0.19732231 -0.17788874
0.41392678 -0.09237933 1.3770416 -0.36223808 0.16601907 -0.21055995 -0.3880293 -0.45826688
-0.31774628 -0.3694168 -0.5606783 -0.21463941 -0.55293703 -0.4092359 -0.33963332 -0.34810466
-0.52950275 -0.24863046 -0.5304491 -0.53969795 -0.28444162 -0.45192793 -0.56576324 -0.27948964
-0.47203764 -0.4369636 -0.14416642 -0.31361634 -0.3390502 -0.056895915 -0.6264234 -0.46905738
-0.26594654 -0.54123014 -0.5043658 -0.20847687 -0.32666954 -0.34098032 -0.14206934 -0.35522905
-0.3541081 -0.23723991 0.3066832 -0.19623043 0.8692696 -0.5418363 0.09094609 -0.15764432
-0.48576716 0.2389691 -1.279479 0.39267966 -0.10642112 0.35109502 -0.5367845 -0.63240135
-0.2030495 -0.50633615 -0.5525667 -0.32021055 -0.48401242 0.13826887 -0.19587687 -0.2399845
-0.36365747 0.09718664 -0.35432068 -0.40229377 -0.1333563 -0.22725512 -0.46009395 -0.10867525
-0.34507662 0.16196649 -1.4067389 0.560786 -0.11756786 0.31023225 -0.42104414 0.14477916
-1.0215595 0.43901837 -0.114045426 0.32957652 -0.36842957 0.09611314 -0.84369284 0.63230485
00000000: 6ef7 e6be b5e6 18bf 1c25 adbe b2eb f5be
00000010: 7547 0dbf 123a 4dbe 31cc 1d3f fb6d ebbd
00000020: 547a a23f 1055 e7be 0715 1a3e 8212 08bf
00000030: 2055 c5be eb9c 4d3e 006a 79bf a199 c83e
00000040: 255c 10be af9e c33e 8c48 b5be 3461 083e
00000050: 95c5 bcbf 5d80 0f3f a324 12be 6fb4 4a3d
00000060: f296 e8be 51af 5f3e b84c 9dbf 866f fc3e
00000070: 3a3c 1cbe 063e 143f c434 7c3e e93e 2ebe
00000080: 545a 993f d66a b8be 4d62 143e acfb bd3c
00000090: 7537 1fbf 0b52 fdbe 5577 8bbe 797f febe
000000a0: 6966 1bbf 6ad6 c2be 64f5 20bf 9139 453e
000000b0: 216d 8dbe da1c f1bd 9a41 b0be c38d 883e
000000c0: 584b cebe 7e87 173e 57f4 9dbf c01e 0e3f
000000d0: 99b7 0bbe dae0 803e 6959 afbe 5aa3 b1be
000000e0: f6bf 6b3d 7013 fabe 4641 62bd 7cb7 e83c
000000f0: aaec f1be f69d 02bf 0c6f 4cbe 6179 fdbe
00000100: a7ce 75be 4806 12be 44d8 b2be 450e bbbd
00000110: 07cc f0be 86aa 273e dd36 5abe 7c6f 9abe
00000120: 81b4 14bf f305 47be 0ef7 3bbe d119 eebe
00000130: 53cf 17bf 2b54 05be 0387 093f 368a 12be
00000140: b126 a03f d1d4 d1be 2a7f 383e 53d8 87be
00000150: 6407 9abe d31d e3be 8e57 6cbe c7c2 02bf
00000160: cf06 fcbe a88b 42be d1cc 69bf f53b 0dbe
00000170: 61f1 56be 0b67 96bd 5d55 993d 0b16 283f
00000180: 1730 073f f0e1 01be 1a2c cc3f d52b d4be
00000190: e891 3c3e 88d9 e6bd 6299 eabe 59ab b8be
000001a0: 8739 97bd 8406 8cbe 2d59 e0be 894d 28be
000001b0: 0ac4 b2be 1f8a c4be 1f14 84be 9e55 ecbe
000001c0: a58f 04bf f1c2 64be 9b40 d43e d841 f4bd
000001d0: 1b31 c93f ea5e c4be ff75 473e d79f 61be
000001e0: 62f8 b3be 135b d8bc c2f0 febe 9e92 243e
000001f0: 07d1 46be f474 b4bc 1d3a cebe 560e d9bd
00000200: 9b04 2abe 0b4a b6be 6452 8ebe a89f 493c
00000210: 520a 18bf 2860 ffbe 60c5 82be 6c3e 15bf
00000220: 8727 04bf 1ba0 15bd 2ddf e9be 681f 3a3e
00000230: 627d a4bf ebe4 0b3f 9b2e d5bd 0899 783e
00000240: 2c66 9bbe 707d c8be afd3 75be aac6 06bf
00000250: 92d3 0bbf 8477 52be 199a eebe deec 02bf
00000260: e110 5dbe 7366 c5be 339c 19bf 6696 95be
00000270: ccb0 02bf f1a8 9ebe fe52 66be 0634 f8be
00000280: b72f 87be f669 36be 5e8b ab3e 919b f5bd
00000290: 2740 b93f 6299 c7be dc0e 4a3e 7728 36be
000002a0: 36ee d33e 6031 bdbd e642 b03f 4577 b9be
000002b0: e700 2a3e 079d 57be c7ab c6be f5a1 eabe
000002c0: a4af a2be 3324 bdbe 9d88 0fbf 6fca 5bbe
000002d0: 488d 0dbf 5e87 d1be 6be4 adbe c63a b2be
000002e0: 7e8d 07bf fc98 7ebe 83cb 07bf a529 0abf
000002f0: 55a2 91be 1963 e7be dcd5 10bf 4419 8fbe
00000300: ebae f1be b1b9 dfbe 5da0 13be 5292 a0be
00000310: fd97 adbe b10b 69bd 495d 20bf 4a28 f0be
00000320: 252a 88be 0f8e 0abf 1e1e 01bf f67a 55be
00000330: 3b41 a7be f994 aebe a07a 11be 95e0 b5be
00000340: a84d b5be 05ef 72be 9505 9d3e a1f0 48be
00000350: 7488 5e3f c9b5 0abf f241 ba3d 836d 21be
00000360: 79b6 f8be 51b4 743e f8c5 a3bf 4f0d c93e
00000370: 51f3 d9bd bac2 b33e b66a 09bf 0ee5 21bf
00000380: 35ec 4fbe 3f9f 01bf 0375 0dbf a3f2 a3be
00000390: 7ad0 f7be 5b96 0d3e f293 48be 7fbe 75be
000003a0: 5031 babe ca09 c73d 8569 b5be 73f9 cdbe
000003b0: 8e8e 08be 91b5 68be 6f91 ebbe 2191 debd
000003c0: e2ad b0be 8bda 253e 0510 b4bf ac8f 0f3f
000003d0: 6bc7 f0bd c3d6 9e3e 1993 d7be fd40 143e
000003e0: 76c2 82bf 04c7 e03e a690 e9bd 41be a83e
000003f0: cda2 bcbe f7d6 c43d 41fc 57bf bbde 213f

bayes_fc1.weight_rho f4 [64, 6]
-0.8646275 -1.0325747 0.5271101 -0.42460015 -1.5502748 0.66272825 -3.0026276 -3.8234797
-0.4199207 -2.7834225 -3.741674 -0.31242198 -2.3690314 -3.502995 -0.10481048 -2.224685
-3.3253837 0.0046262145 -3.0228884 -4.0148826 -0.51063657 -3.3815866 -4.0743318 -0.48811164
-2.7461152 -3.9374905 -0.18971601 -2.8527963 -3.8224015 -0.30342263 -1.9661177 -3.2404604
0.24427553 -2.4239314 -3.4163864 -0.090460405 -0.5712714 -1.1083432 0.60067075 -0.7255472
-1.2844352 0.41866082 -1.6953385 -2.7310295 0.58494747 -1.1131822 -2.3037999 0.38161495
-2.9351382 -3.7381823 -0.041932378 -2.827422 -3.701674 -0.617041 -1.1668973 -1.87524
0.34613508 -1.3931276 -2.6053019 0.29745853 -0.5749668 -1.5165191 0.5483489 -0.69093394
-1.8242882 0.42097706 -1.8766782 -2.8986635 0.4216632 -1.8612622 -2.6983836 0.26835537
-0.788645 -1.8090076 0.42833695 -0.7745638 -1.2690907 0.6233613 -3.146904 -3.8462195
-0.61685324 -3.142204 -4.184597 -0.4267464 -0.8734591 -1.6613748 0.51331455 -0.68658423
-1.2527703 0.52871746 -1.3469765 -3.2997975 -0.15003459 -3.1218345 -3.900525 -0.71961427
-2.9350848 -3.829919 -0.33762714 -3.090266 -3.85573 -0.48482212 -0.6609308 -1.73158
0.54065305 -0.77789813 -1.5651368 0.5856522 -0.7664047 -1.7512838 0.44954228 -0.8161711
-1.3393078 0.42616397 -3.2173905 -4.054466 -0.60103506 -3.1820152 -4.1774855 -0.42867666
-1.9462296 -2.8188488 0.28202212 -2.0922906 -2.632979 0.18768418 -1.2127625 -2.514429
0.6576741 -0.9735761 -1.9446238 0.42235863 -0.59917784 -1.3340476 0.518231 -0.5766372
-1.0959399 0.572576 -2.6191924 -3.6442492 -0.06314977 -2.5544243 -3.5422482 -0.07364778
-0.78759223 -1.5252941 0.6527539 -0.59809566 -1.1627569 0.51101685 -0.8063927 -1.3895731
0.4739466 -0.75716585 -1.1904337 0.5071751 -1.0047178 -2.1179025 0.25352138 -1.2580051
-2.0070326 0.32809708 -3.3924403 -4.274414 -0.91134226 -3.4058347 -4.5138407 -0.610061
-3.3641133 -4.246019 -0.59752315 -3.3920665 -4.215282 -0.6565322 -1.0821866 -1.3495252
0.42918283 -0.75808877 -1.3426459 0.47547883 -0.6032774 -1.4234055 0.4598574 -1.1916133
-1.3034555 0.44796854 -0.67491615 -1.2311921 0.38625032 -0.77346474 -1.0552602 0.6731399
-0.7390689 -1.5663685 0.53232414 -0.84282184 -1.5977228 0.49121782 -0.59260046 -1.2575808
0.4914215 -0.59725225 -1.4866995 0.499339 -0.90268224 -1.8625076 0.5028504 -0.6593797
-1.2784904 0.5480937 -1.6527789 -2.698695 0.45885524 -2.0754886 -2.8970456 0.26093495
-3.1231363 -4.0356326 -0.28513217 -3.053293 -3.9906101 -0.3263039 -0.6120045 -1.2510322
0.49787065 -0.6262447 -1.2879083 0.4233151 -1.6794435 -2.4588032 0.3032407 -1.1074598
-1.9070556 0.39025038 -1.173177 -1.7158376 0.27145365 -1.150742 -1.6013175 0.14644392
-2.945142 -3.8360667 -0.40591127 -3.1464138 -3.8957965 -0.21344948 -2.8048785 -3.511622
-0.11820717 -2.6124153 -3.459976 -0.36698785 -2.336483 -3.0024083 -0.028478801 -2.3374834
00000000: 3a58 5dbf 682b 84bf b0f0 063f 3165 d9be
00000010: 686f c6bf 8fa8 293f 0d2b 40c0 e4b3 74c0
00000020: d9ff d6be 9823 32c0 9677 6fc0 c6f5 9fbe
00000030: 369e 17c0 1231 60c0 e0a6 d6bd 3d61 0ec0
00000040: 16d3 54c0 8097 973b 0177 41c0 eb79 80c0
00000050: 14b9 02bf ea6b 58c0 ed60 82c0 c5e9 f9be
00000060: 5ac0 2fc0 d8ff 7bc0 ea44 42be 3794 36c0
00000070: 3aa2 74c0 365a 9bbe bfa9 fbbf b463 4fc0
00000080: 5d23 7a3e b121 1bc0 13a6 5ac0 4e43 b9bd
00000090: d83e 12bf 31de 8dbf 8fc5 193f 76bd 39bf
000000a0: 5f68 a4bf b65a d63e da00 d9bf 30c9 2ec0
000000b0: 1ebf 153f c17c 8ebf 7571 13c0 0963 c33e
000000c0: 4ed9 3bc0 613e 6fc0 49c1 2bbd 7bf4 34c0
000000d0: 3ae8 6cc0 66f6 1dbf e45c 95bf dd07 f0bf
000000e0: 9e38 b13e 0152 b2bf 44bd 26c0 7c4c 983e
000000f0: 0631 13bf 4c1d c2bf 9860 0c3f 0ce1 30bf
00000100: 4782 e9bf 4e8a d73e fe36 f0bf b483 39c0
00000110: 3de4 d73e d73d eebf 51b2 2cc0 e065 893e
00000120: a4e4 49bf 908d e7bf fb4e db3e d049 46bf
00000130: 9071 a2bf 9b94 1f3f e066 49c0 7628 76c0
00000140: 18ea 1dbf df19 49c0 38e8 85c0 817e dabe
00000150: 049b 5fbf eea7 d4bf 9568 033f fcc3 2fbf
00000160: c75a a0bf 075a 073f ba69 acbf e22f 53c0
00000170: aba2 19be 23cc 47c0 34a2 79c0 a438 38bf
00000180: 6ed8 3bc0 651d 75c0 77dd acbe ebc6 45c0
00000190: 48c4 76c0 9b3a f8be c332 29bf 6aa4 ddbf
000001a0: 3d68 0a3f 5524 47bf 6756 c8bf 4ded 153f
000001b0: 1933 44bf 112a e0bf 682a e63e 97f0 50bf
000001c0: 706e abbf 2a32 da3e bae9 4dc0 2fbe 81c0
000001d0: 6fdd 19bf 23a6 4bc0 f6ad 85c0 827b dbbe
000001e0: 0d1e f9bf 0568 34c0 3465 903e 17e8 05c0
000001f0: ba82 28c0 4830 403e cd3b 9bbf 68ec 20c0
00000200: 545d 283f 493c 79bf 6fe9 f8bf 643f d83e
00000210: b863 19bf 12c2 aabf c9aa 043f 7f9e 13bf
00000220: c247 8cbf 5794 123f d9a0 27c0 613b 69c0
00000230: ab54 81bd b07b 23c0 32b4 62c0 a6d4 96bd
00000240: a59f 49bf d63c c3bf e11a 273f cc1c 19bf
00000250: 38d5 94bf 00d2 023f c16f 4ebf 88dd b1bf
00000260: 21a9 f23e 9fd5 41bf 2260 98bf 3ad6 013f
00000270: 989a 80bf b78b 07c0 8ecd 813e 5006 a1bf
00000280: 3973 00c0 57fc a73e be1d 59c0 00c8 88c0
00000290: ba4d 69bf 32f9 59c0 6271 90c0 f52c 1cbf
000002a0: a24d 57c0 63df 87c0 47f7 18bf 9e17 59c0
000002b0: 97e3 86c0 7f12 28bf 1785 8abf 3ebd acbf
000002c0: dabd db3e 1b12 42bf d2db abbf f671 f33e
000002d0: 6370 1abf 2732 b6bf 6e72 eb3e c986 98bf
000002e0: a1d7 a6bf 225c e53e 4ec7 2cbf b497 9dbf
000002f0: 9ac2 c53e c901 46bf c412 87bf e652 2c3f
00000300: 9f33 3dbf c37e c8bf 6546 083f 2cc3 57bf
00000310: 2e82 ccbf e780 fb3e aab4 17bf 68f8 a0bf
00000320: 999b fb3e 86e5 18bf 2b4c bebf 5da9 ff3e
00000330: 2f16 67bf a666 eebf ceba 003f 1ccd 28bf
00000340: 93a5 a3bf de4f 0c3f 428e d3bf 6bb7 2cc0
00000350: 13ef ea3e ced4 04c0 3269 39c0 4499 853e
00000360: 77e1 47c0 e723 81c0 d8fc 91be 2769 43c0
00000370: 2866 7fc0 4e11 a7be 54ac 1cbf d321 a0bf
00000380: e7e8 fe3e 9351 20bf 2eda a4bf c2bc d83e
00000390: 01f8 d6bf 085d 1dc0 5d42 9b3e 3ec1 8dbf
000003a0: 661a f4bf e6ce c73e aa2a 96bf 91a0 dbbf
000003b0: f9fb 8a3e 844b 93bf f9f7 ccbf 65f5 153e
000003c0: 357d 3cc0 1e82 75c0 9ad3 cfbe d85e 49c0
000003d0: bb54 79c0 8092 5abe 2183 33c0 6abe 60c0
000003e0: 9a16 f2bd d031 27c0 3f70 5dc0 d5e5 bbbe
000003f0: f088 15c0 7527 40c0 604c e9bc 5499 15c0

bayes_fc1.bias_mu f4 [64]
-0.022547586 0.024836678 -0.08014526 -0.047660317 -0.0660054 0.06860287 0.0048755948 0.004484293
-0.06435972 -0.024536395 -0.023908624 0.01273608 0.014637421 0.018316522 0.011043396 0.04480146
0.026722264 -0.019771906 -0.054348648 0.055094868 -0.039663948 -0.00025508818 -0.0052978764 -0.060556434
0.01995252 -0.018892009 -0.027635869 0.024679044 0.04108242 -0.02299328 -0.025798347 -0.06280556
-0.012915102 -0.0023395766 0.014267804 0.011294958 -0.08179721 -0.04187734 -0.008138372 -0.01299567
-0.022865497 -0.056171995 -0.02582716 0.0005363016 -0.03188094 -0.023032187 -0.009154881 -0.07160735
-0.018375197 -0.018100562 0.0013228753 -0.03438651 0.02045781 0.050758664 -0.010242262 0.028141249
0.06795224 0.100583054 -0.010385872 0.02468668 -0.049484555 0.04843399 -0.07465523 -0.0060529113
00000000: b7b5 b8bc 4a76 cb3c 3323 a4bd 7737 43bd
00000010: d72d 87bd a97f 8c3d 74c3 9f3b faf0 923b
00000020: 07cf 83bd 8d00 c9bc 05dc c3bc feaa 503c
00000030: cbd1 6f3c 880c 963c 5cef 343c bc81 373d
00000040: a6e8 da3c b1f8 a1bc b09c 5ebd 28ab 613d
00000050: aa76 22bd 5bbd 85b9 cf99 adbb 060a 78bd
00000060: 7873 a33c 6ac3 9abc 9e64 e2bc b52b ca3c
00000070: 0a46 283d 675c bcbc 0e57 d3bc 34a0 80bd
00000080: dd99 53bc 9553 19bb 82c3 693c 7d0e 393c
00000090: 4c85 a7bd 9387 2bbd ce56 05bc caeb 54bc
000000a0: 6c50 bbbc 9b14 66bd 7b93 d3bc 9796 0c3a
000000b0: 9795 02bd ffad bcbc 5bfe 15bc e0a6 92bd
000000c0: 9587 96bc a147 94bc 5464 ad3a ded8 0cbd
000000d0: 2397 a73c 51e8 4f3d 29cf 27bc 7a88 e63c
000000e0: 8b2a 8b3d 7dfe cd3d 8129 2abc b83b ca3c
000000f0: 51b0 4abd b862 463d d7e4 98bd 8057 c6bb

bayes_fc1.bias_rho f4 [64]
-0.20023823 -1.4336739 -1.2427919 -1.624995 -1.3299859 -0.9118313 -0.21210392 -0.60507286
-1.5005475 -0.63193357 -0.21183097 -0.80073965 -0.32548556 -1.6350087 -0.26916352 -1.1997347
-1.4966661 -0.2774504 -0.2781587 -1.6409894 -0.9039521 -0.4721875 -0.14583783 -1.1030803
-0.22270052 -0.27060345 -0.4767784 -1.859949 -1.7774694 -0.34091136 -0.33058771 -0.21394049
-0.29259717 -0.2781279 -0.25541756 -0.7650675 -1.5101782 -0.27450398 -0.5563922 -0.6188108
-1.3949236 -1.2273415 -1.0648198 -0.29299185 -0.20533738 -0.22842906 -0.41510722 -1.2305173
-0.29520965 -0.21736848 -0.35122138 -0.38432452 -0.16519174 -1.897155 -0.3062134 -1.5508976
-1.0547853 -1.1914978 -0.8987646 -0.5588195 -0.277542 -1.4702456 -1.6338898 -0.32949606
00000000: 400b 4dbe a082 b7bf ce13 9fbf d6ff cfbf
00000010: fa3c aabf c76d 69bf c531 59be 0ee6 1abf
00000020: f111 c0bf 66c6 21bf 38ea 58be 46fd 4cbf
00000030: 0ba6 a6be f747 d1bf cdcf 89be e890 99bf
00000040: c192 bfbf fb0d 8ebe d16a 8ebe f10b d2bf
00000050: 6869 67bf 8fc2 f1be 8356 15be bc31 8dbf
00000060: 9b0b 64be 898c 8abe 4c1c f4be cf12 eebf
00000070: 1e84 e3bf ef8b aebe cb42 a9be 3713 5bbe
00000080: 4ccf 95be c866 8ebe 17c6 82be 77db 43bf
00000090: 854d c1bf c98b 8cbe b86f 0ebf 626a 1ebf
000000a0: db8c b2bf 8719 9dbf 044c 88bf 0703 96be
000000b0: f643 52be 4fe9 69be ef88 d4be 9781 9dbf
000000c0: b825 97be d895 5ebe 4ad3 b3be 2fc6 c4be
000000d0: 0628 29be fad5 f2bf 01c8 9cbe d083 c6bf
000000e0: 3403 87bf 0083 98bf 7015 66bf cb0e 0fbf
000000f0: fc19 8ebe 0231 bcbf 4d23 d1bf b5b3 a8be

bayes_fc1.prior_mu_old_bias f4 [64]
-0.05124293 0.04789398 -0.04806101 -0.03245876 -0.09327044 0.06285081 -0.018908113 0.026500005
-0.055548068 -0.043021787 -0.028128026 -0.0030708907 -4.8708687e-05 0.0094457315 -0.015293676 0.013860022
0.046883527 -0.0009900219 -0.004202438 0.053083412 -0.026291564 -0.008448007 0.0323878 -0.08825381
-0.022734324 -0.021441523 -0.0019216457 0.015604721 0.04820391 0.008337452 -0.047894966 -0.039942645
-0.02577246 0.0090500135 -0.031900868 0.034357216 -0.1063731 -0.04818342 -0.03019607 -0.027149452
-0.06481683 -0.10557965 -0.0738337 -0.037869673 -0.023027088 0.00603435 -0.03670108 -0.04349045
-0.024211623 0.037000317 -0.033633877 -0.0048278766 -0.008873948 0.050651446 0.0057210424 0.044384234
0.085155234 0.08953603 0.01612034 -0.028043967 -0.040259793 0.05870843 -0.07897321 -0.0072008083
00000000: 1be4 51bd 7a2c 443d 9fdb 44bd 7af3 04bd
00000010: 9304 bfbd edb7 803d 30e5 9abc 8a16 d93c
00000020: 5f86 63bd 9d37 30bd bf6c e6bc ff40 49bb
00000030: 8e4c 4cb8 45c2 1a3c 5492 7abc 2515 633c
00000040: f108 403d 9fc3 81ba 9bb4 89bb fe6d 593d
00000050: 6861 d7bc 8269 0abc 12a9 043d 6abe b4bd
00000060: 553d babc 22a6 afbc bbdf fbba f2aa 7f3c
00000070: 7771 453d cf99 083c 832d 44bd e69a 23bd
00000080: c420 d3bc 8246 143c 7caa 02bd 27ba 0c3d
00000090: 24da d9bd fa5b 45bd c05d f7bc 8768 debc
000000a0: b0be 84bd 253a d8bd 1f36 97bd 3b1d 1bbd
000000b0: 4ea3 bcbc ccbb c53b df53 16bd 0b23 32bd
000000c0: 7457 c6bc a58d 173d adc3 09bd 2a33 9ebb
000000d0: 0964 11bc e477 4f3d 9577 bb3b 3ecc 353d
000000e0: de65 ae3d ab5e b73d ce0e 843c 76bc e5bc
000000f0: 74e7 24bd 4078 703d b5bc a1bd c2f4 ebbb

bayes_fc1.prior_sigma_small_bias f4 [64]
0.61420286 0.20823783 0.25889632 0.17316195 0.22853798 0.34250075 0.56632084 0.43719554
0.20514748 0.44070902 0.59093094 0.36612165 0.52941215 0.18790212 0.5778756 0.27129802
0.20582154 0.5591035 0.57442296 0.18398349 0.35941386 0.4839231 0.6246099 0.2795463
0.5881312 0.5617513 0.4804935 0.14631028 0.15932839 0.5313404 0.51816285 0.5867294
0.5468761 0.5480877 0.5526788 0.3754157 0.19592804 0.57237434 0.44179526 0.42271963
0.21504222 0.24937068 0.29805273 0.5569734 0.59844714 0.5928244 0.47892082 0.2614353
0.53968316 0.58004516 0.5328409 0.5251962 0.5990491 0.14313875 0.53357977 0.18453108
0.29597592 0.25585905 0.33640993 0.44333583 0.55779624 0.20295733 0.17412123 0.53674036
00000000: 663c 1d3f 4c3c 553e 0f8e 843e 5e51 313e
00000010: dc05 6a3e 425c af3e 67fa 103f 18d8 df3e
00000020: 2e12 523e 9da4 e13e 4047 173f 4c74 bb3e
00000030: 8e87 073f 6a69 403e a8ef 133f 93e7 8a3e
00000040: e2c2 523e 6821 0f3f 620d 133f 2b66 3c3e
00000050: 1805 b83e c5c4 f73e 6fe6 1f3f b120 8f3e
00000060: c48f 163f efce 0f3f 3e03 f63e 5dd2 153e
00000070: fb26 233e ed05 083f 52a6 043f e633 163f
00000080: 1200 0c3f 7a4f 0c3f 5c7c 0d3f 7d36 c03e
00000090: 5ca1 483e 2087 123f fd32 e23e b56e d83e
000000a0: 0734 5c3e 075b 7f3e 5e9a 983e cf95 0e3f
000000b0: d533 193f 57c3 173f 1c35 f53e d9da 853e
000000c0: ad28 0a3f d77d 143f 4368 083f 4273 063f
000000d0: 485b 193f f792 123e af98 083f b7f5 3c3e
000000e0: 288a 973e f5ff 823e ec3d ac3e eafc e23e
000000f0: bccb 0e3f 0cd4 4f3e d64c 323e d167 093f

bayes_fc1.prior_mu_old f4 [64, 6]
-0.4703575 -0.60314286 -0.3618626 -0.5034002 -0.5614111 -0.20742461 0.62254715 -0.110437095
1.258927 -0.43878224 0.15608901 -0.5023892 -0.37213978 0.21545246 -0.9269413 0.40000597
-0.13346384 0.38829046 -0.32644317 0.14523308 -1.4256347 0.567534 -0.13209797 0.06742767
-0.44646522 0.21858351 -1.2128799 0.47122213 -0.15993479 0.55410665 0.21288198 -0.16022693
1.1538955 -0.36209488 0.15066208 0.034933206 -0.58966374 -0.53206575 -0.2874965 -0.5107585
-0.5825514 -0.3441655 -0.6181257 0.19619773 -0.25986943 -0.11539846 -0.3529778 0.30361173
-0.40249687 0.16171388 -1.1871227 0.5476321 -0.13571624 0.24647963 -0.34291053 -0.33056316
0.05834477 -0.4800233 -0.05183244 0.01593658 -0.43267077 -0.49723402 -0.16331008 -0.5051129
-0.2074612 -0.12670164 -0.37639195 -0.09913377 -0.4589774 0.15267451 -0.21185157 -0.29247984
-0.5785067 -0.19948182 -0.18206942 -0.44535527 -0.57952815 -0.16048475 0.5332691 -0.15247804
1.2239126 -0.40353706 0.18008803 -0.22757226 -0.28799647 -0.384391 -0.20524743 -0.4844913
-0.45636323 -0.13570689 -0.90511155 -0.16956785 -0.21029055 -0.09871878 0.056101315 0.6423946
0.5232076 -0.12371584 1.5648471 -0.40793067 0.19202629 -0.099961706 -0.4556647 -0.35863996
-0.08488751 -0.2663857 -0.4529597 -0.14892259 -0.3083836 -0.32957575 -0.21714245 -0.41709808
-0.4704279 -0.18336532 0.40032622 -0.12886193 1.5292851 -0.39180365 0.18986772 -0.21162939
-0.32908398 0.0023945991 -0.4947611 0.19279306 -0.1749968 0.018436762 -0.40280434 -0.10132582
-0.15325475 -0.35195553 -0.26933104 0.025499847 -0.56273705 -0.4725086 -0.24935077 -0.5532404
-0.51397586 -0.0030219373 -0.45551267 0.17555389 -1.2523937 0.52794546 -0.11415914 0.2470124
-0.30792275 -0.38459685 -0.29016647 -0.53181624 -0.5455479 -0.18431194 -0.4307648 -0.47453922
-0.18039384 -0.34444577 -0.60424 -0.25424132 -0.48238257 -0.287851 -0.25209743 -0.45306122
-0.23663828 -0.16769949 0.33894494 -0.12089651 1.4327964 -0.38413775 0.2049855 -0.15886097
0.41187456 -0.09546486 1.3453469 -0.34542808 0.16971269 -0.18652116 -0.40160513 -0.42900065
-0.32676256 -0.34835902 -0.52673864 -0.22145198 -0.55678624 -0.3976896 -0.36080337 -0.33934313
-0.53347915 -0.2445993 -0.49387318 -0.5570569 -0.2792686 -0.43220457 -0.5620601 -0.26097426
-0.45619333 -0.44970313 -0.18736643 -0.30342925 -0.34266913 -0.048728213 -0.640204 -0.4637163
-0.253831 -0.53558075 -0.49919587 -0.23237745 -0.37739924 -0.3603854 -0.15172781 -0.41603798
-0.39113146 -0.27460122 0.31639457 -0.19618948 0.8764308 -0.5494624 0.1085831 -0.1418222
-0.47501034 0.24795136 -1.2668737 0.39731228 -0.10536534 0.34424922 -0.5527282 -0.63748807
-0.22767153 -0.523174 -0.53744453 -0.26401007 -0.5051816 0.111469455 -0.23265074 -0.27050373
-0.3987825 0.094161734 -0.340271 -0.3959941 -0.12511976 -0.23448247 -0.46216327 -0.109004386
-0.34924904 0.15660739 -1.397827 0.5395045 -0.13203481 0.2648751 -0.4178456 0.15592413
-0.99500966 0.41723034 -0.12665762 0.30542704 -0.3574183 0.07669624 -0.8655364 0.5976193
00000000: b3d2 f0be 9267 1abf 0e46 b9be d6de 00bf
00000010: a3b8 0fbf 1e67 54be 405f 1f3f d82c e2bd
00000020: 8524 a13f 11a8 e0be ccd5 1f3e 949c 00bf
00000030: 1b89 bebe 929f 5c3e 064c 6dbf 95cd cc3e
00000040: bfaa 08be 02ce c63e 8f23 a7be fbb7 143e
00000050: 337b b6bf e949 113f b144 07be 8517 8a3d
00000060: 1797 e4be 5bd4 5f3e a63f 9bbf 0744 f13e
00000070: f2c5 23be efd9 0d3f bcfd 593e 8712 24be
00000080: d9b2 933f 8064 b9be 2947 1a3e 1f16 0f3d
00000090: 34f4 16bf 7635 08bf be32 93be 12c1 02bf
000000a0: 1722 15bf 7636 b0be 7c3d 1ebf 0fe8 483e
000000b0: 9b0d 85be 0756 ecbd 82b9 b4be ff72 9b3e
000000c0: 1214 cebe 5398 253e a3f3 97bf 9e31 0c3f
000000d0: 33f9 0abe 2865 7c3e f891 afbe 933f a9be
000000e0: edfa 6e3d 9dc5 f5be 414e 54bd 6e8d 823c
000000f0: 0687 ddbe 7595 febe c23a 27be 144f 01bf
00000100: b570 54be 13be 01be 72b6 c0be a506 cbbd
00000110: 16ff eabe b556 1c3e 9eef 58be ebbf 95be
00000120: 0419 14bf f644 4cbe 6870 3abe 9b05 e4be
00000130: f55b 14bf 1d56 24be 5384 083f 3423 1cbe
00000140: 2ba9 9c3f 699c cebe ff68 383e b408 69be
00000150: 4674 93be e6ce c4be 622c 52be 3e0f f8be
00000160: 71a8 e9be bff6 0abe 64b5 67bf 32a3 2dbe
00000170: 6856 57be 122d cabd 7eca 653d f973 243f
00000180: eff0 053f bb5e fdbd e94c c83f 4adc d0be
00000190: 8aa2 443e b9b8 ccbd e24c e9be a89f b7be
000001a0: 81d9 adbd b563 88be 55ea e7be 2a7f 18be
000001b0: 75e4 9dbe 27be a8be 975a 5ebe e18d d5be
000001c0: eddb f0be 1ec4 3bbe 8ff7 cc3e 62f4 03be
000001d0: 9dbf c33f 7d9a c8be af6c 423e 60b5 58be
000001e0: b27d a8be b5ee 1c3b 5451 fdbe 8b6b 453e
000001f0: 5c32 33be b108 973c 5f3c cebe e983 cfbd
00000200: d0ee 1cbe 8433 b4be c2e5 89be 0ee5 d03c
00000210: 890f 10bf a6ec f1be cf55 7fbe 2aa1 0dbf
00000220: ec93 03bf b20b 46bb f538 e9be 66c4 333e
00000230: 704e a0bf 6f27 073f 44cc e9bd d2f0 7c3e
00000240: 0da8 9dbe e1e9 c4be b390 94be 1c25 08bf
00000250: 07a9 0bbf 45bc 3cbe 348d dcbe cef6 f2be
00000260: 2ab9 38be 325b b0be 79af 1abf eb2b 82be
00000270: d9fa f6be 3561 93be ea12 81be a4f7 e7be
00000280: 4e51 72be 6ab9 2bbe 318a ad3e 9798 f7bd
00000290: df65 b73f b4ad c4be b8e7 513e 73ac 22be
000002a0: 39e1 d23e 1583 c3bd 5434 ac3f f3db b0be
000002b0: 2ac9 2d3e 67ff 3ebe 309f cdbe f9a5 dbbe
000002c0: 6c4d a7be 1d5c b2be 58d8 06bf 4fc4 62be
000002d0: 8b89 0ebf f99d cbbe 38bb b8be 62be adbe
000002e0: 1792 08bf 3d78 7abe f2dc fcbe 489b 0ebf
000002f0: 4bfc 8ebe eb49 ddbe 2ce3 0fbf 6b9e 85be
00000300: 2c92 e9be 7d3f e6be fcdc 3fbe 145b 9bbe
00000310: 5472 afbe 3c97 47bd 69e4 23bf 396c edbe
00000320: 23f6 81be d21b 09bf 9a96 ffbe 5bf4 6dbe
00000330: 793a c1be 6f84 b8be 895e 1bbe ee02 d5be
00000340: 6242 c8be 8898 8cbe 78fe a13e e5e5 48be
00000350: c55d 603f 91a9 0cbf d160 de3d d739 11be
00000360: 8e34 f3be f6e6 7d3e eb28 a2bf 846c cb3e
00000370: c9c9 d7bd 6f41 b03e 987f 0dbf 6b32 23bf
00000380: ba22 69be bbee 05bf f795 09bf 542c 87be
00000390: 9553 01bf 194a e43d ff3b 6ebe 777f 8abe
000003a0: 382d ccbe ded7 c03d 0038 aebe bdbf cabe
000003b0: 651f 00be 2c1c 70be aaa0 ecbe b13d dfbd
000003c0: c5d0 b2be b05d 203e ffeb b2bf f81c 0a3f
000003d0: 2234 07be b69d 873e dcef d5be 93aa 1f3e
000003e0: f4b8 7ebf 379f d53e 89b2 01be ef60 9c3e
000003f0: 88ff b6be eb12 9d3d cb93 5dbf 94fd 183f

bayes_fc1.prior_sigma_small f4 [64, 6]
0.34301063 0.28227818 0.9718567 0.49395216 0.18449205 1.0771267 0.050413016 0.023073195
0.48364413 0.061238836 0.024079144 0.53957784 0.09197066 0.030807385 0.6546577 0.10445206
0.035477843 0.6814682 0.04566512 0.01878391 0.45676938 0.03289116 0.017601172 0.464976
0.06309722 0.019841775 0.60637337 0.058510963 0.0234108 0.5506595 0.13175747 0.039745554
0.81764054 0.08585074 0.03241901 0.6226667 0.4510629 0.26976392 1.0393648 0.36038792
0.24572252 0.92227036 0.17072661 0.061255384 1.0238637 0.2812801 0.092597716 0.8997908
0.049990263 0.023925755 0.64915556 0.055451546 0.024309713 0.43439326 0.26889443 0.13978912
0.88550997 0.2141647 0.07250951 0.83934706 0.45787787 0.19893366 1.001193 0.4046948
0.1519102 0.9479257 0.13485406 0.0512312 0.9248798 0.13786228 0.06526116 0.8284502
0.371478 0.14983197 0.9178072 0.36712968 0.2499753 1.0192121 0.04130781 0.02186479
0.43826985 0.043342076 0.015482495 0.4951633 0.3472811 0.18130782 0.9646126 0.4079664
0.25076127 1.0213882 0.21798868 0.034603957 0.6198472 0.043427672 0.019210849 0.38639647
0.053943682 0.021795515 0.5536072 0.04576233 0.020209244 0.47619143 0.42510283 0.15243873
0.9989503 0.37637395 0.17693704 1.0648499 0.39301923 0.16729106 0.9436738 0.37793583
0.2372496 0.91817665 0.03971771 0.016664613 0.4250145 0.043472733 0.016260223 0.5003104
0.13009827 0.061609466 0.84344137 0.11731629 0.06998656 0.7868844 0.2510643 0.07745218
1.0645752 0.3194101 0.13050787 0.924547 0.43851092 0.23430659 0.9800374 0.4481193
0.2850258 1.019697 0.074092805 0.027405921 0.65316266 0.0744285 0.028789522 0.6619578
0.36933568 0.19558367 1.0672479 0.4368586 0.2604807 0.9954226 0.36801022 0.22688551
0.9586665 0.39630616 0.26100546 0.95884913 0.31271276 0.1144477 0.81293195 0.2561702
0.13067368 0.8737063 0.034142453 0.014185913 0.33436102 0.03451663 0.011287046 0.43925452
0.035369355 0.014615076 0.42070016 0.034562383 0.0149282105 0.41730022 0.28100818 0.22748438
0.9290098 0.38687727 0.23024596 0.9581644 0.4386402 0.21204406 0.9191442 0.24386461
0.23177972 0.93573534 0.41488224 0.24483578 0.9037242 0.38854858 0.29891884 1.0955169
0.38953632 0.18578707 0.98156005 0.36065298 0.18270972 0.9524235 0.4113901 0.24548359
0.9475371 0.43817025 0.20419894 0.9483572 0.31512958 0.14332058 0.9389319 0.4093933
0.23575413 1.0084196 0.17486942 0.06492468 0.9577079 0.12072928 0.053142227 0.8224451
0.042496487 0.017237943 0.5439121 0.045028113 0.0188428 0.52571535 0.41268235 0.2347083
0.95707345 0.42066145 0.23800786 0.90077835 0.1666145 0.080482334 0.8489256 0.28276014
0.13212028 0.89903325 0.25982484 0.15966326 0.8087719 0.25525957 0.18337777 0.73939615
0.05483141 0.020666653 0.52928513 0.04331684 0.020431029 0.59092283 0.06404291 0.029551433
0.6733071 0.071626045 0.032421194 0.52309656 0.09317897 0.050660893 0.6667932 0.0962271
00000000: 179f af3e c486 903e 9acb 783f 4ce7 fc3e
00000010: 7ceb 3c3e 4adf 893f e17d 4e3d ff03 bd3c
00000020: 34a0 f73e 93d5 7a3d a041 c53c c621 0a3f
00000030: 1d5b bc3d c55f fc3c a697 273f f6ea d53d
00000040: 3751 113d b374 2e3f 590b 3b3d b7e0 993c
00000050: addd e93e e2b8 063d 5530 903c 5611 ee3e
00000060: 1e39 813d 388b a23c 493b 1b3f 31a9 6f3d
00000070: 02c8 bf3c 05f8 0c3f 6eeb 063e 3ccc 223d
00000080: e450 513f 83d2 af3d ccc9 043d 1667 1f3f
00000090: b7f1 e63e 7f1e 8a3e e809 853f c484 b83e
000000a0: af9e 7b3e e919 6c3f f5d2 2e3e ede6 7a3d
000000b0: f70d 833f f203 903e dfa3 bd3d b158 663f
000000c0: 97c2 4c3d f2ff c33c 0f2f 263f 2921 633d
000000d0: 2a25 c73c cb68 de3e 88ac 893e e124 0f3e
000000e0: c8b0 623f fe4d 5b3e de7f 943d 73df 563f
000000f0: f86e ea3e 44b5 4b3e 1827 803f 2834 cf3e
00000100: 598e 1b3e 42ab 723f 2f17 0a3e cfd7 513d
00000110: ecc4 6c3f c52b 0d3e a5a7 853d 5015 543f
00000120: 5d32 be3e 8d6d 193e 6af5 6a3f 6cf8 bb3e
00000130: 86f9 7f3e 8b75 823f 6132 293d ca1d b33c
00000140: e864 e03e 7687 313d 4aaa 7d3c 0b86 fd3e
00000150: d4ce b13e c2a8 393e daf0 763f f9e0 d03e
00000160: c863 803e d9bc 823f 6d38 5f3e e1bc 0d3d
00000170: 4eae 1e3f 37e1 313d 1260 9d3c c2d5 c53e
00000180: 0df4 5c3d 828c b23c 34b9 0d3f 4871 3b3d
00000190: db8d a53c 5dcf f33e 14a7 d93e e618 1c3e
000001a0: 35bb 7f3f 16b4 c03e fc2e 353e 004d 883f
000001b0: d139 c93e 594e 2b3e 9b94 713f ce80 c13e
000001c0: 8ff1 723e a00d 6b3f 0aaf 223d 3a84 883c
000001d0: 809b d93e 7710 323d 2934 853c 5814 003f
000001e0: 7b38 053e 355a 7c3d c6eb 573f 8643 f03d
000001f0: 1d55 8f3d 4271 493f 808b 803e 409f 9e3d
00000200: 0044 883f b889 a33e dba3 053e 1daf 6c3f
00000210: 8184 e03e 11ee 6f3e bbe3 7a3f e56f e53e
00000220: e7ee 913e 6e85 823f f8bd 973d 6282 e03c
00000230: ab35 273f f86d 983d 01d8 eb3c 1176 293f
00000240: 9119 bd3e 1647 483e 949b 883f eeab df3e
00000250: ba5d 853e 04d4 7e3f d66b bc3e ad54 683e
00000260: 2b6b 753f a4e8 ca3e 82a2 853e 2377 753f
00000270: e31b a03e 8e63 ea3d 4f1c 503f be28 833e
00000280: 52cf 053e 37ab 5f3f f5d8 0b3d 086c 683c
00000290: 5e31 ab3e 4f61 0d3d 4ded 383c f8e5 e03e
000002a0: 75df 103d 1274 6f3c 0366 d73e 4991 0d3d
000002b0: 7495 743c 60a8 d53e 4ee0 8f3e aaf1 683e
000002c0: 96d3 6d3f c714 c63e 99c5 6b3e 434a 753f
000002d0: 7395 e03e 1422 593e 094d 6b3f a5b7 793e
000002e0: aa57 6d3e 5a8c 6f3f 726b d43e 3bb6 7a3e
000002f0: 785a 673f d7ef c63e e40b 993e e639 8c3f
00000300: 4e71 c73e f73e 3e3e 8547 7b3f 82a7 b83e
00000310: 4218 3b3e 07d2 733f b9a1 d23e 0d60 7b3e
00000320: cb91 723f da57 e03e 8719 513e 8ac7 723f
00000330: aa58 a13e a1c2 123e d75d 703f 009c d13e
00000340: 8869 713e e513 813f f810 333e 3bf7 843d
00000350: 582c 753f ea40 f73d aaab 593d c38b 523f
00000360: cc10 2e3d 9636 8d3c d33d 0b3f 666f 383d
00000370: 375c 9a3c 4895 063f 1a4b d33e 5f57 703e
00000380: c402 753f f060 d73e 55b8 733e 6999 663f
00000390: fe9c 2a3e ecd3 a43d 3053 593f f0c5 903e
000003a0: 8a4a 073e 0b27 663f c307 853e c47e 233e
000003b0: ad0b 4f3f 62b1 823e 62c7 3b3e 1149 3d3f
000003c0: e796 603d 1d4d a93c 3b7f 073f 006d 313d
000003d0: f95e a73c b846 173f ee28 833d d915 f23c
000003e0: db5d 2c3f adb0 923d 16cc 043d a8e9 053f
000003f0: 9ed4 be3d cc81 4f3d f6b2 2a3f b712 c53d

bayes_fc2.weight_mu f4 [1, 64]
-0.0020598287 0.045343313 -0.035938177 -0.046496782 -0.036768492 0.052156042 0.033580698 -0.008433421
-0.05085917 0.023849698 -0.01730832 -0.040633183 -0.0682522 0.052830297 0.019561877 0.27011254
0.05262227 -0.0139980195 0.012131615 0.058715783 -0.004106865 -0.04626275 0.044876512 -0.040229466
0.068654574 -0.015696269 0.047256906 0.06251988 0.067161985 -0.09911071 0.06787802 0.011660547
-0.072434165 -0.100209475 0.010288717 0.040794082 -0.039537184 -0.031893894 -0.013629252 0.042146597
-0.05853392 -0.04761677 -0.02804053 -0.022963546 0.05822703 0.008546652 -0.016836135 -0.02811528
-0.03490193 0.0048606126 0.04652214 0.011957965 0.03745704 0.06703292 -0.062210556 0.055473432
0.045206707 0.063160956 0.025540678 0.031175857 0.00054145453 0.0526377 -0.065771334 -0.013815777
00000000: 31fe 06bb e9b9 393d e933 13bd 6973 3ebd
00000010: 8f9a 16bd 93a1 553d ea8b 093d 552c 0abc
00000020: b451 50bd 7160 c33c 2eca 8dbc fb6e 26bd
00000030: cfc7 8bbd 9564 583d 3b40 a03c 314c 8a3e
00000040: 738a 573d f357 65bc aec3 463c f67f 703d
00000050: e192 86bb 027e 3dbd 6fd0 373d a7c7 24bd
00000060: c59a 8c3d 7695 80bc 7590 413d 6c0a 803d
00000070: 398c 893d 8efa cabd a203 8b3d e10b 3f3c
00000080: 5d58 94bd a03a cdbd 0292 283c b217 273d
00000090: bef1 21bd 2ca3 02bd 3a4d 5fbc e9a1 2c3d
000000a0: 44c1 6fbd cd09 43bd 41b5 e5bc 0c1e bcbc
000000b0: 777f 6e3d 4207 0c3c efeb 89bc 0452 e6bc
000000c0: 53f5 0ebd c645 9f3b 008e 3e3d 57eb 433c
000000d0: 8e6c 193d 8e48 893d 7fd0 7ebd 1c38 633d
000000e0: ab2a 393d 885a 813d af3a d13c 8364 ff3c
000000f0: 66f0 0d3a a19a 573d 1fb3 86bd 925b 62bc

bayes_fc2.weight_rho f4 [1, 64]
-0.7083087 -4.7046833 -4.386912 -4.566475 -4.597775 -4.1886997 -1.2702167 -3.8524208
-4.5542603 -2.724965 -2.4929488 -2.9481213 -1.7599943 -4.8265996 -1.5411226 -2.5847836
-4.7094927 -1.9937162 -1.5547545 -4.6345706 -3.2661583 -2.2254071 -1.5324696 -4.4866543
-2.619172 -2.2655056 -0.6129532 -4.7118955 -4.541977 -0.76298547 -0.73360676 -1.4747858
-2.1763344 -0.75824195 -2.15742 -4.023214 -4.6500325 -0.29534525 -3.4774816 -0.73919374
-4.362298 -4.365748 -4.1222577 -1.7837865 -1.8991392 -1.2551475 -1.2300391 -4.564975
-0.9466409 -2.5510964 -2.5090888 -2.5221212 -1.3068537 -4.6917133 -1.4164389 -4.711642
-4.2158723 -4.3442454 -3.8035731 -3.2865999 -1.2223583 -4.6971765 -4.7320747 -1.7767024
00000000: b853 35bf c48c 96c0 9561 8cc0 9020 92c0
00000010: f920 93c0 d409 86c0 7696 a2bf 108e 76c0
00000020: 80bc 91c0 d465 2ec0 798c 1fc0 05ae 3cc0
00000030: 7e47 e1bf 8173 9ac0 8143 c5bf 186d 25c0
00000040: 2ab4 96c0 1832 ffbf 3202 c7bf 674e 94c0
00000050: bd08 51c0 126d 0ec0 f727 c4bf ac92 8fc0
00000060: 84a0 27c0 0bfe 10c0 80ea 1cbf d9c7 96c0
00000070: e057 91c0 0453 43bf a7cd 3bbf c8c5 bcbf
00000080: 1049 0bc0 251c 42bf 2b13 0ac0 2bbe 80c0
00000090: 11cd 94c0 7e37 97be 0f8f 5ec0 cd3b 3dbf
000000a0: f297 8bc0 35b4 8bc0 89e9 83c0 1e53 e4bf
000000b0: fe16 f3bf aca8 a0bf ec71 9dbf 4614 92c0
000000c0: 0f57 72bf 2a45 23c0 e994 20c0 6f6a 21c0
000000d0: fb46 a7bf 8422 96c0 df4d b5bf c5c5 96c0
000000e0: 6de8 86c0 0f04 8bc0 be6d 73c0 a757 52c0
000000f0: 3d76 9cbf 454f 96c0 286d 97c0 fc6a e3bf

bayes_fc2.prior_mu_old f4 [1, 64]
-0.008384405 0.043039132 -0.051153664 -0.04792531 -0.034984984 0.041721497 0.0015435255 -0.017836468
-0.045463286 0.033395093 0.007907984 -0.043152772 -0.07316266 0.05884075 0.017173037 0.27314115
0.051169865 -0.032713115 0.022345614 0.058895975 -0.006561226 -0.03863544 0.04065139 -0.034302846
0.02744837 -0.059713744 0.049858946 0.074572 0.06626708 -0.11222111 0.09017282 -0.014384299
-0.08057813 -0.06671489 0.016491467 0.051365834 -0.052516285 -0.018387154 -0.039741427 0.025743296
-0.054372545 -0.052173503 -0.036500104 0.002197837 0.084061325 -0.00209684 -0.022766026 -0.043712534
0.009646336 0.05324107 0.06073942 -0.010589848 0.024342984 0.076678865 -0.084715046 0.06364216
0.035170835 0.06819967 0.015289935 0.027728368 0.023201667 0.050953154 -0.07183282 0.0019959344
00000000: be5e 09bc cd49 303d 8186 51bd 544d 44bd
00000010: 6a4c 0fbd 29e4 2a3d 1f50 ca3a c91d 92bc
00000020: b637 3abd 4bc9 083d 7d90 013c f6c0 30bd
00000030: 4ed6 95bd 0003 713d 78ae 8c3c 28d9 8b3e
00000040: 7e97 513d 30fe 05bd 260e b73c e83c 713d
00000050: 8eff d6bb 3240 1ebd 1282 263d 2481 0cbd
00000060: 67db e03c 6696 74bd e538 4c3d 34b9 983d
00000070: 09b7 873d 2ed4 e5bd 87ac b83d 1fac 6bbc
00000080: 2606 a5bd d1a1 88bd 1d19 873c fb64 523d
00000090: 511b 57bd a8a0 96bc e8c7 22bd 9be3 d23c
000000a0: bfb5 5ebd e2b3 55bd 2281 15bd 9609 103b
000000b0: 5828 ac3d 236b 09bb d17f babc ea0b 33bd
000000c0: aa0b 1e3c 4f13 5a3d e6c9 783d 0b81 2dbc
000000d0: f06a c73c cf09 9d3d 157f adbd d256 823d
000000e0: 4b0f 103d 45ac 8b3d a382 7a3c 9a26 e33c
000000f0: 6c11 be3c 41b4 503d 161d 93bd 39ce 023b

bayes_fc2.prior_sigma_small f4 [1, 64]
0.3792067 0.00941584 0.013032761 0.0107566565 0.010344452 0.015918603 0.24338861 0.021872561
0.010597136 0.062230896 0.078993976 0.049159776 0.14732407 0.008185334 0.19772479 0.0692369
0.009196758 0.12526026 0.1994046 0.010122911 0.03943697 0.103449814 0.19072212 0.011282503
0.07277788 0.094555624 0.43956992 0.009186754 0.011097121 0.36889297 0.38446552 0.21063986
0.10731027 0.37572432 0.10834803 0.018002648 0.010076542 0.518104 0.029244276 0.38709542
0.01274256 0.0137703605 0.016589656 0.15407784 0.13854411 0.25215366 0.2469197 0.011048682
0.32705083 0.07508333 0.07533423 0.07544663 0.23407082 0.009261459 0.21681404 0.009889025
0.016485605 0.013436949 0.023064239 0.036755722 0.25924775 0.00968127 0.00937326 0.15211114
00000000: 6127 c23e e544 1a3c 5d87 553c b03c 303c
00000010: c77b 293c bb67 823c dd3a 793e 162e b33c
00000020: 9c9f 2d3c d3e5 7e3d 98c7 a13d c35b 493d
00000030: 1fdc 163e c71b 063c 5e78 4a3e 13cc 8d3d
00000040: 00ae 163c 3a44 003e b830 4c3e 91da 253c
00000050: a988 213d 7fdd d33d a94c 433e 3fda 383c
00000060: 920c 953d 61a6 c13d 4f0f e13e 0a84 163c
00000070: b3d0 353c 8adf bc3e aad8 c43e fab1 573e
00000080: 7dc5 db3d f05e c03e 92e5 dd3d 4a7a 933c
00000090: 1518 253c 77a2 043f b191 ef3c 5f31 c63e
000000a0: 2cc6 503c 149d 613c 08e7 873c 95c6 1d3e
000000b0: 82de 0d3e 491a 813e 85d8 7c3e 8805 353c
000000c0: 3573 a73e 4ac5 993d d548 9a3d c383 9a3d
000000d0: 43b0 6f3e 60bd 173c 8004 5e3e 9405 223c
000000e0: d20c 873c a626 5c3c 37f1 bc3c 2b8d 163d
000000f0: 1fbc 843e 319e 1e3c 4d92 193c 06c3 1b3e

exp_avg f4 [64, 6]
-8.615139e-06 3.2833042e-05 1.6234266e-05 -8.256063e-07 8.314889e-05 -3.7853586e-06 -0.004876037 -0.01262672
-0.00021201356 -0.0019565073 -0.006473711 -0.0001679691 0.0022322421 0.0061182044 0.00015799416 0.0013108357
0.0044029118 1.5699628e-05 -0.0017855156 -0.0002474274 1.1039618e-05 -0.0019059008 -0.0015243386 -4.680949e-05
0.0026816574 0.008730063 0.00011392384 0.0015700171 0.005082663 0.000130933 -0.001790747 -0.0008345231
-6.3205254e-05 -0.0031593598 -0.0029791621 -8.032793e-05 2.9691606e-05 0.0002028261 -2.3151902e-06 7.5037283e-06
0.00021878854 2.6881905e-06 9.906848e-06 0.0006861088 1.4861537e-05 0.00022563779 3.5764442e-05 1.5845517e-05
0.0003890418 0.0023755697 0.00010356346 -0.001905141 -0.006012062 3.3045162e-05 -1.9319265e-05 2.4984622e-05
-7.1607437e-06 -2.332852e-05 -9.290433e-06 1.4038195e-05 1.4601815e-05 1.7207763e-05 1.3031412e-05 1.4407991e-05
-6.5451936e-06 -1.3001763e-05 7.118641e-05 -0.00048318802 -1.683399e-05 -0.00067858445 4.704586e-05 -1.537911e-05
1.2662391e-06 2.4939805e-05 -7.1849795e-06 -2.3681663e-05 -1.8138036e-05 6.896749e-06 -0.0054999106 -0.01445503
-0.00017080929 -0.00279191 -0.006618675 -0.00011067827 -1.6916203e-05 -7.760697e-05 3.723098e-06 -8.300494e-06
1.5035006e-06 6.9006187e-06 9.592046e-05 0.00051787443 6.754671e-05 0.002058359 0.005883741 4.5498273e-05
-5.7770256e-05 0.00032030218 -3.924577e-05 0.0011268981 0.0023134563 1.7971078e-06 -2.0367836e-05 5.8812064e-05
-6.5388294e-06 -2.8752223e-05 -5.839495e-06 -6.5724925e-07 1.5636117e-05 1.659729e-05 -5.53241e-06 -4.903782e-05
-2.1021495e-05 2.983632e-06 -0.003794587 -0.01490898 -1.6478e-05 0.0005642953 0.00033001622 -0.00012088922
-5.3705844e-05 -0.00023640017 -1.6610245e-05 -9.253135e-05 -0.0001900298 -7.751615e-06 -6.1616374e-05 4.357013e-06
-1.1508916e-05 -6.2183215e-05 4.451185e-06 1.654264e-05 -7.698706e-06 1.9190162e-05 5.832755e-06 1.554541e-06
-3.4824887e-05 -7.5606813e-06 -0.00082979345 -0.0035521248 -0.0001025969 -0.003914987 -0.00850765 -8.82873e-05
-1.2496658e-05 -4.793472e-05 4.795787e-06 -2.4107392e-05 -1.5491922e-05 4.9791242e-06 -9.305824e-06 3.997889e-06
-4.4834658e-07 -3.2344058e-05 -2.6051666e-05 5.185709e-06 -4.4000193e-05 -0.00011011084 -8.360758e-06 -3.2465934e-05
1.9151501e-05 -3.0293697e-05 -0.006010442 -0.014426144 -0.00015386478 -0.00024300472 -0.0024593617 -0.00013141992
-0.0036746364 -0.010872357 -0.00014307705 0.0033831783 0.005415821 -0.00013568172 -5.1605657e-05 -0.000102192396
-1.3597739e-05 -1.1032308e-05 -2.6609074e-05 1.6550183e-06 1.9355084e-05 4.440396e-05 -3.1201062e-06 -3.2480144e-05
-1.5759713e-05 -7.1786135e-06 -2.399026e-05 -3.3262393e-05 -2.4700348e-05 -3.657816e-05 -2.9985997e-05 -5.295986e-06
-3.5526056e-05 5.847977e-05 3.1122354e-07 2.2117942e-05 -3.3163917e-05 8.482022e-06 0.0024914572 0.0059368177
9.471724e-05 0.0026584084 -5.0593506e-05 0.00010380865 4.414906e-05 -3.273069e-05 -1.5829334e-06 9.526171e-06
2.9974322e-05 -7.5096405e-06 7.586231e-05 0.00018189472 -8.716447e-06 -0.00011477088 -0.0010937982 3.2669548e-05
-2.8267675e-06 0.0035899805 8.258082e-05 -0.0016233635 0.00086188054 4.5056597e-05 1.1215789e-05 9.342296e-06
1.5263893e-05 -9.0989784e-07 -1.3294265e-05 2.2429429e-05 -1.1555457e-05 7.028006e-05 3.1235227e-06 0.0006014204
3.8991097e-05 1.37745e-05 -5.0602215e-05 -0.0001265031 1.8829233e-07 -2.0961565e-06 -9.833305e-06 1.7817283e-05
0.0029498425 0.01253023 0.00012691812 0.0019058662 0.003971487 0.00021785332 0.002374321 0.007814262
0.00011806456 0.0010002104 0.0023144889 0.00018396601 0.003062349 0.0083054155 0.00012865983 0.0024040998
00000000: be89 10b7 36b6 0938 d22e 8837 3c9f 5db5
00000010: 3860 ae38 f707 7eb6 2ac7 9fbb 4de0 4ebc
00000020: f54f 5eb9 bf38 00bb 6d21 d4bb dd20 30b9
00000030: cf4a 123b 387b c83b 3cab 2539 59d0 ab3a
00000040: 4d46 903b b2b2 8337 f607 eaba 25b9 81b9
00000050: cc36 3937 6bcf f9ba 51cc c7ba 4f55 44b8
00000060: bfbe 2f3b 8a08 0f3c 65ea ee38 08c9 cd3a
00000070: 788c a63b 0f4b 0939 80b7 eaba e6c3 5aba
00000080: 108d 84b8 430d 4fbb 0c3e 43bb bb75 a8b8
00000090: 3d12 f937 b7ad 5439 aa5e 1bb6 89c8 fb36
000000a0: 9a6a 6539 c366 3436 9735 2637 fbdb 333a
000000b0: d155 7937 2f99 6c39 c701 1638 fdeb 8437
000000c0: 4ef8 cb39 72af 1b3b 3630 d938 edb5 f9ba
000000d0: d500 c5bb f999 0a38 ce0f a2b7 1196 d137
000000e0: 5246 f0b6 9db1 c3b7 1bde 1bb7 9785 6b37
000000f0: 51fa 7437 6459 9037 7da1 5a37 dab9 7137
00000100: c99e dbb6 2622 5ab7 ea49 9538 6654 fdb9
00000110: b836 8db7 08e3 31ba 1c53 4538 6302 81b7
00000120: a5f3 a935 d335 d137 8116 f1b6 fca7 c6b7
00000130: 2327 98b7 9f6a e736 9838 b4bb cad4 6cbc
00000140: 451b 33b9 7af8 36bb 78e1 d8bb f21b e8b8
00000150: 45e7 8db7 edc0 a2b8 56da 7936 5a42 0bb7
00000160: e3cb c935 dd8b e736 e828 c938 f7c1 073a
00000170: dda7 8d38 89e5 063b 66cc c03b 66d5 3e38
00000180: 574e 72b8 3bee a739 d39b 24b8 6db4 933a
00000190: 5b9d 173b 2734 f135 98db aab7 f9ac 7638
000001a0: 1e68 dbb6 ee30 f1b7 e1f0 c3b6 d36d 30b5
000001b0: 4e2a 8337 693a 8b37 0aa3 b9b6 f5ad 4db8
000001c0: 5157 b0b7 683a 4836 9bae 78bb cb44 74bc
000001d0: 3c3a 8ab7 37ed 133a 0706 ad39 e885 fdb8
000001e0: 3642 61b8 30e2 77b9 3b56 8bb7 640d c2b8
000001f0: bc42 47b9 ef0c 02b7 0a38 81b8 7532 9236
00000200: 6b16 41b7 5c68 82b8 635b 9536 0dc5 8a37
00000210: b129 01b7 8ffa a037 fcb6 c336 9fa5 d035
00000220: f010 12b8 c2b1 fdb6 7f86 59ba c4ca 68bb
00000230: 4b29 d7b8 4b49 80bb ac63 0bbc e226 b9b8
00000240: bda8 51b7 840d 49b8 7feb a036 3b3a cab7
00000250: a6f4 81b7 5a12 a736 3620 1cb7 9b25 8636
00000260: 49b4 f0b4 2ba9 07b8 8789 dab7 e700 ae36
00000270: d98c 38b8 4feb e6b8 2f45 0cb7 082c 08b8
00000280: 89a7 a037 381f feb7 3ef3 c4bb a25b 6cbc
00000290: c356 21b9 15cf 7eb9 3e2d 21bb c4cd 09b9
000002a0: 2bd2 70bb f821 32bc f406 16b9 50b8 5d3b
000002b0: 3377 b13b c945 0eb9 2773 58b8 2050 d6b8
000002c0: d821 64b7 6717 39b7 8d36 dfb7 ff21 de35
000002d0: ba5c a237 643e 3a38 0463 51b6 4a3b 08b8
000002e0: ba33 84b7 d2df f0b6 b13e c9b7 3983 0bb8
000002f0: 9833 cfb7 806b 19b8 708a fbb7 2cb4 b1b6
00000300: d001 15b8 2d48 7538 3d16 a734 eb89 b937
00000310: 7c19 0bb8 024e 0e37 b747 233b a389 c23b
00000320: eea2 c638 b138 2e3b 5d34 54b8 d8b3 d938
00000330: b12c 3938 5048 09b8 2d75 d4b5 98d2 1f37
00000340: 5e71 fb37 52fb fbb6 4418 9f38 feba 3e39
00000350: db3c 12b7 26b1 f0b8 c75d 8fba a906 0938
00000360: 7fb3 3db6 e145 6b3b 3d2f ad38 0ac7 d4ba
00000370: d3ef 613a 27fb 3c38 722b 3c37 dbbc 1c37
00000380: f60a 8037 b43f 74b5 6f0a 5fb7 d526 bc37
00000390: 4fde 41b7 5263 9338 b69d 5136 a4a8 1d3a
000003a0: 5f8a 2338 0719 6737 b73d 54b8 eba5 04b9
000003b0: 672d 4a34 b2ab 0cb6 b9f9 24b7 5376 9537
000003c0: 2552 413b 984b 4d3c 5315 0539 42ce f93a
000003d0: 3f23 823b 8e6f 6439 7f9a 1b3b 6407 003c
000003e0: 6e99 f738 7e19 833a aeae 173b 00e7 4039
000003f0: b1b1 483b 7013 083c dce8 0639 1a8e 1d3b
