lightning_logs/version_31/checkpoints/epoch=4-step=1025.ckpt (torch, 30427 bytes, 24 tensors)

bayes_fc1.weight_mu f4 [64, 6]
00000000: f814 c0be fcf4 05bf 2c1d 63be a635 fabe
00000010: e0b7 ebbe 1753 ddbd 677d 083f cccc 0bbe
00000020: a9a3 523f 1234 04bf a0c4 fe3d 704d e4be
00000030: fccb e3be b796 473e 0144 1bbf e014 7c3e
00000040: e9fa 29be bdbd af3e bfc7 c3be d95e 2b3e
00000050: d159 8bbf d369 0b3f b193 07be 5468 babb
00000060: f189 dfbe 98e7 723e 4dbb 49bf ebe3 c83e
00000070: 7040 21be 6641 f03e cd98 cf3d 3df8 11be
00000080: 7a9a 653f b1b0 bebe be68 003e c043 0f3e
00000090: 38b3 febe 9468 eebe 37d6 8bbe d8ba c8be
000000a0: f1bc 00bf c35b 65be ead3 06bf 9474 7f3e
000000b0: fcfd 52be d7d2 f5bc f666 99be af19 e43e
000000c0: f144 c3be 9754 443e a4a6 59bf 4b88 033f
000000d0: 58ec 0abe 4765 3b3e 4d62 79be 64e6 a1be
000000e0: 252d 1d3e 017c babe 9c45 453c 039d 063e
000000f0: 21c8 b9be a6d2 dbbe a5de 28be f5ff dabe
00000100: d0e9 3abe 1b81 9fbd 7439 a6be ccd3 8ebd
00000110: 67ca 1dbf 8564 673e 3bd6 3dbe 2ad6 b4be
00000120: 1772 02bf 438c 36be 3749 5bbe 4e39 cabe
00000130: ddc9 00bf 0a55 41be b799 fe3e 24ae 1cbe
00000140: 7c4d 573f 78a2 cbbe 1f77 403e 0974 f2bd
00000150: bbe8 98be 1b5e a5be 842f 1dbe 517a e3be
00000160: de4f 05bf 1d9d 33be 7da7 5cbf 430b 46be
00000170: ba48 b9bd 04c9 ccbd 412e 553d 8e64 4c3f
00000180: 723a d43e 1eb7 23be b0ac 8d3f 79bf cabe
00000190: 4a24 483e cdf6 723d f9ff d1be 4363 a2be
000001a0: 5fb1 dbbc 52e6 47be 1a29 c3be 2965 c7bd
000001b0: ff66 acbe 0842 b3be 9891 76be 24a5 ccbe
000001c0: be6e 07bf 29cd 7cbe 41b7 bd3e 5b1f 01be
000001d0: f0f3 8f3f 940f cbbe 535b 4c3e 4633 0cbe
000001e0: f83a b2be 0a6b a13c f179 0fbf 3776 373e
000001f0: eae5 6cbe 656f c93d 3c95 a6be c517 debc
00000200: 434a 44bd d4bd a0be b31e 84be 76fe 9b3d
00000210: b22a 0abf 5512 f5be 52a1 7fbe 868a 06bf
00000220: 247c fbbe ded0 53be 475c ebbe 9c7d 3d3e
00000230: 463c 57bf 2232 dc3e 5d53 02be edb2 343e
00000240: 49ba 9bbe 409f a1be d003 66be 0648 e4be
00000250: 7719 02bf 2352 5cbe b0c1 90be b2fc c9be
00000260: 9ad2 2fbe 3427 8bbe a2fb 00bf 7447 59be
00000270: 83dc e8be 95f4 85be 3d3e 3dbe bb77 c6be
00000280: c4f1 59be c655 1cbe ce8b 9a3e 08b1 f6bd
00000290: 6b54 883f 9db3 bbbe 345a 5c3e fe6a 3dbd
000002a0: 204a ba3e 2c62 ebbd 27ec 793f a4ea c1be
000002b0: 5dac 1f3e 396c 953c 470c 98be 1ddb dbbe
000002c0: d35d b4be b045 97be e753 e8be daeb 66be
000002d0: f463 0dbf 2912 b6be 42e9 b2be 2f87 89be
000002e0: 1349 d8be 9aa9 84be 52b4 e3be 9c3e 03bf
000002f0: 46fd 69be 06b8 d2be 135b 02bf c8ff 7bbe
00000300: eea5 a6be 4eee efbe 26a8 c3bd f373 39be
00000310: 979c 96be 84f8 2a3d d745 f2be 69b0 dbbe
00000320: 8572 3fbe 7980 d6be 26e3 d2be 216c 16be
00000330: 0e6d 65be b3c9 81be 8160 39bc 0d1c abbe
00000340: 5032 a6be d53a 25be bb21 603e 8e9a 65be
00000350: f22a 3b3f c4c0 08bf f456 093e b242 563d
00000360: cf1d ebbe 4910 823e 03ab 5cbf e1b5 b23e
00000370: 1224 07be 9fc2 a73e 68fd debe 727a 08bf
00000380: f552 4fbe 4fad d0be 39b6 b1be 7324 6fbe
00000390: 4f34 e2be 96e4 143e 64fd 52be dea3 3dbe
000003a0: 711e c5be 0e3c 583e 2465 91be ce88 97be
000003b0: d946 27be 4c88 5ebe 95db 9dbe 132c a0bd
000003c0: 090e cebe 1347 2b3e 281e 7dbf c6b2 f23e
000003d0: bf98 11be 0390 593e 7517 d0be 2067 353e
000003e0: e1d5 12bf e482 a13e c04e 02be b411 643e
000003f0: ae54 89be 22f5 d83d 93f5 10bf 2130 043f
-0.37515998 -0.5232694 -0.22179097 -0.48869056 -0.46038723 -0.10806864 0.5331635 -0.13652343
0.82280976 -0.51641953 0.12439847 -0.4459033 -0.44491565 0.19491087 -0.6065064 0.24617338
-0.16599621 0.34324446 -0.38238332 0.167354 -1.0886785 0.5445835 -0.13239934 -0.0056887064
-0.43659928 0.23721159 -0.78801423 0.39236388 -0.15747237 0.46924895 0.10136566 -0.14254852
0.8968884 -0.3724418 0.12539956 0.13990688 -0.49746108 -0.46564162 -0.2731187 -0.3920505
-0.502883 -0.22398286 -0.52667105 0.24946815 -0.206047 -0.030007763 -0.29961365 0.44550845
-0.38138536 0.19172893 -0.850199 0.5137984 -0.1356672 0.18300353 -0.24353905 -0.31621087
0.15349253 -0.36422732 0.012040522 0.13145833 -0.362855 -0.4293415 -0.16491182 -0.42773405
-0.18253255 -0.07788297 -0.32465708 -0.06973991 -0.61636966 0.22596939 -0.18538754 -0.35319644
-0.5095534 -0.17826943 -0.21414648 -0.39496845 -0.5030802 -0.18880096 0.4972665 -0.15300804
0.84102607 -0.3977239 0.18795441 -0.11838538 -0.2986506 -0.3229836 -0.15350157 -0.44429258
-0.5207499 -0.17540403 -0.86193067 -0.19340234 -0.090470746 -0.09999278 0.052046064 0.79840934
0.4145084 -0.15987822 1.1068325 -0.39599207 0.19545093 0.0593174 -0.41015604 -0.31716356
-0.026817976 -0.19521454 -0.38117296 -0.09736092 -0.3367233 -0.35011315 -0.24078977 -0.39969742
-0.52903354 -0.24687637 0.37053874 -0.12609617 1.1246319 -0.39660323 0.19956712 -0.13691434
-0.34810615 0.01970436 -0.5604544 0.17916189 -0.2313458 0.098357 -0.32535732 -0.027110944
-0.047922384 -0.31394827 -0.25804672 0.07616894 -0.539714 -0.4786555 -0.24963883 -0.5255512
-0.4911815 -0.20685145 -0.4596884 0.18504947 -0.84076345 0.43006998 -0.12727113 0.1764638
-0.30415562 -0.3156681 -0.22462392 -0.445862 -0.50820106 -0.21515708 -0.28272772 -0.39450604
-0.17170182 -0.27178347 -0.5038396 -0.21218663 -0.45480737 -0.26163164 -0.18480773 -0.38763222
-0.21283633 -0.15267095 0.30184788 -0.12045485 1.0650762 -0.36660472 0.21518785 -0.046244614
0.36384678 -0.11493334 0.97625965 -0.3787433 0.15593095 0.018240081 -0.29696867 -0.42940608
-0.35227832 -0.29545355 -0.45376512 -0.22550908 -0.5523064 -0.3556073 -0.34943587 -0.2686095
-0.4224325 -0.25910646 -0.4447351 -0.5126741 -0.22850522 -0.41156024 -0.5092022 -0.24609292
-0.3254847 -0.468615 -0.09553556 -0.18110637 -0.29416344 0.04174091 -0.4731891 -0.42908028
-0.1869603 -0.41894892 -0.41188926 -0.14689685 -0.22404882 -0.25349197 -0.011314512 -0.3341984
-0.3246026 -0.16135724 0.21887867 -0.22422239 0.73112404 -0.53419137 0.13412076 0.0523097
-0.4592118 0.2540305 -0.86198443 0.34904388 -0.13197353 0.32765672 -0.4355271 -0.53311837
-0.2024649 -0.40757224 -0.34709337 -0.23353748 -0.44180533 0.14540324 -0.20604473 -0.18519542
-0.38499787 0.21116659 -0.28397477 -0.2959656 -0.1633562 -0.2173168 -0.3083159 -0.078209065
-0.40245083 0.16726331 -0.9887414 0.47402018 -0.14218424 0.21246342 -0.40642896 0.1771512
-0.57357603 0.31545174 -0.12725353 0.22272378 -0.26822418 0.105936304 -0.56624717 0.5163594

bayes_fc1.weight_rho f4 [64, 6]
00000000: 3b35 6cbf c4c5 98bf c3f2 f93e ea18 40bf
00000010: 74e3 d7bf 8dd7 163f 995b 2ec0 639e 5fc0
00000020: 6805 f3be 48bf 17c0 8d0c 4dc0 00cb dabe
00000030: e0b3 0fc0 418c 56c0 f19d c1bb 0fe3 f4bf
00000040: afbd 3ec0 5b1a 77bd 7501 32c0 2e2d 6dc0
00000050: 2182 f7be 3188 47c0 b0c2 71c0 af6f 2fbf
00000060: 43bd 1fc0 6e50 6ac0 0170 50be 7c3a 11c0
00000070: 8b1e 53c0 12ee 11bf a1cb e6bf 3b39 36c0
00000080: 9c81 b23d f06b 14c0 574d 4cc0 964d 23be
00000090: 01a8 60bf 9bea b9bf 5280 e83e f280 6fbf
000000a0: 13a1 c1bf f2bc ce3e a6d6 efbf 6a2f 33c0
000000b0: f66f be3e 8f38 a2bf d494 19c0 077e 613e
000000c0: d66f 29c0 146d 5ec0 27cd 9ebe d922 29c0
000000d0: 53c0 5ac0 b814 17bf d496 b5bf ce94 0cc0
000000e0: 3d4a 8d3e 5d2f eebf 4a41 26c0 e1a9 2c3e
000000f0: b559 1dbf 7bbd d6bf 5730 213f f594 46bf
00000100: 75e8 f2bf a5af ff3e 49c4 09c0 3c90 34c0
00000110: b4de a93d 3453 09c0 1b37 36c0 a732 cfbc
00000120: bb1b 96bf 79ca 06c0 ee4d d53e 0b33 76bf
00000130: 1a60 c3bf 94b8 d03e eaa9 3cc0 6fd8 64c0
00000140: b354 12bf cbad 3bc0 c337 77c0 9bd5 09bf
00000150: a471 94bf 7ef3 ffbf ef7f d63e 8687 75bf
00000160: 2795 c4bf 465c e03e a3b8 dbbf e350 51c0
00000170: 725e e2be 298c 4ec0 ac16 7ec0 ba1e 8abf
00000180: 6385 20c0 f6b1 5dc0 6af0 81be 9c5a 34c0
00000190: 17bf 62c0 895a a9be c5e6 36bf e1ea fabf
000001a0: 020c 103f 0ff3 63bf 1fc4 dfbf 9260 eb3e
000001b0: 37b2 92bf fce2 f4bf 95c6 dd3e 9316 7dbf
000001c0: 7e41 c3bf e5f7 ac3e 28c1 35c0 9c34 71c0
000001d0: 80c2 28bf c202 31c0 163c 71c0 2a3c 05bf
000001e0: 7be7 04c0 1203 34c0 3955 5f3d 5a38 06c0
000001f0: 2f27 2fc0 ee3c c73d 1118 bebf 19ea 27c0
00000200: 8269 ee3e 8895 97bf 1434 0cc0 f093 da3e
00000210: e836 6abf ffca cfbf 21b2 e63e d1e9 34bf
00000220: 5605 a0bf 10a4 033f 8c70 13c0 f51d 50c0
00000230: 65cd 59bd 9944 0bc0 04f3 4bc0 b8fc 99bd
00000240: 86d6 84bf 0167 e0bf 9af2 193f 5643 25bf
00000250: 5258 adbf ff85 073f 34e2 70bf 76f5 cebf
00000260: 8b60 e13e ae09 66bf 32b5 aebf 30dc b63e
00000270: 4384 8fbf 147d 13c0 7850 563e c53a aabf
00000280: 4498 0dc0 4ae9 9d3e d895 44c0 d0af 7ac0
00000290: 6d6d 64bf 7eff 47c0 7af1 83c0 6b74 3ebf
000002a0: f0b4 47c0 20bc 71c0 4f99 2ebf aeec 44c0
000002b0: bebb 78c0 4420 2dbf 083e adbf b21b d3bf
000002c0: ce82 a03e fb5c 63bf b1c5 c7bf 329f ba3e
000002d0: 672a 87bf 179d d4bf 54ed 943e 53e8 cbbf
000002e0: 3bdb c9bf 422b 933e 44d1 60bf 0c76 c5bf
000002f0: d56d d63e 8440 82bf 305a 94bf e913 0e3f
00000300: 752d 71bf 49dc e9bf 2fd9 003f 4cee 6fbf
00000310: 3887 e5bf 506b dd3e 8f5d 42bf d5ed dbbf
00000320: 13ec c43e 3b99 58bf 03d3 e5bf adef c63e
00000330: ee4f 89bf 80b5 fabf e799 023f f0f7 47bf
00000340: ad9b b2bf 690e 053f 62e6 d4bf f49a 28c0
00000350: 6adb c13e f432 05c0 6f1e 34c0 948c 293e
00000360: 2d79 35c0 29d8 6dc0 d167 a4be 4e88 2ac0
00000370: da21 67c0 c14c e2be 4a74 6ebf 969e d0bf
00000380: 51d3 b63e 6f22 68bf 02a8 bcbf df3b 043f
00000390: e660 e9bf cde7 26c0 af12 7d3e a5d6 a0bf
000003a0: 5672 0ac0 143d b23e 4175 d8bf 3590 0ac0
000003b0: 0fb1 8a3c 3bb6 c6bf 1a3d d9bf 2ddb 0e3c
000003c0: bc27 24c0 9ff7 68c0 616d 93be fa06 29c0
000003d0: d514 5dc0 2189 e8be eba2 1bc0 c6c5 4ac0
000003e0: dfe6 bc3c a0f1 12c0 8909 40c0 8a14 2fbe
000003f0: ee18 00c0 0c66 2dc0 05c6 0cbe e1fd f7bf
-0.92268723 -1.1935353 0.48818025 -0.75038016 -1.6866288 0.58922654 -2.7243407 -3.4940422
-0.47465062 -2.37105 -3.203891 -0.42733002 -2.2453537 -3.3523104 -0.0059087207 -1.9131793
-2.9803274 -0.06032787 -2.781339 -3.7058825 -0.48341468 -3.1176875 -3.7775078 -0.6852979
-2.4959266 -3.661159 -0.20355226 -2.2691946 -3.2987392 -0.5700389 -1.8030893 -2.847243
0.08716127 -2.319088 -3.1922204 -0.15947565 -0.87756354 -1.4524721 0.454104 -0.9355613
-1.5127281 0.4037853 -1.873738 -2.799769 0.37194794 -1.267351 -2.3997087 0.22020732
-2.647451 -3.4754076 -0.31015894 -2.642752 -3.4179885 -0.5901599 -1.4186654 -2.1965823
0.27595702 -1.8608204 -2.597735 0.16861679 -0.6146501 -1.6776575 0.62964386 -0.7757104
-1.897719 0.49938694 -2.1526053 -2.8213034 0.082944304 -2.1457033 -2.8471134 -0.025292708
-1.1727213 -2.106108 0.41661018 -0.96171635 -1.5263703 0.40765822 -2.9478707 -3.57571
-0.5716049 -2.9324825 -3.8627784 -0.5384156 -1.159718 -1.9996183 0.4189448 -0.9590992
-1.5358018 0.438204 -1.7165722 -3.270562 -0.4421268 -3.2273047 -3.9701338 -1.0790627
-2.5081413 -3.4639869 -0.25378734 -2.8180304 -3.5429132 -0.33076885 -0.71445876 -1.9602929
0.5626832 -0.89042753 -1.7481726 0.45972115 -1.1460637 -1.913177 0.4331557 -0.9886257
-1.5254362 0.3378288 -2.8399143 -3.768836 -0.65921783 -2.7657933 -3.7692924 -0.5204493
-2.0766284 -2.8126874 0.054524634 -2.0971894 -2.7367666 0.09728418 -1.4851094 -2.6236632
0.4656487 -1.1842508 -2.1906786 0.42690992 -0.9149003 -1.6233824 0.45057777 -0.70669276
-1.2501628 0.51422215 -2.3037443 -3.2518284 -0.053174395 -2.1760619 -3.1867075 -0.075189054
-1.0377967 -1.7531434 0.60135806 -0.6455587 -1.3542578 0.52938837 -0.9409516 -1.6168659
0.4401897 -0.8985852 -1.3649046 0.35714865 -1.1212238 -2.3045092 0.20929134 -1.3299185
-2.2124186 0.30842048 -3.0716457 -3.9169807 -0.8922947 -3.124969 -4.123227 -0.7439639
-3.1204185 -3.7771072 -0.6820268 -3.0769458 -3.8864589 -0.6762736 -1.3534555 -1.6492827
0.31349796 -0.8881375 -1.5607206 0.3644958 -1.0559815 -1.661044 0.29087317 -1.5930275
-1.5770029 0.2874394 -0.87819314 -1.542665 0.4188067 -1.0175939 -1.1590023 0.5549913
-0.94209987 -1.8270351 0.50331396 -0.9372299 -1.793189 0.43245935 -0.7592401 -1.7181956
0.3846136 -0.8460881 -1.7955021 0.38854733 -1.0727518 -1.958664 0.51016086 -0.781127
-1.3953758 0.51975113 -1.6632807 -2.6344576 0.37862712 -2.081235 -2.8143575 0.16557533
-2.835521 -3.7163184 -0.32110456 -2.6645694 -3.6114411 -0.44199184 -0.93146193 -1.6298397
0.35708097 -0.9067754 -1.4738772 0.51653856 -1.8232696 -2.607898 0.24714158 -1.2565504
-2.1632285 0.34812224 -1.6910783 -2.1650517 0.016930131 -1.5524362 -1.6971772 0.008719248
-2.5649252 -3.6401136 -0.28794387 -2.6410508 -3.4543965 -0.4541712 -2.4318187 -3.1683211
0.023059307 -2.2959976 -3.000582 -0.17097679 -2.0015216 -2.7093534 -0.13747413 -1.9374353

bayes_fc1.bias_mu f4 [64]
00000000: 0ee2 84bc bd40 6e3d 7089 693c 1a3d 7ebd
00000010: dbb4 4cbd 7dc6 ca3d 302c 55bc 7a38 ce3c
00000020: d47a 76bd f9dc 38bd 14b9 423a b702 d8bc
00000030: 4d64 9dbc 3298 4a3d 35b6 1dbd b5e6 2f3f
00000040: d85b 7f3d 4b01 59bd 17c1 3cbd c532 b13d
00000050: cce4 843c 62c1 86bc 702e 81bd e91a afbd
00000060: cf0f 27bd 68ab 5fbc 6d50 18bd e4bc 1b3d
00000070: 8d67 413d f1fc a1bc 0f9c 9fbc 73b1 09bd
00000080: 309c 85bb 2224 92bc daf1 b5bb e0ab 923d
00000090: 489b 94bd c9bf ad3c 6b00 c43c 2212 9cbd
000000a0: a6bb 83bd 0635 2e3c f6eb b7bc 67f1 d4bc
000000b0: 0ea3 213b bee5 7bbd 11d0 09bc 990b 2dbd
000000c0: 9cea 44bd 9fde 853c 6cba 29bc aeb1 86bc
000000d0: fddb 47bc 30ba 613d c1f6 73bd 7717 a03d
000000e0: 7c0c c63c 7476 123e bf56 d93d 540e a13d
000000f0: f9aa cebc d567 dd3d 0670 e1bd bab2 47bd
-0.016221073 0.058167208 0.014253959 -0.06206999 -0.049977165 0.0990114 -0.013011023 0.025173414
-0.06017573 -0.04513261 0.00074280915 -0.026368482 -0.019212866 0.04946155 -0.038503844 0.68711406
0.06234345 -0.05297975 -0.046082582 0.08652262 0.01622238 -0.016449634 -0.063076854 -0.085500546
-0.04078656 -0.013651706 -0.037186075 0.038021937 0.047217894 -0.019773932 -0.019483594 -0.033616494
-0.004077457 -0.017839495 -0.0055525126 0.07161689 -0.0725618 0.021209614 0.02392598 -0.07620646
-0.064322755 0.010632759 -0.022451382 -0.025994016 0.0024663839 -0.061498396 -0.008411423 -0.04224739
-0.048075303 0.016341506 -0.010359388 -0.016442146 -0.012198445 0.055109203 -0.059561495 0.078169756
0.024175875 0.14302999 0.10612249 0.07864061 -0.02522801 0.1081082 -0.11007695 -0.04875443

bayes_fc1.bias_rho f4 [64]
00000000: 31ed 96be ac38 abbf 00ca 8dbf 9287 d3bf
00000010: 2458 a9bf 697f 75bf 3244 bfbe 9b2d 1ebf
00000020: 1896 a9bf c148 27bf 350c 6cbe 76e0 80bf
00000030: dc0b cbbe 0acb bdbf 0160 ccbe feb5 91bf
00000040: fb80 afbf 920c bfbe 2bed e4be a0d8 cebf
00000050: a49b 78bf 477d 31bf 51ae 91be b661 86bf
00000060: b9d8 a0be d1f9 cabe a706 26bf 8aed e2bf
00000070: 77c6 d3bf 550d fabe 52e7 12bf cde5 8ebe
00000080: 4ed5 ccbe 2a85 c0be ded9 bebe 8f81 48bf
00000090: 5184 cfbf 20e4 ccbe fe6f 24bf ab96 4dbf
000000a0: 5f49 afbf a81f a0bf 7eff 83bf eddf d5be
000000b0: 070f 9fbe c62c bebe 45c4 1abf 5028 a3bf
000000c0: fcdb e8be cec4 e9be 3eaf e5be 9dce 03bf
000000d0: a9fa b5be b681 e1bf 0110 13bf 064e bebf
000000e0: 413b 89bf 24f8 93bf 66eb 83bf 8a2d 17bf
000000f0: fd2d dfbe c3f8 b3bf b97a c4bf acae e2be
-0.29477838 -1.337667 -1.107727 -1.6525748 -1.3230023 -0.9589754 -0.37356716 -0.6178834
-1.324893 -0.6534539 -0.23051532 -1.00685 -0.39657485 -1.4827588 -0.39916995 -1.1383665
-1.3711237 -0.37314278 -0.44712195 -1.6159859 -0.9711249 -0.69331783 -0.28453305 -1.0498569
-0.31415346 -0.3964372 -0.648539 -1.7728741 -1.6544942 -0.48838297 -0.57384217 -0.279097
-0.4000649 -0.37601596 -0.37275594 -0.7832269 -1.6212255 -0.40017796 -0.64233387 -0.80308026
-1.3694266 -1.2509661 -1.0312345 -0.41772404 -0.31066152 -0.37143534 -0.60455734 -1.2746677
-0.45480335 -0.45657963 -0.44860262 -0.5148714 -0.355428 -1.761771 -0.57446295 -1.4867561
-1.0721208 -1.1560102 -1.0306213 -0.5905386 -0.43589774 -1.4060291 -1.5349952 -0.4427389

bayes_fc1.prior_mu_old_bias f4 [64]
00000000: 20bb 71bd 8991 9a3d 8f70 18bc 897e a1bd
00000010: 3aae 96bd 3e9c 043e ce93 ffbc f746 c0bc
00000020: e1af 97bd 7d89 aa3b 070a d1bc 6a4d 1dbd
00000030: 6776 bebc 2ef8 be3d fefb f6bc d060 433f
00000040: 5c8a 953d a045 09bd 8753 e0bc 93bd c03d
00000050: 8288 11bd 8234 20bd ba28 73bd 027f dcbd
00000060: cdbb 12bd 6da5 84bc 0fa9 9f3c 46a2 673d
00000070: f85a a23d 0f8a 6ebd fc77 10bd 3ee1 12bc
00000080: 7f0b 50bc aff3 b43b 542f 98bc 9fac ee3d
00000090: ff7e 94bd 6a5d 4b3b 9930 eebc 5cde bcbc
000000a0: e0cd d2bd b0cb 65b8 576a 6bbd bcfa 76bb
000000b0: 53b5 a2bc 5e1b 55bd 9510 3dba 8329 a5bd
000000c0: 66d7 47bd 216e d5bc 2158 8cba 0db9 25bd
000000d0: 2ad4 60bd 453d a33d 5c89 65bd 3211 ce3d
000000e0: bed9 e53c 6d31 383e 5464 c23d a9c7 823d
000000f0: 3c29 303b 55e0 fd3d 1ea9 f7bd 0782 fdbc
-0.059016347 0.0754729 -0.00930418 -0.07885463 -0.0735745 0.12950227 -0.031198408 -0.023471339
-0.07406593 0.005204378 -0.025517477 -0.038403906 -0.023249818 0.0932468 -0.030149456 0.763196
0.073017806 -0.033513665 -0.027383579 0.094111584 -0.035530575 -0.039112575 -0.05936501 -0.10766412
-0.035823632 -0.016192162 0.019489793 0.05655124 0.07927507 -0.05823713 -0.035270676 -0.008964835
-0.012698053 0.0055222134 -0.018577255 0.116540186 -0.07250785 0.003103102 -0.029075908 -0.023055248
-0.10293174 -5.4787553e-05 -0.05747446 -0.003768607 -0.019861853 -0.052028053 -0.0007212249 -0.08064558
-0.048789404 -0.02605349 -0.0010707417 -0.04045968 -0.054889835 0.079706706 -0.0560392 0.100618735
0.02805793 0.17987604 0.09491792 0.063857384 0.0026880046 0.123963036 -0.120928034 -0.030945791

bayes_fc1.prior_sigma_small_bias f4 [64]
00000000: b7ff 0b3f 090b 6f3e 407e 923e 8ec4 393e
00000010: 81a1 703e 45fa a03e fd29 003f 85bf cf3e
00000020: 5454 6b3e cfcb d83e e504 153f 4bda 9e3e
00000030: e457 003f cc4a 523e e311 043f cfc7 6e3e
00000040: 78d4 673e fc9d 093f 3d16 f23e 4194 483e
00000050: 3cb3 9f3e c00d ca3e 15cf 153f b196 993e
00000060: cbca 153f 76d4 053f 8821 d93e b8ca 2b3e
00000070: 9711 343e 3963 ed3e c634 df3e 375c 0e3f
00000080: ba40 fe3e b44e 053f dc17 063f 8d4f c53e
00000090: 69a8 3a3e 463b fc3e e7f7 d13e 9495 bf3e
000000a0: ddf4 6e3e c1cc 773e b4bb 973e 22a6 053f
000000b0: 56ba 093f 4f20 043f e7a3 d53e a2de 6d3e
000000c0: 517a fe3e 4206 fb3e 896a f73e 6eae e83e
000000d0: e56f fd3e 955b 243e 2aa9 eb3e 45b3 4b3e
000000e0: 1e5e 953e 1e81 8b3e 889c 953e 0b2d e03e
000000f0: 435c 043f 0a13 673e 3c7e 513e a6ac 003f
0.54687065 0.23344053 0.28611946 0.18141386 0.23499109 0.3144094 0.5006407 0.40575805
0.22981387 0.42342994 0.58210593 0.3102592 0.5013411 0.20536345 0.5158979 0.23318408
0.22639644 0.5375669 0.4728259 0.19587804 0.31191432 0.39463615 0.5851911 0.2999778
0.5851256 0.52277315 0.42408395 0.1677655 0.17584835 0.46364763 0.4359495 0.5560946
0.49658757 0.52073216 0.52380157 0.38537255 0.18228306 0.49263972 0.41009447 0.37418807
0.23335595 0.24199201 0.29635394 0.52206624 0.5379995 0.516118 0.4172661 0.23229459
0.49702695 0.49028212 0.48323467 0.4544558 0.4949943 0.16050561 0.460275 0.19892605
0.29173368 0.27246946 0.29220986 0.43784365 0.5170328 0.22565857 0.20458311 0.5026344

bayes_fc1.prior_mu_old f4 [64, 6]
00000000: 3a13 c4be 00cf 0ebf cdcc 68be dc75 fdbe
00000010: a90c eabe 76a7 0ebe 387f 0a3f 307e 03be
00000020: e2a3 4e3f 6e92 05bf e6c4 073e e464 e1be
00000030: 75e0 e8be e46a 3f3e 962e 16bf 3471 633e
00000040: 77de 3cbe 3618 aa3e 4144 bbbe 8a89 323e
00000050: 8889 84bf 889b 073f 57be 11be 26d5 5dbc
00000060: c61a dbbe 1c54 793e 4eff 3ebf 8c98 c23e
00000070: 1a75 33be 1410 e73e 3506 b73d efd7 27be
00000080: 328f 573f ec6f babe 577a f93d 57a9 163e
00000090: b709 02bf 1c7c f0be 7cb7 86be 5b24 ccbe
000000a0: a0d1 ffbe a9f8 80be 48d0 07bf 00e3 763e
000000b0: 8042 4ebe 6014 27bd 60fb a6be 7ed5 d83e
000000c0: 580d c3be 657a 473e 0dca 52bf 14e9 003f
000000d0: 3576 0abe 4aa6 313e 47fd 5bbe 9ef0 97be
000000e0: 00bb 583e 5708 b1be 89b9 f53c 2cc5 3b3e
000000f0: 9983 b4be 24d4 eabe e27c 1dbe ac3c e0be
00000100: a0f9 36be 1799 bfbd 8620 a8be 0ff8 6bbd
00000110: d05b 23bf bf5e 773e 145e 44be e7d1 b4be
00000120: 0b3f fdbe b2a0 28be 2940 21be d4fc cbbe
00000130: 9c2d 00bf 5bcf 39be 9278 013f b5ef 13be
00000140: 4f58 553f c3ea c8be 72d7 4c3e e826 cbbd
00000150: 9b65 8bbe 6946 9cbe eb26 0ebe e791 cfbe
00000160: 868a f6be 235c 0fbe 9aae 53bf 3d48 46be
00000170: c098 68bd 7a35 b7bd c711 683d c300 4d3f
00000180: 90e9 c73e 640c 2dbe 7a54 843f 2ed5 d3be
00000190: 3a94 453e 6641 533d 5558 c0be a113 92be
000001a0: 4809 99bb 4959 29be 186f b9be 9963 66bd
000001b0: 3f53 abbe 0510 a6be 077f 84be 38e7 d3be
000001c0: 2dbf 02bf ecde 82be 3b04 ac3e 2dd0 07be
000001d0: 9df4 873f a949 d5be b861 423e 8ed0 04be
000001e0: f90c c5be 4adc 6ebc aaac 1cbf a234 033e
000001f0: 9d74 6cbe 11ee 1a3d faef a6be b806 33bd
00000200: 8009 7abd 28a4 a6be 9f10 7cbe 654c 483d
00000210: fd13 05bf c79a e4be 710e 55be ccdd f2be
00000220: cf7b eabe 6bac 2abe 46a6 dbbe 5cfd 433e
00000230: 431f 48bf 8ca2 dd3e a4fa f6bd 25cb 373e
00000240: 00de 97be 9f01 95be 5403 53be 7050 cdbe
00000250: dd66 fabe e2ea 43be d7aa 86be 3346 c5be
00000260: 6e42 0ebe 6c7c 89be 0318 f1be 3750 5bbe
00000270: 0f70 d4be 646a 83be 0dfd 55be 43b4 c2be
00000280: 3510 5bbe 125c 20be 5abd 8e3e 235e 02be
00000290: 3bdd 823f a82a c2be 52de 523e 7059 5fbd
000002a0: a18a b33e 5978 eebd 81bb 683f 2e55 c8be
000002b0: 16eb 1d3e 8de4 da3c 1650 9abe 02dc d0be
000002c0: 94fe b4be 44a3 98be 50d1 f6be d340 7abe
000002d0: 5b9e 07bf f770 abbe e158 bbbe 8b96 6bbe
000002e0: b009 d2be edc9 8abe f7b2 c2be 4095 edbe
000002f0: e7ee 59be 3c01 c0be 54a1 00bf 5314 6cbe
00000300: 274e a8be 487f dfbe f8f3 22be d5d3 48be
00000310: 9346 91be c8fe 093d 6b70 e8be 5131 dcbe
00000320: 0818 24be aa85 c5be 0900 c8be 0fee 01be
00000330: afbf 7ebe 57e5 8abe 32ad fdbc 382e aabe
00000340: cd50 b3be ff49 2dbe 4615 6c3e fd4a 3dbe
00000350: bc38 3a3f 7881 02bf 7043 203e dbb0 b13d
00000360: 6045 e0be 94f7 853e c0c1 49bf cfa7 b43e
00000370: ab58 11be bb01 a03e 5230 e7be 709d 07bf
00000380: 71a9 71be 8b43 cabe d960 cabe 9291 6dbe
00000390: 7237 e4be f5ea f13d dc5e 4cbe fd75 5fbe
000003a0: 6b0d cbbe 98e7 3b3e 2882 76be 1fa9 88be
000003b0: 5b6d 06be 4939 21be 9148 88be 0774 8cbc
000003c0: e75e c9be d115 2d3e 5ced 70bf cb3a ed3e
000003d0: efe9 11be 93ba 2e3e 374d c6be fef9 373e
000003e0: dfcb 05bf 8ab7 9c3e 3135 0cbe 628d 373e
000003f0: f95a 92be c982 bb3d c77a 0dbf f28f f73e
-0.3829592 -0.55784607 -0.22734375 -0.49503982 -0.45712784 -0.13931069 0.5410037 -0.12841105
0.80718815 -0.5217656 0.13258705 -0.44022286 -0.45483747 0.1869312 -0.58664834 0.22211152
-0.18444239 0.33221596 -0.3657551 0.1743528 -1.0354471 0.52971697 -0.14232765 -0.013539588
-0.42793864 0.24348491 -0.74608314 0.3800701 -0.1752514 0.45129454 0.08936731 -0.16390966
0.84202874 -0.36413515 0.121815376 0.14713036 -0.50796074 -0.46969688 -0.26311862 -0.39871487
-0.4996462 -0.25189713 -0.53052187 0.24110031 -0.20142555 -0.040790915 -0.3261366 0.42350382
-0.38096118 0.19480284 -0.82339555 0.5035565 -0.13521655 0.1734859 -0.21483336 -0.29675764
0.21165085 -0.34576675 0.029995697 0.18336934 -0.3525665 -0.45864975 -0.1537967 -0.4379629
-0.17868662 -0.093553714 -0.32837313 -0.057609614 -0.6381197 0.24157237 -0.19176513 -0.35316393
-0.4946216 -0.1646755 -0.15747131 -0.3984133 -0.50069594 -0.18145506 0.505746 -0.1444691
0.83337873 -0.3924161 0.20004061 -0.0991953 -0.27225956 -0.3052247 -0.13882034 -0.40541002
-0.4815256 -0.13999991 -0.82688296 -0.19363494 -0.0567863 -0.08945747 0.05665758 0.8007929
0.39045382 -0.16899258 1.033828 -0.4137358 0.19294825 0.05157604 -0.37567392 -0.285306
-0.004670296 -0.16537966 -0.3621757 -0.056247327 -0.3346195 -0.32434097 -0.25878164 -0.41387343
-0.5107296 -0.255607 0.33596978 -0.13263007 1.0621525 -0.4165776 0.18982589 -0.12970182
-0.3848646 -0.014578888 -0.61200964 0.12813047 -0.2309136 0.037824694 -0.32604963 -0.04370758
-0.061044216 -0.32547116 -0.24615715 0.04890098 -0.51983625 -0.44649336 -0.2080629 -0.47434843
-0.45797583 -0.16667335 -0.42900294 0.19139618 -0.781727 0.43288076 -0.12059525 0.17948587
-0.2966156 -0.291028 -0.20606738 -0.4010043 -0.48906603 -0.1913257 -0.26302215 -0.3853012
-0.13892528 -0.2685274 -0.47088632 -0.21417318 -0.41491744 -0.25667107 -0.20897312 -0.38028154
-0.21392901 -0.15660122 0.2787884 -0.12731223 1.0223764 -0.3792317 0.20592621 -0.054528654
0.35066703 -0.11644048 0.9091111 -0.39127487 0.1542171 0.02672031 -0.30139226 -0.40792853
-0.35350478 -0.29812062 -0.48206568 -0.24438791 -0.52976006 -0.33484623 -0.36591247 -0.23006646
-0.41023016 -0.27107182 -0.38027164 -0.4640293 -0.2128254 -0.37500942 -0.5024617 -0.23054628
-0.32872126 -0.43651795 -0.15913379 -0.19612058 -0.28374156 0.033690244 -0.45398268 -0.43006375
-0.16024792 -0.3857854 -0.39062527 -0.12688468 -0.24877809 -0.27128097 -0.030966375 -0.33238387
-0.35022584 -0.16922759 0.2305499 -0.18485637 0.7274282 -0.50978804 0.15650725 0.08676311
-0.4380293 0.2616545 -0.78811264 0.35284278 -0.1419398 0.3125132 -0.45154053 -0.52974606
-0.23599793 -0.39504656 -0.39527014 -0.23200062 -0.4457355 0.118123926 -0.19958061 -0.21822353
-0.39658675 0.18350065 -0.24073088 -0.2669153 -0.13127653 -0.15744509 -0.26617864 -0.01714517
-0.39330217 0.16902854 -0.9411218 0.46333918 -0.14249395 0.1706336 -0.38730785 0.17966458
-0.5226421 0.3060878 -0.13692166 0.17925027 -0.28585032 0.09155805 -0.5526547 0.4835201

bayes_fc1.prior_sigma_small f4 [64, 6]
00000000: 00ce a53e 9bcd 7f3e 6d5b 703f 79dd be3e
00000010: c5f7 2c3e 3f76 843f c6f5 823d 0188 f33c
00000020: 14d2 ff3e 51de b53d 6290 263d 56d1 023f
00000030: eefd ce3d f2e3 093d 799a 323f a66e 143e
00000040: 33b1 4b3d 7059 223f 43d6 7b3d e146 c93c
00000050: 93c0 f33e 9d95 443d 8106 bf3c d15b d73e
00000060: 7159 a63d f5b3 d73c fe65 183f 09bf c93d
00000070: 4bd2 133d 0305 e73e a6ae 183e 019a 673d
00000080: a3ef 3a3f 0372 c93d 93ad 263d 8b81 1e3f
00000090: 1d2b af3e 9e6f 4c3e 0afb 6f3f eceb a43e
000000a0: 4890 453e d329 683f 88a3 133e 17c4 6e3d
000000b0: ba71 5f3f 4f87 763e bbb8 b63d b997 4d3f
000000c0: 698f 8c3d 5c7e 043d 60da 0f3f 01c3 923d
000000d0: bf95 113d 46df e23e 5c68 633e 351a da3d
000000e0: 85cb 583f 8e74 123e 3b24 953d 0ddb 4a3f
000000f0: 16ec de3e 2ea2 283e fdc9 883f efad be3e
00000100: d34a 0e3e 019c 7c3f df6a e13d e851 6e3d
00000110: 63e1 303f 4551 dc3d ddaa 5a3d 1479 2b3f
00000120: 3805 8a3e ce19 f03d f489 6d3f 70e4 9a3e
00000130: 7644 413e d435 6e3f b4dd 553d 1ca6 e43c
00000140: 9550 e73e 389d 5c3d d5e9 ae3c 680c f43e
00000150: b5f1 8b3e 3c68 013e fe04 713f d1d9 a73e
00000160: 4fcc 513e 1d14 6c3f 50c9 2b3e 92dd 173d
00000170: 18a8 f63e fa12 233d 711a 983c faf0 8d3e
00000180: e475 a53d dc36 003d 7a2e 103f 2719 7c3d
00000190: 8355 f93c 2f14 0a3f 3614 ca3e ce43 083e
000001a0: 10f9 813f 62a2 b13e 21d0 203e 6d28 723f
000001b0: 7bd8 8b3e 661b 103e 7175 6f3f 23cc 9d3e
000001c0: cd5e 473e de03 5e3f a7f1 693d ba83 c63c
000001d0: acca ce3e 5c9b 783d de15 bc3c e9f1 ef3e
000001e0: 1a62 ed3d 267c 613d 8a7e 333f c397 e53d
000001f0: 40cf 7d3d d8d2 323f 1a9b 4c3e 9b86 893d
00000200: 459c 763f efe9 863e 172c db3d 60bc 6d3f
00000210: 887c ac3e 4549 3b3e 2a32 743f c97d d53e
00000220: 5a79 823e 4670 793f c4f8 ce3d ba59 203d
00000230: 8475 273f 7489 ea3d df2b 2f3d 626d 293f
00000240: c8b4 953e 2e09 193e 768c 803f 7f1b db3e
00000250: ebce 6e3e 56f0 7f3f e74a a93e d59d 313e
00000260: c7db 713f b45c ab3e 79ed 673e 5a42 663f
00000270: 03a7 953e e072 bc3d 3535 483f 4598 6d3e
00000280: ee5a d13d 1c37 5a3f e508 3a3d 0bcb a63c
00000290: cc83 b53e dd37 3d3d 1e43 8a3c aa38 c73e
000002a0: 8056 2e3d 4b51 c43c f494 cd3e e83e 3e3d
000002b0: a497 ae3c d4ef d43e 3b51 5f3e 5c87 333e
000002c0: 2442 573f 3022 ab3e ac01 3b3e f525 613f
000002d0: 76de 983e 3d80 2b3e b170 563f 2f44 423e
000002e0: 6b6b 423e e5d5 553f db73 b33e 8c60 493e
000002f0: 8f87 703f 876f a13e 419d 8b3e 7ca4 7e3f
00000300: a937 a63e 0f2e 163e f7ec 753f 1644 a33e
00000310: 746b 1c3e c3db 6c3f dd2b ca3e bcad 223e
00000320: 47f9 663f a93c bb3e dc1b 1e3e 4006 693f
00000330: 09cb 943e 4187 083e a855 7b3f 1cec c23e
00000340: 8851 543e 7638 783f 8fee 323e 1326 963d
00000350: 9bab 603f 36ca fb3d 9a76 703d 3c2e 473f
00000360: b47c 743d b21f ce3c 0368 0a3f 3a18 8d3d
00000370: 4022 e63c 9f7f fe3e 8292 a63e c3d5 343e
00000380: f6ae 633f 4fd5 a73e cc90 413e 2789 773f
00000390: baff 103e 94f8 933d c1cc 4f3f 8c1e 7f3e
000003a0: 1da8 db3d 4212 583f 6e19 2f3e 1c0b e03d
000003b0: 86b9 353f 088b 4d3e 554d 343e ffd2 313f
000003c0: 8d1c 983d 7042 dd3c a17f 093f 14ca 8f3d
000003d0: 107e 0a3d 750f ff3e e79b b43d 4298 303d
000003e0: feea 313f f90b c53d ec6e 483d bb3b 1c3f
000003f0: 9626 083e 08c0 883d 9eef 1e3f 93e5 0b3e
0.32383728 0.24980776 0.93889505 0.37278345 0.16891392 1.0348586 0.06394534 0.029727938
0.49964964 0.08880294 0.040665038 0.5110067 0.10107027 0.03366465 0.69766957 0.14495334
0.049729537 0.6341772 0.061483633 0.02456993 0.4760786 0.047994245 0.023318531 0.42062238
0.08122528 0.026330927 0.5953063 0.0985089 0.036089223 0.4512101 0.14910373 0.056543354
0.73021907 0.09836199 0.040692877 0.61916417 0.3421258 0.19964454 0.9374243 0.32211244
0.1929332 0.9068882 0.14417851 0.058292475 0.8728291 0.24075054 0.08921953 0.80309635
0.06863291 0.03234707 0.5619259 0.071661 0.0355432 0.4431097 0.22207779 0.1064953
0.84685546 0.14302275 0.07282301 0.79240495 0.43539494 0.16468117 1.0686642 0.37242076
0.1389573 0.98675543 0.11006712 0.05818358 0.6909391 0.107576884 0.053385604 0.66981626
0.26957107 0.11723672 0.92788625 0.3025241 0.18873772 0.93050885 0.052213386 0.027911238
0.45178667 0.053860873 0.021351734 0.47665715 0.27332845 0.12637419 0.9414824 0.32783368
0.20488094 0.9221819 0.16776013 0.03707654 0.4817512 0.03981302 0.018567296 0.27722913
0.080791265 0.031302318 0.5632092 0.061547425 0.030436283 0.5393705 0.39468545 0.13307115
1.0154133 0.346942 0.15704395 0.94592935 0.273136 0.14072952 0.93538576 0.30819806
0.19469757 0.8672465 0.057115223 0.024232734 0.40389 0.060695037 0.022959646 0.4686425
0.11590977 0.055050038 0.7011496 0.11210587 0.061965227 0.6985297 0.19981042 0.06715127
0.963322 0.26350352 0.10701769 0.9286556 0.3368876 0.18289669 0.95389044 0.4169753
0.2548321 0.9743694 0.10106042 0.03914807 0.6541369 0.11451998 0.042766448 0.6618253
0.29239488 0.14944908 1.0042865 0.42794415 0.2332112 0.999761 0.33064958 0.17345364
0.9447598 0.33469164 0.22649182 0.89944994 0.29228982 0.09201598 0.7820619 0.23202617
0.102224216 0.8524034 0.04541864 0.02036049 0.35452116 0.046195854 0.016877707 0.3891042
0.04256296 0.023964545 0.40152705 0.04644671 0.021312542 0.41589224 0.2180833 0.17532104
0.840853 0.3342452 0.18262357 0.8794854 0.29857224 0.16748138 0.83765703 0.18971322
0.18986289 0.835295 0.35049328 0.19665736 0.93956846 0.315304 0.27268413 0.99469733
0.3246434 0.14666007 0.96064705 0.31887883 0.15275365 0.9252283 0.3948659 0.15886587
0.9022412 0.36569718 0.15440315 0.9102516 0.29061154 0.13332845 0.98177576 0.38070762
0.20734227 0.9696115 0.17473815 0.07331481 0.8776185 0.12294428 0.058706857 0.77804923
0.05968924 0.025161598 0.5406496 0.068893865 0.028092504 0.49706742 0.32533652 0.17659669
0.88938844 0.3277993 0.18902892 0.9669365 0.14160052 0.07225147 0.81171805 0.24913996
0.107254244 0.8440286 0.17099544 0.10939619 0.7098621 0.20072567 0.17607625 0.6946258
0.07427321 0.027009219 0.5371037 0.07020965 0.03381163 0.4981648 0.088187985 0.043113954
0.69499195 0.09621424 0.04893391 0.6102864 0.1329597 0.06677252 0.62084377 0.13661794

bayes_fc2.weight_mu f4 [1, 64]
00000000: 8e7a 183d 1011 5e3d 473a 0abd e560 bcbd
00000010: 20e9 79bd 880b 383d 9f12 c53d 91c6 0fbd
00000020: 3488 6dbd 9ad5 a93c 97c5 673c f7c1 13bd
00000030: 68e9 73bd 0526 823d f246 ab3d c817 a73e
00000040: fec4 0f3d 12fd e4bc 40bb 083d 63bb a53d
00000050: f2ad 8ebd e55e f3bd 5c75 36bc b97b 94bd
00000060: b149 9a3d 1e76 55bc 87d5 013d c128 aa3d
00000070: 3005 923d 9ddd a6bd 2227 b83c f228 703a
00000080: c388 363c c4df 8bbc b5c7 5e3d 0968 153d
00000090: 9356 67bd 44ef 63bd 5656 39bd 3f2d b73c
000000a0: d237 76bd a9ec a1bd 80f3 15bd c874 893d
000000b0: e70c 983c aeb1 80bd fe4e f3bb 804b 4bbd
000000c0: b28f 0a3e e0b3 f4ba c339 c13c 8d08 cebc
000000d0: 2545 f5bb d3f8 b63d 9fad 11bd c983 8f3d
000000e0: 69ce 543d ffe0 873d 14ee 683d 7e4a 2e3d
000000f0: 728a 19bd a4c0 7b3d 86ba a5bd 6919 06bd
0.037226252 0.05421549 -0.033746984 -0.09198169 -0.06101334 0.044932872 0.09622692 -0.035101477
-0.05799122 0.020731736 0.01414623 -0.03607365 -0.059548765 0.06354908 0.08363141 0.3263533
0.035099976 -0.027952705 0.0333817 0.08092382 -0.06966771 -0.11883334 -0.011136379 -0.07250161
0.07533587 -0.01302865 0.031697776 0.083085544 0.07129896 -0.08147738 0.022479597 0.0009161375
0.011141005 -0.017074473 0.054389674 0.03647617 -0.056479048 -0.055648103 -0.045248352 0.022360442
-0.06011183 -0.079064675 -0.036609173 0.067117274 0.01856084 -0.0628389 -0.007425188 -0.04963255
0.13531378 -0.001866933 0.023587113 -0.025150562 -0.0074850493 0.08934178 -0.03556597 0.07007558
0.05195466 0.066347115 0.056867674 0.04255151 -0.037485547 0.061463013 -0.08092217 -0.032739077

bayes_fc2.weight_rho f4 [1, 64]
00000000: cef6 7abf 6b1c 82c0 cdf2 6bc0 1055 81c0
00000010: 0a17 80c0 7de7 69c0 21b9 b0bf 9a77 6ac0
00000020: 9a75 81c0 c3b7 31c0 487c 21c0 a647 40c0
00000030: f314 00c0 bc93 8bc0 5d54 cfbf eec3 34c0
00000040: 8fa1 83c0 a84d 03c0 385b d0bf a5d1 81c0
00000050: 0a83 40c0 4fe6 11c0 cfce d3bf 613d 7cc0
00000060: 3a30 26c0 e2a4 0fc0 c72f 2bbf 18cc 84c0
00000070: 6b03 82c0 4afb 85bf 31f3 80bf 8811 c9bf
00000080: f651 02c0 a774 77bf 4d49 07c0 b6e8 67c0
00000090: 28fa 82c0 48ff 06bf 80ef 5fc0 4c48 83bf
000000a0: 7405 77c0 3d0c 64c0 7084 61c0 5f7f f4bf
000000b0: 5fc9 f5bf 9f5d acbf 843a c1bf a22e 7cc0
000000c0: 7a8c 9abf 1510 28c0 c62a 20c0 bd9e 2dc0
000000d0: 19b2 bdbf 0783 84c0 08a5 c6bf 3f13 83c0
000000e0: 261e 5fc0 5997 76c0 4519 5ac0 416c 4ec0
000000f0: 6cc3 9cbf 6ede 81c0 2cd3 84c0 b154 fbbf
-0.98032844 -4.065969 -3.6866944 -4.0416336 -4.0028124 -3.654754 -1.3806497 -3.66355
-4.0456057 -2.776841 -2.5232105 -3.004373 -2.0012786 -4.361784 -1.6197621 -2.8244586
-4.1134715 -2.0516148 -1.6277838 -4.0568414 -3.007998 -2.279682 -1.6547488 -3.9412463
-2.5966935 -2.2444386 -0.6686978 -4.149914 -4.062917 -1.0467312 -1.0074216 -1.5708475
-2.0362525 -0.9666237 -2.113849 -3.6235785 -4.0930367 -0.5273328 -3.498993 -1.0256438
-3.8597078 -3.563247 -3.5237083 -1.910137 -1.9202079 -1.3466071 -1.5095983 -3.9403462
-1.207412 -2.6259816 -2.5026107 -2.7128136 -1.4819976 -4.1409945 -1.5519114 -4.0960994
-3.486215 -3.8529875 -3.4077923 -3.2253573 -1.2247138 -4.058402 -4.150778 -1.9635221

bayes_fc2.prior_mu_old f4 [1, 64]
00000000: f409 653d c660 7e3d 1f5b 2fbd c1fa bdbd
00000010: b9b5 7fbd 1973 403d 2f3f 8c3d a008 acbc
00000020: ea90 83bd d6ed ef3c 063e d13c 917e 60bd
00000030: 6221 7ebd 073b a23d e3e9 053e ff2d a63e
00000040: cec1 3e3d 9c58 be3c bdcf 393d e7ad 873d
00000050: 27e5 4cbd 787f eebd de78 b0bb 26d9 83bd
00000060: 6040 a13d d103 9cbc 88a6 3f3d e6ee 973d
00000070: a416 8a3d 56ae 19bd f2b5 6a3c 3221 f53c
00000080: aab4 613d d87d d0bb 8370 473d 96a8 053d
00000090: 4b4b 92bd 10d7 1fbd aedf 26bd 2295 7f3d
000000a0: 5421 65bd 24b9 86bd 8c37 9bbc fe34 883d
000000b0: a866 863b eada 02bd 8c6b e4bc 0979 27bd
000000c0: e1a8 ce3d 9e37 ac3c 839d 2e3d ef91 87bd
000000d0: ac69 b63c 9891 a93d c638 ebbc 7fba 6f3d
000000e0: c3f4 5c3d ac62 a53d da2b 763d ba79 573d
000000f0: a798 61bc f247 903d 3d7c b4bd ea14 0bbd
0.055917695 0.06210401 -0.04281151 -0.09276343 -0.062429164 0.046984766 0.06847989 -0.021000206
-0.064241245 0.029288214 0.02554227 -0.054808203 -0.062043555 0.07921415 0.13077502 0.32456967
0.046571545 0.023235612 0.04536413 0.06624966 -0.050023224 -0.116454065 -0.0053855022 -0.06437902
0.07873607 -0.019044789 0.046789676 0.07418613 0.067425996 -0.037519775 0.014325606 0.029923055
0.055103935 -0.006362658 0.048691284 0.03263148 -0.07143267 -0.03902346 -0.04074066 0.062398084
-0.055939987 -0.065782815 -0.018947385 0.066507325 0.004101593 -0.031947054 -0.027883314 -0.040886912
0.10090805 0.021022614 0.042630684 -0.066196315 0.022267185 0.08279723 -0.028713595 0.058527466
0.05394436 0.08075461 0.060100414 0.052606322 -0.013769305 0.070449725 -0.08812759 -0.033955492

bayes_fc2.prior_sigma_small f4 [1, 64]
00000000: c8e0 9c3e 8419 943c b598 d23c b7ba 933c
00000010: a137 a23c e437 dc3c 77f5 623e e2a6 db3c
00000020: 38de 993c e051 793d 2596 9e3d 248c 493d
00000030: 1f28 023e 04bc 693c f167 363e 7c30 6d3d
00000040: 4860 893c ec40 fc3d ff08 373e 1477 913c
00000050: c903 433d d357 c73d eaba 333e c0b7 ad3c
00000060: e94c 953d 98cf ce3d e77b ce3e 3ad0 893c
00000070: 459d 923c c008 983e 29fc 9c3e c332 483e
00000080: 496f f23d a3e9 a73e 5bd7 ea3d cd91 e43c
00000090: 0255 903c c036 e23e ea09 fa3c 9ff4 a03e
000000a0: 7146 bd3c 405c f53c 8dae fe3c 4a06 0d3e
000000b0: 3661 0b3e 4963 5f3e 1701 4b3e f88f ac3c
000000c0: 112a 883e bd0a 8f3d 2500 9f3d e27e 7e3d
000000d0: 5de0 443e e8e1 8d3c 2f0f 403e c2a7 8d3c
000000e0: b2f3 fa3c 7c3b c13c adcb 043d 78a8 1d3d
000000f0: 889f 803e a4a2 943c 3592 853c ca48 053e
0.30640244 0.018078573 0.025707582 0.018033369 0.019801917 0.02688212 0.2216395 0.026812974
0.01878272 0.060869098 0.077434815 0.049205914 0.12710617 0.014266018 0.17813088 0.057907566
0.016769543 0.1231707 0.17874525 0.017756976 0.04761103 0.09733548 0.17551771 0.021205783
0.0729006 0.10098189 0.40328905 0.016822923 0.017897258 0.29694176 0.30661133 0.19550614
0.11837632 0.32795438 0.11466857 0.027901554 0.01761866 0.44182396 0.030522306 0.3143663
0.023104878 0.029951215 0.031089092 0.1377193 0.13611302 0.21815218 0.19824634 0.021064743
0.26594594 0.0698447 0.077636994 0.062132724 0.19226213 0.017319635 0.18755792 0.017291907
0.030633781 0.023587935 0.032420803 0.038490742 0.25121713 0.01814396 0.016305069 0.13016048

exp_avg f4 [64, 6]
00000000: 9c0e 94b7 3b17 1c38 4b21 ac37 9bfd 4437
00000010: bc0a d7b7 a9ef a737 36a2 283b 9069 c03b
00000020: 5052 fe38 9d56 8d3a 1427 b83b 2904 8b39
00000030: f1ca 9cba dc8d c0bb 6b18 e0b8 85e2 1abb
00000040: 4ab8 61bb ed2c 48b9 bbee b1bb 59c2 a6bc
00000050: 271d 16b9 c7e5 19bb c9d9 bb38 661d 2eb9
00000060: dc1c 40bb d894 6abc 543a d2b8 b6e5 09bb
00000070: 59a2 76bb 502e 87b9 00fd 9b3a 4896 863a
00000080: 478b 3a38 11a3 403a f317 153b e6fc b638
00000090: 9852 3ab8 badd 0137 5f89 7a37 ca67 62b8
000000a0: 03b0 4638 b412 1737 bb46 123a 9253 a539
000000b0: de50 0f38 edaa 2b3a fd9c 163b 2c82 9938
000000c0: a813 faba b72b adbb 7ee1 bcb8 a826 0ebb
000000d0: 68e4 29bb b192 82b9 faa4 8a37 caf5 2439
000000e0: b72b 3437 07a3 e2b8 6749 c739 6cc6 4137
000000f0: 0426 9937 1fbd c138 e86c 80b7 7833 6b36
00000100: dd87 d4b8 3d44 97b5 7818 8db9 bd6c 8939
00000110: c9f1 d0b5 4b94 52ba 1585 f6b8 a08e 85b7
00000120: 587c 0837 6cd9 7338 83f5 89b7 b6c3 d8b7
00000130: c6c3 13b9 d606 b8b7 e409 4c3a dfd2 983b
00000140: 4a78 1c39 fb68 59ba 7a6e 503a d5e1 6939
00000150: 07d3 c5b7 4c34 7238 0866 c037 5edb b039
00000160: d513 4fb8 f537 8d38 c102 5c39 83ba 5bba
00000170: 5cf8 e137 65d3 e3ba c499 98bb 4a54 a3b8
00000180: cc11 23ba b3a1 47bb 24c2 a1b7 3488 eeba
00000190: 29c8 9bba 68e9 9037 66ef 2837 bcec cfb8
000001a0: a9bf 4735 4e3e 21b7 dedf 8738 2d9b 08b7
000001b0: f75a a5b8 d670 4eb6 d1e9 b9b7 2424 bab7
000001c0: 4164 e036 d844 b5b4 3727 31bb f89d 95bb
000001d0: 5491 2cb9 8f43 b0bb c646 4dbc d28f 18b9
000001e0: 59e5 9c39 4a8b 813a bc23 cdb7 4bec aeb7
000001f0: 2828 5e39 6f68 3a37 c621 4e39 372b 963a
00000200: 7973 2bb6 cd1c a239 e61c 43b9 f614 cc36
00000210: fc2a 11b8 515f 1437 26e1 9db6 075f 26b8
00000220: 9e59 c0b8 7a55 e235 f5f9 0d3a 0771 19bb
00000230: 63ec e938 f2f8 3039 72c2 613a 89af 7537
00000240: b09e fc37 82c3 4139 c8ab 8537 680e 1739
00000250: a7d7 a738 1172 9037 860c 0c37 3b6e 3138
00000260: 9e34 70b7 7bc8 e135 4d00 3ab8 41c9 d536
00000270: c26e ccb7 3a38 3e39 de63 5bb7 88a6 8038
00000280: 49e4 eeb7 307e 3bb7 648b b439 a88f cb3b
00000290: d31c 7cb5 4262 faba 42c9 02ba e214 7b36
000002a0: 7924 c83b e8df 3e3c 9389 a739 8866 6f3b
000002b0: 70fa 333c e043 f239 d033 7738 ae22 da37
000002c0: fa20 0eb5 ddf6 5437 21ec 91b8 6ec4 cc37
000002d0: b439 b1b7 26c5 1438 9d52 89b5 a1c2 dcb8
000002e0: 9ae0 60b8 6299 1636 2c6c 96b8 2285 2db5
000002f0: 5b8f 53b7 374c 32b8 11fb 5e37 4c43 eab7
00000300: 5de9 4e39 ebd5 8a39 3ad9 cd36 3efb 2339
00000310: 4956 9f39 35b4 c537 86fa 0338 ffd6 5838
00000320: 55c1 2334 99cd 0338 90fe c437 002c c8b7
00000330: ba67 85ba 1e02 07bb f9bd b3b8 3f55 bd39
00000340: bd75 a338 d5d5 92b7 f8e3 a33a c7c4 9a3a
00000350: e866 a338 e142 b939 fad4 3aba 6296 2ab6
00000360: 5c77 9fba 6562 8cbb 24ee 04b8 9a8c 943a
00000370: e9f2 56ba cac9 81b9 a6c4 1038 fd32 17b9
00000380: 70af 18b7 1c59 8e37 6d3f 1338 a68b 2ab7
00000390: 8df4 fab8 ca75 903a 5941 b9b7 3196 b5b9
000003a0: 1ff3 253a 5c87 34b8 df55 ad39 229b 6fb9
000003b0: 9bc8 1038 9aa0 323a dc45 b83a c525 0738
000003c0: 0b0e 1abb 3d90 fabb 718f 05b9 1e03 93ba
000003d0: 6cd1 aabb 96d5 0cb9 f54e 7cbb 923d 2abc
000003e0: e33e 6db9 451a d6bb ffc4 0dbc 25c4 bab9
000003f0: 49e0 323a 4716 173b 20d7 9e38 4406 bd3a
-1.7649778e-05 3.7214933e-05 2.0519501e-05 1.17415575e-05 -2.5634996e-05 2.0019552e-05 0.002573145 0.005871959
0.00012126996 0.0010783259 0.005619893 0.00026515246 -0.0011962337 -0.005876286 -0.000106857005 -0.0023633551
-0.003444212 -0.00019090222 -0.00543007 -0.020356344 -0.00014315975 -0.0023482905 8.9574205e-05 -0.00016604885
-0.0029314077 -0.014317714 -0.00010024445 -0.002104146 -0.0037633388 -0.00025783712 0.0011900961 0.0010268176
4.4475568e-05 0.00073485175 0.002274987 8.725542e-05 -4.4422777e-05 7.740624e-06 1.4933145e-05 -5.397926e-05
4.7370802e-05 9.004656e-06 0.00055799977 0.00031533517 3.416917e-05 0.0006548602 0.0022981756 7.319855e-05
-0.0019079344 -0.005284752 -9.00654e-05 -0.0021690521 -0.0025923494 -0.00024904826 1.6527705e-05 0.00015731822
1.0739014e-05 -0.00010806886 0.00038010927 1.1549895e-05 1.8256724e-05 9.238184e-05 -1.5309502e-05 3.5047688e-06
-0.00010134254 -1.1270237e-06 -0.00026911846 0.00026211693 -1.5567576e-06 -0.00080329616 -0.000117549826 -1.592125e-05
8.135183e-06 5.8138205e-05 -1.6445998e-05 -2.5840342e-05 -0.00014091944 -2.1937693e-05 0.0007783456 0.0046638097
0.0001492213 -0.00082935364 0.00079510326 0.0002230474 -2.3582497e-05 5.7746e-05 2.2935696e-05 0.00033732777
-4.9371116e-05 6.733827e-05 0.00020981861 -0.00083819794 2.6937741e-05 -0.0017381726 -0.004657002 -7.788146e-05
-0.00062206085 -0.003046137 -1.92831e-05 -0.0018198551 -0.0011885214 1.7274826e-05 1.006932e-05 -9.9146244e-05
7.441218e-07 -9.610854e-06 6.479e-05 -8.142361e-06 -7.8847566e-05 -3.0762071e-06 -2.2162598e-05 -2.2189757e-05
6.6873913e-06 -3.3763968e-07 -0.002703143 -0.0045659505 -0.00016457337 -0.0053791474 -0.012529081 -0.00014549427
0.00029925516 0.000988343 -2.4454544e-05 -2.0852449e-05 0.00021186529 1.1110779e-05 0.00019658273 0.0011456971
-2.55482e-06 0.00030920506 -0.00018607415 6.082114e-06 -3.4610726e-05 8.84368e-06 -4.7051753e-06 -3.9665985e-05
-9.171966e-05 1.6863189e-06 0.00054159696 -0.0023413317 0.00011154336 0.00016877407 0.00086120435 1.4644008e-05
3.0114636e-05 0.00018478747 1.5934827e-05 0.00014405849 8.003349e-05 1.7219254e-05 8.347566e-06 4.230275e-05
-1.4317366e-05 1.6822154e-06 -4.4346136e-05 6.3713237e-06 -2.437027e-05 0.00018140758 -1.3076669e-05 6.1345345e-05
-2.8478114e-05 -1.1175449e-05 0.0003443613 0.0062121935 -9.391926e-07 -0.001910277 -0.0004989096 3.741407e-06
0.0061078635 0.011650063 0.00031955223 0.003652962 0.010985002 0.00046208408 5.8937643e-05 2.6003774e-05
-5.294711e-07 1.2693662e-05 -6.958121e-05 2.4410165e-05 -2.1126914e-05 3.546956e-05 -1.0231339e-06 -0.0001052667
-5.361494e-05 2.2441022e-06 -7.172706e-05 -6.4641256e-07 -1.2609958e-05 -4.2509488e-05 1.3290687e-05 -2.7926311e-05
0.00019732626 0.00026480792 6.1347646e-06 0.00015638486 0.0003039113 2.3568145e-05 3.1466152e-05 5.1698644e-05
1.5250892e-07 3.142431e-05 2.348356e-05 -2.3862347e-05 -0.0010178008 -0.0020600627 -8.57077e-05 0.00036112402
7.794376e-05 -1.750413e-05 0.0012503853 0.0011807912 7.7916135e-05 0.00035335778 -0.0007127073 -2.5419508e-06
-0.0012166309 -0.0042841905 -3.169304e-05 0.0011333406 -0.00081996486 -0.00024755142 3.451542e-05 -0.00014419477
-9.100753e-06 1.6969214e-05 3.51066e-05 -1.0165304e-05 -0.0001196648 0.0011021432 -2.2084148e-05 -0.00034634912
0.00063304784 -4.3041407e-05 0.0003306111 -0.00022850608 3.4519104e-05 0.00068140926 0.0014058906 3.2221684e-05
-0.0023506905 -0.007646589 -0.00012737304 -0.0011216139 -0.0052129533 -0.00013431007 -0.003849921 -0.010390656
-0.00022625508 -0.0065338933 -0.008652925 -0.00035622824 0.0006823582 0.002305405 7.574097e-05 0.0014421423
