lightning_logs/version_99/checkpoints/epoch=49-step=3900.ckpt (torch, 30427 bytes, 24 tensors)

bayes_fc1.weight_mu f4 [64, 6]
000000 86 b6 e1 bd c8 73 cf be f0 db ab bd cf 66 6c be
       -0.11021142 -0.40518022 -0.08391559 -0.23086093
000010 c3 47 58 be b1 03 9d bd fe 11 04 3f 40 69 c0 bd
       -0.21121125 -0.0766672 0.51589954 -0.09395075
000020 6c ec 8c 3e 5e af b9 be b0 3a 9b 3d d7 b5 af be
       0.27524126 -0.36266607 0.07579553 -0.3431842
000030 29 ab 9b be cd a3 e8 3d 25 0c 7e be 57 61 74 3e
       -0.30404022 0.113593675 -0.2480932 0.23865257
000040 ab ee e3 bd b8 b9 23 3e 3b 89 c4 be 65 bd 23 3e
       -0.11129507 0.15988815 -0.3838595 0.15990217
000050 e3 10 e1 be cb 5b d7 3e ee e0 a7 bd 36 0f 89 3d
       -0.43958196 0.4206222 -0.08197199 0.066923544
000060 62 4e bd be ad bc 23 3e da fb c5 be d1 0a b0 3e
       -0.36973864 0.15989943 -0.3866871 0.34383252
000070 36 22 8c bd 75 63 4c 3e fc 2e 52 3e f3 09 0d be
       -0.06842463 0.19959815 0.20525736 -0.13773327
000080 68 ae 91 3e a1 48 5b be 2a cd be 3d 9d 4d 49 be
       0.28453374 -0.21414424 0.09316476 -0.19658513
000090 55 59 5e be 51 d6 92 be 6d 77 c6 bd 7e 6d 5a be
       -0.21713765 -0.28679135 -0.096907474 -0.2133083
0000a0 3b ea a2 be b5 ed e4 bd 14 8b f3 be 56 b5 bc 3d
       -0.3181933 -0.111781515 -0.47567046 0.092142746
0000b0 c6 b9 24 be b4 c7 c0 bd 3b 1a 9d be 51 24 40 3c
       -0.16086492 -0.0941309 -0.30684075 0.0117274085
0000c0 8e f9 9e be 17 71 d6 3d 52 49 cb be 5f ce d4 3e
       -0.3104977 0.10470789 -0.39704376 0.415637
0000d0 15 d8 02 be ea e9 bc 3d 94 0b 00 be e4 3f 8a be
       -0.12777741 0.09224303 -0.12504417 -0.2700187
0000e0 d9 3f d6 3c 41 22 76 be b2 03 ad bd 85 51 58 3c
       0.026153492 -0.24036504 -0.084479704 0.0132030295
0000f0 e8 fe a7 be af 11 7b be 35 f0 a6 bd 43 30 a1 be
       -0.32811666 -0.24518465 -0.081512846 -0.31482133
000100 bc f9 2b bd 79 9f ae bd b4 2c 54 be 4d 0c 10 bd
       -0.041986212 -0.08526511 -0.20720178 -0.03516798
000110 b5 4e f4 be c6 c5 b8 3e a1 99 ed bd 05 0b 88 3d
       -0.477163 0.3608839 -0.11601568 0.06642727
000120 13 b9 57 be 38 49 d8 bd d3 71 a4 bd 1b ec 1e be
       -0.21066694 -0.1056084 -0.08029523 -0.15519755
000130 56 21 be be bb 67 a2 bd b5 fb 06 3f 8f ee 01 be
       -0.37134808 -0.07929941 0.52727824 -0.12688659
000140 cc 96 2c 3e d1 0d ac be 6f 57 bb 3d 93 6b 7b be
       0.168544 -0.3360429 0.09147536 -0.24552755
000150 22 6c 89 bd 61 8c 77 be b1 bf a2 bd cb 03 9a be
       -0.06710078 -0.24174644 -0.079467185 -0.3008102
000160 db 34 c6 be f3 22 97 bd 3e 95 da be 33 39 80 be
       -0.387122 -0.07379713 -0.42691988 -0.2504364
000170 e5 6e 13 3d 56 2c 1b be a3 90 0a be be 94 b4 3d
       0.03599443 -0.15153632 -0.13531737 0.08817433
000180 d9 0d ad 3e a7 28 20 be 0c 4d cb 3e 92 e3 9e be
       0.33799627 -0.15640508 0.3970722 -0.31032997
000190 f9 59 11 3e 4a ed 85 be 8c 09 9e be 14 d2 19 bd
       0.14194478 -0.261576 -0.3086666 -0.03755386
0001a0 a5 a3 70 bd 34 d7 15 bd cb 0e 31 be 80 9b 88 b9
       -0.058749814 -0.036582187 -0.172908 -0.00026055798
0001b0 e9 cf 30 be eb d3 13 be e9 f1 9c bd 98 65 01 be
       -0.17266811 -0.14436309 -0.07663328 -0.12636411
0001c0 8a 52 a6 be d1 23 7f bd 68 32 ad 3e 63 5b e3 bd
       -0.32484847 -0.062290017 0.3382752 -0.11101415
0001d0 7d c8 88 3e bf 42 82 be d3 25 1c 3e ef 2f 95 be
       0.2671546 -0.25441548 0.15248804 -0.29138133
0001e0 6c d8 65 be 79 11 01 3d 9e 3a 89 be 58 23 67 3e
       -0.2244584 0.031510804 -0.26802534 0.22572076
0001f0 81 1d e2 bd a8 fd 78 3d f0 5f b1 be 89 95 27 bd
       -0.11040784 0.06078878 -0.34643507 -0.040914092
000200 b1 14 17 be 8a 6e 78 be 21 c0 14 be 89 d3 43 bc
       -0.14753987 -0.24260917 -0.14526416 -0.011952289
000210 45 83 72 bd 47 0e 91 be 2e 5b 87 bd 92 03 94 be
       -0.05920722 -0.28331205 -0.06609188 -0.28908974
000220 ae 2e cd be a4 3d 3b bd 71 e7 b7 be d1 14 c2 3d
       -0.40074676 -0.045713082 -0.35918763 0.09476627
000230 e3 5a c6 be 38 04 85 3e 05 ce 10 be 9a e0 80 3d
       -0.38741216 0.2597978 -0.1414109 0.06292839
000240 a6 e9 9b bc 72 95 50 be a0 4a 47 bd fd 66 94 be
       -0.01903231 -0.20369509 -0.048655152 -0.28984824
000250 9e f9 c2 be f8 d1 84 bd e7 2c 1a be 54 57 9d be
       -0.38081068 -0.06485361 -0.15056191 -0.3073069
000260 7e 7b 69 bd 81 e6 94 bd 6a 5d b9 be 78 20 c3 bd
       -0.057002537 -0.07270528 -0.36204082 -0.09527677
000270 02 52 8a be 54 a3 07 be 26 f5 cc bd 47 8b 67 be
       -0.27015692 -0.13245898 -0.10007696 -0.22611724
000280 8d 25 14 be 9a a5 a3 bd 88 1c 66 3e 13 3d ef bd
       -0.1446745 -0.0799057 0.22471821 -0.11681571
000290 b3 dc 98 3e 50 de a0 be 93 01 0d 3e 8d ed e2 bd
       0.2985588 -0.3141961 0.13770132 -0.110804655
0002a0 c8 d7 cd 3e a2 72 dc bd be 7d 70 3e d2 4c 86 be
       0.4020369 -0.10764052 0.23485467 -0.26230484
0002b0 ce bc 9e 3d b9 12 aa bd 95 8e b4 bd fd 3c b6 be
       0.077508554 -0.08304352 -0.08816258 -0.35593405
0002c0 19 95 b5 bd e3 5a 42 be 07 88 8f be b5 81 c2 bd
       -0.08866329 -0.18979983 -0.28033468 -0.09497396
0002d0 d2 38 98 be 75 dc 47 be 1d b5 cb bd 9b 8d 91 bd
       -0.2973085 -0.19517691 -0.09946654 -0.07107087
0002e0 6a f5 b1 be 92 ac 9b bd 3a 93 21 be ef 10 6b be
       -0.3475755 -0.076012745 -0.15778819 -0.22955678
0002f0 27 38 b6 bd 74 07 b7 bd fc b1 c2 be 3a 94 96 bd
       -0.08897429 -0.089369684 -0.38026416 -0.07352491
000300 bd 87 59 bd 59 7c 66 be 22 5a 7c bd 56 50 05 be
       -0.053107966 -0.22508372 -0.061609395 -0.13018927
000310 f2 81 76 be 04 69 03 bd 46 f8 83 be ab 65 5c be
       -0.24073008 -0.032082573 -0.25775355 -0.21523158
000320 a4 48 82 bd d4 3b 77 be 96 ab 63 be 51 58 27 bd
       -0.06361511 -0.24143916 -0.22233424 -0.04085571
000330 ea b5 34 be 6a 37 c2 bd 0b 0f af bd 11 91 6e be
       -0.1764752 -0.09483226 -0.08547791 -0.23297526
000340 d2 43 95 be 91 aa 08 bd 37 89 79 3c 98 f9 42 be
       -0.29153305 -0.03336579 0.0152304685 -0.19040525
000350 00 ff 22 3d 07 47 f0 be c9 d4 50 3d 27 2c af bd
       0.03979397 -0.4692919 0.050984178 -0.08553343
000360 d8 41 d5 be 16 a5 4b 3e 76 ab cc be d8 8e 28 3e
       -0.41651797 0.19887194 -0.39974564 0.1646074
000370 3e 80 8c bd 8a f3 67 3e 04 47 79 be 11 b6 a8 be
       -0.06860398 0.22651497 -0.24343497 -0.32951406
000380 7e 68 b6 bd 4b 16 94 be 67 e8 96 be 95 01 ca bd
       -0.08906649 -0.28923258 -0.29474184 -0.09863583
000390 c9 de ad be 51 76 64 3d bc 52 c3 bd 50 b6 69 bd
       -0.33959034 0.055776898 -0.09537265 -0.057058632
0003a0 cb 64 c7 be f7 2e ac 3b 7e 5c c8 bd 98 69 15 be
       -0.38944086 0.005254622 -0.097832665 -0.14591062
0003b0 fb 68 6b bd 1e 2d fd bc 58 8b 86 be f5 be 4f 3d
       -0.057473164 -0.030905303 -0.26278186 0.05071922
0003c0 c3 21 98 be fe 49 04 3e 42 81 e8 be 78 82 a0 3e
       -0.29713258 0.12918851 -0.45411116 0.3134954
0003d0 97 82 a0 bd 79 7b 71 3e 26 30 96 be 3d f8 9e 3d
       -0.07837408 0.23582257 -0.2933361 0.077621914
0003e0 d3 ec 8b be f4 4b 83 3e 90 fc d1 bd 18 d4 28 3e
       -0.2732912 0.25643885 -0.102532506 0.16487157
0003f0 88 6b 93 be 22 88 6f 3d bb e4 b0 be 2d fd ea 3e
       -0.28792977 0.058479436 -0.34549507 0.45896283

bayes_fc1.weight_rho f4 [64, 6]
000000 9e 38 b3 bf bf d9 cd bf 17 37 f7 3e 14 dd 75 bf
       -1.4001653 -1.6082076 0.48284218 -0.96040463
000010 30 ce fe bf f7 cb e2 3e 6e 0b 1b c0 e2 28 4d c0
       -1.9906673 0.44296238 -2.4225726 -3.2056203
000020 15 3d b3 be 72 95 13 c0 23 cc 3c c0 15 f5 7c be
       -0.3500754 -2.3059964 -2.9499595 -0.24702866
000030 61 26 0f c0 56 24 42 c0 61 d1 4f 3e 95 37 e9 bf
       -2.2367175 -3.0334678 0.20294715 -1.8220087
000040 ac 6a 2f c0 c0 08 2f 3e 67 9a 28 c0 43 eb 53 c0
       -2.7408857 0.17093182 -2.634424 -3.3112342
000050 ac 49 be be e0 82 31 c0 68 78 57 c0 70 e3 04 bf
       -0.37165582 -2.773613 -3.366724 -0.5190954
000060 1d 53 15 c0 69 9d 46 c0 a4 a3 1e be 8c 28 14 c0
       -2.3331978 -3.1033576 -0.15492111 -2.3149748
000070 88 61 46 c0 43 87 ce be 2d 88 05 c0 8d cf 35 c0
       -3.0997028 -0.40337572 -2.0864365 -2.840793
000080 87 01 13 bd 28 86 10 c0 2c bc 38 c0 ac c5 9f bd
       -0.03589013 -2.2581882 -2.886485 -0.07801375
000090 6b c1 ab bf 65 11 f8 bf 30 a1 02 3f b7 94 a5 bf
       -1.3418401 -1.9380308 0.510272 -1.2936009
0000a0 4f e1 fd bf d1 f3 d3 3e bf 27 d1 bf 00 b6 25 c0
       -1.9834384 0.41396955 -1.6340255 -2.5892334
0000b0 48 d9 75 3e f9 65 aa bf 85 9d 03 c0 ba 45 a7 3e
       0.24008667 -1.331237 -2.0564892 0.32670385
0000c0 ef 4b 1c c0 80 c9 3c c0 8f 39 c4 bd bd 79 19 c0
       -2.4421346 -2.9497986 -0.09581291 -2.3980553
0000d0 ff 6f 47 c0 1a 99 87 be fb 20 bb bf a0 06 0d c0
       -3.1162107 -0.26483995 -1.461944 -2.2035294
0000e0 8c 05 d7 3e 27 d7 e7 bf cd 85 1d c0 15 d7 db 3e
       0.4199642 -1.8112534 -2.4612916 0.42937532
0000f0 36 b8 9c bf 7b 81 08 c0 1e e5 fe 3e e2 4d a1 bf
       -1.2243717 -2.1329029 0.49784178 -1.2601893
000100 12 2e 0e c0 cc f9 dd 3e bb cd 14 c0 46 76 3c c0
       -2.221562 0.43354642 -2.3250568 -2.9447188
000110 e6 5e 4f be 83 21 1e c0 5c 18 46 c0 1f 23 83 be
       -0.20251045 -2.4707954 -3.0952368 -0.25612733
000120 20 c1 bc bf f9 a8 18 c0 8e 87 ec 3e b5 5d c9 bf
       -1.4746437 -2.3853133 0.4619717 -1.5731722
000130 26 8f d8 bf 41 c3 b9 3e 1e df 2d c0 38 ba 54 c0
       -1.6918685 0.3628178 -2.716743 -3.323866
000140 2c 9c f2 be ff f4 33 c0 37 35 54 c0 e3 57 07 bf
       -0.47384775 -2.8118284 -3.315748 -0.5286848
000150 e5 0a bf bf e0 cd 10 c0 68 61 ec 3e 85 49 94 bf
       -1.49252 -2.2625656 0.46168065 -1.1584936
000160 e1 e5 db bf 16 84 e4 3e c2 0a a3 bf 05 62 07 c0
       -1.7179528 0.44632024 -1.2737658 -2.1153576
000170 69 ba f1 3e ec 75 ed bf b0 84 37 c0 6f 94 b6 3e
       0.47212532 -1.8551612 -2.8674736 0.3566012
000180 10 6b 10 c0 ca 39 45 c0 b1 fc 10 be 35 8e 20 c0
       -2.2565346 -3.0816522 -0.14158894 -2.5086796
000190 17 71 49 c0 20 3f e1 bd d8 44 d1 bf 5e 5e 16 c0
       -3.1475275 -0.10998368 -1.6349134 -2.3495097
0001a0 88 b2 ae 3e 5b db c8 bf bd 5c 13 c0 7a 9a db 3e
       0.34120584 -1.5691942 -2.3025353 0.42891294
0001b0 89 f6 cc bf 18 41 07 c0 0f 71 d2 3e 12 64 b5 bf
       -1.6012737 -2.113348 0.41101882 -1.4171164
0001c0 b1 ad 09 c0 bf e3 bb 3e a7 f9 1b c0 0f fc 4e c0
       -2.1512263 0.36697194 -2.4371126 -3.2341344
0001d0 26 29 4e bf de 72 24 c0 a1 a0 4f c0 f4 8c ac be
       -0.8053154 -2.569511 -3.244179 -0.3370129
0001e0 4b 9f 10 c0 df 93 3b c0 0c bb d8 bd 1a 34 16 c0
       -2.2597225 -2.9309003 -0.10582551 -2.34693
0001f0 b5 44 42 c0 e0 83 21 be 51 fd dc bf 66 e1 2d c0
       -3.0354435 -0.15772963 -1.7264806 -2.7168822
000200 75 0f b3 3e 1b e0 d5 bf 2f 02 22 c0 3a 9d a1 3e
       0.3497273 -1.6709017 -2.5313833 0.31565267
000210 e4 17 87 bf 10 5b f3 bf d0 b3 04 3f 27 9a 54 bf
       -1.0554166 -1.9012165 0.5183687 -0.8304772
000220 ec 1a c6 bf 06 25 d8 3e 86 de 0c c0 eb d4 38 c0
       -1.5476966 0.42215747 -2.2010818 -2.8879955
000230 d4 4c 43 bc 24 65 0d c0 77 45 35 c0 56 22 4c bd
       -0.011920173 -2.2092981 -2.8323648 -0.049837433
000240 a2 78 af bf 9e 58 08 c0 fa 53 ec 3e 5d ba 7c bf
       -1.3708689 -2.1304088 0.4615782 -0.9872187
000250 e7 d9 e8 bf 2c 92 05 3f 36 ec a3 bf d3 c6 01 c0
       -1.8191499 0.52176166 -1.2806461 -2.0277603
000260 f9 11 06 3f 44 8c 99 bf 30 59 d3 bf 3b da e5 3e
       0.52371174 -1.1995931 -1.6511593 0.4489306
000270 c1 ac d1 bf 2f a5 20 c0 64 7b a8 3e 35 1a e4 bf
       -1.6380845 -2.510082 0.3290664 -1.7820498
000280 c4 61 23 c0 0a 6b a4 3e 45 26 24 c0 53 4c 4b c0
       -2.5528421 0.32112914 -2.5648358 -3.1765335
000290 09 ac c9 be 1a e4 29 c0 60 37 54 c0 bd 20 b7 be
       -0.39389065 -2.6545472 -3.3158798 -0.35767165
0002a0 76 63 36 c0 3c 1f 60 c0 ca ce 3f bf 48 46 39 c0
       -2.8498206 -3.5019064 -0.7492491 -2.8949146
0002b0 6c 75 63 c0 ac 86 50 bf 11 bd c2 bf 3a 1c 01 c0
       -3.5540419 -0.8145549 -1.5213948 -2.0173478
0002c0 84 77 00 3f 3a db 9c bf c9 c1 ea bf 87 48 a5 3e
       0.50182366 -1.2254403 -1.8340389 0.32281896
0002d0 0d d7 c9 bf 44 d6 0d c0 56 0d e9 3e db b0 e9 bf
       -1.5768753 -2.2162027 0.45517987 -1.8257097
0002e0 5f 31 08 c0 88 ad cc 3e e3 19 bb bf 2b 9a 05 c0
       -2.1280134 0.39976144 -1.4617275 -2.0875347
0002f0 ec ff e2 3e 2f 34 9e bf 0e 70 dd bf 41 5f d6 3e
       0.44335878 -1.2359675 -1.7299821 0.41869548
000300 d3 fc b4 bf 08 66 09 c0 e0 91 eb 3e ee 2d b2 bf
       -1.4139656 -2.1468525 0.4600973 -1.3920267
000310 c0 02 12 c0 aa 17 03 3f 22 a9 a4 bf 21 06 08 c0
       -2.2814178 0.51207983 -1.2864115 -2.125374
000320 a1 63 bf 3e da 48 ae bf 88 fd 0c c0 d3 16 99 3e
       0.37380698 -1.3615983 -2.2029743 0.29900226
000330 31 e6 c2 bf 63 a7 13 c0 9f 4f ed 3e b4 96 96 bf
       -1.5226499 -2.3070915 0.4634981 -1.1764741
000340 23 40 e8 bf 30 dc f7 3e cd 2d d9 bf 5a 50 20 c0
       -1.8144573 0.48410177 -1.6967102 -2.5049043
000350 8a 96 9f 3e 42 91 df bf e5 0b 25 c0 e9 99 89 3e
       0.3116954 -1.7466204 -2.578851 0.26875237
000360 d7 9d 20 c0 c0 ac 4a c0 ae 43 2d be 81 46 20 c0
       -2.5096338 -3.1667938 -0.16920349 -2.5043032
000370 d8 6c 48 c0 d0 60 6c be 17 a6 aa bf 58 73 ed bf
       -3.1316433 -0.23083806 -1.3331937 -1.8550825
000380 98 e8 9a 3e 81 20 b0 bf 92 9a fd bf 0c a4 ca 3e
       0.3025558 -1.375992 -1.9812796 0.39578283
000390 aa 8f ca bf de a4 29 c0 bf 1e 02 3f a1 ed bb bf
       -1.5825093 -2.6506877 0.50828165 -1.4681894
0003a0 1e bb fe bf fe 48 e3 3e 3e ed e0 bf df fe 1d c0
       -1.9900854 0.44391626 -1.75724 -2.468681
0003b0 7d 6c 98 3e fd c0 ee bf 0a c9 01 c0 da 7e b9 3e
       0.2977027 -1.8652645 -2.0278955 0.36229593
0003c0 52 b2 20 c0 a5 81 45 c0 7b 94 24 be 69 a7 16 c0
       -2.5108838 -3.0860379 -0.16072266 -2.353968
0003d0 c8 3a 46 c0 34 ae 98 be 40 01 1a c0 6b fd 3d c0
       -3.0973377 -0.29820406 -2.4063263 -2.9685924
0003e0 da 38 e3 bd 3d b7 18 c0 8d 3f 41 c0 b4 c2 1d be
       -0.11094828 -2.386184 -3.0195038 -0.15406305
0003f0 50 ca 12 c0 1d d5 3e c0 88 b7 a4 3c 1b 80 14 c0
       -2.2935982 -2.9817574 0.020107046 -2.320319

bayes_fc1.bias_mu f4 [64]
000000 2b 5b 12 be c5 72 00 bd 16 48 53 bd 92 b6 97 be
       -0.1429259 -0.031359453 -0.05158242 -0.29631478
000010 9d e3 4a be d8 5b 2b 3e 5b 6c 2a be 4b 67 38 bd
       -0.1981339 0.16734254 -0.16642897 -0.045020383
000020 47 c3 27 be 46 83 7a 3d 3f 2b 3d be 5f 8e ae be
       -0.16383086 0.06116035 -0.18473528 -0.34092996
000030 c3 6b ee bd 3c fe 1a 3d 83 4f e3 bd ed 57 76 3e
       -0.11641648 0.037840113 -0.1109915 0.24056979
000040 37 6c 9d 3d af 66 33 bd 04 63 2d be 0c 1c 0b 3d
       0.07686656 -0.0437991 -0.16932303 0.033962294
000050 75 d8 98 be 4c 51 26 be fd a1 44 be 90 45 44 be
       -0.29852644 -0.1624195 -0.19202419 -0.19167161
000060 0e 06 0d be 23 cc 0a be 64 b8 d1 bd 28 af 23 3e
       -0.13771841 -0.13554434 -0.10240248 0.15984786
000070 48 0d 55 3e 18 8d 1d be df fa 7f be 43 a1 fd bd
       0.20805848 -0.15385854 -0.24998043 -0.12384274
000080 1e 8e 3e be d7 7a 50 be d6 ec ce bd ab 02 ae bd
       -0.18608901 -0.2035936 -0.101037666 -0.084966026
000090 21 63 9b be 0f 25 06 be d1 9d aa bb be a0 73 bd
       -0.30349067 -0.13100074 -0.0052068015 -0.059479468
0000a0 8e a2 7d be 1f 6f 87 be 6d 6c 25 be 21 7b 58 be
       -0.24769041 -0.26451966 -0.16154642 -0.2114072
0000b0 73 5e 9c bd 17 d6 c5 bd ac 08 1b be a2 65 b4 bd
       -0.07635202 -0.09659975 -0.15140027 -0.088084474
0000c0 80 cd 1c be 52 36 dd bd e8 5f 31 be 39 6a f3 bd
       -0.15312767 -0.108013764 -0.17321742 -0.11885495
0000d0 dd 90 53 be 4c 96 d0 3d 11 72 2e be 85 4a 18 3e
       -0.2066073 0.10184917 -0.170357 0.14872177
0000e0 ab 63 74 bd c5 a4 17 3e 22 fb 3f 3e 18 53 a5 3d
       -0.059665363 0.14808948 0.18748143 0.080724895
0000f0 35 0b 16 be bd df b4 3d 43 a7 38 be 39 80 f5 bd
       -0.14652713 0.08831737 -0.18032555 -0.11987347

bayes_fc1.bias_rho f4 [64]
000000 01 13 85 3d a2 a6 98 bf 6b b4 05 bf e5 09 b1 bf
       0.06497765 -1.1925852 -0.5222842 -1.3831145
000010 8d d3 8e bf 69 bf 73 bf 20 98 99 3b 4f ac 63 be
       -1.115831 -0.95213944 0.004687324 -0.222337
000020 a8 83 89 bf d0 0e 03 be 3b b3 c8 3d 6e 83 78 bf
       -1.0743303 -0.1279862 0.097998105 -0.97075546
000030 24 2c 90 bd 5e ae b0 bf 4e 4f cb bd 9d d1 bc be
       -0.07039669 -1.3803213 -0.099272355 -0.36878672
000040 19 57 5f bf f6 f4 8b be ff 68 ca bd f5 ae 99 bf
       -0.87242275 -0.27335328 -0.09883308 -1.2006518
000050 10 8a 5d bf 60 ec 10 bf 42 4d 30 3e ee 96 60 bf
       -0.8653879 -0.5661068 0.17216972 -0.877303
000060 9d 5d 48 3e 17 63 fb 3d 57 62 b2 be 82 30 ac bf
       0.1956696 0.12274759 -0.34840652 -1.3452303
000070 19 39 c5 bf 75 0a 3d 3d af 1b 0a bd ef 4a 07 3d
       -1.540805 0.04615255 -0.033717807 0.033030447
000080 59 78 5b 3e 31 6f 9d 3d 9c e5 a2 bd 9f 6f 9f be
       0.21432628 0.07687224 -0.07953951 -0.31139848
000090 72 a7 8f bf 9d 24 85 be 99 d9 12 bd 82 71 91 be
       -1.1222975 -0.26004496 -0.03585205 -0.28406912
0000a0 20 c1 8c bf 07 49 86 bf 10 f8 58 bf f7 dc c6 3b
       -1.0996437 -1.0491036 -0.84753513 0.0060688215
0000b0 42 77 b5 3d 49 31 0f 3e bf 86 8c be 67 36 76 bf
       0.08860637 0.13983645 -0.27446553 -0.9617676
0000c0 2f 40 16 be 92 cc dc 3d bb 6a 31 be d0 10 76 3c
       -0.14672922 0.10781206 -0.1732587 0.015018657
0000d0 3b 56 61 3d 56 df bb bf 3e fc 52 be 49 86 ae bf
       0.055013876 -1.4677532 -0.20604035 -1.363473
0000e0 2b fc 89 bf 71 0e 3f bf 3d b8 a6 be 64 2d 6d be
       -1.078008 -0.7463141 -0.32562438 -0.23161846
0000f0 85 6f 2a 3e 5c 6e 9e be 56 1f 99 bf 01 ed b3 bd
       0.16644104 -0.30943573 -1.1962688 -0.08785439

bayes_fc1.prior_mu_old_bias f4 [64]
000000 00 00 00 00 00 00 00 00 00 00 00 00 00 00 00 00
       0.0 0.0 0.0 0.0
000010 00 00 00 00 00 00 00 00 00 00 00 00 00 00 00 00
       0.0 0.0 0.0 0.0
000020 00 00 00 00 00 00 00 00 00 00 00 00 00 00 00 00
       0.0 0.0 0.0 0.0
000030 00 00 00 00 00 00 00 00 00 00 00 00 00 00 00 00
       0.0 0.0 0.0 0.0
000040 00 00 00 00 00 00 00 00 00 00 00 00 00 00 00 00
       0.0 0.0 0.0 0.0
000050 00 00 00 00 00 00 00 00 00 00 00 00 00 00 00 00
       0.0 0.0 0.0 0.0
000060 00 00 00 00 00 00 00 00 00 00 00 00 00 00 00 00
       0.0 0.0 0.0 0.0
000070 00 00 00 00 00 00 00 00 00 00 00 00 00 00 00 00
       0.0 0.0 0.0 0.0
000080 00 00 00 00 00 00 00 00 00 00 00 00 00 00 00 00
       0.0 0.0 0.0 0.0
000090 00 00 00 00 00 00 00 00 00 00 00 00 00 00 00 00
       0.0 0.0 0.0 0.0
0000a0 00 00 00 00 00 00 00 00 00 00 00 00 00 00 00 00
       0.0 0.0 0.0 0.0
0000b0 00 00 00 00 00 00 00 00 00 00 00 00 00 00 00 00
       0.0 0.0 0.0 0.0
0000c0 00 00 00 00 00 00 00 00 00 00 00 00 00 00 00 00
       0.0 0.0 0.0 0.0
0000d0 00 00 00 00 00 00 00 00 00 00 00 00 00 00 00 00
       0.0 0.0 0.0 0.0
0000e0 00 00 00 00 00 00 00 00 00 00 00 00 00 00 00 00
       0.0 0.0 0.0 0.0
0000f0 00 00 00 00 00 00 00 00 00 00 00 00 00 00 00 00
       0.0 0.0 0.0 0.0

bayes_fc1.prior_sigma_small_bias f4 [64]
000000 00 00 80 3f 00 00 80 3f 00 00 80 3f 00 00 80 3f
       1.0 1.0 1.0 1.0
000010 00 00 80 3f 00 00 80 3f 00 00 80 3f 00 00 80 3f
       1.0 1.0 1.0 1.0
000020 00 00 80 3f 00 00 80 3f 00 00 80 3f 00 00 80 3f
       1.0 1.0 1.0 1.0
000030 00 00 80 3f 00 00 80 3f 00 00 80 3f 00 00 80 3f
       1.0 1.0 1.0 1.0
000040 00 00 80 3f 00 00 80 3f 00 00 80 3f 00 00 80 3f
       1.0 1.0 1.0 1.0
000050 00 00 80 3f 00 00 80 3f 00 00 80 3f 00 00 80 3f
       1.0 1.0 1.0 1.0
000060 00 00 80 3f 00 00 80 3f 00 00 80 3f 00 00 80 3f
       1.0 1.0 1.0 1.0
000070 00 00 80 3f 00 00 80 3f 00 00 80 3f 00 00 80 3f
       1.0 1.0 1.0 1.0
000080 00 00 80 3f 00 00 80 3f 00 00 80 3f 00 00 80 3f
       1.0 1.0 1.0 1.0
000090 00 00 80 3f 00 00 80 3f 00 00 80 3f 00 00 80 3f
       1.0 1.0 1.0 1.0
0000a0 00 00 80 3f 00 00 80 3f 00 00 80 3f 00 00 80 3f
       1.0 1.0 1.0 1.0
0000b0 00 00 80 3f 00 00 80 3f 00 00 80 3f 00 00 80 3f
       1.0 1.0 1.0 1.0
0000c0 00 00 80 3f 00 00 80 3f 00 00 80 3f 00 00 80 3f
       1.0 1.0 1.0 1.0
0000d0 00 00 80 3f 00 00 80 3f 00 00 80 3f 00 00 80 3f
       1.0 1.0 1.0 1.0
0000e0 00 00 80 3f 00 00 80 3f 00 00 80 3f 00 00 80 3f
       1.0 1.0 1.0 1.0
0000f0 00 00 80 3f 00 00 80 3f 00 00 80 3f 00 00 80 3f
       1.0 1.0 1.0 1.0

bayes_fc1.prior_mu_old f4 [64, 6]
000000 00 00 00 00 00 00 00 00 00 00 00 00 00 00 00 00
       0.0 0.0 0.0 0.0
000010 00 00 00 00 00 00 00 00 00 00 00 00 00 00 00 00
       0.0 0.0 0.0 0.0
000020 00 00 00 00 00 00 00 00 00 00 00 00 00 00 00 00
       0.0 0.0 0.0 0.0
000030 00 00 00 00 00 00 00 00 00 00 00 00 00 00 00 00
       0.0 0.0 0.0 0.0
000040 00 00 00 00 00 00 00 00 00 00 00 00 00 00 00 00
       0.0 0.0 0.0 0.0
000050 00 00 00 00 00 00 00 00 00 00 00 00 00 00 00 00
       0.0 0.0 0.0 0.0
000060 00 00 00 00 00 00 00 00 00 00 00 00 00 00 00 00
       0.0 0.0 0.0 0.0
000070 00 00 00 00 00 00 00 00 00 00 00 00 00 00 00 00
       0.0 0.0 0.0 0.0
000080 00 00 00 00 00 00 00 00 00 00 00 00 00 00 00 00
       0.0 0.0 0.0 0.0
000090 00 00 00 00 00 00 00 00 00 00 00 00 00 00 00 00
       0.0 0.0 0.0 0.0
0000a0 00 00 00 00 00 00 00 00 00 00 00 00 00 00 00 00
       0.0 0.0 0.0 0.0
0000b0 00 00 00 00 00 00 00 00 00 00 00 00 00 00 00 00
       0.0 0.0 0.0 0.0
0000c0 00 00 00 00 00 00 00 00 00 00 00 00 00 00 00 00
       0.0 0.0 0.0 0.0
0000d0 00 00 00 00 00 00 00 00 00 00 00 00 00 00 00 00
       0.0 0.0 0.0 0.0
0000e0 00 00 00 00 00 00 00 00 00 00 00 00 00 00 00 00
       0.0 0.0 0.0 0.0
0000f0 00 00 00 00 00 00 00 00 00 00 00 00 00 00 00 00
       0.0 0.0 0.0 0.0
000100 00 00 00 00 00 00 00 00 00 00 00 00 00 00 00 00
       0.0 0.0 0.0 0.0
000110 00 00 00 00 00 00 00 00 00 00 00 00 00 00 00 00
       0.0 0.0 0.0 0.0
000120 00 00 00 00 00 00 00 00 00 00 00 00 00 00 00 00
       0.0 0.0 0.0 0.0
000130 00 00 00 00 00 00 00 00 00 00 00 00 00 00 00 00
       0.0 0.0 0.0 0.0
000140 00 00 00 00 00 00 00 00 00 00 00 00 00 00 00 00
       0.0 0.0 0.0 0.0
000150 00 00 00 00 00 00 00 00 00 00 00 00 00 00 00 00
       0.0 0.0 0.0 0.0
000160 00 00 00 00 00 00 00 00 00 00 00 00 00 00 00 00
       0.0 0.0 0.0 0.0
000170 00 00 00 00 00 00 00 00 00 00 00 00 00 00 00 00
       0.0 0.0 0.0 0.0
000180 00 00 00 00 00 00 00 00 00 00 00 00 00 00 00 00
       0.0 0.0 0.0 0.0
000190 00 00 00 00 00 00 00 00 00 00 00 00 00 00 00 00
       0.0 0.0 0.0 0.0
0001a0 00 00 00 00 00 00 00 00 00 00 00 00 00 00 00 00
       0.0 0.0 0.0 0.0
0001b0 00 00 00 00 00 00 00 00 00 00 00 00 00 00 00 00
       0.0 0.0 0.0 0.0
0001c0 00 00 00 00 00 00 00 00 00 00 00 00 00 00 00 00
       0.0 0.0 0.0 0.0
0001d0 00 00 00 00 00 00 00 00 00 00 00 00 00 00 00 00
       0.0 0.0 0.0 0.0
0001e0 00 00 00 00 00 00 00 00 00 00 00 00 00 00 00 00
       0.0 0.0 0.0 0.0
0001f0 00 00 00 00 00 00 00 00 00 00 00 00 00 00 00 00
       0.0 0.0 0.0 0.0
000200 00 00 00 00 00 00 00 00 00 00 00 00 00 00 00 00
       0.0 0.0 0.0 0.0
000210 00 00 00 00 00 00 00 00 00 00 00 00 00 00 00 00
       0.0 0.0 0.0 0.0
000220 00 00 00 00 00 00 00 00 00 00 00 00 00 00 00 00
       0.0 0.0 0.0 0.0
000230 00 00 00 00 00 00 00 00 00 00 00 00 00 00 00 00
       0.0 0.0 0.0 0.0
000240 00 00 00 00 00 00 00 00 00 00 00 00 00 00 00 00
       0.0 0.0 0.0 0.0
000250 00 00 00 00 00 00 00 00 00 00 00 00 00 00 00 00
       0.0 0.0 0.0 0.0
000260 00 00 00 00 00 00 00 00 00 00 00 00 00 00 00 00
       0.0 0.0 0.0 0.0
000270 00 00 00 00 00 00 00 00 00 00 00 00 00 00 00 00
       0.0 0.0 0.0 0.0
000280 00 00 00 00 00 00 00 00 00 00 00 00 00 00 00 00
       0.0 0.0 0.0 0.0
000290 00 00 00 00 00 00 00 00 00 00 00 00 00 00 00 00
       0.0 0.0 0.0 0.0
0002a0 00 00 00 00 00 00 00 00 00 00 00 00 00 00 00 00
       0.0 0.0 0.0 0.0
0002b0 00 00 00 00 00 00 00 00 00 00 00 00 00 00 00 00
       0.0 0.0 0.0 0.0
0002c0 00 00 00 00 00 00 00 00 00 00 00 00 00 00 00 00
       0.0 0.0 0.0 0.0
0002d0 00 00 00 00 00 00 00 00 00 00 00 00 00 00 00 00
       0.0 0.0 0.0 0.0
0002e0 00 00 00 00 00 00 00 00 00 00 00 00 00 00 00 00
       0.0 0.0 0.0 0.0
0002f0 00 00 00 00 00 00 00 00 00 00 00 00 00 00 00 00
       0.0 0.0 0.0 0.0
000300 00 00 00 00 00 00 00 00 00 00 00 00 00 00 00 00
       0.0 0.0 0.0 0.0
000310 00 00 00 00 00 00 00 00 00 00 00 00 00 00 00 00
       0.0 0.0 0.0 0.0
000320 00 00 00 00 00 00 00 00 00 00 00 00 00 00 00 00
       0.0 0.0 0.0 0.0
000330 00 00 00 00 00 00 00 00 00 00 00 00 00 00 00 00
       0.0 0.0 0.0 0.0
000340 00 00 00 00 00 00 00 00 00 00 00 00 00 00 00 00
       0.0 0.0 0.0 0.0
000350 00 00 00 00 00 00 00 00 00 00 00 00 00 00 00 00
       0.0 0.0 0.0 0.0
000360 00 00 00 00 00 00 00 00 00 00 00 00 00 00 00 00
       0.0 0.0 0.0 0.0
000370 00 00 00 00 00 00 00 00 00 00 00 00 00 00 00 00
       0.0 0.0 0.0 0.0
000380 00 00 00 00 00 00 00 00 00 00 00 00 00 00 00 00
       0.0 0.0 0.0 0.0
000390 00 00 00 00 00 00 00 00 00 00 00 00 00 00 00 00
       0.0 0.0 0.0 0.0
0003a0 00 00 00 00 00 00 00 00 00 00 00 00 00 00 00 00
       0.0 0.0 0.0 0.0
0003b0 00 00 00 00 00 00 00 00 00 00 00 00 00 00 00 00
       0.0 0.0 0.0 0.0
0003c0 00 00 00 00 00 00 00 00 00 00 00 00 00 00 00 00
       0.0 0.0 0.0 0.0
0003d0 00 00 00 00 00 00 00 00 00 00 00 00 00 00 00 00
       0.0 0.0 0.0 0.0
0003e0 00 00 00 00 00 00 00 00 00 00 00 00 00 00 00 00
       0.0 0.0 0.0 0.0
0003f0 00 00 00 00 00 00 00 00 00 00 00 00 00 00 00 00
       0.0 0.0 0.0 0.0

bayes_fc1.prior_sigma_small f4 [64, 6]
000000 00 00 80 3f 00 00 80 3f 00 00 80 3f 00 00 80 3f
       1.0 1.0 1.0 1.0
000010 00 00 80 3f 00 00 80 3f 00 00 80 3f 00 00 80 3f
       1.0 1.0 1.0 1.0
000020 00 00 80 3f 00 00 80 3f 00 00 80 3f 00 00 80 3f
       1.0 1.0 1.0 1.0
000030 00 00 80 3f 00 00 80 3f 00 00 80 3f 00 00 80 3f
       1.0 1.0 1.0 1.0
000040 00 00 80 3f 00 00 80 3f 00 00 80 3f 00 00 80 3f
       1.0 1.0 1.0 1.0
000050 00 00 80 3f 00 00 80 3f 00 00 80 3f 00 00 80 3f
       1.0 1.0 1.0 1.0
000060 00 00 80 3f 00 00 80 3f 00 00 80 3f 00 00 80 3f
       1.0 1.0 1.0 1.0
000070 00 00 80 3f 00 00 80 3f 00 00 80 3f 00 00 80 3f
       1.0 1.0 1.0 1.0
000080 00 00 80 3f 00 00 80 3f 00 00 80 3f 00 00 80 3f
       1.0 1.0 1.0 1.0
000090 00 00 80 3f 00 00 80 3f 00 00 80 3f 00 00 80 3f
       1.0 1.0 1.0 1.0
0000a0 00 00 80 3f 00 00 80 3f 00 00 80 3f 00 00 80 3f
       1.0 1.0 1.0 1.0
0000b0 00 00 80 3f 00 00 80 3f 00 00 80 3f 00 00 80 3f
       1.0 1.0 1.0 1.0
0000c0 00 00 80 3f 00 00 80 3f 00 00 80 3f 00 00 80 3f
       1.0 1.0 1.0 1.0
0000d0 00 00 80 3f 00 00 80 3f 00 00 80 3f 00 00 80 3f
       1.0 1.0 1.0 1.0
0000e0 00 00 80 3f 00 00 80 3f 00 00 80 3f 00 00 80 3f
       1.0 1.0 1.0 1.0
0000f0 00 00 80 3f 00 00 80 3f 00 00 80 3f 00 00 80 3f
       1.0 1.0 1.0 1.0
000100 00 00 80 3f 00 00 80 3f 00 00 80 3f 00 00 80 3f
       1.0 1.0 1.0 1.0
000110 00 00 80 3f 00 00 80 3f 00 00 80 3f 00 00 80 3f
       1.0 1.0 1.0 1.0
000120 00 00 80 3f 00 00 80 3f 00 00 80 3f 00 00 80 3f
       1.0 1.0 1.0 1.0
000130 00 00 80 3f 00 00 80 3f 00 00 80 3f 00 00 80 3f
       1.0 1.0 1.0 1.0
000140 00 00 80 3f 00 00 80 3f 00 00 80 3f 00 00 80 3f
       1.0 1.0 1.0 1.0
000150 00 00 80 3f 00 00 80 3f 00 00 80 3f 00 00 80 3f
       1.0 1.0 1.0 1.0
000160 00 00 80 3f 00 00 80 3f 00 00 80 3f 00 00 80 3f
       1.0 1.0 1.0 1.0
000170 00 00 80 3f 00 00 80 3f 00 00 80 3f 00 00 80 3f
       1.0 1.0 1.0 1.0
000180 00 00 80 3f 00 00 80 3f 00 00 80 3f 00 00 80 3f
       1.0 1.0 1.0 1.0
000190 00 00 80 3f 00 00 80 3f 00 00 80 3f 00 00 80 3f
       1.0 1.0 1.0 1.0
0001a0 00 00 80 3f 00 00 80 3f 00 00 80 3f 00 00 80 3f
       1.0 1.0 1.0 1.0
0001b0 00 00 80 3f 00 00 80 3f 00 00 80 3f 00 00 80 3f
       1.0 1.0 1.0 1.0
0001c0 00 00 80 3f 00 00 80 3f 00 00 80 3f 00 00 80 3f
       1.0 1.0 1.0 1.0
0001d0 00 00 80 3f 00 00 80 3f 00 00 80 3f 00 00 80 3f
       1.0 1.0 1.0 1.0
0001e0 00 00 80 3f 00 00 80 3f 00 00 80 3f 00 00 80 3f
       1.0 1.0 1.0 1.0
0001f0 00 00 80 3f 00 00 80 3f 00 00 80 3f 00 00 80 3f
       1.0 1.0 1.0 1.0
000200 00 00 80 3f 00 00 80 3f 00 00 80 3f 00 00 80 3f
       1.0 1.0 1.0 1.0
000210 00 00 80 3f 00 00 80 3f 00 00 80 3f 00 00 80 3f
       1.0 1.0 1.0 1.0
000220 00 00 80 3f 00 00 80 3f 00 00 80 3f 00 00 80 3f
       1.0 1.0 1.0 1.0
000230 00 00 80 3f 00 00 80 3f 00 00 80 3f 00 00 80 3f
       1.0 1.0 1.0 1.0
000240 00 00 80 3f 00 00 80 3f 00 00 80 3f 00 00 80 3f
       1.0 1.0 1.0 1.0
000250 00 00 80 3f 00 00 80 3f 00 00 80 3f 00 00 80 3f
       1.0 1.0 1.0 1.0
000260 00 00 80 3f 00 00 80 3f 00 00 80 3f 00 00 80 3f
       1.0 1.0 1.0 1.0
000270 00 00 80 3f 00 00 80 3f 00 00 80 3f 00 00 80 3f
       1.0 1.0 1.0 1.0
000280 00 00 80 3f 00 00 80 3f 00 00 80 3f 00 00 80 3f
       1.0 1.0 1.0 1.0
000290 00 00 80 3f 00 00 80 3f 00 00 80 3f 00 00 80 3f
       1.0 1.0 1.0 1.0
0002a0 00 00 80 3f 00 00 80 3f 00 00 80 3f 00 00 80 3f
       1.0 1.0 1.0 1.0
0002b0 00 00 80 3f 00 00 80 3f 00 00 80 3f 00 00 80 3f
       1.0 1.0 1.0 1.0
0002c0 00 00 80 3f 00 00 80 3f 00 00 80 3f 00 00 80 3f
       1.0 1.0 1.0 1.0
0002d0 00 00 80 3f 00 00 80 3f 00 00 80 3f 00 00 80 3f
       1.0 1.0 1.0 1.0
0002e0 00 00 80 3f 00 00 80 3f 00 00 80 3f 00 00 80 3f
       1.0 1.0 1.0 1.0
0002f0 00 00 80 3f 00 00 80 3f 00 00 80 3f 00 00 80 3f
       1.0 1.0 1.0 1.0
000300 00 00 80 3f 00 00 80 3f 00 00 80 3f 00 00 80 3f
       1.0 1.0 1.0 1.0
000310 00 00 80 3f 00 00 80 3f 00 00 80 3f 00 00 80 3f
       1.0 1.0 1.0 1.0
000320 00 00 80 3f 00 00 80 3f 00 00 80 3f 00 00 80 3f
       1.0 1.0 1.0 1.0
000330 00 00 80 3f 00 00 80 3f 00 00 80 3f 00 00 80 3f
       1.0 1.0 1.0 1.0
000340 00 00 80 3f 00 00 80 3f 00 00 80 3f 00 00 80 3f
       1.0 1.0 1.0 1.0
000350 00 00 80 3f 00 00 80 3f 00 00 80 3f 00 00 80 3f
       1.0 1.0 1.0 1.0
000360 00 00 80 3f 00 00 80 3f 00 00 80 3f 00 00 80 3f
       1.0 1.0 1.0 1.0
000370 00 00 80 3f 00 00 80 3f 00 00 80 3f 00 00 80 3f
       1.0 1.0 1.0 1.0
000380 00 00 80 3f 00 00 80 3f 00 00 80 3f 00 00 80 3f
       1.0 1.0 1.0 1.0
000390 00 00 80 3f 00 00 80 3f 00 00 80 3f 00 00 80 3f
       1.0 1.0 1.0 1.0
0003a0 00 00 80 3f 00 00 80 3f 00 00 80 3f 00 00 80 3f
       1.0 1.0 1.0 1.0
0003b0 00 00 80 3f 00 00 80 3f 00 00 80 3f 00 00 80 3f
       1.0 1.0 1.0 1.0
0003c0 00 00 80 3f 00 00 80 3f 00 00 80 3f 00 00 80 3f
       1.0 1.0 1.0 1.0
0003d0 00 00 80 3f 00 00 80 3f 00 00 80 3f 00 00 80 3f
       1.0 1.0 1.0 1.0
0003e0 00 00 80 3f 00 00 80 3f 00 00 80 3f 00 00 80 3f
       1.0 1.0 1.0 1.0
0003f0 00 00 80 3f 00 00 80 3f 00 00 80 3f 00 00 80 3f
       1.0 1.0 1.0 1.0

bayes_fc2.weight_mu f4 [1, 64]
000000 6c 2d fc 3a 39 c9 de 3d 79 e4 9d bd 69 e9 93 bd
       0.0019239611 0.10878224 -0.07709593 -0.07222254
000010 ce 41 89 bd d3 aa 36 3d 28 6f 0f bd b4 ed ca bc
       -0.067020044 0.044596504 -0.035018116 -0.024771549
000020 80 ea df bd 33 13 16 3d 5d 56 f8 3c 7d dd 7c bd
       -0.10933399 0.036639404 0.030314619 -0.061734665
000030 20 5a 68 bd 71 e8 f5 3d 0c bf b1 3d db a7 41 3e
       -0.056726575 0.12007225 0.086790174 0.18911688
000040 3b a9 80 3d c6 72 3b bd 65 ba 37 3c 89 c6 f0 3d
       0.06282278 -0.045763753 0.0112138735 0.117566176
000050 42 e2 96 bd 88 f6 a0 bc 95 85 8d bc 09 14 4f bd
       -0.07367374 -0.019648805 -0.017275611 -0.050556216
000060 bd d1 04 3d b2 83 82 3a 4b b5 25 3e e0 95 81 3d
       0.032426585 0.0009957461 0.16182439 0.063274145
000070 4b 18 dc 3d cb a9 4d bd 4d 1b a6 bd 2f 18 e8 39
       0.10746821 -0.050210755 -0.08110676 0.00044268506
000080 c2 51 56 bd 81 66 a5 bd cd d6 e2 bc c3 4f a4 3c
       -0.052324064 -0.08076192 -0.027690316 0.020057565
000090 b4 71 b9 bd ce 97 b3 bc 4c a9 d4 3a 26 7d 96 3d
       -0.0905489 -0.021922972 0.0016224771 0.07348089
0000a0 71 3a c4 bd aa 67 96 bd 50 c4 44 bd a1 66 a3 3c
       -0.09581459 -0.07343991 -0.04803878 0.019946398
0000b0 be ac ed 3b 1f 7a 09 3d 21 e6 b8 bd 5d 49 c5 bd
       0.0072532585 0.03356373 -0.090282686 -0.096331336
0000c0 4f cc 08 bd 4e 73 00 3d fe e7 e8 3c 50 17 1c bd
       -0.03339797 0.031359963 0.028430935 -0.03810817
0000d0 87 2f 78 3c 17 63 c8 3d 00 00 2b bd 1f 42 be 3d
       0.01514805 0.09784525 -0.041748047 0.09289955
0000e0 d2 26 9c 3d b7 7f 40 3d 11 82 8a 3d 73 f2 80 3d
       0.07624592 0.0469968 0.067630894 0.062962435
0000f0 43 b1 fd bc 41 10 af 3c 15 49 e2 bd bd 38 be 3d
       -0.030968314 0.021370055 -0.110490955 0.09288166

bayes_fc2.weight_rho f4 [1, 64]
000000 26 d5 b3 bf 93 d8 57 c0 9b 45 40 c0 ee da 56 c0
       -1.4049423 -3.3725936 -3.0042484 -3.3571124
000010 fe 16 57 c0 3e 91 40 c0 6a d6 b6 bf 53 53 3a c0
       -3.3607783 -3.0088649 -1.4284184 -2.9113357
000020 ca 62 4e c0 1f 93 02 c0 23 bf 30 c0 2c 63 38 c0
       -3.2247796 -2.0402296 -2.761666 -2.881053
000030 fe 00 e9 bf 03 5d 61 c0 91 fb c0 bf 86 ef 8e bf
       -1.8203428 -3.521302 -1.5076772 -1.1166847
000040 af 95 59 c0 ce 03 26 c0 1e a0 ea bf 8c 9a 51 c0
       -3.399761 -2.5939822 -1.8330114 -3.2750578
000050 b5 78 3b c0 28 fd 0b c0 20 dd fe bf ff 31 4d c0
       -2.9292424 -2.1873264 -1.9911232 -3.2061765
000060 08 ac 18 c0 bb 9d 05 c0 06 d7 6f bf 9c 09 4f c0
       -2.3855 -2.087752 -0.93687475 -3.2349615
000070 47 b1 53 c0 a7 28 94 bf 88 b3 af bf 3b 48 d1 bf
       -3.3076952 -1.1574906 -1.3726664 -1.6350168
000080 5a cf 15 c0 6c ed b8 bf bb 47 0e c0 4f d4 3a c0
       -2.3407807 -1.4447455 -2.223128 -2.9192083
000090 8c dc 59 c0 1f 9b 20 bf 02 bf 38 c0 e3 75 80 bf
       -3.404086 -0.62736696 -2.8866582 -1.0035976
0000a0 9c bb 49 c0 47 66 47 c0 50 40 4f c0 7a 90 06 c0
       -3.1520758 -3.1156175 -3.2383003 -2.1025681
0000b0 35 2a 10 c0 55 03 bf bf 3f 84 b9 bf fc 83 4c c0
       -2.252576 -1.4922892 -1.4493483 -3.1955557
0000c0 01 41 cf bf bd 17 1c c0 a2 a0 38 c0 ba 5c 1e c0
       -1.6191713 -2.4389489 -2.8848042 -2.4744096
0000d0 7e 73 df bf 19 f5 57 c0 24 a1 c4 bf ab 26 4d c0
       -1.745712 -3.3743346 -1.5361676 -3.205485
0000e0 59 50 45 c0 5e 9b 48 c0 61 8f 13 c0 d1 9a 41 c0
       -3.083029 -3.1344829 -2.3056262 -3.0250742
0000f0 e4 11 b1 bf 7d 68 35 c0 1f 44 4e c0 65 e1 10 c0
       -1.3833585 -2.8345025 -3.2229078 -2.263757

bayes_fc2.prior_mu_old f4 [1, 64]
000000 00 00 00 00 00 00 00 00 00 00 00 00 00 00 00 00
       0.0 0.0 0.0 0.0
000010 00 00 00 00 00 00 00 00 00 00 00 00 00 00 00 00
       0.0 0.0 0.0 0.0
000020 00 00 00 00 00 00 00 00 00 00 00 00 00 00 00 00
       0.0 0.0 0.0 0.0
000030 00 00 00 00 00 00 00 00 00 00 00 00 00 00 00 00
       0.0 0.0 0.0 0.0
000040 00 00 00 00 00 00 00 00 00 00 00 00 00 00 00 00
       0.0 0.0 0.0 0.0
000050 00 00 00 00 00 00 00 00 00 00 00 00 00 00 00 00
       0.0 0.0 0.0 0.0
000060 00 00 00 00 00 00 00 00 00 00 00 00 00 00 00 00
       0.0 0.0 0.0 0.0
000070 00 00 00 00 00 00 00 00 00 00 00 00 00 00 00 00
       0.0 0.0 0.0 0.0
000080 00 00 00 00 00 00 00 00 00 00 00 00 00 00 00 00
       0.0 0.0 0.0 0.0
000090 00 00 00 00 00 00 00 00 00 00 00 00 00 00 00 00
       0.0 0.0 0.0 0.0
0000a0 00 00 00 00 00 00 00 00 00 00 00 00 00 00 00 00
       0.0 0.0 0.0 0.0
0000b0 00 00 00 00 00 00 00 00 00 00 00 00 00 00 00 00
       0.0 0.0 0.0 0.0
0000c0 00 00 00 00 00 00 00 00 00 00 00 00 00 00 00 00
       0.0 0.0 0.0 0.0
0000d0 00 00 00 00 00 00 00 00 00 00 00 00 00 00 00 00
       0.0 0.0 0.0 0.0
0000e0 00 00 00 00 00 00 00 00 00 00 00 00 00 00 00 00
       0.0 0.0 0.0 0.0
0000f0 00 00 00 00 00 00 00 00 00 00 00 00 00 00 00 00
       0.0 0.0 0.0 0.0

bayes_fc2.prior_sigma_small f4 [1, 64]
000000 00 00 80 3f 00 00 80 3f 00 00 80 3f 00 00 80 3f
       1.0 1.0 1.0 1.0
000010 00 00 80 3f 00 00 80 3f 00 00 80 3f 00 00 80 3f
       1.0 1.0 1.0 1.0
000020 00 00 80 3f 00 00 80 3f 00 00 80 3f 00 00 80 3f
       1.0 1.0 1.0 1.0
000030 00 00 80 3f 00 00 80 3f 00 00 80 3f 00 00 80 3f
       1.0 1.0 1.0 1.0
000040 00 00 80 3f 00 00 80 3f 00 00 80 3f 00 00 80 3f
       1.0 1.0 1.0 1.0
000050 00 00 80 3f 00 00 80 3f 00 00 80 3f 00 00 80 3f
       1.0 1.0 1.0 1.0
000060 00 00 80 3f 00 00 80 3f 00 00 80 3f 00 00 80 3f
       1.0 1.0 1.0 1.0
000070 00 00 80 3f 00 00 80 3f 00 00 80 3f 00 00 80 3f
       1.0 1.0 1.0 1.0
000080 00 00 80 3f 00 00 80 3f 00 00 80 3f 00 00 80 3f
       1.0 1.0 1.0 1.0
000090 00 00 80 3f 00 00 80 3f 00 00 80 3f 00 00 80 3f
       1.0 1.0 1.0 1.0
0000a0 00 00 80 3f 00 00 80 3f 00 00 80 3f 00 00 80 3f
       1.0 1.0 1.0 1.0
0000b0 00 00 80 3f 00 00 80 3f 00 00 80 3f 00 00 80 3f
       1.0 1.0 1.0 1.0
0000c0 00 00 80 3f 00 00 80 3f 00 00 80 3f 00 00 80 3f
       1.0 1.0 1.0 1.0
0000d0 00 00 80 3f 00 00 80 3f 00 00 80 3f 00 00 80 3f
       1.0 1.0 1.0 1.0
0000e0 00 00 80 3f 00 00 80 3f 00 00 80 3f 00 00 80 3f
       1.0 1.0 1.0 1.0
0000f0 00 00 80 3f 00 00 80 3f 00 00 80 3f 00 00 80 3f
       1.0 1.0 1.0 1.0

exp_avg f4 [64, 6]
000000 95 ca f4 b6 d1 8c f1 b7 38 80 1e 37 4b 80 18 b8
       -7.2953503e-06 -2.8795012e-05 9.447387e-06 -3.6359106e-05
000010 ee 8a 60 b7 ac d8 ae 37 5b bd f4 3a d7 ed 59 3c
       -1.33837875e-05 2.0843312e-05 0.0018672155 0.013301334
000020 ff 55 28 38 7d b2 59 bb ef 75 76 3a 9e 7c 87 b7
       4.013441e-05 -0.003321796 0.0009401729 -1.6151283e-05
000030 22 ca b0 3b b7 dd bc bb 6a a4 f3 39 e4 08 2d 3c
       0.00539519 -0.005763735 0.0004647107 0.010561202
000040 c9 9b d5 bb 9d e7 e1 39 8b 22 41 3b f0 52 cd 3b
       -0.006518815 0.0004308791 0.0029470052 0.0062659904
000050 49 ad 1c b8 3c 84 a5 3b e0 0a 82 3c ce 83 be 38
       -3.7354683e-05 0.005051164 0.015874326 9.0844565e-05
000060 33 2a 81 3b 9d 7a bc 3b bf a1 55 38 f9 0d b6 3b
       0.003941798 0.0057519213 5.0933795e-05 0.005555865
000070 21 77 27 3c 7b f9 b7 38 0d 5a d3 3a e2 50 8c 3b
       0.010221274 8.772589e-05 0.001612486 0.004282103
000080 35 d3 06 39 be 31 c7 3a 5c 27 b8 3a 35 77 21 38
       0.00012857917 0.001519732 0.0014049816 3.849641e-05
000090 69 b7 83 b7 26 71 01 b8 0d 12 bc b7 31 1c fb b7
       -1.5701824e-05 -3.0861374e-05 -2.2419752e-05 -2.993466e-05
0000a0 d2 61 00 b8 37 da 9b 37 98 c4 9e b7 11 3f dc ba
       -3.060868e-05 1.8579054e-05 -1.8926614e-05 -0.0016803463
0000b0 a9 5b 89 b8 50 d7 07 38 7b 22 84 ba 71 fd 75 38
       -6.549742e-05 3.2387034e-05 -0.0010081077 5.8648588e-05
0000c0 d4 25 3b 3c ee 47 ce 3c 91 47 e1 39 fa 5b 63 3c
       0.011422593 0.025180783 0.00042968665 0.013876909
0000d0 69 9d c7 3c d9 20 d6 39 c8 a0 51 3a c1 09 fc b7
       0.024367051 0.00040841734 0.00079966756 -3.0045283e-05
0000e0 bf 83 17 38 41 64 1f 3a bd c8 c8 3a 28 75 8d 38
       3.6123904e-05 0.00060803076 0.0015318614 6.745226e-05
0000f0 85 d6 0e b8 45 24 cb b7 93 28 1f b8 77 fb e5 b7
       -3.4055225e-05 -2.4216375e-05 -3.794634e-05 -2.7416025e-05
000100 60 2d e1 b5 5d e3 04 38 da b9 f1 3a bc f3 99 3b
       -1.6777012e-06 3.1683e-05 0.0018442229 0.004698245
000110 ab fe b4 38 02 fc 6d 3b 57 1a 06 3c 15 3c e3 38
       8.6305045e-05 0.0036313538 0.008184991 0.00010835395
000120 b4 f0 de 38 2c 19 e4 b6 4b 16 13 38 a1 2d 01 39
       0.00010630619 -6.79786e-06 3.5068293e-05 0.00012319397
000130 f1 97 b0 39 bb 39 c4 b7 22 03 38 ba 8e 40 12 bc
       0.0003368254 -2.3391904e-05 -0.000701951 -0.008926524
000140 22 f4 36 b7 db f7 ff ba 74 8d 8a 3a 3d 5d 12 b7
       -1.0904887e-05 -0.0019528823 0.0010570721 -8.723987e-06
000150 6f 51 f0 38 1a d2 ca 39 28 79 3a b8 4b 1d 03 39
       0.0001145926 0.0003868498 -4.445869e-05 0.00012504046
000160 15 a6 15 b8 ef 2a 07 b7 09 95 48 b8 42 44 b5 b7
       -3.5679044e-05 -8.056623e-06 -4.7822516e-05 -2.1608666e-05
000170 4c 01 c8 b7 e0 8f d8 b9 dc 04 3c b7 1f 91 d5 b7
       -2.3842462e-05 -0.00041305926 -1.1206805e-05 -2.5459156e-05
000180 d3 5a aa ba ad 2c c2 ba ef 22 87 b6 af fc 3f bb
       -0.0012997038 -0.001481434 -4.0273803e-06 -0.0029294898
000190 6e 75 c5 bb 62 ce d9 b8 6d 33 05 39 48 cb 28 3a
       -0.0060259616 -0.00010385808 0.00012703026 0.00064389827
0001a0 15 a7 49 b8 5b ac 10 ba f5 8f dd b9 ce fc 6a b8
       -4.807774e-05 -0.0005518847 -0.0004225966 -5.602539e-05
0001b0 49 8d c4 37 d2 80 3e 37 65 c6 14 b8 63 b1 94 37
       2.3430812e-05 1.1354876e-05 -3.547072e-05 1.7725577e-05
0001c0 32 1a b0 b7 9d ee de 37 ac 7a c6 ba 24 ad 52 bb
       -2.0993033e-05 2.6575575e-05 -0.001514276 -0.0032146657
0001d0 36 4e c3 38 13 e9 cf bb cc e2 e2 bb 50 50 25 b8
       9.3128925e-05 -0.0063449233 -0.006924009 -3.9413862e-05
0001e0 29 01 40 ba 9a 24 34 bb 3a 04 c3 b8 c9 a6 9a ba
       -0.00073243916 -0.0027487637 -9.299112e-05 -0.0011798973
0001f0 27 b5 35 bb 0b 31 19 b8 73 47 14 b8 7a d1 8d b6
       -0.0027726383 -3.6523717e-05 -3.5352492e-05 -4.2265137e-06
000200 ee 3f 22 37 78 83 64 b7 29 29 2f b7 00 e4 3c 37
       9.670837e-06 -1.3620469e-05 -1.0440396e-05 1.1258759e-05
000210 df ed e2 37 48 51 81 38 3a d1 4e 37 5b 71 25 b9
       2.7052067e-05 6.166339e-05 1.2327271e-05 -0.00015777854
000220 95 1b a6 b9 a6 98 9c b7 de 1d d6 3a 09 73 9d 3b
       -0.00031682538 -1.8667732e-05 0.0016335805 0.004804973
000230 52 7c 98 38 31 5f 01 3b 47 f9 92 3b a5 c7 29 39
       7.271081e-05 0.0019740576 0.0044852826 0.0001619147
000240 da 9f 16 37 b2 09 94 36 e2 68 1c 38 15 3e 1d b8
       8.977915e-06 4.4118724e-06 3.7290978e-05 -3.7489535e-05
000250 12 c2 ee b7 8d 75 52 36 a7 e3 77 37 f5 66 2d b8
       -2.8462182e-05 3.1360862e-06 1.4775352e-05 -4.13423e-05
000260 b1 77 ff b7 64 31 98 b8 28 0e 20 b8 cd 88 2b 38
       -3.0454104e-05 -7.2571245e-05 -3.8160157e-05 4.0896983e-05
000270 90 7b 00 b8 20 82 1a b7 3e 63 24 37 6a 9c 39 b7
       -3.0632655e-05 -9.209412e-06 9.798268e-06 -1.1063277e-05
000280 ad 29 72 b7 c8 1b 2b 37 56 b4 8b ba b0 39 2c bb
       -1.4434027e-05 1.0198863e-05 -0.0010658603 -0.0026279502
000290 0e 40 1d 39 62 b5 67 bb ab 56 32 bb 2a 77 94 b8
       0.00014996549 -0.0035355915 -0.0027212303 -7.079386e-05
0002a0 c1 14 15 3a a4 f7 05 3c 87 f7 c4 38 09 1a a3 bb
       0.00056869915 0.008176718 9.392114e-05 -0.004977469
0002b0 b2 a1 d0 3a 5d a5 89 39 58 1b f0 b6 d9 f7 b3 b7
       0.001591733 0.00026253882 -7.1557406e-06 -2.1453876e-05
0002c0 7b 60 94 37 88 85 b4 b7 b8 e9 14 b8 eb 63 b1 b7
       1.7687902e-05 -2.1519852e-05 -3.5503617e-05 -2.1146572e-05
0002d0 67 bd 11 b8 1d 6f 8c b7 7f e0 23 b8 fe eb 75 b6
       -3.474709e-05 -1.6741042e-05 -3.9071307e-05 -3.664521e-06
0002e0 cd 6c d5 b7 23 52 78 b7 37 b4 9e b7 42 47 93 b7
       -2.5442243e-05 -1.4801076e-05 -1.8918987e-05 -1.7556948e-05
0002f0 7b 41 bc b7 41 81 8e b6 9c 20 a5 b7 94 eb 40 b6
       -2.2441838e-05 -4.246977e-06 -1.9684718e-05 -2.8747354e-06
000300 be c6 d5 b7 4b e9 0a b8 f3 01 13 38 b3 49 e7 37
       -2.5484125e-05 -3.3119035e-05 3.5049346e-05 2.7571665e-05
000310 fa 7b 35 b8 2a 4f 2a b7 75 1a de b7 e1 c8 92 39
       -4.3269225e-05 -1.0151221e-05 -2.6476782e-05 0.00027996956
000320 ad 62 a9 b7 20 ed 28 3a d4 64 8d b7 17 d8 f2 b6
       -2.019232e-05 0.0006444026 -1.6855462e-05 -7.237318e-06
000330 36 8f d5 b7 19 1f db b7 d7 ad 8d 37 86 26 be b7
       -2.5458266e-05 -2.6121315e-05 1.688946e-05 -2.2667704e-05
000340 6c 38 0e b8 ae 4e 96 32 dd fc 51 ba 95 df cf ba
       -3.3907985e-05 1.7498078e-08 -0.0008010397 -0.0015859479
000350 e1 46 a1 b8 2d ed 98 ba 20 35 5b bb 39 53 c3 b8
       -7.6902805e-05 -0.0011667364 -0.0033448413 -9.313826e-05
000360 34 c1 35 3b dc c9 8f 3b 8e 5d ea 38 55 3b 93 3b
       0.0027733566 0.004388077 0.000111754154 0.004493157
000370 1a 3d fa 3b 57 3e 61 39 3e be 80 b5 6f e6 f6 b7
       0.0076366784 0.00021480896 -9.592111e-07 -2.943279e-05
000380 e7 21 06 b7 66 52 a7 b7 80 c5 3c b7 75 1b 55 38
       -7.994916e-06 -1.9946321e-05 -1.1251657e-05 5.080873e-05
000390 76 26 f0 b7 45 82 80 b9 79 41 a9 b6 55 13 04 39
       -2.862814e-05 -0.0002451112 -5.0442145e-06 0.00012595703
0003a0 ec 70 09 b9 15 44 01 b8 44 b1 35 ba 68 02 66 ba
       -0.00013107405 -3.0819403e-05 -0.00069310167 -0.0008774162
0003b0 78 8a 3f b8 bf dd c8 b8 4f e0 3e bb 8a 35 69 37
       -4.5666908e-05 -9.5780466e-05 -0.0029125398 1.3900348e-05
0003c0 23 c7 1d 3c 12 92 60 3c 43 c4 c3 39 fc 5c 43 3c
       0.009629997 0.013706701 0.00037339525 0.011924025
0003d0 9d 97 c3 3c d4 76 f1 39 3d 22 09 3b ab d6 87 3b
       0.023876006 0.00046055636 0.0020924949 0.0041454635
0003e0 a2 49 23 39 94 5c a4 3b f1 48 2a 3c 40 b3 71 39
       0.00015572322 0.005015919 0.010393367 0.00023050327
0003f0 dc 9a 0c 3b 7d 03 09 3c 95 d6 24 39 c9 f3 7a 3b
       0.0021454608 0.008362648 0.00015720197 0.003829228
