lightning_logs/version_64/checkpoints/epoch=49-step=10500.ckpt (torch, 30427 bytes, 24 tensors)

bayes_fc1.weight_mu f4 [64, 6]
000000 dc 58 37 bf 5d 2b 3e bf bc d9 8d be 9c b8 3a bf
       -0.71619964 -0.7428492 -0.2770518 -0.7293794
000010 f5 fb 1c bf 5e 7d 43 be 32 c5 09 3f 59 8e c6 bd
       -0.61321956 -0.19090793 0.5381652 -0.096951194
000020 06 12 f5 3f 40 42 d8 be 22 94 cd 3d c6 52 7f bf
       1.9146125 -0.42238045 0.1003802 -0.9973568
000030 4d 1b c2 be 63 49 4d 3e e9 3c b6 bf 24 18 b8 3e
       -0.37911454 0.20047526 -1.4237338 0.35955918
000040 4e 51 20 be 3b 2b 41 3f e6 ba c0 be 1f f3 33 3e
       -0.15656015 0.7545659 -0.37642592 0.17573212
000050 09 d2 bb bf ff 2a d9 3e 9d 4f fa bd 1b ba 6e 3e
       -1.4673473 0.42415616 -0.12222216 0.23313181
000060 e5 95 b9 be c8 31 4e 3e f0 85 bf bf 75 d3 cc 3e
       -0.36247173 0.20136178 -1.496275 0.4000508
000070 10 f6 0e be d8 b9 ea 3e f5 1c 89 3e 25 ca f4 bd
       -0.13961053 0.45844913 0.26779905 -0.119526185
000080 65 17 04 40 34 a3 a6 be 60 d8 37 3e be 7d 89 be
       2.063928 -0.3254639 0.17953634 -0.26853746
000090 9b 26 4d bf 40 a6 1d bf b8 1b 79 be 2f 4e 1c bf
       -0.8013703 -0.615818 -0.2432698 -0.610568
0000a0 f0 93 22 bf f0 62 87 be 8f c7 ef be 69 c0 83 3e
       -0.63506985 -0.2644267 -0.4683194 0.25732735
0000b0 9c a0 27 bf 43 3a 9f be 33 29 99 be 9c 0e 99 3f
       -0.65479445 -0.31099138 -0.29914245 1.1957583
0000c0 d1 2e 9c be 5a c7 d9 3d 60 05 ee bf 35 0c 05 3f
       -0.30504468 0.106337264 -1.859539 0.5197175
0000d0 ee 7f 08 be e9 f7 5d 3e b5 75 62 bf 33 2c 92 be
       -0.13330051 0.21676601 -0.88460857 -0.28549346
0000e0 ac 5b ff be fa 09 40 be 71 5c d2 3d 8c 80 74 3e
       -0.49874628 -0.18753806 0.10271538 0.23877162
0000f0 8d 26 16 bf e3 f0 de be 93 87 c2 bd 2f 29 1c bf
       -0.58652574 -0.43543157 -0.09498515 -0.6100034
000100 cf 93 95 be 87 09 16 be 50 70 5f be 23 38 b4 3d
       -0.29214332 -0.14652072 -0.21820188 0.0879977
000110 6f 0a 17 c0 1b fc f9 3e 56 05 8e bd a2 f7 05 bf
       -2.3600118 0.48825154 -0.069346115 -0.5233098
000120 f8 ed 2b bf 3b 07 a1 be 41 9e 0d be 7a 1d 14 bf
       -0.67159986 -0.3145083 -0.138299 -0.5785748
000130 2d a7 2c bf c1 10 52 be 8d b7 e9 3e 0d 86 03 be
       -0.6744259 -0.20514204 0.4564785 -0.12844105
000140 d6 bf b6 3f 67 81 c3 be bd b3 27 3e f5 7c 50 bf
       1.4277294 -0.38184664 0.16377158 -0.8144067
000150 57 1b f4 be 86 2f ab be 1c d8 4c be 5f 3d 19 bf
       -0.4767711 -0.33434695 -0.20004314 -0.5985927
000160 9f a2 2d bf 4b db 67 be 27 c4 73 bf 96 c7 46 be
       -0.67826265 -0.22642247 -0.9522118 -0.19412073
000170 35 07 91 bf 92 22 82 bd 84 f9 18 3d cc 6b 4a 3f
       -1.1330324 -0.0635425 0.03734733 0.79070735
000180 9b b1 b6 3e bb 21 0d be 63 00 2c 40 c2 04 be be
       0.35682377 -0.13782398 2.6875236 -0.37113005
000190 33 4d 30 3e 35 03 75 be f2 65 0f bf e4 08 6d be
       0.17216949 -0.23927005 -0.5601493 -0.23147923
0001a0 92 88 14 be 6e 27 2e bf d1 d3 e1 be ab 23 2e be
       -0.14505222 -0.68028915 -0.44106916 -0.17005794
0001b0 5d a9 35 bf 56 b7 ef be be ae 27 be 12 8a 31 bf
       -0.7096155 -0.46819562 -0.16375253 -0.69351304
0001c0 1e 6f 18 bf 81 30 81 be 86 7c a3 3e c5 2f d8 bd
       -0.5954455 -0.25232318 0.3193094 -0.10555986
0001d0 12 e7 db 3f 16 73 c8 be 53 71 32 3e 88 59 19 bf
       1.7179892 -0.39150304 0.17426042 -0.5990224
0001e0 18 68 8d be e3 ab 43 3d c1 ad c1 bf cb cc c5 3e
       -0.2761848 0.047771346 -1.513115 0.38632807
0001f0 c5 c1 e0 bd 43 38 15 3f 41 e6 c3 be 70 e8 e7 3d
       -0.109744586 0.58288974 -0.38261607 0.11323631
000200 50 ff 8d be 53 eb f8 be 77 33 5f be 49 54 a1 3d
       -0.2773385 -0.48617038 -0.21796976 0.07877404
000210 59 eb 12 bf 3f 2d e7 be fe a7 a8 bd d4 7e 4a bf
       -0.5739036 -0.45151708 -0.08235167 -0.79099774
000220 0e e7 38 bf ef d5 07 be 9e 24 b8 be 6b 70 19 3e
       -0.7222756 -0.13265203 -0.35965437 0.1498429
000230 b9 4b 99 bf 67 59 ed 3e 50 90 03 be aa eb 20 3f
       -1.1976234 0.4635727 -0.1284802 0.62859595
000240 57 b5 f0 be fb 6e 0f bf 10 fd 97 bd 06 ca 2c bf
       -0.4701335 -0.5602872 -0.07421315 -0.67495763
000250 2d ab 1b bf 8c 73 01 be bd 12 09 bf 9d 31 f8 be
       -0.6080807 -0.12641734 -0.5354422 -0.48475352
000260 7b f8 ab bd 98 77 d7 be ad 94 0c bf 6c 04 4f bd
       -0.08397003 -0.4208343 -0.5491436 -0.050541326
000270 37 44 0d bf 66 51 b7 be 1c 16 50 be 9e b5 06 bf
       -0.5518221 -0.3580429 -0.20320934 -0.52620876
000280 cc 8c 90 be 02 50 83 be d0 6f 90 3e 6f 30 01 be
       -0.2823242 -0.2564698 0.28210306 -0.12616132
000290 4a d2 fb 3f 3f 67 b5 be 17 29 30 3e 6c cb a7 bd
       1.967355 -0.35430333 0.17203175 -0.081930965
0002a0 44 0d a8 3e 0a d5 fd bd da 9b c5 3f 04 66 93 be
       0.3282262 -0.123941496 1.5438187 -0.2878877
0002b0 38 a1 12 3e 8c 2d f8 be 86 3f 17 bf 96 a1 0e bf
       0.14319313 -0.4847225 -0.59081304 -0.5571531
0002c0 72 82 3f be b8 b3 23 bf 58 10 05 bf 22 b7 41 be
       -0.18702105 -0.63946104 -0.51978064 -0.18917516
0002d0 1b 63 0d bf 16 bf c9 be 4f 59 78 be 84 19 d0 be
       -0.5522935 -0.394036 -0.24252819 -0.40644467
0002e0 04 58 ec be 74 26 a8 be bd 99 26 bf 5f 1e eb be
       -0.461609 -0.32841837 -0.65078336 -0.4592161
0002f0 9c bf 35 be d1 35 0c bf df c3 28 bf da fc 99 be
       -0.17748874 -0.5476962 -0.65923876 -0.30075723
000300 4b 01 0b bf bd 44 de be d9 b3 3a be ee 25 f5 be
       -0.5429885 -0.43411818 -0.18232669 -0.478805
000310 41 da c3 be a5 39 5d be 91 51 1a bf b7 be ea be
       -0.38252452 -0.21604021 -0.6028071 -0.4584863
000320 c1 cc 2a be 7a ee 15 bf f6 86 ef be 33 8d 31 be
       -0.1667967 -0.5856701 -0.46782655 -0.1733902
000330 dd 76 d3 be c7 6c 6a be 0d 2e 22 be 71 f7 0c bf
       -0.41301623 -0.22893058 -0.1583788 -0.55065066
000340 c0 58 17 bf 9f 99 f3 bd 1b 49 d4 be 59 2a 84 be
       -0.59119797 -0.11894535 -0.41462025 -0.2581356
000350 0c 1a d2 3c 70 9d e6 be e2 8b fa 3d 09 d3 c3 3d
       0.025647186 -0.4504199 0.12233712 0.09561736
000360 5e 5e da be 95 b3 7b 3e 87 66 df bf 0a d2 a6 3e
       -0.4265012 0.24580224 -1.7453164 0.32582122
000370 05 15 f3 bd c8 03 2a 3e 61 16 3b bf 85 f4 14 bf
       -0.118692435 0.16603005 -0.7308102 -0.5818561
000380 8f 2f 59 be 9c ee 2d bf c8 e1 e3 be 27 06 4e be
       -0.21209548 -0.67942214 -0.44508195 -0.20119534
000390 b3 fe 05 bf 3d 79 93 3d 7c 14 09 be e7 94 ac be
       -0.52341765 0.07200859 -0.1338672 -0.33707353
0003a0 87 76 be be a3 e0 1a 3e 19 a0 f1 be fa ba 78 be
       -0.37199804 0.15124755 -0.47192457 -0.24290076
0003b0 45 c3 96 be 50 67 b4 be 58 32 c9 be c6 92 5f be
       -0.29445854 -0.3523507 -0.39296222 -0.21833333
0003c0 52 57 b2 be 2c 38 30 3e 6b 28 c1 bf 6f 54 b4 3e
       -0.34832245 0.17208928 -1.509046 0.35220668
0003d0 61 f0 e1 bd 83 21 f7 3e af 21 98 be 48 f8 08 3e
       -0.11032177 0.48267755 -0.297132 0.13375962
0003e0 18 34 ea bf 38 bc ec 3e 6d 50 df bd 31 ba c3 3e
       -1.8297148 0.4623735 -0.10904012 0.3822799
0003f0 5a df 96 be 45 2c a0 3d ee 79 c2 bf db 18 09 3f
       -0.2946728 0.07820944 -1.519346 0.5355355

bayes_fc1.weight_rho f4 [64, 6]
000000 f4 c4 20 bf 6d 2a 7a bf 5f 9b ed 3e 24 55 ae be
       -0.62800527 -0.97720987 0.464076 -0.34049332
000010 c4 76 9c bf 75 b9 05 3f 91 55 73 c0 07 f4 92 c0
       -1.2223744 0.5223611 -3.8020976 -4.5922885
000020 5e c2 98 be 96 98 51 c0 b8 b3 91 c0 f5 9d 50 be
       -0.2983579 -3.274938 -4.5531883 -0.20372756
000030 db b5 63 c0 2d 11 8c c0 9e 87 19 be e4 cf 64 c0
       -3.5579746 -4.3770967 -0.1499314 -3.5751886
000040 4f 8f 8d c0 09 a8 ef 3d 14 d7 6b c0 6b 93 9b c0
       -4.4237437 0.11701972 -3.6850023 -4.8617454
000050 bf 7f 24 be 16 ff 75 c0 d5 ce 92 c0 7f 11 ce be
       -0.16064356 -3.8436942 -4.587748 -0.40247723
000060 1a 77 5d c0 1a 81 95 c0 05 87 54 be a8 ad 6a c0
       -3.4603944 -4.6720095 -0.20754631 -3.6668491
000070 ec 40 8c c0 15 a8 11 bf fe c3 6b c0 1f ae 90 c0
       -4.382925 -0.568971 -3.6838374 -4.521255
000080 e3 94 56 bf d4 fc 7d c0 37 b0 a4 c0 37 25 0d bf
       -0.83820933 -3.9685564 -5.1465106 -0.5513491
000090 23 ec 32 bf 34 d7 92 bf b0 ca 01 3f 2e 24 e2 be
       -0.69891566 -1.1471925 0.506999 -0.44168228
0000a0 a9 42 8f bf 3d 84 0e 3f 33 1b 16 c0 b3 df 6c c0
       -1.1192218 0.5567053 -2.34541 -3.7011535
0000b0 b6 a3 cc 3e 24 81 e1 bf 8e 21 36 c0 b8 a1 a1 3f
       0.39968652 -1.7617536 -2.845798 1.2627478
0000c0 92 88 50 c0 64 43 8f c0 6e c4 4e bd 2f e0 70 c0
       -3.2583356 -4.4769764 -0.0504803 -3.763683
0000d0 ae b6 8b c0 3e 6f 9a be a1 18 af bf 08 24 18 c0
       -4.36605 -0.30162996 -1.3679391 -2.3771992
0000e0 5e a3 c3 3e bf 90 2f c0 11 ee 75 c0 5b 40 ed 3e
       0.38210577 -2.7432096 -3.8426554 0.46338162
0000f0 57 44 10 bf fa 4f cf bf 92 77 fd 3e 4c 79 ba be
       -0.5635428 -1.6196282 0.49505287 -0.36420667
000100 5e df ce bf 7f 57 0b 3f a5 53 74 c0 7b 43 a3 c0
       -1.6161916 0.54430383 -3.8176053 -5.1019874
000110 0e 72 81 bf 8b 4d 80 c0 28 71 9b c0 7b 4f 1e bf
       -1.0112932 -4.0094657 -4.857563 -0.6184003
000120 4d 6f 3c bf e1 42 e3 bf cc d4 f1 3e 0c 37 11 bf
       -0.7360733 -1.7754785 0.47232664 -0.5672462
000130 1f aa 91 bf 37 81 01 3f ee 8f 7a c0 6c 42 9c c0
       -1.1380042 0.5058779 -3.9150348 -4.883108
000140 fc b9 25 bf 51 1b 7d c0 b7 0b 9c c0 cd 7c d7 be
       -0.64736915 -3.9547923 -4.87643 -0.42087403
000150 20 96 2c bf 2f 9d df bf 1d 92 c5 3e f7 28 1c bf
       -0.6741657 -1.7469844 0.38588038 -0.6100001
000160 22 54 92 bf 04 9d e5 3e db 8c 72 bf be f7 70 c0
       -1.1431925 0.44846356 -0.9474618 -3.765121
000170 91 99 30 3e be 1b 6d c0 3d 43 99 c0 e9 2e 55 bf
       0.17246081 -3.7048182 -4.789458 -0.83274704
000180 7d 55 67 c0 36 3a 8b c0 ac 0c f0 be 2a 03 62 c0
       -3.6145928 -4.350856 -0.46884668 -3.531443
000190 be 53 8d c0 5f fc 69 be f6 c2 1e bf 0a 5d e6 bf
       -4.4164724 -0.22850178 -0.62016237 -1.7997143
0001a0 de 9d 1a 3f ff 36 1a bf db 3a cf bf c7 31 03 3f
       0.60397136 -0.6024017 -1.6189836 0.5124783
0001b0 96 86 34 bf fe ca bf bf 01 05 f0 3e 4a 56 20 bf
       -0.7051786 -1.4983823 0.46878818 -0.62631667
0001c0 6b 6b a7 bf 69 38 07 3f bc 1a 86 c0 2a d5 9e c0
       -1.3079656 0.5282045 -4.1907635 -4.963521
0001d0 fc 8f 62 bf 8b 8a 81 c0 df d9 9c c0 5d c3 25 bf
       -0.8850095 -4.048162 -4.9015956 -0.64751226
0001e0 f9 ad 4c c0 8d cf 8e c0 ad a3 90 3c 73 a4 5a c0
       -3.1981184 -4.462836 0.017656172 -3.4162872
0001f0 be a7 8d c0 b0 b0 d9 be d2 45 e9 bf b1 5e 4d c0
       -4.4267263 -0.42517614 -1.8224432 -3.2089045
000200 af c0 b2 3e 0e 6f 56 bf b5 1c 19 c0 7b f6 1b 3f
       0.3491263 -0.83763206 -2.3923771 0.60922974
000210 cb 6b 17 bf c2 05 b9 bf 0e 87 ee 3e cf 68 fb be
       -0.59148854 -1.4454882 0.46587414 -0.491034
000220 dd 9c 83 bf c2 39 06 3f d4 c7 46 c0 ac c8 83 c0
       -1.0282246 0.5243188 -3.1059465 -4.118246
000230 42 a5 08 3e 04 6a 3b c0 55 ac 82 c0 a9 c8 cd 3d
       0.13344291 -2.9283457 -4.0835366 0.100480385
000240 12 71 cc be 06 2f b4 bf 9a cd 0b 3f e8 ad b1 be
       -0.39930016 -1.407685 0.546106 -0.34702992
000250 09 3f 9c bf da b5 20 3f af 9c 31 bf 57 5b ba bf
       -1.2206737 0.62777483 -0.69379705 -1.4559125
000260 f3 fc 08 3f 66 1b 28 bf ab 7b 88 bf 49 11 1b 3f
       0.5351097 -0.65666807 -1.066274 0.6057325
000270 f6 8a 81 bf 99 05 f6 bf 68 35 df 3e a2 3d 8c bf
       -1.0120533 -1.9220458 0.43595433 -1.0956309
000280 91 ad 08 c0 f6 9f 03 3f 55 bc 62 c0 a9 eb 98 c0
       -2.1355937 0.51415956 -3.5427449 -4.778767
000290 84 96 31 bf 37 e9 7d c0 31 de 96 c0 94 b0 e4 be
       -0.69370294 -3.9673593 -4.714623 -0.44665968
0002a0 c4 e5 7c c0 4f 12 9e c0 c1 50 51 bf 78 0b 7c c0
       -3.9515238 -4.939735 -0.81763846 -3.9382
0002b0 71 2e 9d c0 72 ea 2c bf 80 13 4c bf e2 03 ad bf
       -4.911919 -0.67545235 -0.79717255 -1.351681
0002c0 4b aa eb 3e 31 09 6d bf cb 8e 9c bf 4d eb c5 3e
       0.4602836 -0.9259215 -1.2231077 0.38656083
0002d0 a5 93 4f bf 29 90 e3 bf 12 d5 1b 3f 1c e2 95 bf
       -0.8108466 -1.7778369 0.60871994 -1.1709628
0002e0 b1 05 c9 bf ba 96 10 3f f0 1d 0e bf 7a 09 b1 bf
       -1.5704862 0.5647999 -0.5551443 -1.3831017
0002f0 7d 38 fa 3e 9a cd 44 bf c9 a1 8d bf 16 66 05 3f
       0.48871222 -0.76876223 -1.1064998 0.52108896
000300 96 7d 27 bf 5a 6e b3 bf 73 73 1c 3f cb 92 0c bf
       -0.65426004 -1.4018052 0.6111366 -0.5491149
000310 1f 2b d6 bf b9 46 02 3f d4 18 3a bf b5 9e c3 bf
       -1.673191 0.50889164 -0.72694135 -1.5282809
000320 fe d6 04 3f ec e2 3f bf 4c c4 cb bf 87 72 ed 3e
       0.5189055 -0.7495563 -1.591928 0.4637644
000330 95 fc 77 bf a4 8f 02 c0 a7 ac 00 3f 39 c2 25 bf
       -0.96869785 -2.0400171 0.50263447 -0.64749485
000340 9b b1 bb bf f9 91 c6 3e 13 f6 b0 bf 4f 3a 19 c0
       -1.4663576 0.38783243 -1.3825096 -2.3941839
000350 c8 58 00 3f bf 8e 01 c0 d5 7f 58 c0 64 39 f0 3e
       0.5013547 -2.0243375 -3.3828022 0.46918786
000360 83 1d 7b c0 58 32 9b c0 69 c5 61 bf 41 4d 75 c0
       -3.9236763 -4.8498955 -0.8819185 -3.8328402
000370 df 27 9c c0 85 64 15 bf d0 9a 13 bf b2 e9 8b bf
       -4.879867 -0.58356506 -0.576581 -1.0930693
000380 04 96 06 3f f7 77 2a bf 43 4c c4 bf 09 24 f8 3e
       0.52572656 -0.665893 -1.5335773 0.48464993
000390 42 55 b2 bf 62 0e 32 c0 2a 69 ac 3e 03 e9 dc be
       -1.3932269 -2.7821279 0.33673984 -0.43146524
0003a0 13 4c ec bf 8a e9 1c 3f 28 d6 94 bf 41 bf 16 c0
       -1.8460716 0.6129385 -1.1627855 -2.3554232
0003b0 3f e4 d0 3e 00 55 b4 bf 06 78 d2 bf 61 53 d5 3e
       0.40799138 -1.408844 -1.6442878 0.41665176
0003c0 1a 39 6c c0 87 de 98 c0 27 c0 f1 bd 5a a9 75 c0
       -3.6909852 -4.777164 -0.11804228 -3.8384614
0003d0 65 45 91 c0 80 86 f0 be c5 c9 44 c0 13 db 89 c0
       -4.539721 -0.46977615 -3.074815 -4.3079925
0003e0 64 42 8b 3d 4a 8c 5a c0 dd f7 8d c0 01 a0 a6 be
       0.067997724 -3.4148126 -4.4365067 -0.32543948
0003f0 4d 43 4d c0 7c 47 8a c0 26 ce f4 3d f6 cf 57 c0
       -3.2072327 -4.321226 0.11953382 -3.372068

bayes_fc1.bias_mu f4 [64]
000000 95 3c 03 bc 2d 53 1c 3d ac 6c 3e bc cf 67 1e bd
       -0.008010049 0.03816526 -0.011622589 -0.03867322
000010 d7 57 a2 bb eb 23 db 3c ff 66 10 bd 99 d9 90 bd
       -0.004954319 0.026750525 -0.035254475 -0.070727535
000020 de 84 86 bd 78 8b 13 bc 1f 1b cd bb 22 d7 00 bc
       -0.06568311 -0.00900542 -0.0062593366 -0.007863792
000030 81 d7 a7 b9 26 c0 e5 3b 95 1b d4 bc c3 76 00 bb
       -0.00032013285 0.0070114313 -0.025892058 -0.0019602038
000040 a2 81 50 bc 4e 1d a1 bb 4c f5 d3 bb 49 33 f7 3c
       -0.012726219 -0.0049168235 -0.0064684507 0.030175822
000050 8b c2 88 bc 92 a2 2c 3c 92 18 06 3d a8 e6 d7 bc
       -0.016694328 0.010536807 0.032738276 -0.026355103
000060 6f 9c 4f bb c7 44 9a bc a0 1f 97 3b 60 3c 41 3d
       -0.0031678935 -0.018831624 0.0046119243 0.04717672
000070 f1 1d a1 3c 25 f5 8f ba 52 8b a6 bc 8b be ea 3a
       0.019667597 -0.0010983093 -0.020330105 0.001790957
000080 c4 f9 35 bc 4a 43 06 bc a0 92 dc 3b 11 d0 eb bc
       -0.011106912 -0.008194754 0.0067313462 -0.028785737
000090 bb 6b df bc c9 2a 4c bc d8 a6 da 3a e6 86 7f bd
       -0.02727305 -0.012461373 0.0016681803 -0.06238451
0000a0 54 c7 2e bd 68 ac 17 bd 25 8d 78 bd a9 f2 d0 3b
       -0.042670563 -0.037029654 -0.06068148 0.0063765836
0000b0 e0 01 15 bc 08 a8 10 bc 67 f1 a3 bc bb d9 8a bd
       -0.009094685 -0.008829124 -0.02001257 -0.0677981
0000c0 59 c0 90 bd b8 41 61 bc ba 8c d0 bc ed 19 25 3c
       -0.070679374 -0.013748579 -0.025457729 0.010076982
0000d0 06 0f 90 bd 1b ec 18 3b e9 c1 82 bd 4b 2c 09 3d
       -0.070341155 0.002333409 -0.06384642 0.033489507
0000e0 4a 96 59 3c d5 04 95 3c a5 76 6d bc 67 bf 78 bc
       0.013280461 0.01819078 -0.014493619 -0.015182353
0000f0 14 2a 6b bd 9f ac 0d bc d0 0b a1 bc 60 df 83 3c
       -0.057413176 -0.008647113 -0.019658953 0.016097724

bayes_fc1.bias_rho f4 [64]
000000 63 3f 1e be 59 17 b1 bf 73 ff ae bf 43 52 bb bf
       -0.15453868 -1.383525 -1.3671707 -1.4634479
000010 99 ec c6 bf 5b 9f eb bf c3 61 0b be 8b 8f 11 bf
       -1.5540954 -1.8408006 -0.13611512 -0.56859654
000020 b4 97 bd bf 01 8f 38 bf 74 88 5c be 56 4f f8 bf
       -1.4811921 -0.72093207 -0.21536428 -1.9399211
000030 be 07 78 be 28 f5 ee bf 92 5f 6d be 9a 46 97 bf
       -0.24221703 -1.8668566 -0.23180988 -1.1818421
000040 1c 44 bc bf 4f 44 8d be a0 8f 6d be 69 6b f2 bf
       -1.4708285 -0.27591178 -0.2319932 -1.8939029
000050 34 d8 af bf 2e fc 10 bf 6e d9 61 be c9 74 91 bf
       -1.3737855 -0.56634796 -0.22055599 -1.1363765
000060 ca 97 fe bd 9e 3f 6c be de 70 ce be 1b 30 d4 bf
       -0.12431295 -0.23071143 -0.40320486 -1.6577181
000070 07 1b f9 bf ef 51 b6 be a5 0a bb be 18 bd 57 be
       -1.9461373 -0.35609385 -0.3653156 -0.21068227
000080 bc 0d 21 be 13 ae 7b be 12 9a 91 be 4e 21 2d bf
       -0.15727895 -0.24578123 -0.2843786 -0.67628944
000090 97 02 e9 bf c0 47 33 be d4 24 ca be fa af f5 be
       -1.8203915 -0.17507839 -0.39481223 -0.47985822
0000a0 ca 0e c9 bf 72 8d ac bf 33 11 92 bf 45 a2 ab be
       -1.5707638 -1.3480666 -1.1411499 -0.3352224
0000b0 29 a2 0d be 3e 48 78 be 4e 5d f4 be 9a 74 26 bf
       -0.1383139 -0.24246308 -0.47727436 -0.6502167
0000c0 37 f2 79 be 01 c0 72 be 76 ed 95 be 43 ec d1 be
       -0.24408804 -0.23706056 -0.2928273 -0.41000566
0000d0 d5 ab 61 be 9b 4b fa bf f9 07 9b be d8 22 e2 bf
       -0.22038205 -1.9554323 -0.3027952 -1.7666883
0000e0 c1 ff e0 bf 93 82 fd bf fb 38 5a bf be 46 2d bf
       -1.757805 -1.9805473 -0.85243195 -0.6768607
0000f0 67 ab 97 be 2d a0 f8 bf dc cc eb bf ed 2c c1 be
       -0.29622957 -1.9423882 -1.8421893 -0.37729588

bayes_fc1.prior_mu_old_bias f4 [64]
000000 b9 28 43 bd 2e aa 60 3c 58 75 56 bd b0 32 b3 ba
       -0.047646258 0.013712449 -0.052358 -0.0013671722
000010 33 33 12 bd 6c ad c5 b9 6d 18 27 bc fe ac 8e bd
       -0.03569336 -0.00037703977 -0.010198695 -0.069665894
000020 1a 03 18 bd 82 4b 96 3c 08 3f a9 3b 4e 9a 5d bd
       -0.037112333 0.018346552 0.0051649846 -0.054102235
000030 9b b1 91 bc c9 98 1a bb ab 7a f0 bc 23 97 b3 3d
       -0.017784884 -0.0023589602 -0.029355368 0.087690614
000040 0d 6d 58 3d e8 82 c4 bc f6 3c 84 bc 2d fe e1 3c
       0.052838374 -0.023988202 -0.01614235 0.02758702
000050 7e f0 89 3c 03 53 d3 3c 94 a7 08 bc 5f f2 57 bd
       0.016838308 0.025796419 -0.008340735 -0.052721377
000060 fe 5a 1c 3d 73 de 35 3c 76 85 d8 bc 46 8a a2 3c
       0.038172714 0.011100399 -0.026430827 0.019841325
000070 9e 5a 02 bd a2 a2 c1 bb a7 7e aa bc 75 5c a5 3a
       -0.0318247 -0.00590928 -0.020812346 0.0012616055
000080 99 60 83 3c 40 62 6c bc 86 33 12 bb a4 50 22 3d
       0.016037272 -0.0144277215 -0.0022308542 0.039627686
000090 33 79 9d bc 6a a0 82 bc dd ed a9 bc 0c c8 33 3c
       -0.019222831 -0.015945632 -0.020743305 0.010972988
0000a0 87 33 a0 bc 8f bd 6f bd 8c c5 22 bd 55 08 bb 3c
       -0.01955582 -0.058530387 -0.039739177 0.022831121
0000b0 10 ba c0 bb 4f 0a 8f 3c 05 a1 4c bc 12 7d 49 bc
       -0.0058815554 0.01746097 -0.012489562 -0.0122978855
0000c0 5a bc 98 3c a8 1c 5c ba 7b 3f ba bc b2 bf 4f bb
       0.0186445 -0.0008396604 -0.022735348 -0.0031699953
0000d0 2e 12 d4 3c 8d 85 43 3c fc 36 13 bd d9 90 ab 3c
       0.025887575 0.011933696 -0.03594111 0.020943092
0000e0 d5 0d 03 3c 7a 23 b5 3c 93 25 5d bd bf 59 2d bd
       0.007998903 0.022111643 -0.05399091 -0.042321917
0000f0 fe ee fa bc c4 f1 d8 3b b8 9e 83 bc b8 6b f5 bc
       -0.030631538 0.0066206176 -0.016066894 -0.02995859

bayes_fc1.prior_sigma_small_bias f4 [64]
000000 2f a1 18 3f 82 2d 50 3e 26 c2 7b 3e 4d 87 53 3e
       0.59620947 0.2032986 0.2458578 0.20657082
000010 75 65 4c 3e db 93 1a 3e 40 64 12 3f e0 ef e4 3e
       0.19960578 0.15095465 0.5718422 0.4471426
000020 a8 8e 61 3e 32 dd d1 3e f9 83 10 3f 54 44 18 3e
       0.22027075 0.4098907 0.56451374 0.14869815
000030 f3 2f 10 3f 8b ce 28 3e 0e 48 17 3f ad 20 8e 3e
       0.56323165 0.1648504 0.5909432 0.27759305
000040 99 6b 4f 3e bb 50 14 3f dc bd 16 3f d1 a9 05 3e
       0.20255889 0.57935685 0.5888345 0.13053061
000050 69 d5 6b 3e c5 93 ea 3e 93 9c 17 3f 3a 7e 93 3e
       0.23030628 0.45815864 0.5922329 0.2880724
000060 69 4c 1a 3f ca 69 1b 3f 7b 18 f8 3e 8d 06 2a 3e
       0.6027284 0.60708296 0.48456177 0.16604061
000070 c6 c0 0b 3e 2f b8 05 3f 08 b3 05 3f 0d e7 1b 3f
       0.13647756 0.52234167 0.52226305 0.6089943
000080 b0 77 13 3f a1 ce 0e 3f 21 7f 08 3f 42 28 e8 3e
       0.57604504 0.5578404 0.53318983 0.45343214
000090 1e 6e 1d 3e b7 d6 0e 3f 8c e2 ff 3e 15 eb fa 3e
       0.15374038 0.5579638 0.4997753 0.49007478
0000a0 b4 a9 33 3e 6f 9e 64 3e 64 42 8f 3e c8 1b 05 3f
       0.17545205 0.22326063 0.2798034 0.51995516
0000b0 1c 63 1c 3f 1d 7c 15 3f 62 bc f1 3e 27 26 d5 3e
       0.6108873 0.58392507 0.47214037 0.4163067
0000c0 04 12 11 3f c5 70 12 3f 4c 03 0a 3f a4 d7 00 3f
       0.56668115 0.5720332 0.5391128 0.5032904
0000d0 f1 6b 16 3f 99 16 07 3e 01 37 0f 3f 82 10 36 3e
       0.58758456 0.13192214 0.55943304 0.17779735
0000e0 f3 f2 2b 3e 03 32 07 3e b0 38 b4 3e 61 ce db 3e
       0.16791897 0.13202672 0.351995 0.42930892
0000f0 cf f4 13 3f 67 80 00 3e 21 f3 21 3e 35 87 04 3f
       0.57795423 0.12548982 0.15815403 0.5176881

bayes_fc1.prior_mu_old f4 [64, 6]
000000 23 37 3a bf ab 6e 45 bf 84 8b 8e be c9 be 39 bf
       -0.7274038 -0.7712199 -0.27840817 -0.7255674
000010 71 89 18 bf 15 41 7b be 50 97 09 3f 89 6a c3 bd
       -0.5958472 -0.24536546 0.5374651 -0.09541804
000020 54 07 e4 3f 74 99 d1 be a8 c0 d9 3d 6b 53 8d bf
       1.7814736 -0.40937388 0.106324494 -1.1041082
000030 c9 b7 be be 11 9d 53 3e 02 90 b2 bf 7c dd b9 3e
       -0.37249592 0.20665385 -1.3950198 0.36301792
000040 54 d7 1b be 2f 63 47 3f e2 f6 bc be 87 f2 3b 3e
       -0.1521886 0.7788572 -0.36907107 0.18354236
000050 9e 26 ae bf bd 98 db 3e 6b 49 ed bd 74 32 99 3e
       -1.3605535 0.42889968 -0.11586269 0.29921305
000060 e4 47 bc be 1c bb 4e 3e a5 c8 b2 bf 79 58 ca 3e
       -0.36773598 0.20188564 -1.3967482 0.39520624
000070 b2 98 12 be 0e 99 f9 3e 79 fb 89 3e a3 f9 fb bd
       -0.14316061 0.48749584 0.2694967 -0.12303474
000080 98 b9 01 40 be 0b a6 be 66 9e 3a 3e 50 f6 89 be
       2.0269527 -0.32430834 0.18224487 -0.26945734
000090 d9 08 3e bf 9d b2 1a bf 9c 6d 6d be 22 38 20 bf
       -0.7423225 -0.6042879 -0.23186344 -0.6258565
0000a0 36 fc 1f bf 55 fb 88 be 62 fb ef be c4 75 89 3e
       -0.6249422 -0.2675425 -0.46871477 0.2684766
0000b0 da 48 1c bf 06 10 a9 be 75 6f 8f be 70 89 a0 3f
       -0.6104866 -0.33020037 -0.28014722 1.2541943
0000c0 73 f8 96 be b8 6a e1 3d 3b cb e0 bf 09 fc 05 3f
       -0.29486427 0.11006683 -1.7562021 0.523377
0000d0 f0 ff 04 be 51 af 8c 3e 3d 60 60 bf 07 5d 98 be
       -0.12988257 0.27477506 -0.8764685 -0.29758474
0000e0 4f 5e ed be 4d b5 37 be 65 8b da 3d 53 ec 9b 3e
       -0.46361014 -0.17940255 0.10671119 0.3045374
0000f0 cd 70 17 bf e8 32 d6 be a7 23 ee bd b1 8c 27 bf
       -0.59156495 -0.41835713 -0.11627894 -0.65449053
000100 b1 3d 94 be 32 94 16 be d3 96 64 be 9d 6c b5 3d
       -0.28953317 -0.1470497 -0.2232316 0.08858607
000110 0d e8 11 c0 86 8d f7 3e 36 07 9b bd f3 ed e2 be
       -2.2797883 0.4835016 -0.07569735 -0.44322166
000120 7f b7 2e bf 35 16 ab be 1b 15 27 be 08 e4 1a bf
       -0.6824874 -0.3341538 -0.16316645 -0.605042
000130 50 0f 2d bf 5b 1a 7a be bf ec ec 3e 3d b5 03 be
       -0.6760149 -0.24424116 0.46274373 -0.12862106
000140 b3 3a b2 3f 8f 9f c2 be 6a f8 2b 3e 9b c9 54 bf
       1.3924164 -0.3801236 0.16793981 -0.83120126
000150 c3 5b f1 be 6c 07 9b be d1 be 6a be 01 0f 0c bf
       -0.4714032 -0.302791 -0.22924353 -0.54710394
000160 0f e4 26 bf 2e 13 3e be e2 dd 70 bf ad 7d 50 be
       -0.6519174 -0.18562004 -0.94088566 -0.20360442
000170 42 24 8a bf ca e0 88 bd e8 24 10 3d 56 b0 54 3f
       -1.0792315 -0.066835 0.035191447 0.8308157
000180 23 c1 b7 3e 7e f1 11 be d1 99 28 40 c5 44 bd be
       0.3588954 -0.14252278 2.6343882 -0.3696653
000190 44 93 33 3e 94 d1 7c be 7a cf 0e bf 69 39 66 be
       0.17536646 -0.24689323 -0.55785334 -0.22482838
0001a0 b2 d5 29 be d4 35 28 bf b1 2f d7 be 65 41 30 be
       -0.16585425 -0.65707135 -0.42028573 -0.17212446
0001b0 9d f2 25 bf 0a 17 ea be f4 13 45 be 3d a1 31 bf
       -0.64823323 -0.45720702 -0.19245893 -0.69386655
0001c0 28 05 13 bf ca 74 82 be ac 46 a2 3e 8d aa d8 bd
       -0.5742974 -0.25479728 0.31694543 -0.10579405
0001d0 b5 c3 d3 3f 18 9b c9 be ae 52 31 3e 66 e3 24 bf
       1.65441 -0.3937614 0.17316696 -0.6440948
0001e0 68 6e 92 be 1f 2e 52 3d 1c 13 c0 bf 46 b0 c3 3e
       -0.28599858 0.051313516 -1.5005832 0.38220423
0001f0 0c ec d4 bd 6c f3 09 3f 93 78 c7 be 6a 17 ea 3d
       -0.10396585 0.5388706 -0.38959178 0.11430247
000200 6d 14 9c be 69 c1 09 bf 98 2a 5f be de 37 81 3d
       -0.30484334 -0.53810745 -0.21793592 0.06309484
000210 79 00 08 bf 9f 5c e3 be 6d 05 bc bd 4c c6 4b bf
       -0.5312572 -0.44406602 -0.091807224 -0.7959945
000220 7a c7 38 bf 93 19 8d bd 6b 90 b8 be ad 43 1c 3e
       -0.7217938 -0.068896435 -0.36047682 0.15260191
000230 cd bd 8f bf cf dd e7 3e 4d 5e 04 be ce 5b 25 3f
       -1.1229798 0.45286414 -0.12926598 0.6459321
000240 a4 2b ea be 60 05 09 bf c9 9d c6 bd 43 96 2b bf
       -0.4573642 -0.53523827 -0.09698064 -0.67026156
000250 d7 64 19 bf a0 df 44 be 1d 5a fd be 88 64 ea be
       -0.59919494 -0.19225931 -0.49482813 -0.45779824
000260 cd be a1 bd 55 a7 c7 be da 50 18 bf 8c 7f 87 bd
       -0.078977205 -0.38994852 -0.5949837 -0.066161245
000270 dc 41 0d bf cc da ba be 93 d4 7c be 1a 58 07 bf
       -0.5517862 -0.36495054 -0.24690466 -0.5286881
000280 bb 3c 8f be 4b 28 95 be 6c 6b 8c 3e 16 76 00 be
       -0.2797602 -0.29132304 0.27425706 -0.12545046
000290 80 af f4 3f 4b 99 b4 be c5 61 32 3e c8 41 86 bd
       1.9116058 -0.35273203 0.17420109 -0.065555155
0002a0 7e 65 a9 3e ed 76 f8 bd e0 e7 be 3f 22 39 8e be
       0.33085245 -0.12132058 1.4914513 -0.27777964
0002b0 1f a2 16 3e ec 96 ec be 05 43 15 bf 43 3c 11 bf
       0.14710282 -0.46208894 -0.5830539 -0.5673258
0002c0 7d a8 54 be 93 c9 1b bf b4 f0 0d bf b3 9c 65 be
       -0.20767398 -0.6085445 -0.5544541 -0.22423057
0002d0 4c 59 13 bf fa 99 c1 be ee 32 78 be 5e c4 c7 be
       -0.5755813 -0.37812787 -0.24238178 -0.39017004
0002e0 2e a3 e5 be 97 b0 a0 be bf 0f 22 bf cf 88 ea be
       -0.4485106 -0.31384727 -0.63305277 -0.45807502
0002f0 e4 a1 24 be 01 88 0a bf 5b 49 29 bf 77 83 9d be
       -0.16077381 -0.54113775 -0.66127557 -0.30764362
000300 9c eb 05 bf 27 81 d4 be 58 07 5b be 33 97 f8 be
       -0.52312636 -0.41504785 -0.2138952 -0.48552856
000310 77 db c5 be af 18 78 be 58 80 18 bf 5c 13 e3 be
       -0.38644 -0.24228166 -0.5957084 -0.44350708
000320 5a 37 41 be ce 14 10 bf 67 32 e9 be 7b 83 36 be
       -0.18868771 -0.56281745 -0.45546266 -0.17823593
000330 3b c8 ce be 4f 57 5f be 97 34 1e be 94 35 19 bf
       -0.4038714 -0.2181065 -0.15449749 -0.5984738
000340 61 e9 14 bf c5 6e 03 be 96 d2 d4 be 4d 6a 87 be
       -0.5816861 -0.12835224 -0.41566914 -0.2644829
000350 1c db c5 3d 8c 59 d3 be 16 d0 04 3e b9 e0 3a 3e
       0.096609324 -0.41279256 0.12970003 0.18249787
000360 46 13 db be b9 1f 7b 3e 05 ff d5 bf c3 1e a7 3e
       -0.42788142 0.2452382 -1.6718451 0.32640657
000370 fe ec f5 bd 56 ee 66 3e 92 99 37 bf a7 df 18 bf
       -0.12008093 0.22551855 -0.71718705 -0.59716266
000380 c9 2c 6c be 7b 5d 29 bf f6 cf eb be 97 ff 52 be
       -0.23063959 -0.66158265 -0.460571 -0.20605312
000390 5f a3 0b bf c4 a1 a7 3d c6 05 13 be 12 15 af be
       -0.5454616 0.08185151 -0.14357671 -0.34195763
0003a0 42 db b5 be 2a 8e 40 3e c4 f4 ad be f7 1a 66 be
       -0.35518843 0.18804231 -0.33975804 -0.22471224
0003b0 04 dd 70 be ff ea 9b be 67 f9 bb be 7c 43 15 be
       -0.23521811 -0.30452725 -0.36713716 -0.14576524
0003c0 ba 4f b0 be 5f a0 35 3e 83 de b0 bf 47 97 b4 3e
       -0.34435827 0.17736958 -1.3817905 0.35271665
0003d0 56 69 de bd 61 9e 03 3f 19 ff a2 be 7a 3f 00 3e
       -0.10859935 0.5141354 -0.3183525 0.12524214
0003e0 3d 6c dd bf 05 54 e8 3e 21 3f f0 bd c5 54 dc 3e
       -1.7298657 0.45376602 -0.11730791 0.43033424
0003f0 39 f9 94 be 01 51 b5 3d e0 a5 b2 bf a4 98 09 3f
       -0.29096392 0.08853341 -1.3956871 0.53748536

bayes_fc1.prior_sigma_small f4 [64, 6]
000000 8c 71 ce 3e 5d 51 97 3e c6 07 70 3f d7 f2 05 3f
       0.40321004 0.29554263 0.9376186 0.5232367
000010 6f e6 7f 3e 2b d1 7e 3f b4 5e c9 3c 3e 6b 26 3c
       0.24990247 0.99537915 0.02458129 0.0101574045
000020 49 cb 14 3f e3 18 2d 3d 33 c6 34 3c 76 b8 14 3f
       0.5812269 0.042260062 0.0110335825 0.58093965
000030 fd ff e1 3c 0d 31 50 3c d5 28 11 3f ee 64 f6 3c
       0.027587885 0.012707007 0.5670293 0.030077424
000040 15 6f 49 3c 88 45 3a 3f ee 73 d2 3c 1b 8a 00 3c
       0.01229455 0.72762346 0.025690045 0.007845427
000050 70 58 22 3f f1 cf bc 3c fc 50 2c 3c 1c ba fd 3e
       0.63416195 0.023048373 0.010517355 0.49556053
000060 db a6 f8 3c 7e 56 1f 3c 82 fa 17 3f d9 cf dd 3c
       0.030353 0.009725211 0.5936662 0.027076649
000070 56 f9 3f 3c fe 57 da 3e f1 87 da 3c c3 c1 3c 3c
       0.011717161 0.42645258 0.02667615 0.011520806
000080 19 62 b6 3e 32 ca a1 3c 82 0d c9 3b 73 c9 e6 3e
       0.35621718 0.019749735 0.0061356435 0.4507557
000090 0d 97 d7 3e ae 69 8c 3e bc d6 7e 3f 6b 4f f1 3e
       0.4210743 0.27424377 0.9954641 0.47130904
0000a0 37 b6 8f 3e 8f 0f 82 3f d8 a8 b1 3d 3d 21 c7 3c
       0.28068706 1.0160998 0.086747825 0.024307841
0000b0 fa 27 72 3f 62 7e 1b 3e 81 fa 64 3d e4 3b bd 3f
       0.9459225 0.1518493 0.05590296 1.4783902
0000c0 ad 21 1c 3d 81 bb 40 3c 3f 25 27 3f ff d1 bb 3c
       0.038118053 0.011763454 0.6529121 0.022927282
0000d0 67 4a 48 3c 4b cc 0c 3f 2f 91 66 3e 81 04 b1 3d
       0.01222477 0.54999226 0.2251632 0.08643437
0000e0 f6 ec 66 3f 2e 81 81 3d bc 24 aa 3c c1 10 76 3f
       0.90205324 0.06323467 0.02076947 0.96119314
0000f0 5c 1d e5 3e dd cf 3c 3e 73 d9 78 3f f1 19 ff 3e
       0.44748962 0.18438669 0.972068 0.4982448
000100 ee 0b 36 3e fc 14 7b 3f 4a 10 be 3c 1d 1b ce 3b
       0.17777988 0.98078895 0.023201127 0.0062898532
000110 19 fb ac 3e a0 34 91 3c cd 0c 03 3c eb 81 d7 3e
       0.33785322 0.017725289 0.007998657 0.42091307
000120 15 aa c0 3e ab 7d 19 3e 00 3e 77 3f 14 c8 db 3e
       0.37629762 0.14989345 0.9657898 0.42926085
000130 cb 15 85 3e d6 b0 77 3f 85 52 a4 3c 53 0b fc 3b
       0.2599319 0.96754205 0.02005888 0.0076917796
000140 12 91 d3 3e 1f 8b 9f 3c 2c 02 f0 3b a8 dd f2 3e
       0.41321617 0.019475518 0.0073244777 0.47434735
000150 de ec c5 3e f3 fa 1a 3e f8 75 68 3f ae ca ee 3e
       0.38657278 0.15134792 0.90805006 0.46639007
000160 d0 bd 8a 3e 9b 44 79 3f eb 2c a6 3e 4c cf b1 3c
       0.2709794 0.9737031 0.32456145 0.021705292
000170 6a 14 47 3f 9e dc c7 3c 36 65 0b 3c 42 0e aa 3e
       0.77765524 0.02439719 0.008508017 0.33214003
000180 e0 fd ea 3c 50 74 63 3c a8 f4 ec 3e ed d6 eb 3c
       0.02868551 0.0138827115 0.46280408 0.028789008
000190 80 c3 45 3c 32 ac 20 3f a3 17 d3 3e 4a a5 1a 3e
       0.012070537 0.6276275 0.4122897 0.15102115
0001a0 05 e8 84 3f bb e5 d1 3e b4 4b 38 3e a1 f8 78 3f
       1.0383307 0.40995583 0.17997628 0.9725438
0001b0 06 07 d5 3e c1 3c 4f 3e 52 fd 77 3f 92 f1 d6 3e
       0.4160692 0.2023802 0.9687091 0.4198118
0001c0 26 21 6d 3e dd 9f 81 3f 82 da 79 3c f2 c2 e2 3b
       0.23157176 1.0126911 0.01524985 0.006920212
0001d0 0c 8d b3 3e 9e d2 86 3c 21 52 fd 3b 19 03 d5 3e
       0.35068548 0.016457852 0.007730738 0.41603926
0001e0 28 c4 28 3d 12 52 3b 3c d0 c9 35 3f b5 1a 06 3d
       0.041202694 0.011433141 0.71011066 0.032740314
0001f0 92 0c 51 3c e1 8e 04 3f 34 73 17 3e 38 86 1c 3d
       0.012759345 0.51780516 0.1479004 0.03821394
000200 1a c0 62 3f 7d 4c ae 3e b2 82 a8 3d 9d 13 85 3f
       0.88574374 0.3404273 0.08228053 1.039661
000210 a7 7f e1 3e b9 b7 5f 3e b2 51 77 3f 5b 01 ea 3e
       0.44042704 0.21847428 0.9660903 0.4570416
000220 18 ea 97 3e 14 12 7a 3f 03 15 3f 3d 39 b9 87 3c
       0.29670787 0.97683835 0.046650898 0.016567813
000230 ed f0 3f 3f 02 51 72 3d d6 cd 8d 3c 87 72 3b 3f
       0.74977 0.059159286 0.017310064 0.7322163
000240 5f e3 01 3f 37 be 60 3e 63 8f 81 3f a0 87 06 3f
       0.50737566 0.21947561 1.0121883 0.525507
000250 b2 50 88 3e bf c7 82 3f 39 5b d5 3e f4 73 60 3e
       0.26624066 1.0217208 0.4167116 0.21919233
000260 65 27 7a 3f 67 94 cc 3e aa c2 88 3e ee 60 87 3f
       0.9771636 0.39956972 0.26711017 1.0576456
000270 42 cc 9a 3e be 0d 03 3e 09 3e 6e 3f 72 c0 8a 3e
       0.3023396 0.12798211 0.9306341 0.2709995
000280 24 40 d8 3d 23 79 7d 3f 50 94 ff 3c a1 cd 0a 3c
       0.10559109 0.99012965 0.03119865 0.008471877
000290 9b ca c8 3e 06 ee 9a 3c d9 8a 0f 3c f1 b3 02 3f
       0.39217076 0.018912327 0.008761131 0.5105582
0002a0 1a 48 9d 3c ef 25 fc 3b a3 57 b4 3e cc 25 a1 3c
       0.01919942 0.0076949517 0.35223112 0.019671343
0002b0 ee 05 ec 3b 64 8f ce 3e f1 01 bc 3e 9b e7 5d 3e
       0.0072028553 0.40343773 0.3672023 0.21670382
0002c0 7a 8a 6f 3f 65 9a ad 3e da aa 74 3e 41 36 6a 3f
       0.93570673 0.33906856 0.238933 0.91489035
0002d0 d3 e7 b2 3e 0a 96 16 3e bf 29 83 3f b3 23 84 3e
       0.34942493 0.14705673 1.0247115 0.25808486
0002e0 6c 46 40 3e 79 5a 7c 3f 58 dd db 3e 7d f6 5c 3e
       0.18776864 0.9857555 0.4294231 0.21578403
0002f0 27 27 7f 3f 90 53 b9 3e 7b b7 8d 3e 10 7c 7e 3f
       0.99669117 0.36196566 0.27679047 0.99408054
000300 76 64 d3 3e e6 ad 60 3e a7 e0 85 3f 48 d3 e0 3e
       0.41287583 0.21941337 1.0459183 0.43911195
000310 a5 e9 2b 3e 3f 27 75 3f 76 77 c5 3e ad 28 47 3e
       0.16788347 0.9576301 0.38567704 0.1944911
000320 69 bb 78 3f bb 28 c8 3e f6 2d 3d 3e 75 41 6b 3f
       0.97160965 0.39093575 0.18474564 0.91896755
000330 0b 8c ab 3e 57 98 02 3e df 5e 7c 3f 67 5c c3 3e
       0.33505282 0.12753426 0.9858226 0.38156435
000340 4a 26 4f 3e 51 b5 6a 3f 1a c0 5f 3e 27 04 a7 3d
       0.2022945 0.91682917 0.21850625 0.08155089
000350 5d e8 79 3f 4e 4a 01 3e cb 74 16 3d 5f bd 71 3f
       0.97620183 0.12626001 0.036732476 0.9442958
000360 e8 6d a5 3c d9 e2 fb 3b 92 23 b7 3e ba 0a b9 3c
       0.020194009 0.0076869545 0.35769325 0.022588123
000370 ac 79 06 3c 4a 49 dc 3e 52 74 da 3e d0 7f 8c 3e
       0.00820772 0.43024665 0.4266687 0.27441263
000380 a0 56 7b 3f 39 9a cc 3e d6 aa 3e 3e 33 bf 70 3f
       0.98179054 0.39961413 0.18619856 0.94041747
000390 54 95 57 3e fa cf 71 3d f2 28 61 3f 1d 99 f5 3e
       0.21053058 0.059036233 0.879531 0.4796838
0003a0 20 cc 10 3e 74 c2 88 3f 0d f4 a0 3e 63 5d bc 3d
       0.14140368 1.0684342 0.31436196 0.091974996
0003b0 37 18 6a 3f cc 2a 63 3e 1d 16 37 3e dd d7 72 3f
       0.914432 0.22184294 0.1787953 0.9486063
0003c0 fe 8c cb 3c 6a a3 0d 3c f8 40 1b 3f ec 8b a3 3c
       0.024847504 0.008644918 0.6064601 0.01996418
0003d0 79 9a 38 3c c6 a6 ef 3e 05 7c 51 3d b4 bf 67 3c
       0.011267298 0.46806926 0.051143665 0.014144827
0003e0 b7 17 32 3f 0f cb 13 3d 2d 38 36 3c 31 43 07 3f
       0.69567436 0.036082324 0.011121792 0.528369
0003f0 af 35 24 3d cc 86 58 3c ad 0b 43 3f 99 5f 0c 3d
       0.04009026 0.013215732 0.7618969 0.034270857

bayes_fc2.weight_mu f4 [1, 64]
000000 14 44 de bc 52 6a 51 3d a7 bc 14 bd b4 a9 1f bd
       -0.027132072 0.051126786 -0.036312725 -0.0389802
000010 90 5c 2c bd 95 a1 71 3d 72 d3 cb bb 54 b5 26 bd
       -0.042080462 0.058991987 -0.0062202746 -0.04070027
000020 58 31 49 bd 0e 58 cb 3d 9a 46 c7 bc 76 2c a7 bd
       -0.049119323 0.099289045 -0.024325658 -0.08162777
000030 6e 84 1b bc cd 78 74 3d 74 39 84 bd 8b 83 c0 3e
       -0.009492023 0.059685517 -0.06456271 0.3760036
000040 31 d3 1d 3d 6b c1 6d bc fa 99 1e 3d a9 a4 7c 3d
       0.038531486 -0.0145114465 0.038721062 0.06168047
000050 1f 33 86 bd ed 55 7e bd c8 9e 1c 3d 00 d3 00 bd
       -0.06552719 -0.062093664 0.038237363 -0.031451225
000060 bd d0 b9 bc 3d 58 8d bd e2 76 8d 3b 95 8d 4a 3d
       -0.022682542 -0.06901596 0.0043171505 0.04945143
000070 83 6f a1 3d 62 4b 90 3d f0 f2 38 3d 8e 7e bc bb
       0.07882597 0.07045628 0.04515356 -0.005752391
000080 0e ee a8 bc e8 38 18 3d 4a e6 b0 bc 89 8a 92 3d
       -0.020621326 0.037163645 -0.021594185 0.0715533
000090 3c 56 66 bd 34 9e 01 3e e1 a4 7d bc a7 22 fd 3d
       -0.056234583 0.12658006 -0.015481205 0.12360125
0000a0 9f 05 46 bd 65 74 51 bd d7 1b 0d bd 0b 90 31 3d
       -0.048345204 -0.051136393 -0.03445038 0.04335026
0000b0 84 61 b6 bb 7c 86 ee bd 90 18 1e 3d 7a a1 0d bd
       -0.005565824 -0.116467446 0.038597643 -0.034577824
0000c0 37 1b 35 3d 78 ae 5a bc c0 4d 3c 3c 80 ce 3b bc
       0.044215407 -0.013347261 0.011493146 -0.011462808
0000d0 4e 08 73 bd 6c 5b 85 3d e4 1a 76 bc 28 97 81 3d
       -0.05933409 0.06511578 -0.01502106 0.06327659
0000e0 3c 60 9d 3d 18 66 7e 3d 6b 63 db 3d e8 3e 92 3d
       0.07684371 0.062109083 0.10712322 0.07140905
0000f0 42 b7 55 3e 7d 06 92 3d 28 f0 73 bd c3 03 3b bb
       0.20870689 0.07130144 -0.059555203 -0.0028536178

bayes_fc2.weight_rho f4 [1, 64]
000000 d3 b0 86 bf 21 c8 b8 c0 2d a9 b1 c0 13 9e b5 c0
       -1.0522712 -5.77443 -5.5519013 -5.675546
000010 54 bb ae c0 e3 7a b1 c0 67 83 95 bf eb b9 98 c0
       -5.460367 -5.546251 -1.1680726 -4.772695
000020 46 d9 ae c0 f0 19 68 c0 c7 64 4f c0 05 d9 b1 c0
       -5.4640226 -3.626583 -3.240526 -5.5577416
000030 48 c4 d7 bf 3a 88 b3 c0 c3 36 f0 bf a8 40 5f c0
       -1.6856775 -5.610379 -1.8766712 -3.4883213
000040 3a c5 b3 c0 dc b3 18 c0 09 77 cf bf 93 31 ad c0
       -5.6178255 -2.3859777 -1.6208202 -5.4123015
000050 bd cc 98 c0 de 0e 3a c0 05 ac 0f c0 f9 8a ac c0
       -4.7749925 -2.9071574 -2.2448742 -5.3919644
000060 03 3c 08 c0 34 61 1c c0 94 ce 62 be c1 86 ac c0
       -2.1286628 -2.4434328 -0.22149116 -5.3914495
000070 08 36 b1 c0 17 1e 30 bf 8e 18 97 bf af 88 c9 bf
       -5.5378456 -0.68795913 -1.1804368 -1.5744838
000080 65 06 2a c0 3a 69 66 bf 1c 2a 17 c0 c9 62 82 c0
       -2.6566403 -0.90004313 -2.3619452 -4.0745587
000090 1c 9c b2 c0 f5 68 10 bf ed 23 8c c0 6c 80 27 bf
       -5.5815563 -0.5641015 -4.3793855 -0.6543033
0000a0 a0 63 b1 c0 d9 a5 a6 c0 ea ea b1 c0 7e b1 18 c0
       -5.5434113 -5.207745 -5.559926 -2.3858333
0000b0 42 17 12 c0 20 7b aa bf 7a ec ba bf b3 d1 a5 c0
       -2.2826695 -1.3318825 -1.4603417 -5.181848
0000c0 d3 0a a7 bf 73 65 35 c0 29 e7 1c c0 5b b7 6d c0
       -1.3050178 -2.834317 -2.451609 -3.7143161
0000d0 18 63 fd bf 3a 67 b1 c0 82 8e 2d bf 0a a2 ab c0
       -1.9795866 -5.543851 -0.67795575 -5.36353
0000e0 37 67 b0 c0 d0 ec ad c0 3d 4f 7f c0 9b 7d 88 c0
       -5.5125995 -5.435158 -3.9892113 -4.2653327
0000f0 94 70 7a bf ee 02 af c0 1e 36 ad c0 59 23 23 c0
       -0.9782803 -5.4691076 -5.412856 -2.5490324

bayes_fc2.prior_mu_old f4 [1, 64]
000000 ea e0 ac 3b 73 36 57 3d 27 11 1d bd 09 d2 37 bd
       0.0052758353 0.05254216 -0.038346436 -0.04487804
000010 ec 33 2d bd a4 2f 80 3d 5b e1 55 bd a0 c0 33 bd
       -0.042285845 0.06259087 -0.05221687 -0.043884873
000020 0d e5 50 bd e5 90 c1 3d d1 81 e7 bc 3f 75 a9 bd
       -0.05099969 0.094514646 -0.028260143 -0.08274316
000030 87 c9 dd bc ee ff 85 3d 8b 58 41 bd 80 6c bf 3e
       -0.027073635 0.06542955 -0.04720358 0.37387466
000040 aa b0 3d 3d 26 6b 38 3a fd 0f 47 3d c4 c9 7e 3d
       0.046311058 0.00070350093 0.048599232 0.062204137
000050 9c 55 98 bd 61 b3 63 bd 73 eb 36 3c 3d 06 14 bd
       -0.07438204 -0.05559099 0.011164534 -0.03613876
000060 38 4c c6 3b 28 0c 5f bd 34 9a 42 bc fc a1 4d 3d
       0.0060515665 -0.054454952 -0.011877585 0.05020331
000070 bf fa 9f 3d 31 93 83 3c ac 06 b2 3c 1a 45 05 3d
       0.07811498 0.016061397 0.021731697 0.032536604
000080 7e bc 95 bc fc 21 14 3d fc be 7c bc db c0 93 3d
       -0.018278357 0.036165223 -0.015426394 0.07214519
000090 04 7f 72 bd b3 ae 01 3e 03 12 8f bc ba 4b 2c 3e
       -0.059203163 0.12664299 -0.017464643 0.16825762
0000a0 8e 52 59 bd e2 00 55 bd 26 af 2f bd c8 ce f5 3c
       -0.053057246 -0.052002795 -0.042891644 0.030005828
0000b0 dd 41 d2 3c c2 a0 14 be 3f 5d 51 3d 10 ec 13 bd
       0.025666172 -0.14514449 0.051114317 -0.0361138
0000c0 e8 c2 e1 3c a6 ed 0c bb 7f df 9c 3c 54 28 88 bc
       0.027558759 -0.0021503954 0.01914954 -0.016620792
0000d0 14 44 b0 bd fe 51 88 3d 16 33 95 bd 24 36 7e 3d
       -0.08606735 0.06656264 -0.072851345 0.06206335
0000e0 23 56 a0 3d 73 c9 82 3d a5 6d e3 3d 5a 83 9a 3d
       0.07828929 0.0638608 0.111048974 0.075445846
0000f0 38 c0 1a 3e 73 9d 94 3d 19 56 84 bd 0d ad a1 3c
       0.15112388 0.072565936 -0.06461734 0.019735837

bayes_fc2.prior_sigma_small f4 [1, 64]
000000 ca f0 8b 3e b3 73 68 3b 8f 51 84 3b 42 16 71 3b
       0.27332145 0.0035469353 0.004038043 0.0036786948
000010 a2 a8 8d 3b 0b dc 82 3b f8 ec 88 3e d4 60 05 3c
       0.004323081 0.0039935163 0.26743293 0.008140761
000020 e9 75 96 3b 5f 18 d9 3c b1 af 1c 3d 46 f2 8b 3b
       0.0045916927 0.026500879 0.03825349 0.0042708246
000030 0d 55 20 3e a6 31 6d 3b 03 6d 0d 3e aa e6 ee 3c
       0.15657444 0.0036192923 0.13811116 0.029162724
000040 8e 45 8a 3b 5e 4c af 3d 4e 5d 37 3e 5a 43 9e 3b
       0.0042197173 0.08559488 0.17906687 0.0048298063
000050 82 0a 03 3c 78 d4 5a 3d d7 6d ce 3d 9f 68 98 3b
       0.007998111 0.053425282 0.10079544 0.0046511437
000060 1c 6b e2 3d 71 a7 b1 3d 5a 89 0f 3f bc 4a a1 3b
       0.11055586 0.08674515 0.56068957 0.004922239
000070 6e af 88 3b 31 d0 ce 3e e4 56 82 3e 01 00 3d 3e
       0.0041713035 0.40393212 0.25456917 0.18457033
000080 97 4e 8b 3d 05 72 a5 3e 29 f3 b5 3d d2 6e 8d 3c
       0.06802099 0.32313552 0.0888427 0.017264757
000090 cb c3 81 3b c4 ef e6 3e 23 11 4c 3c 48 c7 e1 3e
       0.003960108 0.45104802 0.012455258 0.44097352
0000a0 f2 12 87 3b e8 f0 c1 3b b1 39 97 3b 9c 35 bc 3d
       0.0041221315 0.005918611 0.0046150316 0.09189913
0000b0 6e f3 b4 3d 5c 52 6d 3e db 76 4b 3e ed 12 bb 3b
       0.08835493 0.23175949 0.19869559 0.0057090432
0000c0 98 dd 86 3e 3a 98 68 3d a7 08 b3 3d 39 f9 ca 3c
       0.26340938 0.0567858 0.08741885 0.024777042
0000d0 41 ee 04 3e a0 1c 86 3b d6 d2 d1 3e db 90 96 3b
       0.12981512 0.004092768 0.40981168 0.004594905
0000e0 75 2f 87 3b c8 53 90 3b 95 cc 97 3c 48 46 6a 3c
       0.0041255304 0.0044045188 0.01853017 0.014298983
0000f0 3d ff aa 3e 7b 09 93 3b fd 49 91 3b d4 d0 98 3d
       0.33397856 0.004487214 0.004433869 0.07461706

exp_avg f4 [64, 6]
000000 c1 cd c6 b6 c2 9f 75 37 e2 7a 9b b6 64 2a 69 b7
       -5.9248127e-06 1.46403345e-05 -4.6336654e-06 -1.3897752e-05
000010 a2 fb b7 b7 c2 a0 b9 b5 6d 69 27 bb bf 38 9c bb
       -2.1932476e-05 -1.3830361e-06 -0.0025545016 -0.004767507
000020 22 44 45 b9 53 71 7c bb 26 e6 0e bb 65 c2 19 b9
       -0.00018812765 -0.0038519695 -0.002180466 -0.00014663635
000030 95 c3 dd b8 af 4b 91 ba 23 93 44 b7 5e 70 85 ba
       -0.00010574531 -0.0011085178 -1.1716768e-05 -0.0010180583
000040 c4 29 a9 ba 88 32 95 38 9d 2d 1b 3b 3a 4c cf 3b
       -0.0012906124 7.114286e-05 0.002367831 0.0063262256
000050 2a 04 35 39 15 4a 24 3b 36 ea 60 3b 8e e2 2d 39
       0.00017263056 0.002506857 0.0034319288 0.00016582964
000060 bf 34 f0 3a 43 c2 33 3c 2c 2f bd 38 62 5d 0c 3b
       0.0018326266 0.010971609 9.021009e-05 0.0021417965
000070 f7 ef 51 3b a8 2c 19 39 4c bd 61 ba 27 45 72 3b
       0.00320339 0.00014607853 -0.0008611276 0.0036967488
000080 e4 38 ba 37 d1 9a ab b8 d3 54 65 ba cf e7 ac b7
       2.219942e-05 -8.182752e-05 -0.00087482965 -2.0611942e-05
000090 bd 87 fe b7 5a 0b 3b b8 2e 7c 5f 36 be 75 00 b9
       -3.0342368e-05 -4.4594846e-05 3.3301872e-06 -0.00012250894
0000a0 31 dd 23 37 71 8f cf b6 86 ad 4f 3a e9 c7 1f 3b
       9.767057e-06 -6.1857795e-06 0.00079222803 0.002438063
0000b0 c1 28 40 38 a4 ff 9a 39 2c 6e ae 3a 92 7f 78 38
       4.5814322e-05 0.00029563636 0.001330798 5.9246617e-05
0000c0 af 64 83 3b 11 b4 2d 3c f5 0f 65 39 1a af e5 3a
       0.004009805 0.010602013 0.00021845086 0.0017523498
0000d0 95 37 5a 3a 1d 24 8e 39 f7 a9 c8 38 c7 3a 5e b9
       0.00083243224 0.00027111257 9.5684016e-05 -0.00021193466
0000e0 67 74 96 37 d2 f4 1f 3a 70 a9 09 3b c0 67 0e 37
       1.7935597e-05 0.000610185 0.0021005534 8.488016e-06
0000f0 9f 9e be b7 0b cd e2 b7 b8 73 ac b7 5e ad ea 37
       -2.2723629e-05 -2.703678e-05 -2.0557884e-05 2.7975704e-05
000100 e2 04 28 38 05 ae 54 b7 80 5d 4a 3b 4c e7 2e 3c
       4.005887e-05 -1.2676702e-05 0.0030878484 0.010675263
000110 e7 29 a4 38 d3 2c a1 3a 65 c2 35 3b 0f a5 78 39
       7.827934e-05 0.0012296684 0.0027734276 0.00023712612
000120 09 34 24 b8 0c 68 44 b8 43 f9 f0 33 4d 25 c9 37
       -3.914911e-05 -4.6826943e-05 1.1221211e-07 2.3978437e-05
000130 74 d2 9a 37 3a 00 20 35 b6 11 6c ba 90 74 b5 ba
       1.845623e-05 5.9604974e-07 -0.00090053247 -0.0013843942
000140 55 68 9b b8 cf b0 6c 3a b3 62 55 ba c5 fc 9f b8
       -7.410409e-05 0.0009029032 -0.00081400125 -7.628793e-05
000150 57 08 51 b8 41 19 c9 b7 87 c4 23 b7 95 d9 1a b8
       -4.983725e-05 -2.3972827e-05 -9.761315e-06 -3.69191e-05
000160 51 e4 04 37 69 5f cc 35 79 21 0b b8 87 80 76 b8
       7.920972e-06 1.5226952e-06 -3.3171356e-05 -5.877067e-05
000170 26 af 86 b7 ca 27 85 ba 61 4f 0b 38 6d 3b d9 b7
       -1.6055605e-05 -0.0010158953 3.321411e-05 -2.5896088e-05
000180 ed bb 21 b8 dd 44 09 ba 32 e6 89 b5 fb 8f db 3a
       -3.856041e-05 -0.00052363967 -1.0274291e-06 0.0016751284
000190 db a5 33 3b ab 67 7c b8 6f 6c 02 34 d2 fb 3a b7
       0.002741209 -6.017803e-05 1.2146641e-07 -1.1145095e-05
0001a0 56 e1 16 36 5c 04 5a 38 19 51 82 37 93 ae 39 b7
       2.2482905e-06 5.197931e-05 1.5534972e-05 -1.10675055e-05
0001b0 30 4e 09 b7 79 e9 7a b8 cb ae 85 36 a9 50 e7 b6
       -8.184041e-06 -5.9822083e-05 3.9840575e-06 -6.8937265e-06
0001c0 9f 01 39 37 dc ec cc b4 a3 4e a6 ba 0a b2 17 bc
       1.1027237e-05 -3.81703e-07 -0.001268823 -0.009258756
0001d0 27 9a 0c b9 aa da 18 3a 40 ee 8f bb b6 74 16 b9
       -0.00013408867 0.00058309233 -0.0043924153 -0.00014348593
0001e0 86 b1 0f 3a b9 fe 9c 3b 66 50 ca 38 57 79 00 3b
       0.000548147 0.0047911075 9.647086e-05 0.0019603574
0001f0 d6 a9 ec 3a c5 e2 65 39 88 65 b9 38 01 7e 33 3b
       0.0018055986 0.0002192362 8.840399e-05 0.0027388337
000200 12 ee b6 b7 d3 13 73 39 68 7b 4a 3a 81 95 0d 37
       -2.180695e-05 0.00023181671 0.00077240774 8.439064e-06
000210 36 3c 0a b8 bd 8f 01 38 09 43 57 b7 1b dd 34 b8
       -3.295784e-05 3.0889863e-05 -1.28306065e-05 -4.3121265e-05
000220 fd 6c 7d b8 dd b5 1b b6 b6 2d 1d 3b c7 9e 01 3c
       -6.0421404e-05 -2.3202658e-06 0.0023983545 0.007911391
000230 a9 78 00 39 bb 62 8e 3a 83 86 1f b9 1f 8a df 38
       0.0001225198 0.0010863164 -0.00015213531 0.00010659196
000240 7c a9 9c b6 d8 56 d3 37 f8 80 2c 37 15 61 98 b5
       -4.668893e-06 2.51936e-05 1.0282027e-05 -1.1353137e-06
000250 30 d2 0b b8 ac 57 1c b7 49 9d 6f 37 f5 c4 64 b8
       -3.3335935e-05 -9.318737e-06 1.4282131e-05 -5.4542867e-05
000260 e2 9f 56 37 00 a3 6a b7 67 46 99 b7 b5 52 4e b6
       1.279262e-05 -1.3985438e-05 -1.8271805e-05 -3.0744534e-06
000270 5e 8a 88 b5 10 a4 89 37 cc 9a 87 37 55 55 8d 38
       -1.017306e-06 1.640807e-05 1.6165337e-05 6.739298e-05
000280 d1 cd 39 b8 d5 0f ec b6 fd cd 41 ba 68 9b f3 ba
       -4.429912e-05 -7.035191e-06 -0.00073930604 -0.0018585743
000290 12 ed 78 b7 23 b0 3c 3a 19 50 99 39 69 0c e4 b7
       -1.4837149e-05 0.0007197877 0.00029242111 -2.7185497e-05
0002a0 fa 9d 0d bc 13 a3 66 bc 13 ac ec b9 0e 45 81 bb
       -0.008643622 -0.014076966 -0.00045141633 -0.0039449995
0002b0 53 67 4c bc 14 2b 92 b9 47 7a 03 b8 c3 c5 94 38
       -0.012475806 -0.00027879386 -3.1346714e-05 7.094026e-05
0002c0 95 3c 6f b6 4e c9 5e 37 91 9e 94 37 64 a0 ec 36
       -3.5649039e-06 1.3279101e-05 1.7716813e-05 7.05202e-06
0002d0 b0 c1 69 37 82 12 51 b7 fa 26 a0 37 ee b1 92 b7
       1.3932979e-05 -1.246168e-05 1.9091636e-05 -1.7487411e-05
0002e0 1d b2 56 38 7c 3e 97 b6 de 06 7c b7 12 5e ac 38
       5.1187457e-05 -4.507425e-06 -1.5021969e-05 8.219121e-05
0002f0 ba f0 9b 37 4b 85 57 37 b5 82 17 37 3b f2 cf 36
       1.8589537e-05 1.2846033e-05 9.030734e-06 6.19728e-06
000300 4d de 07 b8 7c d4 3b 38 d5 57 fb 35 cc c9 8b b7
       -3.2393542e-05 4.4782166e-05 1.872652e-06 -1.666406e-05
000310 dc 98 c8 37 27 9c f0 b6 9e 52 6c b7 d9 85 d2 b7
       2.3913039e-05 -7.170736e-06 -1.4085932e-05 -2.5096278e-05
000320 c3 7d a1 b7 ad de 52 35 9c d9 aa b8 3c 78 4e 36
       -1.9251258e-05 7.855513e-07 -8.1467646e-05 3.0766378e-06
000330 17 e2 42 b5 81 ab 96 b8 d7 0b 53 37 88 ae 96 b7
       -7.2599636e-07 -7.1845025e-05 1.2579337e-05 -1.7962666e-05
000340 ad b7 cc 37 04 b9 d7 36 e7 a1 f5 b8 bf 6a 56 b9
       2.4404226e-05 6.429038e-06 -0.00011712667 -0.00020448396
000350 e5 4c c6 b7 3b 49 23 b9 a0 7d 5f 39 64 5b 08 b7
       -2.3639246e-05 -0.00015572172 0.00021313736 -8.12751e-06
000360 dd 62 d9 3a 37 a0 32 3b cf 48 b6 38 5f cc 1b 3a
       0.001658525 0.002725614 8.691998e-05 0.00059432344
000370 57 d0 7d ba a4 07 e3 38 55 93 9a b7 b7 84 13 b7
       -0.0009682229 0.00010825627 -1.8426837e-05 -8.792783e-06
000380 26 13 56 36 f4 75 02 38 a9 9c 6b 38 60 b6 df 36
       3.189963e-06 3.1104268e-05 5.6174267e-05 6.667149e-06
000390 18 c6 8d b8 44 70 e0 39 f5 21 02 37 83 42 9e 39
       -6.760302e-05 0.00042808254 7.75651e-06 0.00030185663
0003a0 bd a5 c4 38 c5 f7 f3 37 20 aa 53 b7 fa c0 c2 b7
       9.3768795e-05 2.9083234e-05 -1.261619e-05 -2.3216464e-05
0003b0 44 c4 79 b7 50 be 97 b8 1f 23 ad b8 d3 8f 89 b6
       -1.4887253e-05 -7.2356896e-05 -8.255825e-05 -4.0996615e-06
0003c0 f1 b6 f0 3a 72 e6 21 3b b4 8e 59 b8 43 26 06 3b
       0.0018365068 0.0024704007 -5.1869734e-05 0.0020469583
0003d0 94 8e ee 3b ea 72 0c 39 21 ef d8 b9 c0 8d bb 3b
       0.00728018 0.00013394249 -0.00041376895 0.005723685
0003e0 62 fa 67 38 38 63 57 3a 9f d8 86 ba 35 6b 51 37
       5.530788e-05 0.0008216384 -0.0010287947 1.2482332e-05
0003f0 47 b1 f3 39 64 05 b8 3b 5f 9c 2e 39 25 80 82 3a
       0.00046480654 0.005615877 0.00016652186 0.0009956403
