lightning_logs/version_100/checkpoints/epoch=49-step=4200.ckpt (torch, 30427 bytes, 24 tensors)

bayes_fc1.weight_mu f4 [64, 6]
000000 25 d5 be bd f1 dc ce be de 8e 6f bd d6 ec 89 be
       -0.09317998 -0.4040294 -0.05848586 -0.26938504
000010 ba 8e 44 be 00 74 79 bd c2 41 06 3f 06 26 00 be
       -0.19195071 -0.06090164 0.5244409 -0.12514505
000020 02 28 a7 3e ec 6b a1 be 8f 2e 90 3d 37 0c 87 be
       0.3264771 -0.3152765 0.0704013 -0.26376507
000030 91 cb be be e6 e4 29 3e 57 06 d7 be 91 2e 81 3e
       -0.37264684 0.16591224 -0.41997024 0.2523084
000040 d3 a4 c7 bd 8e a4 20 3e ac 6c ac be 75 9c ea 3d
       -0.097482346 0.15687773 -0.3367666 0.11455623
000050 a2 c6 05 bf 7f 4a ea 3e d9 86 bf bd 26 e4 3c bd
       -0.52256215 0.4575996 -0.09351892 -0.046116017
000060 4e 3a c1 be 16 e0 20 3e ca fb 03 bf 54 5c 90 3e
       -0.37739795 0.15710482 -0.51556075 0.2819544
000070 cc ca c2 bd 87 de c6 3d c8 ee 73 3e 59 dd c7 bd
       -0.09511337 0.097104125 0.23821557 -0.097590156
000080 0b 9d b4 3e ff dd 7f be f4 93 ee 3d 80 f5 f7 bd
       0.35276064 -0.24987029 0.116493136 -0.12107372
000090 f1 1c 40 be 63 36 70 be 77 34 f9 bd fe e1 16 be
       -0.1876104 -0.23458247 -0.1216821 -0.14734647
0000a0 34 7e 8f be d6 82 5c bd ed 61 d7 be 96 21 3e 3e
       -0.28025973 -0.053835712 -0.420669 0.185675
0000b0 c7 83 fd bd 61 d0 c6 3b 1c d9 87 be d0 49 b1 3b
       -0.1237865 0.006067321 -0.2653283 0.0054104105
0000c0 0f 34 98 be 81 17 ec 3d 49 0d 05 bf 2c 88 dd 3e
       -0.29727218 0.115279205 -0.51973397 0.43267953
0000d0 cf da d0 bd af 33 5a 3c 34 5d d9 bd d7 08 3b be
       -0.101979844 0.013317986 -0.1061348 -0.18265091
0000e0 f9 0f b9 3c 9f 70 84 be 0e 70 8f bb 1a ee 13 bd
       0.022590624 -0.25867173 -0.0043773716 -0.036115743
0000f0 4a 2e 94 be a4 d3 56 be 4a 66 b7 bb 0e 3a 96 be
       -0.28941566 -0.20979172 -0.0055969106 -0.29341167
000100 1d 68 cf bc bc e3 10 bd f9 f0 63 be a0 7f da 3b
       -0.0253182 -0.035373434 -0.22259893 0.006668046
000110 e6 49 0c bf 9b d4 cd 3e 5c 37 ea bd 65 ca 67 3b
       -0.5480026 0.40201268 -0.1143634 0.003536844
000120 6f da 6a be 2e 20 dc bd ac a9 81 bd 9a 11 2e be
       -0.22934888 -0.10748325 -0.063311905 -0.16998902
000130 f9 31 bb be b8 79 32 bd c1 3a 06 3f 80 2c f1 bd
       -0.36561564 -0.04357311 0.524334 -0.11776066
000140 3e 07 92 3e 40 77 b2 be 06 c6 d1 3d ef 93 31 be
       0.2852115 -0.34856606 0.10242848 -0.17341588
000150 6b c7 1e bd c3 2a 32 be 2d 77 e6 bc 6e d1 92 be
       -0.0387644 -0.17399125 -0.028133 -0.28675407
000160 ee f8 b3 be 63 33 5c bd be fe 00 bf 93 59 81 be
       -0.35150856 -0.053759944 -0.50388706 -0.25263652
000170 50 b0 35 3b 5c 54 2b be bf 2c 5e bd a2 92 ab 3d
       0.0027723499 -0.167314 -0.054241892 0.08377577
000180 bb 60 a8 3e 8b 18 f9 bd 9e f3 f1 3e 98 ff ad be
       0.328863 -0.12162884 0.47256178 -0.33984065
000190 08 3c 22 3e b0 cb 74 be e8 34 91 be 2c 77 05 be
       0.15843213 -0.23905826 -0.28360677 -0.13033742
0001a0 04 de 64 bd 74 b2 53 be 47 3a 88 be 3a be 92 bd
       -0.055875793 -0.20673543 -0.26606962 -0.07165189
0001b0 7e d0 24 be 7c b2 44 be 3b e4 47 bd c3 a8 41 be
       -0.16095158 -0.19208711 -0.048801642 -0.18912034
0001c0 fe 12 7b be 18 3a 89 bd 05 ef 9d 3e d9 9d e1 bd
       -0.24518964 -0.06700534 0.3084642 -0.11016435
0001d0 f8 54 ce 3e 4e 0c 91 be a1 10 0f 3e 02 e6 8b be
       0.402992 -0.283297 0.13971187 -0.2732392
0001e0 b9 e7 95 be 59 ef 01 3d 48 70 c2 be b1 7a 93 3e
       -0.29278353 0.0317224 -0.3797629 0.28804544
0001f0 51 7a b9 bd d3 a0 89 3d 93 02 60 be 10 35 24 3d
       -0.09056533 0.06720128 -0.21875982 0.040089667
000200 aa d8 f7 bd d1 89 3b be 7a 38 20 be 94 96 2d 3d
       -0.12101872 -0.18314292 -0.15646544 0.04237993
000210 49 e7 c9 bd 44 be 69 be 8f 22 28 bd 2c 0b 90 be
       -0.09858567 -0.22826487 -0.041048583 -0.28133523
000220 f5 19 bd be 7b 95 60 bd 98 5d bd be 78 5e 9d 3d
       -0.36933866 -0.054830056 -0.3698547 0.07684034
000230 1d 51 a2 be 5e 4d 8a 3e c9 61 e1 bd 23 16 b0 3c
       -0.3170251 0.2701215 -0.11004979 0.02149493
000240 c9 1f 99 bd 6a a1 08 be 9b 18 a9 bd 7e a6 88 be
       -0.07476766 -0.13342825 -0.08256646 -0.26689523
000250 7d 94 9a be ca 05 3c bd 07 2a d8 bd ad 46 8d be
       -0.30191413 -0.04590396 -0.10554891 -0.27592984
000260 b3 fb dc bc 03 be eb 3b 18 36 a4 be 2a e5 57 bc
       -0.026975488 0.007194282 -0.3207252 -0.013177196
000270 4a 37 8a be 41 9c e1 bd 3a 5b d3 bb 22 b3 55 be
       -0.26995307 -0.11016131 -0.006450084 -0.20869115
000280 8b c4 eb bd 2f bc 16 bd c1 82 73 3e 36 4b 8a bd
       -0.11512097 -0.03680056 0.23780347 -0.067526266
000290 2c 36 be 3e 8e c7 ad be 45 27 21 3e b4 5d 0e be
       0.37150705 -0.3394131 0.15737636 -0.13902932
0002a0 3f 0b c5 3e fc eb 6b bd 46 00 96 3e 5e 3e 80 be
       0.38485143 -0.0575981 0.29297084 -0.25047582
0002b0 8a 59 8f 3d 04 b6 6b 3c 11 af d1 bd 22 53 ad be
       0.069995 0.014386658 -0.102384694 -0.33852488
0002c0 2c 12 69 bd 07 d2 1d be ec ee 96 be 2f ad 6c bd
       -0.056902096 -0.1541215 -0.29479158 -0.05778235
0002d0 cf 0c 8e be 32 97 38 be 8e 51 e2 bd 4b 7e 18 3d
       -0.27744147 -0.18026426 -0.110507116 0.037229817
0002e0 5f a6 ac be e1 6c 57 bd c7 44 48 be 0e 61 92 be
       -0.3372068 -0.05259407 -0.19557486 -0.28589672
0002f0 fc ae da bd a9 31 2b be 90 b5 ac be bc ae 15 bd
       -0.10677907 -0.16718163 -0.3373227 -0.036543593
000300 33 5a f2 bd fa c0 49 be a0 8c eb bd 35 a4 e8 bd
       -0.118336104 -0.19702521 -0.115014315 -0.11359445
000310 98 7a 28 be 8d 1b 45 bd 13 0f 82 be 4f e5 62 be
       -0.16453016 -0.048121978 -0.25402126 -0.22157787
000320 ba d8 d7 bc 1f 68 64 be 12 cb 40 be 79 b5 a1 3b
       -0.02634846 -0.22305344 -0.18827465 0.0049349633
000330 bf a3 62 bd b4 4f b8 bd 22 bd 25 bd dd 18 64 be
       -0.05533194 -0.08999577 -0.040463574 -0.2227511
000340 8b 3c 9e be 17 73 54 bd b1 c2 8c 3d 86 1d 10 be
       -0.30905566 -0.05186757 0.06873072 -0.14073762
000350 37 0f 04 3e e3 43 d7 be a9 df f7 3d 08 22 b7 bd
       0.12896429 -0.4204398 0.12103207 -0.08942038
000360 a6 e1 e8 be 41 88 57 3e 40 6d ec be 8b d3 4a 3e
       -0.45484656 0.2104807 -0.461771 0.1980726
000370 cf f9 b3 bd 25 91 28 3e 8d 23 8f be 3f b8 bb be
       -0.087878816 0.16461618 -0.2795681 -0.36664006
000380 87 b4 32 bd 10 bd a2 be f4 c1 91 be 08 3f d8 bc
       -0.043629196 -0.31784868 -0.28468287 -0.026397243
000390 3c d2 8c be b3 eb e2 3d 32 ff b4 bd e3 a4 de bd
       -0.27504146 0.11080112 -0.08837737 -0.108712934
0003a0 f8 99 89 be 15 b6 ce bd 1b 7c cc bd b0 c5 0e be
       -0.2687528 -0.10093323 -0.09984609 -0.139426
0003b0 73 37 17 bd 50 98 b6 bd 55 95 ab be fd 7a 01 3d
       -0.036918115 -0.0891577 -0.3351237 0.03161143
0003c0 e6 0f bb be e2 e9 e7 3d 0f 92 03 bf 69 32 a3 3e
       -0.36535567 0.113239065 -0.5139474 0.31874397
0003d0 e6 0e a0 bd c3 2c 32 3e ce f6 b5 be e4 fe a0 3d
       -0.07815342 0.17399888 -0.3553986 0.078611165
0003e0 d4 37 93 be 74 e7 81 3e de c1 d4 bd 01 40 9b 3d
       -0.2875353 0.25371897 -0.1038854 0.07580567
0003f0 8f 4c 76 be df c4 3e bd d5 e8 60 be 9f bd c9 3e
       -0.24052642 -0.04657447 -0.21963818 0.39402482

bayes_fc1.weight_rho f4 [64, 6]
000000 77 94 bd bf f3 1f d6 bf d3 19 ea 3e 52 e8 95 bf
       -1.4810933 -1.67285 0.45722827 -1.1711524
000010 4b 00 00 c0 42 45 f7 3e dc 8b 27 c0 55 ad 4b c0
       -2.000018 0.48295027 -2.6179113 -3.1824543
000020 38 ea b1 be 9c 2e 1d c0 02 ad 41 c0 0f 50 47 be
       -0.34749007 -2.4559698 -3.0261846 -0.19464134
000030 37 25 1a c0 d0 54 51 c0 fb 21 0d 3c c4 41 0e c0
       -2.4085214 -3.2708015 0.008614059 -2.222764
000040 fb c4 43 c0 c3 db a2 bc f8 fa 29 c0 48 e6 54 c0
       -3.0588977 -0.019880181 -2.655943 -3.3265553
000050 7a a8 99 be c2 d3 28 c0 fe 33 61 c0 97 22 f2 be
       -0.3001135 -2.6379247 -3.5187984 -0.47292015
000060 84 ea 1e c0 45 6e 46 c0 03 aa 38 be 07 f0 14 c0
       -2.4830637 -3.1004803 -0.18033604 -2.32715
000070 5a 9e 3f c0 f9 8f be be fd c6 12 c0 19 18 3b c0
       -2.99404 -0.37219217 -2.2933953 -2.9233458
000080 f7 3b 29 3d bb 58 19 c0 0d 17 41 c0 85 c0 53 bd
       0.041316953 -2.3960407 -3.017032 -0.051697273
000090 48 d6 ab bf cb 9a 00 c0 2d 1f b8 3e 2d e7 b5 bf
       -1.3424768 -2.0094478 0.35961285 -1.4211174
0000a0 ef 25 04 c0 ef c2 de 3e f2 68 d9 bf 6b 1f 29 c0
       -2.0648153 0.43508098 -1.6985152 -2.6425426
0000b0 47 71 ad 3e 3f e0 b0 bf c8 a6 0a c0 d4 a2 bc 3e
       0.33875486 -1.3818434 -2.1664295 0.36842978
0000c0 cf e4 23 c0 53 42 48 c0 78 09 5d be 3c 1e 1f c0
       -2.5608404 -3.129048 -0.21585643 -2.4862204
0000d0 4c 72 4e c0 19 66 c5 be fc ae c7 bf 5e c0 1a c0
       -3.2257261 -0.38554457 -1.5600276 -2.4179912
0000e0 4c 80 a4 3e 95 e8 fc bf 42 b5 20 c0 0c b9 9e 3e
       0.32129133 -1.9758478 -2.511063 0.31000555
0000f0 02 3a 91 bf 5c 4e 0b c0 25 a9 0a 3f c3 8f a8 bf
       -1.1345828 -2.1766577 0.54164344 -1.3168873
000100 4f da 0f c0 20 89 ef 3e aa 58 1a c0 5f 03 47 c0
       -2.2476995 0.46784306 -2.4116616 -3.1095808
000110 ba 1e e7 bd 0f a1 1b c0 da d3 48 c0 90 03 92 be
       -0.112851575 -2.4317052 -3.1379304 -0.28518343
000120 22 2c d7 bf 31 6f 1b c0 6b 32 cf 3e 8b 39 c8 bf
       -1.6810343 -2.4286616 0.40468153 -1.5642561
000130 e4 81 e4 bf 49 0f ee 3e 79 0f 36 c0 58 5a 5a c0
       -1.785214 0.46496037 -2.8446944 -3.4117641
000140 9d 48 09 bf fb 06 30 c0 5b a7 60 c0 29 0c 03 bf
       -0.53626424 -2.750426 -3.5102146 -0.5119043
000150 9a a6 e4 bf 02 92 11 c0 0e b8 f6 3e 52 52 aa bf
       -1.7863343 -2.2745366 0.48187298 -1.3306372
000160 24 39 da bf 13 09 05 3f 08 68 c7 bf cb ee 05 c0
       -1.7048688 0.5196697 -1.5578623 -2.0926998
000170 7a 36 90 3e 76 6b 11 c0 b6 7f 3b c0 ba 23 9c 3e
       0.28166562 -2.272184 -2.9296699 0.30496007
000180 70 3e 10 c0 b6 27 4b c0 14 b7 c6 bd 36 9d 29 c0
       -2.253811 -3.1742988 -0.09702888 -2.6502204
000190 fb 42 4d c0 86 b2 e4 bd 1a 27 b2 bf af c7 12 c0
       -3.2072132 -0.11166863 -1.3918183 -2.2934377
0001a0 ce bb de 3e cf c4 bf bf 48 62 0b c0 34 fe 16 3f
       0.4350266 -1.4981936 -2.1778736 0.58981633
0001b0 56 09 bd bf 4a 15 09 c0 86 e1 ef 3e cf d4 bb bf
       -1.4768474 -2.1419244 0.46851748 -1.4674319
0001c0 6f 60 08 c0 a0 ae d1 3e 91 07 27 c0 00 d9 50 c0
       -2.1308858 0.4095354 -2.6098368 -3.2632446
0001d0 b7 04 a9 be b3 3a 2a c0 fc 77 4f c0 00 ab 96 be
       -0.3301141 -2.6598327 -3.2416983 -0.29427338
0001e0 0d 75 1f c0 67 65 3f c0 9e e0 30 be a9 22 1c c0
       -2.4915192 -2.990564 -0.17273185 -2.4396155
0001f0 8f d0 49 c0 d5 2b 78 be 08 0c f6 bf d6 d4 2a c0
       -3.1533544 -0.2423547 -1.9222422 -2.6692405
000200 b0 4e a0 3e b6 36 d0 bf 88 5a 24 c0 88 ab 7e 3e
       0.31310034 -1.6266696 -2.5680256 0.24870121
000210 17 44 97 bf 6b 78 05 c0 02 95 fa 3e be 78 6a bf
       -1.1817654 -2.0854747 0.4894181 -0.9159049
000220 53 3a c5 bf 5a 96 00 3f 85 c3 14 c0 2f 32 3b c0
       -1.5408424 0.5022942 -2.3244336 -2.924938
000230 5b c7 02 3e 50 46 0b c0 a7 d8 34 c0 00 56 e5 3c
       0.1277136 -2.1761665 -2.8257234 0.02799511
000240 81 93 bd bf de 53 0b c0 bf f6 fb 3e 01 8d 85 bf
       -1.481064 -2.1769938 0.4921169 -1.0433656
000250 53 ec f1 bf 84 41 00 3f 34 96 aa bf c7 86 ff bf
       -1.8900245 0.5009997 -1.3327088 -1.9963006
000260 56 59 f4 3e 1e 12 b2 bf d7 51 cf bf 6b db f4 3e
       0.47724408 -1.3911779 -1.619685 0.47823653
000270 e3 0c d6 bf 20 5d 2c c0 f2 5f c0 3e cc 7a e8 bf
       -1.6722683 -2.693184 0.375732 -1.8162475
000280 7a c2 27 c0 bd 9d ac 3e f2 5c 2f c0 36 ae 50 c0
       -2.621245 0.33714095 -2.740048 -3.260633
000290 d2 54 11 bf 64 21 33 c0 26 b8 56 c0 73 a5 e3 be
       -0.5677005 -2.798913 -3.3549895 -0.44462165
0002a0 a8 5e 35 c0 f3 f5 63 c0 09 a8 2d bf 33 15 33 c0
       -2.8339024 -3.5618865 -0.67834526 -2.798169
0002b0 c3 2f 5f c0 ee c0 2a bf 31 33 c0 bf e0 1e 07 c0
       -3.4872901 -0.6670064 -1.5015622 -2.1112595
0002c0 8f 64 eb 3e 87 1a ae bf 27 a7 f7 bf 64 7b 60 3e
       0.45975158 -1.3601846 -1.9347886 0.2192207
0002d0 8e ed d1 bf fa a1 12 c0 bd 3a cd 3e e6 b6 ea bf
       -1.6400621 -2.2911363 0.40083876 -1.8337066
0002e0 4d 7d 09 c0 0d 3a ba 3e dc c9 a6 bf bd d3 08 c0
       -2.1482728 0.36372414 -1.3030353 -2.1379235
0002f0 0c 62 ea 3e 1d 43 a7 bf 82 c6 da bf bd 5e ef 3e
       0.4577793 -1.3067356 -1.709183 0.46751967
000300 49 b6 c7 bf 04 ac 0c c0 68 79 d0 3e 17 f3 bd bf
       -1.5602504 -2.197999 0.40717626 -1.483981
000310 67 ac 13 c0 6b 0e e6 3e a6 e6 b7 bf 27 81 0a c0
       -2.3073976 0.44932875 -1.4367263 -2.1641328
000320 ad d4 f0 3e 99 77 b4 bf 5f fd 0d c0 c8 1c d4 3e
       0.4703726 -1.4098998 -2.2185895 0.41428208
000330 69 59 b9 bf db 85 16 c0 3e 45 e4 3e 91 b2 9e bf
       -1.4480411 -2.35192 0.44584078 -1.2398244
000340 13 27 02 c0 a0 2a b6 3e 9b 8c e1 bf dd 69 28 c0
       -2.033635 0.35579395 -1.7621034 -2.6314614
000350 b5 32 54 3e 04 db fe bf bb 8c 29 c0 40 d3 53 3e
       0.20722468 -1.9910588 -2.6492145 0.20686054
000360 29 b4 2b c0 4e 96 53 c0 bf 19 82 be 56 e7 25 c0
       -2.682871 -3.3060489 -0.25410268 -2.5922446
000370 0f 15 58 c0 4e 9f 8d be 76 d0 b7 bf 56 1f dd bf
       -3.3762853 -0.27660602 -1.4360492 -1.7275188
000380 4b ec bb 3e d1 52 a9 bf 2f 64 fe bf 75 3e e9 3e
       0.36703715 -1.3228399 -1.9874324 0.45555463
000390 48 fc d6 bf b3 f3 26 c0 08 be e2 3e c6 2f d0 bf
       -1.679574 -2.6086242 0.44285607 -1.6264579
0003a0 6a 90 03 c0 bb a2 a3 bd 88 0c eb bf c9 bd 21 c0
       -2.0556893 -0.07990023 -1.8363199 -2.5272086
0003b0 44 85 e3 3e 98 64 04 c0 dc 80 07 c0 b9 83 a9 3e
       0.4443761 -2.0686398 -2.11724 0.3310831
0003c0 61 fa 23 c0 61 68 4c c0 6d 9b 81 be 87 72 25 c0
       -2.562157 -3.1938708 -0.25313893 -2.5851152
0003d0 67 5d 48 c0 92 95 aa be 8c f5 1c c0 67 d8 3d c0
       -3.1307008 -0.33317238 -2.452487 -2.9663332
0003e0 f8 73 5b bd ee f4 18 c0 df 25 48 c0 be e1 11 be
       -0.053577393 -2.3899493 -3.1273115 -0.1424627
0003f0 49 fe 0a c0 0e c4 34 c0 28 f0 14 3e 5f 88 0a c0
       -2.1717703 -2.8244662 0.14544737 -2.1645734

bayes_fc1.bias_mu f4 [64]
000000 32 10 21 be 92 cc 59 3d 2c 3a 8f bd 7d 9f a4 be
       -0.15728834 0.05317361 -0.06993517 -0.3215293
000010 50 2b 7f be ec e3 81 3e 39 23 e8 bd e4 ea c5 bc
       -0.24918866 0.25369203 -0.11334843 -0.024159856
000020 eb 0d 43 be dc 30 d4 3d 00 a6 ef bd a2 c8 b6 be
       -0.19048278 0.10360882 -0.11701584 -0.35699946
000030 52 65 8a bd 41 13 2c 3e 97 52 4e bd 03 f2 86 3e
       -0.067576066 0.1680422 -0.050371733 0.26356515
000040 09 42 1d 3e 72 5e 8a bd e5 ce 16 be b6 a1 ac 3d
       0.15357222 -0.06756295 -0.14727362 0.084292814
000050 cb dd a7 be 86 84 ff bd 5a 6b 0c be d4 7d 4c be
       -0.32786402 -0.12476449 -0.13712826 -0.19969875
000060 a3 c2 f2 bd f2 e0 c1 bd 11 6c 81 bd 65 39 86 3e
       -0.1185353 -0.09466733 -0.0631944 0.26215664
000070 4d 86 98 3e ad 28 24 be 01 ef 74 be 1c 13 0e be
       0.29789963 -0.16031142 -0.23919298 -0.13874477
000080 44 92 3e be 3e 89 34 be cd d5 c2 bd db 91 d3 bc
       -0.18610483 -0.17630479 -0.095134355 -0.025826385
000090 d6 14 97 be 9a 7b c3 bd 6d 2b 4e 3c c3 e4 42 bd
       -0.29508084 -0.095450595 0.012583596 -0.047581445
0000a0 18 a3 9f be 89 01 a4 be 22 2c 55 be fe 3b 1d be
       -0.31179118 -0.3203242 -0.20817617 -0.15354916
0000b0 f0 40 a8 bd 36 e7 05 be 16 96 49 be 34 c4 e7 bd
       -0.08215511 -0.13076481 -0.1968616 -0.1131672
0000c0 81 f3 87 bd 49 e2 8a bd a4 cd df bd b8 25 da bd
       -0.066382416 -0.06781442 -0.10927895 -0.106517255
0000d0 36 8e 6c be 03 74 d9 3d 26 d9 39 be 74 aa 74 3e
       -0.23101124 0.106178306 -0.18149242 0.23893148
0000e0 e0 71 7f bd 80 22 40 3e 99 db 5f 3e d7 49 ef 3d
       -0.06236446 0.1876316 0.21861114 0.11684006
0000f0 c6 47 b8 bd 0b b0 0b 3e 42 50 6a be 9f 63 ec bd
       -0.08998065 0.13641374 -0.22882178 -0.11542439

bayes_fc1.bias_rho f4 [64]
000000 fe b1 37 3e c8 6e 92 bf ff f7 80 bf f1 a3 96 bf
       0.17938992 -1.1440058 -1.0075682 -1.1768781
000010 70 18 7f bf c9 ba 60 bf 3e ff 26 bc e7 9f 62 be
       -0.99646664 -0.8778501 -0.01019269 -0.2213131
000020 c8 d1 86 bf 59 6b 80 be 2a 05 64 3e b9 11 7f bf
       -1.053277 -0.250819 0.22267595 -0.9963642
000030 35 b4 8c 3d 35 e6 af bf ad 58 bb 3c 1d 57 ec be
       0.06870309 -1.3742129 0.022869432 -0.46160212
000040 ee b4 74 bf dd 0e 60 3e 67 2f 00 3e b6 35 a2 bf
       -0.95588577 0.2188067 0.12518083 -1.2672641
000050 56 8c 77 bf 99 b2 e8 be a7 a5 77 3e c8 c2 34 bf
       -0.9669851 -0.4544876 0.24184285 -0.7060971
000060 1c 9d 47 3e 61 e4 3d 3e bd 03 0b bf de b2 b7 bf
       0.19493526 0.18544151 -0.5430258 -1.4351461
000070 12 a0 ba bf 92 1b f5 bb cf 30 7d 3d 32 87 35 3e
       -1.45801 -0.0074800933 0.061814126 0.17727354
000080 df 0e 23 bd ca f9 c7 3d 5a 3b a9 3d 3c 3e f2 be
       -0.039809104 0.0976444 0.082632735 -0.47313106
000090 a7 db b0 bf 3b ec f6 3b 28 2f a8 bd b8 8e 49 be
       -1.3817033 0.007535485 -0.08212119 -0.19683349
0000a0 20 89 92 bf 55 ff 79 bf 30 62 14 bf 59 86 3a 3e
       -1.1448097 -0.9765523 -0.5796232 0.18215312
0000b0 90 33 0b 3e 5b 66 0b be a8 b9 06 be 47 97 32 bf
       0.13593888 -0.13613264 -0.1315676 -0.6976208
0000c0 86 e3 be 3d 19 af ac bc 0c 62 cc bd e0 7a 9a 3d
       0.093207404 -0.021079587 -0.099796385 0.07542968
0000d0 15 9e 4c 3e 20 e6 b4 bf 0a 24 82 bd e9 91 a4 bf
       0.19982179 -1.4132729 -0.0635453 -1.2857028
0000e0 f3 23 82 bf c8 e4 1b bf 64 c8 1e bf ba 4a 21 be
       -1.0167221 -0.6089597 -0.6202452 -0.15751162
0000f0 57 f1 f9 3d 20 5f c5 be 58 d6 a2 bf 81 2d 6e be
       0.12204235 -0.38549137 -1.2721663 -0.23259546

bayes_fc1.prior_mu_old_bias f4 [64]
000000 00 00 00 00 00 00 00 00 00 00 00 00 00 00 00 00
       0.0 0.0 0.0 0.0
000010 00 00 00 00 00 00 00 00 00 00 00 00 00 00 00 00
       0.0 0.0 0.0 0.0
000020 00 00 00 00 00 00 00 00 00 00 00 00 00 00 00 00
       0.0 0.0 0.0 0.0
000030 00 00 00 00 00 00 00 00 00 00 00 00 00 00 00 00
       0.0 0.0 0.0 0.0
000040 00 00 00 00 00 00 00 00 00 00 00 00 00 00 00 00
       0.0 0.0 0.0 0.0
000050 00 00 00 00 00 00 00 00 00 00 00 00 00 00 00 00
       0.0 0.0 0.0 0.0
000060 00 00 00 00 00 00 00 00 00 00 00 00 00 00 00 00
       0.0 0.0 0.0 0.0
000070 00 00 00 00 00 00 00 00 00 00 00 00 00 00 00 00
       0.0 0.0 0.0 0.0
000080 00 00 00 00 00 00 00 00 00 00 00 00 00 00 00 00
       0.0 0.0 0.0 0.0
000090 00 00 00 00 00 00 00 00 00 00 00 00 00 00 00 00
       0.0 0.0 0.0 0.0
0000a0 00 00 00 00 00 00 00 00 00 00 00 00 00 00 00 00
       0.0 0.0 0.0 0.0
0000b0 00 00 00 00 00 00 00 00 00 00 00 00 00 00 00 00
       0.0 0.0 0.0 0.0
0000c0 00 00 00 00 00 00 00 00 00 00 00 00 00 00 00 00
       0.0 0.0 0.0 0.0
0000d0 00 00 00 00 00 00 00 00 00 00 00 00 00 00 00 00
       0.0 0.0 0.0 0.0
0000e0 00 00 00 00 00 00 00 00 00 00 00 00 00 00 00 00
       0.0 0.0 0.0 0.0
0000f0 00 00 00 00 00 00 00 00 00 00 00 00 00 00 00 00
       0.0 0.0 0.0 0.0

bayes_fc1.prior_sigma_small_bias f4 [64]
000000 00 00 80 3f 00 00 80 3f 00 00 80 3f 00 00 80 3f
       1.0 1.0 1.0 1.0
000010 00 00 80 3f 00 00 80 3f 00 00 80 3f 00 00 80 3f
       1.0 1.0 1.0 1.0
000020 00 00 80 3f 00 00 80 3f 00 00 80 3f 00 00 80 3f
       1.0 1.0 1.0 1.0
000030 00 00 80 3f 00 00 80 3f 00 00 80 3f 00 00 80 3f
       1.0 1.0 1.0 1.0
000040 00 00 80 3f 00 00 80 3f 00 00 80 3f 00 00 80 3f
       1.0 1.0 1.0 1.0
000050 00 00 80 3f 00 00 80 3f 00 00 80 3f 00 00 80 3f
       1.0 1.0 1.0 1.0
000060 00 00 80 3f 00 00 80 3f 00 00 80 3f 00 00 80 3f
       1.0 1.0 1.0 1.0
000070 00 00 80 3f 00 00 80 3f 00 00 80 3f 00 00 80 3f
       1.0 1.0 1.0 1.0
000080 00 00 80 3f 00 00 80 3f 00 00 80 3f 00 00 80 3f
       1.0 1.0 1.0 1.0
000090 00 00 80 3f 00 00 80 3f 00 00 80 3f 00 00 80 3f
       1.0 1.0 1.0 1.0
0000a0 00 00 80 3f 00 00 80 3f 00 00 80 3f 00 00 80 3f
       1.0 1.0 1.0 1.0
0000b0 00 00 80 3f 00 00 80 3f 00 00 80 3f 00 00 80 3f
       1.0 1.0 1.0 1.0
0000c0 00 00 80 3f 00 00 80 3f 00 00 80 3f 00 00 80 3f
       1.0 1.0 1.0 1.0
0000d0 00 00 80 3f 00 00 80 3f 00 00 80 3f 00 00 80 3f
       1.0 1.0 1.0 1.0
0000e0 00 00 80 3f 00 00 80 3f 00 00 80 3f 00 00 80 3f
       1.0 1.0 1.0 1.0
0000f0 00 00 80 3f 00 00 80 3f 00 00 80 3f 00 00 80 3f
       1.0 1.0 1.0 1.0

bayes_fc1.prior_mu_old f4 [64, 6]
000000 00 00 00 00 00 00 00 00 00 00 00 00 00 00 00 00
       0.0 0.0 0.0 0.0
000010 00 00 00 00 00 00 00 00 00 00 00 00 00 00 00 00
       0.0 0.0 0.0 0.0
000020 00 00 00 00 00 00 00 00 00 00 00 00 00 00 00 00
       0.0 0.0 0.0 0.0
000030 00 00 00 00 00 00 00 00 00 00 00 00 00 00 00 00
       0.0 0.0 0.0 0.0
000040 00 00 00 00 00 00 00 00 00 00 00 00 00 00 00 00
       0.0 0.0 0.0 0.0
000050 00 00 00 00 00 00 00 00 00 00 00 00 00 00 00 00
       0.0 0.0 0.0 0.0
000060 00 00 00 00 00 00 00 00 00 00 00 00 00 00 00 00
       0.0 0.0 0.0 0.0
000070 00 00 00 00 00 00 00 00 00 00 00 00 00 00 00 00
       0.0 0.0 0.0 0.0
000080 00 00 00 00 00 00 00 00 00 00 00 00 00 00 00 00
       0.0 0.0 0.0 0.0
000090 00 00 00 00 00 00 00 00 00 00 00 00 00 00 00 00
       0.0 0.0 0.0 0.0
0000a0 00 00 00 00 00 00 00 00 00 00 00 00 00 00 00 00
       0.0 0.0 0.0 0.0
0000b0 00 00 00 00 00 00 00 00 00 00 00 00 00 00 00 00
       0.0 0.0 0.0 0.0
0000c0 00 00 00 00 00 00 00 00 00 00 00 00 00 00 00 00
       0.0 0.0 0.0 0.0
0000d0 00 00 00 00 00 00 00 00 00 00 00 00 00 00 00 00
       0.0 0.0 0.0 0.0
0000e0 00 00 00 00 00 00 00 00 00 00 00 00 00 00 00 00
       0.0 0.0 0.0 0.0
0000f0 00 00 00 00 00 00 00 00 00 00 00 00 00 00 00 00
       0.0 0.0 0.0 0.0
000100 00 00 00 00 00 00 00 00 00 00 00 00 00 00 00 00
       0.0 0.0 0.0 0.0
000110 00 00 00 00 00 00 00 00 00 00 00 00 00 00 00 00
       0.0 0.0 0.0 0.0
000120 00 00 00 00 00 00 00 00 00 00 00 00 00 00 00 00
       0.0 0.0 0.0 0.0
000130 00 00 00 00 00 00 00 00 00 00 00 00 00 00 00 00
       0.0 0.0 0.0 0.0
000140 00 00 00 00 00 00 00 00 00 00 00 00 00 00 00 00
       0.0 0.0 0.0 0.0
000150 00 00 00 00 00 00 00 00 00 00 00 00 00 00 00 00
       0.0 0.0 0.0 0.0
000160 00 00 00 00 00 00 00 00 00 00 00 00 00 00 00 00
       0.0 0.0 0.0 0.0
000170 00 00 00 00 00 00 00 00 00 00 00 00 00 00 00 00
       0.0 0.0 0.0 0.0
000180 00 00 00 00 00 00 00 00 00 00 00 00 00 00 00 00
       0.0 0.0 0.0 0.0
000190 00 00 00 00 00 00 00 00 00 00 00 00 00 00 00 00
       0.0 0.0 0.0 0.0
0001a0 00 00 00 00 00 00 00 00 00 00 00 00 00 00 00 00
       0.0 0.0 0.0 0.0
0001b0 00 00 00 00 00 00 00 00 00 00 00 00 00 00 00 00
       0.0 0.0 0.0 0.0
0001c0 00 00 00 00 00 00 00 00 00 00 00 00 00 00 00 00
       0.0 0.0 0.0 0.0
0001d0 00 00 00 00 00 00 00 00 00 00 00 00 00 00 00 00
       0.0 0.0 0.0 0.0
0001e0 00 00 00 00 00 00 00 00 00 00 00 00 00 00 00 00
       0.0 0.0 0.0 0.0
0001f0 00 00 00 00 00 00 00 00 00 00 00 00 00 00 00 00
       0.0 0.0 0.0 0.0
000200 00 00 00 00 00 00 00 00 00 00 00 00 00 00 00 00
       0.0 0.0 0.0 0.0
000210 00 00 00 00 00 00 00 00 00 00 00 00 00 00 00 00
       0.0 0.0 0.0 0.0
000220 00 00 00 00 00 00 00 00 00 00 00 00 00 00 00 00
       0.0 0.0 0.0 0.0
000230 00 00 00 00 00 00 00 00 00 00 00 00 00 00 00 00
       0.0 0.0 0.0 0.0
000240 00 00 00 00 00 00 00 00 00 00 00 00 00 00 00 00
       0.0 0.0 0.0 0.0
000250 00 00 00 00 00 00 00 00 00 00 00 00 00 00 00 00
       0.0 0.0 0.0 0.0
000260 00 00 00 00 00 00 00 00 00 00 00 00 00 00 00 00
       0.0 0.0 0.0 0.0
000270 00 00 00 00 00 00 00 00 00 00 00 00 00 00 00 00
       0.0 0.0 0.0 0.0
000280 00 00 00 00 00 00 00 00 00 00 00 00 00 00 00 00
       0.0 0.0 0.0 0.0
000290 00 00 00 00 00 00 00 00 00 00 00 00 00 00 00 00
       0.0 0.0 0.0 0.0
0002a0 00 00 00 00 00 00 00 00 00 00 00 00 00 00 00 00
       0.0 0.0 0.0 0.0
0002b0 00 00 00 00 00 00 00 00 00 00 00 00 00 00 00 00
       0.0 0.0 0.0 0.0
0002c0 00 00 00 00 00 00 00 00 00 00 00 00 00 00 00 00
       0.0 0.0 0.0 0.0
0002d0 00 00 00 00 00 00 00 00 00 00 00 00 00 00 00 00
       0.0 0.0 0.0 0.0
0002e0 00 00 00 00 00 00 00 00 00 00 00 00 00 00 00 00
       0.0 0.0 0.0 0.0
0002f0 00 00 00 00 00 00 00 00 00 00 00 00 00 00 00 00
       0.0 0.0 0.0 0.0
000300 00 00 00 00 00 00 00 00 00 00 00 00 00 00 00 00
       0.0 0.0 0.0 0.0
000310 00 00 00 00 00 00 00 00 00 00 00 00 00 00 00 00
       0.0 0.0 0.0 0.0
000320 00 00 00 00 00 00 00 00 00 00 00 00 00 00 00 00
       0.0 0.0 0.0 0.0
000330 00 00 00 00 00 00 00 00 00 00 00 00 00 00 00 00
       0.0 0.0 0.0 0.0
000340 00 00 00 00 00 00 00 00 00 00 00 00 00 00 00 00
       0.0 0.0 0.0 0.0
000350 00 00 00 00 00 00 00 00 00 00 00 00 00 00 00 00
       0.0 0.0 0.0 0.0
000360 00 00 00 00 00 00 00 00 00 00 00 00 00 00 00 00
       0.0 0.0 0.0 0.0
000370 00 00 00 00 00 00 00 00 00 00 00 00 00 00 00 00
       0.0 0.0 0.0 0.0
000380 00 00 00 00 00 00 00 00 00 00 00 00 00 00 00 00
       0.0 0.0 0.0 0.0
000390 00 00 00 00 00 00 00 00 00 00 00 00 00 00 00 00
       0.0 0.0 0.0 0.0
0003a0 00 00 00 00 00 00 00 00 00 00 00 00 00 00 00 00
       0.0 0.0 0.0 0.0
0003b0 00 00 00 00 00 00 00 00 00 00 00 00 00 00 00 00
       0.0 0.0 0.0 0.0
0003c0 00 00 00 00 00 00 00 00 00 00 00 00 00 00 00 00
       0.0 0.0 0.0 0.0
0003d0 00 00 00 00 00 00 00 00 00 00 00 00 00 00 00 00
       0.0 0.0 0.0 0.0
0003e0 00 00 00 00 00 00 00 00 00 00 00 00 00 00 00 00
       0.0 0.0 0.0 0.0
0003f0 00 00 00 00 00 00 00 00 00 00 00 00 00 00 00 00
       0.0 0.0 0.0 0.0

bayes_fc1.prior_sigma_small f4 [64, 6]
000000 00 00 80 3f 00 00 80 3f 00 00 80 3f 00 00 80 3f
       1.0 1.0 1.0 1.0
000010 00 00 80 3f 00 00 80 3f 00 00 80 3f 00 00 80 3f
       1.0 1.0 1.0 1.0
000020 00 00 80 3f 00 00 80 3f 00 00 80 3f 00 00 80 3f
       1.0 1.0 1.0 1.0
000030 00 00 80 3f 00 00 80 3f 00 00 80 3f 00 00 80 3f
       1.0 1.0 1.0 1.0
000040 00 00 80 3f 00 00 80 3f 00 00 80 3f 00 00 80 3f
       1.0 1.0 1.0 1.0
000050 00 00 80 3f 00 00 80 3f 00 00 80 3f 00 00 80 3f
       1.0 1.0 1.0 1.0
000060 00 00 80 3f 00 00 80 3f 00 00 80 3f 00 00 80 3f
       1.0 1.0 1.0 1.0
000070 00 00 80 3f 00 00 80 3f 00 00 80 3f 00 00 80 3f
       1.0 1.0 1.0 1.0
000080 00 00 80 3f 00 00 80 3f 00 00 80 3f 00 00 80 3f
       1.0 1.0 1.0 1.0
000090 00 00 80 3f 00 00 80 3f 00 00 80 3f 00 00 80 3f
       1.0 1.0 1.0 1.0
0000a0 00 00 80 3f 00 00 80 3f 00 00 80 3f 00 00 80 3f
       1.0 1.0 1.0 1.0
0000b0 00 00 80 3f 00 00 80 3f 00 00 80 3f 00 00 80 3f
       1.0 1.0 1.0 1.0
0000c0 00 00 80 3f 00 00 80 3f 00 00 80 3f 00 00 80 3f
       1.0 1.0 1.0 1.0
0000d0 00 00 80 3f 00 00 80 3f 00 00 80 3f 00 00 80 3f
       1.0 1.0 1.0 1.0
0000e0 00 00 80 3f 00 00 80 3f 00 00 80 3f 00 00 80 3f
       1.0 1.0 1.0 1.0
0000f0 00 00 80 3f 00 00 80 3f 00 00 80 3f 00 00 80 3f
       1.0 1.0 1.0 1.0
000100 00 00 80 3f 00 00 80 3f 00 00 80 3f 00 00 80 3f
       1.0 1.0 1.0 1.0
000110 00 00 80 3f 00 00 80 3f 00 00 80 3f 00 00 80 3f
       1.0 1.0 1.0 1.0
000120 00 00 80 3f 00 00 80 3f 00 00 80 3f 00 00 80 3f
       1.0 1.0 1.0 1.0
000130 00 00 80 3f 00 00 80 3f 00 00 80 3f 00 00 80 3f
       1.0 1.0 1.0 1.0
000140 00 00 80 3f 00 00 80 3f 00 00 80 3f 00 00 80 3f
       1.0 1.0 1.0 1.0
000150 00 00 80 3f 00 00 80 3f 00 00 80 3f 00 00 80 3f
       1.0 1.0 1.0 1.0
000160 00 00 80 3f 00 00 80 3f 00 00 80 3f 00 00 80 3f
       1.0 1.0 1.0 1.0
000170 00 00 80 3f 00 00 80 3f 00 00 80 3f 00 00 80 3f
       1.0 1.0 1.0 1.0
000180 00 00 80 3f 00 00 80 3f 00 00 80 3f 00 00 80 3f
       1.0 1.0 1.0 1.0
000190 00 00 80 3f 00 00 80 3f 00 00 80 3f 00 00 80 3f
       1.0 1.0 1.0 1.0
0001a0 00 00 80 3f 00 00 80 3f 00 00 80 3f 00 00 80 3f
       1.0 1.0 1.0 1.0
0001b0 00 00 80 3f 00 00 80 3f 00 00 80 3f 00 00 80 3f
       1.0 1.0 1.0 1.0
0001c0 00 00 80 3f 00 00 80 3f 00 00 80 3f 00 00 80 3f
       1.0 1.0 1.0 1.0
0001d0 00 00 80 3f 00 00 80 3f 00 00 80 3f 00 00 80 3f
       1.0 1.0 1.0 1.0
0001e0 00 00 80 3f 00 00 80 3f 00 00 80 3f 00 00 80 3f
       1.0 1.0 1.0 1.0
0001f0 00 00 80 3f 00 00 80 3f 00 00 80 3f 00 00 80 3f
       1.0 1.0 1.0 1.0
000200 00 00 80 3f 00 00 80 3f 00 00 80 3f 00 00 80 3f
       1.0 1.0 1.0 1.0
000210 00 00 80 3f 00 00 80 3f 00 00 80 3f 00 00 80 3f
       1.0 1.0 1.0 1.0
000220 00 00 80 3f 00 00 80 3f 00 00 80 3f 00 00 80 3f
       1.0 1.0 1.0 1.0
000230 00 00 80 3f 00 00 80 3f 00 00 80 3f 00 00 80 3f
       1.0 1.0 1.0 1.0
000240 00 00 80 3f 00 00 80 3f 00 00 80 3f 00 00 80 3f
       1.0 1.0 1.0 1.0
000250 00 00 80 3f 00 00 80 3f 00 00 80 3f 00 00 80 3f
       1.0 1.0 1.0 1.0
000260 00 00 80 3f 00 00 80 3f 00 00 80 3f 00 00 80 3f
       1.0 1.0 1.0 1.0
000270 00 00 80 3f 00 00 80 3f 00 00 80 3f 00 00 80 3f
       1.0 1.0 1.0 1.0
000280 00 00 80 3f 00 00 80 3f 00 00 80 3f 00 00 80 3f
       1.0 1.0 1.0 1.0
000290 00 00 80 3f 00 00 80 3f 00 00 80 3f 00 00 80 3f
       1.0 1.0 1.0 1.0
0002a0 00 00 80 3f 00 00 80 3f 00 00 80 3f 00 00 80 3f
       1.0 1.0 1.0 1.0
0002b0 00 00 80 3f 00 00 80 3f 00 00 80 3f 00 00 80 3f
       1.0 1.0 1.0 1.0
0002c0 00 00 80 3f 00 00 80 3f 00 00 80 3f 00 00 80 3f
       1.0 1.0 1.0 1.0
0002d0 00 00 80 3f 00 00 80 3f 00 00 80 3f 00 00 80 3f
       1.0 1.0 1.0 1.0
0002e0 00 00 80 3f 00 00 80 3f 00 00 80 3f 00 00 80 3f
       1.0 1.0 1.0 1.0
0002f0 00 00 80 3f 00 00 80 3f 00 00 80 3f 00 00 80 3f
       1.0 1.0 1.0 1.0
000300 00 00 80 3f 00 00 80 3f 00 00 80 3f 00 00 80 3f
       1.0 1.0 1.0 1.0
000310 00 00 80 3f 00 00 80 3f 00 00 80 3f 00 00 80 3f
       1.0 1.0 1.0 1.0
000320 00 00 80 3f 00 00 80 3f 00 00 80 3f 00 00 80 3f
       1.0 1.0 1.0 1.0
000330 00 00 80 3f 00 00 80 3f 00 00 80 3f 00 00 80 3f
       1.0 1.0 1.0 1.0
000340 00 00 80 3f 00 00 80 3f 00 00 80 3f 00 00 80 3f
       1.0 1.0 1.0 1.0
000350 00 00 80 3f 00 00 80 3f 00 00 80 3f 00 00 80 3f
       1.0 1.0 1.0 1.0
000360 00 00 80 3f 00 00 80 3f 00 00 80 3f 00 00 80 3f
       1.0 1.0 1.0 1.0
000370 00 00 80 3f 00 00 80 3f 00 00 80 3f 00 00 80 3f
       1.0 1.0 1.0 1.0
000380 00 00 80 3f 00 00 80 3f 00 00 80 3f 00 00 80 3f
       1.0 1.0 1.0 1.0
000390 00 00 80 3f 00 00 80 3f 00 00 80 3f 00 00 80 3f
       1.0 1.0 1.0 1.0
0003a0 00 00 80 3f 00 00 80 3f 00 00 80 3f 00 00 80 3f
       1.0 1.0 1.0 1.0
0003b0 00 00 80 3f 00 00 80 3f 00 00 80 3f 00 00 80 3f
       1.0 1.0 1.0 1.0
0003c0 00 00 80 3f 00 00 80 3f 00 00 80 3f 00 00 80 3f
       1.0 1.0 1.0 1.0
0003d0 00 00 80 3f 00 00 80 3f 00 00 80 3f 00 00 80 3f
       1.0 1.0 1.0 1.0
0003e0 00 00 80 3f 00 00 80 3f 00 00 80 3f 00 00 80 3f
       1.0 1.0 1.0 1.0
0003f0 00 00 80 3f 00 00 80 3f 00 00 80 3f 00 00 80 3f
       1.0 1.0 1.0 1.0

bayes_fc2.weight_mu f4 [1, 64]
000000 5a e6 11 3d bd 2b 99 3d e6 c5 9c bd c4 e0 a1 bd
       0.03562007 0.074790455 -0.07654934 -0.07904199
000010 84 a3 ac bd b1 d8 8e 3d d3 c4 55 3c b4 82 59 bd
       -0.08429626 0.06974924 0.013047415 -0.053103164
000020 02 26 cd bd 84 28 68 3d 7c b2 2f 3c b6 f2 d5 bd
       -0.10017015 0.056679264 0.010723706 -0.10446684
000030 14 1f 05 bd 6d 8c bc 3d db 04 8f bc 82 45 63 3e
       -0.03250034 0.092064716 -0.01745837 0.22194484
000040 0b 11 8a 3d a3 d4 11 bc 04 87 9b bc ca 19 d3 3d
       0.06741532 -0.008900794 -0.018985279 0.10307653
000050 b6 eb 87 bd cc 6e d7 bd fe 79 2d bd f0 f0 a3 bd
       -0.06636755 -0.1051918 -0.04235267 -0.080049396
000060 45 1c 24 bd 9d 82 91 bc d0 78 cc 3d 5a ef c2 3d
       -0.040066022 -0.017762477 0.09983981 0.09518309
000070 6f c3 cf 3d 0d 51 26 bd ce 06 5e bd 1d 3c 06 3c
       0.10144698 -0.04060464 -0.05420571 0.008193043
000080 b2 b4 81 bc d2 4c 91 bc 7b 24 a0 3d 20 8c 48 3d
       -0.015833233 -0.017736826 0.07819458 0.04896176
000090 31 48 95 bd 78 c8 99 3c 4c e1 93 bd bc 29 77 3e
       -0.0728916 0.018772349 -0.07220706 0.24137014
0000a0 5d 67 91 bd 0c f2 9e bd 65 ff 7d bd 9e e9 1c bd
       -0.07099793 -0.077610105 -0.06201114 -0.038308732
0000b0 c3 94 76 3d b3 5b ea bc 7d 81 02 be 58 3a d1 bd
       0.060200464 -0.028608179 -0.12744708 -0.10216206
0000c0 15 42 61 bc 74 85 70 3d 3a 69 b8 3c 30 e0 7a bd
       -0.013748665 0.05872102 0.022511113 -0.061248958
0000d0 72 a5 0d 3d df d9 cf 3d 89 62 bf bd 5b ad d7 3d
       0.03458161 0.101489775 -0.09344966 0.10531112
0000e0 39 cb 95 3d 6c 4d 9d 3d 79 6c e7 3c 64 02 8e 3b
       0.07314152 0.07680783 0.028249966 0.004333781
0000f0 96 67 c8 3c 17 b5 53 3d 36 fd c2 bd e4 cb a5 3c
       0.024463456 0.051686373 -0.095209524 0.020238824

bayes_fc2.weight_rho f4 [1, 64]
000000 8b 05 b1 bf 5c d1 5d c0 a5 b6 53 c0 e5 67 57 c0
       -1.3829817 -3.4659033 -3.3080227 -3.3657162
000010 23 4c 55 c0 7d c8 4b c0 dd 69 cf bf e9 9e 3f c0
       -3.332772 -3.1841118 -1.6204182 -2.994074
000020 a5 ce 5b c0 13 47 24 c0 9a 50 2a c0 48 64 3a c0
       -3.4344876 -2.566838 -2.6611695 -2.9123707
000030 4f 18 f4 bf d7 4f 69 c0 36 08 c5 bf 32 3e 56 bf
       -1.9069918 -3.645498 -1.5393131 -0.8368865
000040 75 ef 5c c0 13 1b 10 c0 20 3c d5 bf e3 e2 5b c0
       -3.4521153 -2.2516525 -1.6658974 -3.435723
000050 0e 60 3a c0 ee d8 11 c0 46 f4 04 c0 f5 ee 4b c0
       -2.9121127 -2.2788653 -2.0774093 -3.1864598
000060 45 73 21 c0 0d a8 0f c0 0e ba 77 bf 03 e1 51 c0
       -2.5226605 -2.244632 -0.9676827 -3.2793586
000070 5b 1e 59 c0 39 79 90 bf b8 b9 b8 bf c6 f6 d3 bf
       -3.3924778 -1.1286994 -1.4431677 -1.6559684
000080 93 08 1d c0 8b eb ba bf fe 0e 12 c0 13 33 4a c0
       -2.4536483 -1.4603132 -2.282165 -3.1593673
000090 a5 02 5d c0 54 c5 e5 be eb 2e 42 c0 ce b2 a7 bf
       -3.4532864 -0.44877112 -3.0341136 -1.3101442
0000a0 b3 70 4c c0 fc 38 40 c0 db 3d 41 c0 96 ef 06 c0
       -3.1943786 -3.003478 -3.0194004 -2.1083732
0000b0 cf f0 11 c0 56 87 c2 bf df 2b 9d bf e2 b8 50 c0
       -2.2803228 -1.5197551 -1.2279013 -3.2612844
0000c0 00 c0 ca bf a6 14 2d c0 39 9b 30 c0 bf b0 2a c0
       -1.5839844 -2.7043853 -2.759474 -2.6670377
0000d0 5a 36 d6 bf 53 38 57 c0 a5 12 c9 bf ed b1 52 c0
       -1.6735337 -3.3628128 -1.5708815 -3.2921097
0000e0 f5 63 44 c0 9d 58 43 c0 3a b8 2e c0 a6 fd 3d c0
       -3.068601 -3.0522835 -2.7299943 -2.9686065
0000f0 1a a3 b1 bf c1 8f 39 c0 6d 0d 54 c0 7b d2 1e c0
       -1.38779 -2.899399 -3.3133194 -2.4815967

bayes_fc2.prior_mu_old f4 [1, 64]
000000 00 00 00 00 00 00 00 00 00 00 00 00 00 00 00 00
       0.0 0.0 0.0 0.0
000010 00 00 00 00 00 00 00 00 00 00 00 00 00 00 00 00
       0.0 0.0 0.0 0.0
000020 00 00 00 00 00 00 00 00 00 00 00 00 00 00 00 00
       0.0 0.0 0.0 0.0
000030 00 00 00 00 00 00 00 00 00 00 00 00 00 00 00 00
       0.0 0.0 0.0 0.0
000040 00 00 00 00 00 00 00 00 00 00 00 00 00 00 00 00
       0.0 0.0 0.0 0.0
000050 00 00 00 00 00 00 00 00 00 00 00 00 00 00 00 00
       0.0 0.0 0.0 0.0
000060 00 00 00 00 00 00 00 00 00 00 00 00 00 00 00 00
       0.0 0.0 0.0 0.0
000070 00 00 00 00 00 00 00 00 00 00 00 00 00 00 00 00
       0.0 0.0 0.0 0.0
000080 00 00 00 00 00 00 00 00 00 00 00 00 00 00 00 00
       0.0 0.0 0.0 0.0
000090 00 00 00 00 00 00 00 00 00 00 00 00 00 00 00 00
       0.0 0.0 0.0 0.0
0000a0 00 00 00 00 00 00 00 00 00 00 00 00 00 00 00 00
       0.0 0.0 0.0 0.0
0000b0 00 00 00 00 00 00 00 00 00 00 00 00 00 00 00 00
       0.0 0.0 0.0 0.0
0000c0 00 00 00 00 00 00 00 00 00 00 00 00 00 00 00 00
       0.0 0.0 0.0 0.0
0000d0 00 00 00 00 00 00 00 00 00 00 00 00 00 00 00 00
       0.0 0.0 0.0 0.0
0000e0 00 00 00 00 00 00 00 00 00 00 00 00 00 00 00 00
       0.0 0.0 0.0 0.0
0000f0 00 00 00 00 00 00 00 00 00 00 00 00 00 00 00 00
       0.0 0.0 0.0 0.0

bayes_fc2.prior_sigma_small f4 [1, 64]
000000 00 00 80 3f 00 00 80 3f 00 00 80 3f 00 00 80 3f
       1.0 1.0 1.0 1.0
000010 00 00 80 3f 00 00 80 3f 00 00 80 3f 00 00 80 3f
       1.0 1.0 1.0 1.0
000020 00 00 80 3f 00 00 80 3f 00 00 80 3f 00 00 80 3f
       1.0 1.0 1.0 1.0
000030 00 00 80 3f 00 00 80 3f 00 00 80 3f 00 00 80 3f
       1.0 1.0 1.0 1.0
000040 00 00 80 3f 00 00 80 3f 00 00 80 3f 00 00 80 3f
       1.0 1.0 1.0 1.0
000050 00 00 80 3f 00 00 80 3f 00 00 80 3f 00 00 80 3f
       1.0 1.0 1.0 1.0
000060 00 00 80 3f 00 00 80 3f 00 00 80 3f 00 00 80 3f
       1.0 1.0 1.0 1.0
000070 00 00 80 3f 00 00 80 3f 00 00 80 3f 00 00 80 3f
       1.0 1.0 1.0 1.0
000080 00 00 80 3f 00 00 80 3f 00 00 80 3f 00 00 80 3f
       1.0 1.0 1.0 1.0
000090 00 00 80 3f 00 00 80 3f 00 00 80 3f 00 00 80 3f
       1.0 1.0 1.0 1.0
0000a0 00 00 80 3f 00 00 80 3f 00 00 80 3f 00 00 80 3f
       1.0 1.0 1.0 1.0
0000b0 00 00 80 3f 00 00 80 3f 00 00 80 3f 00 00 80 3f
       1.0 1.0 1.0 1.0
0000c0 00 00 80 3f 00 00 80 3f 00 00 80 3f 00 00 80 3f
       1.0 1.0 1.0 1.0
0000d0 00 00 80 3f 00 00 80 3f 00 00 80 3f 00 00 80 3f
       1.0 1.0 1.0 1.0
0000e0 00 00 80 3f 00 00 80 3f 00 00 80 3f 00 00 80 3f
       1.0 1.0 1.0 1.0
0000f0 00 00 80 3f 00 00 80 3f 00 00 80 3f 00 00 80 3f
       1.0 1.0 1.0 1.0

exp_avg f4 [64, 6]
000000 f9 85 74 b7 19 3e bd b7 fc 1a 87 b7 6d 67 48 b7
       -1.4574726e-05 -2.2559472e-05 -1.610582e-05 -1.194501e-05
000010 82 10 77 b7 21 3e 2d b8 d9 b0 95 3b f4 ac 1c 3c
       -1.4726191e-05 -4.1304276e-05 0.004568201 0.00956272
000020 4a 18 0f 39 4a 17 97 3b 29 60 07 3c 58 a1 e9 38
       0.00013646591 0.0046109306 0.008262672 0.000111403584
000030 d9 53 e3 3b 17 3a a3 3c 69 d3 8e 39 bf 54 90 3b
       0.0069374857 0.01992516 0.00027241863 0.004404634
000040 96 27 98 3c 4e 37 61 39 a5 a4 13 bb 52 15 48 bb
       0.018573564 0.00021478275 -0.0022528556 -0.0030530286
000050 ba 87 65 b8 8d f7 ec ba 5e e3 19 bc d9 7a 37 b8
       -5.472426e-05 -0.0018079147 -0.0093925875 -4.374501e-05
000060 2f 12 8a 3a e5 45 09 3b f0 fb 80 b6 96 cc de ba
       0.0010533984 0.0020946201 -3.8440267e-06 -0.0016998227
000070 9d 2a 7e 3b d3 3b 41 b8 be 29 21 bc ca 2e ee bc
       0.0038782724 -4.60705e-05 -0.009836612 -0.029075045
000080 0f 37 67 b9 70 e8 14 bb dd 43 c7 bb 32 0d bc b8
       -0.00022050388 -0.0022721551 -0.006081088 -8.9669964e-05
000090 58 8b 93 b7 9f ec 5c b7 bd 04 de b7 f5 ee 7a b7
       -1.7588653e-05 -1.31681145e-05 -2.6466669e-05 -1.4956798e-05
0000a0 2d 88 95 b7 fc b5 79 37 34 83 ce 3a ea d8 06 3c
       -1.7825596e-05 1.4883928e-05 0.0015755654 0.008230427
0000b0 1b d3 bc 38 31 d1 b2 3a a8 5c 60 3b 87 f6 e9 38
       9.00386e-05 0.0013642666 0.0034234915 0.00011156225
0000c0 54 63 20 bb 5e f8 a9 bc 2e 14 5d b9 1e 2f 92 bb
       -0.0024473267 -0.020748314 -0.0002108372 -0.004461183
0000d0 71 58 64 bb 4c a6 58 b9 27 dc b8 ba 71 c3 f3 b7
       -0.0034842754 -0.00020661316 -0.0014103696 -2.9058867e-05
0000e0 36 60 4a b8 03 8c b7 ba 45 55 83 bb 3f 30 0c b8
       -4.8250156e-05 -0.0014003519 -0.0040079677 -3.3423534e-05
0000f0 f1 14 01 ba 61 82 db b8 f7 79 e1 b7 2e ef a5 b9
       -0.000492408 -0.00010467019 -2.6878884e-05 -0.00031649455
000100 de 86 94 ba c1 17 2c b8 ec 40 38 bb 77 d4 36 bc
       -0.0011331697 -4.1030118e-05 -0.0028114868 -0.011159054
000110 c2 09 ef b8 db ed ad bb dc 8e 5a bc 37 77 f6 b8
       -0.000113982256 -0.0053078956 -0.013339724 -0.000117523996
000120 82 80 6d b8 f1 bc 92 b9 d9 1b f4 b7 7b d4 5e b8
       -5.6624885e-05 -0.00027988062 -2.9100034e-05 -5.3126812e-05
000130 ae f8 00 b8 ff 51 39 b7 d8 89 2b 3b 33 34 32 3c
       -3.074918e-05 -1.10459505e-05 0.002617469 0.010876703
000140 59 53 82 38 90 0f 57 3b 06 be ed 3b 17 9a 81 38
       6.214408e-05 0.0032815672 0.0072553186 6.179901e-05
000150 50 fe 02 b6 8c 64 47 b7 03 95 b0 36 cc e2 bd b7
       -1.951954e-06 -1.1884735e-05 5.262556e-06 -2.2636166e-05
000160 2b 5a ce b7 0b e2 a7 37 53 33 f3 b7 e5 5c ac b7
       -2.4599101e-05 2.001321e-05 -2.8991757e-05 -2.0547255e-05
000170 a7 39 66 b7 63 27 2c b7 76 c9 50 b6 6e af 2c b7
       -1.37224915e-05 -1.0261169e-05 -3.111168e-06 -1.0292844e-05
000180 e8 ae f9 3b ab dc 89 3c 20 f0 53 39 4a d2 98 3b
       0.0076197274 0.016828855 0.00020211982 0.0046637403
000190 20 0a 59 3c 42 62 38 39 2b 6b dc b6 4b 9a 8c 38
       0.013247043 0.00017584211 -6.568987e-06 6.7044595e-05
0001a0 f2 3f 27 b7 00 43 72 37 ed 79 85 38 de be a4 b7
       -9.968864e-06 1.4439924e-05 6.364645e-05 -1.9639203e-05
0001b0 f0 86 02 b7 71 8c 3b b6 98 36 d5 b7 1f 67 79 b7
       -7.780021e-06 -2.794692e-06 -2.5417e-05 -1.4865566e-05
0001c0 ad 0c 2f b7 69 fd 7b 37 8e b3 d7 b9 18 92 39 bb
       -1.0433764e-05 1.50197675e-05 -0.00041141774 -0.0028315838
0001d0 5d 50 a4 b8 1c b6 76 3a bd 9c 0b 3c 1c 8f 39 38
       -7.835098e-05 0.00094112917 0.008521256 4.4240718e-05
0001e0 8f e0 85 bb 59 b6 ae bb 38 57 21 b9 b7 6d cc bb
       -0.0040856074 -0.005331796 -0.00015386648 -0.006238665
0001f0 36 cd e3 bb 42 a7 47 b9 71 2c 34 b7 1c 1f 71 38
       -0.0069519533 -0.00019040427 -1.0739183e-05 5.748785e-05
000200 e9 d9 2b b7 9d e2 97 b7 bb 41 d3 36 ce 9e 3d b8
       -1.024313e-05 -1.8106128e-05 6.295942e-06 -4.520901e-05
000210 14 05 ca b6 79 f1 4a b6 8c dc cf 37 03 4b 23 b7
       -6.0206603e-06 -3.0240901e-06 2.4779023e-05 -9.733022e-06
000220 59 4c db b7 ff ce e8 34 4d 9e 0a 39 cf 25 90 ba
       -2.6142387e-05 4.3363977e-07 0.00013219677 -0.0010997596
000230 15 f0 43 b8 99 82 b2 ba 75 b2 00 bb b4 32 db b5
       -4.6715217e-05 -0.0013619243 -0.0019637619 -1.6331528e-06
000240 38 d5 d6 b7 58 b7 b8 b8 8a d0 8b 36 3c f1 dc 37
       -2.5610076e-05 -8.807954e-05 4.1668e-06 2.6338377e-05
000250 92 aa 8d 37 6e b4 b3 b7 b5 a8 81 b8 d0 42 21 b9
       1.6887938e-05 -2.1422482e-05 -6.1826235e-05 -0.00015379046
000260 7e 38 d1 b6 f7 dd f0 b6 b0 00 7e b8 f1 a8 de 36
       -6.235262e-06 -7.1783975e-06 -6.055896e-05 6.635783e-06
000270 bc 9e c6 b7 9a 43 10 b7 b5 b1 03 38 78 7f 59 b7
       -2.3677356e-05 -8.598809e-06 3.1398336e-05 -1.2963887e-05
000280 29 ee 90 b7 bd 3a 2a 37 b8 e5 01 bc e9 5e 9d bc
       -1.727704e-05 1.0146466e-05 -0.007928304 -0.019210296
000290 49 28 86 b9 85 c7 6b bb 84 d9 8e bc 65 ce 53 b9
       -0.00025588486 -0.0035977077 -0.017437704 -0.00020199416
0002a0 55 19 bc 3b c3 f9 8e 3c 49 3b 04 39 fa e6 02 b9
       0.0057403245 0.01745308 0.00012610586 -0.00012483812
0002b0 97 dd 41 3c c3 0d a5 37 07 05 98 b7 8b 97 ca b7
       0.011832616 1.9675941e-05 -1.8122153e-05 -2.4150844e-05
0002c0 64 70 0a b7 ff f6 45 b7 54 4d 9f b7 63 f0 02 b8
       -8.251609e-06 -1.1799623e-05 -1.8990286e-05 -3.1218293e-05
0002d0 63 5e 02 b8 f0 81 6b b7 67 30 69 37 19 48 88 b8
       -3.108232e-05 -1.4037345e-05 1.3899152e-05 -6.4984146e-05
0002e0 2a a7 a8 b7 cd 3a 9f 36 e2 9b a7 b7 2d ef 4a b8
       -2.0105002e-05 4.7454146e-06 -1.998054e-05 -4.8383303e-05
0002f0 3a 5f 86 b7 05 98 00 b8 a8 f1 af b8 51 ac 8d b7
       -1.6018388e-05 -3.0659157e-05 -8.389662e-05 -1.688875e-05
000300 82 c3 83 39 ba ca 5e 3a 5e 0a 66 37 f2 29 08 b7
       0.00025131932 0.00084988365 1.3711482e-05 -8.115998e-06
000310 75 7e 62 3a c1 28 8c b7 30 4f d9 b7 b7 01 4f b7
       0.00086400594 -1.6708278e-05 -2.590529e-05 -1.2338561e-05
000320 aa 35 27 b8 af 51 8f b7 82 39 7d b7 2a a2 51 b6
       -3.986588e-05 -1.7084965e-05 -1.5093365e-05 -3.1237819e-06
000330 bf 1b 85 38 54 03 1a 39 f1 c3 87 37 c0 10 24 37
       6.347102e-05 0.00014687824 1.6184496e-05 9.779062e-06
000340 d3 1f c8 37 e8 60 d8 b7 49 49 1b 3b 15 e6 cf 3a
       2.3856677e-05 -2.5794332e-05 0.0023694804 0.0015861416
000350 88 3e c0 38 e5 66 29 3b 96 eb ce 3b 03 fd e4 37
       9.166921e-05 0.0025848683 0.006314705 2.7297536e-05
000360 c0 c2 87 bb 29 40 67 bc ef 05 0f b9 4e 0b ac bb
       -0.004143089 -0.014114418 -0.00013639753 -0.005250371
000370 8f 6f b5 bb fc 7e 04 b9 27 b0 99 b7 0d c1 d9 b7
       -0.0055369805 -0.00012635806 -1.8321049e-05 -2.5958312e-05
000380 16 8a 15 b8 3b 48 54 b7 af 7c 89 b7 be 4a 32 37
       -3.565297e-05 -1.2653002e-05 -1.6389733e-05 1.0627029e-05
000390 93 03 84 39 78 da 6f 39 72 d7 4d 36 96 2e 3d 38
       0.00025179665 0.00022874202 3.0672786e-06 4.5104498e-05
0003a0 f3 fc 71 37 02 26 0d 36 d6 2e fc 3b 61 17 d2 b7
       1.4423614e-05 2.103276e-06 0.007696013 -2.5044837e-05
0003b0 28 63 79 39 b5 fe d9 3b bb 8a b0 b7 d5 51 56 37
       0.00023783429 0.006652678 -2.1045436e-05 1.2774447e-05
0003c0 10 80 55 ba ae 1b 96 b9 d0 14 1f 38 70 1e 16 bb
       -0.0008144388 -0.00028630852 3.7927937e-05 -0.0022906326
0003d0 57 71 58 bb d9 49 25 b6 b2 f3 e6 38 06 43 7c 3a
       -0.003302654 -2.46299e-06 0.000110126464 0.00096230244
0003e0 30 0b 02 b8 ca e6 fd 39 e9 6d 9a ba db ab bc 36
       -3.1004834e-05 0.00048427872 -0.0011782023 5.622843e-06
0003f0 32 88 18 3a ac 77 63 3a bd 2e b4 b7 ec b1 e8 39
       0.00058186345 0.00086771953 -2.1479436e-05 0.0004438305
