lightning_logs/version_25/checkpoints/epoch=4-step=945.ckpt (torch, 30427 bytes, 24 tensors)

bayes_fc1.weight_mu f4 [64, 6]
-0.30625078 -0.47266212 -0.17001623 -0.36250722 -0.41081 -0.05573117 0.51818925 -0.12726322
0.62415236 -0.4453909 0.13700424 -0.33138832 -0.40375218 0.17776665 -0.46632648 0.17656597
-0.20828585 0.25242272 -0.38797265 0.17307149 -0.8207268 0.49812752 -0.1223433 -0.0909966
-0.4174788 0.24487598 -0.5911677 0.2868973 -0.19762437 0.27100116 0.07751192 -0.1842757
0.6521363 -0.29184332 0.14890969 0.17279999 -0.4481241 -0.3798602 -0.2527172 -0.31660384
-0.4346799 -0.17399567 -0.5193657 0.20742173 -0.14727741 -0.076948054 -0.37993202 0.2715224
-0.34807622 0.17780608 -0.5843665 0.42954037 -0.19732629 0.047828354 -0.21646337 -0.3106831
0.25275436 -0.29342127 0.08061114 0.24678886 -0.3963597 -0.37506932 -0.10787276 -0.40774202
-0.15748276 -0.035016563 -0.28159362 -0.03271068 -0.5918064 0.31244004 -0.18931262 -0.26155308
-0.3941149 -0.12195424 -0.17838001 -0.25998592 -0.44168308 -0.170855 0.4673549 -0.16493307
0.5488052 -0.42232057 0.18294895 -0.058457587 -0.20663378 -0.23587081 -0.14236751 -0.36082256
-0.40535066 -0.09475486 -0.8081294 -0.21451081 0.05295703 -0.06413314 0.06708518 0.7905019
0.3276987 -0.20142995 0.8056516 -0.38702488 0.1861197 0.086228594 -0.40765342 -0.26397955
-0.07546282 -0.18462856 -0.2968957 -0.039280865 -0.256107 -0.29335743 -0.21773557 -0.35546368
-0.46018413 -0.20337664 0.30441594 -0.16108763 0.7792968 -0.4135039 0.18153717 -0.14462836
-0.34743327 0.035277903 -0.491781 0.22604448 -0.1971902 0.07559122 -0.3166912 -0.022090659
-0.09234793 -0.32005498 -0.26503992 0.049967095 -0.40085927 -0.41078916 -0.21566717 -0.40784773
-0.4421571 -0.18171488 -0.40901423 0.1603513 -0.60683334 0.33093503 -0.17760774 0.068163306
-0.23223111 -0.26221865 -0.2052085 -0.3851927 -0.4703036 -0.17140208 -0.19615379 -0.34075105
-0.06815594 -0.17611353 -0.45003834 -0.16000488 -0.37587732 -0.20747939 -0.18029939 -0.3237091
-0.13688503 -0.065421656 0.27404538 -0.121578895 0.771893 -0.38547394 0.20711675 -0.03196594
0.3311594 -0.14112546 0.6079022 -0.36970887 0.16170345 0.1235659 -0.25356373 -0.33445325
-0.31967533 -0.2588536 -0.3612949 -0.23382159 -0.40083325 -0.31923214 -0.29010227 -0.12837507
-0.3334262 -0.22992337 -0.3423812 -0.41590133 -0.17682028 -0.24327523 -0.52619314 -0.16085425
-0.25567526 -0.4225264 -0.1349261 -0.16105144 -0.26751047 -0.039794043 -0.46485546 -0.42096266
-0.22394185 -0.34704176 -0.3826562 -0.06834585 -0.2308741 -0.28060523 -0.06863942 -0.28577965
-0.36952046 -0.1646783 0.15886332 -0.22968197 0.5492035 -0.46007776 0.17932086 0.15182605
-0.42979488 0.2766889 -0.63417774 0.30234396 -0.11979043 0.20638102 -0.42426986 -0.44318432
-0.22345275 -0.31489322 -0.40562797 -0.19985992 -0.39233714 0.16971254 -0.15683518 -0.06794798
-0.34819245 0.22108763 -0.22933534 -0.2464518 -0.16807102 -0.11262034 -0.36368215 0.08122593
-0.38161436 0.15190615 -0.7217145 0.4183513 -0.13858856 0.1112879 -0.39569697 0.15787882
-0.35960254 0.2752477 -0.13811381 0.12576474 -0.28086892 0.038907364 -0.4607942 0.43532625
00000000: e7cc 9cbe c500 f2be bc18 2ebe 8c9a b9be
00000010: b055 d2be 5e46 64bd 0da8 043f 4a51 02be
00000020: 73c8 1f3f 470a e4be d74a 0c3e bbab a9be
00000030: 9bb8 cebe 7608 363e 58c2 eebe b6cd 343e
00000040: e348 55be 8d3d 813e 5aa4 c6be a739 313e
00000050: 271b 52bf 920a ff3e 208f fabd 6d5c babd
00000060: c8bf d5be c5c0 7a3e c456 17bf 34e4 923e
00000070: 0b5e 4abe aac0 8a3e 92be 9e3d c5b2 3cbe
00000080: 68f2 263f 7d6c 95be c87b 183e 7bf2 303e
00000090: 8670 e5be 097d c2be 2664 81be e619 a2be
000000a0: 5d8e debe ec2b 32be 27f5 04bf 5d66 543e
000000b0: e4cf 16be f196 9dbd 7386 c2be fc04 8b3e
000000c0: 0c37 b2be cc12 363e 0b99 15bf b7ec db3e
000000d0: e70f 4abe aae7 433d 93a8 5dbe db11 9fbe
000000e0: 0569 813e 503b 96be 7417 a53d 38b6 7c3e
000000f0: a9ef cabe 1609 c0be 65ec dcbd 90c3 d0be
00000100: 2943 21be 876d 0fbd 0a2d 90be a2fb 05bd
00000110: a080 17bf 24f8 9f3e 2bdb 41be 49ea 85be
00000120: 6ec9 c9be 25c3 f9bd 40a9 36be e01c 85be
00000130: 4924 e2be 9df4 2ebe 2449 ef3e 37e4 28be
00000140: 7f7e 0c3f 673a d8be f856 3b3e 3971 6fbd
00000150: ce97 53be 1e88 71be cac8 11be bcbd b8be
00000160: 1f8a cfbe d60e c2bd 91e1 4ebf b9a8 5bbe
00000170: 78e9 583d 3c58 83bd f463 893d 555e 4a3f
00000180: 20c8 a73e a743 4ebe 2f3f 4e3f 2028 c6be
00000190: 2a96 3e3e 9e98 b03d f3b7 d0be 5428 87be
000001a0: 408c 9abd 450f 3dbe b702 98be f9e4 20bd
000001b0: 7520 83be f232 96be 13f6 5ebe 56ff b5be
000001c0: 419d ebbe f741 50be 68dc 9b3e 28f4 24be
000001d0: ff7f 473f c8b6 d3be e1e4 393e 7519 14be
000001e0: c6e2 b1be 907f 103d b8ca fbbe 3478 673e
000001f0: 3aec 49be 92cf 9a3d 5925 a2be 78f7 b4bc
00000200: e920 bdbd 3fde a3be 50b3 87be 4caa 4c3d
00000210: 6d3d cdbe f552 d2be dbd7 5cbe 6bd1 d0be
00000220: 6a62 e2be 7713 3abe 506a d1be 2233 243e
00000230: 6e59 1bbf 5170 a93e cede 35be 3499 8b3d
00000240: fecd 6dbe 8641 86be 2d22 52be fa37 c5be
00000250: a2cb f0be 0784 2fbe 8adc 48be ec76 aebe
00000260: 5795 8bbd 1b57 34be 6d6b e6be 52d8 23be
00000270: fe72 c0be 7a75 54be 67a0 38be 33bd a5be
00000280: 972b 0cbe cafb 85bd ad4f 8c3e 5bfe f8bd
00000290: c89a 453f d75c c5be 6a16 543e b8ee 02bd
000002a0: ba8d a93e 3183 10be 7b9f 1b3f 7b4a bdbe
000002b0: 9795 253e 1e10 fd3d 1bd3 81be 753d abbe
000002c0: 7cac a3be 7688 84be a5fb b8be ed6e 6fbe
000002d0: 043a cdbe 6572 a3be 4988 94be c174 03be
000002e0: d7b6 aabe 0871 6bbe 974c afbe 05f1 d4be
000002f0: 6010 35be 241d 79be 98b4 06bf fab6 24be
00000300: dee7 82be 6155 d8be 112a 0abe abea 24be
00000310: 22f7 88be 14ff 22bd 8901 eebe 6b88 d7be
00000320: 0351 65be 75af b1be 83eb c3be e9f8 8bbd
00000330: 436a 6cbe 7dab 8fbe d392 8cbd b651 92be
00000340: c931 bdbe 6ea1 28be 11ad 223e c031 6bbe
00000350: 9a98 0c3f 508f ebbe e39f 373e 4a78 1b3e
00000360: 130e dcbe 2baa 8d3e 7959 22bf d4cc 9a3e
00000370: af54 f5bd 8c55 533e e639 d9be 0ee9 e2be
00000380: ccd0 64be af39 a1be 78ae cfbe 14a8 4cbe
00000390: 6ae0 c8be 20c9 2d3e 6799 20be 4f28 8bbd
000003a0: 4846 b2be cc64 623e e2d6 6abe dc5d 7cbe
000003b0: cf1a 2cbe 7ea5 e6bd 8c34 babe c859 a63d
000003c0: f562 c3be 498d 1b3e 48c2 38bf 2432 d63e
000003d0: 29ea 0dbe e9ea e33d cb98 cabe fcaa 213e
000003e0: d31d b8be 44ed 8c3e b56d 0dbe 79c8 003e
000003f0: 0dce 8fbe 545d 1f3d 38ed ebbe 15e3 de3e

bayes_fc1.weight_rho f4 [64, 6]
-0.96463305 -1.2126307 0.39761114 -0.7867289 -1.7244331 0.5693203 -2.5240688 -3.3115027
-0.3874739 -2.1884816 -2.9585817 -0.29120994 -2.0892153 -3.112909 0.0046498603 -1.8612283
-2.882954 -0.10876627 -2.5739307 -3.4659743 -0.43638098 -2.6773381 -3.4413629 -0.65145236
-2.2540777 -3.4545095 -0.1589358 -2.1364896 -3.054798 -0.4869331 -1.7760764 -2.7455037
-0.05516623 -2.1594937 -3.0731406 -0.23614894 -1.0678746 -1.5273349 0.36104003 -1.0933037
-1.7115501 0.34520078 -1.8328756 -2.7591965 0.2993591 -1.3476923 -2.276721 0.1350323
-2.460415 -3.17442 -0.19104789 -2.3428152 -3.1479874 -0.4840768 -1.3711549 -2.20361
0.25953966 -1.974294 -2.572351 0.065801956 -0.6830451 -1.7242591 0.59622645 -0.82021224
-1.9221071 0.648239 -2.1439507 -2.7905316 -0.10557686 -2.092355 -2.8953297 -0.19798262
-1.3364718 -2.1994514 0.39146295 -1.0893444 -1.6076746 0.30944082 -2.678647 -3.4006643
-0.57015777 -2.7565215 -3.616223 -0.5484031 -1.2300342 -2.0319662 0.41119465 -1.0360696
-1.4627509 0.42346323 -1.7133163 -3.1222098 -0.75124705 -3.0039833 -3.7551854 -1.2054459
-2.3387203 -3.2819147 -0.34721342 -2.5828705 -3.298185 -0.23940724 -0.8839026 -1.9612932
0.5826262 -0.9522907 -1.7679448 0.43454862 -1.1604879 -1.9226934 0.34319785 -1.1531953
-1.6480992 0.335483 -2.699046 -3.4689257 -0.71495587 -2.6494262 -3.5858269 -0.5283939
-2.1182232 -2.893712 -0.07405219 -2.0744429 -2.6796167 -0.0692741 -1.4763147 -2.6526754
0.33365268 -1.2553992 -2.2666757 0.24157578 -0.98346555 -1.748915 0.5119323 -0.7546162
-1.3355104 0.5343681 -2.0879743 -2.9538069 0.0015835734 -1.9769614 -2.9653938 -0.06719843
-1.0901475 -1.9190323 0.47629404 -0.6939146 -1.4770355 0.48106018 -0.9713522 -1.8107939
0.42697757 -0.95860034 -1.4931923 0.45238492 -1.1359209 -2.4248297 0.12305908 -1.4216856
-2.2524989 0.12990168 -2.8121684 -3.6140165 -0.89638495 -2.948216 -3.8209138 -0.7128596
-2.9059713 -3.5464349 -0.6877803 -2.80836 -3.6085763 -0.5962724 -1.3793154 -1.6237391
0.2406275 -1.051416 -1.5346056 0.18682542 -1.1681077 -1.8660792 0.3166097 -1.5316386
-1.6082073 0.17532371 -0.99278605 -1.6414534 0.47100204 -1.0136576 -1.3376282 0.48436132
-1.073643 -1.9204208 0.51277775 -1.0683155 -1.8407062 0.38783953 -0.95545834 -1.9416738
0.31631887 -0.98768854 -1.8213061 0.3264396 -1.1339641 -2.0436354 0.4049621 -0.7857247
-1.6484802 0.40679643 -1.693588 -2.5513892 0.24934702 -1.9797866 -2.70391 0.19680025
-2.624694 -3.474942 -0.25923067 -2.4829507 -3.387149 -0.38099658 -1.0919448 -1.6867005
0.29502213 -0.9626468 -1.786735 0.38591966 -1.9414982 -2.5671196 0.19579452 -1.2744612
-2.1683009 0.33205983 -1.7226655 -2.2394345 -0.06753483 -1.5674899 -1.7930002 -0.05318552
-2.3883674 -3.447262 -0.25064784 -2.3059578 -3.1001048 -0.3592196 -2.2276225 -2.9542673
0.004642423 -2.2083685 -2.8545356 -0.22667347 -1.9060484 -2.5339415 -0.035082094 -1.8918763
00000000: 31f2 76bf 7c37 9bbf b093 cb3e 1167 49bf
00000010: 39ba dcbf fabe 113f 588a 21c0 a9ef 53c0
00000020: fb62 c6be 1510 0cc0 6759 3dc0 7819 95be
00000030: b4b5 05c0 e739 47c0 db5d 983b bb3c eebf
00000040: 5182 38c0 dac0 debd 48bb 24c0 86d2 5dc0
00000050: 546d dfbe 8259 2bc0 4a3f 5cc0 95c5 26bf
00000060: cf42 10c0 af16 5dc0 11c0 22be 3fbc 08c0
00000070: cf81 43c0 4c4f f9be 7956 e3bf 55b6 2fc0
00000080: fcf5 61bd 2535 0ac0 56ae 44c0 07d1 71be
00000090: 1db0 88bf b67f c3bf 3dda b83e 60f1 8bbf
000000a0: 1314 dbbf 28be b03e ab9b eabf ad96 30c0
000000b0: 9945 993e 2e81 acbf ccb5 11c0 e845 0a3e
000000c0: 7077 1dc0 b329 4bc0 0fa2 43be aff0 15c0
000000d0: a078 49c0 ead8 f7be 0182 afbf f207 0dc0
000000e0: 62e2 843e aab5 fcbf 66a1 24c0 2dc3 863d
000000f0: 0bdc 2ebf 86b4 dcbf 4ca2 183f 6ef9 51bf
00000100: 9b07 f6bf fef2 253f 7d36 09c0 1298 32c0
00000110: ae38 d8bd 25e9 05c0 154d 39c0 f5bb 4abe
00000120: 8211 abbf d0c3 0cc0 d56d c83e a36f 8bbf
00000130: 48c8 cdbf 076f 9e3e f46e 2bc0 7ca4 59c0
00000140: dcf5 11bf d96a 30c0 3370 67c0 2564 0cbf
00000150: c371 9dbf bc0b 02c0 1b88 d23e ee9d 84bf
00000160: 6c3b bbbf 2cd0 d83e f34d dbbf 49d2 47c0
00000170: ba51 40bf 4341 40c0 f554 70c0 0d4c 9abf
00000180: 98ad 15c0 e40a 52c0 f5c5 b1be c04d 25c0
00000190: 7715 53c0 2c27 75be 7147 62bf a80b fbbf
000001a0: fe26 153f 53c9 73bf 044c e2bf 287d de3e
000001b0: de8a 94bf d11a f6bf a1b7 af3e e79b 93bf
000001c0: eaf4 d2bf 6ec4 ab3e 2bbd 2cc0 e102 5ec0
000001d0: 5907 37bf 3390 29c0 307e 65c0 d344 07bf
000001e0: f890 07c0 9432 39c0 ada8 97bd acc3 04c0
000001f0: d77e 2bc0 94df 8dbd e1f7 bcbf 6fc5 29c0
00000200: 86d4 aa3e ecb0 a0bf 3711 11c0 a45f 773e
00000210: 66c4 7bbf 72dc dfbf ff0d 033f 872e 41bf
00000220: 01f2 aabf 59cc 083f 5fa1 05c0 2c0b 3dc0
00000230: e88f cf3a 120d fdbf 03c9 3dc0 559f 89bd
00000240: f489 8bbf daa2 f5bf d0dc f33e 63a4 31bf
00000250: 800f bdbf 854d f63e 8aaa 78bf 18c8 e7bf
00000260: ce9c da3e d566 75bf ed20 bfbf ff9e e73e
00000270: db65 91bf 6930 1bc0 6606 fc3d cbf9 b5bf
00000280: f128 10c0 f204 053e 91fa 33c0 0c4c 67c0
00000290: 7c79 65bf 92af 3cc0 da89 74c0 f77d 36bf
000002a0: 6ffb 39c0 caf8 62c0 5f12 30bf 2cbc 33c0
000002b0: eaf2 66c0 4fa5 18bf 688d b0bf afd6 cfbf
000002c0: 0e67 763e cd94 86bf f56d c4bf 2a4f 3f3e
000002d0: 8e84 95bf afdb eebf ab1a a23e bc0c c4bf
000002e0: bdd9 cdbf 0f88 333e 3a27 7ebf 251b d2bf
000002f0: 2e27 f13e 88bf 81bf 6737 abbf 35fe f73e
00000300: 226d 89bf 59d0 f5bf 6745 033f 90be 88bf
00000310: 439c ebbf e792 c63e eb98 74bf c488 f8bf
00000320: 8cf4 a13e 28d9 7cbf 8f20 e9bf 1723 a73e
00000330: bc25 91bf ecca 02c0 3157 cf3e 4125 49bf
00000340: 6601 d3bf 9f47 d03e 7ec7 d8bf f649 23c0
00000350: d354 7f3e a669 fdbf dd0c 2dc0 0186 493e
00000360: fdfa 27c0 7365 5ec0 e2b9 84be aae8 1ec0
00000370: 0dc7 58c0 fc11 c3be d9c4 8bbf cde5 d7bf
00000380: 240d 973e 0570 76bf bcb3 e4bf 4397 c53e
00000390: 0383 f8bf b04b 24c0 5c7e 483e 8b21 a3bf
000003a0: 71c5 0ac0 bf03 aa3e 4e80 dcbf e552 0fc0
000003b0: b34f 8abd 82a3 c8bf 0881 e5bf 0fd9 59bd
000003c0: 03db 18c0 f19f 5cc0 ea54 80be d094 13c0
000003d0: 1e68 46c0 a2eb b7be 5e91 0ec0 b712 3dc0
000003e0: 771f 983b e955 0dc0 b6b0 36c0 171d 68be
000003f0: 65f9 f3bf 192c 22c0 3eb2 0fbd 0129 f2bf

bayes_fc1.bias_mu f4 [64]
-0.110391356 0.08014247 -0.013543004 -0.17070083 -0.07336113 0.28138506 -0.091178305 0.036352206
-0.09884173 0.20437674 -0.043302733 -0.14361988 -0.031351298 0.14146672 -0.028268095 0.81177324
0.18432984 -0.019636782 -0.056226186 0.13266018 -0.12410113 -0.017311137 -0.09835959 -0.11180803
-0.07251366 -0.031367313 0.010830515 0.14104185 0.102784716 -0.06629455 -0.1055173 -0.049065806
-0.05221277 -0.065653495 -0.025380215 0.202748 -0.11951689 -0.10233491 0.011279479 -0.022079896
-0.19598651 -0.05360558 -0.1239203 -0.09347565 -0.08732812 -0.09832151 -0.0334523 -0.059715178
-0.06784574 -0.051589016 -0.03538241 -0.050626226 -0.111906245 0.14540501 -0.0691934 0.15123646
0.035794202 0.2006558 0.27801046 0.21434928 -0.10024965 0.20870194 -0.16144833 -0.061072323
00000000: dd14 e2bd bc21 a43d 7ae3 5dbc 33cc 2ebe
00000010: 5c3e 96bd b411 903e b1bb babd 0de6 143d
00000020: 886d cabd 2348 513e 355e 31bd 1711 13be
00000030: 386a 00bd a7dc 103e 7e92 e7bc 5fd0 4f3f
00000040: f6c0 3c3e 51dd a0bc 6e4d 66bd 12d8 073e
00000050: bc28 febd 16d0 8dbc c170 c9bd 9cfb e4bd
00000060: 0b82 94bd 037b 00bd 7972 313c 466d 103e
00000070: cb80 d23d 70c5 87bd 7419 d8bd 3af9 48bd
00000080: 0fdd 55bd 5775 86bd 2bea cfbc 2c9d 4f3e
00000090: 45c5 f4bd f794 d1bd 90cd 383c e6e0 b4bc
000000a0: b0b0 48be 8691 5bbd edc9 fdbd 2970 bfbd
000000b0: 16d9 b2bd ca5c c9bd 4705 09bd e797 74bd
000000c0: b5f2 8abd 014f 53bd 25ed 10bd 725d 4fbd
000000d0: 1a2f e5bd 0de5 143e 45b5 8dbd bbdd 1a3e
000000e0: f19c 123d b778 4d3e 6357 8e3e 617e 5b3e
000000f0: b04f cdbd f6b5 553e b652 25be f926 7abd

bayes_fc1.bias_rho f4 [64]
-0.25439963 -1.303725 -1.0060198 -1.3744807 -1.1271325 -0.9964245 -0.46575916 -0.71904206
-1.2702508 -0.60499173 -0.14169134 -0.9477637 -0.51749945 -1.5215757 -0.3822678 -1.7485757
-1.2415003 -0.33193123 -0.48710236 -1.4611205 -0.9744458 -0.7441538 -0.15040714 -0.99684745
-0.3848428 -0.32809412 -0.8453044 -1.6562363 -1.6537838 -0.5400634 -0.49586457 -0.3225983
-0.3461414 -0.38100046 -0.36952782 -0.77229726 -1.5520409 -0.5623256 -0.5956709 -0.8208287
-1.2881873 -1.1433363 -0.8629356 -0.40223208 -0.4263485 -0.2946454 -0.5767179 -1.1856685
-0.4576189 -0.3000999 -0.32953733 -0.44605 -0.3434136 -1.6362958 -0.45594922 -1.4954963
-0.94817317 -1.2052153 -1.2728701 -0.5227272 -0.37190032 -1.3101133 -1.3475704 -0.38062176
00000000: ab40 82be 76e0 a6bf 42c5 80bf fcee afbf
00000010: e145 90bf ad15 7fbf fc77 eebe 2413 38bf
00000020: 9497 a2bf bde0 1abf 8917 11be a4a0 72bf
00000030: d87a 04bf fec2 c2bf 9bb8 c3be 54d1 dfbf
00000040: 7be9 9ebf e4f2 a9be 7b65 f9be ff05 bbbf
00000050: 4875 79bf dd80 3ebf 5404 1abe 6531 7fbf
00000060: 1e0a c5be f4fb a7be df65 58bf 8dff d3bf
00000070: 30af d3bf 9841 0abf f6e1 fdbe 9b2b a5be
00000080: 7239 b1be 7e12 c3be c032 bdbe 46b5 45bf
00000090: 47a9 c6bf 92f4 0fbf e37d 18bf d421 52bf
000000a0: 52e3 a4bf d858 92bf 59e9 5cbf 5df1 cdbe
000000b0: 5a4a dabe c3db 96be c9a3 13bf fcc3 97bf
000000c0: 064d eabe b2a6 99be 1eb9 a8be aa60 e4be
000000d0: e8d3 afbe 2472 d1bf 2d72 e9be 6c6c bfbf
000000e0: 7abb 72bf 7f44 9abf 68ed a2bf 73d1 05bf
000000f0: b869 bebe cbb1 a7bf 307d acbf dbe0 c2be

bayes_fc1.prior_mu_old_bias f4 [64]
-0.08940162 0.08307663 -0.0037593052 -0.1772328 -0.079873405 0.23274103 -0.08828417 0.028887734
-0.0927616 0.2452087 -0.04517563 -0.12155237 -0.04665822 0.18417692 -0.065128654 0.8088518
0.22301608 -0.019927604 -0.06437546 0.15134555 -0.12136686 -0.04127286 -0.1064393 -0.12555017
-0.03935819 -0.042549245 -0.016349703 0.14968227 0.09191348 -0.057707496 -0.15284427 -0.043800242
-0.0336036 -0.034232505 -0.08063108 0.16051377 -0.13866375 -0.12304014 0.08315178 -0.048855297
-0.18474807 -0.05005308 -0.13746242 -0.11399322 -0.083544336 -0.0849237 -0.13255729 -0.057891265
-0.052454915 -0.013565077 -0.04944845 -0.0407985 -0.09638217 0.15614685 -0.09371256 0.18852015
0.022486243 0.2596232 0.31048054 0.26526192 -0.13992211 0.21442077 -0.15564568 -0.07783437
00000000: 3218 b7bd 1524 aa3d ad5e 76bb 847c 35be
00000010: ab94 a3bd aa53 6e3e 55ce b4bd f8a5 ec3c
00000020: cbf9 bdbd fd17 7b3e 150a 39bd 73f0 f8bd
00000030: b11c 3fbd e098 3c3e 2c62 85bd e910 4f3f
00000040: 545e 643e 373f a3bc 48d7 83bd 54fa 1a3e
00000050: 308f f8bd bb0d 29bd d9fc d9bd 3990 00be
00000060: 0e36 21bd 1e48 2ebd d0ef 85bc 4f46 193e
00000070: 223d bc3d b25e 6cbd 3583 1cbe e267 33bd
00000080: eea3 09bd 6237 0cbd e821 a5bd b95d 243e
00000090: dffd 0dbe 78fc fbbd 7b4b aa3d 7e1c 48bd
000000a0: 992e 3dbe 7504 4dbd f3c2 0cbe 4775 e9bd
000000b0: 4b19 abbd 7aec adbd 19bd 07be 641f 6dbd
000000c0: f7da 56bd 0f40 5ebc 758a 4abd 541c 27bd
000000d0: 0464 c5bd f6e4 1f3e 5fec bfbd 6d0b 413e
000000e0: 1235 b83c 55ed 843e 4ef7 9e3e 69d0 873e
000000f0: be47 0fbe 1e91 5b3e 9561 1fbe a067 9fbd

bayes_fc1.prior_sigma_small_bias f4 [64]
0.59573233 0.2514949 0.32106018 0.23147902 0.27967164 0.2989652 0.49977234 0.4079797
0.25502157 0.45611286 0.627327 0.32881373 0.46027812 0.20760119 0.5138947 0.16106762
0.23838618 0.55090415 0.47767773 0.2143454 0.3338752 0.3829277 0.62866485 0.30852354
0.5392546 0.5288896 0.35202244 0.17995527 0.17059302 0.47104508 0.48352453 0.5491855
0.54580504 0.5330336 0.51405525 0.36589995 0.19384216 0.43173632 0.4588984 0.3668019
0.25783828 0.2808643 0.35297427 0.511901 0.5126843 0.57830006 0.4394339 0.26216847
0.50128746 0.5390912 0.54847234 0.5179348 0.5535679 0.17689005 0.49299878 0.19741078
0.32119635 0.26035604 0.26244995 0.45440802 0.5329728 0.24155943 0.2379913 0.52713615
00000000: ea81 183f f1c3 803e 0062 a43e d608 6d3e
00000010: 1f31 8f3e f711 993e 29e2 ff3e b7e2 d03e
00000020: 3092 823e a087 e93e 8198 203f 465a a83e
00000030: 93a9 eb3e 6895 543e 9a8e 033f e9ee 243e
00000040: 821b 743e 0e08 0d3f 2d92 f43e 5c7d 5b3e
00000050: b1f1 aa3e 190f c43e 2ef0 203f ccf6 9d3e
00000060: 970c 0a3f 4f65 073f 493c b43e 3246 383e
00000070: f0af 2e3e d22c f13e 8790 f73e 6c97 0c3f
00000080: e1b9 0b3f e474 083f 2099 033f 3d57 bb3e
00000090: 8f7e 463e 8b0c dd3e bbf4 ea3e 75cd bb3e
000000a0: 6103 843e 72cd 8f3e 0bb9 b43e f20b 033f
000000b0: 473f 033f 790b 143f 7bfd e03e f23a 863e
000000c0: 6054 003f e201 0a3f af68 0c3f 6097 043f
000000d0: a0b6 0d3f aa22 353e 566a fc3e 0d26 4a3e
000000e0: d973 a43e 634d 853e d75f 863e 2ba8 e83e
000000f0: e870 083f 5b5b 773e feb3 733e 65f2 063f

bayes_fc1.prior_mu_old f4 [64, 6]
-0.29527187 -0.5208355 -0.15623698 -0.35612833 -0.40702036 -0.048106387 0.50887567 -0.13034935
0.5735452 -0.45728418 0.13589065 -0.29201233 -0.39761004 0.18330353 -0.4280247 0.18348145
-0.21024501 0.2541054 -0.37687925 0.17091888 -0.7559473 0.50021845 -0.12850735 -0.07008878
-0.4508615 0.22682929 -0.6001399 0.26743698 -0.1818298 0.2341811 0.038981237 -0.22327791
0.5457079 -0.2789221 0.14581594 0.10273382 -0.4279049 -0.36265647 -0.25661924 -0.2929944
-0.41327032 -0.16441591 -0.5322325 0.20193838 -0.14360234 -0.081615 -0.38625762 0.22398208
-0.3376704 0.16892357 -0.57511586 0.42291102 -0.18740253 0.013565026 -0.18226999 -0.29706788
0.2512695 -0.2730491 0.09875081 0.21036068 -0.3715848 -0.37140056 -0.103722565 -0.3868684
-0.13888347 -0.028895011 -0.25876907 -0.0027964725 -0.56301194 0.34552258 -0.16117172 -0.21317829
-0.36866295 -0.14125116 -0.22320944 -0.26645806 -0.45860738 -0.17771621 0.48224723 -0.1587188
0.5010883 -0.4012168 0.19934215 -0.008078689 -0.22493131 -0.24837574 -0.16030353 -0.34988543
-0.44257486 -0.07648387 -0.790495 -0.23772724 0.032884166 -0.05177618 0.07930981 0.7474186
0.31589463 -0.2118025 0.7427479 -0.37597215 0.20233235 0.08955114 -0.40496188 -0.25234997
-0.065167695 -0.19568649 -0.31396908 -0.06988104 -0.22511415 -0.24847236 -0.20423397 -0.33801743
-0.43486878 -0.19025971 0.31208405 -0.14780511 0.7331407 -0.39298347 0.19918866 -0.12575376
-0.31364852 0.06127134 -0.43329442 0.23783705 -0.19184402 0.09419814 -0.315156 -0.031637903
-0.09820129 -0.3456287 -0.26889038 0.018866848 -0.35407388 -0.37636065 -0.19733134 -0.38010377
-0.43119627 -0.15374032 -0.4234568 0.16340849 -0.5858483 0.30694693 -0.18733577 0.06118919
-0.20668666 -0.23676938 -0.20128787 -0.36323026 -0.42909572 -0.12340935 -0.22955877 -0.33327502
-0.06152073 -0.20433415 -0.4544938 -0.1627439 -0.3872864 -0.21261926 -0.20985585 -0.35902447
-0.14467075 -0.117131 0.27660647 -0.115271345 0.7257328 -0.3879479 0.2091092 -0.03009981
0.32182506 -0.14413698 0.5331046 -0.35228476 0.17166255 0.14677058 -0.2607495 -0.36977705
-0.3194343 -0.27223435 -0.3411346 -0.25951365 -0.39919263 -0.31000227 -0.26207846 -0.15457657
-0.3783182 -0.24127094 -0.3268256 -0.38918415 -0.18938506 -0.24697138 -0.5437242 -0.15937763
-0.2340408 -0.4167801 -0.110584594 -0.12760815 -0.24881288 0.0005374091 -0.44212535 -0.41071945
-0.2077637 -0.32181722 -0.37287885 -0.04024219 -0.2311448 -0.25435346 -0.07257056 -0.27742043
-0.39008826 -0.16228984 0.15101211 -0.2438228 0.49324995 -0.43709385 0.17605598 0.13432859
-0.4215997 0.27041367 -0.596866 0.28942147 -0.12422529 0.18316388 -0.4053786 -0.4325506
-0.1969957 -0.32392067 -0.4097888 -0.1912312 -0.37366322 0.18860471 -0.12403835 -0.020219585
-0.33537754 0.2174459 -0.24207188 -0.23954307 -0.17534532 -0.10065649 -0.35936436 0.10333158
-0.3637396 0.15883578 -0.6640858 0.43300533 -0.12408219 0.116307236 -0.39958045 0.15275119
-0.31707117 0.2810847 -0.16947667 0.14049095 -0.29169258 0.0042670486 -0.42769322 0.4270035
00000000: e02d 97be 7a55 05bf 96fc 1fbe 7456 b6be
00000010: f964 d0be 340b 45bd ad45 023f 4d7a 05be
00000020: dcd3 123f 2721 eabe eb26 0b3e a482 95be
00000030: 8b93 cbbe ecb3 3b3e 0e26 dbbe 90e2 3b3e
00000040: 784a 57be 1a1a 823e 51f6 c0be 5c05 2f3e
00000050: c385 41bf 510e 003f 6e97 03be b58a 8fbd
00000060: 52d7 e6be f045 683e c5a2 19bf 80ed 883e
00000070: 9731 3abe 2ccd 6f3e caaa 1f3d f7a2 64be
00000080: 83b3 0b3f e1ce 8ebe c650 153e 1c66 d23d
00000090: 5a16 dbbe 1cae b9be 9963 83be 5d03 96be
000000a0: 2b98 d3be a55c 28be 6440 08bf efc8 4e3e
000000b0: 7e0c 13be c425 a7bd 8fc3 c5be 8f5b 653e
000000c0: 22e3 acbe 4dfa 2c3e cb3a 13bf cb87 d83e
000000d0: 73e6 3fbe d83f 5e3c fca4 3abe 4819 98be
000000e0: 65a6 803e 17cd 8bbe dd3d ca3d ca68 573e
000000f0: 5d40 bebe 3728 bebe 7f6c d4bd 9d13 c6be
00000100: 7837 0ebe 3bb5 ecbc 617d 84be 0645 37bb
00000110: 8d21 10bf 56e8 b03e 330a 25be 694b 5abe
00000120: 64c1 bcbe 25a4 10be 0491 64be 316d 88be
00000130: 96ce eabe 3dfb 35be 1ce9 f63e 2e87 22be
00000140: 5347 003f 4a6c cdbe 5920 4c3e 7a5c 04bc
00000150: 6554 66be 3656 7ebe 9c26 24be 2f24 b3be
00000160: 2c99 e2be 93a3 9cbd e15d 4abf c56e 73be
00000170: 8cb1 063d 4213 54bd 2f6d a23d d356 3f3f
00000180: f1bc a13e c1e2 58be ba24 3e3f 6c7f c0be
00000190: 3630 4f3e 9766 b73d 2a57 cfbe 0434 81be
000001a0: a476 85bd 0a62 48be 8ec0 a0be ca1d 8fbd
000001b0: 5384 66be 8a6f 7ebe b622 51be 9f10 adbe
000001c0: 1fa7 debe 71d3 42be 7bc9 9f3e 395a 17be
000001d0: 1caf 3b3f 2135 c9be 1df8 4b3e 98c5 00be
000001e0: 8a96 a0be a8f7 7a3d c4d8 ddbe 8e8b 733e
000001f0: c272 44be f4ea c03d 215c a1be bf96 01bd
00000200: c21d c9bd 3ff6 b0be 00ac 89be a68e 9a3c
00000210: 2c49 b5be 58b2 c0be 3a11 4abe f69c c2be
00000220: c2c5 dcbe 1a6e 1dbe 54cf d8be 8e54 273e
00000230: 27fa 15bf 2628 9d3e f3d4 3fbe 84a1 7a3d
00000240: aba5 53be ac73 72be 681e 4ebe 51f9 b9be
00000250: 6fb2 dbbe 0bbe fcbd 7411 6bbe 06a3 aabe
00000260: 29fd 7bbd f93c 51be 69b3 e8be 56a6 26be
00000270: 674a c6be ddb8 59be 74e4 56be 0ed2 b7be
00000280: 9224 14be 61e2 efbd 5d9f 8d3e 6213 ecbd
00000290: a0c9 393f 1ba1 c6be b920 563e e093 f6bc
000002a0: 41c6 a43e a598 13be 8b79 083f ab5e b4be
000002b0: 4fc8 2f3e 074b 163e f580 85be 6b53 bdbe
000002c0: e48c a3be 4d62 8bbe 32a9 aebe f9de 84be
000002d0: fa62 ccbe 9eb8 9ebe 262f 86be 5249 1ebe
000002e0: ecb2 c1be bb0f 77be af55 a7be 2543 c7be
000002f0: 28ee 41be 11e6 7cbe 8231 0bbf e433 23be
00000300: 64a8 6fbe 3464 d5be 2d7a e2bd b6ab 02be
00000310: cec8 7ebe eae0 0c3a 415e e2be d249 d2be
00000320: 02c0 54be 3ac5 a4be fae9 bebe ffd4 24bd
00000330: 39b1 6cbe 9e3a 82be e09f 94bd 0d0a 8ebe
00000340: a6b9 c7be 4f2f 26be eba2 1a3e afac 79be
00000350: 428b fc3e c4ca dfbe 0548 343e 6f8d 093e
00000360: eadb d7be a973 8a3e 36cc 18bf 0d2f 943e
00000370: d469 febd 508f 3b3e c98d cfbe 4677 ddbe
00000380: 3eb9 49be eed8 a5be d6cf d1be 1dd2 43be
00000390: c950 bfbe 9821 413e d207 febd 8ba3 a5bc
000003a0: 9bb6 abbe 23aa 5e3e b1e1 77be c74a 75be
000003b0: b98d 33be fd24 cebd 9bfe b7be 829f d33d
000003c0: 143c babe d9a5 223e 8701 2abf e0b2 dd3e
000003d0: ce1e febd 7d32 ee3d cf95 ccbe cf6a 1c3e
000003e0: 2757 a2be 55ea 8f3e 4b8b 2dbe dcdc 0f3e
000003f0: bb58 95be 99d2 8b3b 9bfa dabe 34a0 da3e

bayes_fc1.prior_sigma_small f4 [64, 6]
0.31945908 0.24566898 0.9179864 0.37241364 0.15891975 1.0265707 0.07986665 0.037081636
0.5212031 0.1126505 0.049829938 0.58067 0.119901404 0.04445598 0.6911318 0.14518411
0.054484 0.6302112 0.075053625 0.03149446 0.5283207 0.067271285 0.032909412 0.41984087
0.10190361 0.03280357 0.6200332 0.11143206 0.049005713 0.46440712 0.15387283 0.060045816
0.65381324 0.11562568 0.045776714 0.57104033 0.29980525 0.19269079 0.87718946 0.2952517
0.16863804 0.8803332 0.1509712 0.0626638 0.85725135 0.23038296 0.097313076 0.75618744
0.08675967 0.042930886 0.60630786 0.0949825 0.04479406 0.48983917 0.22475049 0.100142196
0.83816826 0.134656 0.077317536 0.7000276 0.4086309 0.1654773 1.01813 0.3646885
0.1402206 1.0362363 0.11330554 0.06088894 0.6391006 0.11243185 0.05641921 0.5923689
0.23126575 0.10021515 0.8890033 0.2859744 0.17470133 0.85432625 0.06522629 0.034565866
0.42631772 0.06584645 0.028683534 0.46994725 0.24750002 0.118603416 0.914813 0.30685782
0.19639927 0.9419871 0.16555375 0.044360828 0.3889883 0.050883356 0.023589114 0.27267504
0.09285391 0.039188374 0.54498756 0.07294139 0.039126042 0.5722946 0.34574118 0.13246182
1.0330667 0.32593763 0.14851406 0.9089113 0.26539424 0.13669235 0.88764805 0.2698378
0.16326204 0.88984066 0.06583167 0.033311684 0.40952265 0.07056709 0.028473997 0.47310048
0.117099985 0.054165106 0.6539449 0.12369514 0.06858298 0.6374388 0.20231302 0.06721173
0.881278 0.2411948 0.09653634 0.80735016 0.32692176 0.16409868 0.9626987 0.3891607
0.23609723 1.014101 0.12094171 0.053890333 0.68996674 0.13406645 0.049904004 0.64920074
0.28178275 0.1390568 0.9642808 0.4014359 0.21185586 0.9474402 0.3122461 0.15447149
0.91897666 0.30674347 0.20263465 0.94149 0.27364042 0.081541084 0.74145144 0.20928904
0.097185045 0.7576042 0.061140105 0.028092284 0.34373096 0.051309586 0.023502955 0.40574577
0.054419525 0.029533235 0.420106 0.058316983 0.028682275 0.4291167 0.22243777 0.17302242
0.7991418 0.29680026 0.19615275 0.76328063 0.2686437 0.14338681 0.8508273 0.1870355
0.16830148 0.7938616 0.3145532 0.1771037 0.9688974 0.30379826 0.226047 0.93133616
0.29056028 0.13188446 1.0052936 0.30594915 0.15192255 0.9034646 0.3199435 0.13623197
0.87001425 0.32484803 0.14952584 0.8904546 0.27462873 0.12452975 0.92892146 0.36518463
0.16908346 0.93798935 0.1731024 0.073850684 0.8180481 0.13656215 0.06791365 0.785817
0.07449235 0.03164544 0.57337797 0.08071793 0.034282178 0.5222339 0.2857458 0.1659415
0.8418302 0.31823367 0.15249375 0.903761 0.13804148 0.074244596 0.7932655 0.2504856
0.10873405 0.8624711 0.1603432 0.097780295 0.6609287 0.18630427 0.14516892 0.6318931
0.091228366 0.03443622 0.58878684 0.100847505 0.044335388 0.5359173 0.10370446 0.048445467
0.70497495 0.10542347 0.0548731 0.56313425 0.13696301 0.07725776 0.68856 0.14094806
00000000: 2490 a33e a690 7b3e 2801 6b3f 00ad be3e
00000010: dcbb 223e ab66 833f 2091 a33d eae2 173d
00000020: 916d 053f 4eb5 e63d 7a1a 4c3d caa6 143f
00000030: de8e f53d 7917 363d 03ee 303f 25ab 143e
00000040: 9d2a 5f3d 8555 213f b7b5 993d 5600 013d
00000050: 0740 073f 87c5 893d 05cc 063d 62f5 d63e
00000060: d7b2 d03d 095d 063d 7fba 1e3f 7e36 e43d
00000070: 37ba 483d c5c6 ed3e d790 1d3e 9af2 753d
00000080: 4e60 273f 28cd ec3d 5d80 3b3d b32f 123f
00000090: 1380 993e bc50 453e 7d8f 603f 3b2b 973e
000000a0: 73af 2c3e 845d 613f 3298 1a3e e155 803d
000000b0: d374 5b3f 83e9 6b3e 144c c73d 8095 413f
000000c0: 0eaf b13d 4cd8 2f3d fe36 1b3f 2f86 c23d
000000d0: fa79 373d 33cc fa3e fe24 663e 5a17 cd3d
000000e0: 3292 563f 43e3 093e a858 9e3d 0235 333f
000000f0: 1238 d13e e272 293e 1552 823f 73b8 ba3e
00000100: fd95 0f3e 64a3 843f bc0c e83d ae66 793d
00000110: 199c 233f ab42 e63d d417 673d 7da5 173f
00000120: eed0 6c3e 9a3d cd3d b895 633f 3d6b 923e
00000130: e8e4 323e 20b5 5a3f 5c95 853d f094 0d3d
00000140: 5146 da3e 81da 863d bbf9 ea3c ed9c f03e
00000150: a570 7d3e 59e6 f23d 2f31 6a3f 781c 9d3e
00000160: e41c 493e 1126 713f ec86 293e b3b3 353d
00000170: 7929 c73e 116b 503d f53d c13c 109c 8b3e
00000180: 312a be3d fd83 203d 4e84 0b3f 4c62 953d
00000190: a142 203d e681 123f fd04 b13e 12a4 073e
000001a0: 883b 843f 4ce1 a63e 1214 183e 69ae 683f
000001b0: c1e1 873e 14f9 0b3e e73c 633f 2e28 8a3e
000001c0: 2a2e 273e 99cc 633f c1d2 863d d571 083d
000001d0: f4ac d13e 7a85 903d 4d42 e93c 3a3a f23e
000001e0: 1ed2 ef3d 3bdc 5d3d ef68 273f e153 fd3d
000001f0: 3c75 8c3d 302f 233f 252b 4f3e 4ea6 893d
00000200: 6f9b 613f c5fb 763e d8b4 c53d 80ae 4e3f
00000210: 4a62 a73e 7c09 283e 6c73 763f 1240 c73e
00000220: 79c3 713e 10ce 813f 4ab0 f73d 1cbc 5c3d
00000230: a9a1 303f b748 093e 2468 4c3d 0532 263f
00000240: d445 903e e864 0e3e 1bdb 763f 0289 cd3e
00000250: bef0 583e 718b 723f b9de 9f3e c62d 1e3e
00000260: 0e42 6b3f 7b0d 9d3e 757f 4f3e 7d05 713f
00000270: 991a 8c3e 03ff a63d c3cf 3d3f de4f 563e
00000280: f408 c73d 59f2 413f 0c6e 7a3d ca21 e63c
00000290: 81fd af3e 002a 523d 4589 c03c e9bd cf3e
000002a0: 02e7 5e3d afef f13c 2218 d73e cadd 6e3d
000002b0: 17f7 ea3c 2fb5 db3e bac6 633e ca2c 313e
000002c0: 8f94 4c3f 34f6 973e 44dc 483e 5c66 433f
000002d0: ab8b 893e fed3 123e d1cf 593f 3c86 3f3e
000002e0: 3957 2c3e 843a 4b3f 1e0d a13e ac5a 353e
000002f0: a909 783f 728b 9b3e dd78 673e 0c6c 6e3f
00000300: 51c4 943e b80c 073e 76ad 803f 5ea5 9c3e
00000310: 9691 1b3e 7549 673f a2cf a33e 6580 0b3e
00000320: 41b9 5e3f 7b52 a63e 4d1d 193e d5f4 633f
00000330: 239c 8c3e 7409 ff3d cccd 6d3f 7bf9 ba3e
00000340: 3724 2d3e 1220 703f c141 313e 073f 973d
00000350: 9a6b 513f f3d6 0b3e 5016 8b3d 4e2b 493f
00000360: 728f 983d a69e 013d e6c8 123f 714f a53d
00000370: 786b 0c3d 1fb1 053f 464d 923e 92ec 293e
00000380: 2f82 573f 86ef a23e 5227 1c3e e25c 673f
00000390: bf5a 0d3e 8d0d 983d 7313 4b3f a63f 803e
000003a0: f5af de3d e8ca 5c3f 0231 243e 0941 c83d
000003b0: a032 293f 8cc6 3e3e 29a7 143e bfc3 213f
000003c0: f0d5 ba3d fe0c 0d3d bcba 163f 2389 ce3d
000003d0: 0699 353d e031 093f 0163 d43d c16e 463d
000003e0: 3d79 343f 43e8 d73d 9ec2 603d 9129 103f
000003f0: 0840 0c3e 5139 9e3d 7845 303f b054 103e

bayes_fc2.weight_mu f4 [1, 64]
0.089367874 0.06658515 -0.038347326 -0.0987759 -0.081189066 0.08671121 0.077530995 -0.017848356
-0.06560348 0.09846166 0.051084466 -0.08058486 -0.038246725 0.07668885 0.08489476 0.3693415
0.0476187 0.034743775 0.029892491 0.07230978 -0.071127735 -0.12000159 0.009646161 -0.049824134
0.00026408362 -0.021261139 0.0440581 0.08857251 0.09468691 -0.0015165047 0.076749116 -0.026437461
0.042359024 -0.033264134 0.06251811 0.07120485 -0.087204844 0.030302418 -0.036511645 0.19021535
-0.063983254 -0.06825005 -0.053421043 0.05127271 0.015975878 0.04189811 -0.0027122681 -0.06901816
0.14062728 -0.025782574 0.00789769 -0.0834803 0.06594351 0.10733481 -0.03391783 0.08059612
0.052053645 0.075799756 0.09267306 0.061771665 0.01454904 0.061112035 -0.083956756 -0.027731163
00000000: 8106 b73d cc5d 883d 1612 1dbd 054b cabd
00000010: 7446 a6bd a695 b13d 92c8 9e3d b736 92bc
00000020: 1e5b 86bd 44a6 c93d f23d 513d ad09 a5bd
00000030: 99a8 1cbd 0b0f 9d3d 4edd ad3d 541a bd3e
00000040: d30b 433d 7d4f 0e3d 19e1 f43c 2617 943d
00000050: 6bab 91bd 65c3 f5bd ef0a 1e3c 6414 4cbd
00000060: b474 8a39 d72b aebc 4476 343d 8165 b53d
00000070: 36eb c13d 74c5 c6ba a42e 9d3d 6093 d8bc
00000080: a880 2d3d f93f 08bd 7f09 803d d9d3 913d
00000090: 7498 b2bd c73c f83c 3c8d 15bd d0c7 423e
000000a0: a709 83bd afc6 8bbd 06d0 5abd 5503 523d
000000b0: d8df 823c 5a9d 2b3d 4fc0 31bb 6559 8dbd
000000c0: 9900 103e fa35 d3bc 5065 013c b8f7 aabd
000000d0: 640d 873d 5ad2 db3d 6ced 0abd 940f a53d
000000e0: 3436 553d e73c 9b3d 60cb bd3d 4904 7d3d
000000f0: 195f 6e3c 9d50 7a3d 85f1 abbd 772c e3bc

bayes_fc2.weight_rho f4 [1, 64]
-1.0961105 -3.777885 -3.4141676 -3.6268952 -3.5850391 -3.304553 -1.3422394 -3.4776273
-3.5748196 -2.743949 -2.5114098 -2.865366 -2.0310705 -3.9527004 -1.656312 -2.6561913
-3.8166132 -2.0585544 -1.7059555 -3.7353694 -2.8949792 -2.2513523 -1.7936399 -3.4640121
-2.5238101 -2.2540634 -0.86764455 -3.6873245 -3.6642938 -1.1075783 -1.0435398 -1.5077881
-2.197237 -1.1444509 -2.1037555 -3.3710504 -3.8231218 -0.67492175 -3.3964293 -1.0626835
-3.4603186 -3.1676562 -3.2254949 -1.9030099 -1.9406394 -1.4060287 -1.5561332 -3.5370755
-1.2352089 -2.4952793 -2.5148451 -2.7366965 -1.6137373 -3.7534068 -1.5652183 -3.7809744
-3.2316868 -3.4673946 -3.22364 -3.1316292 -1.3001603 -3.6723092 -3.6855469 -2.0928094
00000000: 594d 8cbf dec8 71c0 b981 5ac0 0d1f 68c0
00000010: 4871 65c0 cc7d 53c0 80ce abbf 7291 5ec0
00000020: d8c9 64c0 dc9c 2fc0 f0ba 20c0 2862 37c0
00000030: 0ffd 01c0 0bf9 7cc0 0802 d4bf 0aff 29c0
00000040: 6443 74c0 5bbf 03c0 c05c dabf 4b10 6fc0
00000050: 5747 39c0 2816 10c0 fe95 e5bf 60b2 5dc0
00000060: 1b86 21c0 9342 10c0 f41d 5ebf 20fd 6bc0
00000070: ca83 6ac0 20c5 8dbf b692 85bf 33ff c0bf
00000080: 889f 0cc0 5e7d 92bf eea3 06c0 4abf 57c0
00000090: 07ae 74c0 acc7 2cbf 195f 59c0 0306 88bf
000000a0: dc75 5dc0 e1ba 4ac0 826e 4ec0 d495 f3bf
000000b0: df66 f8bf c0f8 b3bf 5f2f c7bf 725f 62c0
000000c0: 531b 9ebf a8b2 1fc0 39f3 20c0 0926 2fc0
000000d0: f28e cebf d137 70c0 1359 c8bf 7cfb 71c0
000000e0: f5d3 4ec0 cbe9 5dc0 1e50 4ec0 9d6c 48c0
000000f0: a76b a6bf 1d07 6bc0 00e0 6bc0 97f0 05c0

bayes_fc2.prior_mu_old f4 [1, 64]
0.08043926 0.073318414 -0.044893917 -0.10514052 -0.06458227 0.079710945 0.09806863 -0.040820066
-0.0686313 0.10233711 0.054471225 -0.09079846 -0.030791013 0.09921936 0.03094628 0.4017213
0.069533885 0.032539595 0.0077637243 0.083071105 -0.07360311 -0.105821654 0.027137479 -0.07724718
-0.017647974 -0.012529805 0.07339038 0.098226264 0.084080234 0.005978092 0.046543777 -0.017168304
0.029621202 -0.027797194 0.036680594 0.06837585 -0.07633677 0.030833527 -0.05234882 0.15139148
-0.0927612 -0.07930674 -0.040348563 0.036767863 0.01088337 0.047539283 -0.023404006 -0.07510796
0.18361413 -0.031768236 0.00050984777 -0.06424721 0.07133104 0.10018996 -0.068208136 0.074793436
0.051495336 0.07299112 0.12029766 0.07266615 0.034323733 0.06830957 -0.10110816 -0.022770835
00000000: 57bd a43d f727 963d afe2 37bd ea53 d7bd
00000010: b643 84bd 7e3f a33d 35d8 c83d f132 27bd
00000020: 918e 8cbd 1e96 d13d 381d 5f3d 8bf4 b9bd
00000030: 6f3d fcbc 8533 cb3d 0e83 fd3c 6aae cd3e
00000040: c867 8e3d 3d48 053d d766 fe3b 2f21 aa3d
00000050: 3abd 96bd 06b9 d8bd 6b4f de3c c533 9ebd
00000060: 7c92 90bc d049 4dbc b24d 963d da2a c93d
00000070: 4232 ac3d dfe3 c33b b0a4 3e3d 8ba4 8cbc
00000080: 2aa8 f23c f1b6 e3bc 643e 163d a308 8c3d
00000090: 7456 9cbd 9896 fc3c b76b 56bd 5e06 1b3e
000000a0: 96f9 bdbd 926b a2bd 8944 25bd e699 163d
000000b0: 2a50 323c 8db8 423d c2b9 bfbc 34d2 99bd
000000c0: 5805 3c3e 691f 02bd 4ea7 053a 0b94 83bd
000000d0: 0216 923d 6530 cd3d b5b0 8bbd 4d2d 993d
000000e0: c6ec 523d 5e7c 953d 9f5e f63d fed1 943d
000000f0: 0b97 0c3d e3e5 8b3d cc11 cfbd e789 babc

bayes_fc2.prior_sigma_small f4 [1, 64]
0.29619125 0.024553988 0.03473642 0.02702613 0.028153662 0.038092487 0.23604332 0.031983785
0.02928874 0.06645765 0.08005292 0.05568887 0.120100334 0.020511737 0.17461911 0.068677105
0.022854889 0.12193647 0.1695995 0.025895216 0.05701691 0.09771456 0.1532102 0.033088718
0.07893468 0.100925565 0.3399755 0.027237916 0.028373724 0.2915029 0.29775617 0.19841853
0.112485334 0.2745214 0.113504454 0.035107046 0.023016604 0.41658548 0.033442054 0.2828015
0.03290779 0.04152375 0.040279232 0.14298938 0.13751449 0.22002906 0.17908935 0.029621873
0.25079578 0.08100794 0.07851185 0.06453525 0.18127976 0.023684343 0.18785165 0.023642823
0.041713096 0.032282438 0.041002024 0.043693785 0.22806585 0.026873829 0.026449231 0.114750504
00000000: 61a6 973e 7225 c93c c747 0e3d e765 dd3c
00000010: 82a2 e63c de06 1c3d 57b5 713e 6e01 033d
00000020: f1ee ef3c f31a 883d c9f2 a33d 031a 643d
00000030: 2af7 f53d 3b08 a83c 5acf 323e 95a6 8c3d
00000040: 2d3a bb3c d4b9 f93d 7eab 2d3e 3422 d43c
00000050: 908a 693d 921e c83d 22e3 1c3e 0988 073d
00000060: 81a8 a13d 10b2 ce3d 4511 ae3e 0d22 df3c
00000070: 0370 e83c de3f 953e 7f73 983e 3a2e 4b3e
00000080: b65e e63d 128e 8c3e 0675 e83d 68cc 0f3d
00000090: 518d bc3c b14a d53e 89fa 083d 5ccb 903e
000000a0: 52ca 063d cf14 2a3d d6fb 243d cf6b 123e
000000b0: 99d0 0c3e 4c4f 613e 3363 373e 92a9 f23c
000000c0: 4e68 803e 7ee7 a53d d2ca a03d 0f2b 843d
000000d0: 67a1 393e ab05 c23c 2f5c 403e 98ae c13c
000000e0: 5adb 2a3d 973a 043d bdf1 273d 41f8 323d
000000f0: 188a 693e 8126 dc3c 0fac d83c 5002 eb3d

exp_avg f4 [64, 6]
-2.3901866e-05 -5.8954185e-05 1.4720264e-06 -4.3170374e-05 5.3841035e-05 -2.058682e-05 0.00038623755 0.0012972153
-0.00017502662 -0.00024883033 0.0011579992 -2.7240253e-06 -0.0017683934 -0.0059113656 -0.00013268017 -0.002049331
-0.004660465 -7.739009e-05 0.0015194737 0.0114824185 6.140775e-05 0.003115617 0.0072019366 0.00034564832
0.0055527086 0.017741313 0.0002803545 0.006861198 0.012468124 0.00058475084 -0.00078891777 0.0024782938
-0.00010135795 -0.0023299858 -0.005697885 -0.0002069035 -4.517979e-06 0.00013050204 -1.1518832e-05 -4.3999305e-05
7.2388706e-05 -3.411326e-06 0.0012951042 0.0028583417 -4.4863184e-05 0.0014485394 -2.2479295e-05 4.509928e-05
0.0032335126 0.019246945 0.0002528563 0.0071344683 0.015488357 0.0003715103 -0.0010566547 -0.003230667
-0.00046825098 -0.002685327 -0.008507403 -0.00034551573 2.2097194e-05 4.7127047e-05 7.2107596e-06 -1.4284188e-05
-6.168615e-05 -2.7257568e-06 0.00021386745 0.0008700424 4.146422e-05 0.0007050971 0.0009487032 0.00015527554
-2.8743802e-05 5.0391955e-06 -1.3565253e-05 2.642198e-05 8.78353e-05 1.2355794e-05 -0.00048103998 -0.0022547243
-0.00034387156 -0.00020178258 5.8294307e-05 -0.00019431263 -0.00030646828 -0.00051131326 -2.722937e-05 -6.4312226e-05
6.520982e-05 -9.087704e-06 -0.0015618766 -0.004307075 -0.00044895138 -0.010857252 -0.02459757 -0.00053285295
-0.0024828066 -0.005998771 -0.00030647733 -0.0031754235 -0.007700905 -0.00022845175 3.602747e-05 -0.00017335649
-1.1178696e-05 1.8745093e-05 -1.5689731e-05 3.9296715e-06 -2.3133422e-05 -0.00013159786 -1.7620632e-05 -7.746456e-05
-7.4840023e-06 4.476132e-06 -0.00076167716 -0.00013821172 -0.00020022728 -0.00041378816 0.0018122445 -0.00011186182
0.00056437915 0.0024183518 3.1159587e-05 0.00071618246 0.0010879633 0.000101856494 -8.330993e-05 4.3680524e-05
-2.6077635e-06 -1.3716741e-05 -1.4451825e-05 8.285441e-06 4.256078e-05 0.00035421454 -8.430698e-06 -2.2191361e-05
-2.4568168e-05 -2.4232007e-05 0.0011237509 0.0063660135 7.6071214e-05 0.00069595425 0.00088675163 0.0001945926
2.1558104e-05 6.531361e-05 -3.4876516e-06 -2.5377017e-06 7.1319235e-05 6.05959e-06 0.00027274466 0.00045204797
1.8905906e-05 4.589467e-05 -7.731559e-05 -1.3426567e-05 0.00015372793 -3.235643e-05 -1.8980878e-05 -8.191691e-05
0.000152106 -1.756452e-05 -0.003435911 -0.0062595475 -0.00044514658 -0.0042721224 -0.009776476 -0.00041997543
-0.001101964 0.0016147018 -0.0001910147 -0.000587987 0.002332205 -8.9907255e-05 0.00015165664 -0.00060706324
0.00013038202 1.6565233e-05 -0.0003750473 4.1239036e-05 1.0418603e-05 9.7248085e-05 1.0951426e-05 5.670787e-05
-0.00012374144 -1.4034605e-05 2.2849985e-05 -0.0003576492 1.584249e-05 -0.00015399084 4.8142494e-05 -2.495255e-05
1.7184868e-05 8.591932e-05 -2.3351265e-06 -6.2878215e-05 -0.0001493161 1.4606635e-05 -5.396008e-05 -3.259149e-05
-9.32731e-07 -2.0697638e-05 3.5162204e-05 -1.7114648e-05 -4.7903453e-05 0.00017272538 -8.630274e-05 0.0013161141
0.0037316082 0.000104749626 -0.0021694792 -0.0029888963 -0.0003202873 -0.001489256 -0.0021221796 -0.00025540398
-0.00015501361 0.010178455 0.00015046204 0.001083982 0.001425805 0.00020045535 7.110809e-05 7.946912e-05
2.456631e-05 -6.0596867e-05 -6.684371e-05 -6.777414e-06 0.00047222586 0.0021177595 1.0978176e-05 0.00033767003
0.0007295875 1.051203e-05 -0.00022715043 6.5058826e-05 -2.027124e-06 -0.00017754185 1.6626242e-05 1.962489e-05
0.0010830051 0.0032503626 0.00010003881 0.0012585317 0.0020910238 0.00011028232 0.0013075063 0.00838396
0.0001492376 0.0012530468 0.0021208115 0.00021551739 0.00065471703 0.0023858983 8.931821e-05 0.0014147614
00000000: de80 c8b7 9345 77b8 7192 c535 d611 35b8
00000010: 5fd3 6138 dcb1 acb7 ed7f ca39 5307 aa3a
00000020: 5a87 37b9 7175 82b9 01c8 973a 66ce 36b6
00000030: 70c9 e7ba 21b4 c1bb 1020 0bb9 124e 06bb
00000040: d0b6 98bb 7d4c a2b8 1429 c73a c120 3c3c
00000050: 09c8 8038 612f 4c3b 39fe eb3b 2238 b539
00000060: 7ff3 b53b 3b56 913c 8bfc 9239 e7d3 e03b
00000070: 1a47 4c3c f749 193a 60cf 4eba df6a 223b
00000080: 2390 d4b8 adb2 18bb 53b5 babb 3cf4 58b9
00000090: 2599 97b6 60d7 0839 0241 41b7 e58b 38b8
000000a0: 64cf 9738 22ee 64b6 7cc0 a93a 0453 3b3b
000000b0: 7a2b 3cb8 ebdc bd3a eb91 bcb7 fc28 3d38
000000c0: 57e9 533b c5ab 9d3c cc91 8439 42c8 e93b
000000d0: e1c2 7d3c 45c7 c239 737f 8aba 99b9 53bb
000000e0: 957f f5b9 50fc 2fbb a262 0bbc 5626 b5b9
000000f0: 5d5d b937 48aa 4538 f4f3 f136 1fa6 6fb7
00000100: 805d 81b8 25ec 36b6 9b41 6039 8f13 643a
00000110: dee9 2d38 44d6 383a 65b2 783a 76d1 2239
00000120: d81e f1b7 5c16 a936 5196 63b7 c5a4 dd37
00000130: 3834 b838 bb4b 4f37 1834 fcb9 ffc3 13bb
00000140: a949 b4b9 9995 53b9 0981 7438 66c0 4bb9
00000150: 7aad a0b9 a709 06ba a06a e4b7 5ddf 86b8
00000160: 41c1 8838 6477 18b7 e2b7 ccba 5d22 8dbb
00000170: 3c61 ebb9 9ee2 31bc d880 c9bc 28af 0bba
00000180: 95b6 22bb 5791 c4bb b1ae a0b9 c41a 50bb
00000190: e057 fcbb 8d8c 6fb9 341c 1738 07c7 35b9
000001a0: 228c 3bb7 c83e 9d37 719d 83b7 9fdb 8336
000001b0: a50e c2b7 88fd 09b9 05d0 93b7 7874 a2b8
000001c0: 171f fbb6 ae31 9636 4aab 47ba edec 10b9
000001d0: 1af4 51b9 b5f1 d8b9 d688 ed3a 5b97 eab8
000001e0: d8f2 133a 367d 1e3b 5ab1 0238 31be 3b3a
000001f0: fe99 8e3a ca9b d538 aeb6 aeb8 9b35 3738
00000200: 0901 2fb6 f420 66b7 1e76 72b7 b301 0b37
00000210: 4a83 3238 dfb5 b939 9271 0db7 9627 bab7
00000220: bd17 ceb7 d745 cbb7 d34a 933a fe99 d03b
00000230: 6c88 9f38 b370 363a e574 683a 8e0b 4c39
00000240: add7 b437 faf8 8838 660d 6ab6 624d 2ab6
00000250: 3991 9538 7b53 cb36 2bff 8e39 da00 ed39
00000260: 2098 9e37 077f 4038 7e24 a2b8 ab42 61b7
00000270: 0732 2139 74b6 07b8 2039 9fb7 ceca abb8
00000280: a57e 1f39 8557 93b7 052d 61bb e41c cdbb
00000290: 9062 e9b9 29fd 8bbb 832d 20bc 2630 dcb9
000002a0: c76f 90ba 67a4 d33a 1e4b 48b9 2423 1aba
000002b0: e8d7 183b 978c bcb8 0506 1f39 5323 1fba
000002c0: 28b7 0839 91f5 8a37 ffa1 c4b9 14f8 2c38
000002d0: 8fcb 2e37 abf1 cb38 04bc 3737 9dd9 6d38
000002e0: 97c0 01b9 2b76 6bb7 f8ad bf37 dd82 bbb9
000002f0: 7de5 8437 9a78 21b9 9cec 4938 3151 d1b7
00000300: 3928 9037 952f b438 2bb5 1cb6 7cdd 83b8
00000310: bc91 1cb9 050f 7537 3253 62b8 d9b2 08b8
00000320: c960 7ab5 d79f adb7 217b 1338 6d91 8fb7
00000330: f1eb 48b8 9e1d 3539 6efd b4b8 7681 ac3a
00000340: ff8d 743b 07ad db38 d22d 0ebb 5ce1 43bb
00000350: 3cec a7b9 2433 c3ba 4414 0bbb bee7 85b9
00000360: 268b 22b9 89c3 263c 59c5 1d39 6614 8e3a
00000370: 14e2 ba3a 5331 5239 dd1f 9538 a9a8 a638
00000380: c013 ce37 6429 7eb8 722e 8cb8 8b69 e3b6
00000390: 1595 f739 1cca 0a3b e82e 3837 4e09 b139
000003a0: ca41 3f3a d35c 3037 3b2f 6eb9 3170 8838
000003b0: ba09 08b6 872a 3ab9 9578 8b37 21a0 a437
000003c0: 9ff3 8d3a 0904 553b edcb d138 51f5 a43a
000003d0: 8f09 093b 5f47 e738 a260 ab3a e15c 093c
000003e0: aa7c 1c39 463d a43a 50fd 0a3b 82fc 6139
000003f0: 51a1 2b3a bb5c 1c3b 5950 bb38 846f b93a

exp_avg_sq f4 [64, 6]
1.6952833e-06 1.5587646e-05 7.554249e-08 4.9542405e-06 0.00013413341 5.9914015e-08 0.00012413914 0.0007771395
6.620213e-07 8.105503e-05 0.000766585 5.0444345e-07 1.9071762e-05 0.00023491248 1.1162073e-07 2.7231918e-05
0.00012991198 1.8516863e-07 0.00015409749 0.0016611472 8.4895345e-07 0.00027216028 0.0014553546 1.3393354e-06
9.082837e-05 0.00095204427 4.4432156e-07 0.00011142542 0.00055383594 7.2432346e-07 8.837901e-05 0.0004914329
6.6925355e-07 0.00010047343 0.00089089933 5.810584e-07 6.5324984e-06 4.140861e-05 1.6163504e-07 1.9053454e-05
4.4834847e-05 1.3141134e-07 8.685134e-06 0.000111793335 5.137126e-08 8.531312e-06 1.3662757e-05 8.7879336e-08
0.000107914115 0.0011461012 5.5988596e-07 0.00016358716 0.0008685542 8.7567844e-07 2.4921903e-05 7.301746e-05
2.474567e-07 3.4105167e-05 0.00035302696 2.356466e-07 1.1265486e-06 8.4569965e-06 1.28592745e-08 1.7379232e-06
1.223283e-05 1.0692717e-08 1.6816206e-05 0.00017463556 1.00681625e-07 4.4549306e-05 0.00015531472 2.5924095e-07
3.3238103e-07 2.6619546e-06 7.953073e-09 1.3985149e-06 1.9365561e-07 1.246041e-08 0.0001975878 0.0012251418
1.1081574e-06 0.00016160113 0.0014113269 1.0089201e-06 3.5624316e-06 1.9973199e-05 3.4409496e-08 6.3316083e-06
1.4853574e-05 8.042201e-08 1.2595903e-05 0.00030173233 1.4378774e-06 0.0003184494 0.0025975783 2.790278e-06
4.9288265e-05 0.00026944524 3.1208805e-07 3.9864928e-05 0.0003995357 2.4042149e-07 7.9100556e-07 7.663739e-06
1.6193288e-08 2.0806392e-06 3.590842e-06 1.3207058e-08 1.226494e-05 9.312711e-05 4.3793936e-08 2.608659e-07
7.54393e-06 1.1774293e-08 0.00012963342 0.0008608266 7.8867686e-07 0.000117411604 0.0010443784 9.116562e-06
1.4575463e-05 0.00019187329 1.4126829e-07 2.9024375e-05 0.000106136686 2.0016985e-07 1.7391545e-06 1.1809601e-05
4.2877172e-08 2.131522e-06 5.906954e-06 2.5643203e-08 4.3404902e-06 1.2386346e-05 2.4811284e-08 2.9261507e-06
8.254062e-06 1.887991e-08 4.2950924e-05 0.00052256364 2.6258334e-07 7.266446e-05 0.00032465704 4.3198676e-07
3.428247e-06 9.484897e-06 2.8551941e-08 4.518957e-06 1.8024835e-05 3.277557e-08 2.5842462e-06 1.1490604e-05
2.4506367e-08 1.863022e-06 3.4651562e-06 7.0862534e-09 7.457702e-06 7.833767e-06 1.3685735e-07 2.8232191e-06
1.5887552e-05 1.2888874e-07 0.00020866291 0.0014034754 1.2391271e-06 0.00020895233 0.0017319976 1.2042467e-06
0.00020333039 0.0012426751 1.1385625e-06 0.00017916529 0.001516611 1.0327739e-06 4.7725293e-06 2.2199978e-05
4.3731664e-08 6.62867e-06 2.5557987e-05 4.9826085e-08 2.4484139e-06 1.3824762e-06 6.478997e-08 2.6012785e-06
1.2133044e-05 5.01406e-08 1.074949e-05 8.637051e-05 4.8573373e-08 4.0992863e-06 2.6042124e-05 3.6998344e-08
5.0510806e-07 9.389481e-07 1.98745e-08 2.237993e-06 5.646089e-06 1.7288395e-08 2.1456378e-06 2.2730974e-06
4.8860155e-08 1.2282523e-05 9.854612e-06 1.1134234e-07 2.7679403e-06 4.438621e-06 5.731539e-08 6.412966e-06
1.51417e-05 5.1084267e-08 5.1995798e-05 0.00026703504 3.7931838e-07 4.5838467e-05 0.00043472872 2.9023653e-07
0.0001453334 0.0014923626 7.525862e-07 0.00019168455 0.0011917267 1.0179375e-06 1.4143287e-05 1.6930866e-07
1.16166035e-07 4.4703927e-05 1.7518323e-07 4.098813e-07 7.935983e-06 9.886159e-05 5.0468934e-08 6.8148906e-06
2.7501237e-05 6.8067486e-08 2.4776268e-06 1.0547221e-06 3.453999e-08 8.337678e-06 1.8899199e-06 9.343661e-08
9.701378e-05 0.0011216826 5.828874e-07 0.00018781656 0.0010107108 9.3931527e-07 3.4372446e-05 0.00046068802
2.227744e-07 6.055287e-05 0.0002535257 3.6374053e-07 1.970092e-05 0.00022265321 1.6823898e-07 4.8672624e-05
00000000: 7e89 e335 37c2 8237 ec39 a233 9a3c a636
00000010: 2aa6 0c39 14aa 8033 592b 0239 f3b8 4b3a
00000020: c2b5 3135 16fc a938 a6f4 483a 1769 0735
00000030: 4cfc 9f37 d752 7639 25b4 ef33 1970 e437
00000040: fb38 0839 c4d2 4634 3b95 2139 daba d93a
00000050: a3e3 6335 bcb0 8e39 99c1 be3a 37c3 b335
00000060: 1c7b be38 9c92 793a 178b ee34 11ad e938
00000070: 4d2f 113a 216f 4235 1f58 b938 81d3 003a
00000080: c1a6 3335 43b5 d238 3e8b 693a 07fa 1b35
00000090: bc31 db36 28ae 2d38 e78d 2d34 fbd4 9f37
000000a0: 0d0d 3c38 131a 0d34 5eb6 1137 9772 ea38
000000b0: 4ca3 5c33 b521 0f37 1839 6537 2db8 bc33
000000c0: f34f e238 c638 963a 124b 1635 9888 2b39
000000d0: b0af 633a 2a10 6b35 610f d137 f320 9938
000000e0: 31da 8434 250c 0f38 7a16 b939 0b06 7d34
000000f0: ea33 9735 86e2 0d37 b0eb 5c32 9642 e935
00000100: 9b3b 4d37 11b3 3732 8710 8d37 601e 3739
00000110: 4f36 d833 74da 3a38 fadb 2239 ce2d 8b34
00000120: 1a72 b234 08a4 3236 fca1 0832 9bb4 bb35
00000130: a6ef 4f34 7611 5632 922f 4f39 f094 a03a
00000140: 00bc 9435 7973 2939 46fc b83a 3b6a 8735
00000150: 1c12 6f36 1e8c a737 a4c9 1333 1a74 d436
00000160: 9d33 7937 78b4 ac33 fe52 5337 d431 9e39
00000170: 17fd c035 8ef5 a639 223c 2a3b 9c40 3b36
00000180: dfba 4e38 5444 8d39 0e8d a734 a434 2738
00000190: c678 d139 4713 8134 7d55 5435 8293 0037
000001a0: 6b19 8b32 1ca1 0b36 32fa 7036 41e5 6232
000001b0: 84c5 4d37 3d4d c338 f117 3c33 230d 8c34
000001c0: de21 fd36 e347 4a32 35ee 0739 18a9 613a
000001d0: 76b5 5335 e03a f638 86e3 883a 56f3 1837
000001e0: 2389 7437 9831 4939 88af 1734 5f79 f337
000001f0: b395 de38 45ee 5634 e56c e935 da21 4637
00000200: f327 3833 450b 0f36 5934 c636 0046 dc32
00000210: 87a4 9136 f3ce 4f37 9720 d532 e35e 4436
00000220: ed7a 0a37 5c2d a232 3426 3438 a7fc 083a
00000230: 2ef9 8c34 6f63 9838 bb36 aa39 cfeb e734
00000240: d610 6636 5321 1f37 6242 f532 8ca1 9736
00000250: 0a34 9737 1fc5 0c33 036d 2d36 c5c7 4037
00000260: 1282 d232 f30c fa35 ee8a 6836 587b f331
00000270: 2c3d fa36 c66d 0337 10f3 1234 8976 3d36
00000280: 4246 8537 ab64 0a34 86cc 5a39 d2f4 b73a
00000290: 1550 a635 371a 5b39 3204 e33a 9aa1 a135
000002a0: 1635 5539 42e1 a23a b6d0 9835 51de 3b39
000002b0: 05c9 c63a d79d 8a35 b723 a036 173a ba37
000002c0: 79d3 3b33 d76b de36 5c65 d637 5c00 5633
000002d0: 6e4f 2436 858d b935 aa22 8b33 a091 2e36
000002e0: 078f 4b37 2c5a 5733 b558 3437 d121 b538
000002f0: fd9e 5033 9a8c 8936 0975 da37 1ce8 1e33
00000300: c396 0735 060c 7c35 7db8 aa32 6d30 1636
00000310: 8973 bd36 9581 9432 c7fd 0f36 848b 1836
00000320: 4fda 5133 0911 4e37 3c55 2537 191b ef33
00000330: dac0 3936 77ef 9436 f02a 7633 f52e d736
00000340: 1b09 7e37 bf67 5b33 1016 5a38 d600 8c39
00000350: 1fa5 cb34 ae42 4038 4dec e339 ced1 9b34
00000360: a364 1839 619b c33a 5405 4a35 eefe 4839
00000370: b633 9c3a 11a0 8835 f548 6d37 36cb 3534
00000380: f476 f933 7a80 3b38 001a 3c34 a80d dc34
00000390: ca24 0537 e953 cf38 2ec3 5833 77ab e436
000003a0: 75b2 e637 7f2c 9233 4e45 2636 fa8f 8d35
000003b0: 1f59 1433 0ee2 0b37 27a9 fd35 52a7 c833
000003c0: e073 cb38 6c05 933a b877 1c35 a0f0 4439
000003d0: d479 843a 4125 7c35 222b 1038 8088 f139
000003e0: c333 6f34 26fa 7d38 a5eb 8439 1e48 c334
000003f0: 6743 a537 0478 6939 2ea5 3434 d525 4c38
