lightning_logs/version_57/checkpoints/epoch=49-step=10250.ckpt (torch, 30427 bytes, 24 tensors)

bayes_fc1.weight_mu f4 [64, 6]
00000000: 6f82 00bf b9f1 1ebf 358a 80be d054 1abf
00000010: 7383 f6be bee8 6dbe 20b1 063f cc80 ebbd
00000020: 5d27 cc3f cade d9be 0b78 d83d 3b8c 6bbf
00000030: e406 c0be 405b 623e 2181 70bf c359 b83e
00000040: 99b0 1fbe 28cc 7c3f 038a c1be 963c 423e
00000050: e60a a8bf 8770 d53e 5572 01be 8ddd e73d
00000060: 4ee2 bdbe 2912 573e 401d 9cbf 2444 c43e
00000070: 6440 1dbe 0992 0c3f 18b2 803e 00b4 09be
00000080: 5d66 ee3f b223 a6be 381b 3a3e 95be a03e
00000090: 0602 1bbf 1c27 0abf 1d70 55be 9cfb ffbe
000000a0: e940 09bf c23c 72be e715 f3be a926 833e
000000b0: d710 aabe 3e04 9cbe 460e 9dbe 95cd e33f
000000c0: 8b85 8ebe 29f8 023e 405c a9bf e228 043f
000000d0: f693 16be 3889 713e b733 3cbf 542d 8dbe
000000e0: 1aed 3abe a84b 1fbe f3cd dc3d b2e9 6f3f
000000f0: a617 ccbe 0986 c3be a6c7 97bd e3dc 01bf
00000100: 6dcc 6dbe 3b90 14be ce7f 6abe cd2d b93d
00000110: 8f5d ecbf 5d4f ff3e 4d5b 92bd 38a2 7abe
00000120: 9af3 1ebf 113e 6fbe 7cce f5bd 8667 f0be
00000130: 8a45 0abf 8793 59be 3125 e43e 09a7 09be
00000140: f2d4 a73f faf1 c1be b38a 2d3e fb8e c5be
00000150: c6e0 b7be 78b3 85be d784 98be dcb6 08bf
00000160: 5ba2 0abf 8389 3fbe 31c5 7fbf 8155 51be
00000170: be46 a2bf da04 69bd fc77 3e3d 05af 543f
00000180: 50a8 a63e 0a9d 1fbe b21c 1540 6400 bebe
00000190: 1c42 3c3e c634 153e 482a 05bf 4aa7 3bbe
000001a0: 94e0 1bbe fdd3 03bf 208f c6be 2319 68be
000001b0: 95f5 02bf bb0b debe 0f14 e1bd 8b63 f8be
000001c0: 6341 ebbe f917 57be b5b6 a03e bc9e d2bd
000001d0: 79d7 be3f 6dc3 c6be 2b68 3e3e 00e7 fcbe
000001e0: 0552 89be db9e 943d a86b 9dbf c4c5 b93e
000001f0: 4117 dbbd 5a49 bc3e 296c acbe c2aa 9e3d
00000200: d0cf 62be ec90 d7be 041c 65be 4cda 403e
00000210: 6c68 cdbe 5ef6 cfbe ff65 99bd 9f94 2dbf
00000220: 305b 28bf 064c 1fbe cb0e aabe 1b1d 293e
00000230: aa73 3dbf 86a8 cd3e 90e3 16be a0c5 393f
00000240: 42bb c5be e1fa e4be 3eb0 c3bd 002c 1bbf
00000250: bc9b ffbe e0ce 16be 62a9 cdbe e7e1 d2be
00000260: 1aad dabd ce11 c3be 3cc2 fdbe e9dd 01be
00000270: f837 eabe c1e2 acbe 68e5 5dbe 7408 ccbe
00000280: 8bb7 64be c6f9 85be a4d4 703e 2073 02be
00000290: bf89 d53f f7dc b7be af9d 383e 9402 413e
000002a0: 2b32 ab3e cf95 03be 378e bd3f dd4f 8cbe
000002b0: 764c 173e 52f0 f03d 0856 e7be 8bd5 fabe
000002c0: 62a9 b4be 269b dcbe a4a2 fcbe 91aa 6abe
000002d0: 43f2 ebbe 98b3 90be 348c 81be 273d 31be
000002e0: 1ccc bebe 25b7 88be 6ad2 fcbe 11c6 cabe
000002f0: cacf 29be 6e5e c5be 868b 11bf aa48 7bbe
00000300: 51b2 bebe c9a3 b7be afe6 8ebe 3370 e6be
00000310: 19b8 acbe 3302 5ebe 2ebd 0cbf 34a6 b6be
00000320: 8f3d 95be 98c1 0cbf 1f97 c8be 24d2 32be
00000330: 155a cdbe c4c5 37be ab2a 76be ae12 e2be
00000340: 52fe e4be 850f 2fbe 6a88 bdbe 3e52 90be
00000350: 1008 b73e 03cb c3be a064 0f3e 16ca 123f
00000360: 9e2c dbbe 8a88 843e 5f1a b7bf 1f21 a83e
00000370: cbc1 ecbd 9408 9e3e ad0e 0abf 492c 0fbf
00000380: c49f 8bbe 9dfb 0fbf 16ca d7be b1f8 93be
00000390: 40b5 dfbe ec1e 1b3e c7c9 a3bd 6205 a2be
000003a0: ec16 c4be d30f ed3e 48f9 babe 89b0 40be
000003b0: 2e69 3bbe ad1e 7abe 2b44 c3be d00e 19be
000003c0: 82d2 b1be e9af 3b3e 43aa 9abf e643 b03e
000003d0: 0187 f2bd 3881 fe3e 4c61 b0be c87c 0a3e
000003e0: 12a0 a7bf 8f1a dc3e 53f2 f1bd 7abd f93e
000003f0: 7ffc 94be ab10 cc3d d2c0 a4bf 177a 053f
-0.50199026 -0.6208759 -0.25105444 -0.60285664 -0.48147163 -0.23233315 0.5261402 -0.114991754
1.5949513 -0.42552787 0.105697714 -0.9201085 -0.37505257 0.22105122 -0.93947035 0.36005983
-0.1559471 0.9874902 -0.37800607 0.18968424 -1.3128326 0.41687414 -0.1264127 0.11321554
-0.3708672 0.21003021 -1.2196426 0.38333237 -0.15356594 0.5491033 0.25135875 -0.13447571
1.8624989 -0.32449108 0.18174446 0.31395403 -0.6054996 -0.53965926 -0.20843549 -0.4999665
-0.5361467 -0.2365599 -0.47477648 0.25615433 -0.33215973 -0.30471987 -0.30674952 1.7797114
-0.2783626 0.12789978 -1.3231277 0.5162488 -0.1470488 0.23587501 -0.7351641 -0.27573645
-0.1825451 -0.15556204 0.10781469 0.93715966 -0.39861792 -0.38188198 -0.07411127 -0.5072767
-0.23222513 -0.14508145 -0.22900316 0.09041939 -1.8466052 0.49865237 -0.071463205 -0.24475944
-0.62090456 -0.2336352 -0.120022744 -0.46953982 -0.5401236 -0.21247683 0.44559625 -0.13442625
1.3111861 -0.37879926 0.16947441 -0.38585648 -0.35913676 -0.26113486 -0.2978885 -0.5340402
-0.54153985 -0.187048 -0.99910265 -0.20442773 -1.2677839 -0.056889392 0.046501145 0.8307956
0.32550287 -0.1558725 2.3298764 -0.37109673 0.18384594 0.14570913 -0.5201764 -0.18325534
-0.15222389 -0.51495343 -0.3878107 -0.22665839 -0.5115598 -0.43368325 -0.10990154 -0.48513445
-0.45948324 -0.21005239 0.31389394 -0.102841824 1.4909507 -0.38820973 0.18594424 -0.4939499
-0.26820388 0.07256862 -1.2298479 0.36283696 -0.10697795 0.36774713 -0.3367627 0.07747413
-0.22149587 -0.42102754 -0.22373968 0.18833274 -0.4011873 -0.4061765 -0.07490157 -0.678049
-0.6576414 -0.15556344 -0.3321441 0.16515009 -0.74004614 0.40167636 -0.14735246 0.72567177
-0.3861943 -0.44722655 -0.095551 -0.60614014 -0.49923503 -0.14727354 -0.4016829 -0.41187975
-0.10677548 -0.3809952 -0.49562252 -0.12682308 -0.45745826 -0.3376675 -0.21669543 -0.398502
-0.22335641 -0.26167125 0.23518616 -0.12739229 1.6682662 -0.3591077 0.18028902 0.1884864
0.33436713 -0.12850116 1.4809026 -0.2740468 0.14775261 0.117645875 -0.45182824 -0.48991045
-0.3528548 -0.4308712 -0.49342835 -0.22916628 -0.4608327 -0.2826202 -0.2530228 -0.17308484
-0.37265098 -0.26702228 -0.49379283 -0.39604238 -0.16583171 -0.38548607 -0.5685352 -0.24539438
-0.3724542 -0.35867146 -0.27910373 -0.45007476 -0.33734205 -0.21680526 -0.54976165 -0.35673678
-0.29148528 -0.549829 -0.39177796 -0.17462975 -0.4010779 -0.17946535 -0.24039714 -0.44154876
-0.4472528 -0.17095764 -0.37018138 -0.28187746 0.3574834 -0.38240823 0.14003229 0.5733961
-0.42807478 0.2588542 -1.4304923 0.3283777 -0.115604006 0.3086592 -0.53928643 -0.5592695
-0.2727033 -0.56243306 -0.42146367 -0.28900674 -0.4369297 0.15148515 -0.0799747 -0.31644732
-0.38298738 0.46301135 -0.36518312 -0.18817343 -0.18301842 -0.24425764 -0.38137946 -0.14947057
-0.34730917 0.18328823 -1.208321 0.34426802 -0.11842156 0.4970796 -0.34449232 0.13524163
-1.3095725 0.42989013 -0.11813798 0.48777372 -0.2909889 0.09964117 -1.2871344 0.5213942

bayes_fc1.weight_rho f4 [64, 6]
00000000: 1e38 48bf 8442 93bf 7c9d e13e 885b 2abf
00000010: 4df4 afbf 7062 e03e 4030 63c0 3d86 89c0
00000020: 3cb9 aabe 3cff 38c0 79c6 85c0 0126 87be
00000030: 792f 47c0 a2b0 86c0 d221 74be 2a48 3dc0
00000040: 45a7 82c0 5151 20be 92e5 60c0 1074 93c0
00000050: 28d2 f5be adff 63c0 be33 8fc0 5199 34bf
00000060: cd94 5bc0 a734 8fc0 1464 9fbe effc 63c0
00000070: f7dc 87c0 bc0d 2cbf 7b82 50c0 989d 84c0
00000080: 530c 44bf 03fa 6bc0 9fbd 98c0 df01 18bf
00000090: ecbe 49bf 741a b5bf 4f78 e13e 0251 3cbf
000000a0: 14e3 abbf 1935 003f 2f4c 15c0 9239 65c0
000000b0: fc6b 873e 8dd5 f6bf 09b8 33c0 6dab 493f
000000c0: cb5a 4ac0 3f4d 87c0 b324 7abe 5df6 5ec0
000000d0: 53ce 89c0 b066 96be b37d b9bf 7908 24c0
000000e0: 8dda 703e 2af9 32c0 7217 69c0 a17b dd3e
000000f0: bd82 16bf 10f5 d6bf 3fbb e83e be30 22bf
00000100: 7802 e0bf fd83 f53e 145b 63c0 22dd 99c0
00000110: f6f1 3bbf 28f6 69c0 2f7e 97c0 2fc8 1fbf
00000120: 900a 82bf b887 febf 9fdd d33e 0689 33bf
00000130: df6c 9fbf 9dfc fe3e 3d6e 6ec0 f0d7 93c0
00000140: e434 46bf 12cf 6fc0 ecb1 99c0 3aef d2be
00000150: b8db 61bf c553 fbbf 4854 be3e 8509 57bf
00000160: 9f0b a4bf 107e bf3e e720 b8bf 8640 7dc0
00000170: 4b37 01bf 1af1 73c0 2045 9cc0 0947 abbf
00000180: 88b0 41c0 b341 84c0 a0a2 01bf 8f95 5fc0
00000190: 3030 87c0 e2f0 8ebe 4eb3 61bf 9b8a 02c0
000001a0: d811 eb3e 12ec 44bf 100d eabf 3152 ff3e
000001b0: a153 63bf bd63 d5bf 228f f03e 4648 45bf
000001c0: e58a bbbf 0b43 273f 70f2 7fc0 21ed 9dc0
000001d0: f9a6 78bf 1071 74c0 9c5c 98c0 09c7 59bf
000001e0: c47c 37c0 f79f 88c0 3669 55be ebce 49c0
000001f0: 2724 80c0 28ed 85be 96f4 ecbf e4ed 51c0
00000200: 23ec 013f e8b4 7dbf 2f4d 26c0 a27f 153f
00000210: ab6b 4bbf d35b c5bf ecf0 f03e 1c07 03bf
00000220: 05b4 9cbf fb98 d73e 11b5 24c0 dabf 7ac0
00000230: 3b3e 523e 9742 1cc0 e788 6dc0 910f 9fbd
00000240: 7df0 20bf 3e38 cabf 615f 173f 5162 08bf
00000250: cb9b aabf 00e3 ec3e 1e05 30bf 8b18 b8bf
00000260: 889d d43e d5eb 6abf 70ee a5bf 8f74 113f
00000270: 70ed 8bbf 3b40 08c0 b1d3 8a3e 771c b1bf
00000280: f2d4 0dc0 dba1 b13e eace 55c0 7e0e 93c0
00000290: 44f7 68bf 1db5 6ac0 a230 91c0 5d71 1fbf
000002a0: ff96 6ec0 158e 91c0 b1fa 61bf 1424 73c0
000002b0: 4dbe 95c0 7f9a 5ebf 7ada 8abf 1c2c d1bf
000002c0: 37ac b83e 062e 87bf 5421 c7bf 6111 b63e
000002d0: 1477 7cbf 8ccc f5bf dec0 0c3f f42a a5bf
000002e0: d86e e6bf 0243 c53e 1565 5dbf a6f2 d9bf
000002f0: 4778 dc3e b4ca 6bbf 86a0 a4bf 5b06 f83e
00000300: eea5 4ebf 54fb d1bf 1505 f83e c3ed 4cbf
00000310: d091 d4bf ea7e 083f 5344 73bf daea ddbf
00000320: e1e5 bc3e e4e6 5ebf 6434 dfbf ca6b d93e
00000330: ecab 99bf 5dec 04c0 2e24 f43e ad18 48bf
00000340: b870 ccbf 1694 c33e 9f66 d2bf 91ca 2fc0
00000350: fb19 e53e 5374 0bc0 371e 58c0 251b 9c3e
00000360: 9039 61c0 3250 94c0 be28 42bf f231 63c0
00000370: 2525 8bc0 20cb 4abf 4eb3 1dbf 5671 aebf
00000380: 622e d53e 23f5 53bf 9029 d5bf 967e ec3e
00000390: ff25 d0bf f997 3ac0 6ae4 c13e 69c1 6dbf
000003a0: 0952 0ac0 4515 313f 2d64 b0bf 27f3 11c0
000003b0: 18c3 8c3e 3d33 c5bf 3a5c efbf f40d 953e
000003c0: ab88 59c0 01a9 91c0 4f17 d4be 021b 67c0
000003d0: f8da 8ac0 72f1 01bf ea5f 34c0 085c 82c0
000003e0: 1076 a23d bbd7 3dc0 a6e7 84c0 e586 c7bd
000003f0: 290b 3dc0 e2bc 84c0 e54b 8bbd 3cf3 46c0
-0.7821063 -1.1504674 0.44065464 -0.66545916 -1.374643 0.43825102 -3.54982 -4.2976365
-0.33344448 -2.8905783 -4.1804776 -0.26396182 -3.1122725 -4.2090616 -0.23841026 -2.9575295
-4.0829186 -0.1565602 -3.5140119 -4.607918 -0.480119 -3.5624802 -4.475066 -0.7054644
-3.430957 -4.4751773 -0.3113104 -3.5623128 -4.2457232 -0.67208457 -3.257964 -4.1442375
-0.76581305 -3.6871345 -4.773147 -0.59377855 -0.7880695 -1.4148698 0.440371 -0.7356111
-1.3428674 0.5008102 -2.3327749 -3.5816388 0.26449573 -1.928392 -2.8081076 0.787772
-3.1617916 -4.2281795 -0.24428062 -3.4837868 -4.306436 -0.2937522 -1.4491485 -2.5630171
0.2352087 -2.7964578 -3.642056 0.43258384 -0.5879324 -1.6793537 0.45455357 -0.63355625
-1.7500753 0.47952262 -3.552434 -4.8082438 -0.7341608 -3.6556492 -4.7341533 -0.6241483
-1.0159473 -1.9885168 0.4138002 -0.70130956 -1.24551 0.49802104 -3.7254784 -4.6201096
-0.77424455 -3.7470136 -4.802969 -0.4119814 -0.8822589 -1.963494 0.37173676 -0.839989
-1.2816046 0.37400866 -1.4385041 -3.9570632 -0.50474995 -3.8115907 -4.883438 -1.3381053
-3.0263996 -4.13302 -0.5063877 -3.4935033 -4.2246323 -0.27918154 -0.8816422 -2.0397098
0.4591205 -0.76922715 -1.8285236 0.49867395 -0.8879948 -1.6671063 0.46984202 -0.77063406
-1.4651762 0.65336674 -3.9991722 -4.9351964 -0.9712978 -3.8194008 -4.761305 -0.8506933
-2.86699 -4.269527 -0.20840916 -3.1532543 -4.004413 -0.26157498 -1.8512142 -3.2801447
0.5075094 -0.99104166 -2.598461 0.5839788 -0.79461163 -1.5418648 0.4705881 -0.51182723
-1.2242438 0.42108902 -2.5735514 -3.9179597 0.20531552 -2.4415643 -3.7114809 -0.07766641
-0.62866956 -1.5798414 0.5912991 -0.5327502 -1.3328794 0.46266937 -0.6875781 -1.438249
0.41526437 -0.917661 -1.296339 0.5681848 -1.0931835 -2.1289203 0.27114633 -1.3836812
-2.2161222 0.34693798 -3.340754 -4.595519 -0.910023 -3.6673043 -4.5371866 -0.62282354
-3.727966 -4.548594 -0.8827315 -3.799077 -4.67948 -0.8695449 -1.0847924 -1.6341586
0.3606889 -1.056092 -1.5557046 0.35560134 -0.986192 -1.9203048 0.5498179 -1.2903733
-1.8002577 0.38527685 -0.86482364 -1.7027175 0.43060514 -0.92106175 -1.2861488 0.4844235
-0.8072194 -1.6404824 0.48441377 -0.80050296 -1.6606998 0.53318655 -0.9502613 -1.7337296
0.36894134 -0.8707106 -1.7437863 0.4246505 -1.2005591 -2.0769265 0.47683853 -0.7816265
-1.5971899 0.38198918 -1.6437567 -2.7467387 0.44746384 -2.1789749 -3.3768442 0.3048946
-3.5191383 -4.6347895 -0.7584342 -3.5499234 -4.3482842 -0.79216194 -0.6160172 -1.3628337
0.4163695 -0.82795924 -1.6653309 0.46190327 -1.6261595 -2.9155257 0.3786958 -0.92873245
-2.161257 0.6917308 -1.3780571 -2.2804658 0.27492595 -1.5406262 -1.870002 0.29112208
-3.3989666 -4.5518804 -0.41424033 -3.6110234 -4.3392296 -0.5075904 -2.8183541 -4.0737343
0.07932675 -2.9662921 -4.1532774 -0.09742526 -2.9538062 -4.148057 -0.06801585 -3.1085958

bayes_fc1.bias_mu f4 [64]
00000000: 8caf 2bbc 2838 913d 16a5 faba 8d56 92bc
00000010: 9ddf 353c 73e8 103c 0b0f 83bd 6bc1 86ba
00000020: 6834 17bb f579 bdbc e065 36bc 0f9e 1bbd
00000030: 9b00 acbc 33eb 2dbb 72d6 70bc 5fae 773d
00000040: fd6b 363d 3360 35bd 9604 18bd 4420 f23b
00000050: 772f ce3a 2702 2abd 50b2 12b9 609c 75bb
00000060: d409 b6bc c3e8 cfbc ba31 003c be1e 8a3c
00000070: 4d29 f3bb 5edd c4bc c79b 7fbc a463 8bbc
00000080: b187 c3bc dce8 c5bc a74b e43b 49e5 c93c
00000090: 9795 f9bc 98f9 34bd acf7 16bd d38e 55bc
000000a0: 72ee 02bd 9dd5 26bd 959e 08bd d430 62bd
000000b0: 6330 b13c f7fb 873b b438 8dbd 495c 60bc
000000c0: 6086 f739 40d0 5abd 4734 f33b 3145 9cbc
000000d0: 6342 54bd be5c 8bbc 4510 b63b ea74 bb3c
000000e0: 8b76 493c d915 053c 522b 8b3c c402 ac3b
000000f0: 074b 88bd 5ada aa3c dff5 c8bc 23c9 2bbc
-0.010478865 0.07090789 -0.0019122686 -0.017863536 0.011100677 0.008844483 -0.063993536 -0.0010281032
-0.0023072008 -0.023129443 -0.011132687 -0.037992533 -0.020996382 -0.0026537895 -0.014699565 0.060469028
0.04453658 -0.044281196 -0.03711375 0.0073891003 0.0015730698 -0.04150596 -0.00013990072 -0.003747724
-0.022221483 -0.025379544 0.007824356 0.016860362 -0.007420695 -0.024031337 -0.015601105 -0.017015286
-0.023868414 -0.024158888 0.0069670263 0.024645464 -0.030466838 -0.044183344 -0.036857292 -0.01303454
-0.03196568 -0.04073106 -0.03335436 -0.055222347 0.021629518 0.0041499096 -0.06895581 -0.0136938775
0.00047211628 -0.05342126 0.0074220034 -0.019075962 -0.051821124 -0.017011996 0.0055561387 0.022882897
0.012296329 0.008122885 0.01698843 0.005249353 -0.06654935 0.020856071 -0.024531303 -0.010484966

bayes_fc1.bias_rho f4 [64]
00000000: 04fb 9bbe 30c3 bcbf 7ddd abbf 6c0c d8bf
00000010: ae53 d6bf e164 e2bf 6565 94be 97e8 2ebf
00000020: 1c07 bcbf 327c 50bf 4b85 aebe 2592 f4bf
00000030: 9ba4 ccbe 44f6 debf f892 ddbe b38e a2bf
00000040: 2254 bcbf 0743 a2be 6643 a6be 1317 00c0
00000050: 3c41 b7bf 7b81 0dbf 2b5f 7cbe 8a54 9abf
00000060: 8b23 82be 9284 6abe 5086 10bf 12ca eebf
00000070: e587 03c0 c5f3 ebbe e001 e9be ffca cebe
00000080: fa20 b9be 6e09 dcbe a10c ccbe 89f2 33bf
00000090: c050 e5bf 14da c1be 27e4 f3be 2893 22bf
000000a0: 685b d2bf a41f 9fbf ea91 abbf 111a cebe
000000b0: 8728 79be 83ed 95be 1b6b 25bf 6b6b 65bf
000000c0: f136 edbe ccf0 b3be ffc0 c9be a074 04bf
000000d0: a373 b9be 0d5f 04c0 775b b1be 3063 f2bf
000000e0: c375 dabf 9bed ecbf 2bce 9bbf b155 23bf
000000f0: dade b4be a7ed 00c0 8334 e9bf 99d7 e7be
-0.30464947 -1.4747066 -1.3426968 -1.6878791 -1.6744287 -1.7687036 -0.28983608 -0.68323654
-1.468967 -0.81439507 -0.3408607 -1.91071 -0.39969334 -1.7418904 -0.4327619 -1.2699798
-1.4713175 -0.31691763 -0.32473296 -2.0014083 -1.4316783 -0.55275697 -0.24645679 -1.2057049
-0.25417742 -0.22902134 -0.56454945 -1.8655417 -2.0551693 -0.4608442 -0.45509243 -0.4038925
-0.36157972 -0.42975944 -0.39853385 -0.70291954 -1.7915268 -0.37861693 -0.47635004 -0.6350579
-1.6434145 -1.2431531 -1.3403904 -0.40254262 -0.24331866 -0.2928277 -0.64616555 -0.8961703
-0.4633098 -0.3514465 -0.39405057 -0.51740456 -0.36221036 -2.0683014 -0.34640095 -1.893652
-1.7067188 -1.8510011 -1.2172292 -0.6380263 -0.35326272 -2.0145051 -1.821915 -0.45281675

bayes_fc1.prior_mu_old_bias f4 [64]
00000000: b675 2cbc d26b 5d3d 0c45 e8bc 9813 85bc
00000010: 802c 94bc a22e f33c bc73 e1bc dc0e 24bd
00000020: 5cc3 50bc 2145 b0bc 83ea fbba 5a55 50bd
00000030: eda7 cabc d837 0dbc ce8d 8abc 536c 493e
00000040: 7ac9 aa3d 7846 7b3b c7d3 62bd 2a50 233c
00000050: 6333 87bd c9f6 cabb 0aeb 20bd 16e3 02bd
00000060: d0e2 2cbd 5292 0f3c 43c3 24bd 2be8 273d
00000070: 88eb 063d df13 89bd 5e32 60bc c239 9dbc
00000080: f39e 94bd 9c47 39bd 3af1 80bd f220 abbb
00000090: ca8f 40bd 9230 333a 3617 113c dd09 46bd
000000a0: cd00 9e3c 8449 6abd 329f 92bc b250 1dbd
000000b0: b927 77ba c87f 75bb 871f 00bd 0d94 983b
000000c0: d4a1 50bd e8d6 283a 360a 93bc ea2e 9dbb
000000d0: be8a 35bd 4cbc 1c3d 24dc fcbc e7a0 2e3d
000000e0: 94e2 5a3d c354 443d 2938 693c dcac 413c
000000f0: 9b74 3e3d d194 203d bb29 4fbc 78f0 88bb
-0.010526111 0.054057904 -0.028353237 -0.016244695 -0.018087626 0.029685322 -0.027521007 -0.040053234
-0.01274189 -0.021517338 -0.001921967 -0.050862648 -0.024738276 -0.008619271 -0.01691332 0.19670229
0.0833921 0.0038341563 -0.055377748 0.009967843 -0.06601598 -0.00619397 -0.03928665 -0.031954847
-0.042208493 0.008762913 -0.04022528 0.040992897 0.032939464 -0.06693243 -0.0136838835 -0.01919258
-0.0725688 -0.045234308 -0.0629601 -0.0052224332 -0.047012128 0.00068355456 0.008855632 -0.04834925
0.019287491 -0.057199016 -0.017898176 -0.038407035 -0.00094282214 -0.0037460197 -0.031280067 0.004656321
-0.05093558 0.0006440715 -0.017949205 -0.0047968524 -0.044321768 0.03826551 -0.03086669 0.042633917
0.053438738 0.047932398 0.014234581 0.011820998 0.046497922 0.039204422 -0.012644227 -0.0041790567

bayes_fc1.prior_sigma_small_bias f4 [64]
00000000: 359e 0d3f 1f2e 503e 0c82 733e fbcc 1a3e
00000010: d059 2f3e b65e 1e3e b572 083f 3d01 d23e
00000020: 465e 463e e625 cb3e cd0b 0a3f 50de 203e
00000030: ff67 053f a203 313e 5948 fa3e 806b cd3e
00000040: 2794 503e 61f4 063f 9451 103f dd3f f53d
00000050: 39c1 5a3e abd2 e93e 8fa6 103f 1699 903e
00000060: 5759 163f 9832 0f3f 02ef db3e 5f38 123e
00000070: 7611 0a3e 3efc f43e e4b9 f53e 62b4 003f
00000080: 3275 043f e474 fd3e 2496 f93e 51ae d23e
00000090: 9266 1c3e 6631 0a3f 73be 043f 8b24 d43e
000000a0: f398 3e3e 2cd7 833e d4fc 7a3e 4d6d 003f
000000b0: c54c 093f 0fdc 043f 58f0 d13e 9824 ba3e
000000c0: 7373 f83e 816b 073f 7449 f83e 516b eb3e
000000d0: 0984 053f b04f e53d 59d6 063f 3287 0b3e
000000e0: ee2d 403e 9903 1f3e 2d73 893e 9c85 e03e
000000f0: d5fb 0b3f e587 053e 1be3 123e 286b ff3e
0.5531953 0.20330094 0.23780078 0.15117256 0.17124104 0.15465817 0.5330003 0.4101657
0.193719 0.39677352 0.53924257 0.15709805 0.5211181 0.17286542 0.48883322 0.40121078
0.20369016 0.5271664 0.5637448 0.119750716 0.21362771 0.4566854 0.5650415 0.28241795
0.5873007 0.55936575 0.42955786 0.14279316 0.13483223 0.47848696 0.47993386 0.5027524
0.51741326 0.49503243 0.4874736 0.41148618 0.15273502 0.53981626 0.518531 0.4143413
0.18613033 0.257501 0.24510509 0.5016678 0.53632766 0.5189828 0.4100368 0.36356044
0.4852558 0.5289841 0.4849354 0.45980313 0.52154595 0.1119684 0.5267082 0.13625792
0.18767521 0.15528716 0.26845685 0.43851936 0.5468114 0.13040121 0.14344446 0.4988644

bayes_fc1.prior_mu_old f4 [64, 6]
00000000: d87a 00bf ee42 27bf 13a2 98be 1a0c 18bf
00000010: de44 f9be 6a72 79be c2f5 053f 08a8 ecbd
00000020: 4346 bb3f dda4 e3be 7fac d93d 37e3 80bf
00000030: ae06 c8be ad52 553e 733c 6dbf 2bfa af3e
00000040: d397 27be 2230 733f 6c2e bebe a505 483e
00000050: d0c8 a3bf e7f6 d33e 6b6a 04be e119 963d
00000060: 23be c2be 270c 4e3e 6a1f 99bf 6a43 bd3e
00000070: 96af 25be f076 0a3f 3252 6b3e 3a20 10be
00000080: 1f3c e83f 361a a5be 78cb 3b3e 642a ce3e
00000090: 7bea 0ebf 9a6b 03bf 9aad 60be 1a86 e4be
000000a0: da8e 0ebf be85 45be b968 f2be a413 873e
000000b0: 5cc0 89be fdbd 95be fa83 9abe 2472 df3f
000000c0: 78fe 8fbe ed1f 063e c454 a4bf 0121 023f
000000d0: ddf7 17be 148d 433e 9fa9 2fbf ac16 8fbe
000000e0: 2c92 2cbe 6632 24be 6378 e73d cf3a 873f
000000f0: dc5d d1be cb8e c3be 7527 b8bd 14c0 14bf
00000100: e8cc 6cbe 65e5 48be fc95 67be d091 b03d
00000110: 9974 e3bf 6b1c ff3e 2bce 9fbd e5da 82be
00000120: b678 1abf 7f17 6bbe b94c 09be 4444 f6be
00000130: 7fe7 09bf 89d6 61be f519 e63e d6ab 05be
00000140: 5d31 a63f 10ed c0be c49a 303e 3785 92be
00000150: 1427 bfbe b944 81be 9d64 98be a3cb 11bf
00000160: 2a64 ffbe 890f 06be e81a 82bf b087 54be
00000170: 9751 a2bf 6a81 6dbd a444 3e3d 7008 4e3f
00000180: ebe7 9c3e 275d 1cbe 3357 0f40 c150 bfbe
00000190: 4f7f 3c3e 09ba 4c3e 9d2a d4be a2d7 16be
000001a0: 6d99 f6bd 2a28 febe a90a bbbe 3b9e 3bbe
000001b0: 20f6 e1be 524c d8be 3028 c0bd e01c eebe
000001c0: 0d28 d8be 0945 43be 6962 a23e 30c4 c9bd
000001d0: 7ace ba3f 1fa7 c2be 69bc 473e 6c90 c8be
000001e0: 1417 86be 34c2 863d 940c 9ebf f1c1 ab3e
000001f0: 0a5f 03be bebd 5e3e d008 aabe c831 a83d
00000200: a4be 49be 8292 c3be 90b7 5fbe 263f 803e
00000210: c254 dabe 57d4 d1be 1862 fbbd 1910 2dbf
00000220: 6985 24bf bf5d 41be 8624 aabe 5e9c 213e
00000230: 857e 2ebf c5f9 b73e fafb 20be b29b 353f
00000240: 299f d5be 0fa0 efbe 24d9 07be 969e 1abf
00000250: a573 f9be d2b2 51be 3904 abbe 83c3 c8be
00000260: c240 a1bd 3ccb b7be 70f9 f7be 52d3 dabd
00000270: 48c2 efbe 8ea2 acbe dc0a 8dbe 50b7 c3be
00000280: 6161 6abe 7783 a3be c194 623e cd40 02be
00000290: 3ba3 ca3f bcb4 b7be 6875 383e abde 613e
000002a0: 753a ac3e b8f2 03be 1140 b83f fe6e 88be
000002b0: b265 173e 6f8f 333e 000f e3be c90a e5be
000002c0: 416e a5be 873a dcbe b3eb fabe be1d 75be
000002d0: dc91 eabe 74b5 9ebe 299f 86be 9239 3ebe
000002e0: da60 b8be 3ec6 94be 7dd2 e3be 2604 c4be
000002f0: 02d4 34be cbfe babe 3279 15bf ac94 70be
00000300: 0144 bebe 70af bbbe e83b 9cbe f55f ddbe
00000310: 799b b2be 91be 7cbe 0680 05bf a64a a7be
00000320: ac06 98be 1001 05bf cd2f bfbe 503b 25be
00000330: 3a15 cdbe 0dd5 42be 46a4 78be d011 e8be
00000340: a5f6 debe 0b93 3abe 3410 bcbe 4005 8bbe
00000350: 182c e73e b78d c8be cc91 0f3e 9e32 1d3f
00000360: 9435 dfbe 079a 833e 0d0c b4bf d1df a23e
00000370: fc12 f3bd 7b12 893e 0b1a 12bf be19 fdbe
00000380: d1b8 9abe 736b 0abf 179c d8be 2112 98be
00000390: 2726 d0be 497c 273e 8ed6 58bd 9736 81be
000003a0: 5128 c0be b40a 0e3f eaef a8be c553 46be
000003b0: 13c3 50be 302c 78be e7fa c5be 136e 28be
000003c0: b347 b3be 4d34 393e 7f9e 92bf dd8c ad3e
000003d0: fe24 fbbd b341 f63e a940 afbe e3ae 023e
000003e0: 89c6 96bf ce1b d33e 9504 03be 2324 003f
000003f0: 5819 99be 9be6 b33d 47b5 a8bf 7e0b fe3e
-0.50187445 -0.653365 -0.29811153 -0.59393466 -0.48685354 -0.24360052 0.5232812 -0.11555487
1.4630817 -0.44461718 0.10628604 -1.006934 -0.39067596 0.2083232 -0.92670363 0.3437055
-0.1636651 0.9499532 -0.37144792 0.19533403 -1.2795658 0.4139931 -0.1293122 0.07329155
-0.38035688 0.20121823 -1.1962712 0.36965495 -0.16180262 0.54087734 0.22980574 -0.14074793
1.8143348 -0.3224656 0.18339336 0.40266716 -0.5582654 -0.5133606 -0.21941224 -0.4463356
-0.55686724 -0.192893 -0.47345522 0.26382172 -0.2690457 -0.29246512 -0.30178815 1.7456708
-0.28123832 0.13098116 -1.2838368 0.5083161 -0.14840646 0.19096786 -0.68618196 -0.27946985
-0.16852635 -0.1603485 0.11302259 1.0564822 -0.40891922 -0.3819488 -0.08991901 -0.5810559
-0.2312504 -0.19618757 -0.22615808 0.086215615 -1.7769958 0.4982637 -0.07802995 -0.25557628
-0.6034044 -0.22958182 -0.13408174 -0.48098958 -0.5386886 -0.22054495 0.4494168 -0.13053831
1.2983814 -0.37680864 0.17246538 -0.2861726 -0.37334502 -0.25247744 -0.29764262 -0.5695135
-0.49881107 -0.13091864 -1.0164461 -0.20754886 -1.2681149 -0.057984747 0.04645218 0.80481625
0.3064569 -0.1526991 2.2396972 -0.37366298 0.1840794 0.19992842 -0.4143876 -0.14730695
-0.120409824 -0.49640018 -0.3653157 -0.18322079 -0.4413309 -0.42245728 -0.09382665 -0.46506405
-0.42218056 -0.19069304 0.31715706 -0.09851873 1.4594262 -0.38018128 0.19505467 -0.39172685
-0.26189482 0.0658001 -1.2347589 0.33546403 -0.12829223 0.21752068 -0.33209848 0.0821262
-0.1970163 -0.38197714 -0.21847367 0.25048178 -0.4264279 -0.40982315 -0.12274569 -0.6760269
-0.6426607 -0.18883418 -0.3323099 0.15782306 -0.68161803 0.35932747 -0.15721121 0.709407
-0.41722992 -0.46801803 -0.13266426 -0.6039823 -0.48721042 -0.20478371 -0.3340166 -0.39211664
-0.0787368 -0.35897243 -0.48432493 -0.106848374 -0.46827912 -0.3371777 -0.27547348 -0.38225794
-0.2288871 -0.31936237 0.22127058 -0.12720032 1.5831064 -0.35880077 0.18013537 0.22057597
0.3363835 -0.12885559 1.4394552 -0.2664718 0.14784887 0.17535184 -0.44347382 -0.4473479
-0.3231068 -0.43013403 -0.4900795 -0.23937127 -0.45814407 -0.30997813 -0.26293305 -0.18576649
-0.36011392 -0.29057497 -0.44496527 -0.38284415 -0.17659 -0.36522517 -0.58388054 -0.23494214
-0.37161258 -0.36657286 -0.30514455 -0.43237272 -0.3488424 -0.2468207 -0.52148473 -0.3267414
-0.2969259 -0.51954746 -0.37341157 -0.16135907 -0.40055257 -0.19026585 -0.24281415 -0.4532609
-0.4354755 -0.18220155 -0.36731112 -0.27152443 0.45150828 -0.3917062 0.14020461 0.6140536
-0.43595564 0.2570345 -1.4066178 0.31811383 -0.11868855 0.26771912 -0.5707099 -0.49433702
-0.3021913 -0.54070204 -0.42306587 -0.2970133 -0.40654108 0.16356005 -0.05293899 -0.2523696
-0.3753076 0.5548508 -0.3299554 -0.19367893 -0.20386915 -0.24235606 -0.38667986 -0.1644824
-0.3501564 0.18086357 -1.1454619 0.33896533 -0.12262915 0.48097 -0.3422902 0.12762026
-1.1779338 0.4123215 -0.12794717 0.5005514 -0.29902148 0.08784219 -1.3180321 0.49618143

bayes_fc1.prior_sigma_small f4 [64, 6]
00000000: 2101 b63e 4cee 853e 5a42 6c3f 66e8 d63e
00000010: 741e 663e e508 703f 74c0 f93c e97d 653c
00000020: 2da0 ff3e 0b9d 613d 9cd3 803c 8e93 113f
00000030: b325 383d a3b7 7a3c 1961 173f a7a8 643d
00000040: 32e4 883c 4189 1c3f a3e9 f83c 09d9 253c
00000050: 40d8 ee3e 5fe6 f83c ab7b 3b3c 1dce d53e
00000060: c60b 033d 4a10 3d3c b007 0d3f b778 f33c
00000070: 5902 693c 1df1 c83e 3584 2b3d 44a0 883c
00000080: 5cad c83e 4c5e e33c 4514 133c 0c23 e13e
00000090: 3ec3 ba3e 1bb1 5b3e cda7 6c3f 95d7 cb3e
000000a0: 85c9 5a3e 7668 793f dae3 b43d 6030 d13c
000000b0: 9758 4f3f df50 113e 6ea4 7a3d c819 903f
000000c0: 3aa9 303d a92a 693c ba8a 0a3f 7537 063d
000000d0: eeb7 803c f899 133f a32c 5a3e 280c 8d3d
000000e0: a191 4c3f 75d0 6b3d 5389 e73c 6c32 673f
000000f0: 0d4a e33e eacd 2d3e aca7 753f 2100 bb3e
00000100: a12c 183e 6241 753f 543a e93c efb6 083c
00000110: a9de c33e 4d02 d33c 262f 2a3c adae e33e
00000120: 8106 993e e650 013e bf7d 683f b8bc bd3e
00000130: 1faa 7a3e 15ac 773f 1493 d53c 2425 323c
00000140: c478 ba3e fd3b d03c c91b 0d3c be56 f63e
00000150: fb9a a53e e2d5 013e e821 623f 0bec a63e
00000160: d912 7d3e d685 6a3f d237 493e 121c 993c
00000170: 2fe5 dd3e 5f2e af3c 57d3 f23b 14fa 523e
00000180: 31e2 4e3d 556e 883c e777 f33e 99bc 093d
00000190: fdff 813c f79d 0f3f 0dd0 c53e 4adb 003e
000001a0: b829 743f 419e b83e ebd9 173e 4bd3 773f
000001b0: a7f1 ba3e e7a9 313e c116 733f d526 c13e
000001c0: 5d46 5b3e 944b 883f df9c 993c dea4 fa3b
000001d0: 5f46 a13e b47c c33c 17a1 1d3c 18d3 bf3e
000001e0: 0a05 5e3d ad58 7c3c 6714 143f ddf9 3a3d
000001f0: f414 9a3c 78b6 153f 00a7 163e 4072 223d
00000200: 1c87 773f 769f a33e 4af5 943d efa2 863f
00000210: a150 b73e 28d7 3c3e 4aef 713f e955 eb3e
00000220: 717e 853e 4c09 713f 4b15 913d c435 ae3c
00000230: 3802 4d3f 85bc b03d 6f0b d03c 9228 203f
00000240: 6ad3 c33e ec73 2a3e d1ed 7e3f 5461 d93e
00000250: bb14 6a3e 2449 773f 2438 dc3e 26f2 573e
00000260: bcbf 6e3f 0c53 a23e 95f2 663e 2ebd 803f
00000270: 9b83 8d3e a257 e23d 2e86 593f 8b81 583e
00000280: eced cf3d 35f3 573f ee62 163d 17a0 2c3c
00000290: feb4 b53e 9e88 d13c 5da5 313c b06a d53e
000002a0: e17c c33c a802 503c f236 a53e 7f01 c03c
000002b0: e80a 233c dfc8 b43e 9246 8b3e 51c0 423e
000002c0: 6faf 633f a29b 9d3e 7f03 413e fccd 5e3f
000002d0: 8e35 a03e 019f 023e c8f6 753f 3a02 633e
000002e0: 0577 253e 7c1a 5f3f 2fd3 ac3e 429c 1d3e
000002f0: 73e8 683f ea92 ab3e 6c99 653e 6fa5 6d3f
00000300: 54f6 af3e d95d 223e fa44 703f 17bf a93e
00000310: 6e2d 1f3e a4d3 813f aabc a93e e8df 2d3e
00000320: 793f 653f ef3c aa3e 5ed2 183e 4ebc 663f
00000330: 3c8a 863e 5d03 e03d 6a9a 703f a60e b23e
00000340: 5c9a 3e3e ac54 683f d096 2e3e af11 853d
00000350: af2f 753f e25e d63d 9b71 043d 0395 573f
00000360: a47a f63c 9164 123c 898c d13e 5339 f13c
00000370: 8a28 603c 3817 cf3e 6168 c63e f3f4 683e
00000380: 695e 643f e4a6 be3e 3bcb 2e3e 7070 6a3f
00000390: 07de 2b3e e382 503d 1749 633f 5e07 b13e
000003a0: 4dfd d83d 46b2 913f cfd5 6c3e d05f c73d
000003b0: dc94 593f 3195 443e 759e 0e3e 082e 553f
000003c0: fd42 0d3d 6202 313c 4f99 003f a959 df3c
000003d0: cf29 5f3c c370 f93e bfd6 7b3d 6c8f a03c
000003e0: 1a9a 413f 2915 573d b4eb 8c3c ae62 263f
000003f0: ce65 5e3d c932 833c cce9 253f d5bd 2f3d
0.35547736 0.2615837 0.92288744 0.4197418 0.22472554 0.9376357 0.030487277 0.01400707
0.49926892 0.05508141 0.015725903 0.56865776 0.044957828 0.0153025715 0.59132534 0.055824902
0.016710375 0.6114693 0.030384844 0.010122546 0.4664936 0.030383287 0.011443059 0.41758814
0.03199365 0.011539528 0.55089855 0.029720647 0.014221751 0.39246455 0.04187413 0.016677983
0.39194763 0.027754925 0.008977001 0.4397205 0.36477083 0.21454279 0.92443544 0.39812914
0.21365936 0.9742502 0.08832522 0.025535762 0.8099455 0.14191006 0.06119197 1.1257868
0.043130137 0.014231362 0.5411793 0.03276773 0.015712705 0.5765681 0.2130609 0.06887084
0.7990971 0.057571847 0.028263723 0.9031131 0.44392434 0.16973081 0.9595897 0.36523536
0.14860775 0.9580289 0.028470196 0.008344396 0.38255814 0.025757933 0.010387218 0.44469205
0.29887775 0.12628517 0.90816873 0.37058043 0.24478959 0.9674695 0.026071109 0.010873113
0.36420262 0.02541923 0.0086125815 0.48113054 0.32344803 0.12679246 0.88332987 0.32601961
0.24714221 0.9161047 0.196502 0.018690143 0.43338916 0.021384416 0.0074104476 0.2060321
0.05050868 0.016654173 0.47552416 0.033627126 0.015869135 0.5610041 0.38635293 0.12583652
0.9537616 0.36058238 0.14829223 0.9680678 0.3651249 0.17349969 0.94956595 0.3772494
0.2141356 1.0648065 0.01875156 0.007649048 0.31499 0.023863174 0.009620926 0.3746574
0.054204024 0.015402001 0.5784363 0.045648444 0.01880882 0.5848155 0.14712143 0.03965974
0.96690536 0.31957597 0.07273348 1.0518473 0.35803702 0.1844145 0.9450575 0.45963982
0.2607303 0.9415481 0.070841394 0.021265872 0.8008151 0.08629707 0.025396077 0.62561905
0.38247234 0.16645783 0.9958163 0.42457068 0.2285947 0.9659598 0.43011582 0.21088466
0.93261313 0.31703985 0.22553475 1.0057733 0.2763947 0.11051871 0.84970367 0.21143167
0.10152802 0.8435548 0.03671544 0.010536215 0.3548965 0.02557784 0.010842648 0.4168296
0.023863258 0.012695946 0.32268482 0.023438213 0.009951331 0.35309502 0.27202278 0.19018675
0.88939565 0.307828 0.1884899 0.8703306 0.3129086 0.12755968 0.96079683 0.22168818
0.16158684 0.87149787 0.3375487 0.15391639 0.9097969 0.33510524 0.22421807 0.92830557
0.3436762 0.15856113 0.9385525 0.33153602 0.15544674 1.0142713 0.33151752 0.16979945
0.89549977 0.33249614 0.14923999 0.9013108 0.2627734 0.109381415 0.9398562 0.347768
0.18613571 0.907542 0.17049718 0.064975135 0.95775884 0.10467316 0.032334905 0.8421175
0.030087776 0.00893511 0.40927532 0.02944628 0.01368154 0.40447402 0.3875151 0.2274969
0.8920656 0.37236702 0.17069714 0.91577816 0.16783915 0.050906073 0.887834 0.34575933
0.10595188 1.138253 0.23128437 0.09735072 0.84992766 0.19197537 0.13927634 0.83273363
0.034487713 0.010803791 0.5023393 0.027264433 0.013620808 0.48718843 0.061484095 0.019599639
0.75625765 0.052510414 0.017202236 0.64994323 0.054296307 0.016015427 0.6480987 0.042905647

bayes_fc2.weight_mu f4 [1, 64]
00000000: 57d7 e13c a05c 463d 657c 55bd cd52 35bd
00000010: 588e 5cbd 8939 6b3d 2758 8cbd e7e4 59bd
00000020: 7345 4cbd 5050 ca3d 7e84 12bd 72e8 abbd
00000030: a0b1 24bd 9d14 783d 1866 043d db42 c63e
00000040: 7459 473d 06c2 db3b 5eb9 d53d d1db 8d3d
00000050: 0d98 a1bd ad09 81bd 3423 da3a e356 0abd
00000060: 0822 afbc c8c6 36bc 4098 c6bc d48f 703d
00000070: 0ca3 973d e14f 923d cca7 5bbc aa36 f53c
00000080: 19fb 2a3c 4f2f f13c d245 95bd 99bf 733d
00000090: c13d 89bd de47 de3c f05d d8bc 1756 0f3e
000000a0: f483 5abd e641 80bd e5d2 4cbd 06cc 2ebc
000000b0: 156f 90bc 1c02 23bc 0c9f 00bd cb5f 05bd
000000c0: ede3 0c3c 5f71 b0ba 815f 8b3c 3817 15bd
000000d0: e88f 50bd 9c5b 793d 624c d83c 6da6 693d
000000e0: a711 933d 1dcc 6a3d f226 f73d 83b6 963d
000000f0: 4bde a03d c112 933d e642 a1bd deca 47b9
0.027568502 0.048428178 -0.052120585 -0.044268418 -0.053846687 0.057427917 -0.06852751 -0.053196814
-0.04987092 0.098786 -0.035770886 -0.08393945 -0.04020846 0.060566533 0.032323927 0.38722882
0.048669294 0.006706479 0.104357466 0.06926692 -0.078903295 -0.06300674 0.0016642571 -0.033774268
-0.021378532 -0.011155792 -0.02424252 0.058730915 0.074041456 0.07144142 -0.013406705 0.029933292
0.010435843 0.029441504 -0.07288708 0.059508894 -0.06701232 0.027133878 -0.02641198 0.13997684
-0.053348497 -0.06262569 -0.050005812 -0.01066876 -0.017631093 -0.009949233 -0.03140168 -0.03256206
0.008599264 -0.0013461522 0.017013313 -0.036399096 -0.05091849 0.06087838 0.02640361 0.05704348
0.07181101 0.057323564 0.12067975 0.0735903 0.07854899 0.071813114 -0.07874088 -0.00019053693

bayes_fc2.weight_rho f4 [1, 64]
00000000: 7eb0 a1bf 7260 a8c0 221e a2c0 02e9 a8c0
00000010: 77a9 9fc0 ea50 a6c0 fad2 a6bf 5a96 92c0
00000020: 28a1 a5c0 d90e 69c0 efc9 48c0 f0c6 a7c0
00000030: 1b70 e9bf aea8 adc0 8cfc dbbf 4664 67c0
00000040: 393c abc0 facc 21c0 9cc0 e4bf 1c98 aac0
00000050: 226c 93c0 dc98 37c0 4f3b 09c0 34cb a4c0
00000060: 28fa 11c0 d538 14c0 e6dc 1ebf 61ee a2c0
00000070: 8044 a4c0 e206 77bf f62f b0bf 59eb d8bf
00000080: a9c1 1fc0 17a7 adbf 58c5 1bc0 828b 80c0
00000090: 27cb abc0 f566 04bf a307 89c0 88ba 59bf
000000a0: 4e3f a4c0 fc24 9cc0 c643 a0c0 08a8 12c0
000000b0: 053b 0ec0 bbd9 c0bf 6a81 d0bf ddf5 9dc0
000000c0: fa17 b4bf 2e4f 31c0 b2c3 15c0 4613 67c0
000000d0: b9ea 02c0 ac9f aac0 f0fb 58bf cbe4 a4c0
000000e0: 8834 a5c0 9e98 a8c0 030c 7cc0 a459 88c0
000000f0: 5bed 9fbf 9e04 a4c0 e529 a6c0 1581 22c0
-1.2631986 -5.261773 -5.0661783 -5.2784433 -4.9894366 -5.197377 -1.3033135 -4.5808535
-5.1759224 -3.6415312 -3.137325 -5.2430344 -1.8237337 -5.426841 -1.7186446 -3.6154952
-5.3511014 -2.5281358 -1.787128 -5.331068 -4.60695 -2.8687048 -2.144245 -5.149805
-2.2808933 -2.3159688 -0.62055814 -5.091599 -5.133362 -0.9649488 -1.3764637 -1.6946822
-2.496195 -1.3566617 -2.43392 -4.01703 -5.368549 -0.517196 -4.282182 -0.8505025
-5.1327276 -4.8795147 -5.008273 -2.2915058 -2.2223523 -1.5066446 -1.6289494 -4.9362626
-1.4069817 -2.7704577 -2.3400693 -3.6105514 -2.0455763 -5.331991 -0.84759426 -5.152929
-5.1626625 -5.26863 -3.9382331 -4.2609425 -1.249431 -5.1255636 -5.192614 -2.5391285

bayes_fc2.prior_mu_old f4 [1, 64]
00000000: adce 123d 5641 5d3d 5fd5 2cbd adba 44bd
00000010: 8523 48bd 0ddd 703d 95cd 97ba 3c14 75bd
00000020: 8390 3ebd d2a3 d93d 9889 18bd 5ca8 a8bd
00000030: d2ea 64bd 5421 833d 167f 093c 66dd c93e
00000040: 214b 563d 956a 0a3c 16d4 e33d 368f 9b3d
00000050: 3bd3 92bd 1458 b3bd d32a ef3a f673 e7bc
00000060: e961 943c 0be9 febb bf16 d1bb a9a1 693d
00000070: b5f6 9f3d 079d a03d e720 493d 7858 c83b
00000080: ebb5 073c fbb6 233d 87f4 85bd 5bc8 8b3d
00000090: 28ac 84bd 52c8 423b f267 00bd 6703 df3d
000000a0: 8d69 54bd 5a5b 5fbd 26b4 43bd 2e45 89bc
000000b0: 3908 763c 9286 e0ba 3c11 c5bc e2f5 f6bc
000000c0: 637d f43c 4813 98bc 5bb7 bd3c f1bc c9bc
000000d0: e833 5ebd 5c15 8e3d a30c 963d c7db 853d
000000e0: 2b24 a03d 6a46 7c3d 0144 003e 14c5 903d
000000f0: bee9 803d 3467 9b3d baae 96bd e400 e8bb
0.035841633 0.054017387 -0.042195674 -0.04802959 -0.048862 0.05880456 -0.0011581654 -0.05983375
-0.046524536 0.10626949 -0.037240595 -0.08235237 -0.055888005 0.06402841 0.008392116 0.39426726
0.052317742 0.008448263 0.111244366 0.07595675 -0.07169195 -0.08757034 0.0018247016 -0.028253537
0.018113093 -0.0077792457 -0.0063808854 0.057038937 0.078107275 0.078424506 0.049103644 0.006114062
0.008283119 0.039969426 -0.065407805 0.06825324 -0.06478149 0.002972145 -0.03134913 0.10889321
-0.051858474 -0.05453048 -0.047779225 -0.01675662 0.015016609 -0.0017129949 -0.02405607 -0.030146543
0.029844945 -0.018563882 0.02315872 -0.024626227 -0.05424872 0.06937668 0.07326629 0.0653606
0.078193985 0.06159059 0.12525941 0.0706884 0.06294583 0.07588044 -0.07357545 -0.0070801843

bayes_fc2.prior_sigma_small f4 [1, 64]
00000000: 551d 6e3e 7d26 b03b d666 e93b 4e6d a73b
00000010: 4285 db3b dff6 c73b c682 733e aac7 283c
00000020: 88af ca3b d31e cc3c 9ff1 283d e433 bc3b
00000030: 1527 1a3e 9a7b 993b c0c5 203e b33d d73c
00000040: 6c17 9f3b fdfa a63d 502f 1e3e 08c8 993b
00000050: 2f5d 303c c198 733d 1895 dd3d 9c74 ca3b
00000060: d5e5 c23d cc37 cf3d 2801 d03e 0bcd c43b
00000070: 3c82 da3b 1e38 9f3e 29d0 603e 8e2b 2a3e
00000080: e93f a23d e26d 6f3e 96c0 a23d 0cd5 933c
00000090: 5121 993b 0ca7 ee3e acb5 673c efe9 b23e
000000a0: 3c93 cc3b 0a8d fc3b 412c e33b b6d4 c23d
000000b0: 730b c23d e29a 463e 4bdf 463e 9657 043c
000000c0: cb1e 513e ffca 7f3d 32c0 b83d 64b0 e33c
000000d0: 7b63 fd3d 2a13 a93b 8420 a33e a6bc b93b
000000e0: 3cfb b73b 3951 b73b cac5 9a3c 09ed 723c
000000f0: e43b 873e ea7a d03b 667b c83b 9b71 9e3d
0.23253377 0.005375682 0.0071228547 0.0051094657 0.006699235 0.0061024274 0.23780355 0.01030151
0.0061854757 0.024917042 0.041246053 0.0057434905 0.15053971 0.004683924 0.15700436 0.026274538
0.004855087 0.08153341 0.15447736 0.004693035 0.010764404 0.05947185 0.10819453 0.0061784517
0.09516493 0.10118064 0.40625882 0.0060058883 0.006668357 0.31097502 0.21954407 0.16618177
0.07922346 0.2338176 0.07946889 0.018045925 0.004673161 0.46611822 0.014142435 0.34944102
0.0062431376 0.007707243 0.0069327657 0.09513228 0.0947484 0.1939502 0.19421117 0.008077523
0.20421903 0.06244945 0.09021033 0.02779407 0.1237249 0.0051597552 0.31860745 0.0056682406
0.0056146663 0.0055943993 0.018893141 0.014827021 0.2641288 0.0063623087 0.006118226 0.07736512

exp_avg f4 [64, 6]
00000000: 28be 24b8 f75c 32b8 c59a 1cb6 9ad3 77b8
00000010: b641 11b7 2e18 a437 98fe a938 4e61 e3ba
00000020: 7972 f9b7 4495 f238 acba c4ba e883 0538
00000030: 7f69 bc39 2253 1f3b 6e67 45b8 9c83 8cba
00000040: 4c97 063b 373c 8db8 bf92 423a ca69 0b3a
00000050: d0c0 0739 6387 26b9 312b 0eba 86b7 26b8
00000060: a083 8b38 9a25 893b 27c7 15b7 f74b d139
00000070: 9cbe cc3b 1d8c cb38 ce14 b0b7 da97 3ebb
00000080: 632b 21b8 07a7 983a 9856 143b 84e0 c138
00000090: e8fa f9b7 a7d8 b837 fbbc 8c36 34a8 09b8
000000a0: 9d71 d1b7 03eb fa36 b2d1 b3b9 9f85 4dba
000000b0: b7ca fab7 d1d6 17ba 0cfc 0aba ddd2 2bb8
000000c0: 6149 fd39 75f5 30bb c6ca 00b9 ee50 deba
000000d0: d689 d2bb d631 86b8 eb9c 71b8 243b 02b9
000000e0: 09cf 5937 1aa2 22b7 6449 7839 2e79 68b6
000000f0: 2c6c 41b7 6a35 c4b8 57ce c0b4 4f89 4b38
00000100: 8195 e937 8b2a 3236 d618 b7ba 3fab d0bb
00000110: 9162 14b9 4c0e 67bb 0c48 24bc 4118 03b9
00000120: 91a8 1637 f251 66b8 7c76 9d36 66bb 1938
00000130: 835a 0138 5d05 4a37 71bb 7739 c942 22ba
00000140: 60b3 54b8 98a0 193b 3eaf 2e3a 932e 89b8
00000150: 74e6 e637 0547 06b9 64de cfb5 4649 10b8
00000160: e509 73b8 f602 3a36 6d9f 8738 2979 173a
00000170: 4127 e637 7480 a53b 6dde bc3b c5af 2338
00000180: cbad 8cba 5d59 d4ba c2f5 36b8 04e2 4b3a
00000190: 0016 453a 2add d437 f4a5 8fb8 2e24 1db9
000001a0: a8ce 41b7 86c6 77b7 fc60 3cb8 fe4c 0d37
000001b0: 25d5 9eb7 2bbb 6137 ecac 1db6 f822 85b8
000001c0: 63d3 d2b7 07ff 3b36 fe7c 2d3b 6ff9 c338
000001d0: eb66 2139 a2b0 f439 4eac 0b3c 4f12 1939
000001e0: d337 313a 4d81 88ba d03e acb8 4f68 20bb
000001f0: c40b 14bc 3c0d 31b9 fd54 76b7 f8de d73a
00000200: d532 85b8 7471 15ba 13fd 64ba 93a4 14b8
00000210: 876c 67ba 38de c4b8 9b2c bbb8 b074 65b9
00000220: 3f51 1337 f66d feb7 04d1 5b3a 4ac2 173b
00000230: f4d4 5038 29b9 4bb9 6cef cc3a 097b 0db8
00000240: d9ad 8737 d72d 89b9 fb3c 6cb7 6d02 dd37
00000250: 4e1b b338 0249 dbb6 ea5e 4d37 ee39 04b8
00000260: 011d 1536 eb92 51b8 d715 f3b6 cca6 feb6
00000270: 5d78 89b7 2fea 3f37 fe1d af37 7139 7838
00000280: 31cc 5c38 abab 3cb7 6328 28ba 493a abbb
00000290: 44ad e7b7 d08e 6dba cbb0 21bb fff5 94b8
000002a0: 3259 0ebb 077b 5fbc 46d6 18b8 592e 3cba
000002b0: 4776 9cba f8d8 0eb9 8a58 57b8 de66 28b8
000002c0: b9ba aa37 034b 10b8 859b 98b8 afac 0737
000002d0: 7d70 5f36 0efc feb7 8f4c 1637 0f47 0339
000002e0: 8d4d bdb7 85d6 22b8 a4bc ed36 24f8 3b38
000002f0: 7022 b237 2fea e237 6d10 2738 bb39 d9b7
00000300: 622b 3939 0ce5 ee36 fb50 0237 6352 ba38
00000310: e702 8bb8 282a 29b5 079c 08b7 0134 69b8
00000320: 4cbb a437 95f0 02b8 b868 c7b7 0a13 acb7
00000330: 2508 73b6 5cd3 a5b7 fca2 2eb7 38c1 8eb8
00000340: c1d7 e4b7 0ead ff36 9567 9cb8 bf2c fa38
00000350: 4ea0 8036 5357 d739 e2fa e03a fae5 6537
00000360: dfde 56b8 1801 fa3a 589e 0439 87b0 eb3a
00000370: bd61 bc3b 0676 b238 9777 1838 765c fe37
00000380: 3da0 e8b6 acf2 41b8 ef7f d836 c598 9035
00000390: 3047 22b8 da50 dfb9 c404 4c37 b7db 93b8
000003a0: bf0f b4b7 c033 3fb6 e42b 9cb8 6c44 8c38
000003b0: 1a1c feb6 336a 1fb8 1f1d 3339 e694 e5b7
000003c0: 0ad5 0d37 722e 6cba e64f d3b8 5182 8aba
000003d0: 6389 8dba ed2e 30b8 f396 613a 2957 cc39
000003e0: 66b3 2237 21a0 cbb8 bbe6 973b f3df d8b6
000003f0: c05c 50ba efc4 5ebb fadb 8ab7 e3bf 90ba
-3.9277744e-05 -4.2525087e-05 -2.33359e-06 -5.908646e-05 -8.657973e-06 1.9561583e-05 8.10597e-05 -0.0017347725
-2.9736419e-05 0.00011567262 -0.0015009246 3.183252e-05 0.00035936755 0.0024311026 -4.7064786e-05 -0.0010720375
0.0020536957 -6.73462e-05 0.00074223796 0.0005318193 0.00012946432 -0.00015881429 -0.0005423306 -3.9748404e-05
6.6525536e-05 0.0041853907 -8.927461e-06 0.00039920185 0.0062483083 9.7058924e-05 -2.0990523e-05 -0.002908221
-3.84258e-05 0.0011646458 0.0022634622 9.2447764e-05 -2.979995e-05 2.2035396e-05 4.1943254e-06 -3.2819997e-05
-2.4967647e-05 7.4779396e-06 -0.00034297776 -0.00078400405 -2.9896719e-05 -0.0005792203 -0.000530184 -4.096596e-05
0.00048310592 -0.0027001773 -0.0001228257 -0.0016961375 -0.0064251227 -6.3989006e-05 -5.760502e-05 -0.00012419798
1.2982412e-05 -9.693695e-06 0.00023678463 -3.464123e-06 -1.1528882e-05 -9.3559574e-05 -3.591292e-07 4.852685e-05
2.7845383e-05 2.654883e-06 -0.0013969194 -0.0063680704 -0.00014151099 -0.0035256324 -0.010026943 -0.00012502169
8.979944e-06 -5.491259e-05 4.692758e-06 3.665257e-05 3.0840292e-05 1.2041387e-05 0.00023625583 -0.00061897613
-5.0711795e-05 0.0023441669 0.00066636864 -6.541344e-05 2.752545e-05 -0.00012805693 -1.5487426e-06 -3.4400517e-05
-5.794493e-05 2.7717883e-06 6.466997e-05 0.0005778247 2.7436416e-05 0.005050713 0.00576382 3.9025927e-05
-0.0010732947 -0.0016200949 -4.362106e-05 0.00077775144 0.0007518232 2.5375357e-05 -6.8496825e-05 -0.00014986165
-1.1551812e-05 -1.476857e-05 -4.4913017e-05 8.422181e-06 -1.893432e-05 1.34546235e-05 -2.3495477e-06 -6.348448e-05
-2.5132385e-05 2.8013617e-06 0.0026472206 9.344785e-05 0.00015392496 0.00046670908 0.008524967 0.00014598038
0.00067603326 -0.0010414511 -8.213299e-05 -0.0024476235 -0.009036008 -0.00016884966 -1.46825305e-05 0.0016469648
-6.3514024e-05 -0.0005700805 -0.0008735221 -3.543922e-05 -0.00088281225 -9.3874e-05 -8.925163e-05 -0.00021882611
8.780799e-06 -3.0330364e-05 0.0008385333 0.0023156577 4.9789393e-05 -0.00019428566 0.0015635318 -3.3731605e-05
1.6174208e-05 -0.0002616483 -1.4080894e-05 2.6346383e-05 8.540471e-05 -6.535208e-06 1.2241051e-05 -3.1525204e-05
2.2219613e-06 -4.996631e-05 -7.244507e-06 -7.5892076e-06 -1.6387721e-05 1.1439012e-05 2.0875592e-05 5.9181304e-05
5.2642255e-05 -1.1245643e-05 -0.00064147095 -0.005225454 -2.7618029e-05 -0.0009062113 -0.0024672027 -7.10301e-05
-0.0021720645 -0.013640172 -3.643918e-05 -0.0007178537 -0.0011937105 -0.00013623002 -5.1342453e-05 -4.0150124e-05
2.0352529e-05 -3.4402135e-05 -7.2768926e-05 8.086833e-06 3.3295066e-06 -3.0396532e-05 8.958522e-06 0.00012519605
-2.2566668e-05 -3.8823597e-05 7.085111e-06 4.4815373e-05 2.123529e-05 2.705035e-05 3.98312e-05 -2.5895299e-05
0.00017659136 7.1196173e-06 7.767459e-06 8.884517e-05 -6.628577e-05 -6.301875e-07 -8.14256e-06 -5.559996e-05
1.963754e-05 -3.1218475e-05 -2.3771412e-05 -2.0512864e-05 -3.6214562e-06 -1.9767955e-05 -1.0409156e-05 -6.8070774e-05
-2.7280186e-05 7.6197384e-06 -7.457953e-05 0.000119292636 3.833359e-06 0.00041073057 0.0017164613 1.3703009e-05
-5.122914e-05 0.0019073812 0.00012647489 0.0017981686 0.005748956 8.509685e-05 3.6351e-05 3.0322215e-05
-6.932793e-06 -4.624079e-05 6.452195e-06 1.0773298e-06 -3.869011e-05 -0.00042594114 1.2160457e-05 -7.050431e-05
-2.1465004e-05 -2.849134e-06 -7.446835e-05 6.688465e-05 -7.5730613e-06 -3.800746e-05 0.00017081619 -2.7368264e-05
8.453857e-06 -0.00090096064 -0.00010076146 -0.0010567402 -0.0010798391 -4.2005373e-05 0.0008605562 0.00038974851
9.697722e-06 -9.709621e-05 0.0046356595 -6.4633728e-06 -0.0007948391 -0.0033991893 -1.6553317e-05 -0.0011043515
