models/updated_hmnn_model_2006_2020.pth (torch, 14090 bytes, 12 tensors)

bayes_fc1.weight_mu f4 [64, 6]
0	0xbf517020	-0.81811714
1	0xbf4fa577	-0.81111854
2	0xbe9b44b3	-0.3032585
3	0xbf60c846	-0.87805593
4	0xbf1d0157	-0.6133017
5	0xbe1a9d17	-0.15098988
6	0x3f0e449c	0.5557344
7	0xbdaf0c26	-0.08547239
8	0x4023c02c	2.5586042
9	0xbec274e6	-0.3797981
10	0x3dcc20c3	0.09967186
11	0xbf3c45b7	-0.73543876
12	0xbec66a3e	-0.3875293
13	0x3e4db813	0.2008975
14	0xbfb35841	-1.4011308
15	0x3ebe5f79	0.37182215
16	0xbe14f6ed	-0.1454732
17	0x3f6b4416	0.91900766
18	0xbebf5554	-0.37369788
19	0x3e2fd81a	0.1717228
20	0xbfc793aa	-1.5591938
21	0x3ee22c8f	0.4417462
22	0xbdf73321	-0.12070299
23	0x3ec9acea	0.39389735
24	0xbeba346d	-0.36368123
25	0x3e477b00	0.19480515
26	0xbfdf896a	-1.746381
27	0x3ed3c18d	0.41358605
28	0xbe0b72e2	-0.13618043
29	0x3f054bf8	0.52069044
30	0x3e97aa8d	0.29622307
31	0xbdea9b7e	-0.11455439
32	0x401a4643	2.4105384
33	0xbea6787c	-0.32513797
34	0x3e307c92	0.1723502
35	0xbeac2c48	-0.33627534
36	0xbf34086c	-0.7032535
37	0xbf32dcae	-0.6986798
38	0xbe543dd2	-0.20726708
39	0xbf367a94	-0.7128079
40	0xbf35bf7c	-0.70995307
41	0xbe84106e	-0.25793785
42	0xbef41889	-0.4767497
43	0x3e72a047	0.23693953
44	0xbf3f2aa6	-0.7467445
45	0xbec6fa38	-0.38862777
46	0xbea9f6ea	-0.33196193
47	0x3f19405b	0.59863824
48	0xbe9b94c8	-0.3038695
49	0x3db71c8f	0.08940994
50	0xbff4f2d6	-1.9136608
51	0x3f04c8bf	0.51868814
52	0xbe051d3b	-0.12999432
53	0x3eabe09a	0.33569795
54	0xbf4234df	-0.75861925
55	0xbe677e7f	-0.22606848
56	0xbee72791	-0.45147374
57	0xbe68ba7b	-0.22727387
58	0x3da48765	0.08033637
59	0x3cc6897e	0.024235483
60	0xbf1e3ea7	-0.6181435
61	0xbf03fe44	-0.51559854
62	0xbd86c020	-0.06579614
63	0xbf1757a4	-0.59118104
64	0xbe9e3002	-0.30896002
65	0xbdcaf815	-0.09910599
66	0xbe6acaf2	-0.2292898
67	0x3db4eaf8	0.08833879
68	0xc029b3f9	-2.6516097
69	0x3ef5a15e	0.47974676
70	0xbd87eacf	-0.06636583
71	0xbf26da3b	-0.65176743
72	0xbf245343	-0.6418955
73	0xbeb8f2b7	-0.36122677
74	0xbe252b43	-0.16129784
75	0xbf2c3ccb	-0.6728026
76	0xbf347724	-0.70494294
77	0xbdb4817a	-0.08813758
78	0x3ef904b1	0.48636392
79	0xbdf90d18	-0.121607006
80	0x3fe2b20f	1.7710589
81	0xbec0207e	-0.3752479
82	0x3e288143	0.1645556
83	0xbf72916d	-0.9475315
84	0xbf149f80	-0.5805588
85	0xbedf8cf6	-0.43662232
86	0xbe7c741d	-0.24653669
87	0xbf346fb3	-0.7048294
88	0xbf3e825c	-0.7441766
89	0xbe48b17c	-0.19598955
90	0xbf82a489	-1.0206462
91	0xbe39d9b7	-0.18149458
92	0xbf89aaee	-1.0755289
93	0xbdb38b9f	-0.08766865
94	0x3ce5d6e5	0.028056571
95	0x3f217ea6	0.63083875
96	0x3ebf87e1	0.37408355
97	0xbe00f057	-0.12591682
98	0x404925da	3.1429353
99	0xbebcc634	-0.36869967
100	0x3e28c353	0.1648076
101	0xbe30fec8	-0.17284691
102	0xbf14d3c9	-0.5813566
103	0xbea70705	-0.32622543
104	0xbe061611	-0.13094355
105	0xbf396e63	-0.7243406
106	0xbef791d0	-0.48353434
107	0xbe00c72e	-0.12575981
108	0xbf408c0a	-0.7521368
109	0xbef8f751	-0.48626187
110	0xbe1e7594	-0.1547454
111	0xbf4517b6	-0.76989305
112	0xbf126343	-0.5718271
113	0xbe77492f	-0.24149011
114	0x3eaad261	0.3336363
115	0xbdcb8fb6	-0.0993952
116	0x3ffc63ff	1.9718016
117	0xbec5319e	-0.38514417
118	0x3e2db0c6	0.16961965
119	0xbf2c239f	-0.67241853
120	0xbe79baea	-0.24387708
121	0x3d678887	0.056526687
122	0xbfcded9a	-1.6088135
123	0x3edd7457	0.43252823
124	0xbdc1284e	-0.09431516
125	0x3f39fd55	0.7265218
126	0xbedd7b80	-0.43258286
127	0x3dc9d5ac	0.09855208
128	0xbe99e639	-0.30058458
129	0xbf24c957	-0.6436972
130	0xbe9fbae3	-0.3119727
131	0xbdd9c3ce	-0.1063305
132	0xbf1953c9	-0.5989347
133	0xbf0bbaa8	-0.5458169
134	0xbe478548	-0.19484437
135	0xbf5fef0d	-0.8747414
136	0xbf4c4e32	-0.79806817
137	0xbd4c71e4	-0.049913302
138	0xbeb0b12c	-0.3451017
139	0x3e0d64f0	0.13808036
140	0xbf9eb3c4	-1.239861
141	0x3f0224cc	0.508374
142	0xbe03f0ba	-0.12884799
143	0x3f20b010	0.6276865
144	0xbf1d7f61	-0.6152249
145	0xbf25daf6	-0.6478723
146	0xbdcd1d90	-0.10015404
147	0xbf54cfae	-0.83129394
148	0xbf33d2f7	-0.7024378
149	0xbe06da11	-0.13169123
150	0xbf1e0302	-0.6172334
151	0xbf0926f1	-0.53575045
152	0xbde4139b	-0.11136552
153	0xbf01e522	-0.50740254
154	0xbf2fb502	-0.6863557
155	0xbd7db529	-0.061940346
156	0xbf23cc23	-0.6398336
157	0xbebff0d3	-0.37488422
158	0xbe24f486	-0.16108903
159	0xbf0e28af	-0.5553083
160	0xbe9fd5c9	-0.31217793
161	0xbe816064	-0.25268853
162	0x3ea27c4d	0.3173546
163	0xbdffd787	-0.124922805
164	0x4017c62a	2.37147
165	0xbeba2bde	-0.36361593
166	0x3e2df6f2	0.16988733
167	0xbd85f74a	-0.06541307
168	0x3eaea70a	0.34111816
169	0xbdf89f57	-0.12139767
170	0x3feebb27	1.8650864
171	0xbe9c4672	-0.30522496
172	0x3e0c18f6	0.13681397
173	0xbf22e8c1	-0.63636404
174	0xbf40dfd2	-0.7534152
175	0xbf1f95e4	-0.6233809
176	0xbe7b49d5	-0.24539883
177	0xbf3efac2	-0.74601376
178	0xbf2a7eda	-0.6659981
179	0xbe8aedd9	-0.27134588
180	0xbf24a9a9	-0.6432138
181	0xbec74b91	-0.3892484
182	0xbe522ebb	-0.20525639
183	0xbefbb312	-0.49160057
184	0xbf113c7d	-0.5673292
185	0xbe9d51a1	-0.3072634
186	0xbf36866d	-0.7129887
187	0xbf15102f	-0.5822782
188	0xbe0828ad	-0.13296767
189	0xbf15b320	-0.5847645
190	0xbf393f81	-0.72362524
191	0xbeace654	-0.33769476
192	0xbf193efd	-0.5986174
193	0xbef7841e	-0.48342985
194	0xbdc4ef01	-0.09615899
195	0xbf1dbb7b	-0.616142
196	0xbeb5a111	-0.35474446
197	0xbe33b7dc	-0.17550606
198	0xbf4cc92c	-0.79994464
199	0xbf0c8521	-0.5489064
200	0xbe53e633	-0.20693283
201	0xbf35f1d7	-0.71072143
202	0xbf0906be	-0.5352591
203	0xbe734499	-0.23756637
204	0xbef8b736	-0.4857728
205	0xbe85ae87	-0.26109716
206	0xbe08261e	-0.1329579
207	0xbf38abc5	-0.721371
208	0xbf1d4de9	-0.61447006
209	0xbde5483d	-0.11195419
210	0xbee90fe9	-0.4551995
211	0xbe902e6f	-0.28160426
212	0xbdff576d	-0.12467847
213	0xbeef2b3e	-0.4671268
214	0x3db4705a	0.08810492
215	0xbe13eb94	-0.14445335
216	0xbeda74fb	-0.42667374
217	0x3e79dc77	0.24400507
218	0xbffdfd4c	-1.9842925
219	0x3eb07994	0.34467757
220	0xbdd9e134	-0.10638657
221	0xbb4bbdbb	-0.003108843
222	0xbf611785	-0.8792651
223	0xbf32d8f4	-0.69862294
224	0xbe665dee	-0.22496769
225	0xbf370b0e	-0.71501243
226	0xbefea813	-0.49737605
227	0xbe89b1c6	-0.26893443
228	0xbf1a3879	-0.6024242
229	0x3d68b955	0.05681737
230	0xbdd9faf9	-0.10643572
231	0xbe965ded	-0.29368535
232	0xbeba8c14	-0.36434996
233	0x3d62f1f9	0.055406544
234	0xbf0baaef	-0.545577
235	0xbe855a53	-0.26045474
236	0xbe78e2e0	-0.24305296
237	0xbec5ebf4	-0.3865658
238	0xbef39a6b	-0.4757875
239	0xbe7f4477	-0.24928461
240	0xbeadf925	-0.33979145
241	0x3e2a1c55	0.1661237
242	0xbfd811c3	-1.688042
243	0x3eb85255	0.36000314
244	0xbde4dedb	-0.11175319
245	0x3f054d93	0.52071494
246	0xbea0ef2e	-0.3143248
247	0x3dfc1edc	0.123105735
248	0xc00ce251	-2.2013133
249	0x3eec4cab	0.46152243
250	0xbdcd0259	-0.100102134
251	0x3e989b7e	0.2980613
252	0xbe8f585b	-0.27997097
253	0x3db6d4b7	0.08927291
254	0xbfcd9432	-1.6060851
255	0x3f120c36	0.5704988

bayes_fc1.weight_rho f4 [64, 6]
0	0xbeeacd75	-0.45859876
1	0xbf5db9b2	-0.86611474
2	0x3edef0b9	0.43543032
3	0xbe97da3f	-0.29658696
4	0xbf857987	-1.0427712
5	0x3f12a2f7	0.57279915
6	0xc07915d0	-3.8919563
7	0xc098a1b5	-4.7697396
8	0xbf0823b0	-0.53179455
9	0xc066dcf1	-3.6072352
10	0xc0954e2f	-4.665794
11	0xbd0e35bb	-0.03471921
12	0xc0638f85	-3.5556347
13	0xc08e666a	-4.4500017
14	0xbd6b2e13	-0.057416987
15	0xc06e9383	-3.7277534
16	0xc08f89ed	-4.4855866
17	0x3dd9f252	0.10641922
18	0xc075ced7	-3.8407495
19	0xc09c8892	-4.891671
20	0x3c8315c9	0.016001599
21	0xc07509bc	-3.8287191
22	0xc096403f	-4.6953425
23	0xbe820d08	-0.25400567
24	0xc06e65c5	-3.7249615
25	0xc097574e	-4.7294073
26	0xbe26bc12	-0.1628268
27	0xc0712730	-3.7680168
28	0xc0930a04	-4.5949726
29	0xbea3be66	-0.319812
30	0xc07c76d8	-3.9447536
31	0xc0964e7a	-4.6970797
32	0xbf625626	-0.884127
33	0xc0817a2f	-4.046165
34	0xc0a83e46	-5.2576017
35	0xbf14e9fc	-0.5816953
36	0xbec91ffb	-0.39282212
37	0xbf76cf19	-0.96409756
38	0x3efbb5ad	0.49162045
39	0xbe9491c4	-0.2901746
40	0xbf6d4563	-0.92684
41	0x3f17472c	0.59092975
42	0xc011a1e8	-2.275507
43	0xc06d6dd3	-3.7098281
44	0x3f1d9c07	0.61566204
45	0xbfe3f891	-1.7810231
46	0xc028ea13	-2.6392868
47	0x3f98896a	1.1916935
48	0xc0581b7d	-3.3766778
49	0xc092e8fe	-4.5909414
50	0x3d0d5545	0.034505147
51	0xc076a2a9	-3.853678
52	0xc0948e90	-4.6424026
53	0xbe15ff7f	-0.14648245
54	0xbf5c5756	-0.86070764
55	0xc00e5703	-2.2240608
56	0x3ed7e646	0.42167872
57	0xc01f26af	-2.486736
58	0xc06febfa	-3.7487779
59	0x3eda321d	0.42616358
60	0xbe9ef5b5	-0.31046835
61	0xbfbe4625	-1.4865156
62	0x3efffbc8	0.4999678
63	0xbe938814	-0.28814757
64	0xbfc38eee	-1.5277994
65	0x3f0f7c79	0.56049305
66	0xc0818509	-4.0474896
67	0xc0a7d0f1	-5.2442555
68	0xbf964a02	-1.1741335
69	0xc085bc34	-4.179224
70	0xc0a60e3a	-5.1892366
71	0xbf3860c4	-0.7202265
72	0xbf021f9a	-0.5082947
73	0xbfd22092	-1.641619
74	0x3eeff5e9	0.46867302
75	0xbf08cc2e	-0.53436553
76	0xbf8cb13f	-1.0991591
77	0x3f117726	0.5682243
78	0xc07e20c6	-3.9707503
79	0xc0a3e178	-5.121273
80	0xbf16f5e1	-0.5896893
81	0xc079f5c8	-3.9056263
82	0xc0a0e216	-5.0275984
83	0xbeb33391	-0.3500028
84	0xbeec08e0	-0.4610052
85	0xbfd4ce48	-1.6625452
86	0x3f04de7a	0.5190197
87	0xbefd1cd4	-0.49436057
88	0xbf7ecc56	-0.9953054
89	0x3eeed1d6	0.46644467
90	0xbf59be7a	-0.8505627
91	0xc06bd4c2	-3.6848607
92	0x3ec41d40	0.38303566
93	0xc06569ce	-3.5845828
94	0xc0991656	-4.7839766
95	0xbe617228	-0.22016203
96	0xc06f4d37	-3.7390878
97	0xc08b731f	-4.357803
98	0xbf0b0fd7	-0.54321045
99	0xc062039e	-3.5314708
100	0xc093c7ec	-4.6181545
101	0x3d89a3d2	0.06720699
102	0xbf00b882	-0.50281537
103	0xbfe48225	-1.7852217
104	0x3f04aaaf	0.5182294
105	0xbf0e7105	-0.55641204
106	0xbfb24943	-1.3928608
107	0x3f069c5a	0.52582324
108	0xbefc2e98	-0.49254298
109	0xbfa36847	-1.2766198
110	0x3ef1d3ad	0.47231808
111	0xbeaffd9e	-0.34373182
112	0xbf926b94	-1.143908
113	0x3f0c5c6f	0.5482854
114	0xc088bb9b	-4.272901
115	0xc09f2583	-4.973329
116	0xbf410a0b	-0.7540595
117	0xc0819dc3	-4.050508
118	0xc09f1ffb	-4.972654
119	0xbf05e2f2	-0.52299416
120	0xc05fcf2e	-3.4970202
121	0xc0911a7a	-4.534482
122	0xbe27709e	-0.16351554
123	0xc06e2512	-3.7210126
124	0xc0913ae1	-4.5384374
125	0xbede110e	-0.43372387
126	0xbfdacc05	-1.7093512
127	0xc053d4dd	-3.3098671
128	0x3ef47fdc	0.477538
129	0xbf5680ad	-0.83790094
130	0xc017ad8b	-2.3699672
131	0x3f170ec9	0.59006935
132	0xbecf1ada	-0.40450174
133	0xbfad969a	-1.3561585
134	0x3f19a883	0.60022753
135	0xbedae28a	-0.4275096
136	0xbf5d965e	-0.8655757
137	0x3eea480e	0.45758098
138	0xc04c304d	-3.190448
139	0xc087f535	-4.2486825
140	0x3eb57d94	0.3544737
141	0xc0462ea6	-3.0965972
142	0xc086ddf9	-4.2145963
143	0x3dadf159	0.08493299
144	0xbeca896d	-0.39557973
145	0xbf9402ad	-1.1563317
146	0x3ef19f93	0.47192058
147	0xbe8fe9c5	-0.2810804
148	0xbf8e3466	-1.1109741
149	0x3f2339aa	0.63759863
150	0xbf1e018d	-0.61721116
151	0xbfa4430a	-1.2832959
152	0x3eeff22b	0.46864447
153	0xbefae9be	-0.49006456
154	0xbf8b82ac	-1.0899253
155	0x3f1350a3	0.57544917
156	0xbf5ae54e	-0.8550614
157	0xbfdc013d	-1.7187878
158	0x3ee6f538	0.45108962
159	0xbf4c9be8	-0.79925394
160	0xbff59fa3	-1.9189342
161	0x3f0b0305	0.5430148
162	0xc06d4f1c	-3.7079535
163	0xc09b30ca	-4.8497057
164	0xbf2684ac	-0.6504619
165	0xc07a3349	-3.9093802
166	0xc09dff86	-4.937442
167	0xbee24743	-0.44194993
168	0xc0817c6a	-4.0464373
169	0xc0a29040	-5.0801086
170	0xbf5da7d9	-0.8658424
171	0xc081081f	-4.0322413
172	0xc0a14f13	-5.0409026
173	0xbf1df521	-0.6170216
174	0xbf2ff2b2	-0.687297
175	0xbf9248bd	-1.1428448
176	0x3f0cb1c5	0.54958755
177	0xbf3630a5	-0.71167976
178	0xbfa0c4c7	-1.2560052
179	0x3ed301c8	0.41212296
180	0xbf3f8380	-0.7481003
181	0xbfc64e10	-1.5492573
182	0x3f0f19dc	0.55898833
183	0xbf866ac8	-1.0501337
184	0xbfb989e0	-1.4495201
185	0x3f0b3d92	0.54390824
186	0xbeb6be18	-0.35691905
187	0xbf998932	-1.1994994
188	0x3ed6e080	0.41968155
189	0xbf280a11	-0.6564036
190	0xbf75b5fd	-0.9598082
191	0x3f004147	0.50099605
192	0xbf0a733d	-0.5408209
193	0xbfa2fce1	-1.2733423
194	0x3f0f05fb	0.558685
195	0xbf22a459	-0.63532025
196	0xbfca9a51	-1.5828344
197	0x3f0867ae	0.532832
198	0xbf1e320d	-0.6179512
199	0xbf9fc31e	-1.248142
200	0x3f000cba	0.5001942
201	0xbf15b6e2	-0.5848218
202	0xbfc2a4da	-1.5206559
203	0x3ee3a456	0.44461316
204	0xbf44349f	-0.76642793
205	0xbff3799c	-1.9021487
206	0x3f0a43a8	0.54009485
207	0xbf17f46a	-0.5935732
208	0xbf9eb147	-1.2397851
209	0x3ed72626	0.42021292
210	0xbfa180cb	-1.261743
211	0xc00b8997	-2.1802728
212	0x3f1f0b87	0.62126964
213	0xbfeaad4f	-1.833414
214	0xc057fa3c	-3.374648
215	0x3f0168a0	0.5055027
216	0xc0857059	-4.1699643
217	0xc0a04a30	-5.009056
218	0xbf817873	-1.0114883
219	0xc0822ecb	-4.068212
220	0xc09f25d4	-4.9733677
221	0xbf283f3a	-0.65721476
222	0xbf0e05ea	-0.55477774
223	0xbf8e69e7	-1.1126069
224	0x3f162286	0.5864643
225	0xbed7c9ca	-0.4214614
226	0xbfb551d0	-1.4165592
227	0x3edf7777	0.43645832
228	0xbf9baca6	-1.2162063
229	0xc02a7e7c	-2.66397
230	0x3eb6bc14	0.35690367
231	0xbe15a6f6	-0.14614472
232	0xbfd73d46	-1.6815574
233	0x3f163fec	0.5869129
234	0xbf7f5914	-0.997453
235	0xc0088c38	-2.1335583
236	0x3ee590b7	0.4483697
237	0xbf9b342b	-1.2125295
238	0xbfcd8d0d	-1.605867
239	0x3f02f5d1	0.51156336
240	0xc07833f3	-3.8781707
241	0xc0995ee4	-4.7928333
242	0xbe2b3cce	-0.16722414
243	0xc07b11c1	-3.9229586
244	0xc095af56	-4.6776533
245	0xbe904b49	-0.28182438
246	0xc05d0eda	-3.4540315
247	0xc0937118	-4.6075554
248	0x3dff81c1	0.124759205
249	0xc0706acd	-3.7565186
250	0xc0991ad3	-4.7845244
251	0xbe888f88	-0.26672006
252	0xc04ce135	-3.2012455
253	0xc08f0a53	-4.4700103
254	0x3eb59741	0.3546696
255	0xc06a3a8f	-3.6598241

bayes_fc1.bias_mu f4 [64]
0	0xbca33186	-0.019921076
1	0xbc2c08ff	-0.010500192
2	0x3ca99440	0.020700574
3	0x3ca7c6d0	0.020480543
4	0x3c138609	0.009004124
5	0xbbab2b49	-0.005223666
6	0x3cc8a06d	0.02449056
7	0xbd92e2f0	-0.07172191
8	0xbcaac620	-0.020846426
9	0xbcd5198b	-0.026013156
10	0xbd5656ff	-0.05232906
11	0xbc762606	-0.015023714
12	0xbc0f9160	-0.008762687
13	0x3bf14fa0	0.0073642284
14	0xbac430c8	-0.0014968151
15	0xbcb883d5	-0.0225238
16	0x3cf18269	0.02948113
17	0xbbe06930	-0.006848477
18	0x3c26beb2	0.010177301
19	0x3cf81cb4	0.030287124
20	0xbd02408e	-0.031799845
21	0xbd58ec39	-0.052959654
22	0xbd398107	-0.045289066
23	0x3cfa6119	0.030563878
24	0xbcb40009	-0.021972673
25	0xbc99f39e	-0.018792924
26	0x3c9022bb	0.017594686
27	0x3cdfcff7	0.027320845
28	0x3c35c78b	0.011094938
29	0xbd133edf	-0.03594863
30	0xbc98ea33	-0.018666362
31	0xbd15923b	-0.03651641
32	0xbd395940	-0.04525113
33	0xbc84228b	-0.016129753
34	0x3c804a97	0.015660567
35	0xbc317f8c	-0.010833632
36	0xbca17dce	-0.019713309
37	0xbd0a2a7e	-0.03373193
38	0xbc61327c	-0.013744947
39	0xbc065972	-0.008200036
40	0x3a9ea4db	0.0012103574
41	0xbc71d22a	-0.01475958
42	0xbca64c51	-0.020300062
43	0x3b5830e9	0.0032988137
44	0x3bd07073	0.0063610612
45	0xbcdc78ce	-0.026913073
46	0x3c17fd1d	0.0092766555
47	0xbc3000e1	-0.010742397
48	0xbc6403b4	-0.0139168985
49	0x39ddf56e	0.00042335264
50	0xbc0b29ca	-0.00849385
51	0x3ca2b7af	0.019862978
52	0x3cc6f380	0.024286032
53	0x3a6bada4	0.0008990413
54	0x3c862b5a	0.016378094
55	0x3cdc58a1	0.02689773
56	0xbcf82618	-0.030291602
57	0xbc135b06	-0.00899387
58	0xbd867579	-0.06565375
59	0x3c748df2	0.0149264205
60	0xbc8b31c2	-0.0169915
61	0x3b71072a	0.0036777952
62	0xbbd32c2f	-0.006444476
63	0x3d31fdf4	0.04345508

bayes_fc1.bias_rho f4 [64]
0	0xbdf57715	-0.11985604
1	0xbfbd48c1	-1.4787828
2	0xbf929a57	-1.1453351
3	0xbfafafe0	-1.3725548
4	0xbfb7f1ef	-1.4370707
5	0xbfe75805	-1.8073736
6	0xbddf85ee	-0.10914217
7	0xbec113b0	-0.37710333
8	0xbfa82b58	-1.3138227
9	0xbf146e74	-0.5798104
10	0xbe383d0b	-0.17992036
11	0xc000e37a	-2.013884
12	0xbe43c1ad	-0.1911685
13	0xbfd35313	-1.6509727
14	0xbe82dce3	-0.25559148
15	0xbf816a1a	-1.0110505
16	0xbfb6def8	-1.4286795
17	0xbe5c6fa6	-0.21526965
18	0xbe4e73c6	-0.20161352
19	0xbfe4f0a4	-1.7885938
20	0xbfb15d32	-1.3856566
21	0xbeff4fdf	-0.49865624
22	0xbde6cd52	-0.112696305
23	0xbf78bde1	-0.9716473
24	0xbde6e0d5	-0.11273352
25	0xbe2b0895	-0.16702493
26	0xbebd7c67	-0.37008974
27	0xbfdaad00	-1.7084045
28	0xbfecbb89	-1.8494731
29	0xbe8514d8	-0.25992465
30	0xbea53111	-0.32263997
31	0xbe6c77a8	-0.2309252
32	0xbe866b93	-0.26253948
33	0xbea0ad38	-0.31382155
34	0xbe80d547	-0.25162718
35	0xbf0f3b3c	-0.5594976
36	0xbffb337b	-1.9625086
37	0xbe177e32	-0.14794233
38	0xbe9ea6fe	-0.3098678
39	0xbee1a8a4	-0.44073975
40	0xbfaf7d4c	-1.3710113
41	0xbfaeb646	-1.3649375
42	0xbf921638	-1.1413031
43	0xbe83e548	-0.25760865
44	0xbdc8cbfa	-0.098045304
45	0xbe61b65b	-0.2204222
46	0xbed7036f	-0.41994807
47	0xbf3fe39a	-0.7495667
48	0xbe3af949	-0.18259157
49	0xbe330823	-0.17483573
50	0xbe9c1d2a	-0.30491
51	0xbeb8abf6	-0.36068696
52	0xbe53218f	-0.2061827
53	0xbffad642	-1.9596636
54	0xbe368c74	-0.17827016
55	0xbfd3c261	-1.6543695
56	0xbfe9a99f	-1.8254889
57	0xbfef8709	-1.8713084
58	0xbf44fcee	-0.7694844
59	0xbf305257	-0.6887564
60	0xbe3fac64	-0.18718106
61	0xc002b029	-2.042002
62	0xbfcb5397	-1.5884885
63	0xbeafc6ab	-0.3433126

bayes_fc1.prior_mu_old_bias f4 [64]
0	0xbca33186	-0.019921076
1	0xbc2c08ff	-0.010500192
2	0x3ca99440	0.020700574
3	0x3ca7c6d0	0.020480543
4	0x3c138609	0.009004124
5	0xbbab2b49	-0.005223666
6	0x3cc8a06d	0.02449056
7	0xbd92e2f0	-0.07172191
8	0xbcaac620	-0.020846426
9	0xbcd5198b	-0.026013156
10	0xbd5656ff	-0.05232906
11	0xbc762606	-0.015023714
12	0xbc0f9160	-0.008762687
13	0x3bf14fa0	0.0073642284
14	0xbac430c8	-0.0014968151
15	0xbcb883d5	-0.0225238
16	0x3cf18269	0.02948113
17	0xbbe06930	-0.006848477
18	0x3c26beb2	0.010177301
19	0x3cf81cb4	0.030287124
20	0xbd02408e	-0.031799845
21	0xbd58ec39	-0.052959654
22	0xbd398107	-0.045289066
23	0x3cfa6119	0.030563878
24	0xbcb40009	-0.021972673
25	0xbc99f39e	-0.018792924
26	0x3c9022bb	0.017594686
27	0x3cdfcff7	0.027320845
28	0x3c35c78b	0.011094938
29	0xbd133edf	-0.03594863
30	0xbc98ea33	-0.018666362
31	0xbd15923b	-0.03651641
32	0xbd395940	-0.04525113
33	0xbc84228b	-0.016129753
34	0x3c804a97	0.015660567
35	0xbc317f8c	-0.010833632
36	0xbca17dce	-0.019713309
37	0xbd0a2a7e	-0.03373193
38	0xbc61327c	-0.013744947
39	0xbc065972	-0.008200036
40	0x3a9ea4db	0.0012103574
41	0xbc71d22a	-0.01475958
42	0xbca64c51	-0.020300062
43	0x3b5830e9	0.0032988137
44	0x3bd07073	0.0063610612
45	0xbcdc78ce	-0.026913073
46	0x3c17fd1d	0.0092766555
47	0xbc3000e1	-0.010742397
48	0xbc6403b4	-0.0139168985
49	0x39ddf56e	0.00042335264
50	0xbc0b29ca	-0.00849385
51	0x3ca2b7af	0.019862978
52	0x3cc6f380	0.024286032
53	0x3a6bada4	0.0008990413
54	0x3c862b5a	0.016378094
55	0x3cdc58a1	0.02689773
56	0xbcf82618	-0.030291602
57	0xbc135b06	-0.00899387
58	0xbd867579	-0.06565375
59	0x3c748df2	0.0149264205
60	0xbc8b31c2	-0.0169915
61	0x3b71072a	0.0036777952
62	0xbbd32c2f	-0.006444476
63	0x3d31fdf4	0.04345508

bayes_fc1.prior_sigma_small_bias f4 [64]
0	0x3f229043	0.63501376
1	0x3e523ec4	0.20531756
2	0x3e8d6aab	0.27620444
3	0x3e67540f	0.2259066
4	0x3e5a4f1f	0.21319245
5	0x3e1b94d6	0.15193495
6	0x3f23db42	0.64006436
7	0x3f05b34b	0.52226704
8	0x3e73c716	0.23806414
9	0x3ee3ae3e	0.44468874
10	0x3f1b734b	0.607228
11	0x3e004a35	0.12528308
12	0x3f1a24cf	0.60212415
13	0x3e33baf0	0.1755178
14	0x3f12d095	0.5734952
15	0x3e9edfdf	0.31030175
16	0x3e5bf6e6	0.21480903
17	0x3f175f09	0.5912939
18	0x3f18f00c	0.5974128
19	0x3e1e5063	0.15460353
20	0x3e64a131	0.22327115
21	0x3ef2fcbe	0.47458452
22	0x3f236d40	0.6383858
23	0x3ea455b1	0.32096627
24	0x3f236c19	0.6383682
25	0x3f1cf54b	0.6131179
26	0x3f066ead	0.5251263
27	0x3e2a7cfe	0.16649243
28	0x3e159d14	0.14610702
29	0x3f1254ca	0.5716063
30	0x3f0b76ea	0.54478323
31	0x3f159705	0.5843356
32	0x3f120a3c	0.57046866
33	0x3f0c6a48	0.5484967
34	0x3f134219	0.5752273
35	0x3ee7703b	0.45202813
36	0x3e06a07d	0.13147159
37	0x3f1f3574	0.6219094
38	0x3f0cd7cc	0.5501678
39	0x3efe650e	0.49686474
40	0x3e67a5ef	0.22621892
41	0x3e68e910	0.22745156
42	0x3e8dea68	0.277179
43	0x3f1296eb	0.5726153
44	0x3f253410	0.64532566
45	0x3f16c883	0.58899707
46	0x3f014b74	0.5050576
47	0x3ec6262e	0.38701004
48	0x3f1b23ac	0.60601306
49	0x3f1c0b2b	0.6095454
50	0x3f0d617b	0.5522687
51	0x3f076b1d	0.52897817
52	0x3f186989	0.59536034
53	0x3e06fc7c	0.13182253
54	0x3f1ba489	0.60797936
55	0x3e332bcc	0.17497176
56	0x3e18fca7	0.14940129
57	0x3e129a4a	0.14316669
58	0x3ec2e608	0.38066125
59	0x3ed0593d	0.40693083
60	0x3f1a9b26	0.6039299
61	0x3df9e1e4	0.12201288
62	0x3e3e4dd3	0.18584375
63	0x3f094143	0.53615206

bayes_fc1.prior_mu_old f4 [64, 6]
0	0xbf517020	-0.81811714
1	0xbf4fa577	-0.81111854
2	0xbe9b44b3	-0.3032585
3	0xbf60c846	-0.87805593
4	0xbf1d0157	-0.6133017
5	0xbe1a9d17	-0.15098988
6	0x3f0e449c	0.5557344
7	0xbdaf0c26	-0.08547239
8	0x4023c02c	2.5586042
9	0xbec274e6	-0.3797981
10	0x3dcc20c3	0.09967186
11	0xbf3c45b7	-0.73543876
12	0xbec66a3e	-0.3875293
13	0x3e4db813	0.2008975
14	0xbfb35841	-1.4011308
15	0x3ebe5f79	0.37182215
16	0xbe14f6ed	-0.1454732
17	0x3f6b4416	0.91900766
18	0xbebf5554	-0.37369788
19	0x3e2fd81a	0.1717228
20	0xbfc793aa	-1.5591938
21	0x3ee22c8f	0.4417462
22	0xbdf73321	-0.12070299
23	0x3ec9acea	0.39389735
24	0xbeba346d	-0.36368123
25	0x3e477b00	0.19480515
26	0xbfdf896a	-1.746381
27	0x3ed3c18d	0.41358605
28	0xbe0b72e2	-0.13618043
29	0x3f054bf8	0.52069044
30	0x3e97aa8d	0.29622307
31	0xbdea9b7e	-0.11455439
32	0x401a4643	2.4105384
33	0xbea6787c	-0.32513797
34	0x3e307c92	0.1723502
35	0xbeac2c48	-0.33627534
36	0xbf34086c	-0.7032535
37	0xbf32dcae	-0.6986798
38	0xbe543dd2	-0.20726708
39	0xbf367a94	-0.7128079
40	0xbf35bf7c	-0.70995307
41	0xbe84106e	-0.25793785
42	0xbef41889	-0.4767497
43	0x3e72a047	0.23693953
44	0xbf3f2aa6	-0.7467445
45	0xbec6fa38	-0.38862777
46	0xbea9f6ea	-0.33196193
47	0x3f19405b	0.59863824
48	0xbe9b94c8	-0.3038695
49	0x3db71c8f	0.08940994
50	0xbff4f2d6	-1.9136608
51	0x3f04c8bf	0.51868814
52	0xbe051d3b	-0.12999432
53	0x3eabe09a	0.33569795
54	0xbf4234df	-0.75861925
55	0xbe677e7f	-0.22606848
56	0xbee72791	-0.45147374
57	0xbe68ba7b	-0.22727387
58	0x3da48765	0.08033637
59	0x3cc6897e	0.024235483
60	0xbf1e3ea7	-0.6181435
61	0xbf03fe44	-0.51559854
62	0xbd86c020	-0.06579614
63	0xbf1757a4	-0.59118104
64	0xbe9e3002	-0.30896002
65	0xbdcaf815	-0.09910599
66	0xbe6acaf2	-0.2292898
67	0x3db4eaf8	0.08833879
68	0xc029b3f9	-2.6516097
69	0x3ef5a15e	0.47974676
70	0xbd87eacf	-0.06636583
71	0xbf26da3b	-0.65176743
72	0xbf245343	-0.6418955
73	0xbeb8f2b7	-0.36122677
74	0xbe252b43	-0.16129784
75	0xbf2c3ccb	-0.6728026
76	0xbf347724	-0.70494294
77	0xbdb4817a	-0.08813758
78	0x3ef904b1	0.48636392
79	0xbdf90d18	-0.121607006
80	0x3fe2b20f	1.7710589
81	0xbec0207e	-0.3752479
82	0x3e288143	0.1645556
83	0xbf72916d	-0.9475315
84	0xbf149f80	-0.5805588
85	0xbedf8cf6	-0.43662232
86	0xbe7c741d	-0.24653669
87	0xbf346fb3	-0.7048294
88	0xbf3e825c	-0.7441766
89	0xbe48b17c	-0.19598955
90	0xbf82a489	-1.0206462
91	0xbe39d9b7	-0.18149458
92	0xbf89aaee	-1.0755289
93	0xbdb38b9f	-0.08766865
94	0x3ce5d6e5	0.028056571
95	0x3f217ea6	0.63083875
96	0x3ebf87e1	0.37408355
97	0xbe00f057	-0.12591682
98	0x404925da	3.1429353
99	0xbebcc634	-0.36869967
100	0x3e28c353	0.1648076
101	0xbe30fec8	-0.17284691
102	0xbf14d3c9	-0.5813566
103	0xbea70705	-0.32622543
104	0xbe061611	-0.13094355
105	0xbf396e63	-0.7243406
106	0xbef791d0	-0.48353434
107	0xbe00c72e	-0.12575981
108	0xbf408c0a	-0.7521368
109	0xbef8f751	-0.48626187
110	0xbe1e7594	-0.1547454
111	0xbf4517b6	-0.76989305
112	0xbf126343	-0.5718271
113	0xbe77492f	-0.24149011
114	0x3eaad261	0.3336363
115	0xbdcb8fb6	-0.0993952
116	0x3ffc63ff	1.9718016
117	0xbec5319e	-0.38514417
118	0x3e2db0c6	0.16961965
119	0xbf2c239f	-0.67241853
120	0xbe79baea	-0.24387708
121	0x3d678887	0.056526687
122	0xbfcded9a	-1.6088135
123	0x3edd7457	0.43252823
124	0xbdc1284e	-0.09431516
125	0x3f39fd55	0.7265218
126	0xbedd7b80	-0.43258286
127	0x3dc9d5ac	0.09855208
128	0xbe99e639	-0.30058458
129	0xbf24c957	-0.6436972
130	0xbe9fbae3	-0.3119727
131	0xbdd9c3ce	-0.1063305
132	0xbf1953c9	-0.5989347
133	0xbf0bbaa8	-0.5458169
134	0xbe478548	-0.19484437
135	0xbf5fef0d	-0.8747414
136	0xbf4c4e32	-0.79806817
137	0xbd4c71e4	-0.049913302
138	0xbeb0b12c	-0.3451017
139	0x3e0d64f0	0.13808036
140	0xbf9eb3c4	-1.239861
141	0x3f0224cc	0.508374
142	0xbe03f0ba	-0.12884799
143	0x3f20b010	0.6276865
144	0xbf1d7f61	-0.6152249
145	0xbf25daf6	-0.6478723
146	0xbdcd1d90	-0.10015404
147	0xbf54cfae	-0.83129394
148	0xbf33d2f7	-0.7024378
149	0xbe06da11	-0.13169123
150	0xbf1e0302	-0.6172334
151	0xbf0926f1	-0.53575045
152	0xbde4139b	-0.11136552
153	0xbf01e522	-0.50740254
154	0xbf2fb502	-0.6863557
155	0xbd7db529	-0.061940346
156	0xbf23cc23	-0.6398336
157	0xbebff0d3	-0.37488422
158	0xbe24f486	-0.16108903
159	0xbf0e28af	-0.5553083
160	0xbe9fd5c9	-0.31217793
161	0xbe816064	-0.25268853
162	0x3ea27c4d	0.3173546
163	0xbdffd787	-0.124922805
164	0x4017c62a	2.37147
165	0xbeba2bde	-0.36361593
166	0x3e2df6f2	0.16988733
167	0xbd85f74a	-0.06541307
168	0x3eaea70a	0.34111816
169	0xbdf89f57	-0.12139767
170	0x3feebb27	1.8650864
171	0xbe9c4672	-0.30522496
172	0x3e0c18f6	0.13681397
173	0xbf22e8c1	-0.63636404
174	0xbf40dfd2	-0.7534152
175	0xbf1f95e4	-0.6233809
176	0xbe7b49d5	-0.24539883
177	0xbf3efac2	-0.74601376
178	0xbf2a7eda	-0.6659981
179	0xbe8aedd9	-0.27134588
180	0xbf24a9a9	-0.6432138
181	0xbec74b91	-0.3892484
182	0xbe522ebb	-0.20525639
183	0xbefbb312	-0.49160057
184	0xbf113c7d	-0.5673292
185	0xbe9d51a1	-0.3072634
186	0xbf36866d	-0.7129887
187	0xbf15102f	-0.5822782
188	0xbe0828ad	-0.13296767
189	0xbf15b320	-0.5847645
190	0xbf393f81	-0.72362524
191	0xbeace654	-0.33769476
192	0xbf193efd	-0.5986174
193	0xbef7841e	-0.48342985
194	0xbdc4ef01	-0.09615899
195	0xbf1dbb7b	-0.616142
196	0xbeb5a111	-0.35474446
197	0xbe33b7dc	-0.17550606
198	0xbf4cc92c	-0.79994464
199	0xbf0c8521	-0.5489064
200	0xbe53e633	-0.20693283
201	0xbf35f1d7	-0.71072143
202	0xbf0906be	-0.5352591
203	0xbe734499	-0.23756637
204	0xbef8b736	-0.4857728
205	0xbe85ae87	-0.26109716
206	0xbe08261e	-0.1329579
207	0xbf38abc5	-0.721371
208	0xbf1d4de9	-0.61447006
209	0xbde5483d	-0.11195419
210	0xbee90fe9	-0.4551995
211	0xbe902e6f	-0.28160426
212	0xbdff576d	-0.12467847
213	0xbeef2b3e	-0.4671268
214	0x3db4705a	0.08810492
215	0xbe13eb94	-0.14445335
216	0xbeda74fb	-0.42667374
217	0x3e79dc77	0.24400507
218	0xbffdfd4c	-1.9842925
219	0x3eb07994	0.34467757
220	0xbdd9e134	-0.10638657
221	0xbb4bbdbb	-0.003108843
222	0xbf611785	-0.8792651
223	0xbf32d8f4	-0.69862294
224	0xbe665dee	-0.22496769
225	0xbf370b0e	-0.71501243
226	0xbefea813	-0.49737605
227	0xbe89b1c6	-0.26893443
228	0xbf1a3879	-0.6024242
229	0x3d68b955	0.05681737
230	0xbdd9faf9	-0.10643572
231	0xbe965ded	-0.29368535
232	0xbeba8c14	-0.36434996
233	0x3d62f1f9	0.055406544
234	0xbf0baaef	-0.545577
235	0xbe855a53	-0.26045474
236	0xbe78e2e0	-0.24305296
237	0xbec5ebf4	-0.3865658
238	0xbef39a6b	-0.4757875
239	0xbe7f4477	-0.24928461
240	0xbeadf925	-0.33979145
241	0x3e2a1c55	0.1661237
242	0xbfd811c3	-1.688042
243	0x3eb85255	0.36000314
244	0xbde4dedb	-0.11175319
245	0x3f054d93	0.52071494
246	0xbea0ef2e	-0.3143248
247	0x3dfc1edc	0.123105735
248	0xc00ce251	-2.2013133
249	0x3eec4cab	0.46152243
250	0xbdcd0259	-0.100102134
251	0x3e989b7e	0.2980613
252	0xbe8f585b	-0.27997097
253	0x3db6d4b7	0.08927291
254	0xbfcd9432	-1.6060851
255	0x3f120c36	0.5704988

bayes_fc1.prior_sigma_small f4 [64, 6]
0	0x3efad572	0.4899097
1	0x3eb3bf0c	0.35106695
2	0x3f6f335c	0.93437743
3	0x3f0e4982	0.55580914
4	0x3e9a9789	0.30193737
5	0x3f828fb4	1.0200105
6	0x3ca57a71	0.020199986
7	0x3c0a6481	0.008446814
8	0x3eeca464	0.4621917
9	0x3cdb42fa	0.026765335
10	0x3c197b3a	0.009367758
11	0x3f2d0a4a	0.67593825
12	0x3ce6b5ea	0.028162915
13	0x3c3e3b8e	0.011610879
14	0x3f2a33a8	0.6648507
15	0x3cc2a901	0.023762228
16	0x3c379e90	0.011207238
17	0x3f3f6df9	0.7477718
18	0x3cae14b4	0.021250106
19	0x3bf5219a	0.0074808123
20	0x3f338088	0.70118
21	0x3cb02a50	0.021504551
22	0x3c150865	0.00909624
23	0x3f12fdf6	0.57418764
24	0x3cc332ad	0.023827875
25	0x3c10103c	0.008792933
26	0x3f1d7389	0.6150442
27	0x3cbb10b2	0.02283511
28	0x3c24b057	0.010051808
29	0x3f0bc4d3	0.54597205
30	0x3c9d0c96	0.01917104
31	0x3c14c67b	0.009080525
32	0x3eb1087e	0.34576792
33	0x3c8e08b7	0.01733814
34	0x3baa34a9	0.005194266
35	0x3ee3559b	0.4440125
36	0x3f041228	0.51590204
37	0x3ea56620	0.32304478
38	0x3f7807d1	0.96886927
39	0x3f0efd06	0.55854833
40	0x3eaabc84	0.3334695
41	0x3f840cd1	1.0316411
42	0x3dc84c99	0.09780235
43	0x3cc62383	0.024186855
44	0x3f8618af	1.0476283
45	0x3e1f6d98	0.1556915
46	0x3d8d441e	0.06897758
47	0x3fba7bdc	1.4569049
48	0x3d0995ea	0.033590235
49	0x3c2559c8	0.010092206
50	0x3f35e683	0.7105486
51	0x3cabde39	0.020979987
52	0x3c1d18b0	0.0095884055
53	0x3f1f61c6	0.62258565
54	0x3eb49146	0.35267085
55	0x3dd25923	0.10270908
56	0x3f6d11a3	0.92605036
57	0x3da3a3b7	0.079902105
58	0x3cbea833	0.023273563
59	0x3f6dc34a	0.9287611
60	0x3f0cc726	0.54991376
61	0x3e50c7b1	0.20388676
62	0x3f795bcc	0.97405696
63	0x3f0f35e8	0.5594163
64	0x3e491ce3	0.19639926
65	0x3f818e6f	1.0121592
66	0x3c8dd8fe	0.017315384
67	0x3bac7c8c	0.0052638706
68	0x3e89e595	0.2693297
69	0x3c78f1c6	0.015194362
70	0x3bb63723	0.005560772
71	0x3ecb04a8	0.3965199
72	0x3ef120d0	0.47095346
73	0x3e354736	0.17702946
74	0x3f7466bf	0.9546928
75	0x3eec27c6	0.46124095
76	0x3e933926	0.28754538
77	0x3f822fed	1.0170876
78	0x3c990e72	0.018683646
79	0x3bc2fdeb	0.0059506795
80	0x3ee1dee4	0.44115365
81	0x3ca340fc	0.019928448
82	0x3bd61400	0.006533146
83	0x3f088ba8	0.533381
84	0x3efa5b5e	0.48897833
85	0x3e31d4f3	0.1736639
86	0x3f7c67c6	0.98595846
87	0x3ef3d1c6	0.47620982
88	0x3ea1099c	0.31452644
89	0x3f740cf7	0.9533228
90	0x3eb61dde	0.35569662
91	0x3ccb1620	0.024790823
92	0x3f672408	0.90289354
93	0x3ce0378c	0.027370237
94	0x3c0871c3	0.008327904
95	0x3f16d01a	0.5891129
96	0x3cc07de9	0.023497539
97	0x3c507d4b	0.012725185
98	0x3eea7c9a	0.45798188
99	0x3cec45d4	0.02884189
100	0x3c20eef4	0.009822596
101	0x3f3a3154	0.7273152
102	0x3ef22f05	0.47301498
103	0x3e1ecf32	0.15508726
104	0x3f7c474e	0.985463
105	0x3ee80373	0.45315132
106	0x3e632861	0.22183372
107	0x3f7d7fa7	0.99022907
108	0x3ef42c16	0.47689885
109	0x3e7bf7a5	0.24606188
110	0x3f74f9c8	0.95693636
111	0x3f0935dc	0.5359781
112	0x3e8d97d6	0.27654904
113	0x3f80905c	1.0044055
114	0x3c62d61d	0.013844994
115	0x3be1f9d7	0.0068962383
116	0x3ec5697d	0.38557044
117	0x3c8d6c7e	0.017263647
118	0x3be220c7	0.00690088
119	0x3eee507a	0.46545774
120	0x3cf46e96	0.029837888
121	0x3c2ee760	0.010675281
122	0x3f1d5ece	0.61472785
123	0x3cc3f60e	0.023921039
124	0x3c2e378f	0.010633363
125	0x3effcde6	0.49961776
126	0x3e2a56f2	0.1663473
127	0x3d12ec5b	0.035869937
128	0x3f75ccb2	0.96015465
129	0x3eb810d1	0.3595033
130	0x3db706f5	0.08936874
131	0x3f83faac	1.0310874
132	0x3f02debb	0.5112111
133	0x3e6abee5	0.22924383
134	0x3f84d138	1.0376348
135	0x3f008767	0.5020661
136	0x3eb3d3f9	0.3512266
137	0x3f72a898	0.94788504
138	0x3d253031	0.040329162
139	0x3c685b9c	0.014181998
140	0x3f62d17c	0.886009
141	0x3d35167b	0.044210892
142	0x3c705b14	0.014670152
143	0x3f3c8c41	0.7365151
144	0x3f03c960	0.5147915
145	0x3e8c1042	0.27356154
146	0x3f74e9bc	0.9566915
147	0x3f0ffcc0	0.5624504
148	0x3e91b7de	0.28460592
149	0x3f87ed28	1.0619249
150	0x3edce37d	0.4314231
151	0x3e7a7ae6	0.24460945
152	0x3f746599	0.95467526
153	0x3ef4a765	0.47783962
154	0x3e9468a6	0.2898609
155	0x3f82c740	1.0217056
156	0x3eb56da7	0.3543522
157	0x3e28dd5c	0.16490692
158	0x3f71a461	0.9439145
159	0x3ebe1f3b	0.37133202
160	0x3e0c3ae7	0.13694344
161	0x3f802304	1.0010686
162	0x3cc6818d	0.024231697
163	0x3bff98aa	0.0078001814
164	0x3ed6fcbb	0.41989693
165	0x3ca2a5ef	0.019854514
166	0x3bea3414	0.0071473215
167	0x3efe26f7	0.49639103
168	0x3c8dfee7	0.017333461
169	0x3bcb2926	0.0061999736
170	0x3eb3c99e	0.3511476
171	0x3c900213	0.017579114
172	0x3bd34208	0.0064470805
173	0x3edcec33	0.43148956
174	0x3ed09939	0.407419
175	0x3e8db985	0.27680603
176	0x3f80ab69	1.005231
177	0x3ecc746a	0.39932567
178	0x3e804df8	0.25059485
179	0x3f6b982d	0.92029077
180	0x3ec663e4	0.38748085
181	0x3e453aa6	0.19260654
182	0x3f816f0e	1.0112016
183	0x3e999cb9	0.30002382
184	0x3e57dfab	0.21081416
185	0x3f803589	1.0016338
186	0x3f07d0ab	0.5305278
187	0x3e86dc27	0.26339838
188	0x3f6cc2a2	0.92484486
189	0x3ed5f237	0.41786358
190	0x3ea60191	0.3242307
191	0x3f7985c0	0.9746971
192	0x3eeaefc6	0.45886058
193	0x3e7cb34d	0.24677773
194	0x3f8168bb	1.0110086
195	0x3ed9a8a0	0.42511463
196	0x3e3f49ca	0.18680492
197	0x3f7ea0b8	0.9946399
198	0x3edcc182	0.43116385
199	0x3e81331f	0.25234315
200	0x3f796508	0.97419786
201	0x3ee2c2d3	0.44289264
202	0x3e4a6bca	0.19767681
203	0x3f70a169	0.9399629
204	0x3ec364ff	0.3816299
205	0x3e0e722f	0.13910745
206	0x3f7fcd0e	0.99922264
207	0x3ee12988	0.43976998
208	0x3e822834	0.25421298
209	0x3f6cd7a6	0.92516553
210	0x3e7f4f45	0.24932583
211	0x3ddb46d3	0.10706868
212	0x3f869019	1.0512725
213	0x3e17dd53	0.14830522
214	0x3d09dc49	0.033657346
215	0x3f7a3dd1	0.97750574
216	0x3c7b3e1c	0.015334632
217	0x3bda1243	0.006655009
218	0x3e9ed090	0.31018496
219	0x3c8af688	0.016963258
220	0x3be1f79d	0.006895973
221	0x3ed5cdea	0.41758662
222	0x3ee8518b	0.45374712
223	0x3e9182e4	0.28420174
224	0x3f83aeb8	1.0287695
225	0x3f012425	0.5044578
226	0x3e5e6016	0.21716341
227	0x3f6f5c45	0.9350017
228	0x3e84e450	0.2595544
229	0x3d89ef6d	0.0673512
230	0x3f632f1f	0.88743776
231	0x3f1f6c09	0.62274224
232	0x3e2ec0bb	0.17065708
233	0x3f83b82a	1.0290577
234	0x3ea0bdb4	0.31394732
235	0x3de53279	0.111912675
236	0x3f71378a	0.9422537
237	0x3e8552a4	0.26039612
238	0x3e3b4ec0	0.1829176
239	0x3f7b35d9	0.9812904
240	0x3ca7c080	0.020477533
241	0x3c073f08	0.008254774
242	0x3f1cef4f	0.61302656
243	0x3ca079d8	0.01958935
244	0x3c17ae25	0.009257828
245	0x3f0fe7c8	0.56213045
246	0x3cff00e7	0.03112836
247	0x3c22a3c7	0.009926743
248	0x3f41e9a1	0.75747114
249	0x3cbd3429	0.023096161
250	0x3c085eb6	0.008323362
251	0x3f119344	0.56865335
252	0x3d2372fd	0.039904583
253	0x3c3a7c4d	0.011382175
254	0x3f62d907	0.8861241
255	0x3cd02b9a	0.025411416

bayes_fc2.weight_mu f4 [1, 64]
0	0xbc96a21f	-0.018387852
1	0x3d4c57b0	0.049888313
2	0xbd1683db	-0.03674684
3	0xbd35ac44	-0.04435374
4	0xbd3130d3	-0.043259453
5	0x3d64a818	0.05582437
6	0xbd08de0e	-0.033414893
7	0xbcda330c	-0.02663567
8	0xbd24083b	-0.04004691
9	0x3d99bf7a	0.075072244
10	0x3c85aef9	0.016318785
11	0xbda9faea	-0.08299811
12	0xbdc0be96	-0.094113514
13	0x3d796a07	0.06089213
14	0x3bd693ba	0.006548372
15	0x3ebd0b02	0.3692246
16	0x3ce1b619	0.027552651
17	0xbd4b20ea	-0.049591936
18	0x3d40fa03	0.04711343
19	0x3d710dfa	0.05885122
20	0xbd8f004c	-0.069824785
21	0xbd1d5016	-0.038406454
22	0x3ca5ade3	0.020224517
23	0xbd014ed7	-0.03156933
24	0xbc916f5c	-0.017753296
25	0xbb0fa6c9	-0.002191948
26	0xbc1ddf1e	-0.009635715
27	0x3d569a9c	0.05239354
28	0x3d95dbde	0.07317327
29	0x3d5dac30	0.05411929
30	0x3d8a84f1	0.06763638
31	0x3d8d4ec7	0.06899791
32	0xbc912ae2	-0.017720643
33	0xbd28501a	-0.041092016
34	0x3a2af6e8	0.0006521777
35	0x3d64b9ae	0.05584114
36	0xbd4a1d78	-0.04934451
37	0xbbfb01da	-0.007660133
38	0xbbc16206	-0.005901578
39	0x3dcb0bfc	0.09914395
40	0xbd2fe6b0	-0.04294461
41	0xbd34f381	-0.044177536
42	0xbd11b15e	-0.03556954
43	0x3ba3c61b	0.0049979812
44	0xbc03f1d3	-0.008053261
45	0xbd78c92e	-0.060738735
46	0xbd8a9c47	-0.06768089
47	0xbccc988e	-0.024975087
48	0x3d71724a	0.058946885
49	0x39a2a990	0.00031025382
50	0xbc8a44ba	-0.016878475
51	0xbc896aa3	-0.016774481
52	0xbc288f5c	-0.010288086
53	0x3d74aeba	0.059736945
54	0x3da2eb3b	0.07955023
55	0x3d56c6f5	0.052435834
56	0x3d956211	0.07294095
57	0x3d5ea900	0.05436039
58	0x3dabcad9	0.083882995
59	0x3da5ea69	0.08101351
60	0x3decc4fe	0.11561011
61	0x3d887ea2	0.06664778
62	0xbd6234fc	-0.05522631
63	0xbd0b572e	-0.034018688

bayes_fc2.weight_rho f4 [1, 64]
0	0xbf7db6c6	-0.99107015
1	0xc0bafc29	-5.8432813
2	0xc0b308be	-5.594817
3	0xc0b52bfd	-5.6616197
4	0xc0b461b0	-5.6369247
5	0xc0bad558	-5.838543
6	0xbf7a1cf4	-0.9770043
7	0xc098eae3	-4.7786727
8	0xc0b34b3f	-5.6029353
9	0xc06a887d	-3.6645806
10	0xc04f9ca0	-3.2439346
11	0xc0b4679d	-5.637648
12	0xbfd05caf	-1.6278285
13	0xc0b61c75	-5.6909738
14	0xbfe19f71	-1.7626783
15	0xc056b055	-3.3545125
16	0xc0baf0a4	-5.841875
17	0xc01fdb0a	-2.497744
18	0xbfb5a324	-1.4190412
19	0xc0b0657a	-5.5123873
20	0xc09f47b0	-4.977501
21	0xc043d59d	-3.059913
22	0xc015079c	-2.3285894
23	0xc0b480b2	-5.64071
24	0xc00eb9a3	-2.2300804
25	0xc01d5874	-2.4585238
26	0xbd6f7c57	-0.05846819
27	0xc0b50b8a	-5.6576586
28	0xc0ba3287	-5.818668
29	0xbf043f1b	-0.5165879
30	0xbf7b0c8e	-0.9806603
31	0xbfba58ed	-1.4558388
32	0xc03381e2	-2.8048024
33	0xbf355a17	-0.7084059
34	0xc00e98ac	-2.2280684
35	0xc0840bce	-4.126441
36	0xc0b57ec5	-5.671725
37	0xbf0b2a88	-0.5436177
38	0xc08feca9	-4.497639
39	0xbed81386	-0.42202395
40	0xc0b454c6	-5.6353483
41	0xc0b2e4da	-5.590436
42	0xc0ba389f	-5.8194118
43	0xc015d465	-2.3410885
44	0xc00f27eb	-2.2368114
45	0xbf95cfa1	-1.1703988
46	0xbf9f1317	-1.2427701
47	0xc0ab417e	-5.3517447
48	0xbf979287	-1.1841592
49	0xc02fdc68	-2.7478275
50	0xc015cf5a	-2.3407807
51	0xc076dfa7	-3.8574007
52	0xbff820be	-1.9384992
53	0xc0b1242b	-5.535665
54	0xbf0216fe	-0.50816333
55	0xc0b366c5	-5.606295
56	0xc0b537d9	-5.6630673
57	0xc0b5e360	-5.6840057
58	0xc0797491	-3.8977396
59	0xc08430c3	-4.1309524
60	0xbf467cb2	-0.7753402
61	0xc0b45a1a	-5.6359987
62	0xc0b26912	-5.575326
63	0xc0226fde	-2.5380778

bayes_fc2.prior_mu_old f4 [1, 64]
0	0xbc96a21f	-0.018387852
1	0x3d4c57b0	0.049888313
2	0xbd1683db	-0.03674684
3	0xbd35ac44	-0.04435374
4	0xbd3130d3	-0.043259453
5	0x3d64a818	0.05582437
6	0xbd08de0e	-0.033414893
7	0xbcda330c	-0.02663567
8	0xbd24083b	-0.04004691
9	0x3d99bf7a	0.075072244
10	0x3c85aef9	0.016318785
11	0xbda9faea	-0.08299811
12	0xbdc0be96	-0.094113514
13	0x3d796a07	0.06089213
14	0x3bd693ba	0.006548372
15	0x3ebd0b02	0.3692246
16	0x3ce1b619	0.027552651
17	0xbd4b20ea	-0.049591936
18	0x3d40fa03	0.04711343
19	0x3d710dfa	0.05885122
20	0xbd8f004c	-0.069824785
21	0xbd1d5016	-0.038406454
22	0x3ca5ade3	0.020224517
23	0xbd014ed7	-0.03156933
24	0xbc916f5c	-0.017753296
25	0xbb0fa6c9	-0.002191948
26	0xbc1ddf1e	-0.009635715
27	0x3d569a9c	0.05239354
28	0x3d95dbde	0.07317327
29	0x3d5dac30	0.05411929
30	0x3d8a84f1	0.06763638
31	0x3d8d4ec7	0.06899791
32	0xbc912ae2	-0.017720643
33	0xbd28501a	-0.041092016
34	0x3a2af6e8	0.0006521777
35	0x3d64b9ae	0.05584114
36	0xbd4a1d78	-0.04934451
37	0xbbfb01da	-0.007660133
38	0xbbc16206	-0.005901578
39	0x3dcb0bfc	0.09914395
40	0xbd2fe6b0	-0.04294461
41	0xbd34f381	-0.044177536
42	0xbd11b15e	-0.03556954
43	0x3ba3c61b	0.0049979812
44	0xbc03f1d3	-0.008053261
45	0xbd78c92e	-0.060738735
46	0xbd8a9c47	-0.06768089
47	0xbccc988e	-0.024975087
48	0x3d71724a	0.058946885
49	0x39a2a990	0.00031025382
50	0xbc8a44ba	-0.016878475
51	0xbc896aa3	-0.016774481
52	0xbc288f5c	-0.010288086
53	0x3d74aeba	0.059736945
54	0x3da2eb3b	0.07955023
55	0x3d56c6f5	0.052435834
56	0x3d956211	0.07294095
57	0x3d5ea900	0.05436039
58	0x3dabcad9	0.083882995
59	0x3da5ea69	0.08101351
60	0x3decc4fe	0.11561011
61	0x3d887ea2	0.06664778
62	0xbd6234fc	-0.05522631
63	0xbd0b572e	-0.034018688

bayes_fc2.prior_sigma_small f4 [1, 64]
0	0x3ea19fa6	0.31567115
1	0x3b3dbc08	0.0028951187
2	0x3b73269e	0.0037101875
3	0x3b637736	0.0034708506
4	0x3b69248b	0.003557476
5	0x3b3ea265	0.0029088494
6	0x3ea3954a	0.31949836
7	0x3c092abe	0.008372007
8	0x3b713043	0.0036802448
9	0x3ccf31e5	0.025292346
10	0x3d1cbf5d	0.038268436
11	0x3b68f976	0.003554908
12	0x3e379524	0.17927986
13	0x3b5ce591	0.0033706168
14	0x3e222869	0.15835728
15	0x3d0c9df0	0.03433031
16	0x3b3e0048	0.0028991867
17	0x3da1eac1	0.07906104
18	0x3e5de136	0.21667942
19	0x3b84001f	0.0040283347
20	0x3be109d4	0.0068676267
21	0x3d3bb396	0.045825563
22	0x3dbe6919	0.092973895
23	0x3b684374	0.0035440596
24	0x3dd125e9	0.10212309
25	0x3da82280	0.08209705
26	0x3f2a1235	0.6643403
27	0x3b645ded	0.0034846023
28	0x3b427498	0.0029671546
29	0x3eef8999	0.46784666
30	0x3ea31268	0.3184998
31	0x3e56a5a1	0.2096162
32	0x3d70ac64	0.058758155
33	0x3ecd01d8	0.4004047
34	0x3dd18c6a	0.1023186
35	0x3c832a3c	0.01601135
36	0x3b612ebe	0.0034360136
37	0x3eea68fd	0.45783225
38	0x3c356e85	0.011073713
39	0x3f01158b	0.50423497
40	0x3b698289	0.0035630784
41	0x3b74376c	0.003726448
42	0x3b424fa2	0.0029649516
43	0x3dbc2698	0.09187049
44	0x3dcfd059	0.10147161
45	0x3e8a5954	0.27021277
46	0x3e81d07c	0.25354373
47	0x3b9af304	0.0047286768
48	0x3e88b081	0.26697162
49	0x3d7e5abf	0.06209826
50	0x3dbc34c3	0.09189751
51	0x3cab3c6e	0.020902839
52	0x3e09b015	0.13446076
53	0x3b80f822	0.0039358297
54	0x3ef12748	0.47100282
55	0x3b70618a	0.0036679232
56	0x3b63231e	0.0034658383
57	0x3b5e704f	0.0033941453
58	0x3ca48897	0.020084662
59	0x3c82944b	0.015939852
60	0x3ec1f387	0.3788111
61	0x3b695bbd	0.0035607659
62	0x3b77ed77	0.003783075
63	0x3d9bc0e3	0.076051496
