models/updated_hmnn_model_2016.pth (torch, 13926 bytes, 12 tensors)

bayes_fc1.weight_mu f4 [64, 6]
000000 8b 94 c8 be 8b 8f 1c bf 29 dd 35 be 53 78 de be
       -0.3917583 -0.6115653 -0.17760147 -0.43451175
000010 9f 0e 93 be d8 56 8d be 18 08 07 3f ba 0e e8 bd
       -0.28722093 -0.2760532 0.52746725 -0.11330934
000020 6f 1d f8 3e 04 5e c5 be 46 5a b6 3d dd de 6f be
       0.48459956 -0.3854829 0.08903937 -0.2342486
000030 89 3e ad be da 4a e4 3d 2f ca 82 be c4 ed e1 3d
       -0.33836773 0.11147089 -0.2554488 0.11031678
000040 d2 31 3e be 1c dc a5 bc 23 c0 b1 be 6a cf 00 3e
       -0.18573692 -0.020246558 -0.347169 0.12579122
000050 46 2f 0a bf 95 7b db 3e 4e ff e7 bd 5a 79 9c 3c
       -0.53978384 0.42867723 -0.113279924 0.019100834
000060 ce ed bc be 3c 03 24 3e f4 9f de be 25 a4 b3 3e
       -0.3690018 0.16016859 -0.4348141 0.3508617
000070 be 4a f3 bd 02 b7 19 3c 38 86 40 3e 94 ca d6 bd
       -0.1187949 0.009382011 0.188012 -0.104878575
000080 fe 81 c8 3e 92 b8 9a be b0 a4 87 3d f5 6d 12 be
       0.39161676 -0.3021894 0.066232085 -0.14299758
000090 37 dc b9 be 43 46 e0 be 94 1d 0b be 6c 68 99 be
       -0.36300823 -0.43803605 -0.13585502 -0.2996248
0000a0 b7 e6 d8 be 78 50 1f be 67 8a fa be 76 10 e8 3d
       -0.4236352 -0.1555804 -0.48933718 0.11331265
0000b0 75 f5 6e be 5d 42 03 be 98 9c b2 be 55 2a 17 bd
       -0.23335822 -0.12818284 -0.34885097 -0.036905605
0000c0 63 5c 99 be b6 c4 ee 3d 83 b8 1c bf d2 1c ee 3e
       -0.29953298 0.116586134 -0.6121904 0.46506363
0000d0 7c e8 ef bd 78 eb b6 3d 7e d1 4e be 48 57 96 be
       -0.11714265 0.08931631 -0.20197102 -0.29363465
0000e0 52 94 c6 bc 0d 0e 89 be f8 fa 74 bd 38 7c 13 bc
       -0.024240647 -0.26768532 -0.059809655 -0.009001784
0000f0 50 78 68 be 4b 4c 89 be a9 e4 e3 bd 3a fe 96 be
       -0.22702146 -0.2681602 -0.11127598 -0.29490834
000100 fe 11 6d bd e0 18 82 bd 95 f1 5f be d9 6b 63 3d
       -0.057878487 -0.06352401 -0.218695 0.055522773
000110 af 9a 1b bf ad 8f ed 3e e3 ab cf bd ad ba a1 3c
       -0.60782903 0.46398678 -0.10140207 0.019742334
000120 4b c8 a0 be 5f 98 01 be 24 02 cd bd ea 09 92 be
       -0.3140281 -0.12655781 -0.10010174 -0.2852319
000130 d3 27 f7 be 8b 8f 35 be 69 53 fb 3e d0 b7 da bd
       -0.4827257 -0.17730539 0.49087074 -0.10679591
000140 89 30 fb 3e 0c f9 a1 be 4e d1 ee 3d 6a 04 28 be
       0.49060467 -0.3163532 0.116610155 -0.16407934
000150 3f 6f 17 be 6b cf 55 be ef a4 fd bd 97 58 f1 be
       -0.14788531 -0.20879905 -0.12384974 -0.471379
000160 3d 34 e8 be aa 61 f5 bd c6 53 f6 be 1f b8 53 be
       -0.45352355 -0.119815186 -0.4811079 -0.20675705
000170 94 1c 1a bd 0f 63 3a be 93 be 46 bc 9b 6f b0 3d
       -0.03762491 -0.1820185 -0.012130397 0.08615037
000180 ca 42 ce 3e 9d b4 0a be 40 2c 21 3f 63 24 c9 be
       0.4028533 -0.13545461 0.62958145 -0.39285573
000190 c3 1c 12 3e b5 dc 8a be 92 91 c9 be 81 25 20 be
       0.14268784 -0.2712151 -0.39368874 -0.15639307
0001a0 10 f9 16 be c6 f4 8d be f5 ce a3 be 30 b9 0b 3a
       -0.14743447 -0.2772581 -0.31993833 0.0005330024
0001b0 26 11 8b be 9f 0d 9f be c4 e7 08 be e8 9b af be
       -0.2716152 -0.3106508 -0.13369662 -0.34298635
0001c0 cb 52 9e be 50 e1 bd bd 2a 8b 9e 3e 40 b5 d8 bd
       -0.3092254 -0.092714906 0.3096555 -0.10581446
0001d0 e4 b3 1a 3f f5 07 c1 be bf e6 e8 3d 2b 66 88 be
       0.6043074 -0.37701383 0.11372136 -0.26640448
0001e0 6e 8c a3 be 7b 36 2c 3d 01 7b ee be 21 14 64 3e
       -0.31943077 0.042044144 -0.4657822 0.22273304
0001f0 ed b9 fa bd 71 0e 1f bd 89 a0 a9 be 52 ef 25 3c
       -0.12242494 -0.03883213 -0.3313029 0.010127859
000200 30 7a 2f be 64 0d b3 be fb 8d 1c be 9c 53 6e 3c
       -0.17136455 -0.34971154 -0.15288536 0.014546301
000210 11 0e b6 be fc 54 ea be 41 07 78 bd 53 0d d8 be
       -0.35557607 -0.45767963 -0.060553793 -0.42197666
000220 2e fc f1 be 9e 97 ca bd 5a ba aa be 73 a0 87 3d
       -0.4726271 -0.098922 -0.333453 0.066224
000230 d8 a1 8c be e6 88 51 3e 1a e5 67 be a1 33 4a bd
       -0.27467227 0.20462379 -0.22645989 -0.049365643
000240 93 64 18 be 08 d4 72 be 06 d4 37 be b7 46 be be
       -0.14882116 -0.23713696 -0.17951974 -0.37163326
000250 05 b2 db be 3f 6c 47 bc 36 28 88 be fc e3 a0 be
       -0.42909256 -0.012171804 -0.2659318 -0.31423938
000260 da b4 59 bc ef e5 df bd ce fb d9 be d0 e4 a5 bd
       -0.013287747 -0.10932528 -0.42574924 -0.08100283
000270 8b d8 c6 be 2d 7b 49 be 78 81 13 bd 61 c8 b5 be
       -0.38837084 -0.19675894 -0.036012143 -0.3550444
000280 b8 79 64 be 04 79 f9 bc e1 9a 87 3e 43 5b cc bd
       -0.22312057 -0.030453213 0.2648535 -0.09978344
000290 dc cc 1b 3f f2 2e a8 be 3a e9 1b 3e 02 cc 1a be
       0.60859466 -0.32848316 0.15225688 -0.15116885
0002a0 8c 1c c7 3e bc 2e a2 bd 50 e4 ff 3e 07 2c 86 be
       0.38888967 -0.0791907 0.49978876 -0.26205465
0002b0 78 87 b4 3d 5d d6 58 bd 27 3f be be 31 19 a1 be
       0.08814901 -0.052938808 -0.37157556 -0.31464532
0002c0 64 e9 b6 3c 52 1e c0 be 8e 5b cb be 03 f9 c8 bd
       0.022328086 -0.37523133 -0.39718288 -0.0981312
0002d0 f0 93 b2 be 78 e3 80 be ef 94 59 be 0b f2 c5 bd
       -0.34878492 -0.25173545 -0.2124822 -0.09665307
0002e0 0d 68 a6 be 3c ae 03 be 59 3a 84 be e5 5d e1 be
       -0.3250126 -0.12859434 -0.25825766 -0.44016948
0002f0 c5 9a d7 bd 2b 98 a5 be 01 b4 07 bf 1b 7c 9e bd
       -0.10527567 -0.32342657 -0.5300904 -0.07738515
000300 a6 77 64 be 3b 5b 8d be b6 eb 16 be 86 0c a4 be
       -0.22311267 -0.27608666 -0.14738354 -0.32040805
000310 cc 86 7d be 3a e0 a9 bc 78 74 c1 be 25 d3 9f be
       -0.24758452 -0.020736802 -0.3778417 -0.31215778
000320 eb ef 95 bd 3c 8b e1 be e4 96 92 be 56 f9 fe bd
       -0.07321151 -0.4405154 -0.28630745 -0.12449901
000330 29 88 85 be 0b 52 5d be 61 8b 89 bd 41 c4 b7 be
       -0.26080444 -0.21613328 -0.067160375 -0.35891917
000340 5c 13 ce be 70 cb 17 be 0d 86 98 ba 05 ff 5e be
       -0.40249145 -0.14823699 -0.001163663 -0.2177697
000350 05 5c 09 3e f0 61 01 bf ea 4b ad 3d ce 16 15 be
       0.13414009 -0.50540066 0.08461745 -0.1455948
000360 36 7b c9 be 2f 44 55 3e ee 6b 18 bf 3d 17 5b 3e
       -0.39351815 0.20826791 -0.5953969 0.21395583
000370 9d 9a d9 bd 02 12 2d 3e 6d 31 cc be 41 a3 cd be
       -0.10625193 0.169014 -0.3988146 -0.40163615
000380 ed c1 a9 bc dd 59 d3 be 6b 1e c9 be c5 34 4b be
       -0.020722354 -0.41279498 -0.3928102 -0.19844349
000390 a7 d5 bf be 30 89 03 3e 84 bd 2d be ec 93 28 be
       -0.3746769 0.12845302 -0.16966826 -0.16462678
0003a0 82 13 9e be aa 1d 61 bd aa 39 7e be 24 c7 4e be
       -0.30874258 -0.05495993 -0.24826685 -0.20193154
0003b0 c0 38 a7 bd 09 8e 4e be 45 c4 cd be a5 cf 95 3c
       -0.08165121 -0.2017137 -0.40188804 0.01828749
0003c0 76 d3 b8 be f6 a7 c2 3d 3e 12 00 bf 56 6a b0 3e
       -0.36098832 0.09504692 -0.50027835 0.34456128
0003d0 84 1e bf bd 02 ba 82 3d 1a 10 9f be ce e0 18 3d
       -0.09331992 0.063831344 -0.31066972 0.037323765
0003e0 06 28 86 be 7b 4b 5c 3e a4 36 ea bd d5 a4 59 3c
       -0.2620241 0.21513169 -0.11436203 0.013283928
0003f0 46 98 a3 be cb 98 b1 3d 40 c1 d3 be 2a 1c f4 3e
       -0.31952113 0.08671721 -0.41358376 0.47677737

bayes_fc1.weight_rho f4 [64, 6]
000000 d8 fc 52 bf 41 ce 94 bf b0 8a 0f 3f 72 92 43 bf
       -0.8241706 -1.1625444 0.56070995 -0.7639533
000010 da a0 e2 bf cc 81 0a 3f dc aa 21 c0 21 ce 5a c0
       -1.7705338 0.54104304 -2.5260534 -3.418831
000020 84 3f 16 3e 57 d2 14 c0 6d 4b 4c c0 b3 90 a8 3e
       0.14672667 -2.3253381 -3.1921036 0.32922897
000030 5d 88 01 c0 ef 06 34 c0 42 f3 ab 3e 6f 85 b7 bf
       -2.023948 -2.8129232 0.33584028 -1.4337596
000040 c7 0b 33 c0 60 39 5f 3e d8 cd 28 c0 22 55 63 c0
       -2.7975938 0.2179923 -2.6375637 -3.552071
000050 06 9d 59 3c 82 73 2d c0 d7 17 68 c0 e0 31 52 3d
       0.013282066 -2.710175 -3.626455 0.051317096
000060 a5 11 12 c0 90 43 4c c0 c3 f9 44 3e 7b 5f 0b c0
       -2.282327 -3.1916237 0.19235902 -2.1777027
000070 25 c8 42 c0 20 00 44 3c b6 06 e6 bf 1d db 32 c0
       -3.0434659 0.01196292 -1.7970798 -2.7946236
000080 d6 3f 8c 3e b8 3b 10 c0 2a 14 44 c0 d2 73 7f 3e
       0.27392453 -2.253645 -3.0637307 0.24946526
000090 05 89 19 bf 6c c5 c9 bf 0d 16 be 3e 74 af 2f bf
       -0.599747 -1.5763373 0.37126198 -0.68627095
0000a0 7c da cb bf 1e 0c b8 3e e6 25 b9 bf eb 67 25 c0
       -1.5926051 0.35946745 -1.4464691 -2.5844676
0000b0 e2 73 d7 3e 9d 5b 80 bf c5 91 00 c0 64 8e b5 3e
       0.420806 -1.0027958 -2.008897 0.35460198
0000c0 0c f1 24 c0 8a 58 58 c0 00 6c 79 3e f0 41 2d c0
       -2.5772123 -3.380404 0.24357605 -2.7071495
0000d0 9c a9 56 c0 7f bb d0 3d c7 09 81 bf 87 8b e9 bf
       -3.3541021 0.10192012 -1.0081109 -1.8245705
0000e0 5c df 01 3f 2a 42 b1 bf f9 2d 10 c0 2d 39 d6 3e
       0.50731444 -1.3848317 -2.252806 0.41840497
0000f0 6f 66 10 bf 8e 59 df bf a0 7e d2 3e af 83 52 bf
       -0.564063 -1.7449205 0.41112232 -0.82232183
000100 83 f5 fd bf 93 eb 0a 3f 90 33 14 c0 9a 18 4c c0
       -1.9840549 0.5426571 -2.3156471 -3.1890016
000110 11 20 95 3e 96 3a 29 c0 ba 6c 5d c0 ef f2 08 3e
       0.29126027 -2.6442008 -3.4597611 0.13373922
000120 0c 1d 86 bf 4b 0c 11 c0 f1 0a c7 3e 4b d6 65 bf
       -1.0477614 -2.2663753 0.38875535 -0.8978011
000130 30 ef b0 bf 0f 08 0f 3f 4c fc 33 c0 82 d7 6e c0
       -1.3822994 0.5587167 -2.812274 -3.7319036
000140 9f c6 71 bd 99 22 35 c0 28 66 65 c0 c0 90 b0 bd
       -0.05902731 -2.8302367 -3.5843601 -0.08621359
000150 52 f2 98 bf df 70 05 c0 b7 02 c6 3e 40 05 54 bf
       -1.194895 -2.085014 0.38673946 -0.8282051
000160 52 f4 b9 bf 57 ab ff 3e f3 fa 89 bf 6b e6 07 c0
       -1.4527686 0.4993541 -1.0779709 -2.1234386
000170 d6 25 7c 3e 17 e8 0f c0 54 4d 39 c0 df 8d 77 3e
       0.24623808 -2.2485406 -2.8953447 0.24175213
000180 dd 6a 13 c0 4a d1 56 c0 ad c5 a2 3e fb d4 26 c0
       -2.3033974 -3.356524 0.3179144 -2.6067493
000190 27 49 55 c0 53 e0 13 3e 84 d1 85 bf f8 21 05 c0
       -3.3325899 0.14441042 -1.0454564 -2.0801983
0001a0 65 7b 18 3f e3 a5 6a bf df 35 d3 bf ff cf c7 3e
       0.59563285 -0.91659373 -1.6500815 0.39025876
0001b0 37 5c 60 bf 7f 94 e6 bf 73 b0 0b 3f 4e e9 74 bf
       -0.8764071 -1.8014067 0.54566115 -0.95668495
0001c0 8c 6d da bf 46 da 99 3e 51 4a 2c c0 41 37 6e c0
       -1.7064681 0.30049342 -2.692036 -3.7221224
0001d0 a9 4d c3 3d 71 f4 28 c0 f8 31 60 c0 de 67 bf 3d
       0.09536297 -2.6399195 -3.5030499 0.09345983
0001e0 4d 3b f4 bf b7 0f 42 c0 ca 71 8c 3e 23 b2 05 c0
       -1.9080597 -3.0322092 0.27430564 -2.0889976
0001f0 9c c2 44 c0 c8 16 45 3e 44 48 bd bf 31 79 29 c0
       -3.074378 0.19246972 -1.4787679 -2.648022
000200 d9 8f c7 3e 9c 7c 98 bf 9e 26 17 c0 3f 51 e8 3e
       0.38976935 -1.1913028 -2.361732 0.45374486
000210 2c 2d 20 bf b2 ca ce bf 81 0a f7 3e 84 4f e1 be
       -0.62568927 -1.6155608 0.482502 -0.44005978
000220 39 8f 9d bf 42 e3 f0 3e 82 fc e6 bf 5c c9 2b c0
       -1.2309333 0.47048384 -1.8045809 -2.684165
000230 b2 e2 fa 3e 65 5d d1 bf 5c 02 1f c0 5e f0 cd 3e
       0.4900108 -1.6356627 -2.484519 0.40222448
000240 ad e7 2b bf 39 c6 f4 bf a8 d0 25 3f e2 a1 f0 be
       -0.67150384 -1.9122993 0.6477151 -0.46998507
000250 e8 54 b3 bf 4f bd 02 3f b0 13 54 bf 9e fb c8 bf
       -1.4010286 0.5107011 -0.8284254 -1.5701787
000260 2c dd 07 3f d9 cc 50 bf 60 a2 a4 bf 8d b2 dc 3e
       0.53071856 -0.8156257 -1.2862053 0.43104973
000270 37 37 8f bf cf 26 1b c0 ad 9d be 3e ac e2 97 bf
       -1.1188725 -2.4242437 0.37229672 -1.186605
000280 44 1f 10 c0 5b c6 b6 3e 0e d8 30 c0 44 a8 6c c0
       -2.2519083 0.35698208 -2.763187 -3.69777
000290 21 40 95 be 38 ac 3e c0 9b 38 7a c0 40 69 0d be
       -0.2915049 -2.9792614 -3.909705 -0.13809681
0002a0 9a 1e 4b c0 42 36 7a c0 35 c0 6f be c3 41 3c c0
       -3.1737428 -3.9095616 -0.23413165 -2.9415138
0002b0 57 17 7b c0 4b ab 87 bd da 6a 76 bf d3 05 d8 bf
       -3.9232996 -0.066244684 -0.9625679 -1.6876777
0002c0 9c fc e6 3e 09 32 41 bf 8c 2c d8 bf 76 f4 4c 3e
       0.451146 -0.7546697 -1.6888595 0.2001513
0002d0 cf c6 86 bf 3a 49 07 c0 52 65 03 3f e4 bf bf bf
       -1.0529422 -2.1138444 0.5132648 -1.4980435
0002e0 31 b9 dc bf 0d dd 93 3e cc 3c 5a bf e7 1f d0 bf
       -1.7244016 0.28879586 -0.8524902 -1.6259736
0002f0 d4 d9 d8 3e af f0 59 bf eb 81 a7 bf f8 9c 12 3f
       0.4235369 -0.8513288 -1.3086523 0.57270765
000300 8a f7 61 bf ae 1f f1 bf 5d 3f de 3e e9 8b 62 bf
       -0.8826834 -1.8837793 0.43407717 -0.88494736
000310 66 ec 02 c0 3e 48 f7 3e cc 55 47 bf 2f ab e0 bf
       -2.0456786 0.48297304 -0.7786529 -1.7552241
000320 9e b3 1f 3f 1e 9f 5d bf c2 1d dc bf 0d b2 74 3e
       0.6238345 -0.8657092 -1.7196581 0.23896046
000330 53 d0 64 bf 81 94 07 c0 17 23 fd 3e 10 df 21 bf
       -0.8938038 -2.118439 0.49440834 -0.6323099
000340 08 ef bc bf 0a ac eb 3e 40 b1 9b bf a6 b5 16 c0
       -1.4760447 0.46029693 -1.2163467 -2.354837
000350 97 b0 b1 3e 48 f2 b1 bf 97 0e 22 c0 90 a9 93 3e
       0.3470504 -1.3902063 -2.5321405 0.28840303
000360 64 4e 20 c0 67 83 59 c0 63 56 f0 3d 8a ea 21 c0
       -2.5047846 -3.3986452 0.11735227 -2.5299401
000370 06 aa 54 c0 d6 db f0 3d 52 55 4a bf 42 49 d0 bf
       -3.3228774 0.117606804 -0.7903644 -1.6272357
000380 49 1a cf 3e cf c0 3d bf 4e 85 cb bf 19 e1 f6 3e
       0.4044974 -0.7412233 -1.5900056 0.4821861
000390 3d e1 a6 bf 50 74 1b c0 b5 7f f1 3e d6 60 7c bf
       -1.3037487 -2.4289742 0.47167745 -0.9858526
0003a0 ff 5b 04 c0 85 b2 d8 3e d0 bc b7 bf 9f 05 14 c0
       -2.068115 0.423237 -1.4354496 -2.312843
0003b0 b4 fb 9e 3e 92 e7 d5 bf c3 f2 e0 bf dc 25 5e 3e
       0.3105141 -1.6711295 -1.7574085 0.2169413
0003c0 e8 c5 1b c0 70 c2 45 c0 9c 55 32 3e fe 92 10 c0
       -2.4339542 -3.0899925 0.1741547 -2.2589717
0003d0 0f 31 56 c0 75 f4 3b 3e 39 84 f7 bf 58 bf 32 c0
       -3.3467443 0.18354972 -1.9337226 -2.7929287
0003e0 e2 8f 9e 3e 9f 0b dd bf de 42 28 c0 36 90 8e 3e
       0.3096915 -1.7269171 -2.6290812 0.278444
0003f0 8d 15 03 c0 0c 95 3f c0 a4 d5 90 3e 0a d8 0b c0
       -2.0481904 -2.993472 0.28287995 -2.185061

bayes_fc1.bias_mu f4 [64]
000000 c5 ee 06 bd 24 8b 4d bb aa 8c 86 3b 5b 52 04 bd
       -0.032942552 -0.0031363452 0.004106124 -0.032305103
000010 47 a6 25 bc ee 3a 16 3c d9 52 61 bc 22 ab 1a bc
       -0.010110444 0.009169323 -0.013752663 -0.009440215
000020 fb 7b b5 bc 39 19 24 bb 51 a3 ec bb 72 e3 d4 bc
       -0.022153845 -0.0025039448 -0.0072216173 -0.02598736
000030 ec 86 cc bb ce 14 ec bb 2a 8b 4b 3c fa e5 a5 bc
       -0.00624167 -0.0072046285 0.012423316 -0.020251263
000040 ba af a4 bc 25 d7 b0 bc c6 cc 13 bd 04 44 b2 3a
       -0.020103324 -0.021586964 -0.03608396 0.0013600593
000050 d8 c2 09 bd c8 30 3a bc 20 b1 e8 bc d8 a1 83 bc
       -0.033633083 -0.011364169 -0.028404772 -0.016068384
000060 5a 88 67 3c c3 a9 f7 b9 54 75 a1 3a 6e e9 11 39
       0.01413163 -0.00047237994 0.0012318292 0.00013915237
000070 57 1a 2e 3d 36 18 2a bb 6c 7b 90 ba 03 b3 97 bb
       0.04250559 -0.0025954372 -0.0011023111 -0.004629494
000080 b9 20 50 bb 58 87 37 bc 37 d4 0b bc bc d0 0e 3c
       -0.0031757785 -0.011201702 -0.008534483 0.008716758
000090 79 9d 6a bc e1 95 f7 ba a9 70 18 bc 38 da ba bc
       -0.014319771 -0.0018889272 -0.009304204 -0.022809133
0000a0 38 42 4e bd a0 50 74 3b a5 8e 15 3c ca 1a 21 bd
       -0.05035612 0.0037279502 0.009128247 -0.03933219
0000b0 13 76 e1 bb 8c af 4a bc 3e a5 28 bc 52 64 dc bc
       -0.0068805306 -0.012370955 -0.010293303 -0.026903305
0000c0 20 53 2b bd a0 40 ef bb 32 c0 cc bc eb 85 6c bc
       -0.04182732 -0.007301405 -0.02499399 -0.014436225
0000d0 e0 5a b9 bc 6d e4 8b bc f5 b2 2c bb e6 c5 c3 bc
       -0.02262634 -0.017076695 -0.0026351784 -0.023898076
0000e0 07 b5 cc bb 05 0d 35 bb 6c 52 1c bc ec 92 35 3c
       -0.006247166 -0.0027626168 -0.009541135 0.011082392
0000f0 88 28 a9 bc db 3d e1 3c 2d c1 f9 bc 89 34 d1 bc
       -0.02064921 0.027495315 -0.030487621 -0.025537746

bayes_fc1.bias_rho f4 [64]
000000 f1 73 55 be 6f 32 63 bf e7 08 45 bf 7c 91 93 bf
       -0.2084501 -0.8874883 -0.7696671 -1.1528773
000010 68 9b 77 bf 00 d2 58 bf 2d 0c a8 be 3f aa 0d bf
       -0.96721506 -0.84695435 -0.3282179 -0.553379
000020 fb d8 80 bf 5a 57 f4 be e8 43 95 be a5 0c 73 bf
       -1.0066217 -0.47722894 -0.2915337 -0.9494117
000030 3c 40 e1 be 18 13 96 bf 86 b1 bc be f5 97 3c bf
       -0.4399432 -1.1724577 -0.3685419 -0.7366937
000040 c3 92 5f bf 90 3f b4 be e0 65 c3 be 7a 8b 8d bf
       -0.87333316 -0.35204744 -0.38163662 -1.105819
000050 2b 81 5b bf 64 c4 fb be 61 d7 3a be 72 1f 2b bf
       -0.8574397 -0.49173272 -0.18246223 -0.66844857
000060 4b a6 71 be 14 81 92 be 3e da 14 bf 7e b5 ab bf
       -0.23598592 -0.28614104 -0.5814551 -1.3414762
000070 24 8a aa bf de 5a dc be 21 24 00 bf b1 c1 97 be
       -1.3323407 -0.43038076 -0.5005513 -0.29639962
000080 03 b0 c1 be a9 9e cc be cb 4a a4 be c4 83 27 bf
       -0.378296 -0.39964798 -0.32088313 -0.65435433
000090 b1 04 83 bf 51 25 b4 be 60 35 f5 be d7 bc 26 bf
       -1.0235807 -0.3518472 -0.47892284 -0.65131897
0000a0 61 28 62 bf 0b fe 47 bf ba ba 55 bf 7c 9d d6 be
       -0.88342863 -0.78122014 -0.8348805 -0.41917026
0000b0 ac 21 a5 be a3 be a0 be 1e 58 1a bf ea c3 59 bf
       -0.32252252 -0.31395444 -0.60290706 -0.85064566
0000c0 db 99 c2 be de b3 c4 be b3 91 ee be d1 19 0e bf
       -0.38008007 -0.38418478 -0.46595535 -0.5550814
0000d0 6e 3f a6 be 96 a8 9c bf f0 2f f5 be cc 39 7f bf
       -0.32470268 -1.2238948 -0.47888136 -0.99697566
0000e0 3b 81 65 bf 96 88 6d bf 1c 90 41 bf 73 75 e6 be
       -0.89650315 -0.9278654 -0.7561052 -0.45011482
0000f0 1e 68 9f be d0 ac 47 bf 3a 27 8c bf 4e 11 eb be
       -0.31134123 -0.77998066 -1.0949471 -0.4591164

bayes_fc1.prior_mu_old_bias f4 [64]
000000 c5 ee 06 bd 24 8b 4d bb aa 8c 86 3b 5b 52 04 bd
       -0.032942552 -0.0031363452 0.004106124 -0.032305103
000010 47 a6 25 bc ee 3a 16 3c d9 52 61 bc 22 ab 1a bc
       -0.010110444 0.009169323 -0.013752663 -0.009440215
000020 fb 7b b5 bc 39 19 24 bb 51 a3 ec bb 72 e3 d4 bc
       -0.022153845 -0.0025039448 -0.0072216173 -0.02598736
000030 ec 86 cc bb ce 14 ec bb 2a 8b 4b 3c fa e5 a5 bc
       -0.00624167 -0.0072046285 0.012423316 -0.020251263
000040 ba af a4 bc 25 d7 b0 bc c6 cc 13 bd 04 44 b2 3a
       -0.020103324 -0.021586964 -0.03608396 0.0013600593
000050 d8 c2 09 bd c8 30 3a bc 20 b1 e8 bc d8 a1 83 bc
       -0.033633083 -0.011364169 -0.028404772 -0.016068384
000060 5a 88 67 3c c3 a9 f7 b9 54 75 a1 3a 6e e9 11 39
       0.01413163 -0.00047237994 0.0012318292 0.00013915237
000070 57 1a 2e 3d 36 18 2a bb 6c 7b 90 ba 03 b3 97 bb
       0.04250559 -0.0025954372 -0.0011023111 -0.004629494
000080 b9 20 50 bb 58 87 37 bc 37 d4 0b bc bc d0 0e 3c
       -0.0031757785 -0.011201702 -0.008534483 0.008716758
000090 79 9d 6a bc e1 95 f7 ba a9 70 18 bc 38 da ba bc
       -0.014319771 -0.0018889272 -0.009304204 -0.022809133
0000a0 38 42 4e bd a0 50 74 3b a5 8e 15 3c ca 1a 21 bd
       -0.05035612 0.0037279502 0.009128247 -0.03933219
0000b0 13 76 e1 bb 8c af 4a bc 3e a5 28 bc 52 64 dc bc
       -0.0068805306 -0.012370955 -0.010293303 -0.026903305
0000c0 20 53 2b bd a0 40 ef bb 32 c0 cc bc eb 85 6c bc
       -0.04182732 -0.007301405 -0.02499399 -0.014436225
0000d0 e0 5a b9 bc 6d e4 8b bc f5 b2 2c bb e6 c5 c3 bc
       -0.02262634 -0.017076695 -0.0026351784 -0.023898076
0000e0 07 b5 cc bb 05 0d 35 bb 6c 52 1c bc ec 92 35 3c
       -0.006247166 -0.0027626168 -0.009541135 0.011082392
0000f0 88 28 a9 bc db 3d e1 3c 2d c1 f9 bc 89 34 d1 bc
       -0.02064921 0.027495315 -0.030487621 -0.025537746

bayes_fc1.prior_sigma_small_bias f4 [64]
000000 ea 26 18 3f db 87 b0 3e 74 de c2 3e c4 7c 8c 3e
       0.5943438 0.3447865 0.38060343 0.2743894
000010 73 f5 a4 3e 9c ab b6 3e 9e dd 0a 3f 72 94 e8 3e
       0.32218513 0.35677803 0.5424441 0.45425755
000020 fb 7a 9f 3e 0b 29 f7 3e eb d6 0e 3f 57 7c a7 3e
       0.31148514 0.482735 0.5579669 0.3271205
000030 f2 8d fe 3e 7a 19 8a 3e 23 98 06 3f 08 46 c8 3e
       0.4971767 0.26972562 0.5257589 0.3911593
000040 a5 a7 b2 3e 4c 54 08 3f 97 3a 05 3f 8e 5f 92 3e
       0.34893528 0.53253627 0.52042526 0.28588527
000050 b8 10 b5 3e 61 54 f4 3e 87 27 1b 3f 22 d9 d3 3e
       0.35364318 0.47720626 0.6060719 0.41376597
000060 75 04 15 3f 48 6e 0f 3f e5 60 e3 3e 02 d8 6d 3e
       0.58209926 0.5602765 0.44409862 0.23226932
000070 2d ca 6f 3e 31 3d 00 3f f2 9e f2 3e be 4e 0e 3f
       0.23416968 0.5009337 0.4738689 0.555889
000080 82 93 05 3f 3a 5e 03 3f 4c a7 0b 3f 04 4e d6 3e
       0.52178204 0.51315653 0.5455215 0.41856396
000090 bd 2b 9d 3e b8 59 08 3f 13 d4 f6 3e 39 d6 d6 3e
       0.30697432 0.532619 0.48208675 0.41960314
0000a0 42 23 b1 3e ff 00 c1 3e 7f 88 b8 3e ac 5f 01 3f
       0.34597212 0.37696072 0.36041638 0.5053661
0000b0 26 7a 0b 3f 9b 66 0c 3f 87 77 df 3e 9c 1a b6 3e
       0.5448326 0.54844064 0.4364588 0.35567176
0000c0 ff 63 05 3f e3 f6 04 3f d1 60 f9 3e 06 43 e8 3e
       0.52105707 0.5193922 0.48706678 0.45363635
0000d0 2a 3e 0b 3f 9f fe 83 3e 27 d6 f6 3e 91 ce a0 3e
       0.5439173 0.25780198 0.4821026 0.31407598
0000e0 5e 30 af 3e 6b 96 aa 3e c3 13 c5 3e 44 85 fc 3e
       0.3421659 0.33317885 0.3849164 0.49320424
0000f0 f5 ae 0c 3f 0a 34 c1 3e 54 c3 93 3e 2c bb fa 3e
       0.54954463 0.37735015 0.2885996 0.48970926

bayes_fc1.prior_mu_old f4 [64, 6]
000000 8b 94 c8 be 8b 8f 1c bf 29 dd 35 be 53 78 de be
       -0.3917583 -0.6115653 -0.17760147 -0.43451175
000010 9f 0e 93 be d8 56 8d be 18 08 07 3f ba 0e e8 bd
       -0.28722093 -0.2760532 0.52746725 -0.11330934
000020 6f 1d f8 3e 04 5e c5 be 46 5a b6 3d dd de 6f be
       0.48459956 -0.3854829 0.08903937 -0.2342486
000030 89 3e ad be da 4a e4 3d 2f ca 82 be c4 ed e1 3d
       -0.33836773 0.11147089 -0.2554488 0.11031678
000040 d2 31 3e be 1c dc a5 bc 23 c0 b1 be 6a cf 00 3e
       -0.18573692 -0.020246558 -0.347169 0.12579122
000050 46 2f 0a bf 95 7b db 3e 4e ff e7 bd 5a 79 9c 3c
       -0.53978384 0.42867723 -0.113279924 0.019100834
000060 ce ed bc be 3c 03 24 3e f4 9f de be 25 a4 b3 3e
       -0.3690018 0.16016859 -0.4348141 0.3508617
000070 be 4a f3 bd 02 b7 19 3c 38 86 40 3e 94 ca d6 bd
       -0.1187949 0.009382011 0.188012 -0.104878575
000080 fe 81 c8 3e 92 b8 9a be b0 a4 87 3d f5 6d 12 be
       0.39161676 -0.3021894 0.066232085 -0.14299758
000090 37 dc b9 be 43 46 e0 be 94 1d 0b be 6c 68 99 be
       -0.36300823 -0.43803605 -0.13585502 -0.2996248
0000a0 b7 e6 d8 be 78 50 1f be 67 8a fa be 76 10 e8 3d
       -0.4236352 -0.1555804 -0.48933718 0.11331265
0000b0 75 f5 6e be 5d 42 03 be 98 9c b2 be 55 2a 17 bd
       -0.23335822 -0.12818284 -0.34885097 -0.036905605
0000c0 63 5c 99 be b6 c4 ee 3d 83 b8 1c bf d2 1c ee 3e
       -0.29953298 0.116586134 -0.6121904 0.46506363
0000d0 7c e8 ef bd 78 eb b6 3d 7e d1 4e be 48 57 96 be
       -0.11714265 0.08931631 -0.20197102 -0.29363465
0000e0 52 94 c6 bc 0d 0e 89 be f8 fa 74 bd 38 7c 13 bc
       -0.024240647 -0.26768532 -0.059809655 -0.009001784
0000f0 50 78 68 be 4b 4c 89 be a9 e4 e3 bd 3a fe 96 be
       -0.22702146 -0.2681602 -0.11127598 -0.29490834
000100 fe 11 6d bd e0 18 82 bd 95 f1 5f be d9 6b 63 3d
       -0.057878487 -0.06352401 -0.218695 0.055522773
000110 af 9a 1b bf ad 8f ed 3e e3 ab cf bd ad ba a1 3c
       -0.60782903 0.46398678 -0.10140207 0.019742334
000120 4b c8 a0 be 5f 98 01 be 24 02 cd bd ea 09 92 be
       -0.3140281 -0.12655781 -0.10010174 -0.2852319
000130 d3 27 f7 be 8b 8f 35 be 69 53 fb 3e d0 b7 da bd
       -0.4827257 -0.17730539 0.49087074 -0.10679591
000140 89 30 fb 3e 0c f9 a1 be 4e d1 ee 3d 6a 04 28 be
       0.49060467 -0.3163532 0.116610155 -0.16407934
000150 3f 6f 17 be 6b cf 55 be ef a4 fd bd 97 58 f1 be
       -0.14788531 -0.20879905 -0.12384974 -0.471379
000160 3d 34 e8 be aa 61 f5 bd c6 53 f6 be 1f b8 53 be
       -0.45352355 -0.119815186 -0.4811079 -0.20675705
000170 94 1c 1a bd 0f 63 3a be 93 be 46 bc 9b 6f b0 3d
       -0.03762491 -0.1820185 -0.012130397 0.08615037
000180 ca 42 ce 3e 9d b4 0a be 40 2c 21 3f 63 24 c9 be
       0.4028533 -0.13545461 0.62958145 -0.39285573
000190 c3 1c 12 3e b5 dc 8a be 92 91 c9 be 81 25 20 be
       0.14268784 -0.2712151 -0.39368874 -0.15639307
0001a0 10 f9 16 be c6 f4 8d be f5 ce a3 be 30 b9 0b 3a
       -0.14743447 -0.2772581 -0.31993833 0.0005330024
0001b0 26 11 8b be 9f 0d 9f be c4 e7 08 be e8 9b af be
       -0.2716152 -0.3106508 -0.13369662 -0.34298635
0001c0 cb 52 9e be 50 e1 bd bd 2a 8b 9e 3e 40 b5 d8 bd
       -0.3092254 -0.092714906 0.3096555 -0.10581446
0001d0 e4 b3 1a 3f f5 07 c1 be bf e6 e8 3d 2b 66 88 be
       0.6043074 -0.37701383 0.11372136 -0.26640448
0001e0 6e 8c a3 be 7b 36 2c 3d 01 7b ee be 21 14 64 3e
       -0.31943077 0.042044144 -0.4657822 0.22273304
0001f0 ed b9 fa bd 71 0e 1f bd 89 a0 a9 be 52 ef 25 3c
       -0.12242494 -0.03883213 -0.3313029 0.010127859
000200 30 7a 2f be 64 0d b3 be fb 8d 1c be 9c 53 6e 3c
       -0.17136455 -0.34971154 -0.15288536 0.014546301
000210 11 0e b6 be fc 54 ea be 41 07 78 bd 53 0d d8 be
       -0.35557607 -0.45767963 -0.060553793 -0.42197666
000220 2e fc f1 be 9e 97 ca bd 5a ba aa be 73 a0 87 3d
       -0.4726271 -0.098922 -0.333453 0.066224
000230 d8 a1 8c be e6 88 51 3e 1a e5 67 be a1 33 4a bd
       -0.27467227 0.20462379 -0.22645989 -0.049365643
000240 93 64 18 be 08 d4 72 be 06 d4 37 be b7 46 be be
       -0.14882116 -0.23713696 -0.17951974 -0.37163326
000250 05 b2 db be 3f 6c 47 bc 36 28 88 be fc e3 a0 be
       -0.42909256 -0.012171804 -0.2659318 -0.31423938
000260 da b4 59 bc ef e5 df bd ce fb d9 be d0 e4 a5 bd
       -0.013287747 -0.10932528 -0.42574924 -0.08100283
000270 8b d8 c6 be 2d 7b 49 be 78 81 13 bd 61 c8 b5 be
       -0.38837084 -0.19675894 -0.036012143 -0.3550444
000280 b8 79 64 be 04 79 f9 bc e1 9a 87 3e 43 5b cc bd
       -0.22312057 -0.030453213 0.2648535 -0.09978344
000290 dc cc 1b 3f f2 2e a8 be 3a e9 1b 3e 02 cc 1a be
       0.60859466 -0.32848316 0.15225688 -0.15116885
0002a0 8c 1c c7 3e bc 2e a2 bd 50 e4 ff 3e 07 2c 86 be
       0.38888967 -0.0791907 0.49978876 -0.26205465
0002b0 78 87 b4 3d 5d d6 58 bd 27 3f be be 31 19 a1 be
       0.08814901 -0.052938808 -0.37157556 -0.31464532
0002c0 64 e9 b6 3c 52 1e c0 be 8e 5b cb be 03 f9 c8 bd
       0.022328086 -0.37523133 -0.39718288 -0.0981312
0002d0 f0 93 b2 be 78 e3 80 be ef 94 59 be 0b f2 c5 bd
       -0.34878492 -0.25173545 -0.2124822 -0.09665307
0002e0 0d 68 a6 be 3c ae 03 be 59 3a 84 be e5 5d e1 be
       -0.3250126 -0.12859434 -0.25825766 -0.44016948
0002f0 c5 9a d7 bd 2b 98 a5 be 01 b4 07 bf 1b 7c 9e bd
       -0.10527567 -0.32342657 -0.5300904 -0.07738515
000300 a6 77 64 be 3b 5b 8d be b6 eb 16 be 86 0c a4 be
       -0.22311267 -0.27608666 -0.14738354 -0.32040805
000310 cc 86 7d be 3a e0 a9 bc 78 74 c1 be 25 d3 9f be
       -0.24758452 -0.020736802 -0.3778417 -0.31215778
000320 eb ef 95 bd 3c 8b e1 be e4 96 92 be 56 f9 fe bd
       -0.07321151 -0.4405154 -0.28630745 -0.12449901
000330 29 88 85 be 0b 52 5d be 61 8b 89 bd 41 c4 b7 be
       -0.26080444 -0.21613328 -0.067160375 -0.35891917
000340 5c 13 ce be 70 cb 17 be 0d 86 98 ba 05 ff 5e be
       -0.40249145 -0.14823699 -0.001163663 -0.2177697
000350 05 5c 09 3e f0 61 01 bf ea 4b ad 3d ce 16 15 be
       0.13414009 -0.50540066 0.08461745 -0.1455948
000360 36 7b c9 be 2f 44 55 3e ee 6b 18 bf 3d 17 5b 3e
       -0.39351815 0.20826791 -0.5953969 0.21395583
000370 9d 9a d9 bd 02 12 2d 3e 6d 31 cc be 41 a3 cd be
       -0.10625193 0.169014 -0.3988146 -0.40163615
000380 ed c1 a9 bc dd 59 d3 be 6b 1e c9 be c5 34 4b be
       -0.020722354 -0.41279498 -0.3928102 -0.19844349
000390 a7 d5 bf be 30 89 03 3e 84 bd 2d be ec 93 28 be
       -0.3746769 0.12845302 -0.16966826 -0.16462678
0003a0 82 13 9e be aa 1d 61 bd aa 39 7e be 24 c7 4e be
       -0.30874258 -0.05495993 -0.24826685 -0.20193154
0003b0 c0 38 a7 bd 09 8e 4e be 45 c4 cd be a5 cf 95 3c
       -0.08165121 -0.2017137 -0.40188804 0.01828749
0003c0 76 d3 b8 be f6 a7 c2 3d 3e 12 00 bf 56 6a b0 3e
       -0.36098832 0.09504692 -0.50027835 0.34456128
0003d0 84 1e bf bd 02 ba 82 3d 1a 10 9f be ce e0 18 3d
       -0.09331992 0.063831344 -0.31066972 0.037323765
0003e0 06 28 86 be 7b 4b 5c 3e a4 36 ea bd d5 a4 59 3c
       -0.2620241 0.21513169 -0.11436203 0.013283928
0003f0 46 98 a3 be cb 98 b1 3d 40 c1 d3 be 2a 1c f4 3e
       -0.31952113 0.08671721 -0.41358376 0.47677737

bayes_fc1.prior_sigma_small f4 [64, 6]
000000 e2 32 ba 3e d3 4d 8b 3e f5 92 81 3f fc cb c3 3e
       0.36366946 0.27207813 1.0122973 0.38241565
000010 d3 fb 20 3e 53 f4 7f 3f 24 91 9d 3d 39 ff 03 3d
       0.15721063 0.99982184 0.07693699 0.03222582
000020 3d ea 44 3f aa 00 bf 3d a1 eb 24 3d 3b 0a 5f 3f
       0.7691992 0.093262985 0.040263776 0.87124985
000030 db 29 fe 3d 52 c8 6e 3d 90 06 60 3f ff f5 5a 3e
       0.12410327 0.05829651 0.87510014 0.21382903
000040 33 5d 72 3d c9 dd 4e 3f 61 80 8d 3d d0 85 e7 3c
       0.059170913 0.8080717 0.06909252 0.028262049
000050 c4 26 33 3f 37 e7 83 3d 5a 24 d7 3c 39 19 38 3f
       0.69981027 0.06440585 0.026262451 0.71913487
000060 7b 00 c7 3d 7f ff 24 3d f8 3f 4b 3f ce cf db 3d
       0.097168885 0.040282723 0.79394484 0.10732995
000070 28 be 3e 3d 44 fb 32 3f e3 12 1d 3e 65 10 73 3d
       0.046568066 0.6991465 0.15339236 0.059341807
000080 d3 e6 56 3f 2f 83 cc 3d 9a 00 3b 3d 11 5d 53 3f
       0.8394596 0.09985959 0.04565487 0.82563883
000090 2c 0a e0 3e c8 6c 40 3e 54 5a 65 3f 3d c6 d0 3e
       0.4375776 0.18791497 0.89590955 0.40776244
0000a0 1e 97 3d 3e 04 92 63 3f e2 77 58 3e 90 f1 94 3d
       0.18514678 0.8889468 0.21139482 0.07272637
0000b0 1b ef 6c 3f 62 01 a0 3e 7d e4 00 3e 6c d6 62 3f
       0.92552346 0.31251055 0.12587161 0.8860843
0000c0 49 fd 95 3d 14 15 09 3d 6c 84 52 3f 4d 4a 84 3d
       0.07323701 0.033467367 0.8223331 0.06459484
0000d0 75 ac 0c 3d df d2 3e 3f c5 46 9f 3e 12 1e 19 3e
       0.034344155 0.74540514 0.3110868 0.14952877
0000e0 e7 87 7a 3f 7a cc 64 3e 01 ad cc 3d 29 90 6c 3f
       0.9786362 0.22343627 0.099939354 0.9240747
0000f0 ee 96 e6 3e 5d d7 24 3e bb 70 6b 3f cf 7c ba 3e
       0.45037025 0.1609778 0.9196889 0.36423346
000100 30 ef 03 3e 9a 1b 80 3f 19 c7 c0 3d 30 6c 25 3d
       0.12884212 1.0008423 0.09412975 0.04038638
000110 9e 6e 59 3f ca 98 8c 3d a5 91 fd 3c e0 22 43 3f
       0.84934413 0.0686508 0.030953238 0.7622509
000120 63 ed 99 3e 85 0c ca 3d 2d 03 68 3f 18 ff ae 3e
       0.30063924 0.09865669 0.90629846 0.34178996
000130 87 51 65 3e 65 69 81 3f e2 ee 6e 3d 0a dd c1 3c
       0.22394381 1.0110289 0.058333285 0.02366497
000140 6d 00 2a 3f 96 cc 6a 3d 28 44 e0 3c eb a5 26 3f
       0.664069 0.057324015 0.02737625 0.6509692
000150 26 68 87 3e 69 f4 ef 3d 78 b4 67 3f e2 91 b9 3e
       0.26446646 0.117165394 0.9050975 0.36244112
000160 05 3e 57 3e c3 42 79 3f b2 f4 95 3e c4 66 e7 3d
       0.21019752 0.97367495 0.2928825 0.11298898
000170 48 e6 52 3f 19 82 cd 3d ca 63 5c 3d 71 41 52 3f
       0.8238263 0.1003458 0.053806104 0.82131106
000180 47 0b c3 3d d2 56 0c 3d 03 5c 5d 3f 91 c6 91 3d
       0.09523635 0.034262486 0.86468524 0.07117952
000190 fc ad 0f 3d d3 98 44 3f e7 3b 9a 3e 2a 0c f1 3d
       0.035078034 0.7679569 0.30123827 0.11769898
0001a0 15 70 84 3f bf 3a ac 3e 8f e0 33 3e e9 3d 68 3f
       1.0346705 0.3363857 0.17566131 0.9071947
0001b0 18 31 b2 3e e2 71 1c 3e e4 59 80 3f 0f 73 a6 3e
       0.3480308 0.15277818 1.0027432 0.32509658
0001c0 e9 ca 2a 3e 9a c9 5a 3f 7d 3d 86 3d 11 bf c3 3c
       0.16678967 0.8546387 0.06554697 0.023894818
0001d0 6b f1 3d 3f 03 2e 8d 3d f2 fb f2 3c 1e b0 3d 3f
       0.741965 0.06893542 0.029661153 0.7409686
0001e0 79 a9 0d 3e 1e da 40 3d 03 f5 56 3f e9 0d ef 3d
       0.1383418 0.047083013 0.8396761 0.11672575
0001f0 df 10 39 3d f1 43 4b 3f 7e 3f 52 3e 1b 14 8c 3d
       0.045182105 0.79400545 0.20532033 0.06839772
000200 c9 2a 68 3f b8 d5 87 3e 78 79 b8 3d bd 0e 72 3f
       0.90690285 0.26530242 0.09007543 0.9455374
000210 2a 5f db 3e ac a7 39 3e ab 95 76 3f f5 87 fe 3e
       0.42846042 0.18130368 0.96322125 0.49713102
000220 8a 2d 83 3e c5 af 74 3f 27 fc 1b 3e 45 44 87 3d
       0.2562068 0.95580703 0.15232907 0.06604818
000230 62 c6 77 3f 2c 45 36 3e 11 fd a3 3d b0 12 6a 3f
       0.96787083 0.17799824 0.08007253 0.91434765
000240 92 51 d3 3e 26 1a 0d 3e 66 c6 88 3f 6b 95 f8 3e
       0.4127317 0.13779506 1.0685546 0.48551497
000250 c8 7f 61 3e 87 12 7b 3f 1c 89 b9 3e 10 82 41 3e
       0.22021401 0.98075145 0.3623742 0.18897271
000260 7a 49 7e 3f 5d 89 bb 3e 97 d5 79 3e 33 85 6e 3f
       0.99330866 0.36628237 0.24397884 0.93171996
000270 34 b8 90 3e a4 c1 ad 3d 78 82 65 3f 76 65 88 3e
       0.28265536 0.084842 0.89652205 0.2663991
000280 c9 d9 cc 3d 25 32 63 3f 02 98 7a 3d 5f 83 c8 3c
       0.10002477 0.8874839 0.061180122 0.024476705
000290 ba d7 0e 3f 1b 15 4b 3d 8c 98 a2 3c 0a 61 20 3f
       0.5579792 0.049580675 0.01984813 0.6264807
0002a0 28 ea 27 3d 75 9e a2 3c 1c 3a 15 3f 7f b2 52 3d
       0.040994793 0.019850949 0.5829179 0.05143976
0002b0 f9 6b a0 3c 55 1b 29 3f 80 9d a5 3e a9 c5 2d 3e
       0.019582735 0.6605733 0.32346725 0.16969933
0002c0 a2 a6 71 3f e7 4f c5 3e 56 95 2d 3e 48 58 4c 3f
       0.94394886 0.38537523 0.16951498 0.79822206
0002d0 68 3d 99 3e 7e 82 e9 3d 94 7b 7b 3f eb 9c 4e 3e
       0.29929662 0.114018425 0.9823544 0.20177047
0002e0 2a fe 27 3e 3c 12 59 3f 4c d2 b5 3e 02 e5 37 3e
       0.1640555 0.8479345 0.35512006 0.17958453
0002f0 35 5b 6d 3f d2 ff b5 3e d0 e6 74 3e c9 8d 82 3f
       0.92717296 0.35546738 0.23916173 1.0199519
000300 d5 3f b1 3e 90 e8 10 3e 87 fd 6e 3f 12 e9 b0 3e
       0.34619012 0.14151216 0.933556 0.3455282
000310 d6 04 f9 3d c1 a8 76 3f c4 6a c1 3e 81 47 23 3e
       0.121591255 0.9635125 0.37776768 0.15945245
000320 cb c6 86 3f ca ce b3 3e b0 ba 28 3e 06 db 51 3f
       1.0529417 0.35118705 0.16477466 0.8197483
000330 fe 96 af 3e 72 7f e8 3d 3f 79 78 3f 68 31 da 3e
       0.34294885 0.11352433 0.97060007 0.4261582
000340 25 c4 52 3e a9 15 73 3f 1b e0 84 3e d8 b1 b9 3d
       0.20582636 0.94954926 0.2595223 0.09067124
000350 01 b4 61 3f f7 b2 63 3e 7a a5 9c 3d 84 03 59 3f
       0.8816529 0.22236238 0.0764875 0.8477099
000360 12 d3 a0 3d 0f a5 06 3d 3f e8 40 3f 83 fa 9c 3d
       0.078527585 0.032872256 0.7535438 0.07664969
000370 b0 0e 11 3d 13 f1 40 3f c2 89 bf 3e a7 ae 37 3e
       0.035414398 0.7536785 0.37409788 0.17937718
000380 fd 6b 6a 3f 20 86 c7 3e 6a 0a 3e 3e dd 88 76 3f
       0.9157103 0.38969517 0.1855866 0.96302587
000390 c5 f8 75 3e 57 f8 ac 3d ed df 74 3f 20 59 a2 3e
       0.2402068 0.084458046 0.95654184 0.31708622
0003a0 62 cf f3 3d 54 4f 6d 3f c5 a0 5a 3e 56 4b c1 3d
       0.119047895 0.9269917 0.21350391 0.09438197
0003b0 bb 43 5c 3f 7e 6f 30 3e 2f f3 22 3e 9e b7 4e 3f
       0.8604085 0.17230031 0.1591308 0.8074893
0003c0 5c 25 ac 3d f1 42 36 3d f1 b4 48 3f 6a 7a cb 3d
       0.08405563 0.044497434 0.78401095 0.09935458
0003d0 dc b1 0d 3d 41 04 4a 3f f3 4d 0a 3e df 76 73 3d
       0.034593448 0.7891274 0.13506298 0.059439536
0003e0 a1 24 5c 3f 7f 9a 27 3e 74 aa 8e 3d 3d 8f 57 3f
       0.8599339 0.1636753 0.06966105 0.8420294
0003f0 3c 6e f8 3d 2c 49 48 3d dc 34 58 3f 7a 48 da 3d
       0.121304005 0.048897907 0.84455657 0.10658355

bayes_fc2.weight_mu f4 [1, 64]
000000 06 b1 76 bb 29 3d c0 3d 70 c2 7b bd b9 ec b6 bd
       -0.0037642135 0.093866654 -0.061464727 -0.0893187
000010 22 f2 6e bd 72 38 29 3d 14 0c f8 bc bf 47 8c bd
       -0.058336385 0.041313596 -0.030279197 -0.06849622
000020 97 07 b4 bd b2 96 1f 3d 50 e7 0f ba 52 60 92 bd
       -0.0879051 0.038962074 -0.00054894853 -0.07147278
000030 73 be 27 bd 4a a4 b8 3d af ba 0c 3d 62 ab 58 3e
       -0.04095311 0.09015711 0.034357723 0.21159127
000040 84 ed 5f 3d 63 6f a2 bb 88 c8 6e 3d c4 4d b8 3d
       0.054669872 -0.004957126 0.05829671 0.089992076
000050 a5 26 4d bd 11 8b 3e bd f4 54 0d bd e4 5d e3 bc
       -0.050085682 -0.046519343 -0.034504846 -0.027754731
000060 c2 95 9b 3a 1d 92 22 bd c0 e0 10 3e cf c4 a8 3d
       0.0011870193 -0.039690126 0.14148235 0.08240663
000070 a9 5f f1 3d b3 e9 2e bd 0c ab 57 3d 34 ad 90 3c
       0.11785824 -0.04270334 0.052653357 0.017660715
000080 51 35 26 bc a7 9d 8c bc c9 20 24 bd 11 42 c7 3c
       -0.010144548 -0.017165018 -0.04007033 0.024323495
000090 84 ca 5c bd ff d4 40 3d 06 19 41 bd 78 8d f2 3d
       -0.05390407 0.04707813 -0.047143005 0.11843389
0000a0 93 cf be bd 2e d9 5f bd 8f a8 52 bd 3a 2b 30 3b
       -0.093169354 -0.054650478 -0.05143028 0.0026881234
0000b0 76 cc 00 bd 0b 77 d5 bd fd d0 9c 3d 5e ea 93 bd
       -0.03144499 -0.10423096 0.07657049 -0.07222436
0000c0 e3 f1 3c bc 3b 98 94 bc da ff 18 3c c8 5b 8f bc
       -0.01153228 -0.018138995 0.0093383435 -0.01749982
0000d0 5d ba 83 3d a9 00 89 3d c1 cf 75 3d e5 86 9a 3d
       0.0643203 0.06689579 0.060012583 0.0754526
0000e0 7a 88 b9 3d 0d d1 86 3d f2 e7 46 3d 15 35 be 3c
       0.09059234 0.06582842 0.048561044 0.02321867
0000f0 58 5e 61 bd 12 88 a3 3d 72 38 cb bd 95 13 8a 3c
       -0.055021614 0.07984938 -0.099228755 0.01685504

bayes_fc2.weight_rho f4 [1, 64]
000000 d1 e7 6e bf 68 67 6f c0 cb 38 4b c0 db 93 74 c0
       -0.93322474 -3.7406864 -3.1753414 -3.8215244
000010 09 35 70 c0 ff a1 58 c0 c6 d6 7c bf 0f 1b 4d c0
       -3.753237 -3.3848875 -0.9876522 -3.2047765
000020 f2 c6 71 c0 c5 63 15 c0 c6 be 29 c0 fd 26 5c c0
       -3.7777677 -2.3342144 -2.652269 -3.4398797
000030 8b 73 cb bf fb 7b 6f c0 d5 8c c1 bf b7 63 82 bf
       -1.5894636 -3.7419422 -1.5121104 -1.018668
000040 bf 9b 63 c0 29 61 fd bf 55 3e 6c bf 35 ae 65 c0
       -3.556381 -1.9795276 -0.9228261 -3.5887578
000050 ca c5 49 c0 74 cd 04 c0 80 45 ce bf ae 4e 4d c0
       -3.152697 -2.0750399 -1.611496 -3.2079272
000060 84 4e 29 c0 de f8 fa bf 9b 59 da be 3d e3 72 c0
       -2.6454172 -1.9607198 -0.4264649 -3.7951195
000070 e0 59 6b c0 4a 85 54 bf ce 33 8e bf 7e 77 ab bf
       -3.6773605 -0.8301588 -1.110956 -1.3395841
000080 c9 25 07 c0 30 a7 60 bf 20 0b 06 c0 18 b1 38 c0
       -2.1116812 -0.8775511 -2.094429 -2.885809
000090 a7 1e 6f c0 05 6a 08 be c4 03 4d c0 7f 6a 0e bf
       -3.7362459 -0.13321693 -3.2033548 -0.5563125
0000a0 96 6d 60 c0 61 94 3d c0 96 f5 65 c0 6a 10 f9 bf
       -3.5066886 -2.9621813 -3.5931144 -1.9458134
0000b0 ba bd 07 c0 5f 27 9a bf f3 95 96 bf 90 fb 61 c0
       -2.120955 -1.2043265 -1.1764511 -3.5309792
0000c0 28 89 aa bf a8 5a 2d c0 19 05 1e c0 1a f6 2b c0
       -1.3323107 -2.7086582 -2.4690611 -2.6868958
0000d0 52 30 b8 bf 92 71 67 c0 8f 88 86 bf 60 40 64 c0
       -1.4389746 -3.6163068 -1.0510424 -3.5664291
0000e0 81 21 5f c0 82 b2 62 c0 9f 0a 2d c0 94 c0 39 c0
       -3.48642 -3.5421453 -2.7037733 -2.902379
0000f0 d8 85 82 bf 1f a2 52 c0 20 c0 67 c0 f6 af 0c c0
       -1.0197096 -3.291145 -3.6211014 -2.1982398

bayes_fc2.prior_mu_old f4 [1, 64]
000000 06 b1 76 bb 29 3d c0 3d 70 c2 7b bd b9 ec b6 bd
       -0.0037642135 0.093866654 -0.061464727 -0.0893187
000010 22 f2 6e bd 72 38 29 3d 14 0c f8 bc bf 47 8c bd
       -0.058336385 0.041313596 -0.030279197 -0.06849622
000020 97 07 b4 bd b2 96 1f 3d 50 e7 0f ba 52 60 92 bd
       -0.0879051 0.038962074 -0.00054894853 -0.07147278
000030 73 be 27 bd 4a a4 b8 3d af ba 0c 3d 62 ab 58 3e
       -0.04095311 0.09015711 0.034357723 0.21159127
000040 84 ed 5f 3d 63 6f a2 bb 88 c8 6e 3d c4 4d b8 3d
       0.054669872 -0.004957126 0.05829671 0.089992076
000050 a5 26 4d bd 11 8b 3e bd f4 54 0d bd e4 5d e3 bc
       -0.050085682 -0.046519343 -0.034504846 -0.027754731
000060 c2 95 9b 3a 1d 92 22 bd c0 e0 10 3e cf c4 a8 3d
       0.0011870193 -0.039690126 0.14148235 0.08240663
000070 a9 5f f1 3d b3 e9 2e bd 0c ab 57 3d 34 ad 90 3c
       0.11785824 -0.04270334 0.052653357 0.017660715
000080 51 35 26 bc a7 9d 8c bc c9 20 24 bd 11 42 c7 3c
       -0.010144548 -0.017165018 -0.04007033 0.024323495
000090 84 ca 5c bd ff d4 40 3d 06 19 41 bd 78 8d f2 3d
       -0.05390407 0.04707813 -0.047143005 0.11843389
0000a0 93 cf be bd 2e d9 5f bd 8f a8 52 bd 3a 2b 30 3b
       -0.093169354 -0.054650478 -0.05143028 0.0026881234
0000b0 76 cc 00 bd 0b 77 d5 bd fd d0 9c 3d 5e ea 93 bd
       -0.03144499 -0.10423096 0.07657049 -0.07222436
0000c0 e3 f1 3c bc 3b 98 94 bc da ff 18 3c c8 5b 8f bc
       -0.01153228 -0.018138995 0.0093383435 -0.01749982
0000d0 5d ba 83 3d a9 00 89 3d c1 cf 75 3d e5 86 9a 3d
       0.0643203 0.06689579 0.060012583 0.0754526
0000e0 7a 88 b9 3d 0d d1 86 3d f2 e7 46 3d 15 35 be 3c
       0.09059234 0.06582842 0.048561044 0.02321867
0000f0 58 5e 61 bd 12 88 a3 3d 72 38 cb bd 95 13 8a 3c
       -0.055021614 0.07984938 -0.099228755 0.01685504

bayes_fc2.prior_sigma_small f4 [1, 64]
000000 c0 cf a9 3e 1d 30 c0 3c e1 a6 27 3d 74 6c b1 3c
       0.33166313 0.023460442 0.040930633 0.02165816
000010 89 d1 bd 3c ae 7a 08 3d 13 19 a2 3e 65 e2 22 3d
       0.023171203 0.03332012 0.31659755 0.039766688
000020 39 45 b9 3c ef 63 bd 3d 32 81 8b 3d 63 4a 01 3d
       0.022616016 0.092475764 0.068117514 0.03156508
000030 7d 22 3e 3e 17 f3 bf 3c 01 ff 4b 3e 40 d6 9d 3e
       0.18567844 0.023431344 0.19921495 0.30827522
000040 78 8a e6 3c f2 7e 04 3e ea 51 ab 3e a2 4b df 3c
       0.028142199 0.12939051 0.33460933 0.027257744
000050 8c 69 2b 3d 26 39 f2 3d a9 58 3a 3e c9 61 22 3d
       0.041848704 0.118273064 0.18197884 0.039644036
000060 80 6e 8c 3d 4e da 06 3e 6f a2 00 3f 57 1e b6 3c
       0.06857014 0.13169214 0.50247854 0.022231264
000070 ae 98 cc 3c 15 44 b9 3e 75 b8 91 3e e5 3e 6e 3e
       0.024975147 0.36184755 0.28461042 0.2326618
000080 d2 fc e9 3d 0a 05 b2 3e f1 d4 ed 3d f3 71 5e 3d
       0.11425175 0.3476947 0.11612881 0.05430789
000090 84 08 c1 3c 1d f6 20 3f 8d 1c 23 3d 33 08 e8 3e
       0.02356363 0.6287554 0.03982215 0.45318756
0000a0 51 1d f2 3c 81 7e 4e 3d 7a 56 de 3c a0 bf 08 3e
       0.029554995 0.050413612 0.027140845 0.13354349
0000b0 0a f2 e7 3d ea 49 86 3e ed 9d 89 3e 26 63 ec 3c
       0.11325462 0.26228267 0.268783 0.028855871
0000c0 d2 cb 6f 3e db 18 84 3d 2c 71 a6 3d e0 e8 86 3d
       0.23417595 0.06450053 0.081270546 0.06587386
0000d0 5e ef 59 3e be 4e d9 3c dc 7d 99 3e 8f 44 e4 3c
       0.21282718 0.026526805 0.29978836 0.027864723
0000e0 79 ff f6 3c b0 cc e9 3c 33 b9 84 3d af e2 5a 3d
       0.030151116 0.028539985 0.064806364 0.05343884
0000f0 0d b2 9d 3e 57 a6 15 3d 23 48 d8 3c 0e 92 d7 3d
       0.30799904 0.036535587 0.026401585 0.105259046
