models/updated_hmnn_model_2002.pth (torch, 13926 bytes, 12 tensors)

bayes_fc1.weight_mu f4 [64, 6]
00000000: dc8c 46be daa1 e8be 9a99 1fbe fe9d 88be
00000010: 130f 4fbe 1289 cbbd 4ee5 d73e 439e f1bd
00000020: accd 873e 8336 c8be 9960 cb3d 8d9a 40be
00000030: f6dc a5be 9a1a 053e 3f15 5fbe 7b8c 233e
00000040: 727b 13be 36b2 813d c3de 9dbe 9c27 023e
00000050: 2e07 acbe fa80 cc3e f0c6 debd 1d59 22bd
00000060: 4313 b3be a428 0d3e 2cfc c4be 1dd8 643e
00000070: dfce 12be 1592 4ebd c3b0 043e 63c5 11be
00000080: a460 d73e 745e 3bbe b67a 043e 0af5 fdbd
00000090: d8dd 61be 2c8e b4be c71a 83bd e046 47be
000000a0: 2736 bcbe 3b14 bdbd 0a02 d1be 2c1d 393e
000000b0: d41b 17be b374 dcbc 2073 a2be f085 be3d
000000c0: 7a31 84be 8593 e23d d015 dbbe 7127 c43e
000000d0: 10e1 0cbe 2896 883c a878 00be 0ea9 6dbe
000000e0: c466 9c3c 3c46 34be faff 833a b54e 9b3c
000000f0: 6173 8ebe e0d3 63be e548 9cbd 40b7 8fbe
00000100: 912b d9bb 1c81 b6bd ebe3 35be 6c54 ab3c
00000110: 8886 febe 8304 d03e 7528 d5bd 2b9f 1d3c
00000120: 5c68 6dbe 3fde 47bd 06ec 96bd a89a 10be
00000130: 79dc bcbe dc43 87bd abe1 ea3e bded ebbd
00000140: d6db 813e 79e8 9ebe 01f9 043e 76fa b3bd
00000150: efac 4bbb 0ec3 cdbd 41f6 b9bc 24c5 92be
00000160: 32ac aabe c540 2fbd c23f d7be 6542 67be
00000170: fff5 143e 82d4 ecbd 3518 393d 83a5 943e
00000180: 7d51 713e cdf4 12be 7d67 003f 0bcd aabe
00000190: f732 1e3e 82f3 f8bd 2cb8 85be 9cc5 a2bd
000001a0: e75d bfbd 3b4e 18be e5f0 48be e989 163d
000001b0: 0fe2 26be f95f 5cbe 5189 f2bd f658 72be
000001c0: 9ee2 86be cd10 97bd 0b4f 823e 9e5c b0bd
000001d0: 62e7 a23e 4a71 9fbe 4b14 243e 1f84 2cbe
000001e0: 3763 6bbe 2f4f 993d b82c 88be eda6 6b3e
000001f0: eb14 e4bd fac2 c33d fb1b 92be 719a 273d
00000200: 94c8 eabd f6e7 60be d21c e9bd bc64 9b3d
00000210: 47c8 4ebe 43fb 9fbe dd30 e5bd c09b a7be
00000220: 1fa9 bbbe 91c8 a1bd 165b aebe 1414 693d
00000230: 369c 7bbe e70f 193e ce83 49be 93f9 3fba
00000240: a789 bebc 876d e8bd cb15 e8bd 4def a1be
00000250: d3c1 a6be 55bd d7bd 21dd 3bbe a8a4 7cbe
00000260: a9c5 e1bd 2bc4 ba3c 2868 afbe e557 10bd
00000270: 8929 8ebe 05df d9bd 83eb b6bc 8108 76be
00000280: ff3c fbbd 7db4 a3bc 6928 5b3e 03e0 c3bd
00000290: 6d9a fa3e 4550 a7be 58ef 403e 8e99 44bc
000002a0: 8c07 ab3e d16a 96bd 1c72 873e 8e1b 7ebe
000002b0: c76a e93d 3dfd f03d 6b3f 3dbe f9e1 9abe
000002c0: 7398 47bd 9faf 59be da5a 8dbe b634 b3bd
000002d0: b8fe 7dbe a302 10be a493 f8bd 80e3 8c3d
000002e0: b687 8fbe 1738 0bbe fcab b6bd b402 94be
000002f0: 0275 eabc bbef dabd 49db ccbe 969a a3bd
00000300: aa43 06be 89fe 2ebe 88e2 c6bd 34dd 32be
00000310: acf3 19be 38a8 133c b56c 82be ca3f 2dbe
00000320: 6cda 52bd ffe7 9bbe f08b 58be 3a60 00bd
00000330: d5c0 07be 5b86 fbbd dc6c 39be 0646 84be
00000340: 8cd8 b5be 62cb 26be f75c 813d 7b1d 2cbe
00000350: 19cc 153d 5828 d9be ce08 e73d d2e2 19bd
00000360: 39af cabe 84c4 503e 2558 c9be 26c0 1a3e
00000370: 6153 b5bd fc48 e33d 65c7 93be 66bf 8cbe
00000380: d80e e73c 1fac 98be f54f 8ebe a70b f2bd
00000390: e78e 9abe 8140 223e b7e5 99bd ddb4 94bd
000003a0: d3de 9dbe 4b46 6fbd c558 cabd 6736 06be
000003b0: 3f75 103c 25e6 9dbd 0d36 7cbe e5f2 093e
000003c0: c964 b3be e645 e83d 38d1 d1be 6394 823e
000003d0: 71c8 f3bd 6499 573d 7ff5 a2be 6be4 8a3d
000003e0: 0b44 78be e570 303e dd96 fbbd 3df6 f13c
000003f0: ce70 4fbe 1c34 243d 01e9 a4be 6a37 e23e
-0.19389671 -0.45435983 -0.15585938 -0.26683038 -0.20220594 -0.099382535 0.42167133 -0.11797764
0.26524103 -0.3910409 0.09930534 -0.18808956 -0.32395142 0.12998429 -0.21785448 0.15971558
-0.1440256 0.06332819 -0.30834016 0.12710422 -0.33599228 0.3994215 -0.10877788 -0.039635766
-0.34975633 0.13785034 -0.38473642 0.22348066 -0.14336728 -0.050432283 0.12958054 -0.14235453
0.42065918 -0.1829775 0.12937436 -0.12400253 -0.22057283 -0.3526472 -0.06401592 -0.1946063
-0.36760065 -0.09232374 -0.40821868 0.18077534 -0.1475671 -0.026911115 -0.31728458 0.0930289
-0.25818998 0.11063293 -0.4279008 0.3831134 -0.1375773 0.016673163 -0.12546027 -0.2320902
0.019091971 -0.17604917 0.0010070794 0.018958429 -0.27822402 -0.22248793 -0.07631091 -0.28069496
-0.006627508 -0.089113444 -0.17762725 0.020914279 -0.49712014 0.40628442 -0.10408107 0.009620468
-0.23184341 -0.048795935 -0.07369237 -0.14121497 -0.36886957 -0.0660474 0.45875296 -0.11519954
0.25363034 -0.31036738 0.12985612 -0.08788006 -0.0031078418 -0.10046969 -0.02270043 -0.2866603
-0.333345 -0.04278638 -0.4204083 -0.22583921 0.14546965 -0.1156397 0.0451891 0.29032525
0.23566242 -0.14351197 0.5015791 -0.3335956 0.15449129 -0.121558204 -0.26117074 -0.07947847
-0.09344082 -0.14873593 -0.19623144 0.036752615 -0.16297172 -0.21520986 -0.11842597 -0.23666748
-0.2634477 -0.07376251 0.2545093 -0.08611415 0.31817156 -0.3114112 0.16023366 -0.16847275
-0.22987066 0.07485806 -0.26596618 0.23012896 -0.11136802 0.09558673 -0.28536972 0.04091877
-0.114640385 -0.21963486 -0.1138245 0.07587573 -0.20193587 -0.31246385 -0.111909606 -0.32736015
-0.36652467 -0.07899583 -0.34053868 0.056903914 -0.24571308 0.14947473 -0.19679186 -0.0007323261
-0.023258997 -0.11349016 -0.11332282 -0.31627885 -0.3256975 -0.10534159 -0.18346073 -0.24672186
-0.11024029 0.022798618 -0.34259152 -0.035240073 -0.27766064 -0.10638241 -0.022329098 -0.24026681
-0.122674935 -0.019983524 0.21402134 -0.09564211 0.48945943 -0.32678428 0.18841302 -0.011999501
0.33404195 -0.07344592 0.26454246 -0.24815199 0.11397319 0.11767051 -0.18481223 -0.30250528
-0.04872937 -0.212584 -0.27608377 -0.08750288 -0.24804199 -0.14063506 -0.12137535 0.0687933
-0.28033227 -0.13595615 -0.08919522 -0.28908312 -0.028620247 -0.10690256 -0.4001105 -0.07988469
-0.1311175 -0.17089285 -0.09711176 -0.17467195 -0.1503436 0.009012274 -0.25473562 -0.16918865
-0.051477835 -0.30450436 -0.21147132 -0.03134177 -0.13257153 -0.12281486 -0.18107933 -0.25834674
-0.35516775 -0.16288522 0.0631656 -0.16808121 0.036571596 -0.42413592 0.11280976 -0.03756983
-0.3958681 0.20387465 -0.3932506 0.15112361 -0.08853794 0.11097905 -0.28863063 -0.27489775
0.02820532 -0.29818818 -0.27795377 -0.11818629 -0.3018715 0.15844919 -0.07514518 -0.072610594
-0.30834064 -0.058416646 -0.09880213 -0.1310669 0.008817016 -0.07709912 -0.24629994 0.13471563
-0.3503783 0.11341457 -0.40979934 0.25503835 -0.119034655 0.05263652 -0.31827924 0.067818485
-0.24244706 0.17230566 -0.12284634 0.02953636 -0.20257875 0.040088758 -0.32209018 0.44182903

bayes_fc1.weight_rho f4 [64, 6]
00000000: 7846 99bf 7555 b0bf ee17 c63e af8b 84bf
00000010: e5b6 f8bf 65a0 d03e 7c8b 16c0 5296 40c0
00000020: 2f7a 58be 639c 06c0 0d7a 3bc0 b800 03be
00000030: 44d6 0cc0 8ccc 3ac0 c016 a33c ec65 eabf
00000040: 5b88 31c0 590a e4bd 98dd 1dc0 d620 54c0
00000050: cf45 81be fc0f 2cc0 17e0 52c0 6eb1 b8be
00000060: f365 12c0 0262 41c0 ac6a 0dbe 600a 0dc0
00000070: 67e8 3bc0 3613 06bf 00bf ffbf c5b9 2dc0
00000080: 6544 36be b004 0dc0 5c3e 3cc0 fc5e 00be
00000090: 2bfb 74bf 6041 edbf 9f0b a03e c25f 87bf
000000a0: c4aa edbf 0b82 793e f459 d1bf 0ec0 27c0
000000b0: a794 8d3e a62a a2bf ecf6 05c0 0baf 323e
000000c0: d9df 1ac0 70be 41c0 cf3c 01be af3c 1dc0
000000d0: f857 42c0 2387 9cbe 905a a9bf 4b6a 10c0
000000e0: 2452 763e 64bd ecbf c770 1cc0 e6d1 893d
000000f0: 6f27 6dbf 04d3 05c0 d4ad ca3e 4406 8abf
00000100: 1450 07c0 254c e63e c8c8 15c0 ce13 3ec0
00000110: fe87 aebd 9172 18c0 3b97 47c0 8fd9 8abe
00000120: 3356 c8bf b3d5 1dc0 fbdd 563e 2496 a3bf
00000130: 14e5 dbbf f8ad a23e 42fe 2dc0 3923 50c0
00000140: 8528 e1be 5ebe 25c0 189d 4ec0 00d8 e7be
00000150: a3e4 ccbf f110 0fc0 a36c 9a3e 76b5 91bf
00000160: 924a dfbf 9bdf ad3e 5ee5 c1bf c399 1dc0
00000170: 41f9 42be 27dc 15c0 c739 39c0 b9cf eabe
00000180: 7801 08c0 f450 43c0 4c70 23be 4156 14c0
00000190: 23d1 48c0 ed30 1fbe adb6 b6bf c3f1 0dc0
000001a0: d157 a93e abe0 a1bf 1e12 f8bf 4088 a83e
000001b0: 49cd a1bf ae70 f9bf fef6 b83e c8be a1bf
000001c0: 7e5e ffbf 2786 943e 0753 1fc0 96cc 4ac0
000001d0: 637d adbe 6e14 1fc0 f591 4dc0 175f a0be
000001e0: 44a6 01c0 21e1 36c0 cf8c d2bd 6cb7 07c0
000001f0: c260 40c0 cedd 94be e673 e2bf 5e58 2bc0
00000200: 8e8b c63d e4bb b4bf 99ac 1cc0 3911 573d
00000210: 715d 58bf ae93 edbf 2ef3 ed3e f612 40bf
00000220: aea9 acbf 919d d43e 7bcb 02c0 5512 2cc0
00000230: 2b86 c23d 34a5 f9bf c083 28c0 29bc 843c
00000240: b003 a3bf b42a 0cc0 e5b3 cf3e 5afa 46bf
00000250: 329a d0bf 15e2 de3e 0423 97bf bd63 f7bf
00000260: d236 d53e b6f4 93bf 30a3 c0bf 7545 a53e
00000270: 40e6 bcbf 04e1 20c0 b519 5d3e 76da bbbf
00000280: 9743 1ac0 7521 813e be67 2dc0 c52b 54c0
00000290: ddaa 50bf 8a80 31c0 04da 5ec0 e3c8 39bf
000002a0: 0dca 32c0 01c1 5fc0 524c 37bf 2320 31c0
000002b0: 61ae 5ec0 86b9 3ebf 507a 9ebf 9305 f5bf
000002c0: 3837 c53e 0210 a7bf 32cc ecbf 6829 7abe
000002d0: 14c8 b3bf 85b0 03c0 90c7 8e3e 260d ddbf
000002e0: 26a4 01c0 b1f8 d93d d55d 9ebf b869 f4bf
000002f0: fc4e 933e ebe0 8bbf c549 bebf aa88 7a3e
00000300: 1063 a5bf 8531 01c0 76d2 9d3e 1d3f 97bf
00000310: b17d 0ac0 2b14 cb3e 6be9 94bf 609c 01c0
00000320: e9a5 2b3e acb6 9fbf 01e3 06c0 4b74 b1bd
00000330: dbc6 b1bf b7af 0ec0 4164 ab3e d85e 70bf
00000340: 475c d9bf 9f89 de3e e64d d0bf d1f4 12c0
00000350: 71c9 153e 11a3 c5bf 72b6 26c0 049c 80bc
00000360: a53c 15c0 7d04 49c0 8b58 49be 7c4f 17c0
00000370: 7ed2 4ac0 b5e4 50be 188e 8ebf eb47 f7bf
00000380: 2c5d 063e 180d 88bf 92e6 e3bf bee3 823e
00000390: ce3e d0bf 1f66 1dc0 eb03 233e 3e43 acbf
000003a0: 0401 09c0 1413 813e b545 dcbf 6d38 23c0
000003b0: c5ef b9bd 9a44 f9bf c14a f4bf 81ae d0bd
000003c0: f413 18c0 ebdc 44c0 6877 e9bd 4706 12c0
000003d0: d803 45c0 5360 26be 1433 09c0 c977 36c0
000003e0: b730 1b3d 4842 07c0 6eca 32c0 8db2 1cbe
000003f0: 3115 fbbf 0ae7 34c0 fa00 653d 533c 09c0
-1.197463 -1.377608 0.38690132 -1.0355128 -1.9430815 0.4074737 -2.3522635 -3.0091748
-0.2114036 -2.103295 -2.9293244 -0.12793243 -2.2005777 -2.9187346 0.019908309 -1.8312354
-2.7739475 -0.11134786 -2.46665 -3.3145041 -0.25248572 -2.6884756 -3.2949274 -0.36072868
-2.2874725 -3.021607 -0.13810223 -2.2037582 -2.9360597 -0.52373064 -1.9980164 -2.7144635
-0.17799528 -2.203411 -2.941306 -0.12536234 -0.9569575 -1.8535576 0.31258866 -1.0576098
-1.8567739 0.24366014 -1.6355577 -2.621097 0.27652475 -1.2669265 -2.093196 0.17449586
-2.4199126 -3.0272484 -0.12620853 -2.4568288 -3.0366192 -0.3057185 -1.3230762 -2.2564876
0.24054772 -1.8495297 -2.4443834 0.06729488 -0.92638296 -2.0910044 0.39585745 -1.0783162
-2.1142626 0.4497997 -2.3403797 -2.9699588 -0.08522032 -2.3819926 -3.1186054 -0.2711911
-1.5651306 -2.4661682 0.20983116 -1.2780194 -1.7179284 0.31773353 -2.7186437 -3.2521498
-0.43976226 -2.589744 -3.2283382 -0.45281982 -1.6007274 -2.235409 0.30161008 -1.1383502
-1.7444632 0.3395966 -1.5148122 -2.4625099 -0.19040395 -2.341562 -2.8941514 -0.45861605
-2.1250896 -3.051816 -0.15960807 -2.3177645 -3.1377647 -0.15546007 -1.4274498 -2.217881
0.3307481 -1.2646688 -1.9380529 0.3291645 -1.2640773 -1.9487512 0.3612594 -1.2636347
-1.9950712 0.290086 -2.4894426 -3.168737 -0.33884725 -2.485622 -3.2120335 -0.31322548
-2.025773 -2.8574908 -0.10280763 -2.1205702 -3.0059056 -0.29075474 -1.7691619 -2.6772685
0.09694587 -1.411984 -2.4480345 0.05250666 -0.8451758 -1.8560693 0.46474594 -0.7502893
-1.3489282 0.41526464 -2.0436695 -2.688619 0.09498247 -1.9503541 -2.6330414 0.016203003
-1.27355 -2.1901064 0.40566936 -0.77725756 -1.6297057 0.43531862 -1.1807561 -1.9327313
0.41643387 -1.1559055 -1.5049801 0.32279554 -1.4757767 -2.5137339 0.21591838 -1.4676044
-2.4103754 0.25220838 -2.709457 -3.3151715 -0.81510717 -2.7734704 -3.4820566 -0.72572154
-2.7935822 -3.496155 -0.7160083 -2.7675865 -3.4793932 -0.74501836 -1.2381077 -1.9142326
0.3851869 -1.305176 -1.8499815 -0.24429858 -1.4045434 -2.057649 0.2788663 -1.7269638
-2.0256438 0.10643137 -1.2372385 -1.9094763 0.28771198 -1.0928015 -1.4866263 0.24466196
-1.2920856 -2.0186474 0.3082463 -1.1816136 -2.1639216 0.39663824 -1.1633734 -2.0251694
0.16762508 -1.2477622 -2.1076052 -0.08664759 -1.3888811 -2.2294748 0.33474925 -0.9389472
-1.6981286 0.43464372 -1.6273773 -2.2961924 0.14627625 -1.5440389 -2.6048856 -0.015699394
-2.3318264 -3.140899 -0.19662683 -2.3642263 -3.1690974 -0.20399745 -1.1137114 -1.9318823
0.1312148 -1.0628996 -1.780474 0.25564378 -1.6269166 -2.459358 0.15919463 -1.3458021
-2.140687 0.25209868 -1.7208773 -2.550319 -0.090789355 -1.947406 -1.9085313 -0.10189534
-2.3762178 -3.0759838 -0.11399728 -2.2816331 -3.0783596 -0.16247682 -2.1437426 -2.851061
0.037888255 -2.1134205 -2.7936053 -0.15302487 -1.9615842 -2.8266015 0.055909134 -2.144307

bayes_fc1.bias_mu f4 [64]
00000000: 152e 3fbd 03ad ff3c f0f2 34bc 97cd 4fbc
00000010: d1ee 46bc e4ce a23c ecb5 15bd af4f 7cbc
00000020: 18cb 9cbc 54a0 283b 5ad0 e4bb ae1e 22bc
00000030: 5bd2 debc 141a 783c 2b82 07bd ad88 ea3c
00000040: 9f6d a63c d623 92bc 3979 bebb 362b 443c
00000050: 2b24 74bc 1c9b 81bc fc59 593c ae89 57ba
00000060: cfce a0bc 19ba cabc 02e6 913c 3167 163c
00000070: 788f d23c 5ad9 123a 3ed6 5cbc 3e35 eb3b
00000080: 87f9 a1bb ee4b 17bc f022 8cbc 945a 913c
00000090: 1b13 8bbc 3585 a6bc 5729 923c 2ec9 b1bb
000000a0: 22e5 1abc 5780 04bd 8eca 80bc b497 94ba
000000b0: aa0b 543c 3cac a0bc 6fa9 0fbc 07e2 83bc
000000c0: 8fe4 8bbb 1406 f2bb f22a 983b bba2 163c
000000d0: 807c f4ba bba0 883c dd63 93bc d9ad ab3c
000000e0: a54d 743c 6dd2 f23c 6155 663c d282 bcbc
000000f0: 7e96 9338 bd72 033c b737 3bbd 88d9 c9bc
-0.046674807 0.031210428 -0.011044249 -0.012683294 -0.012141899 0.019874044 -0.036550447 -0.015399857
-0.019139811 0.0025730329 -0.0069828453 -0.00989501 -0.027199915 0.015142936 -0.033083122 0.028629625
0.020315943 -0.017839354 -0.0058127907 0.011973193 -0.014901201 -0.015821032 0.013266083 -0.0008222115
-0.019629864 -0.024746941 0.017809872 0.009179876 0.025703177 0.0005601846 -0.013478814 0.007177978
-0.004943076 -0.009234412 -0.017106503 0.017743386 -0.016976884 -0.02032719 0.017841978 -0.005425594
-0.009454044 -0.032348957 -0.015721586 -0.0011336715 0.012942234 -0.019613378 -0.008768423 -0.01609899
-0.0042691897 -0.0073859785 0.0046437914 0.009194071 -0.0018652827 0.016678205 -0.017991954 0.02095692
0.01491109 0.029641354 0.014058442 -0.023011599 7.0375376e-05 0.008022961 -0.04570743 -0.02463986

bayes_fc1.bias_rho f4 [64]
00000000: ac34 ebbe 06d8 9cbf c845 88bf 20d9 abbf
00000010: 8691 a6bf 0768 8cbf ac4b fdbe 3c48 32bf
00000020: 0cf0 9ebf e74b 4dbf 59eb e8be 52df 9cbf
00000030: 1f04 28bf e86e babf 6945 20bf 23c1 9bbf
00000040: 0f15 9bbf 4983 1abf c86d 0cbf b625 acbf
00000050: d46a 9abf bd27 60bf db0e a6be a7a1 7abf
00000060: 99f5 edbe 8773 08bf 5baf 3bbf 3d91 d8bf
00000070: 76a1 debf b7cf 35bf 8ca0 3ebf f608 0abf
00000080: 1124 11bf 0f77 28bf 333f fcbe 833f 5cbf
00000090: 62ac a6bf 7c4f 15bf 2a82 49bf 3b0a 7fbf
000000a0: 4dba 9bbf fe43 8abf 1fdc 87bf d14a 0dbf
000000b0: 432e ffbe 9e0f 18bf fed2 40bf c148 87bf
000000c0: 6128 1cbf 77f7 0cbf 6b04 2cbf 924e 2ebf
000000d0: 953f f3be 82a7 c9bf a3c7 23bf f4ef acbf
000000e0: e230 95bf 34f5 9bbf 7a39 89bf f219 40bf
000000f0: e791 febe 0fc7 89bf 67f5 bbbf 9c86 2cbf
-0.45938623 -1.2253425 -1.0646296 -1.3425636 -1.301316 -1.0969247 -0.49471796 -0.6964147
-1.2417006 -0.8019394 -0.45492056 -1.2255652 -0.6563129 -1.4565096 -0.6260591 -1.2168316
-1.2115802 -0.60356575 -0.5485501 -1.3449008 -1.2063851 -0.87560636 -0.3243321 -0.9790291
-0.4647644 -0.5330128 -0.73314446 -1.6919323 -1.7393024 -0.7102007 -0.74463725 -0.53919923
-0.5669566 -0.6580667 -0.49266967 -0.8603441 -1.3021357 -0.5832441 -0.7871424 -0.99624985
-1.216623 -1.0802 -1.0614051 -0.55192286 -0.49839982 -0.5939883 -0.7532195 -1.0569078
-0.60999113 -0.550651 -0.6719424 -0.6808864 -0.47509447 -1.5754244 -0.63976496 -1.3510728
-1.1655543 -1.2184205 -1.0720665 -0.7503959 -0.4972069 -1.0763873 -1.4684266 -0.673929

bayes_fc1.prior_mu_old_bias f4 [64]
00000000: 152e 3fbd 03ad ff3c f0f2 34bc 97cd 4fbc
00000010: d1ee 46bc e4ce a23c ecb5 15bd af4f 7cbc
00000020: 18cb 9cbc 54a0 283b 5ad0 e4bb ae1e 22bc
00000030: 5bd2 debc 141a 783c 2b82 07bd ad88 ea3c
00000040: 9f6d a63c d623 92bc 3979 bebb 362b 443c
00000050: 2b24 74bc 1c9b 81bc fc59 593c ae89 57ba
00000060: cfce a0bc 19ba cabc 02e6 913c 3167 163c
00000070: 788f d23c 5ad9 123a 3ed6 5cbc 3e35 eb3b
00000080: 87f9 a1bb ee4b 17bc f022 8cbc 945a 913c
00000090: 1b13 8bbc 3585 a6bc 5729 923c 2ec9 b1bb
000000a0: 22e5 1abc 5780 04bd 8eca 80bc b497 94ba
000000b0: aa0b 543c 3cac a0bc 6fa9 0fbc 07e2 83bc
000000c0: 8fe4 8bbb 1406 f2bb f22a 983b bba2 163c
000000d0: 807c f4ba bba0 883c dd63 93bc d9ad ab3c
000000e0: a54d 743c 6dd2 f23c 6155 663c d282 bcbc
000000f0: 7e96 9338 bd72 033c b737 3bbd 88d9 c9bc
-0.046674807 0.031210428 -0.011044249 -0.012683294 -0.012141899 0.019874044 -0.036550447 -0.015399857
-0.019139811 0.0025730329 -0.0069828453 -0.00989501 -0.027199915 0.015142936 -0.033083122 0.028629625
0.020315943 -0.017839354 -0.0058127907 0.011973193 -0.014901201 -0.015821032 0.013266083 -0.0008222115
-0.019629864 -0.024746941 0.017809872 0.009179876 0.025703177 0.0005601846 -0.013478814 0.007177978
-0.004943076 -0.009234412 -0.017106503 0.017743386 -0.016976884 -0.02032719 0.017841978 -0.005425594
-0.009454044 -0.032348957 -0.015721586 -0.0011336715 0.012942234 -0.019613378 -0.008768423 -0.01609899
-0.0042691897 -0.0073859785 0.0046437914 0.009194071 -0.0018652827 0.016678205 -0.017991954 0.02095692
0.01491109 0.029641354 0.014058442 -0.023011599 7.0375376e-05 0.008022961 -0.04570743 -0.02463986

bayes_fc1.prior_sigma_small_bias f4 [64]
00000000: 7bad fa3e 86d3 833e e2b2 973e f39c 6d3e
00000010: 1381 763e 6682 933e 08c0 f33e 840a cf3e
00000020: e3ef 813e 26b2 bd3e 6290 fb3e e6cc 833e
00000030: 47f6 d53e 6384 563e 464e db3e 96d1 843e
00000040: 2e6f 853e 0059 df3e df7b e93e 301e 6d3e
00000050: b60b 863e f34f b23e 5b48 0b3f c24c a33e
00000060: 089d f93e 5269 ec3e cfdc c83e e517 2d3e
00000070: deb2 253e 45b4 cc3e e0f5 c63e 083e eb3e
00000080: 870d e63e cea7 d53e ca25 f43e 709f b43e
00000090: 1e53 763e dc0c e33e b50d c03e 36e8 a03e
000000a0: d5d7 843e 94aa 953e 631f 983e 28da e83e
000000b0: 7109 f33e 2c16 e13e b98c c53e 28b7 983e
000000c0: e22f de3e 1917 e93e 233e d33e ffb2 d13e
000000d0: 3d94 f73e cc95 403e 2bdf d83e 92d0 6b3e
000000e0: f5ef 8a3e 07a2 843e 9db9 963e 5003 c63e
000000f0: 8e44 f33e 6d29 963e cc38 543e 2be6 d23e
0.4896048 0.25747317 0.29628664 0.23204403 0.24072675 0.28810424 0.47607446 0.4043771
0.25378332 0.3704998 0.49133593 0.25742263 0.41789457 0.20948939 0.42833155 0.2594115
0.26061386 0.4362259 0.4560232 0.23156047 0.2618081 0.3482662 0.5440728 0.318945
0.48752618 0.46174103 0.39230964 0.16903646 0.16181514 0.39981285 0.38859463 0.45945764
0.44932196 0.41729587 0.4768508 0.3527789 0.24055144 0.44345748 0.37510458 0.31427163
0.25945917 0.29231703 0.29711446 0.4547894 0.4746814 0.43962228 0.38583925 0.29827237
0.43395907 0.45525435 0.41258344 0.40956876 0.48355284 0.18807143 0.42357764 0.23028782
0.27136198 0.25904867 0.29438487 0.38674402 0.4751324 0.2932848 0.20724791 0.4119123

bayes_fc1.prior_mu_old f4 [64, 6]
00000000: dc8c 46be daa1 e8be 9a99 1fbe fe9d 88be
00000010: 130f 4fbe 1289 cbbd 4ee5 d73e 439e f1bd
00000020: accd 873e 8336 c8be 9960 cb3d 8d9a 40be
00000030: f6dc a5be 9a1a 053e 3f15 5fbe 7b8c 233e
00000040: 727b 13be 36b2 813d c3de 9dbe 9c27 023e
00000050: 2e07 acbe fa80 cc3e f0c6 debd 1d59 22bd
00000060: 4313 b3be a428 0d3e 2cfc c4be 1dd8 643e
00000070: dfce 12be 1592 4ebd c3b0 043e 63c5 11be
00000080: a460 d73e 745e 3bbe b67a 043e 0af5 fdbd
00000090: d8dd 61be 2c8e b4be c71a 83bd e046 47be
000000a0: 2736 bcbe 3b14 bdbd 0a02 d1be 2c1d 393e
000000b0: d41b 17be b374 dcbc 2073 a2be f085 be3d
000000c0: 7a31 84be 8593 e23d d015 dbbe 7127 c43e
000000d0: 10e1 0cbe 2896 883c a878 00be 0ea9 6dbe
000000e0: c466 9c3c 3c46 34be faff 833a b54e 9b3c
000000f0: 6173 8ebe e0d3 63be e548 9cbd 40b7 8fbe
00000100: 912b d9bb 1c81 b6bd ebe3 35be 6c54 ab3c
00000110: 8886 febe 8304 d03e 7528 d5bd 2b9f 1d3c
00000120: 5c68 6dbe 3fde 47bd 06ec 96bd a89a 10be
00000130: 79dc bcbe dc43 87bd abe1 ea3e bded ebbd
00000140: d6db 813e 79e8 9ebe 01f9 043e 76fa b3bd
00000150: efac 4bbb 0ec3 cdbd 41f6 b9bc 24c5 92be
00000160: 32ac aabe c540 2fbd c23f d7be 6542 67be
00000170: fff5 143e 82d4 ecbd 3518 393d 83a5 943e
00000180: 7d51 713e cdf4 12be 7d67 003f 0bcd aabe
00000190: f732 1e3e 82f3 f8bd 2cb8 85be 9cc5 a2bd
000001a0: e75d bfbd 3b4e 18be e5f0 48be e989 163d
000001b0: 0fe2 26be f95f 5cbe 5189 f2bd f658 72be
000001c0: 9ee2 86be cd10 97bd 0b4f 823e 9e5c b0bd
000001d0: 62e7 a23e 4a71 9fbe 4b14 243e 1f84 2cbe
000001e0: 3763 6bbe 2f4f 993d b82c 88be eda6 6b3e
000001f0: eb14 e4bd fac2 c33d fb1b 92be 719a 273d
00000200: 94c8 eabd f6e7 60be d21c e9bd bc64 9b3d
00000210: 47c8 4ebe 43fb 9fbe dd30 e5bd c09b a7be
00000220: 1fa9 bbbe 91c8 a1bd 165b aebe 1414 693d
00000230: 369c 7bbe e70f 193e ce83 49be 93f9 3fba
00000240: a789 bebc 876d e8bd cb15 e8bd 4def a1be
00000250: d3c1 a6be 55bd d7bd 21dd 3bbe a8a4 7cbe
00000260: a9c5 e1bd 2bc4 ba3c 2868 afbe e557 10bd
00000270: 8929 8ebe 05df d9bd 83eb b6bc 8108 76be
00000280: ff3c fbbd 7db4 a3bc 6928 5b3e 03e0 c3bd
00000290: 6d9a fa3e 4550 a7be 58ef 403e 8e99 44bc
000002a0: 8c07 ab3e d16a 96bd 1c72 873e 8e1b 7ebe
000002b0: c76a e93d 3dfd f03d 6b3f 3dbe f9e1 9abe
000002c0: 7398 47bd 9faf 59be da5a 8dbe b634 b3bd
000002d0: b8fe 7dbe a302 10be a493 f8bd 80e3 8c3d
000002e0: b687 8fbe 1738 0bbe fcab b6bd b402 94be
000002f0: 0275 eabc bbef dabd 49db ccbe 969a a3bd
00000300: aa43 06be 89fe 2ebe 88e2 c6bd 34dd 32be
00000310: acf3 19be 38a8 133c b56c 82be ca3f 2dbe
00000320: 6cda 52bd ffe7 9bbe f08b 58be 3a60 00bd
00000330: d5c0 07be 5b86 fbbd dc6c 39be 0646 84be
00000340: 8cd8 b5be 62cb 26be f75c 813d 7b1d 2cbe
00000350: 19cc 153d 5828 d9be ce08 e73d d2e2 19bd
00000360: 39af cabe 84c4 503e 2558 c9be 26c0 1a3e
00000370: 6153 b5bd fc48 e33d 65c7 93be 66bf 8cbe
00000380: d80e e73c 1fac 98be f54f 8ebe a70b f2bd
00000390: e78e 9abe 8140 223e b7e5 99bd ddb4 94bd
000003a0: d3de 9dbe 4b46 6fbd c558 cabd 6736 06be
000003b0: 3f75 103c 25e6 9dbd 0d36 7cbe e5f2 093e
000003c0: c964 b3be e645 e83d 38d1 d1be 6394 823e
000003d0: 71c8 f3bd 6499 573d 7ff5 a2be 6be4 8a3d
000003e0: 0b44 78be e570 303e dd96 fbbd 3df6 f13c
000003f0: ce70 4fbe 1c34 243d 01e9 a4be 6a37 e23e
-0.19389671 -0.45435983 -0.15585938 -0.26683038 -0.20220594 -0.099382535 0.42167133 -0.11797764
0.26524103 -0.3910409 0.09930534 -0.18808956 -0.32395142 0.12998429 -0.21785448 0.15971558
-0.1440256 0.06332819 -0.30834016 0.12710422 -0.33599228 0.3994215 -0.10877788 -0.039635766
-0.34975633 0.13785034 -0.38473642 0.22348066 -0.14336728 -0.050432283 0.12958054 -0.14235453
0.42065918 -0.1829775 0.12937436 -0.12400253 -0.22057283 -0.3526472 -0.06401592 -0.1946063
-0.36760065 -0.09232374 -0.40821868 0.18077534 -0.1475671 -0.026911115 -0.31728458 0.0930289
-0.25818998 0.11063293 -0.4279008 0.3831134 -0.1375773 0.016673163 -0.12546027 -0.2320902
0.019091971 -0.17604917 0.0010070794 0.018958429 -0.27822402 -0.22248793 -0.07631091 -0.28069496
-0.006627508 -0.089113444 -0.17762725 0.020914279 -0.49712014 0.40628442 -0.10408107 0.009620468
-0.23184341 -0.048795935 -0.07369237 -0.14121497 -0.36886957 -0.0660474 0.45875296 -0.11519954
0.25363034 -0.31036738 0.12985612 -0.08788006 -0.0031078418 -0.10046969 -0.02270043 -0.2866603
-0.333345 -0.04278638 -0.4204083 -0.22583921 0.14546965 -0.1156397 0.0451891 0.29032525
0.23566242 -0.14351197 0.5015791 -0.3335956 0.15449129 -0.121558204 -0.26117074 -0.07947847
-0.09344082 -0.14873593 -0.19623144 0.036752615 -0.16297172 -0.21520986 -0.11842597 -0.23666748
-0.2634477 -0.07376251 0.2545093 -0.08611415 0.31817156 -0.3114112 0.16023366 -0.16847275
-0.22987066 0.07485806 -0.26596618 0.23012896 -0.11136802 0.09558673 -0.28536972 0.04091877
-0.114640385 -0.21963486 -0.1138245 0.07587573 -0.20193587 -0.31246385 -0.111909606 -0.32736015
-0.36652467 -0.07899583 -0.34053868 0.056903914 -0.24571308 0.14947473 -0.19679186 -0.0007323261
-0.023258997 -0.11349016 -0.11332282 -0.31627885 -0.3256975 -0.10534159 -0.18346073 -0.24672186
-0.11024029 0.022798618 -0.34259152 -0.035240073 -0.27766064 -0.10638241 -0.022329098 -0.24026681
-0.122674935 -0.019983524 0.21402134 -0.09564211 0.48945943 -0.32678428 0.18841302 -0.011999501
0.33404195 -0.07344592 0.26454246 -0.24815199 0.11397319 0.11767051 -0.18481223 -0.30250528
-0.04872937 -0.212584 -0.27608377 -0.08750288 -0.24804199 -0.14063506 -0.12137535 0.0687933
-0.28033227 -0.13595615 -0.08919522 -0.28908312 -0.028620247 -0.10690256 -0.4001105 -0.07988469
-0.1311175 -0.17089285 -0.09711176 -0.17467195 -0.1503436 0.009012274 -0.25473562 -0.16918865
-0.051477835 -0.30450436 -0.21147132 -0.03134177 -0.13257153 -0.12281486 -0.18107933 -0.25834674
-0.35516775 -0.16288522 0.0631656 -0.16808121 0.036571596 -0.42413592 0.11280976 -0.03756983
-0.3958681 0.20387465 -0.3932506 0.15112361 -0.08853794 0.11097905 -0.28863063 -0.27489775
0.02820532 -0.29818818 -0.27795377 -0.11818629 -0.3018715 0.15844919 -0.07514518 -0.072610594
-0.30834064 -0.058416646 -0.09880213 -0.1310669 0.008817016 -0.07709912 -0.24629994 0.13471563
-0.3503783 0.11341457 -0.40979934 0.25503835 -0.119034655 0.05263652 -0.31827924 0.067818485
-0.24244706 0.17230566 -0.12284634 0.02953636 -0.20257875 0.040088758 -0.32209018 0.44182903

bayes_fc1.prior_sigma_small f4 [64, 6]
00000000: 021a 873e bf48 663e c9ba 673f 2690 9b3e
00000010: 4219 093e 0be1 6a3f ef26 ba3d 423d 453d
00000020: 41d0 173f 4dd9 eb3d 1337 553d fd97 213f
00000030: b817 d73d 266d 573d b201 343f 1d2c 183e
00000040: c4fd 773d f696 233f f4d3 a63d 6b41 123d
00000050: 7e29 133f 1cb4 863d 5018 153d fe69 073f
00000060: 4207 c63d 03dc 423d e060 203f b671 d63d
00000070: fcd1 533d 902c ee3e 7537 023e 415b 833d
00000080: beac 1b3f ce83 d63d 6abd 523d e1e6 213f
00000090: 2569 a63e ca0b 153e 3792 5c3f 6f9f 983e
000000a0: bd99 143e 8387 523f a949 363e 2ec5 8f3d
000000b0: ae47 573f 0424 7e3e dd1b ee3d 18c1 483f
000000c0: b87a ae3d ecc9 413d e5cc 213f 9968 a83d
000000d0: e305 403d 014b 0d3f 12c7 713e baf5 cb3d
000000e0: 3d15 523f 0f9b 153e a66e aa3d 4e34 3a3f
000000f0: 81cd aa3e 199a ee3d f818 693f 35e9 953e
00000100: df6a e93d bf70 713f 3947 bc3d 0aef 4c3d
00000110: 12c5 263f e8ee b43d e03a 313d 5814 113f
00000120: 6966 423e b9e7 a63d dfb5 4d3f a9a7 7b3e
00000130: 9fff 283e 2755 5d3f 5dd3 823d 367d 1b3d
00000140: 3c97 fe3e fe2f 943d 032a 1f3d 57fb fb3e
00000150: 7330 3c3e 5717 d03d a9f3 5a3f 3548 8e3e
00000160: 30e9 243e 3d96 603f 367f 4b3e 167e a73d
00000170: 7b3b 1a3f cf10 bc3d 5fa5 5c3d 91d4 fa3e
00000180: 5b0a e73d 5a31 3d3d 86d4 1d3f 7763 c03d
00000190: e6ef 2d3d c351 1e3f 3d35 5c3e 4696 d33d
000001a0: 2744 5f3f 35a6 7e3e cfbe 093e c707 5f3f
000001b0: 5cc8 7e3e 795f 083e 34d7 633f ebe1 7e3e
000001c0: c593 023e 9542 593f e136 a33d 7ebd 283d
000001d0: deba 093f 98d0 a33d c2ba 213d c77a 0c3f
000001e0: 45ba fd3d c6a8 643d d79f 243f a507 e83d
000001f0: abde 453d c1ec 0e3f 2c30 213e 1c2c 883d
00000200: c727 3e3f a34a 5f3e 0dd6 a93d 3641 383f
00000210: 9af1 b63e b2b2 143e 92c8 733f ca07 c63e
00000220: 4f44 6c3e 1e14 6c3f 8c7d f93d 54af 863d
00000230: 5be4 3d3f 1e2b 083e ff1e 8e3d 2f87 333f
00000240: 62a7 7c3e a73d d93d 0f9a 6a3f 55a4 c13e
00000250: 7044 373e e92e 6f3f 2719 893e cc6e 0a3e
00000260: 4942 6c3f a21d 8c3e 9c51 4d3e 5c15 5e3f
00000270: 37d1 523e 2e72 9f3d 7c92 4e3f 2761 543e
00000280: de14 b03d 2bc2 533f b5fe 833d e328 123d
00000290: 369e bb3e 291b 783d d40f f83c 5319 ca3e
000002a0: 574f 733d f3a3 f43c e6b9 cb3e cb86 793d
000002b0: a4b6 f83c cbe5 c63e 9759 823e f7d8 0c3e
000002c0: e677 673f eba8 753e f78a 153e 9f14 143f
000002d0: edc9 603e 1c3a f63d fe9e 573f a698 273e
000002e0: 2ac2 fd3d 646e 3f3f 3473 823e 8579 0d3e
000002f0: a2e9 583f e409 943e 58c2 503e 54ac 523f
00000300: a288 783e f56e ff3d 04ee 5b3f c2fe 883e
00000310: b1b3 de3d 8e37 693f f433 8b3e 29df fd3d
00000320: bfcc 473f 3a3e 813e f8e3 ea3d 4f98 263f
00000330: 44f8 633e bf44 d13d e0dc 5f3f 78fc a83e
00000340: f01b 2c3e 1014 6f3f 8ea8 373e 9063 c43d
00000350: 66da 443f d32a 463e c209 923d ad71 2f3f
00000360: a5d2 bd3d 7767 2d3d 3d83 193f f408 b83d
00000370: 3eae 283d d3a9 183f 185f 913e f38a 0a3e
00000380: afca 423f 11ed 973e 5c82 1f3e f540 543f
00000390: 62bc 373e 0b00 a83d faa1 463f 5fed 6c3e
000003a0: 03a8 e33d 1fbe 533f 298a 283e 8eed 993d
000003b0: 9c16 263f 788b 083e 8099 0d3e 35bc 243f
000003c0: 97ef b53d 8cc6 383d 0845 233f 2c22 c73d
000003d0: c958 383d 137e 1d3f b5ff e23d f317 663d
000003e0: 6157 363f 729a e93d f14d 733d 6b9b 1e3f
000003f0: 5bbe 063e 50a1 6b3d bab3 383f ace0 e23d
0.2638703 0.22488688 0.90519387 0.30383414 0.13388541 0.9174964 0.09089457 0.048154123
0.59302145 0.11516056 0.052054476 0.6312254 0.10502571 0.052594326 0.70315087 0.14860578
0.060544744 0.63902223 0.081458956 0.03570692 0.5748519 0.06577322 0.03640014 0.52896106
0.09669353 0.0475731 0.6264782 0.104709074 0.05171393 0.46518373 0.12716468 0.0641389
0.6081046 0.104743585 0.05145017 0.6324292 0.32502094 0.14555278 0.86160606 0.29809138
0.14511772 0.82238024 0.17801537 0.07020031 0.8409375 0.24818426 0.11626408 0.7841964
0.085195005 0.04731171 0.6320327 0.082230754 0.046880614 0.5519257 0.23611096 0.09958978
0.8206366 0.14609931 0.08321886 0.7273606 0.33359912 0.116504855 0.91053724 0.29279485
0.11397337 0.9431266 0.09193272 0.050032653 0.65144455 0.0883463 0.04326904 0.5667167
0.18984379 0.08149666 0.8035564 0.24575676 0.16503762 0.8645806 0.063879706 0.037961207
0.49724758 0.07235716 0.038858425 0.49215195 0.18377857 0.10160702 0.85528046 0.27789465
0.16104579 0.87729245 0.19872746 0.08178346 0.6024701 0.091828935 0.053868648 0.489903
0.11281272 0.046189643 0.6165241 0.093939714 0.042465113 0.6184351 0.21504684 0.10331397
0.8721337 0.2486809 0.13451694 0.8712124 0.24881119 0.1331767 0.8900025 0.24890868
0.12751682 0.8486722 0.07969452 0.04119634 0.5380076 0.079987705 0.039484747 0.54874843
0.12389044 0.055825017 0.64306396 0.11329583 0.048308056 0.5583001 0.15741032 0.06649038
0.74279445 0.21805815 0.0829278 0.71974504 0.35731202 0.14521292 0.9522792 0.38677818
0.23072933 0.92218196 0.12182149 0.0657641 0.7417657 0.13297698 0.06939506 0.7012815
0.24673226 0.106074624 0.91641325 0.37820688 0.178972 0.93430954 0.26777002 0.13518828
0.92288643 0.27366358 0.20050663 0.8675134 0.20587622 0.0778545 0.8069227 0.20740186
0.0859773 0.8271815 0.06445066 0.035683524 0.36644143 0.060572777 0.030280985 0.39472446
0.059401836 0.029863333 0.39790267 0.060919564 0.030360527 0.38847193 0.25458977 0.1375464
0.90417325 0.23990218 0.14603792 0.57843965 0.21952029 0.12022802 0.8422698 0.16366825
0.123905495 0.7477782 0.25478518 0.13815887 0.84731495 0.28913796 0.20386636 0.822942
0.24270871 0.12472335 0.8591006 0.26756865 0.10874117 0.91100395 0.27188075 0.1239608
0.7804679 0.25242788 0.11469263 0.65076154 0.22262675 0.102181904 0.87446404 0.33005118
0.16807532 0.9338999 0.17935392 0.095893025 0.7689575 0.19352274 0.071307674 0.6853283
0.09268693 0.042335 0.5996588 0.08986083 0.041181795 0.5963413 0.28392863 0.13529567
0.7609052 0.29673055 0.15577072 0.82911617 0.17942956 0.08203133 0.77590907 0.23137425
0.1111603 0.82711977 0.16458954 0.07516013 0.6487825 0.13334453 0.13828087 0.6434968
0.08883589 0.045111224 0.6377721 0.09723315 0.045006547 0.615205 0.110839285 0.056175184
0.7122708 0.11406411 0.059400503 0.619559 0.13158552 0.057526886 0.7214924 0.11078009

bayes_fc2.weight_mu f4 [1, 64]
00000000: b96c 7f3d 6071 c73d bb69 92bd 6b38 cebd
00000010: f763 88bd 3c6b b93d 404b d83c 6b44 73bd
00000020: 667e c5bd f6e0 313d c36f 07b9 f8f3 bbbd
00000030: 2107 a23b 54e2 ef3d cc62 f93b 5849 b83e
00000040: f5ed db3d ea73 cfbc d1f8 b7bb 9daf f93d
00000050: 11e5 82bd 56ec 68bd 3c41 353d f297 58bd
00000060: 218d 0d3d 2c68 c53c 9508 233e a2a6 1e3e
00000070: c5bb 173e 41fe a63b 890c e0bd 2b1b 0e3b
00000080: 1516 d4bc dd74 f1bc e1df dbbc 5ee0 983d
00000090: d898 abbd 2877 b53d 1c00 15bd eb28 043e
000000a0: e61e a4bd 997d 85bd c11a 91bd fb7e a93c
000000b0: 8f49 ffbc 5250 543c acc6 c5bc c4dd 42bd
000000c0: de0b 0b3d 2ab0 daba df54 e6bb 9b1f 3cbd
000000d0: 71b2 2c3d 14d7 f33d 94e8 cd3b 554c df3d
000000e0: 3e64 ea3d 881a da3d 3fc8 f93d 89b0 703d
000000f0: 0888 72bc b618 a53d c8e0 e6bd 6c4f b33c
0.062359545 0.097384214 -0.07149073 -0.100693546 -0.06659692 0.090536565 0.02640307 -0.05939142
-0.09643249 0.04342743 -0.00012916238 -0.09177393 0.0049446975 0.117130905 0.0076106545 0.35993457
0.10738746 -0.025323827 -0.005614378 0.12191699 -0.06391347 -0.056866013 0.044251665 -0.05287928
0.03455842 0.024097525 0.15921243 0.15493253 0.14817722 0.0050962274 -0.10939891 0.0021683674
-0.025889436 -0.02947467 -0.026840152 0.0746467 -0.08378762 0.08860618 -0.036377057 0.12906234
-0.08013706 -0.065180965 -0.07085181 0.020690432 -0.031163005 0.012958603 -0.024142586 -0.047574773
0.033946864 -0.0016684581 -0.0070291604 -0.04592858 0.042162362 0.11906257 0.006283829 0.10903231
0.11444901 0.10649592 0.12196397 0.058762107 -0.01480294 0.08061354 -0.11273342 0.021888457

bayes_fc2.weight_rho f4 [1, 64]
00000000: b784 a8bf 84a9 52c0 a7cd 40c0 00df 53c0
00000010: f278 53c0 63e6 44c0 6e05 a6bf 9aac 42c0
00000020: 1020 51c0 e84d 1dc0 42e4 2dc0 4f47 39c0
00000030: 5627 e2bf 64be 5bc0 6506 e6bf d628 dabf
00000040: 171b 54c0 9b8f 0ec0 463b b9bf d3f7 50c0
00000050: 4cd4 33c0 67ec 0ac0 cd48 e0bf 7b88 40c0
00000060: 8b95 2ac0 f406 0ac0 50af 4dbf 1be9 52c0
00000070: ea8a 4fc0 11cd 91bf e897 b2bf 1626 c2bf
00000080: 8526 13c0 de02 a4bf 2274 0ec0 458a 31c0
00000090: 742c 50c0 29b3 b9be 97b8 42c0 d47b 81bf
000000a0: a7d1 44c0 ce49 37c0 032d 49c0 9b46 07c0
000000b0: 1f9e 0ac0 29f3 c2bf f530 b5bf 3fef 43c0
000000c0: 554e cdbf 4633 2ac0 f428 24c0 1f9a 2fc0
000000d0: 281f cebf a2ff 57c0 1b97 adbf 6102 42c0
000000e0: db3a 3dc0 1514 4ac0 e82c 26c0 634b 42c0
000000f0: 6374 b7bf c069 45c0 ec52 4dc0 0c3f 13c0
-1.3165501 -3.2915964 -3.012552 -3.3104858 -3.304257 -3.0765617 -1.2970407 -3.0417848
-3.267582 -2.45788 -2.7170568 -2.8949773 -1.7668254 -3.4334955 -1.7970701 -1.7043712
-3.3141534 -2.227515 -1.4471214 -3.265126 -2.8098326 -2.1706789 -1.7522217 -3.00833
-2.6653774 -2.1566744 -0.8034563 -3.2954776 -3.2428536 -1.1390706 -1.3952608 -1.5167873
-2.299226 -1.2813375 -2.2258382 -2.7740643 -3.2527132 -0.362695 -3.0425165 -1.0115914
-3.0752962 -2.8638797 -3.1433723 -2.1136844 -2.165901 -1.5230457 -1.4155566 -3.0614774
-1.603953 -2.6593795 -2.5649996 -2.7437818 -1.6103258 -3.3749776 -1.3561739 -3.0313952
-2.9567173 -3.1574757 -2.5964909 -3.0358512 -1.4332393 -3.0845795 -3.2081861 -2.300723

bayes_fc2.prior_mu_old f4 [1, 64]
00000000: b96c 7f3d 6071 c73d bb69 92bd 6b38 cebd
00000010: f763 88bd 3c6b b93d 404b d83c 6b44 73bd
00000020: 667e c5bd f6e0 313d c36f 07b9 f8f3 bbbd
00000030: 2107 a23b 54e2 ef3d cc62 f93b 5849 b83e
00000040: f5ed db3d ea73 cfbc d1f8 b7bb 9daf f93d
00000050: 11e5 82bd 56ec 68bd 3c41 353d f297 58bd
00000060: 218d 0d3d 2c68 c53c 9508 233e a2a6 1e3e
00000070: c5bb 173e 41fe a63b 890c e0bd 2b1b 0e3b
00000080: 1516 d4bc dd74 f1bc e1df dbbc 5ee0 983d
00000090: d898 abbd 2877 b53d 1c00 15bd eb28 043e
000000a0: e61e a4bd 997d 85bd c11a 91bd fb7e a93c
000000b0: 8f49 ffbc 5250 543c acc6 c5bc c4dd 42bd
000000c0: de0b 0b3d 2ab0 daba df54 e6bb 9b1f 3cbd
000000d0: 71b2 2c3d 14d7 f33d 94e8 cd3b 554c df3d
000000e0: 3e64 ea3d 881a da3d 3fc8 f93d 89b0 703d
000000f0: 0888 72bc b618 a53d c8e0 e6bd 6c4f b33c
0.062359545 0.097384214 -0.07149073 -0.100693546 -0.06659692 0.090536565 0.02640307 -0.05939142
-0.09643249 0.04342743 -0.00012916238 -0.09177393 0.0049446975 0.117130905 0.0076106545 0.35993457
0.10738746 -0.025323827 -0.005614378 0.12191699 -0.06391347 -0.056866013 0.044251665 -0.05287928
0.03455842 0.024097525 0.15921243 0.15493253 0.14817722 0.0050962274 -0.10939891 0.0021683674
-0.025889436 -0.02947467 -0.026840152 0.0746467 -0.08378762 0.08860618 -0.036377057 0.12906234
-0.08013706 -0.065180965 -0.07085181 0.020690432 -0.031163005 0.012958603 -0.024142586 -0.047574773
0.033946864 -0.0016684581 -0.0070291604 -0.04592858 0.042162362 0.11906257 0.006283829 0.10903231
0.11444901 0.10649592 0.12196397 0.058762107 -0.01480294 0.08061354 -0.11273342 0.021888457

bayes_fc2.prior_sigma_small f4 [1, 64]
00000000: c92f 733e 5d95 153d 0b97 443d 82d5 123d
00000010: 31bc 133d d4ab 383d 4171 773e 6d0e 3f3d
00000020: e726 193d 1c3d a83d e306 833d f977 5c3d
00000030: 7989 213e 0a1b 023d 3f13 1d3e 6e1f 2b3e
00000040: 524e 123d a4a8 d13d 4e57 583e 8785 193d
00000050: 1d80 6f3d c247 dd3d a9bb 233e eb66 453d
00000060: 65bf 893d 773c e03d a074 bd3e b203 153d
00000070: f2e9 1c3d 4e31 8e3e 53ab 623e fa21 4b3e
00000080: 54d2 c33d 62ea 7a3e 3ffe d13d 92f6 773d
00000090: 3667 1b3d 1635 073f 79eb 3e3d f5cc 9e3e
000000a0: 5ce6 383d 223e 633d 16fc 2c3d 888b e93d
000000b0: dc48 de3d 88fb 493e 6a93 5e3e 296a 3b3d
000000c0: b0a2 3b3e 868c 8a3d 0ac4 973d a75a 7f3d
000000d0: b98b 3a3e dad0 093d 11be 6a3e 6301 413d
000000e0: ec98 4f3d a79c 2a3d dc39 933d c82a 403d
000000f0: 4210 5b3e 9d3a 373d 3c57 223d cf8a c33d
0.23748697 0.036519397 0.04799561 0.03584815 0.036068145 0.045085743 0.24164297 0.046644617
0.037390616 0.08214781 0.06397798 0.053825352 0.15775098 0.031764068 0.15339373 0.16711208
0.035719223 0.10237244 0.21127054 0.037480857 0.058471788 0.10804702 0.15989555 0.048193853
0.06725959 0.10949033 0.3700304 0.036380477 0.038309045 0.27771991 0.22135668 0.1983718
0.09561601 0.24503472 0.10253572 0.060537882 0.037940226 0.5281538 0.046611283 0.31015745
0.045141563 0.055479176 0.042232595 0.114035666 0.108537406 0.19724858 0.21735922 0.04575554
0.18323779 0.06765084 0.07410438 0.062342312 0.18217362 0.033646442 0.22924067 0.047120463
0.050682947 0.0416533 0.0718877 0.0469158 0.2139292 0.044733632 0.039633974 0.0954796
