models/updated_hmnn_model_2011.pth (torch, 13926 bytes, 12 tensors)

bayes_fc1.weight_mu f4 [64, 6]
-0.31128567 -0.55717826 -0.1237009 -0.4136333 -0.25975206 -0.2297552 0.50148255 -0.11419328
0.47264123 -0.40407026 0.09530988 -0.27997547 -0.3567479 0.10510268 -0.3021269 0.0965187
-0.18593504 -0.037040286 -0.35497043 0.11911948 -0.5486761 0.40606153 -0.124495044 0.0024915824
-0.35475913 0.16272722 -0.34766808 0.3209858 -0.105953 0.031820178 0.1681797 -0.1008923
0.426302 -0.27132785 0.09736765 -0.11000744 -0.36069855 -0.39372212 -0.07972203 -0.28663024
-0.41944292 -0.1497431 -0.4847686 0.14790598 -0.23855853 -0.07489283 -0.3043474 0.0258102
-0.2914211 0.10317351 -0.608742 0.43354502 -0.1199813 0.078486785 -0.1722502 -0.2637461
-0.0029401057 -0.2487864 -0.04013212 -0.04418269 -0.25417575 -0.28057677 -0.14994232 -0.26488227
-0.011791557 -0.063632704 -0.21866556 0.02678062 -0.6687096 0.44649887 -0.10540104 -0.008814098
-0.27308473 -0.1011131 -0.1057859 -0.27816385 -0.46185723 -0.15704964 0.47647345 -0.11038139
0.3890504 -0.32841808 0.13143879 -0.16960067 -0.095414154 -0.18225871 -0.08212317 -0.42084995
-0.37430394 -0.084710345 -0.4591351 -0.23488529 -0.03223495 -0.15284045 -0.031419855 0.16354662
0.36411515 -0.11745401 0.61759245 -0.3675047 0.15554954 -0.2381247 -0.3526263 -0.11824439
-0.1480602 -0.23577634 -0.28883415 -0.06066709 -0.24008232 -0.2777152 -0.13503446 -0.320143
-0.3034278 -0.10272149 0.29498786 -0.09061665 0.48503527 -0.37400144 0.13094106 -0.2566882
-0.29286748 0.06519409 -0.4061164 0.25131062 -0.10168578 0.055222653 -0.30895552 0.02601156
-0.16031198 -0.27655423 -0.12535335 0.029726937 -0.29097956 -0.36690265 -0.12602943 -0.40725952
-0.4427621 -0.05359588 -0.30709845 0.09442683 -0.16643777 0.23857097 -0.19423728 0.015215538
-0.08990221 -0.18856476 -0.11786881 -0.3526929 -0.36275697 -0.02954533 -0.3055314 -0.3324606
-0.11393063 -0.11112902 -0.4315388 -0.046127383 -0.34758726 -0.13873461 -0.009647038 -0.33701998
-0.19093901 -0.014154635 0.24429496 -0.08797909 0.6216753 -0.3313658 0.17014611 -0.1274043
0.3713895 -0.07389507 0.42921528 -0.26366255 0.10592858 -0.0218891 -0.2896764 -0.28380635
0.021387614 -0.319242 -0.2960497 -0.07220557 -0.32029295 -0.20175783 -0.22382335 -0.030328674
-0.31578735 -0.13829371 -0.25091502 -0.34376612 -0.075464346 -0.25675848 -0.49094686 -0.07264913
-0.18621829 -0.21969742 -0.16323477 -0.25396767 -0.19269575 -0.0855276 -0.38420245 -0.29345575
-0.035276856 -0.3927171 -0.2677993 -0.07426998 -0.23718952 -0.17390057 -0.09995636 -0.3246821
-0.37133706 -0.18928137 0.056375556 -0.1734027 0.07200343 -0.47050637 0.121494345 -0.16609076
-0.39136645 0.212211 -0.5123509 0.21177587 -0.087416746 0.22429016 -0.3859716 -0.36705574
-0.0065957126 -0.35928366 -0.36010152 -0.042973865 -0.3524218 0.12294993 -0.14890598 -0.1213226
-0.3009197 -0.03353484 -0.17148902 -0.15495697 -0.0063163717 -0.14815538 -0.32796547 0.10289667
-0.35077938 0.09150081 -0.47468203 0.30598372 -0.10028964 0.121784166 -0.3073391 0.04358689
-0.26458657 0.19989158 -0.12932397 0.05148836 -0.28621873 0.08421455 -0.41168666 0.4651739
00000000: d660 9fbe 3ca3 0ebf e656 fdbd bec7 d3be
00000010: 39fe 84be f244 6bbe 2961 003f 2bde e9bd
00000020: 08fe f13e 4ce2 cebe d431 c33d f258 8fbe
00000030: a9a7 b6be 1340 d73d 61b0 9abe 99ab c53d
00000040: c165 3ebe 8eb7 17bd afbe b5be eaf4 f33d
00000050: 0976 0cbf 4ce7 cf3e 42f7 febd d149 233b
00000060: fda2 b5be f7a1 263e 8d01 b2be 4058 a43e
00000070: e3fd d8bd e055 023d 4d37 2c3e 9fa0 cebd
00000080: 4144 da3e 7ceb 8abe b168 c73d 954b e1bd
00000090: 7bad b8be f295 c9be 4e45 a3bd 33c1 92be
000000a0: 39c1 d6be 4156 19be 9733 f8be aa74 173e
000000b0: b048 74be 6961 99bd 6cd3 9bbe ea6f d33c
000000c0: 2535 95be a24c d33d 84d6 1bbf 9df9 dd3e
000000d0: c1b8 f5bd aebd a03d 5b62 30be bb09 87be
000000e0: caae 40bb ddc1 7ebe 9461 24bd e9f8 34bd
000000f0: 5323 82be c2a7 8fbe 7b8a 19be a69e 87be
00000100: 6031 41bc dd51 82bd dde9 5fbe 0863 db3c
00000110: 8d30 2bbf 809b e43e 80dc d7bd 0269 10bc
00000120: c3d1 8bbe 6314 cfbd 47a6 d8bd 7e6b 8ebe
00000130: 8d78 ecbe 9fd1 20be 54f4 f33e a30f e2bd
00000140: 9d31 c73e 6a26 a8be e497 063e ccab 2dbe
00000150: 7f68 c3bd 07a2 3abe 3130 a8bd a579 d7be
00000160: c4a4 bfbe 9e7c adbd c113 ebbe c585 70be
00000170: cc08 04bd 3582 1cbe 1bb2 00bd c478 273e
00000180: 4d6d ba3e ba8b f0bd 8a1a 1e3f 9329 bcbe
00000190: 6148 1f3e f6d6 73be 6f8b b4be 1d2a f2bd
000001a0: 189d 17be 5a6f 71be 12e2 93be 0e7e 78bd
000001b0: 24d8 75be b030 8ebe 7946 0abe c9e9 a3be
000001c0: e35a 9bbe a55f d2bd a608 973e 3995 b9bd
000001d0: 8b56 f83e 1e7d bfbe 6a15 063e a36c 83be
000001e0: baf2 95be 7b84 853d 7dee cfbe c9ab 803e
000001f0: a240 d0bd 2631 623d 6b2f 9ebe 3216 d53c
00000200: d328 24be 8498 8dbe a15c 00be e885 f33c
00000210: 46fb 94be aada bbbe dc0d 01be 5284 d0be
00000220: b7b1 e2be 5a87 5bbd 023c 9dbe db62 c13d
00000230: aa6e 2abe f34b 743e 23e6 46be 984a 793c
00000240: a61e b8bd 1f17 41be 3465 f1bd 2a94 b4be
00000250: 48bb b9be 0c09 f2bc 9d6e 9cbe 4738 aabe
00000260: 7654 e9bd 9d97 e3bd a7f2 dcbe 11f0 3cbd
00000270: f5f6 b1be 7210 0ebe 9c0e 1ebc e28d acbe
00000280: 8485 43be d8e8 67bc 7528 7a3e 622e b4bd
00000290: 1d26 1f3f c7a8 a9be c83a 2e3e 4676 02be
000002a0: c426 be3e 4c56 97bd 1bc2 db3e c7fe 86be
000002b0: 15f1 d83d c550 b3bc 7750 94be 114f 91be
000002c0: 1435 af3c b073 a3be d493 97be 84e0 93bd
000002d0: 70fd a3be 9b99 4ebe f331 65be d773 f8bc
000002e0: e1ae a1be de9c 0dbe ef77 80be 1d02 b0be
000002f0: 0d8d 9abd d975 83be 635d fbbe 11c9 94bd
00000300: 02b0 3ebe 5cf8 60be 0427 27be 0d08 82be
00000310: 0952 45be 1829 afbd 2fb6 c4be d53f 96be
00000320: 777e 10bd 3712 c9be fd1c 89be dc1a 98bd
00000330: cfe1 72be fe12 32be ecb5 ccbd bb3c a6be
00000340: e41f bebe fad2 41be 0eea 663d 7a90 31be
00000350: 8976 933d 36e6 f0be 07d2 f83d b213 2abe
00000360: 2f61 c8be d74d 593e 6e29 03bf c6db 583e
00000370: 8d07 b3bd 52ac 653e 129e c5be bbee bbbe
00000380: d920 d8bb 07f4 b7be 3a5f b8be 5d05 30bd
00000390: a170 b4be 2ccd fb3d cf7a 18be fc77 f8bd
000003a0: 2612 9abe d45b 09bd d19a 2fbe 0aad 1ebe
000003b0: 91f9 cebb 0bb6 17be 17eb a7be 7dbb d23d
000003c0: 5b99 b3be c764 bb3d 8609 f3be e6a9 9c3e
000003d0: a864 cdbd fa69 f93d 8d5b 9dbe 2b88 323d
000003e0: e477 87be 61b0 4c3e 816d 04be 75e5 523d
000003f0: 438b 92be ae78 ac3d 98c8 d2be 462b ee3e

bayes_fc1.weight_rho f4 [64, 6]
-0.96876425 -1.2399992 0.5408569 -0.85164326 -1.8564605 0.54418796 -2.4705853 -3.2702076
0.057196066 -2.1859753 -3.110527 0.15438288 -2.1286187 -2.8419933 0.29342026 -1.6164134
-2.9285338 0.13351142 -2.5241654 -3.5423284 -0.020344611 -2.7595086 -3.5046287 -0.104181714
-2.2528708 -3.1327784 0.14489982 -2.0870118 -3.013745 -0.1576182 -1.9041721 -2.8046403
0.07274144 -2.2957697 -3.0781975 0.074909344 -0.8147705 -1.6367813 0.3988604 -0.8558981
-1.7182257 0.3262915 -1.541467 -2.5636704 0.4129281 -1.0617936 -2.0869343 0.28753462
-2.5436108 -3.2637672 0.09851856 -2.5826144 -3.2491674 -0.031705007 -1.1705317 -1.965442
0.39832968 -1.4626813 -2.3120925 0.33140534 -0.6733984 -1.8735709 0.39486805 -0.8552529
-2.0681448 0.6145111 -2.324683 -3.1758673 0.10174122 -2.6484025 -3.3994117 -0.035765067
-1.206364 -2.3717723 0.35210723 -1.1251687 -1.5301195 0.42625 -2.7604444 -3.5996041
-0.24687795 -2.7508216 -3.5327156 -0.15835474 -1.3675334 -2.1034873 0.36807033 -0.86920893
-1.478981 0.4236651 -1.2077273 -2.2674851 0.16484329 -2.357021 -2.9702315 0.022607155
-2.2730358 -3.2873054 0.17152154 -2.4981084 -3.2911906 0.093608804 -1.1384141 -2.1164918
0.5767133 -1.10407 -1.7628775 0.38553077 -0.96276367 -1.8485272 0.53273565 -1.026034
-1.8369503 0.22850372 -2.694436 -3.5692253 0.013725355 -2.590909 -3.3588347 -0.038748
-1.9368426 -2.972127 0.15632628 -2.1048398 -3.146007 0.06614242 -1.563938 -2.6892526
0.32130286 -1.2281749 -2.3704574 0.30759317 -0.66702235 -1.6884307 0.5102091 -0.5879934
-1.2579067 0.500683 -1.8660625 -2.654939 0.37088206 -1.7048042 -2.4673607 0.29989693
-0.8536237 -1.9367921 0.50263226 -0.5405324 -1.4297825 0.46060666 -0.97065854 -1.7497716
0.5212625 -0.9784197 -1.3968782 0.4334459 -1.2260331 -2.5326452 0.34943882 -1.322713
-2.2917626 0.31681004 -2.7900574 -3.6275167 -0.44765908 -2.9474926 -3.8263073 -0.33893916
-3.0287254 -3.8745577 -0.47771433 -2.9092739 -3.7762353 -0.2783798 -1.0614293 -1.7796891
0.3617162 -0.91554177 -1.7802852 0.06557575 -1.2441448 -2.0989802 0.39019826 -1.5636898
-1.8901669 0.24343017 -1.0208986 -1.8077378 0.3590255 -0.96603465 -1.3962703 0.56849533
-1.0421265 -1.9650542 0.40842322 -0.98381895 -2.1379533 0.4598859 -0.9760644 -1.8738487
0.5109484 -1.0124274 -1.8368448 0.15243973 -1.042396 -2.0748198 0.44950327 -0.70018387
-1.5436431 0.5212513 -1.3003191 -2.3076785 0.2995623 -1.5222796 -2.609574 0.14930074
-2.4359682 -3.379685 0.033886388 -2.4840136 -3.2906168 -0.021468118 -0.96155065 -1.7348703
0.40695 -0.84881765 -1.7447101 0.39240772 -1.3768773 -2.3940034 0.3528066 -1.0935149
-2.092611 0.40042758 -1.4483461 -2.404848 0.17302765 -1.7645063 -1.7791619 0.10276652
-2.4272518 -3.1036947 0.08867018 -2.2721596 -3.2877343 0.11764964 -2.0302613 -2.8571503
0.25289768 -1.8815157 -2.6921396 0.16713716 -2.0439649 -2.907561 0.22830218 -2.077227
00000000: ef00 78bf 4bb8 9ebf 9975 0a3f 4b05 5abf
00000010: 7fa0 edbf e74f 0b3f 121e 1ec0 154b 51c0
00000020: 6c46 6a3d 05e7 0bc0 e012 47c0 8c16 1e3e
00000030: 4a3b 08c0 38e3 35c0 2e3b 963e a2e6 cebf
00000040: 196d 3bc0 38b7 083e ed8b 21c0 82b5 62c0
00000050: bea9 a6bc ca9b 30c0 d64b 60c0 395d d5bd
00000060: 092f 10c0 717f 48c0 9e60 143e 9a91 05c0
00000070: 33e1 40c0 aa66 21be e9bb f3bf 3a7f 33c0
00000080: 77f9 943d e4ed 12c0 3001 45c0 126a 993d
00000090: cd94 50bf 0d82 d1bf 6e37 cc3e 231c 5bbf
000000a0: d2ee dbbf ae0f a73e ca4e c5bf 2d13 24c0
000000b0: 506b d33e dae8 87bf 5590 05c0 bd37 933e
000000c0: 85ca 22c0 90e1 50c0 19c4 c93d 8e49 25c0
000000d0: 5cf2 4fc0 1cdd 01bd fcd3 95bf 9a93 fbbf
000000e0: def1 cb3e 2439 bbbf 53f9 13c0 f6ad a93e
000000f0: d663 2cbf 2cd1 efbf 252c ca3e dbf1 5abf
00000100: 7c5c 04c0 9950 1d3f 9bc7 14c0 6941 4bc0
00000110: b35d d03d 6d7f 29c0 f68f 59c0 647e 12bd
00000120: 236a 9abf 1ecb 17c0 6647 b43e 8705 90bf
00000130: f5da c3bf 713d da3e 1fab 30c0 ea5f 66c0
00000140: 93cd 7cbe 760d 30c0 0318 62c0 bf27 22be
00000150: 560b afbf 899f 06c0 b773 bc3e 7a84 5ebf
00000160: 404f bdbf a2ea d83e cf96 9abf 7a1e 11c0
00000170: aecc 283e 6fd9 16c0 4618 3ec0 a432 b93c
00000180: 6b79 11c0 3663 52c0 58a3 2f3e 02e1 1fc0
00000190: dea2 52c0 f9b5 bf3d 8eb7 91bf 9a74 07c0
000001a0: 7ca3 133f 2a52 8dbf f8a5 e1bf 4a64 c53e
000001b0: ae77 76bf 8a9c ecbf 5d61 083f 1555 83bf
000001c0: 3021 ebbf e1fc 693e a471 2cc0 306e 64c0
000001d0: 50e0 603c 74d1 25c0 26f7 56c0 39b6 1ebd
000001e0: 75ea f7bf 5437 3ec0 ff13 203e b2b5 06c0
000001f0: 2e58 49c0 ad75 873d 1f2f c8bf b71c 2cc0
00000200: cf81 a43e d634 9dbf 93b5 17c0 da7c 9d3e
00000210: fac1 2abf 7f1e d8bf 109d 023f bc86 16bf
00000220: 1603 a1bf c32c 003f 23db eebf 85ea 29c0
00000230: 41e4 bd3e 0637 dabf 3de9 1dc0 178c 993e
00000240: 1587 5abf cee8 f7bf 82ac 003f 5560 0abf
00000250: 1d03 b7bf a3d4 eb3e 147d 78bf 84f8 dfbf
00000260: 7671 053f b779 7abf e8cc b2bf 9fec dd3e
00000270: a7ee 9cbf dc16 22c0 a5e9 b23e a94e a9bf
00000280: 3dac 12c0 ed34 a23e 4d90 32c0 3c29 68c0
00000290: 9233 e5be b8a3 3cc0 38e2 74c0 6f89 adbe
000002a0: a3d6 41c0 c1f8 77c0 f996 f4be 8b31 3ac0
000002b0: d7ad 71c0 cc87 8ebe eadc 87bf dacc e3bf
000002c0: de32 b93e f260 6abf 63e0 e3bf 944c 863d
000002d0: 2340 9fbf b155 06c0 11c8 c73e fd26 c8bf
000002e0: fdf0 f1bf c245 793e ceac 82bf f463 e7bf
000002f0: 31d2 b73e 0c4e 77bf fcb8 b2bf e988 113f
00000300: 6764 85bf e586 fbbf d91c d13e 8fdb 7bbf
00000310: 3ad4 08c0 2a76 eb3e 5bdf 79bf 46da efbf
00000320: 84cd 023f 3997 81bf bb1d ebbf 2919 1c3e
00000330: 3b6d 85bf d9c9 04c0 4b25 e63e 403f 33bf
00000340: 1996 c5bf ba70 053f db70 a6bf 01b1 13c0
00000350: 3b60 993e 0fda c2bf 4303 27c0 4be2 183e
00000360: e7e6 1bc0 c24c 58c0 74cc 0a3d 14fa 1ec0
00000370: 7799 52c0 e8dd afbc 2f28 76bf 3b10 debf
00000380: c05b d03e 1d4c 59bf a952 dfbf aae9 c83e
00000390: 843d b0bf 5a37 19c0 11a3 b43e 4cf8 8bbf
000003a0: 57ed 05c0 d804 cd3e 6863 b9bf 08e9 19c0
000003b0: 292e 313e 58db e1bf 94bb e3bf 4177 d23d
000003c0: 1858 1bc0 efa2 46c0 b698 b53d 106b 11c0
000003d0: 3d6a 52c0 4bf2 f03d cdef 01c0 8ddb 36c0
000003e0: ce7b 813e 82d5 f0bf 044c 2cc0 0126 2b3e
000003f0: 52d0 02c0 7b15 3ac0 0cc8 693e 4af1 04c0

bayes_fc1.bias_mu f4 [64]
-0.010481436 -0.013111072 -0.008115848 -0.0107514355 -0.044035975 -0.0068239504 -0.0432949 -0.011515498
-0.032990523 0.007476698 0.02209075 -0.0070870267 0.015625771 -0.0012678072 0.019580556 0.029145842
0.015758023 0.006631366 -0.00044057937 0.008040559 -0.015081812 -0.0086622145 -0.022952951 -0.031515475
-0.02215847 0.01760757 0.0015985097 0.0010953469 0.021654086 -0.015343406 -0.006629383 -0.036985792
-0.023106959 -0.011292026 0.018941138 0.02415295 -0.033317633 0.0162558 -0.00473548 0.006597706
-0.025453258 0.0050686845 -0.008192786 0.011525235 -0.0012356124 -0.0014566435 0.00032104738 -0.019861238
-0.027056213 -0.034374885 0.007909827 -7.601048e-05 -0.02427962 0.035920102 -0.02137039 0.024708191
0.0020031317 -0.016902838 -0.013386211 0.016218293 -0.00064333365 0.0040892623 -0.01183735 0.019079935
00000000: 54ba 2bbc d2cf 56bc 55f8 04bc ca26 30bc
00000010: 115f 34bd 729b dfbb fe55 31bd 80ab 3cbc
00000020: 1221 07bd 17ff f43b a9f7 b43c 4a3a e8bb
00000030: 9e01 803c 8d2c a6ba 6767 a03c 43c3 ee3c
00000040: f816 813c ee4b d93b 90fd e6b9 8cbc 033c
00000050: b419 77bc f6eb 0dbc d407 bcbc 5f16 01bd
00000060: ae85 b5bc c03d 903c 1685 d13a be91 8f3a
00000070: e963 b13c e962 7bbc 4c3b d9bb 6a7e 17bd
00000080: ce4a bdbc 3102 39bc 722a 9b3c 68dc c53c
00000090: 1278 08bd e22a 853c 162c 9bbb 9231 d83b
000000a0: 5a83 d0bc 3517 a63b 093b 06bc 57d4 3c3c
000000b0: 46f4 a1ba d8ec beba 4052 a839 09b4 a2bc
000000c0: fea4 ddbc aecc 0cbd 3898 013c d167 9fb8
000000d0: 0ee6 c6bc f520 133d f510 afbc d568 ca3c
000000e0: f946 033b d277 8abc d751 5bbc 3adc 843c
000000f0: 64a5 28ba 38ff 853b 72f1 41bc 864d 9c3c

bayes_fc1.bias_rho f4 [64]
-0.32610875 -0.98315907 -0.8362682 -1.1692216 -1.0549649 -0.99123365 -0.36195838 -0.5985084
-1.1006131 -0.59789723 -0.3672329 -1.0995369 -0.4912052 -1.2867444 -0.51093835 -0.9136537
-0.9967462 -0.43740264 -0.45501742 -1.158565 -0.97039056 -0.6982717 -0.2656637 -0.7007436
-0.32899937 -0.3316248 -0.5833857 -1.5280752 -1.5367289 -0.56231076 -0.6035532 -0.3936524
-0.41917363 -0.46151882 -0.3565922 -0.6865075 -1.105517 -0.4400775 -0.5184109 -0.7650773
-0.9668375 -0.8104206 -0.9446419 -0.42660552 -0.36383677 -0.422097 -0.60639817 -0.9279611
-0.40642577 -0.4434697 -0.48501045 -0.55793846 -0.38462266 -1.3099707 -0.52690357 -1.1018269
-1.0470536 -0.99351716 -0.9022556 -0.56943697 -0.3793499 -0.8986473 -1.2203562 -0.530729
00000000: baf7 a6be 50b0 7bbf ac15 56bf 0ea9 95bf
00000010: 1709 87bf 7dc1 7dbf 9c52 b9be d937 19bf
00000020: e4e0 8cbf cb0f 19bf f305 bcbe a0bd 8cbf
00000030: 3f7f fbbe 0ab4 a4bf dbcc 02bf 35e5 69bf
00000040: c22a 7fbf 3df3 dfbe 0bf8 e8be dc4b 94bf
00000050: 846b 78bf efc1 32bf 1305 88be ef63 33bf
00000060: 9b72 a8be baca a9be c458 15bf f897 c3bf
00000070: 88b3 c4bf 99f3 0fbf 7682 1abf cf8c c9be
00000080: ed9d d6be 324c ecbe 4193 b6be f5be 2fbf
00000090: 9581 8dbf d751 e1be 94b6 04bf 1bdc 43bf
000000a0: aa82 77bf b977 4fbf 0dd4 71bf 0a6c dabe
000000b0: d048 babe 191d d8be e93c 1bbf dc8e 6dbf
000000c0: 0a17 d0be 760e e3be 4a53 f8be 0ed5 0ebf
000000d0: 43ed c4be 1fad a7bf 27e3 06bf aa08 8dbf
000000e0: da05 86bf 2457 7ebf 39fa 66bf 9fc6 11bf
000000f0: 263a c2be c00d 66bf a234 9cbf dbdd 07bf

bayes_fc1.prior_mu_old_bias f4 [64]
-0.010481436 -0.013111072 -0.008115848 -0.0107514355 -0.044035975 -0.0068239504 -0.0432949 -0.011515498
-0.032990523 0.007476698 0.02209075 -0.0070870267 0.015625771 -0.0012678072 0.019580556 0.029145842
0.015758023 0.006631366 -0.00044057937 0.008040559 -0.015081812 -0.0086622145 -0.022952951 -0.031515475
-0.02215847 0.01760757 0.0015985097 0.0010953469 0.021654086 -0.015343406 -0.006629383 -0.036985792
-0.023106959 -0.011292026 0.018941138 0.02415295 -0.033317633 0.0162558 -0.00473548 0.006597706
-0.025453258 0.0050686845 -0.008192786 0.011525235 -0.0012356124 -0.0014566435 0.00032104738 -0.019861238
-0.027056213 -0.034374885 0.007909827 -7.601048e-05 -0.02427962 0.035920102 -0.02137039 0.024708191
0.0020031317 -0.016902838 -0.013386211 0.016218293 -0.00064333365 0.0040892623 -0.01183735 0.019079935
00000000: 54ba 2bbc d2cf 56bc 55f8 04bc ca26 30bc
00000010: 115f 34bd 729b dfbb fe55 31bd 80ab 3cbc
00000020: 1221 07bd 17ff f43b a9f7 b43c 4a3a e8bb
00000030: 9e01 803c 8d2c a6ba 6767 a03c 43c3 ee3c
00000040: f816 813c ee4b d93b 90fd e6b9 8cbc 033c
00000050: b419 77bc f6eb 0dbc d407 bcbc 5f16 01bd
00000060: ae85 b5bc c03d 903c 1685 d13a be91 8f3a
00000070: e963 b13c e962 7bbc 4c3b d9bb 6a7e 17bd
00000080: ce4a bdbc 3102 39bc 722a 9b3c 68dc c53c
00000090: 1278 08bd e22a 853c 162c 9bbb 9231 d83b
000000a0: 5a83 d0bc 3517 a63b 093b 06bc 57d4 3c3c
000000b0: 46f4 a1ba d8ec beba 4052 a839 09b4 a2bc
000000c0: fea4 ddbc aecc 0cbd 3898 013c d167 9fb8
000000d0: 0ee6 c6bc f520 133d f510 afbc d568 ca3c
000000e0: f946 033b d277 8abc d751 5bbc 3adc 843c
000000f0: 64a5 28ba 38ff 853b 72f1 41bc 864d 9c3c

bayes_fc1.prior_sigma_small_bias f4 [64]
0.5433277 0.31781885 0.35999665 0.27049163 0.29877383 0.3156269 0.5284561 0.4380167
0.28718224 0.43823355 0.52629435 0.287451 0.4774065 0.24386218 0.46996137 0.3372264
0.31413782 0.49817276 0.49129835 0.27302748 0.32131147 0.40375987 0.56911165 0.40293938
0.542117 0.54101914 0.44340676 0.19635008 0.19481282 0.451006 0.43623033 0.5155675
0.5053648 0.48877972 0.5306623 0.40768322 0.28596035 0.4971241 0.46716586 0.38205862
0.3222891 0.36788163 0.32845357 0.502423 0.52768546 0.50420606 0.4352255 0.33315173
0.5104415 0.49579668 0.47976258 0.4525954 0.5192148 0.23888142 0.46400467 0.28687936
0.3008231 0.31500933 0.3405024 0.44842494 0.5213537 0.34154505 0.2586072 0.4625862
00000000: 8617 0b3f 27b9 a23e 7b51 b83e e17d 8a3e
00000010: e2f8 983e d999 a13e e648 073f ba43 e03e
00000020: 8d09 933e 2660 e03e 3abb 063f c72c 933e
00000030: a06e f43e 02b7 793e c79e f03e f0a8 ac3e
00000040: acd6 a03e 8010 ff3e 758b fb3e 42ca 8b3e
00000050: f082 a43e 9db9 ce3e 4db1 113f 124e ce3e
00000060: 2ec8 0a3f 3b80 0a3f 3606 e33e ff0f 493e
00000070: 037d 473e 42ea e63e 9559 df3e 3bfc 033f
00000080: 965f 013f 5641 fa3e 7cd9 073f dbbb d03e
00000090: 6569 923e 0d87 fe3e 5d30 ef3e 309d c33e
000000a0: 1403 a53e fb5a bc3e 112b a83e cb9e 003f
000000b0: 6516 073f a613 013f e0d5 de3e dd92 aa3e
000000c0: 4bac 023f 10d9 fd3e 71a3 f53e 96ba e73e
000000d0: 43eb 043f 559d 743e 0592 ed3e dae1 923e
000000e0: 7c05 9a3e e748 a13e 5556 ae3e f497 e53e
000000f0: 7077 053f fede ae3e 2a68 843e 19d8 ec3e

bayes_fc1.prior_mu_old f4 [64, 6]
-0.31128567 -0.55717826 -0.1237009 -0.4136333 -0.25975206 -0.2297552 0.50148255 -0.11419328
0.47264123 -0.40407026 0.09530988 -0.27997547 -0.3567479 0.10510268 -0.3021269 0.0965187
-0.18593504 -0.037040286 -0.35497043 0.11911948 -0.5486761 0.40606153 -0.124495044 0.0024915824
-0.35475913 0.16272722 -0.34766808 0.3209858 -0.105953 0.031820178 0.1681797 -0.1008923
0.426302 -0.27132785 0.09736765 -0.11000744 -0.36069855 -0.39372212 -0.07972203 -0.28663024
-0.41944292 -0.1497431 -0.4847686 0.14790598 -0.23855853 -0.07489283 -0.3043474 0.0258102
-0.2914211 0.10317351 -0.608742 0.43354502 -0.1199813 0.078486785 -0.1722502 -0.2637461
-0.0029401057 -0.2487864 -0.04013212 -0.04418269 -0.25417575 -0.28057677 -0.14994232 -0.26488227
-0.011791557 -0.063632704 -0.21866556 0.02678062 -0.6687096 0.44649887 -0.10540104 -0.008814098
-0.27308473 -0.1011131 -0.1057859 -0.27816385 -0.46185723 -0.15704964 0.47647345 -0.11038139
0.3890504 -0.32841808 0.13143879 -0.16960067 -0.095414154 -0.18225871 -0.08212317 -0.42084995
-0.37430394 -0.084710345 -0.4591351 -0.23488529 -0.03223495 -0.15284045 -0.031419855 0.16354662
0.36411515 -0.11745401 0.61759245 -0.3675047 0.15554954 -0.2381247 -0.3526263 -0.11824439
-0.1480602 -0.23577634 -0.28883415 -0.06066709 -0.24008232 -0.2777152 -0.13503446 -0.320143
-0.3034278 -0.10272149 0.29498786 -0.09061665 0.48503527 -0.37400144 0.13094106 -0.2566882
-0.29286748 0.06519409 -0.4061164 0.25131062 -0.10168578 0.055222653 -0.30895552 0.02601156
-0.16031198 -0.27655423 -0.12535335 0.029726937 -0.29097956 -0.36690265 -0.12602943 -0.40725952
-0.4427621 -0.05359588 -0.30709845 0.09442683 -0.16643777 0.23857097 -0.19423728 0.015215538
-0.08990221 -0.18856476 -0.11786881 -0.3526929 -0.36275697 -0.02954533 -0.3055314 -0.3324606
-0.11393063 -0.11112902 -0.4315388 -0.046127383 -0.34758726 -0.13873461 -0.009647038 -0.33701998
-0.19093901 -0.014154635 0.24429496 -0.08797909 0.6216753 -0.3313658 0.17014611 -0.1274043
0.3713895 -0.07389507 0.42921528 -0.26366255 0.10592858 -0.0218891 -0.2896764 -0.28380635
0.021387614 -0.319242 -0.2960497 -0.07220557 -0.32029295 -0.20175783 -0.22382335 -0.030328674
-0.31578735 -0.13829371 -0.25091502 -0.34376612 -0.075464346 -0.25675848 -0.49094686 -0.07264913
-0.18621829 -0.21969742 -0.16323477 -0.25396767 -0.19269575 -0.0855276 -0.38420245 -0.29345575
-0.035276856 -0.3927171 -0.2677993 -0.07426998 -0.23718952 -0.17390057 -0.09995636 -0.3246821
-0.37133706 -0.18928137 0.056375556 -0.1734027 0.07200343 -0.47050637 0.121494345 -0.16609076
-0.39136645 0.212211 -0.5123509 0.21177587 -0.087416746 0.22429016 -0.3859716 -0.36705574
-0.0065957126 -0.35928366 -0.36010152 -0.042973865 -0.3524218 0.12294993 -0.14890598 -0.1213226
-0.3009197 -0.03353484 -0.17148902 -0.15495697 -0.0063163717 -0.14815538 -0.32796547 0.10289667
-0.35077938 0.09150081 -0.47468203 0.30598372 -0.10028964 0.121784166 -0.3073391 0.04358689
-0.26458657 0.19989158 -0.12932397 0.05148836 -0.28621873 0.08421455 -0.41168666 0.4651739
00000000: d660 9fbe 3ca3 0ebf e656 fdbd bec7 d3be
00000010: 39fe 84be f244 6bbe 2961 003f 2bde e9bd
00000020: 08fe f13e 4ce2 cebe d431 c33d f258 8fbe
00000030: a9a7 b6be 1340 d73d 61b0 9abe 99ab c53d
00000040: c165 3ebe 8eb7 17bd afbe b5be eaf4 f33d
00000050: 0976 0cbf 4ce7 cf3e 42f7 febd d149 233b
00000060: fda2 b5be f7a1 263e 8d01 b2be 4058 a43e
00000070: e3fd d8bd e055 023d 4d37 2c3e 9fa0 cebd
00000080: 4144 da3e 7ceb 8abe b168 c73d 954b e1bd
00000090: 7bad b8be f295 c9be 4e45 a3bd 33c1 92be
000000a0: 39c1 d6be 4156 19be 9733 f8be aa74 173e
000000b0: b048 74be 6961 99bd 6cd3 9bbe ea6f d33c
000000c0: 2535 95be a24c d33d 84d6 1bbf 9df9 dd3e
000000d0: c1b8 f5bd aebd a03d 5b62 30be bb09 87be
000000e0: caae 40bb ddc1 7ebe 9461 24bd e9f8 34bd
000000f0: 5323 82be c2a7 8fbe 7b8a 19be a69e 87be
00000100: 6031 41bc dd51 82bd dde9 5fbe 0863 db3c
00000110: 8d30 2bbf 809b e43e 80dc d7bd 0269 10bc
00000120: c3d1 8bbe 6314 cfbd 47a6 d8bd 7e6b 8ebe
00000130: 8d78 ecbe 9fd1 20be 54f4 f33e a30f e2bd
00000140: 9d31 c73e 6a26 a8be e497 063e ccab 2dbe
00000150: 7f68 c3bd 07a2 3abe 3130 a8bd a579 d7be
00000160: c4a4 bfbe 9e7c adbd c113 ebbe c585 70be
00000170: cc08 04bd 3582 1cbe 1bb2 00bd c478 273e
00000180: 4d6d ba3e ba8b f0bd 8a1a 1e3f 9329 bcbe
00000190: 6148 1f3e f6d6 73be 6f8b b4be 1d2a f2bd
000001a0: 189d 17be 5a6f 71be 12e2 93be 0e7e 78bd
000001b0: 24d8 75be b030 8ebe 7946 0abe c9e9 a3be
000001c0: e35a 9bbe a55f d2bd a608 973e 3995 b9bd
000001d0: 8b56 f83e 1e7d bfbe 6a15 063e a36c 83be
000001e0: baf2 95be 7b84 853d 7dee cfbe c9ab 803e
000001f0: a240 d0bd 2631 623d 6b2f 9ebe 3216 d53c
00000200: d328 24be 8498 8dbe a15c 00be e885 f33c
00000210: 46fb 94be aada bbbe dc0d 01be 5284 d0be
00000220: b7b1 e2be 5a87 5bbd 023c 9dbe db62 c13d
00000230: aa6e 2abe f34b 743e 23e6 46be 984a 793c
00000240: a61e b8bd 1f17 41be 3465 f1bd 2a94 b4be
00000250: 48bb b9be 0c09 f2bc 9d6e 9cbe 4738 aabe
00000260: 7654 e9bd 9d97 e3bd a7f2 dcbe 11f0 3cbd
00000270: f5f6 b1be 7210 0ebe 9c0e 1ebc e28d acbe
00000280: 8485 43be d8e8 67bc 7528 7a3e 622e b4bd
00000290: 1d26 1f3f c7a8 a9be c83a 2e3e 4676 02be
000002a0: c426 be3e 4c56 97bd 1bc2 db3e c7fe 86be
000002b0: 15f1 d83d c550 b3bc 7750 94be 114f 91be
000002c0: 1435 af3c b073 a3be d493 97be 84e0 93bd
000002d0: 70fd a3be 9b99 4ebe f331 65be d773 f8bc
000002e0: e1ae a1be de9c 0dbe ef77 80be 1d02 b0be
000002f0: 0d8d 9abd d975 83be 635d fbbe 11c9 94bd
00000300: 02b0 3ebe 5cf8 60be 0427 27be 0d08 82be
00000310: 0952 45be 1829 afbd 2fb6 c4be d53f 96be
00000320: 777e 10bd 3712 c9be fd1c 89be dc1a 98bd
00000330: cfe1 72be fe12 32be ecb5 ccbd bb3c a6be
00000340: e41f bebe fad2 41be 0eea 663d 7a90 31be
00000350: 8976 933d 36e6 f0be 07d2 f83d b213 2abe
00000360: 2f61 c8be d74d 593e 6e29 03bf c6db 583e
00000370: 8d07 b3bd 52ac 653e 129e c5be bbee bbbe
00000380: d920 d8bb 07f4 b7be 3a5f b8be 5d05 30bd
00000390: a170 b4be 2ccd fb3d cf7a 18be fc77 f8bd
000003a0: 2612 9abe d45b 09bd d19a 2fbe 0aad 1ebe
000003b0: 91f9 cebb 0bb6 17be 17eb a7be 7dbb d23d
000003c0: 5b99 b3be c764 bb3d 8609 f3be e6a9 9c3e
000003d0: a864 cdbd fa69 f93d 8d5b 9dbe 2b88 323d
000003e0: e477 87be 61b0 4c3e 816d 04be 75e5 523d
000003f0: 438b 92be ae78 ac3d 98c8 d2be 462b ee3e

bayes_fc1.prior_sigma_small f4 [64, 6]
0.32175866 0.25416493 0.99970424 0.3553733 0.14516006 1.0018108 0.08115166 0.037294373
0.7221541 0.106491156 0.043612454 0.7733149 0.112436816 0.056672655 0.8505809 0.18116236
0.05209459 0.76212937 0.07707693 0.028534833 0.6830266 0.061398797 0.029615046 0.6424124
0.099933185 0.04267292 0.7682193 0.116944715 0.04793973 0.61744034 0.13884492 0.058767404
0.7301792 0.09593169 0.045013685 0.7313031 0.36654472 0.17781593 0.91233313 0.35410264
0.16499239 0.8695426 0.19397576 0.074199386 0.92077523 0.29701462 0.116953276 0.8472136
0.07564735 0.037530873 0.7436192 0.07285648 0.03807246 0.6774203 0.27018127 0.13111067
0.91201556 0.20832583 0.094449595 0.87251616 0.4120915 0.14286518 0.90994596 0.35429507
0.11904455 1.0468812 0.09332134 0.040909547 0.74531114 0.06837257 0.032847475 0.6754245
0.26181293 0.08921455 0.8846188 0.2811088 0.19598593 0.92881346 0.06134309 0.026967624
0.5773075 0.061918244 0.028806524 0.6171011 0.226924 0.11513967 0.8940221 0.35015187
0.20528077 0.92725044 0.26149908 0.09855249 0.77896166 0.0904821 0.050019342 0.7045146
0.098032854 0.036673598 0.7825809 0.07903335 0.036533955 0.74104655 0.27787915 0.11373348
1.0225149 0.28632045 0.15832812 0.9043779 0.32341316 0.14623564 0.99457914 0.30632645
0.14781855 0.8139116 0.065394856 0.027787987 0.70003337 0.0722759 0.034184743 0.67396086
0.13466935 0.04992695 0.7743619 0.114992656 0.04212378 0.72676516 0.1900501 0.06572378
0.86664796 0.25683093 0.08932684 0.8587241 0.41424945 0.16958186 0.98044395 0.44175893
0.2501737 0.9745022 0.14386804 0.06794191 0.8956847 0.16704546 0.081403375 0.854296
0.3547814 0.13467571 0.9757163 0.45896673 0.2145959 0.9497391 0.32123783 0.16025797
0.98736507 0.31911147 0.22103572 0.933173 0.25731644 0.07645034 0.883053 0.23618734
0.096298896 0.86404616 0.059605457 0.026234947 0.49416107 0.051140837 0.021555923 0.53796935
0.047243502 0.020550895 0.4825492 0.053081233 0.022650307 0.56361306 0.29710823 0.15588397
0.8902717 0.33668628 0.15579794 0.72647244 0.253236 0.115630835 0.9071586 0.19009306
0.14067163 0.8222513 0.307684 0.15188363 0.88868654 0.3225104 0.22115631 1.0172607
0.30210543 0.13115834 0.9180667 0.31763923 0.11144825 0.94929725 0.3197555 0.14282821
0.980906 0.3099346 0.14783303 0.77226895 0.30203518 0.11829762 0.94294566 0.40312505
0.19359238 0.98735803 0.24094012 0.094848216 0.8541038 0.19738574 0.0709857 0.7705813
0.08389342 0.033491045 0.7102339 0.08011144 0.036554545 0.68247074 0.3237485 0.16247854
0.9171819 0.35621926 0.16100907 0.90847677 0.22503407 0.08733628 0.8850295 0.28895885
0.116328284 0.9132713 0.21103741 0.08643381 0.7833986 0.15808974 0.15596007 0.74584997
0.08459765 0.043904983 0.7384647 0.09811471 0.036658157 0.75370115 0.12336849 0.055843506
0.8275695 0.14181115 0.06554039 0.7802036 0.121787615 0.05316985 0.81379944 0.11802933
00000000: 8dbd a43e e821 823e 9eec 7f3f 7df3 b53e
00000010: d7a4 143e 563b 803f d732 a63d fcc1 183d
00000020: 17df 383f 0918 da3d f9a2 323d f7f7 453f
00000030: 4645 e63d 9621 683d abbf 593f a082 393e
00000040: 2361 553d e91a 433f 82da 9d3d e2c1 e93c
00000050: d5da 2e3f 4e7d 7b3d 419b f23c 2475 243f
00000060: c5a9 cc3d cdc9 2e3d 05aa 443f b680 ef3d
00000070: 735c 443d 9210 1e3f 5d2d 0e3e 17b6 703d
00000080: 06ed 3a3f d577 c43d 4560 383d ae36 3b3f
00000090: c0ab bb3e 6115 363e aa8e 693f f14c b53e
000000a0: c4f3 283e 589a 5e3f 95a1 463e d9f5 973d
000000b0: edb7 6b3f 4d12 983e 3385 ef3d fee2 583f
000000c0: ffec 9a3d f9b9 193d d45d 3e3f c735 953d
000000d0: def1 1b3d 6b6b 2d3f 3355 8a3e e041 063e
000000e0: da79 693f 5e53 553e ca6e c13d 385d 5f3f
000000f0: a8fd d23e 404b 123e 38f2 683f 2a66 b53e
00000100: a1cd f33d 3400 863f 421f bf3d c590 273d
00000110: b6cc 3e3f eb06 8c3d 138b 063d 9fe8 2c3f
00000120: 580c 863e 1eb6 b63d 6176 623f 7eed 8f3e
00000130: 89b0 483e b8c6 6d3f e442 7b3d 35eb dc3c
00000140: 6dca 133f fc9d 7d3d a9fb eb3c 56fa 1d3f
00000150: c45e 683e 59ce eb3d a2de 643f 1b47 b33e
00000160: 1f35 523e 4960 6d3f 35e3 853e e3d5 c93d
00000170: 086a 473f ae4e b93d 15e1 4c3d 125b 343f
00000180: 73c5 c83d 0e37 163d 3957 483f 3ddc a13d
00000190: a1a4 153d 3ab5 3d3f 2d46 8e3e 19ed e83d
000001a0: c5e1 823f 9898 923e c420 223e 4f85 673f
000001b0: 6996 a53e ccbe 153e bd9c 7e3f d2d6 9c3e
000001c0: bf5d 173e 835c 503f bded 853d a2a3 e33c
000001d0: 6335 333f 6305 943d 4d05 0c3d b388 2c3f
000001e0: c3e6 093e 3480 4c3d 953c 463f 4581 eb3d
000001f0: fc89 2c3d 480d 3a3f 7e9c 423e 309a 863d
00000200: a4dc 5d3f 587f 833e fef0 b63d 58d5 5b3f
00000210: 8118 d43e dea6 2d3e 60fe 7a3f 3a2e e23e
00000220: c416 803e fa78 793f 2552 133e 2125 8b3d
00000230: 984b 653f f70d 2b3e d0b6 a63d 25b3 5a3f
00000240: e8a5 b53e 6ee8 093e 8bc8 793f b0fd ea3e
00000250: 07bf 5b3e 1a22 733f 4979 a43e aa1a 243e
00000260: f5c3 7c3f 9462 a33e 3057 623e 6de4 6e3f
00000270: fbbe 833e ff91 9c3d c30f 623f 18db 713e
00000280: 5b38 c53d 2132 5d3f da24 743d acea d63c
00000290: ae02 fd3e 0e79 513d 0c96 b03c 5cb8 093f
000002a0: 6782 413d 5a5a a83c b010 f73e b56b 593d
000002b0: 238d b93c f248 103f 921e 983e 0ca0 1f3e
000002c0: d9e8 633f 2562 ac3e 7f89 1f3e 19fa 393f
000002d0: 26a8 813e dccf ec3d 8c3b 683f c1a7 423e
000002e0: 390c 103e 107f 523f c288 9d3e 6287 1b3e
000002f0: f680 633f 1520 a53e cd76 623e 9935 823f
00000300: 90ad 9a3e 5f4e 063e 6b06 6b3f 9ca1 a23e
00000310: fb3e e43d 2505 733f feb6 a33e 8f41 123e
00000320: a81c 7b3f bfaf 9e3e 8b61 173e 6bb3 453f
00000330: 5ba4 9a3e 0646 f23d e364 713f 6866 ce3e
00000340: 153d 463e 7fc3 7c3f 02b9 763e c83f c23d
00000350: 8ca6 5a3f 7d1f 4a3e f360 913d d144 453f
00000360: 50d0 ab3d e82d 093d e4d1 353f 7711 a43d
00000370: 38ba 153d 67b6 2e3f 5dc2 a53e c660 263e
00000380: 6fcc 6a3f 5f62 b63e 90df 243e ef91 683f
00000390: 556f 663e 5ddd b23d 4b91 623f 6af2 933e
000003a0: 863d ee3d 26cc 693f 311a 583e 3604 b13d
000003b0: d08c 483f 47e2 213e ffb3 1f3e 06f0 3e3f
000003c0: 8841 ad3d b6d5 333d 060c 3d3f 5df0 c83d
000003d0: dd26 163d 8ff2 403f 9ea8 fc3d 29bc 643d
000003e0: 98db 533f f136 113e 0a3a 863d 6cbb 473f
000003f0: c96b f93d a1c8 593d 2955 503f 5db9 f13d

bayes_fc2.weight_mu f4 [1, 64]
-0.029945467 0.09108435 -0.04808391 -0.08366071 -0.05697845 0.06297767 0.009968999 -0.08292551
-0.089447014 -0.00040167314 -0.008710152 -0.07411377 -0.045939334 0.1189671 0.02040718 0.23076598
0.08025965 -0.025526742 0.10369219 0.09399357 -0.07612901 -0.07461134 -0.042606212 -0.062600255
0.002103442 -0.009047226 0.11229123 0.11039958 0.13525015 -0.028891526 -0.0027173525 0.018126518
-0.03574505 -0.033660986 -0.02795766 0.064693704 -0.06793468 0.05879945 -0.02814412 0.13242841
-0.08023754 -0.05200961 -0.06374667 -0.02457973 -0.042958383 -0.05607166 0.049712043 -0.06322528
-0.016017573 -0.029456623 0.02660625 0.000574892 0.006328578 0.086700186 0.038797624 0.112564206
0.09429943 0.078431435 0.10642224 0.020417426 0.031170476 0.078853235 -0.09331192 0.024288973
00000000: 3250 f5bc 6f8a ba3d a2f3 44bd 4e56 abbd
00000010: 3c62 69bd 70fa 803d 0355 233c dad4 a9bd
00000020: ff2f b7bd a897 d2b9 06b5 0ebc f6c8 97bd
00000030: e22a 3cbd 06a5 f33d f52c a73c eb4d 6c3e
00000040: 2c5f a43d 751d d1bc 925c d43d b37f c03d
00000050: 87e9 9bbd d5cd 98bd da83 2ebd 9034 80bd
00000060: e7d9 093b d13a 14bc f2f8 e53d 2d19 e23d
00000070: 047f 0a3e ecad ecbc 9c15 32bb 107e 943c
00000080: 6769 12bd 1ae0 09bd 7607 e5bc 227e 843d
00000090: 5621 8bbd b1d7 703d 7f8e e6bc 509b 073e
000000a0: 9453 a4bd 0708 55bd 9d8d 82bd 6e5b c9bc
000000b0: 21f5 2fbd 66ab 65bd db9e 4b3d 417c 81bd
000000c0: 4937 83bc 044f f1bc 5af5 d93c 59b4 163a
000000d0: f65f cf3b de8f b13d 42ea 1e3d 1088 e63d
000000e0: 0f20 c13d a9a0 a03d e7f3 d93d 7242 a73c
000000f0: 3a59 ff3c ce7d a13d 521a bfbd abf9 c63c

bayes_fc2.weight_rho f4 [1, 64]
-1.0520064 -3.6108065 -3.2029736 -3.6874197 -3.561033 -3.3569324 -1.1499954 -3.21005
-3.6488607 -2.3616233 -2.7123272 -3.29189 -1.6572026 -3.6637704 -1.5930657 -1.1987376
-3.5760746 -2.1266863 -1.1068368 -3.52227 -3.1317282 -2.1902797 -1.6900417 -3.193194
-2.6320503 -2.052635 -0.56236875 -3.6221397 -3.5381484 -0.94458425 -1.2182322 -1.3815913
-2.2149649 -1.0395697 -2.1134899 -2.8875961 -3.6269119 -0.24697338 -3.1482341 -0.65371114
-3.3784451 -2.9215271 -3.4078455 -2.0061889 -2.124685 -1.2973038 -1.2417003 -3.3028219
-1.4089376 -2.70247 -2.494814 -2.7188098 -1.4005085 -3.482961 -1.1540596 -3.3819575
-3.2534528 -3.3706791 -2.7508297 -2.958012 -1.1703662 -3.2437677 -3.5278535 -2.2977543
00000000: 25a8 86bf 7417 67c0 85fd 4cc0 affe 6bc0
00000010: f7e7 63c0 fbd7 56c0 0d33 93bf 7671 4dc0
00000020: ef86 69c0 d624 17c0 c596 2dc0 53ae 52c0
00000030: 371f d4bf 377b 6ac0 94e9 cbbf 3c70 99bf
00000040: 68de 64c0 a11b 08c0 d4ac 8dbf df6c 61c0
00000050: 3c6e 48c0 8b2d 0cc0 4953 d8bf 4a5d 4cc0
00000060: 8373 28c0 5f5e 03c0 66f7 0fbf 23d1 67c0
00000070: 0671 62c0 46d0 71bf 08ef 9bbf fcd7 b0bf
00000080: fcc1 0dc0 9f10 85bf 6b43 07c0 60ce 38c0
00000090: 531f 68c0 97e6 7cbe ab7c 49c0 9d59 27bf
000000a0: 7238 58c0 4dfa 3ac0 241a 5ac0 6665 00c0
000000b0: d7fa 07c0 0d0e a6bf 09f0 9ebf 6f61 53c0
000000c0: 1158 b4bf 45f5 2cc0 08ab 1fc0 fb00 2ec0
000000d0: dd43 b3bf d5e8 5ec0 3ab8 93bf fe71 58c0
000000e0: 9238 50c0 35b9 57c0 980d 30c0 1250 3dc0
000000f0: 8fce 95bf e499 4fc0 5ac8 61c0 680e 13c0

bayes_fc2.prior_mu_old f4 [1, 64]
-0.029945467 0.09108435 -0.04808391 -0.08366071 -0.05697845 0.06297767 0.009968999 -0.08292551
-0.089447014 -0.00040167314 -0.008710152 -0.07411377 -0.045939334 0.1189671 0.02040718 0.23076598
0.08025965 -0.025526742 0.10369219 0.09399357 -0.07612901 -0.07461134 -0.042606212 -0.062600255
0.002103442 -0.009047226 0.11229123 0.11039958 0.13525015 -0.028891526 -0.0027173525 0.018126518
-0.03574505 -0.033660986 -0.02795766 0.064693704 -0.06793468 0.05879945 -0.02814412 0.13242841
-0.08023754 -0.05200961 -0.06374667 -0.02457973 -0.042958383 -0.05607166 0.049712043 -0.06322528
-0.016017573 -0.029456623 0.02660625 0.000574892 0.006328578 0.086700186 0.038797624 0.112564206
0.09429943 0.078431435 0.10642224 0.020417426 0.031170476 0.078853235 -0.09331192 0.024288973
00000000: 3250 f5bc 6f8a ba3d a2f3 44bd 4e56 abbd
00000010: 3c62 69bd 70fa 803d 0355 233c dad4 a9bd
00000020: ff2f b7bd a897 d2b9 06b5 0ebc f6c8 97bd
00000030: e22a 3cbd 06a5 f33d f52c a73c eb4d 6c3e
00000040: 2c5f a43d 751d d1bc 925c d43d b37f c03d
00000050: 87e9 9bbd d5cd 98bd da83 2ebd 9034 80bd
00000060: e7d9 093b d13a 14bc f2f8 e53d 2d19 e23d
00000070: 047f 0a3e ecad ecbc 9c15 32bb 107e 943c
00000080: 6769 12bd 1ae0 09bd 7607 e5bc 227e 843d
00000090: 5621 8bbd b1d7 703d 7f8e e6bc 509b 073e
000000a0: 9453 a4bd 0708 55bd 9d8d 82bd 6e5b c9bc
000000b0: 21f5 2fbd 66ab 65bd db9e 4b3d 417c 81bd
000000c0: 4937 83bc 044f f1bc 5af5 d93c 59b4 163a
000000d0: f65f cf3b de8f b13d 42ea 1e3d 1088 e63d
000000e0: 0f20 c13d a9a0 a03d e7f3 d93d 7242 a73c
000000f0: 3a59 ff3c ce7d a13d 521a bfbd abf9 c63c

bayes_fc2.prior_sigma_small f4 [1, 64]
0.29953876 0.02667118 0.039837036 0.024728242 0.028013397 0.034248736 0.27508166 0.039561607
0.025687978 0.090084806 0.06427174 0.036508873 0.17451754 0.02531259 0.18506894 0.2635748
0.027600903 0.1126425 0.28563228 0.029104643 0.04271682 0.10605718 0.16933075 0.04022077
0.06946154 0.12079728 0.45098493 0.026374545 0.02865266 0.32846975 0.25909165 0.22408593
0.10360058 0.30277273 0.11405663 0.0542135 0.026250614 0.5772657 0.04203201 0.418784
0.033531904 0.05245144 0.032576058 0.12619229 0.11285589 0.2415865 0.2537834 0.036119018
0.21865575 0.064888194 0.07928409 0.063869424 0.22031684 0.030254025 0.2741058 0.03341628
0.037912704 0.03378896 0.061917752 0.050618995 0.2702205 0.0382747 0.028944911 0.09575031
00000000: 255d 993e 857d da3c 292c 233d e292 ca3c
00000010: 5a7c e53c 6748 0c3d 81d7 8c3e 5a0b 223d
00000020: 986f d23c 627e b83d e7a0 833d 548a 153d
00000030: bab4 323e 595c cf3c b682 3d3e 47f3 863e
00000040: 4a1b e23c 1cb1 e63d 653e 923e dc6c ee3c
00000050: d5f7 2e3d 8234 d93d 0a65 2d3e 89be 243d
00000060: da41 8e3d 9064 f73d 7fe7 e63e 6e0f d83c
00000070: fcb8 ea3c 302d a83e a9a7 843e c876 653e
00000080: 8a2c d43d 0705 9b3e 8696 e93d fa0e 5e3d
00000090: 870b d73c afc7 133f c229 2c3d db6a d63e
000000a0: c058 093d 52d7 563d 796e 053d 8d38 013e
000000b0: fd20 e73d 7462 773e e6ef 813e 89f1 133d
000000c0: 4be7 5f3e 1ae4 843d b25f a23d f9cd 823d
000000d0: bd9a 613e 4ad7 f73c 9857 8c3e 82df 083d
000000e0: 5a4a 1b3d 4b66 0a3d 789d 7d3d dd55 4f3d
000000f0: 575a 8a3e efc5 1c3d e11d ed3c bd18 c43d
