models/updated_hmnn_model_1987_2001.pth (torch, 14090 bytes, 12 tensors)

bayes_fc1.weight_mu f4 [64, 6]
0	0xbeb34227	-0.35011408
1	0xbf1aa862	-0.6041318
2	0xbe74e4e4	-0.2391544
3	0xbeea9f41	-0.45824626
4	0xbec09b1c	-0.3761834
5	0xbe837c29	-0.25680664
6	0x3f010972	0.5040504
7	0xbdf68267	-0.12036591
8	0x3f8889f7	1.0667104
9	0xbedca87f	-0.43097302
10	0x3dee5dab	0.116389595
11	0xbf1dab1a	-0.61589205
12	0xbebeba4c	-0.37251508
13	0x3e4f83e7	0.2026516
14	0xbedbd366	-0.42934722
15	0x3e93b612	0.28849846
16	0xbe2f1034	-0.17096025
17	0x3f325c7b	0.69672364
18	0xbeb61136	-0.35560006
19	0x3e550ff7	0.20806871
20	0xbf831021	-1.0239297
21	0x3ed68399	0.41897276
22	0xbdecf2c8	-0.11569744
23	0xbd0440da	-0.03228841
24	0xbec4651e	-0.38358396
25	0x3e5492cb	0.20759122
26	0xbf5b2da2	-0.85616505
27	0x3eb43aae	0.3520102
28	0xbe284fa3	-0.16436629
29	0x3ed58eeb	0.417106
30	0x3e1f4896	0.15555033
31	0xbe495eaf	-0.19665025
32	0x3faf8d38	1.3714972
33	0xbe97532e	-0.2955565
34	0x3e4c4ab4	0.19950372
35	0x3ef9d89a	0.48798066
36	0xbef0f7ef	-0.47064158
37	0xbecbb6c3	-0.39787874
38	0xbe2206fc	-0.15822977
39	0xbebc6d89	-0.3680232
40	0xbeea1e94	-0.45726454
41	0xbe1cdbb7	-0.1531819
42	0xbede5e0e	-0.43431133
43	0x3e853608	0.26017785
44	0x3cfac248	0.030610219
45	0xbe0c6f5e	-0.13714358
46	0xbeb625f4	-0.3557583
47	0x3f77f714	0.96861386
48	0xbe9bf379	-0.30459192
49	0x3e03722c	0.12836522
50	0xbf7a410f	-0.9775552
51	0x3ef31ab0	0.47481298
52	0xbe15d647	-0.14632522
53	0xbd24efbd	-0.040267695
54	0xbef7f50f	-0.48429152
55	0xbeb54723	-0.35405836
56	0xba2b94df	-0.0006545316
57	0xbe032f29	-0.12810959
58	0x3e021d48	0.12706482
59	0x3f84274e	1.0324495
60	0xbeb352c7	-0.35024092
61	0xbeab4acd	-0.33455506
62	0xbdc382d7	-0.0954644
63	0xbed90f06	-0.42394274
64	0xbe1e41db	-0.1545481
65	0xbe125d7b	-0.14293472
66	0xbe68029e	-0.22657248
67	0x3dac76fb	0.08421131
68	0xbfa25483	-1.2682041
69	0x3eedb96e	0.46430534
70	0xbdbdec23	-0.09273555
71	0xbe81c338	-0.25344253
72	0xbed68a93	-0.419026
73	0xbe21fb26	-0.15818462
74	0xbe843d0b	-0.25827822
75	0xbeb7f0eb	-0.35925993
76	0xbf03aed3	-0.51438636
77	0xbe809768	-0.25115514
78	0x3edd89fa	0.4326933
79	0xbe0d290a	-0.13785186
80	0x3f6ce4e8	0.92536783
81	0xbeb9e99f	-0.3631105
82	0x3e3d8cef	0.18510793
83	0xbe338cfc	-0.1753425
84	0xbe8aa46f	-0.27078578
85	0xbe7d5b36	-0.24741825
86	0xbe9d18e7	-0.3068306
87	0xbed3bce7	-0.4135506
88	0xbef5f418	-0.4803779
89	0xbe2782e7	-0.16358529
90	0xbf787965	-0.97060233
91	0xbe5f31e9	-0.21796383
92	0xbf586cf8	-0.84541273
93	0xbda78659	-0.08179922
94	0x3d3f4a8f	0.046701964
95	0x3f2ef819	0.68347317
96	0x3e8c09ab	0.27351126
97	0xbe4379d1	-0.19089438
98	0x3fb33e18	1.4003325
99	0xbebc113a	-0.36731893
100	0x3e4a255a	0.19740811
101	0x3e6de233	0.2323082
102	0xbedf7276	-0.43642014
103	0xbe191d96	-0.14952692
104	0xbe4c6cc0	-0.1996336
105	0xbea3d9c5	-0.32002082
106	0xbea07b9c	-0.31344306
107	0xbe4ddc7e	-0.20103642
108	0xbec06476	-0.37576646
109	0xbebcc3e2	-0.36868197
110	0xbdeaced0	-0.114652276
111	0xbeb583f0	-0.35452223
112	0xbebca76f	-0.36846492
113	0xbe1875f6	-0.14888749
114	0x3ea296a1	0.31755546
115	0xbde94237	-0.113895826
116	0x3f96f2a4	1.1792798
117	0xbeb20a40	-0.34773445
118	0x3e51147a	0.20417967
119	0xbe18194b	-0.14853399
120	0xbe783623	-0.24239402
121	0x3d665b38	0.056239337
122	0xbf35e2b7	-0.71049064
123	0x3e8b37cf	0.27191016
124	0xbe211b29	-0.15733017
125	0x3d425305	0.047442455
126	0xbec19b0e	-0.3781361
127	0x3dcac02d	0.09899936
128	0xbe27a28f	-0.16370605
129	0xbedef5e7	-0.43546984
130	0xbe676101	-0.22595598
131	0x3d9a5a09	0.07536704
132	0xbe4709dc	-0.19437355
133	0xbeb8ea22	-0.3611613
134	0xbc5d6391	-0.013512508
135	0xbef865dc	-0.48515213
136	0xbf0d23a9	-0.5513254
137	0xbe0cffff	-0.1376953
138	0xbebd511c	-0.36975944
139	0x3e247d44	0.1606341
140	0xbf08d223	-0.53445643
141	0x3e81317b	0.25233063
142	0xbe1cb6f1	-0.15304162
143	0x3eabcfe6	0.3355705
144	0xbe8b65be	-0.2722606
145	0xbe9b73a0	-0.30361652
146	0xbe06c15f	-0.13159703
147	0xbee6d878	-0.45087028
148	0xbee0a927	-0.43879053
149	0xbe6054ae	-0.21907303
150	0xbeb3d7de	-0.3512563
151	0xbecbf13a	-0.3983248
152	0xbe3a9fb5	-0.18224986
153	0xbe66f526	-0.22554454
154	0xbeea4597	-0.45756218
155	0xbe4e3aa8	-0.20139563
156	0xbec46faf	-0.38366458
157	0xbe7dc1c8	-0.24780953
158	0xbea4c10c	-0.32178533
159	0xbe9708d5	-0.29498926
160	0xbe5a1499	-0.2129692
161	0xbe7b1d57	-0.24522911
162	0x3e4cb832	0.1999214
163	0xbe022559	-0.1270956
164	0x3f902a41	1.1262895
165	0xbea012bd	-0.31264296
166	0x3e535b08	0.20640194
167	0x3ea170fa	0.31531507
168	0x3ea4b75e	0.32171148
169	0xbe22d93f	-0.15903185
170	0x3f89e0c4	1.0771718
171	0xbe838383	-0.25686273
172	0x3e139fe0	0.14416456
173	0x3ebce10d	0.3689045
174	0xbea15258	-0.31508136
175	0xbed2841b	-0.41116413
176	0xbe84ff6e	-0.25976127
177	0xbeab2ef1	-0.3343425
178	0xbec855a8	-0.3912785
179	0xbea42159	-0.32056692
180	0xbec94d7b	-0.39316925
181	0xbe7dfeab	-0.2480418
182	0xbe975071	-0.2955356
183	0xbe1a6c7c	-0.15080446
184	0xbeb29ca0	-0.3488512
185	0xbea15b5e	-0.3151502
186	0xbebe2e09	-0.37144497
187	0xbe99d6b2	-0.30046612
188	0xbe54a79d	-0.20767064
189	0xbe83784a	-0.2567771
190	0xbef42dcb	-0.47691187
191	0xbe3922a6	-0.18079624
192	0xbe87862d	-0.26469555
193	0xbea634d1	-0.3246217
194	0xbe617410	-0.2201693
195	0xbe8f96c2	-0.28044707
196	0xbe815b16	-0.25264806
197	0xbde57b1d	-0.112051226
198	0xbed4ef9e	-0.41589063
199	0xbea2a93d	-0.31769744
200	0xbe84459a	-0.25834352
201	0xbec22e29	-0.37925842
202	0xbeb01e8e	-0.3439831
203	0xbe51f40f	-0.20503257
204	0xbe857537	-0.2606599
205	0xbe07393e	-0.1320543
206	0xbd89a0da	-0.06720133
207	0xbe962e51	-0.29332212
208	0xbed7aa04	-0.421219
209	0xbdb33792	-0.087508336
210	0xbe3d92e8	-0.18513072
211	0xbe8287cc	-0.2549423
212	0x3f1a8efc	0.60374427
213	0xbec12f8b	-0.37731585
214	0x3e2f3760	0.17110968
215	0x3f2f9a74	0.6859505
216	0xbedfff25	-0.43749347
217	0x3e8733a6	0.26406592
218	0xbf792e78	-0.9733653
219	0x3e9aa7d4	0.30206168
220	0xbdfb1e9b	-0.12261697
221	0x3e6418fe	0.22275159
222	0xbf0323ee	-0.512267
223	0xbee7ada8	-0.45249677
224	0xbe761070	-0.24029708
225	0xbef09ddb	-0.46995434
226	0xbeb79fc6	-0.35864085
227	0xbe906203	-0.28199777
228	0xbe9e3c1a	-0.3090523
229	0x3e4a73b1	0.19770695
230	0x3d5d682b	0.05405442
231	0xbe237483	-0.15962414
232	0xbeba065c	-0.36332977
233	0x3ea99744	0.3312322
234	0xbe9e28cd	-0.30890504
235	0xbe74ef9f	-0.23919533
236	0xbe879874	-0.264835
237	0xbe6c6a81	-0.23087503
238	0xbea5ac2f	-0.32357928
239	0xbc15128f	-0.009098663
240	0xbeb0e5b6	-0.34550256
241	0x3e3592f0	0.17731833
242	0xbf6a911b	-0.91627663
243	0x3eb0450b	0.34427676
244	0xbe0124ab	-0.12611644
245	0x3e70bf02	0.23510364
246	0xbeadd043	-0.33947954
247	0x3e028650	0.12746549
248	0xbf0e140d	-0.55499345
249	0x3e9a653e	0.30155367
250	0xbe17ecb8	-0.14836395
251	0x3e7a172a	0.24422899
252	0xbe94ac06	-0.29037493
253	0x3dc0ae2b	0.0940822
254	0xbf722f9f	-0.94603914
255	0x3eed8520	0.4639063

bayes_fc1.weight_rho f4 [64, 6]
0	0xbf793a7f	-0.9735488
1	0xbfbf5d9d	-1.4950444
2	0x3ebdb0e5	0.37049022
3	0xbf6c7a82	-0.9237443
4	0xbfd6301e	-1.6733434
5	0x3eb04213	0.3442541
6	0xc0420fb9	-3.0322096
7	0xc081099b	-4.0324225
8	0xbeb93afa	-0.36177808
9	0xc0365e1c	-2.849494
10	0xc072bd38	-3.792799
11	0xbea75620	-0.32682896
12	0xc0314192	-2.769627
13	0xc0758ee0	-3.8368454
14	0xbc942816	-0.01808552
15	0xc0211bb8	-2.5173168
16	0xc053d703	-3.3099983
17	0xbe463a0c	-0.1935808
18	0xc0493c8b	-3.1443202
19	0xc088e0ae	-4.2774267
20	0xbf33d68f	-0.70249265
21	0xc0513f32	-3.2694821
22	0xc0826a7a	-4.0754976
23	0xbf2b5c58	-0.6693778
24	0xc0440b0a	-3.0631738
25	0xc07f8a79	-3.9928267
26	0xbe80682d	-0.2507948
27	0xc048d4e2	-3.1379933
28	0xc074042c	-3.8127546
29	0xbf31ba60	-0.6942501
30	0xc02fc619	-2.746466
31	0xc0702293	-3.7521102
32	0xbf61db3c	-0.8822515
33	0xc04b8349	-3.179888
34	0xc0876571	-4.231133
35	0xbf17cef7	-0.5930018
36	0xbf79659b	-0.9742066
37	0xbfd0090c	-1.6252761
38	0x3eb4a5d2	0.3528276
39	0xbf6e72a4	-0.9314368
40	0xbfc1fb28	-1.5154772
41	0x3e9dc604	0.30815136
42	0xc00e242d	-2.220958
43	0xc058d307	-3.38788
44	0x3e9fcae2	0.31209475
45	0xbfcb0362	-1.5860407
46	0xc020c063	-2.5117424
47	0x3e9bcc01	0.3042908
48	0xc04176c6	-3.0228744
49	0xc0801d6b	-4.003591
50	0xbec6e637	-0.38847515
51	0xc0428b68	-3.0397587
52	0xc07b0df3	-3.9227264
53	0xbf0ab4ef	-0.5418233
54	0xbfbcca94	-1.4749322
55	0xc021386f	-2.5190694
56	0x3d84ea23	0.064899705
57	0xc01763f5	-2.365476
58	0xc043d894	-3.0600939
59	0x3e0263fb	0.12733452
60	0xbf45c179	-0.7724834
61	0xbff39a09	-1.9031383
62	0x3edf8d2b	0.4366239
63	0xbf734ee6	-0.95042264
64	0xbff8a9f7	-1.9426869
65	0x3ece5fbe	0.4030742
66	0xc040c130	-3.0117912
67	0xc0848397	-4.141063
68	0xbf0890d9	-0.5334602
69	0xc0442b3c	-3.0651388
70	0xc0829bea	-4.0815325
71	0xbf05474d	-0.5206192
72	0xbf939de9	-1.1532565
73	0xc0037ecd	-2.0546143
74	0x3ea95457	0.3307216
75	0xbf87415f	-1.0566825
76	0xbfcd42df	-1.6036032
77	0x3eaf79be	0.3427257
78	0xc050a4dd	-3.2600625
79	0xc084386c	-4.1318874
80	0xbf366b3e	-0.7125739
81	0xc050611c	-3.255927
82	0xc0881987	-4.253116
83	0xbf0e7183	-0.55641955
84	0xbfabeb23	-1.3431133
85	0xc013075c	-2.2973242
86	0x3e904391	0.2817655
87	0xbf8282fd	-1.0196224
88	0xbfccbd5d	-1.5995289
89	0x3ea2f768	0.3182938
90	0xbfd44607	-1.6583871
91	0xc06f20b5	-3.7363713
92	0xbf3a325c	-0.7273309
93	0xc069488e	-3.6450534
94	0xc090423c	-4.5080853
95	0xbfd60647	-1.6720666
96	0xc03142c5	-2.7697003
97	0xc068d8b5	-3.6382267
98	0xbed10850	-0.40826654
99	0xc03d9855	-2.9624226
100	0xc07c34f7	-3.9407327
101	0xbefb7a49	-0.49116734
102	0xbf9f18c4	-1.2429433
103	0xc00d2cba	-2.205855
104	0x3ea133cf	0.3148484
105	0xbf8071eb	-1.0034765
106	0xc00878fb	-2.132384
107	0x3e9e7d86	0.30955142
108	0xbf863d41	-1.0487443
109	0xbff6153d	-1.9225231
110	0x3ebd0387	0.36916754
111	0xbf85f2de	-1.0464742
112	0xbfe9db8c	-1.8270125
113	0x3ee89f87	0.4543421
114	0xc05d7f5c	-3.4608984
115	0xc0879ba1	-4.2377477
116	0xbf58d465	-0.8469909
117	0xc051822a	-3.2735696
118	0xc08a1969	-4.315602
119	0xbf395dd8	-0.7240882
120	0xc01b1494	-2.423131
121	0xc060a253	-3.5099075
122	0xbe19e180	-0.15027428
123	0xc01e45a7	-2.4730012
124	0xc0564853	-3.3481643
125	0xbd8e93aa	-0.069617584
126	0xbffb6739	-1.9640876
127	0xc04156dd	-3.0209267
128	0x3e9ae846	0.30255336
129	0xbfc00e62	-1.5004389
130	0xc024bd71	-2.5740626
131	0x3e2af09f	0.16693352
132	0xbf4b634f	-0.7944841
133	0xbfc96603	-1.5734257
134	0x3f1186f7	0.56846565
135	0xbf14bd72	-0.5810157
136	0xbfaf49dc	-1.3694415
137	0x3ed08d38	0.4073274
138	0xc01273fc	-2.2883291
139	0xc05fbbea	-3.4958444
140	0x3e32a596	0.17445979
141	0xc00d3bb7	-2.2067697
142	0xc04eed40	-3.2332306
143	0xbe6fec65	-0.23430021
144	0xbf8ac786	-1.084214
145	0xbfed284f	-1.8527926
146	0x3ef85e3f	0.48509404
147	0xbf5f77f7	-0.87292427
148	0xbfcbc6fb	-1.5920099
149	0x3ee93b0e	0.45552868
150	0xbf7872ee	-0.9705037
151	0xbfd4bf9d	-1.6620976
152	0x3ec07658	0.3759029
153	0xbf957d54	-1.1678872
154	0xbfba5dbf	-1.4559859
155	0x3ebae256	0.36500806
156	0xbf9aee0f	-1.21039
157	0xc00bc01b	-2.1836002
158	0x3d04096d	0.03223555
159	0xbfc1c853	-1.5139259
160	0xc017d6a1	-2.372475
161	0x3d83a025	0.064270295
162	0xc03af0bf	-2.920944
163	0xc0801d82	-4.003602
164	0xbf5254af	-0.82160467
165	0xc052afcb	-3.2919796
166	0xc0885c79	-4.261288
167	0xbf33eb21	-0.70280653
168	0xc053086e	-3.2973895
169	0xc081fa0d	-4.061774
170	0xbf7447cb	-0.9542205
171	0xc04a3c0a	-3.1599145
172	0xc0882aa5	-4.2552056
173	0xbf58844d	-0.84576875
174	0xbfb17b47	-1.3865746
175	0xbfe2aae2	-1.7708399
176	0x3e97f6cf	0.29680488
177	0xbfa0f106	-1.2573555
178	0xbfdf0097	-1.7422055
179	0x3e25a392	0.16175678
180	0xbfa25169	-1.2681094
181	0xc0026f47	-2.0380418
182	0x3ecf8413	0.40530452
183	0xbfd4d3f8	-1.6627188
184	0xbfefe879	-1.874282
185	0x3e7648da	0.24051228
186	0xbf860990	-1.0471668
187	0xbfe6a39c	-1.801868
188	0x3ec6b225	0.38807788
189	0xbf84f5cd	-1.0387512
190	0xbfb74cf6	-1.4320362
191	0x3ebd1f2c	0.36937845
192	0xbf8ff727	-1.12473
193	0xbfe74fbb	-1.8071207
194	0x3ec4cbb6	0.3843667
195	0xbf87edb7	-1.061942
196	0xbff0fb2c	-1.8826652
197	0x3efc7a27	0.49311945
198	0xbf910bb8	-1.1331701
199	0xbfea91f6	-1.8325794
200	0x3e905a38	0.2819383
201	0xbf8889f7	-1.0667104
202	0xc001957c	-2.0247488
203	0x3ea10c80	0.3145485
204	0xbfb5b28d	-1.4195114
205	0xc009600c	-2.1464872
206	0x3ef8fe5e	0.48631567
207	0xbf712d54	-0.9420979
208	0xbff49ad1	-1.9109746
209	0x3ed57109	0.416878
210	0xbfd3b9f5	-1.6541125
211	0xc037b4e7	-2.8704164
212	0x3ec874c3	0.39151582
213	0xc001bdb6	-2.027204
214	0xc04c92ac	-3.1964521
215	0x3e9de450	0.3083825
216	0xc04700ba	-3.1094193
217	0xc0850f92	-4.1581507
218	0xbea8947a	-0.3292578
219	0xc03ab1ae	-2.9170947
220	0xc0807380	-4.014099
221	0xbf1a3304	-0.60234094
222	0xbf83d9c8	-1.0300837
223	0xbfcce13b	-1.6006235
224	0x3e9a2ea3	0.30113706
225	0xbf83a717	-1.0285367
226	0xbfebbfd6	-1.8417919
227	0x3eb82829	0.3596814
228	0xbfc4ec14	-1.5384545
229	0xc0302950	-2.7525215
230	0x3eee0036	0.46484536
231	0xbfa19fcf	-1.2626895
232	0xc00840f3	-2.1289642
233	0x3eb114ef	0.34586284
234	0xbfb426be	-1.4074323
235	0xc016b9bb	-2.355086
236	0x3e28e9d6	0.16495451
237	0xbfe1074e	-1.7580354
238	0xbff77e73	-1.9335464
239	0x3e0041f7	0.12525164
240	0xc0433faa	-3.0507607
241	0xc08251c3	-4.0724807
242	0xbf00b756	-0.5027975
243	0xc051c6dc	-3.2777624
244	0xc0819482	-4.0493784
245	0xbf2d24e5	-0.6763442
246	0xc0133adf	-2.3004682
247	0xc0632bc0	-3.5495453
248	0x3ded068c	0.11573514
249	0xc016a44c	-2.353778
250	0xc053fade	-3.3121867
251	0xbdc5b184	-0.09652999
252	0xc0286ee0	-2.6317673
253	0xc06b66e4	-3.678155
254	0xbcdf5592	-0.027262483
255	0xc03afb7d	-2.9215996

bayes_fc1.bias_mu f4 [64]
0	0xbd96cf71	-0.07363785
1	0x3d68d464	0.056843176
2	0x3b796951	0.0038057158
3	0xbd08de97	-0.033415403
4	0xbcf9de32	-0.030501459
5	0x3e019539	0.1265458
6	0x3c5a7068	0.013332464
7	0x3df76825	0.12080411
8	0xbd52cc9d	-0.051464666
9	0x3ea0ce3e	0.3140735
10	0xbc06263f	-0.0081878295
11	0xbdbcae96	-0.09212987
12	0xbd051481	-0.032490257
13	0x3d8f46e8	0.06995946
14	0x3b17304f	0.0023069566
15	0x3f985896	1.1902034
16	0x3db14a8b	0.08656796
17	0xbd975909	-0.07390029
18	0xbc93f887	-0.018062843
19	0x3d89a90f	0.067216985
20	0xbdb261b4	-0.08710042
21	0xbce7c162	-0.028290454
22	0x3c94353f	0.018091796
23	0xbd2d3979	-0.04229114
24	0xbd000859	-0.03125796
25	0xbcd0e6f3	-0.02550075
26	0xbbbf37b8	-0.0058354996
27	0x3d95438f	0.072882764
28	0x3d927cc8	0.071527064
29	0xbd23414d	-0.039857198
30	0xbd0238db	-0.031792503
31	0xbcd973f0	-0.026544541
32	0x3cf1fe66	0.029540252
33	0xbd38d647	-0.045126226
34	0xbbf22fe5	-0.0073909634
35	0x3ebe51dc	0.3717183
36	0xbd276b2a	-0.040873684
37	0xbd2ba8c5	-0.041908998
38	0x3c7c62ba	0.015404398
39	0xbc778d15	-0.01510932
40	0xbd8a94cf	-0.06766664
41	0xbd032c83	-0.03202487
42	0xbcf8f37e	-0.030389544
43	0x3b94b102	0.0045377025
44	0xbd37411e	-0.044739835
45	0xbd893544	-0.06699613
46	0xbd09c7c0	-0.033637762
47	0x3cc27346	0.023736607
48	0x3c1de6df	0.0096375635
49	0xbd42a22c	-0.04751794
50	0x3cad4c24	0.02115447
51	0x3ca5a7d8	0.020221636
52	0x3c9e3a6b	0.019314965
53	0x3d10a6c3	0.035315286
54	0x3a9a2e21	0.0011763015
55	0x3d8d0687	0.068860106
56	0x3d839032	0.064239874
57	0x3de6c2af	0.11267602
58	0x3dc871d9	0.0978734
59	0x3e8abb7f	0.27096173
60	0xbd88b398	-0.0667488
61	0x3dce8da3	0.10085609
62	0xbd25405a	-0.040344574
63	0x3c906437	0.017625911

bayes_fc1.bias_rho f4 [64]
0	0xbedb7195	-0.42860094
1	0xbfb75b64	-1.4324765
2	0xbfa4fc0f	-1.2889422
3	0xbfe50827	-1.7893113
4	0xbfcce41e	-1.6007116
5	0xbfcecbb5	-1.6155916
6	0xbefaa3e0	-0.48953152
7	0xbf33dd1a	-0.7025925
8	0xbfcbb1eb	-1.5913671
9	0xbf2ff3fc	-0.68731666
10	0xbeb9354c	-0.36173475
11	0xbfca6d6e	-1.5814645
12	0xbeeacb17	-0.4585807
13	0xbfcb81d1	-1.5898992
14	0xbefb753a	-0.49112874
15	0xbfe8084c	-1.8127532
16	0xbfbb9ee4	-1.4657865
17	0xbf186a56	-0.59537256
18	0xbef9090b	-0.48639712
19	0xbff52572	-1.9152052
20	0xbfa1a5e7	-1.2628754
21	0xbf5ce393	-0.8628475
22	0xbec1fe91	-0.3788953
23	0xbf923850	-1.1423435
24	0xbeea68bd	-0.45783034
25	0xbef14b34	-0.47127688
26	0xbf4ec259	-0.807653
27	0xbff0995f	-1.8796805
28	0xbfeb2b53	-1.8372597
29	0xbf2c2dcb	-0.67257375
30	0xbf269770	-0.65074825
31	0xbedbbd5b	-0.42917904
32	0xbecec18d	-0.40382043
33	0xbf177cf5	-0.59175044
34	0xbf0016ae	-0.50034606
35	0xbef387e0	-0.47564602
36	0xbfd4eee9	-1.663541
37	0xbf099f2e	-0.53758514
38	0xbf19fdce	-0.601529
39	0xbf4d71cb	-0.8025176
40	0xbfd5d5c8	-1.6705866
41	0xbfa1c4ce	-1.2638185
42	0xbfaf215f	-1.3682059
43	0xbf030e4d	-0.51193696
44	0xbee0367e	-0.43791574
45	0xbef09e35	-0.46995702
46	0xbf34e867	-0.7066712
47	0xbf833148	-1.0249414
48	0xbf102358	-0.5630393
49	0xbed53592	-0.41642433
50	0xbee0feeb	-0.43944487
51	0xbf1c8a1a	-0.61148226
52	0xbee99c9f	-0.45627305
53	0xc00c7ee7	-2.1952455
54	0xbeecb8b0	-0.46234655
55	0xbfd6db55	-1.6785685
56	0xbfce7b0e	-1.6131303
57	0xbfbdb58d	-1.482103
58	0xbfa7419a	-1.3066895
59	0xbf5ebac0	-0.8700371
60	0xbf0f634e	-0.560109
61	0xbfdc79e5	-1.7224699
62	0xbfe99358	-1.8248091
63	0xbf029543	-0.51009005

bayes_fc1.prior_mu_old_bias f4 [64]
0	0xbd96cf71	-0.07363785
1	0x3d68d464	0.056843176
2	0x3b796951	0.0038057158
3	0xbd08de97	-0.033415403
4	0xbcf9de32	-0.030501459
5	0x3e019539	0.1265458
6	0x3c5a7068	0.013332464
7	0x3df76825	0.12080411
8	0xbd52cc9d	-0.051464666
9	0x3ea0ce3e	0.3140735
10	0xbc06263f	-0.0081878295
11	0xbdbcae96	-0.09212987
12	0xbd051481	-0.032490257
13	0x3d8f46e8	0.06995946
14	0x3b17304f	0.0023069566
15	0x3f985896	1.1902034
16	0x3db14a8b	0.08656796
17	0xbd975909	-0.07390029
18	0xbc93f887	-0.018062843
19	0x3d89a90f	0.067216985
20	0xbdb261b4	-0.08710042
21	0xbce7c162	-0.028290454
22	0x3c94353f	0.018091796
23	0xbd2d3979	-0.04229114
24	0xbd000859	-0.03125796
25	0xbcd0e6f3	-0.02550075
26	0xbbbf37b8	-0.0058354996
27	0x3d95438f	0.072882764
28	0x3d927cc8	0.071527064
29	0xbd23414d	-0.039857198
30	0xbd0238db	-0.031792503
31	0xbcd973f0	-0.026544541
32	0x3cf1fe66	0.029540252
33	0xbd38d647	-0.045126226
34	0xbbf22fe5	-0.0073909634
35	0x3ebe51dc	0.3717183
36	0xbd276b2a	-0.040873684
37	0xbd2ba8c5	-0.041908998
38	0x3c7c62ba	0.015404398
39	0xbc778d15	-0.01510932
40	0xbd8a94cf	-0.06766664
41	0xbd032c83	-0.03202487
42	0xbcf8f37e	-0.030389544
43	0x3b94b102	0.0045377025
44	0xbd37411e	-0.044739835
45	0xbd893544	-0.06699613
46	0xbd09c7c0	-0.033637762
47	0x3cc27346	0.023736607
48	0x3c1de6df	0.0096375635
49	0xbd42a22c	-0.04751794
50	0x3cad4c24	0.02115447
51	0x3ca5a7d8	0.020221636
52	0x3c9e3a6b	0.019314965
53	0x3d10a6c3	0.035315286
54	0x3a9a2e21	0.0011763015
55	0x3d8d0687	0.068860106
56	0x3d839032	0.064239874
57	0x3de6c2af	0.11267602
58	0x3dc871d9	0.0978734
59	0x3e8abb7f	0.27096173
60	0xbd88b398	-0.0667488
61	0x3dce8da3	0.10085609
62	0xbd25405a	-0.040344574
63	0x3c906437	0.017625911

bayes_fc1.prior_sigma_small_bias f4 [64]
0	0x3f006b2e	0.50163543
1	0x3e5b36c9	0.21407618
2	0x3e793a6e	0.24338695
3	0x3e1e3575	0.1545008
4	0x3e3c3126	0.18378124
5	0x3e39a654	0.18129855
6	0x3ef4c1f1	0.47804216
7	0x3ecdfdc0	0.40232658
8	0x3e3dcdff	0.18535613
9	0x3ed0985c	0.4074124
10	0x3f074eea	0.5285479
11	0x3e3f8703	0.18703847
12	0x3efad65d	0.4899167
13	0x3e3e0f25	0.18560465
14	0x3ef4726c	0.47743547
15	0x3e1ace84	0.15117842
16	0x3e54ba7b	0.20774262
17	0x3ee0d5a9	0.4391301
18	0x3ef55e36	0.4792344
19	0x3e0cb836	0.13742146
20	0x3e7f0dca	0.24907604
21	0x3eb43dfb	0.35203537
22	0x3f05838a	0.5215384
23	0x3e8dc968	0.27692723
24	0x3efafc77	0.4902074
25	0x3ef85452	0.4850183
26	0x3ebccabe	0.3687343
27	0x3e117699	0.14205398
28	0x3e17529a	0.14777604
29	0x3ed3222b	0.41237006
30	0x3ed6efdd	0.41979876
31	0x3f005c3d	0.50140744
32	0x3f02f09a	0.5114838
33	0x3ee17e97	0.44041893
34	0x3ef2a918	0.47394633
35	0x3ef77887	0.48334143
36	0x3e31ab5a	0.17350522
37	0x3eeb8c02	0.46005255
38	0x3edfb771	0.43694642
39	0x3ebd9ab1	0.37032083
40	0x3e308607	0.17238627
41	0x3e7ed74d	0.24886818
42	0x3e683afd	0.22678752
43	0x3ef06db6	0.46958703
44	0x3efef61d	0.49797145
45	0x3ef896d5	0.48552576
46	0x3ecd4ce9	0.4009774
47	0x3e9cfc9e	0.30661482
48	0x3ee6c799	0.45074156
49	0x3f01a71f	0.5064563
50	0x3efea789	0.49737194
51	0x3eddeb1c	0.43343437
52	0x3efb4b9a	0.49081117
53	0x3dd82f1b	0.1055586
54	0x3efa1767	0.4884598
55	0x3e2f3bcf	0.17112659
56	0x3e3a116d	0.1817071
57	0x3e519d6f	0.20470212
58	0x3e755459	0.23957957
59	0x3eb3270d	0.3499073
60	0x3ee75317	0.4518058
61	0x3e284ad8	0.164348
62	0x3e191564	0.14949566
63	0x3ef0c87b	0.47027954

bayes_fc1.prior_mu_old f4 [64, 6]
0	0xbeb34227	-0.35011408
1	0xbf1aa862	-0.6041318
2	0xbe74e4e4	-0.2391544
3	0xbeea9f41	-0.45824626
4	0xbec09b1c	-0.3761834
5	0xbe837c29	-0.25680664
6	0x3f010972	0.5040504
7	0xbdf68267	-0.12036591
8	0x3f8889f7	1.0667104
9	0xbedca87f	-0.43097302
10	0x3dee5dab	0.116389595
11	0xbf1dab1a	-0.61589205
12	0xbebeba4c	-0.37251508
13	0x3e4f83e7	0.2026516
14	0xbedbd366	-0.42934722
15	0x3e93b612	0.28849846
16	0xbe2f1034	-0.17096025
17	0x3f325c7b	0.69672364
18	0xbeb61136	-0.35560006
19	0x3e550ff7	0.20806871
20	0xbf831021	-1.0239297
21	0x3ed68399	0.41897276
22	0xbdecf2c8	-0.11569744
23	0xbd0440da	-0.03228841
24	0xbec4651e	-0.38358396
25	0x3e5492cb	0.20759122
26	0xbf5b2da2	-0.85616505
27	0x3eb43aae	0.3520102
28	0xbe284fa3	-0.16436629
29	0x3ed58eeb	0.417106
30	0x3e1f4896	0.15555033
31	0xbe495eaf	-0.19665025
32	0x3faf8d38	1.3714972
33	0xbe97532e	-0.2955565
34	0x3e4c4ab4	0.19950372
35	0x3ef9d89a	0.48798066
36	0xbef0f7ef	-0.47064158
37	0xbecbb6c3	-0.39787874
38	0xbe2206fc	-0.15822977
39	0xbebc6d89	-0.3680232
40	0xbeea1e94	-0.45726454
41	0xbe1cdbb7	-0.1531819
42	0xbede5e0e	-0.43431133
43	0x3e853608	0.26017785
44	0x3cfac248	0.030610219
45	0xbe0c6f5e	-0.13714358
46	0xbeb625f4	-0.3557583
47	0x3f77f714	0.96861386
48	0xbe9bf379	-0.30459192
49	0x3e03722c	0.12836522
50	0xbf7a410f	-0.9775552
51	0x3ef31ab0	0.47481298
52	0xbe15d647	-0.14632522
53	0xbd24efbd	-0.040267695
54	0xbef7f50f	-0.48429152
55	0xbeb54723	-0.35405836
56	0xba2b94df	-0.0006545316
57	0xbe032f29	-0.12810959
58	0x3e021d48	0.12706482
59	0x3f84274e	1.0324495
60	0xbeb352c7	-0.35024092
61	0xbeab4acd	-0.33455506
62	0xbdc382d7	-0.0954644
63	0xbed90f06	-0.42394274
64	0xbe1e41db	-0.1545481
65	0xbe125d7b	-0.14293472
66	0xbe68029e	-0.22657248
67	0x3dac76fb	0.08421131
68	0xbfa25483	-1.2682041
69	0x3eedb96e	0.46430534
70	0xbdbdec23	-0.09273555
71	0xbe81c338	-0.25344253
72	0xbed68a93	-0.419026
73	0xbe21fb26	-0.15818462
74	0xbe843d0b	-0.25827822
75	0xbeb7f0eb	-0.35925993
76	0xbf03aed3	-0.51438636
77	0xbe809768	-0.25115514
78	0x3edd89fa	0.4326933
79	0xbe0d290a	-0.13785186
80	0x3f6ce4e8	0.92536783
81	0xbeb9e99f	-0.3631105
82	0x3e3d8cef	0.18510793
83	0xbe338cfc	-0.1753425
84	0xbe8aa46f	-0.27078578
85	0xbe7d5b36	-0.24741825
86	0xbe9d18e7	-0.3068306
87	0xbed3bce7	-0.4135506
88	0xbef5f418	-0.4803779
89	0xbe2782e7	-0.16358529
90	0xbf787965	-0.97060233
91	0xbe5f31e9	-0.21796383
92	0xbf586cf8	-0.84541273
93	0xbda78659	-0.08179922
94	0x3d3f4a8f	0.046701964
95	0x3f2ef819	0.68347317
96	0x3e8c09ab	0.27351126
97	0xbe4379d1	-0.19089438
98	0x3fb33e18	1.4003325
99	0xbebc113a	-0.36731893
100	0x3e4a255a	0.19740811
101	0x3e6de233	0.2323082
102	0xbedf7276	-0.43642014
103	0xbe191d96	-0.14952692
104	0xbe4c6cc0	-0.1996336
105	0xbea3d9c5	-0.32002082
106	0xbea07b9c	-0.31344306
107	0xbe4ddc7e	-0.20103642
108	0xbec06476	-0.37576646
109	0xbebcc3e2	-0.36868197
110	0xbdeaced0	-0.114652276
111	0xbeb583f0	-0.35452223
112	0xbebca76f	-0.36846492
113	0xbe1875f6	-0.14888749
114	0x3ea296a1	0.31755546
115	0xbde94237	-0.113895826
116	0x3f96f2a4	1.1792798
117	0xbeb20a40	-0.34773445
118	0x3e51147a	0.20417967
119	0xbe18194b	-0.14853399
120	0xbe783623	-0.24239402
121	0x3d665b38	0.056239337
122	0xbf35e2b7	-0.71049064
123	0x3e8b37cf	0.27191016
124	0xbe211b29	-0.15733017
125	0x3d425305	0.047442455
126	0xbec19b0e	-0.3781361
127	0x3dcac02d	0.09899936
128	0xbe27a28f	-0.16370605
129	0xbedef5e7	-0.43546984
130	0xbe676101	-0.22595598
131	0x3d9a5a09	0.07536704
132	0xbe4709dc	-0.19437355
133	0xbeb8ea22	-0.3611613
134	0xbc5d6391	-0.013512508
135	0xbef865dc	-0.48515213
136	0xbf0d23a9	-0.5513254
137	0xbe0cffff	-0.1376953
138	0xbebd511c	-0.36975944
139	0x3e247d44	0.1606341
140	0xbf08d223	-0.53445643
141	0x3e81317b	0.25233063
142	0xbe1cb6f1	-0.15304162
143	0x3eabcfe6	0.3355705
144	0xbe8b65be	-0.2722606
145	0xbe9b73a0	-0.30361652
146	0xbe06c15f	-0.13159703
147	0xbee6d878	-0.45087028
148	0xbee0a927	-0.43879053
149	0xbe6054ae	-0.21907303
150	0xbeb3d7de	-0.3512563
151	0xbecbf13a	-0.3983248
152	0xbe3a9fb5	-0.18224986
153	0xbe66f526	-0.22554454
154	0xbeea4597	-0.45756218
155	0xbe4e3aa8	-0.20139563
156	0xbec46faf	-0.38366458
157	0xbe7dc1c8	-0.24780953
158	0xbea4c10c	-0.32178533
159	0xbe9708d5	-0.29498926
160	0xbe5a1499	-0.2129692
161	0xbe7b1d57	-0.24522911
162	0x3e4cb832	0.1999214
163	0xbe022559	-0.1270956
164	0x3f902a41	1.1262895
165	0xbea012bd	-0.31264296
166	0x3e535b08	0.20640194
167	0x3ea170fa	0.31531507
168	0x3ea4b75e	0.32171148
169	0xbe22d93f	-0.15903185
170	0x3f89e0c4	1.0771718
171	0xbe838383	-0.25686273
172	0x3e139fe0	0.14416456
173	0x3ebce10d	0.3689045
174	0xbea15258	-0.31508136
175	0xbed2841b	-0.41116413
176	0xbe84ff6e	-0.25976127
177	0xbeab2ef1	-0.3343425
178	0xbec855a8	-0.3912785
179	0xbea42159	-0.32056692
180	0xbec94d7b	-0.39316925
181	0xbe7dfeab	-0.2480418
182	0xbe975071	-0.2955356
183	0xbe1a6c7c	-0.15080446
184	0xbeb29ca0	-0.3488512
185	0xbea15b5e	-0.3151502
186	0xbebe2e09	-0.37144497
187	0xbe99d6b2	-0.30046612
188	0xbe54a79d	-0.20767064
189	0xbe83784a	-0.2567771
190	0xbef42dcb	-0.47691187
191	0xbe3922a6	-0.18079624
192	0xbe87862d	-0.26469555
193	0xbea634d1	-0.3246217
194	0xbe617410	-0.2201693
195	0xbe8f96c2	-0.28044707
196	0xbe815b16	-0.25264806
197	0xbde57b1d	-0.112051226
198	0xbed4ef9e	-0.41589063
199	0xbea2a93d	-0.31769744
200	0xbe84459a	-0.25834352
201	0xbec22e29	-0.37925842
202	0xbeb01e8e	-0.3439831
203	0xbe51f40f	-0.20503257
204	0xbe857537	-0.2606599
205	0xbe07393e	-0.1320543
206	0xbd89a0da	-0.06720133
207	0xbe962e51	-0.29332212
208	0xbed7aa04	-0.421219
209	0xbdb33792	-0.087508336
210	0xbe3d92e8	-0.18513072
211	0xbe8287cc	-0.2549423
212	0x3f1a8efc	0.60374427
213	0xbec12f8b	-0.37731585
214	0x3e2f3760	0.17110968
215	0x3f2f9a74	0.6859505
216	0xbedfff25	-0.43749347
217	0x3e8733a6	0.26406592
218	0xbf792e78	-0.9733653
219	0x3e9aa7d4	0.30206168
220	0xbdfb1e9b	-0.12261697
221	0x3e6418fe	0.22275159
222	0xbf0323ee	-0.512267
223	0xbee7ada8	-0.45249677
224	0xbe761070	-0.24029708
225	0xbef09ddb	-0.46995434
226	0xbeb79fc6	-0.35864085
227	0xbe906203	-0.28199777
228	0xbe9e3c1a	-0.3090523
229	0x3e4a73b1	0.19770695
230	0x3d5d682b	0.05405442
231	0xbe237483	-0.15962414
232	0xbeba065c	-0.36332977
233	0x3ea99744	0.3312322
234	0xbe9e28cd	-0.30890504
235	0xbe74ef9f	-0.23919533
236	0xbe879874	-0.264835
237	0xbe6c6a81	-0.23087503
238	0xbea5ac2f	-0.32357928
239	0xbc15128f	-0.009098663
240	0xbeb0e5b6	-0.34550256
241	0x3e3592f0	0.17731833
242	0xbf6a911b	-0.91627663
243	0x3eb0450b	0.34427676
244	0xbe0124ab	-0.12611644
245	0x3e70bf02	0.23510364
246	0xbeadd043	-0.33947954
247	0x3e028650	0.12746549
248	0xbf0e140d	-0.55499345
249	0x3e9a653e	0.30155367
250	0xbe17ecb8	-0.14836395
251	0x3e7a172a	0.24422899
252	0xbe94ac06	-0.29037493
253	0x3dc0ae2b	0.0940822
254	0xbf722f9f	-0.94603914
255	0x3eed8520	0.4639063

bayes_fc1.prior_sigma_small f4 [64, 6]
0	0x3ea4114f	0.32044455
1	0x3e4f2cc0	0.20231915
2	0x3f653c67	0.8954529
3	0x3eab2fb3	0.3343483
4	0x3e3013b9	0.17195024
5	0x3f6148b2	0.8800155
6	0x3d40da18	0.04708299
7	0x3c8ffb74	0.017575957
8	0x3f074dc0	0.5285301
9	0x3d6671c8	0.056260854
10	0x3cb68974	0.02228234
11	0x3f0b03be	0.54302585
12	0x3d790875	0.06079908
13	0x3caec12f	0.021332351
14	0x3f2f2426	0.68414533
15	0x3d9ee5b5	0.07758657
16	0x3d12e783	0.035865318
17	0x3f19dd57	0.6010336
18	0x3d2cd300	0.042193413
19	0x3c61d1b3	0.013782906
20	0x3ece0215	0.40235963
21	0x3d18ddd8	0.03732094
22	0x3c89f673	0.016841149
23	0x3ed3afe0	0.4134512
24	0x3d3b1aac	0.045679733
25	0x3c95beb0	0.018279403
26	0x3f1359f7	0.5755915
27	0x3d2de5ef	0.04245561
28	0x3cb2f832	0.021846864
29	0x3ecf68f4	0.4050976
30	0x3d7eb0c3	0.06218029
31	0x3cbe07b1	0.023197027
32	0x3eb15066	0.34631652
33	0x3d26e819	0.04074869
34	0x3c6c712b	0.014431278
35	0x3ee14430	0.43997335
36	0x3ea3f9ae	0.32026428
37	0x3e380313	0.17969923
38	0x3f62921a	0.88504183
39	0x3eaa11f2	0.33216816
40	0x3e4b5fce	0.19860765
41	0x3f5bea6e	0.85904586
42	0x3dd2f826	0.10301237
43	0x3d0813ff	0.033222195
44	0x3f5c7f86	0.86132085
45	0x3e3ebac2	0.1862593
46	0x3d9fc075	0.0780038
47	0x3f5b58b5	0.8568223
48	0x3d429e4e	0.047514252
49	0x3c9427f1	0.018085452
50	0x3f048520	0.5176563
51	0x3d3f6f57	0.04673704
52	0x3ca0834a	0.019593854
53	0x3eeabf70	0.4584918
54	0x3e52fa6c	0.20603341
55	0x3d9ea12b	0.07745584
56	0x3f39e33a	0.72612345
57	0x3db7d0ae	0.08975349
58	0x3d3bab16	0.045817457
59	0x3f424354	0.75883985
60	0x3ec269b7	0.3797128
61	0x3e0e5082	0.13897899
62	0x3f6f62dc	0.9351022
63	0x3ea75762	0.32683855
64	0x3e092638	0.13393486
65	0x3f6a340f	0.91485685
66	0x3d44bc71	0.048031274
67	0x3c8146a6	0.015780758
68	0x3eec53a3	0.4615756
69	0x3d3abec0	0.04559207
70	0x3c8923b8	0.016740665
71	0x3eeec469	0.46634224
72	0x3e8c70d7	0.2742984
73	0x3df6ee96	0.120572254
74	0x3f5f4324	0.87211823
75	0x3e98bec7	0.29833052
76	0x3e3bb20b	0.18329637
77	0x3f610e18	0.8791213
78	0x3d1a4954	0.037667587
79	0x3c82754c	0.015925072
80	0x3ecc4dd7	0.39903137
81	0x3d1ae9f1	0.03782076
82	0x3c675651	0.0141197005
83	0x3ee80317	0.45314857
84	0x3e6d7f1e	0.23193023
85	0x3dc42d55	0.09578959
86	0x3f580b39	0.84392124
87	0x3e9db513	0.3080221
88	0x3e3c6539	0.18397988
89	0x3f5d6a68	0.8649049
90	0x3e328307	0.17432795
91	0x3cc10264	0.02356071
92	0x3ec9d491	0.39419988
93	0x3cd33a76	0.025784712
94	0x3c338e80	0.010959268
95	0x3e3048a1	0.17215206
96	0x3d7903ed	0.06079476
97	0x3cd4a81b	0.025959065
98	0x3f027c18	0.509706
99	0x3d4e7212	0.050401755
100	0x3c9dad05	0.019247541
101	0x3ef47081	0.47742084
102	0x3e81cb66	0.25350493
103	0x3dd60488	0.10450083
104	0x3f5ce7c9	0.86291176
105	0x3e9fe971	0.3123279
106	0x3de573b0	0.11203706
107	0x3f5c1f55	0.8598531
108	0x3e99cbf3	0.30038413
109	0x3e0bc2b0	0.13648486
110	0x3f650923	0.89467067
111	0x3e9a1938	0.30097365
112	0x3e18c542	0.14918998
113	0x3f7226ad	0.94590265
114	0x3cfd48fd	0.030918593
115	0x3c6ae4f5	0.014336814
116	0x3eb6aa2c	0.35676706
117	0x3d184125	0.0371715
118	0x3c596ab4	0.013270069
119	0x3eca5f2f	0.39525744
120	0x3dadf11f	0.08493256
121	0x3cf15909	0.0294614
122	0x3f1eeeba	0.6208302
123	0x3da5d039	0.08096356
124	0x3d0d7f45	0.0345452
125	0x3f28b08f	0.6589441
126	0x3e066d88	0.1312772
127	0x3d42fd29	0.047604714
128	0x3f5b1734	0.8558228
129	0x3e4e2a4c	0.20133322
130	0x3d967214	0.073459774
131	0x3f47b431	0.78009325
132	0x3ebee17a	0.372814
133	0x3e40efb3	0.18841438
134	0x3f8234fa	1.0172417
135	0x3ee3758e	0.44425625
136	0x3e67f94b	0.22653691
137	0x3f6adb49	0.9174085
138	0x3dc5dde1	0.09661461
139	0x3cf4b71f	0.029872475
140	0x3f48bfd0	0.7841768
141	0x3dd5d4f6	0.1044101
142	0x3d1e66f3	0.0386724
143	0x3f15353c	0.58284354
144	0x3e95256c	0.29130113
145	0x3e1526f5	0.14565642
146	0x3f76fec2	0.9648248
147	0x3eb2b76f	0.34905574
148	0x3e3db17f	0.1852474
149	0x3f725640	0.9466286
150	0x3ea47edd	0.3212804
151	0x3e31e7a9	0.17373528
152	0x3f660e7c	0.8986585
153	0x3e8aa75a	0.27080804
154	0x3e569e56	0.20958838
155	0x3f64681a	0.89221346
156	0x3e8592fc	0.26088703
157	0x3dda95f6	0.10673134
158	0x3f359ae6	0.7093948
159	0x3e4ba91a	0.19888726
160	0x3db696af	0.08915459
161	0x3f39cdf0	0.7257986
162	0x3d56f694	0.05248125
163	0x3c942787	0.018085254
164	0x3eba9983	0.36445245
165	0x3d1586f6	0.036505662
166	0x3c6577ae	0.014005585
167	0x3ecdf475	0.40225568
168	0x3d14bc23	0.036312234
169	0x3c8bda5b	0.017071893
170	0x3ea6ccca	0.32578117
171	0x3d2a3472	0.041553922
172	0x3c66db91	0.014090435
173	0x3eb6da42	0.35713392
174	0x3e64710d	0.2230875
175	0x3e20f027	0.15716611
176	0x3f5a3ed2	0.85252106
177	0x3e8026c2	0.2502957
178	0x3e25414f	0.16138195
179	0x3f46fca7	0.77729267
180	0x3e7ddfe4	0.24792439
181	0x3dfad0cb	0.12246855
182	0x3f6a8bb7	0.9161944
183	0x3e31cdb3	0.17363624
184	0x3e123272	0.14277056
185	0x3f5213f0	0.8206167
186	0x3e9a01a1	0.30079368
187	0x3e1c60c1	0.15271284
188	0x3f67e8b7	0.9058947
189	0x3e9b2110	0.30298662
190	0x3e5b4d09	0.21416105
191	0x3f65114f	0.89479536
192	0x3e8ffb96	0.28121632
193	0x3e1b9e2f	0.15197061
194	0x3f6757e9	0.90368515
195	0x3e980d4d	0.29697648
196	0x3e110f1f	0.14165924
197	0x3f7844cb	0.9697997
198	0x3e8eed43	0.2791539
199	0x3e17fb7e	0.1484203
200	0x3f5811ae	0.8440198
201	0x3e976d00	0.29575348
202	0x3dfdf8de	0.12400983
203	0x3f5cdc6c	0.8627384
204	0x3e5dc933	0.21658783
205	0x3de268ea	0.11055167
206	0x3f773052	0.96558106
207	0x3ea88882	0.32916647
208	0x3e0d46df	0.13796566
209	0x3f6c53d3	0.92315406
210	0x3e33369e	0.17501304
211	0x3d61cd5d	0.05512749
212	0x3f686f0e	0.90794456
213	0x3dfd62e6	0.12372379
214	0x3d24380f	0.040092524
215	0x3f5bf329	0.8591791
216	0x3d32d491	0.04365975
217	0x3c7e348c	0.015515458
218	0x3f0ac117	0.5420088
219	0x3d57c552	0.052678414
220	0x3c929f02	0.017898086
221	0x3edf91c7	0.43665907
222	0x3e9c4af9	0.3052595
223	0x3e3c3507	0.18379603
224	0x3f5ae1d7	0.85500854
225	0x3e9c8058	0.3056667
226	0x3e16afb4	0.14715463
227	0x3f639a46	0.8890728
228	0x3e472cfe	0.19450757
229	0x3d7d330b	0.061816256
230	0x3f73cc93	0.9523403
231	0x3e7f1889	0.24911703
232	0x3de63204	0.112400085
233	0x3f61866b	0.8809573
234	0x3e6034d6	0.21895155
235	0x3db9a685	0.09064964
236	0x3f476dfa	0.77902186
237	0x3e22db03	0.15903859
238	0x3e0a53c9	0.13508524
239	0x3f41fac5	0.7577327
240	0x3d3d6352	0.046237297
241	0x3c8a6045	0.016891608
242	0x3ef22fe8	0.47302175
243	0x3d17a10b	0.037018817
244	0x3c8d9510	0.017282993
245	0x3ed27b5f	0.4110975
246	0x3dc396fa	0.09550281
247	0x3ce8199a	0.02833252
248	0x3f40b02b	0.7526881
249	0x3db9e1ff	0.090763085
250	0x3d1296c0	0.035788298
251	0x3f25634d	0.64604646
252	0x3d8e4bd0	0.06948054
253	0x3ccc6f99	0.024955558
254	0x3f2dfad8	0.6796088
255	0x3d56d370	0.052447736

bayes_fc2.weight_mu f4 [1, 64]
0	0x3c9665bb	0.018359056
1	0x3d7ece0e	0.062208228
2	0xbd49d4db	-0.04927526
3	0xbd7c738f	-0.061633643
4	0xbd9ac7d9	-0.07557649
5	0x3dba9716	0.091108486
6	0x3d7de654	0.061987236
7	0xbd9c0f76	-0.076201364
8	0xbd47bb04	-0.048762336
9	0x3df5bcc8	0.11998898
10	0x3b42d60a	0.0029729628
11	0xbd997bff	-0.074943535
12	0xbd874969	-0.06605799
13	0x3d823bb4	0.06359044
14	0x3cb2cbe3	0.021825736
15	0x3ed38bf8	0.41317725
16	0x3d87d3f6	0.06632225
17	0xbd1d36de	-0.038382404
18	0xbbb403e9	-0.00549363
19	0x3dae190b	0.0850087
20	0xbd9c41ee	-0.076297626
21	0xbe23fb96	-0.16013941
22	0xbd48627d	-0.04892205
23	0xbd2c4699	-0.042059515
24	0xbd6ae0e4	-0.05734338
25	0x3cae0123	0.021240776
26	0xbcd42580	-0.025896788
27	0x3d939d27	0.07207709
28	0x3dca8232	0.09888114
29	0xbd177654	-0.03697808
30	0x3c2ce388	0.010552295
31	0xbc8f502a	-0.01749428
32	0x3cb6d777	0.022319539
33	0x3d2392da	0.03993497
34	0xbd7f5727	-0.062338974
35	0x3dc4f13f	0.096163265
36	0xbd8eedbb	-0.06978937
37	0x3e17d49c	0.14827198
38	0xbd15e17c	-0.03659199
39	0x3dfb8f67	0.12283211
40	0xbd725fef	-0.05917352
41	0xbd659ef2	-0.056059785
42	0xbd481007	-0.04884341
43	0x3bfb8d3b	0.007676748
44	0xbb7dd723	-0.0038732968
45	0x3c8ef6b7	0.017451627
46	0xbd4db145	-0.050217886
47	0xbd35c821	-0.04438031
48	0x3d73e44a	0.059543885
49	0xbb56596e	-0.0032707113
50	0x3ccb4962	0.024815265
51	0xbd3b3ed0	-0.0457142
52	0x3cdc7929	0.026913242
53	0x3dbe5016	0.09292619
54	0x3dc791b0	0.097445846
55	0x3dbd358d	0.092387296
56	0x3d98b1fc	0.07455823
57	0x3da0db22	0.07854296
58	0x3e156d79	0.14592542
59	0x3de77904	0.11302379
60	0x3cdf93f6	0.027292233
61	0x3db317ec	0.08744797
62	0xbda48b6e	-0.080344066
63	0x3cbafa50	0.022824436

bayes_fc2.weight_rho f4 [1, 64]
0	0xbfb6e730	-1.4289303
1	0xc0973e45	-4.7263513
2	0xc08dec03	-4.43506
3	0xc097e12c	-4.746237
4	0xc0908f6c	-4.5175076
5	0xc09109c6	-4.532443
6	0xbfb52cee	-1.4154336
7	0xc0835077	-4.1035724
8	0xc093ef04	-4.6229267
9	0xc0573a60	-3.362938
10	0xc03bd634	-2.934949
11	0xc0940005	-4.6250024
12	0xbff06f3b	-1.8783945
13	0xc09bad98	-4.8649406
14	0xbff573a3	-1.9175915
15	0xc062b3b5	-3.5422184
16	0xc09860cc	-4.761816
17	0xc028a072	-2.6347928
18	0xbfdc4cbb	-1.7210916
19	0xc0984263	-4.758104
20	0xc07cc345	-3.9494183
21	0xc02ce478	-2.7014446
22	0xc0058b11	-2.086613
23	0xc0891d4f	-4.2848277
24	0xc01606a1	-2.3441546
25	0xc00db4b2	-2.2141538
26	0xbf640243	-0.8906595
27	0xc092a551	-4.58268
28	0xc0899589	-4.299504
29	0xbf9fc9a3	-1.248341
30	0xbfc1497d	-1.5100552
31	0xbfd62223	-1.6729168
32	0xc017c4ec	-2.3713942
33	0xbfb89ca3	-1.4422802
34	0xc01aa125	-2.4160855
35	0xc074a52c	-3.8225813
36	0xc09aea40	-4.841095
37	0xbf1b7e60	-0.6073971
38	0xc073eb75	-3.8112462
39	0xbf541519	-0.8284469
40	0xc091496c	-4.5402126
41	0xc080f882	-4.0303354
42	0xc08e26de	-4.4422445
43	0xc00eee4e	-2.233295
44	0xc0132bfe	-2.29956
45	0xbfca51c7	-1.5806206
46	0xbfd0a25b	-1.6299547
47	0xc08615bb	-4.1901526
48	0xbfd21790	-1.6413441
49	0xc030bfad	-2.761699
50	0xc0156444	-2.3342447
51	0xc048b29c	-3.1359015
52	0xbfef9f23	-1.872044
53	0xc092db3f	-4.5892634
54	0xbf960838	-1.1721258
55	0xc09678dc	-4.7022533
56	0xc091e38a	-4.559026
57	0xc08ed818	-4.4638786
58	0xc0757195	-3.8350575
59	0xc06f5da9	-3.7400916
60	0xbfbb7212	-1.4644186
61	0xc090985b	-4.518598
62	0xc0917e35	-4.546656
63	0xc0192c2d	-2.3933213

bayes_fc2.prior_mu_old f4 [1, 64]
0	0x3c9665bb	0.018359056
1	0x3d7ece0e	0.062208228
2	0xbd49d4db	-0.04927526
3	0xbd7c738f	-0.061633643
4	0xbd9ac7d9	-0.07557649
5	0x3dba9716	0.091108486
6	0x3d7de654	0.061987236
7	0xbd9c0f76	-0.076201364
8	0xbd47bb04	-0.048762336
9	0x3df5bcc8	0.11998898
10	0x3b42d60a	0.0029729628
11	0xbd997bff	-0.074943535
12	0xbd874969	-0.06605799
13	0x3d823bb4	0.06359044
14	0x3cb2cbe3	0.021825736
15	0x3ed38bf8	0.41317725
16	0x3d87d3f6	0.06632225
17	0xbd1d36de	-0.038382404
18	0xbbb403e9	-0.00549363
19	0x3dae190b	0.0850087
20	0xbd9c41ee	-0.076297626
21	0xbe23fb96	-0.16013941
22	0xbd48627d	-0.04892205
23	0xbd2c4699	-0.042059515
24	0xbd6ae0e4	-0.05734338
25	0x3cae0123	0.021240776
26	0xbcd42580	-0.025896788
27	0x3d939d27	0.07207709
28	0x3dca8232	0.09888114
29	0xbd177654	-0.03697808
30	0x3c2ce388	0.010552295
31	0xbc8f502a	-0.01749428
32	0x3cb6d777	0.022319539
33	0x3d2392da	0.03993497
34	0xbd7f5727	-0.062338974
35	0x3dc4f13f	0.096163265
36	0xbd8eedbb	-0.06978937
37	0x3e17d49c	0.14827198
38	0xbd15e17c	-0.03659199
39	0x3dfb8f67	0.12283211
40	0xbd725fef	-0.05917352
41	0xbd659ef2	-0.056059785
42	0xbd481007	-0.04884341
43	0x3bfb8d3b	0.007676748
44	0xbb7dd723	-0.0038732968
45	0x3c8ef6b7	0.017451627
46	0xbd4db145	-0.050217886
47	0xbd35c821	-0.04438031
48	0x3d73e44a	0.059543885
49	0xbb56596e	-0.0032707113
50	0x3ccb4962	0.024815265
51	0xbd3b3ed0	-0.0457142
52	0x3cdc7929	0.026913242
53	0x3dbe5016	0.09292619
54	0x3dc791b0	0.097445846
55	0x3dbd358d	0.092387296
56	0x3d98b1fc	0.07455823
57	0x3da0db22	0.07854296
58	0x3e156d79	0.14592542
59	0x3de77904	0.11302379
60	0x3cdf93f6	0.027292233
61	0x3db317ec	0.08744797
62	0xbda48b6e	-0.080344066
63	0x3cbafa50	0.022824436

bayes_fc2.prior_sigma_small f4 [1, 64]
0	0x3e5bea30	0.21476054
1	0x3c10809e	0.008819727
2	0x3c41145f	0.011784642
3	0x3c0dab68	0.0086468235
4	0x3c31e1c0	0.010857046
5	0x3c2f4246	0.010696953
6	0x3e5e99b5	0.21738322
7	0x3c862ca5	0.01637871
8	0x3c202bc5	0.0097760605
9	0x3d0b74ff	0.034047123
10	0x3d540cb8	0.051769942
11	0x3c1fd728	0.009755887
12	0x3e11a345	0.14222439
13	0x3bfbbf25	0.0076826983
14	0x3e0c67fb	0.1371154
15	0x3ce9c85e	0.028537925
16	0x3c0b7d25	0.0085137235
17	0x3d8de17d	0.06927774
18	0x3e2881a2	0.16455701
19	0x3c0c0162	0.008545252
20	0x3c9c5341	0.019082667
21	0x3d8505e5	0.06495265
22	0x3def97cc	0.11698875
23	0x3c602a56	0.013681969
24	0x3dbb99b1	0.09160174
25	0x3dd45669	0.10368044
26	0x3eb00ec6	0.3438627
27	0x3c26b725	0.010175501
28	0x3c5cebe3	0.013483974
29	0x3e812d4e	0.25229877
30	0x3e4c6066	0.19958648
31	0x3e302565	0.17201765
32	0x3db6c70a	0.089246824
33	0x3e594979	0.21219434
34	0x3daf1edf	0.0855081
35	0x3cb13cfd	0.021635527
36	0x3c00e626	0.007867372
37	0x3edea7b0	0.4348731
38	0x3cb33c9b	0.021879485
39	0x3eb98840	0.36236763
40	0x3c2de8de	0.010614602
41	0x3c9047ca	0.017612357
42	0x3c3fb497	0.011700771
43	0x3dd08287	0.10181146
44	0x3dc3c25c	0.095585555
45	0x3e3facc3	0.18718247
46	0x3e3739bd	0.17893119
47	0x3c764244	0.015030447
48	0x3e3552e7	0.17707406
49	0x3d7af4ab	0.06126849
50	0x3dbd6288	0.09247309
51	0x3d2e4134	0.04254265
52	0x3e128094	0.14306861
53	0x3c25a083	0.01010907
54	0x3e8a23c3	0.2698041
55	0x3c1402d3	0.0090338765
56	0x3c2aaf6e	0.010417802
57	0x3c3ba040	0.011451781
58	0x3caf1063	0.021370118
59	0x3cc04d0d	0.02347424
60	0x3e54fdc8	0.20799935
61	0x3c31b063	0.0108452765
62	0x3c2ccc6d	0.010546786
63	0x3db2fb48	0.08739334
