models/updated_hmnn_model_1996.pth (torch, 13926 bytes, 12 tensors)

bayes_fc1.weight_mu f4 [64, 6]
00000000: 180e d0bd 88c1 dabe 830c e0bd 9dd0 61be
00000010: c500 41be 69e0 bbbd 266b cd3e ab4b f4bd
00000020: 9be7 1b3e 2b44 aebe de8e ab3d 18a8 29be
00000030: 2aed 8cbe 2286 0f3e a9c3 87be e971 053e
00000040: d85d 1dbe 0c29 913d 155c aabe ac57 073e
00000050: daec a4be 58e0 c83e ccdd c8bd 0fce 08be
00000060: 4fd1 96be 4fa2 2a3e 7d84 90be d348 5e3e
00000070: 9b55 0fbe 08c4 183c bf80 cf3d 0de0 10be
00000080: beee 893e efb4 3cbe c1a0 e83d 2939 86bd
00000090: 3daf 0cbe 794f 90be f0f1 6dbd b6f2 e1bd
000000a0: 4168 90be 33b6 70bd ce12 c2be c49e 523e
000000b0: e855 febd bf02 6ebd 5f4d 9fbe e669 3f3d
000000c0: 052f 80be d763 eb3d fbaa 9cbe e777 b53e
000000d0: ed67 04be eaf9 8bbd 6f3b c3bd ec41 80be
000000e0: 0301 4e3d 6779 1bbe c707 f4bb fd0b cd3d
000000f0: 2bec 8cbe da04 47be 1721 93bd 67c2 97be
00000100: b493 f73b 4b82 9ebd 4a8f 12be 242b 41ba
00000110: a48b c9be 7d72 b53e 262a c4bd d6d5 39bd
00000120: b06e 40be 6dfd ecbc 7dca a4bd cb83 b3bd
00000130: d184 b3be 90cf d5bc 10a6 d63e d3f3 17be
00000140: 70dd de3d b8da 96be ab95 093e b9b1 f9bc
00000150: e31e a13b de2b 91bd 6dfd b73b fa53 4abe
00000160: 22e7 a3be 3a6f c63c 7db4 dbbe 181b 6dbe
00000170: e223 aa3d 2201 e9bd b30d 5c3c 2ad1 9d3e
00000180: fb37 483e 0fa6 29be 6ce1 b53e f0e9 9bbe
00000190: 76f8 213e a15b 8ebd dba0 76be 0806 d6bc
000001a0: 94fe 19bd 1433 c3bd 09a2 26be 044c e93c
000001b0: 21dd b4bd 1bb8 37be 716b 85bd bb53 22be
000001c0: f6d9 61be 408e babd f89c 4b3e ad84 dfbd
000001d0: 0540 893e 9e95 8cbe 4754 1d3e 2dad eebd
000001e0: d477 54be cfea 5a3d c78e 63be ff0b 6b3e
000001f0: 979b a9bd a104 a6bb f677 7dbe 4bac ae3d
00000200: 4508 07be b79e 44be 4f55 d5bd 4e2f 1d3d
00000210: 6d47 a6bd 9511 83be 5b62 c2bd 508c 86be
00000220: 16db b4be bb3f 86bd 9a6e 9bbe 5fa9 e03d
00000230: 652e 80be 8d27 3b3e f225 12be 99d9 84bb
00000240: 6008 0b3d 42e3 c3bd ea9b d6bc a7cc 69be
00000250: c6ee 86be 33fc a7bd 9ca7 9cbd 4abe 60be
00000260: 1b19 91bd 6154 9f3d 461a 9dbe f230 06bd
00000270: 20d7 80be 10ea bdbd 6c0f 42bd 8c43 44be
00000280: 89ec e5bd 12e2 e2bb 648e 3a3e b45d d2bd
00000290: 3370 bf3e 1518 a2be 0560 403e a437 003d
000002a0: 660b 963e d323 b4bd c114 333e f992 62be
000002b0: daad d23d b291 3b3e 6271 97bd 0afb 6fbe
000002c0: e742 a6bd 76bc 00be 07a1 86be b670 f5bd
000002d0: 97af 5cbe 519d 08be 47b3 adbd 905f 813d
000002e0: 1c33 86be 0e0d 2dbe a617 9cbd 9e8b 7dbe
000002f0: 7d82 0dbd 279d afbd e08d b6be 78f1 d3bd
00000300: f0a1 2dbd 1afe 3cbe d1e6 d2bd 3c89 c8bd
00000310: 2773 05be 602d 0aba e9e5 7fbe ee67 edbd
00000320: 79b7 63bd 5abe 46be e7c7 3bbe 3615 f8bc
00000330: 1294 6dbd 9619 5bbd d842 a7bd e398 48be
00000340: 58e2 94be 6394 8fbb 50d1 383c 96ae 4ebe
00000350: 018d 333d 1704 ebbe 0437 c53d 6e59 1ebd
00000360: 4da4 c2be 5cbf 583e b3cd 9abe 9a47 bf3d
00000370: 8a17 a2bd 7ab5 573d 61ee 26be a577 89be
00000380: 9d04 75bc 980a 5fbe 1865 6abe 7787 b6bd
00000390: a7c7 91be 7ddc 133e c742 b4bd d95e 58bd
000003a0: 44b7 adbe 8c7a acbd d610 b0bd 2fc0 04be
000003b0: 7723 77bc a875 5bbd 108e 77be 0aa3 243e
000003c0: bcc1 95be 0019 e03d eaa9 b8be 0b04 5b3e
000003d0: f447 cfbd 832f b43d ae2c 8dbe e94b a43d
000003e0: aacd 52be c8b5 273e 9bc6 aebd cbb1 cb3b
000003f0: 676c 24be 8fc2 a13c 5ef3 87be 1f19 d33e
-0.10158938 -0.42725778 -0.109398864 -0.22052236 -0.1884795 -0.09173662 0.4012081 -0.11928495
0.15225069 -0.34036383 0.08376859 -0.16568029 -0.27524692 0.14016011 -0.26516464 0.13031735
-0.1536783 0.07087907 -0.33273378 0.13217038 -0.32211953 0.3923366 -0.098079294 -0.13359855
-0.29456565 0.16663478 -0.2822608 0.21707468 -0.139975 0.009324081 0.10131978 -0.14147969
0.26939958 -0.18428396 0.113587864 -0.06553871 -0.13738723 -0.28185633 -0.058092058 -0.110326216
-0.2820454 -0.05876751 -0.37904972 0.20568377 -0.12418729 -0.058108088 -0.31113717 0.046731852
-0.25035873 0.11493652 -0.30599198 0.3544304 -0.1293027 -0.06834777 -0.095328204 -0.25050294
0.050293934 -0.1518303 -0.007447216 0.10012052 -0.27523932 -0.19435444 -0.07184046 -0.29640505
0.0075554494 -0.07739695 -0.14312473 -0.0007368794 -0.3936435 0.3543891 -0.09578352 -0.045369945
-0.18792224 -0.028929437 -0.08046434 -0.08765372 -0.35062268 -0.02609995 0.4192357 -0.14839105
0.108820796 -0.29463744 0.13436 -0.030480253 0.004917012 -0.07088445 0.0056149275 -0.19758597
-0.32012278 0.024222959 -0.4291114 -0.23154867 0.08307625 -0.11377169 0.0134310005 0.30823642
0.19552605 -0.16567253 0.35523546 -0.30451918 0.15817437 -0.069510706 -0.24084799 -0.026125923
-0.0375963 -0.09531227 -0.16272749 0.02847863 -0.088312395 -0.17941324 -0.065146334 -0.15852253
-0.22055802 -0.09109163 0.19884098 -0.10913978 0.26806656 -0.274579 0.1536418 -0.116541244
-0.20748836 0.053446587 -0.22222434 0.22953795 -0.082816295 -0.00506647 -0.24752793 0.08528956
-0.13186748 -0.1920117 -0.10416662 0.03837519 -0.08119092 -0.25599352 -0.09491416 -0.26278925
-0.353234 -0.06555124 -0.3035782 0.10969805 -0.25035396 0.18276806 -0.14272287 -0.00405426
0.033943534 -0.0956483 -0.026197392 -0.22831975 -0.26354045 -0.082024 -0.076491565 -0.2194759
-0.070848666 0.07779766 -0.30684108 -0.03276152 -0.25164127 -0.092731595 -0.04737799 -0.19166392
-0.11226756 -0.0069239223 0.1821838 -0.10271779 0.3739029 -0.31658998 0.18786629 0.031303063
0.2930557 -0.087958954 0.17488386 -0.22126378 0.10287066 0.18317297 -0.07394673 -0.23435608
-0.08118229 -0.12571892 -0.2629473 -0.119843885 -0.21551357 -0.13341261 -0.0848146 0.06317055
-0.26210868 -0.16899511 -0.07621698 -0.24760291 -0.03454827 -0.08574896 -0.35655117 -0.10348791
-0.042390764 -0.18456307 -0.10297931 -0.097918004 -0.13032208 -0.00052710436 -0.24990048 -0.11592089
-0.055594895 -0.19408551 -0.18337975 -0.030283552 -0.05800254 -0.053491198 -0.08167046 -0.19589572
-0.29078937 -0.0043817027 0.011280373 -0.20183787 0.043835644 -0.45901558 0.09629634 -0.038659506
-0.38015977 0.21166748 -0.3023506 0.09339829 -0.07914646 0.052663304 -0.16301872 -0.26849094
-0.014954713 -0.21781385 -0.22890127 -0.089125566 -0.28472635 0.14439578 -0.08801799 -0.05282483
-0.33928883 -0.084218115 -0.08596961 -0.12963937 -0.015084139 -0.053579003 -0.24175286 0.1607782
-0.2924937 0.10942268 -0.36067134 0.21388261 -0.10121146 0.08798125 -0.2757315 0.08022291
-0.20586267 0.16377938 -0.08533975 0.006216263 -0.16056977 0.019746093 -0.26552862 0.41230103

bayes_fc1.weight_rho f4 [64, 6]
00000000: c8c1 aabf 4479 c1bf 4050 573e 15db 92bf
00000010: 627f fdbf 7d21 8f3e 0498 16c0 b47e 37c0
00000020: b586 f0be ebb0 09c0 9619 33c0 fb7e 81be
00000030: d7f9 0bc0 c85a 34c0 6cb2 29be b6fd f4bf
00000040: be3b 2fc0 3642 b7be 4213 1ac0 6098 46c0
00000050: 1b4c e8be 71b7 27c0 75a5 4ac0 0ded 1bbf
00000060: c9c0 13c0 302f 3ec0 ff69 92be 9b07 09c0
00000070: 5c5f 32c0 ee45 4ebf b7bc 05c0 1705 2ec0
00000080: 8172 c3be 59fb 0dc0 01cc 3ac0 0b22 b1be
00000090: 38f8 84bf d07c fabf 16cc 893e ea37 92bf
000000a0: db35 f0bf 33ac 5f3e cd77 debf 7313 26c0
000000b0: 62fa be3d 2bda babf 9d92 0dc0 57f8 4b3d
000000c0: e72f 1ac0 4245 34c0 066c 6fbe 9856 18c0
000000d0: 4c84 3bc0 df3b 16bf 45ba bebf adbf 0fc0
000000e0: b77a dd3c 49e7 fcbf 7fcc 20c0 c666 bbbd
000000f0: 267f 8ebf ea98 0cc0 3d50 a73e 4c1b 9fbf
00000100: 90bd 0cc0 d4b6 a43e bfb8 11c0 518b 36c0
00000110: 01e8 99be 63aa 14c0 ac08 3cc0 00ec febe
00000120: 6af5 cabf 9ac8 1dc0 1340 043e ad07 acbf
00000130: caa5 dfbf 5922 0b3e ba17 28c0 6da5 46c0
00000140: b6a0 31bf bf26 21c0 4d59 47c0 3cd9 23bf
00000150: 89a7 ddbf 3001 0fc0 3284 6b3e 42ee 9bbf
00000160: 11f4 edbf d076 973e 42b3 dbbf 6d94 26c0
00000170: 397d 08bf 51ed 1bc0 d8a5 3dc0 40dc 53bf
00000180: b991 07c0 2c91 37c0 49f3 d7be 6f6a 15c0
00000190: 204c 3bc0 5b3f acbe 2dcf c1bf 991a 10c0
000001a0: e5b0 803e ed4b b6bf 1df9 02c0 c167 3c3e
000001b0: d84e a9bf 1169 02c0 03a2 913e 5f39 aebf
000001c0: ef43 05c0 1e40 5c3e 7cd9 1bc0 9db5 3cc0
000001d0: 0e61 1ebf f2fe 1ac0 840c 45c0 11b0 13bf
000001e0: c8b1 07c0 6ef7 32c0 c133 87be 3b28 0cc0
000001f0: eac5 39c0 5755 0abf e92c e8bf 2b4e 2cc0
00000200: 4b93 f83c 8189 ccbf 1b4c 20c0 dd6d f6bd
00000210: 4898 84bf dc0a f8bf b2d8 c43e 414c 61bf
00000220: f9a0 b6bf 1f51 c13e 88f4 04c0 1e57 30c0
00000230: a4e7 d0bd d2a8 00c0 86e5 2ac0 5284 2cbe
00000240: e6d3 b2bf 60e4 10c0 6d4a 9b3e 49db 6bbf
00000250: 229d d9bf b4ad ad3e f298 a4bf 8f39 fdbf
00000260: defd 893e 9fc5 a0bf c55f c8bf 6d45 a83e
00000270: 9da0 cbbf 9136 24c0 60fc 37bc a58e cbbf
00000280: 13fa 1bc0 a77d 913c 0520 2ac0 5340 48c0
00000290: d68b 87bf d962 2fc0 a79f 52c0 11e6 64bf
000002a0: ee1a 2dc0 47a5 50c0 0468 6bbf 2d83 2bc0
000002b0: 9eb9 54c0 ea14 83bf aa42 afbf 422b fbbf
000002c0: e200 523e 5cc5 b4bf fc8e edbf 434e 0fbf
000002d0: d17c c3bf b348 0ac0 abb0 3d3e d781 e9bf
000002e0: fee2 05c0 7a47 7dbd e669 babf a9eb 02c0
000002f0: 34e2 323e bbf5 a1bf 6d45 d1bf f0b8 573e
00000300: b6a6 b0bf 8bdf 07c0 be00 a53e 90ae aabf
00000310: 0535 0ec0 17f7 823e 57e1 a2bf b7c2 01c0
00000320: 6563 2e3c ada3 a3bf 3dc9 0fc0 26bb cbbe
00000330: 5a97 c3bf cb92 0fc0 9bf0 983e 8f76 92bf
00000340: 5572 e5bf 1cbf b33e b472 e4bf c2f2 1bc0
00000350: 95c2 863c 4af0 e3bf 9add 26c0 86db 5ebe
00000360: 5cd1 19c0 4808 40c0 0419 e0be 86ac 17c0
00000370: bec8 43c0 b43e 0dbf b950 a5bf 9790 febf
00000380: 4934 303d 1a6f 9cbf dc50 e8bf 5aaa 2c3e
00000390: 0219 e8bf c739 23c0 6d2c 863d 862f cfbf
000003a0: b479 0ec0 1b34 b63c 85a8 edbf 59bd 27c0
000003b0: b696 51be cb68 08c0 76f8 fdbf fd21 d8be
000003c0: abbe 11c0 4968 3ac0 323c 92be 0cd5 0fc0
000003d0: f80a 3ac0 7aa8 03bf 0b2f 0cc0 b76e 33c0
000003e0: aed5 36be dcc8 0dc0 4190 32c0 edcd bebe
000003f0: 9bc0 03c0 09a5 2dc0 203b 1cbe ccfc 09c0
-1.3340387 -1.5115132 0.21026707 -1.1473109 -1.9804499 0.27955237 -2.3530283 -2.8671083
-0.46977773 -2.1514232 -2.7984366 -0.2529219 -2.187124 -2.8180408 -0.16571969 -1.9139926
-2.7380214 -0.35792702 -2.4074254 -3.1030502 -0.45370564 -2.6205714 -3.1663487 -0.60908586
-2.3086417 -2.97163 -0.28596494 -2.1410892 -2.7870703 -0.80575454 -2.0896432 -2.7190607
-0.38173297 -2.218466 -2.9187014 -0.34596285 -1.038825 -1.956934 0.26913518 -1.1423314
-1.8766435 0.21843033 -1.738031 -2.594937 0.093251005 -1.459783 -2.2120736 0.049797382
-2.4091737 -2.8167272 -0.23381051 -2.3802853 -2.9299498 -0.58685106 -1.4900595 -2.246074
0.027036054 -1.9758083 -2.5124815 -0.09150462 -1.1132553 -2.1968331 0.32678404 -1.2430205
-2.19907 0.32170737 -2.276901 -2.8522532 -0.30059817 -2.3228996 -2.9380293 -0.4978943
-1.5856144 -2.4653687 0.12915067 -1.3439842 -1.747247 0.13587321 -2.6264482 -3.1038468
-0.6938585 -2.5179899 -3.1148255 -0.6400335 -1.7316753 -2.2344475 0.22999647 -1.2182086
-1.8590108 0.29582834 -1.716408 -2.6028092 -0.53316075 -2.4363596 -2.9632473 -0.8275795
-2.1182692 -2.8682356 -0.421778 -2.3346212 -2.9265213 -0.33642086 -1.514135 -2.2516234
0.2513496 -1.4241921 -2.0464547 0.18398954 -1.3227186 -2.0376627 0.28443918 -1.3611258
-2.0822713 0.21508834 -2.4351492 -2.9485848 -0.61866844 -2.4218106 -3.078889 -0.5769053
-2.120226 -2.796352 -0.26406673 -2.1899555 -2.9027047 -0.5403647 -1.8138705 -2.692271
0.030343672 -1.5979463 -2.504645 -0.120326735 -1.0358973 -1.9378314 0.38446575 -0.8800698
-1.4267875 0.37757203 -2.077425 -2.7553172 -0.10200432 -2.010304 -2.670259 -0.16847351
-1.3970916 -2.263939 0.3033022 -0.9213148 -1.7001078 0.33921587 -1.2859175 -1.978319
0.26951498 -1.2560309 -1.5654227 0.32865468 -1.590839 -2.5658305 -0.0112296045 -1.5902907
-2.4371383 0.017760111 -2.6582043 -3.128926 -1.058955 -2.7404082 -3.2909944 -0.89413553
-2.7047687 -3.2600877 -0.9195559 -2.6798813 -3.3238292 -1.0240757 -1.3692219 -1.9622576
0.2050815 -1.4122729 -1.855926 -0.5597879 -1.5272466 -2.1606872 0.18524425 -1.8242749
-2.0919795 -0.061835743 -1.4563568 -2.0456336 0.17469102 -1.2653116 -1.6349312 0.21066642
-1.3800876 -2.123019 0.3222713 -1.3334522 -2.221986 0.2557914 -1.2725018 -2.0275095
0.010643815 -1.2784325 -2.2466576 -0.3979122 -1.5280564 -2.2433345 0.29871067 -1.1442431
-1.7925516 0.35106742 -1.7847505 -2.4366918 0.016450206 -1.7807705 -2.6072755 -0.21763429
-2.4034033 -3.0005054 -0.43769085 -2.369905 -3.0591273 -0.551738 -1.291526 -1.9887875
0.043018613 -1.2221406 -1.8149676 0.16861859 -1.8132632 -2.5504014 0.06551442 -1.6186378
-2.2261782 0.022241643 -1.8567053 -2.6209319 -0.20467648 -2.131396 -1.9841449 -0.4221343
-2.2772624 -2.912615 -0.2856155 -2.2473783 -2.9069195 -0.5142895 -2.1903713 -2.8036325
-0.1785495 -2.2153845 -2.7900546 -0.37266484 -2.0586307 -2.713198 -0.1525693 -2.1560545

bayes_fc1.bias_mu f4 [64]
00000000: c204 a6bd 43b3 043c e03d a8bc 8f58 bdbd
00000010: 9af9 36bd ed30 813d a2f9 bfbc f499 c33b
00000020: 8894 46bd 6397 e33c 8ea5 2ebd 0441 efbd
00000030: 7e56 d1bc 4871 e23c 7ee6 f0bc 62f1 9d3d
00000040: ac8b 603d ce7a bc3b d87b 46bd 7e21 873c
00000050: 9f14 adbd fd8e 06bd a179 f2bd a739 36bd
00000060: 378b 39bd c37e 13bd 1282 99bc dd55 213d
00000070: 8b1f fc3c 25f0 99bd 2027 ecbd dba3 6cbd
00000080: 20ef b5bd af41 a4bd 9e76 3dbd 9929 85bc
00000090: 45b2 73bd 9b86 2a3c d211 b13c 8097 8cbb
000000a0: 3935 37bd 83dd 83bd c9a8 c0bc 1b2e 84bd
000000b0: ef16 3dbc 4bdd 41bd 90d5 b7bd a577 e8bc
000000c0: 39b9 01bd 4dcb 50bd eecd c4bc c4de 29bd
000000d0: e5f6 9dbd c18b 5c3c fd4e 81bd 450c a23c
000000e0: 28c0 a4bb d72d 743d 594f ad3d ed48 023d
000000f0: bb69 95bd ba82 613d 0ad0 ffbc c8e1 5abd
-0.08106376 0.00809938 -0.020537317 -0.09245407 -0.044671632 0.0630816 -0.023434464 0.0059692804
-0.048481494 0.027782148 -0.042638354 -0.116823226 -0.025553938 0.027641907 -0.029406782 0.07712056
0.0548207 0.005751944 -0.04845795 0.016495463 -0.08451199 -0.032851208 -0.11839605 -0.044488575
-0.04529878 -0.03600956 -0.01873878 0.039388526 0.03077676 -0.07516507 -0.115309 -0.057773452
-0.088835 -0.08020341 -0.0462557 -0.016255187 -0.059496183 0.010408069 0.021614943 -0.004290521
-0.04472849 -0.064387344 -0.023517983 -0.064541064 -0.011541112 -0.047330182 -0.08976281 -0.028377363
-0.031670783 -0.050975133 -0.024023976 -0.04147221 -0.07713107 0.013461054 -0.06313894 0.019781241
-0.0050277896 0.05961403 0.084624 0.03180783 -0.07295557 0.05505631 -0.03122713 -0.053437978

bayes_fc1.bias_rho f4 [64]
00000000: 3862 c6be 713f a9bf 7c8e 95bf 7cc4 b7bf
00000010: bc08 a9bf 743c aabf 78a3 89be bd54 3fbf
00000020: 5fe7 a3bf 4b0e 4abf a35d d9be 8825 94bf
00000030: fc20 0bbf be09 c3bf e747 85bf a2a4 b1bf
00000040: f59c a0bf fd08 18bf 80e1 cabe c34b c0bf
00000050: 3157 9abf 1dbb 76bf 8e62 fabd c862 87bf
00000060: 120e 8ebe 41a6 e7be b9e9 79bf bd89 e0bf
00000070: 36e7 e5bf ca1e ecbe e741 13bf ff37 adbe
00000080: 304b b9be e5e4 f0be 3f64 f2be b37c 59bf
00000090: 4915 b9bf 678b 36bf 238d 40bf 30b4 8fbf
000000a0: a26d a1bf 7a1e 93bf 561f 8ebf 266d c8be
000000b0: 3f24 cabe 7ae0 7abe c563 3abf 729e 9abf
000000c0: 2797 15bf 2b39 ddbe b8f4 28bf 8556 1dbf
000000d0: cd10 e1be 54cc dfbf 2875 d5be d372 babf
000000e0: d0e1 97bf c09a b0bf 748d 9fbf 8679 57bf
000000f0: eecf 98be dd55 95bf bf14 bbbf 921e 3cbf
-0.3874681 -1.3222486 -1.1684108 -1.4356837 -1.320579 -1.3299699 -0.2688253 -0.74738675
-1.2804984 -0.7892806 -0.42454252 -1.1573954 -0.54347205 -1.5237348 -1.0412568 -1.3878367
-1.25479 -0.59388715 -0.39625168 -1.5023121 -1.2057859 -0.9637926 -0.12225829 -1.0577021
-0.2774511 -0.4524403 -0.9762226 -1.7542034 -1.7961185 -0.4611724 -0.57522434 -0.33831784
-0.36190176 -0.47049633 -0.47342107 -0.849559 -1.4459621 -0.7130646 -0.7521536 -1.1226864
-1.2611582 -1.1493676 -1.1103313 -0.39145774 -0.3948078 -0.24499694 -0.72808486 -1.2079604
-0.58433765 -0.43207678 -0.6599841 -0.61460143 -0.4395813 -1.7484231 -0.41690946 -1.4566292
-1.1865788 -1.3797226 -1.2465043 -0.84169805 -0.29846138 -1.1666828 -1.4615706 -0.73484147

bayes_fc1.prior_mu_old_bias f4 [64]
00000000: c204 a6bd 43b3 043c e03d a8bc 8f58 bdbd
00000010: 9af9 36bd ed30 813d a2f9 bfbc f499 c33b
00000020: 8894 46bd 6397 e33c 8ea5 2ebd 0441 efbd
00000030: 7e56 d1bc 4871 e23c 7ee6 f0bc 62f1 9d3d
00000040: ac8b 603d ce7a bc3b d87b 46bd 7e21 873c
00000050: 9f14 adbd fd8e 06bd a179 f2bd a739 36bd
00000060: 378b 39bd c37e 13bd 1282 99bc dd55 213d
00000070: 8b1f fc3c 25f0 99bd 2027 ecbd dba3 6cbd
00000080: 20ef b5bd af41 a4bd 9e76 3dbd 9929 85bc
00000090: 45b2 73bd 9b86 2a3c d211 b13c 8097 8cbb
000000a0: 3935 37bd 83dd 83bd c9a8 c0bc 1b2e 84bd
000000b0: ef16 3dbc 4bdd 41bd 90d5 b7bd a577 e8bc
000000c0: 39b9 01bd 4dcb 50bd eecd c4bc c4de 29bd
000000d0: e5f6 9dbd c18b 5c3c fd4e 81bd 450c a23c
000000e0: 28c0 a4bb d72d 743d 594f ad3d ed48 023d
000000f0: bb69 95bd ba82 613d 0ad0 ffbc c8e1 5abd
-0.08106376 0.00809938 -0.020537317 -0.09245407 -0.044671632 0.0630816 -0.023434464 0.0059692804
-0.048481494 0.027782148 -0.042638354 -0.116823226 -0.025553938 0.027641907 -0.029406782 0.07712056
0.0548207 0.005751944 -0.04845795 0.016495463 -0.08451199 -0.032851208 -0.11839605 -0.044488575
-0.04529878 -0.03600956 -0.01873878 0.039388526 0.03077676 -0.07516507 -0.115309 -0.057773452
-0.088835 -0.08020341 -0.0462557 -0.016255187 -0.059496183 0.010408069 0.021614943 -0.004290521
-0.04472849 -0.064387344 -0.023517983 -0.064541064 -0.011541112 -0.047330182 -0.08976281 -0.028377363
-0.031670783 -0.050975133 -0.024023976 -0.04147221 -0.07713107 0.013461054 -0.06313894 0.019781241
-0.0050277896 0.05961403 0.084624 0.03180783 -0.07295557 0.05505631 -0.03122713 -0.053437978

bayes_fc1.prior_sigma_small_bias f4 [64]
00000000: cd9f 043f b7f4 713e 1397 8a3e f894 5a3e
00000010: df50 723e 0d4c 703e 7757 113f f181 c63e
00000020: 331a 7b3e 1cb6 bf3e 39d4 003f e7ee 8b3e
00000030: 0170 ea3e 33db 493e 4ccb 9a3e ee2e 643e
00000040: 4b71 803e e41a e13e a9b7 033f d2d0 4d3e
00000050: ce1d 863e 2871 a53e 4e46 223f 519c 983e
00000060: 2d63 103f ae0e fc3e 51b1 a33e f56e 233e
00000070: bd36 1d3e e452 fa3e 5786 e43e 4ec9 093f
00000080: 6c4a 073f a57b f83e 62e8 f73e 4245 b63e
00000090: 3691 583e af38 cc3e 77b9 c53e 4c3d 903e
000000a0: 1a71 7f3e 4deb 8c3e becc 913e 3536 043f
000000b0: bddd 033f 8500 143f 61b4 c93e 2edc 853e
000000c0: 89d9 e23e 6b11 003f 1d52 d53e 755b dd3e
000000d0: 87a0 fe3e 0a4f 243e 7d9a 013f 767e 563e
000000e0: 4466 883e 34d9 653e 0663 813e ba7a b73e
000000f0: 2815 0e3f d1cc 8a3e 268a 553e ac94 c83e
0.51806337 0.23628508 0.27068385 0.2134589 0.23663662 0.23466511 0.56774086 0.38771012
0.24521713 0.37443626 0.50323826 0.27330706 0.45788577 0.19712524 0.30233228 0.22283527
0.25086436 0.43965828 0.5145212 0.2009919 0.26194614 0.32312894 0.63388526 0.2980676
0.5640133 0.4922995 0.3197122 0.15960295 0.15352912 0.48891366 0.44633743 0.5382279
0.52847934 0.48531833 0.48419482 0.35599715 0.21149144 0.39886996 0.3861806 0.28171766
0.24945489 0.2752327 0.28476518 0.51645213 0.5151022 0.5781329 0.3939543 0.26144546
0.4430659 0.5002658 0.4166421 0.4323384 0.49731848 0.16045776 0.50626355 0.20946679
0.26640522 0.22446138 0.2527086 0.3583582 0.5550103 0.27109388 0.2085348 0.39175928

bayes_fc1.prior_mu_old f4 [64, 6]
00000000: 180e d0bd 88c1 dabe 830c e0bd 9dd0 61be
00000010: c500 41be 69e0 bbbd 266b cd3e ab4b f4bd
00000020: 9be7 1b3e 2b44 aebe de8e ab3d 18a8 29be
00000030: 2aed 8cbe 2286 0f3e a9c3 87be e971 053e
00000040: d85d 1dbe 0c29 913d 155c aabe ac57 073e
00000050: daec a4be 58e0 c83e ccdd c8bd 0fce 08be
00000060: 4fd1 96be 4fa2 2a3e 7d84 90be d348 5e3e
00000070: 9b55 0fbe 08c4 183c bf80 cf3d 0de0 10be
00000080: beee 893e efb4 3cbe c1a0 e83d 2939 86bd
00000090: 3daf 0cbe 794f 90be f0f1 6dbd b6f2 e1bd
000000a0: 4168 90be 33b6 70bd ce12 c2be c49e 523e
000000b0: e855 febd bf02 6ebd 5f4d 9fbe e669 3f3d
000000c0: 052f 80be d763 eb3d fbaa 9cbe e777 b53e
000000d0: ed67 04be eaf9 8bbd 6f3b c3bd ec41 80be
000000e0: 0301 4e3d 6779 1bbe c707 f4bb fd0b cd3d
000000f0: 2bec 8cbe da04 47be 1721 93bd 67c2 97be
00000100: b493 f73b 4b82 9ebd 4a8f 12be 242b 41ba
00000110: a48b c9be 7d72 b53e 262a c4bd d6d5 39bd
00000120: b06e 40be 6dfd ecbc 7dca a4bd cb83 b3bd
00000130: d184 b3be 90cf d5bc 10a6 d63e d3f3 17be
00000140: 70dd de3d b8da 96be ab95 093e b9b1 f9bc
00000150: e31e a13b de2b 91bd 6dfd b73b fa53 4abe
00000160: 22e7 a3be 3a6f c63c 7db4 dbbe 181b 6dbe
00000170: e223 aa3d 2201 e9bd b30d 5c3c 2ad1 9d3e
00000180: fb37 483e 0fa6 29be 6ce1 b53e f0e9 9bbe
00000190: 76f8 213e a15b 8ebd dba0 76be 0806 d6bc
000001a0: 94fe 19bd 1433 c3bd 09a2 26be 044c e93c
000001b0: 21dd b4bd 1bb8 37be 716b 85bd bb53 22be
000001c0: f6d9 61be 408e babd f89c 4b3e ad84 dfbd
000001d0: 0540 893e 9e95 8cbe 4754 1d3e 2dad eebd
000001e0: d477 54be cfea 5a3d c78e 63be ff0b 6b3e
000001f0: 979b a9bd a104 a6bb f677 7dbe 4bac ae3d
00000200: 4508 07be b79e 44be 4f55 d5bd 4e2f 1d3d
00000210: 6d47 a6bd 9511 83be 5b62 c2bd 508c 86be
00000220: 16db b4be bb3f 86bd 9a6e 9bbe 5fa9 e03d
00000230: 652e 80be 8d27 3b3e f225 12be 99d9 84bb
00000240: 6008 0b3d 42e3 c3bd ea9b d6bc a7cc 69be
00000250: c6ee 86be 33fc a7bd 9ca7 9cbd 4abe 60be
00000260: 1b19 91bd 6154 9f3d 461a 9dbe f230 06bd
00000270: 20d7 80be 10ea bdbd 6c0f 42bd 8c43 44be
00000280: 89ec e5bd 12e2 e2bb 648e 3a3e b45d d2bd
00000290: 3370 bf3e 1518 a2be 0560 403e a437 003d
000002a0: 660b 963e d323 b4bd c114 333e f992 62be
000002b0: daad d23d b291 3b3e 6271 97bd 0afb 6fbe
000002c0: e742 a6bd 76bc 00be 07a1 86be b670 f5bd
000002d0: 97af 5cbe 519d 08be 47b3 adbd 905f 813d
000002e0: 1c33 86be 0e0d 2dbe a617 9cbd 9e8b 7dbe
000002f0: 7d82 0dbd 279d afbd e08d b6be 78f1 d3bd
00000300: f0a1 2dbd 1afe 3cbe d1e6 d2bd 3c89 c8bd
00000310: 2773 05be 602d 0aba e9e5 7fbe ee67 edbd
00000320: 79b7 63bd 5abe 46be e7c7 3bbe 3615 f8bc
00000330: 1294 6dbd 9619 5bbd d842 a7bd e398 48be
00000340: 58e2 94be 6394 8fbb 50d1 383c 96ae 4ebe
00000350: 018d 333d 1704 ebbe 0437 c53d 6e59 1ebd
00000360: 4da4 c2be 5cbf 583e b3cd 9abe 9a47 bf3d
00000370: 8a17 a2bd 7ab5 573d 61ee 26be a577 89be
00000380: 9d04 75bc 980a 5fbe 1865 6abe 7787 b6bd
00000390: a7c7 91be 7ddc 133e c742 b4bd d95e 58bd
000003a0: 44b7 adbe 8c7a acbd d610 b0bd 2fc0 04be
000003b0: 7723 77bc a875 5bbd 108e 77be 0aa3 243e
000003c0: bcc1 95be 0019 e03d eaa9 b8be 0b04 5b3e
000003d0: f447 cfbd 832f b43d ae2c 8dbe e94b a43d
000003e0: aacd 52be c8b5 273e 9bc6 aebd cbb1 cb3b
000003f0: 676c 24be 8fc2 a13c 5ef3 87be 1f19 d33e
-0.10158938 -0.42725778 -0.109398864 -0.22052236 -0.1884795 -0.09173662 0.4012081 -0.11928495
0.15225069 -0.34036383 0.08376859 -0.16568029 -0.27524692 0.14016011 -0.26516464 0.13031735
-0.1536783 0.07087907 -0.33273378 0.13217038 -0.32211953 0.3923366 -0.098079294 -0.13359855
-0.29456565 0.16663478 -0.2822608 0.21707468 -0.139975 0.009324081 0.10131978 -0.14147969
0.26939958 -0.18428396 0.113587864 -0.06553871 -0.13738723 -0.28185633 -0.058092058 -0.110326216
-0.2820454 -0.05876751 -0.37904972 0.20568377 -0.12418729 -0.058108088 -0.31113717 0.046731852
-0.25035873 0.11493652 -0.30599198 0.3544304 -0.1293027 -0.06834777 -0.095328204 -0.25050294
0.050293934 -0.1518303 -0.007447216 0.10012052 -0.27523932 -0.19435444 -0.07184046 -0.29640505
0.0075554494 -0.07739695 -0.14312473 -0.0007368794 -0.3936435 0.3543891 -0.09578352 -0.045369945
-0.18792224 -0.028929437 -0.08046434 -0.08765372 -0.35062268 -0.02609995 0.4192357 -0.14839105
0.108820796 -0.29463744 0.13436 -0.030480253 0.004917012 -0.07088445 0.0056149275 -0.19758597
-0.32012278 0.024222959 -0.4291114 -0.23154867 0.08307625 -0.11377169 0.0134310005 0.30823642
0.19552605 -0.16567253 0.35523546 -0.30451918 0.15817437 -0.069510706 -0.24084799 -0.026125923
-0.0375963 -0.09531227 -0.16272749 0.02847863 -0.088312395 -0.17941324 -0.065146334 -0.15852253
-0.22055802 -0.09109163 0.19884098 -0.10913978 0.26806656 -0.274579 0.1536418 -0.116541244
-0.20748836 0.053446587 -0.22222434 0.22953795 -0.082816295 -0.00506647 -0.24752793 0.08528956
-0.13186748 -0.1920117 -0.10416662 0.03837519 -0.08119092 -0.25599352 -0.09491416 -0.26278925
-0.353234 -0.06555124 -0.3035782 0.10969805 -0.25035396 0.18276806 -0.14272287 -0.00405426
0.033943534 -0.0956483 -0.026197392 -0.22831975 -0.26354045 -0.082024 -0.076491565 -0.2194759
-0.070848666 0.07779766 -0.30684108 -0.03276152 -0.25164127 -0.092731595 -0.04737799 -0.19166392
-0.11226756 -0.0069239223 0.1821838 -0.10271779 0.3739029 -0.31658998 0.18786629 0.031303063
0.2930557 -0.087958954 0.17488386 -0.22126378 0.10287066 0.18317297 -0.07394673 -0.23435608
-0.08118229 -0.12571892 -0.2629473 -0.119843885 -0.21551357 -0.13341261 -0.0848146 0.06317055
-0.26210868 -0.16899511 -0.07621698 -0.24760291 -0.03454827 -0.08574896 -0.35655117 -0.10348791
-0.042390764 -0.18456307 -0.10297931 -0.097918004 -0.13032208 -0.00052710436 -0.24990048 -0.11592089
-0.055594895 -0.19408551 -0.18337975 -0.030283552 -0.05800254 -0.053491198 -0.08167046 -0.19589572
-0.29078937 -0.0043817027 0.011280373 -0.20183787 0.043835644 -0.45901558 0.09629634 -0.038659506
-0.38015977 0.21166748 -0.3023506 0.09339829 -0.07914646 0.052663304 -0.16301872 -0.26849094
-0.014954713 -0.21781385 -0.22890127 -0.089125566 -0.28472635 0.14439578 -0.08801799 -0.05282483
-0.33928883 -0.084218115 -0.08596961 -0.12963937 -0.015084139 -0.053579003 -0.24175286 0.1607782
-0.2924937 0.10942268 -0.36067134 0.21388261 -0.10121146 0.08798125 -0.2757315 0.08022291
-0.20586267 0.16377938 -0.08533975 0.006216263 -0.16056977 0.019746093 -0.26552862 0.41230103

bayes_fc1.prior_sigma_small f4 [64, 6]
00000000: 4e6d 6f3e 491b 4c3e a6c5 4d3f 372c 8d3e
00000010: 9c61 043e 98b8 573f 1b04 ba3d b487 623d
00000020: df9f f83e aa5a e13d 722a 723d ff1c 133f
00000030: 3bdb d93d 2a99 6d3d 831c 1d3f 0ce1 0c3e
00000040: 5b64 803d 7ab5 073f 7594 b03d bff2 333d
00000050: 3ace fb3e ded7 8f3d af22 293d ab59 de3e
00000060: 1a12 c23d 9699 4c3d 3c73 0f3f d591 e33d
00000070: 5ada 743d 8817 bd3e a1e8 ee3d d6c5 823d
00000080: 0738 053f 2d78 d33d ef6e 573d 3cf9 083f
00000090: 881e 9b3e f754 073e b634 563f cbc9 8d3e
000000a0: 2ae0 113e b3ed 4e3f b0e4 253e 6872 933d
000000b0: f3a8 3d3f 6be2 553e ecc1 d43d 2be6 373f
000000c0: cc48 b03d d8e6 6d3d 6943 153f a73a b53d
000000d0: d215 553d b663 e23e 971c 503e b6fd cd3d
000000e0: ffed 343f 78f5 043e 63a3 9f3d 3d00 263f
000000f0: df6d 913e c8db d73d 18ad 5e3f 22c9 813e
00000100: 9566 d73d 02ec 5d3f 8c08 c83d b5d3 653d
00000110: 8cd9 0d3f a272 bf3d ff69 533d 7d22 f33e
00000120: c0cd 3e3e 8908 a73d a782 423f df4f 6d3e
00000130: c57c 243e 826d 433f 7607 8f3d dcce 333d
00000140: 0d7a cf3e 60cb 9e3d 05e3 313d 05d3 d83e
00000150: 8ede 263e 1148 d03d 0393 503f 5ea8 843e
00000160: 9b4a 143e 1d1a 5a3f 4c3c 293e c254 923d
00000170: 2662 ec3e cdbf ab3d 9547 4e3d d2aa b93e
00000180: ff88 e83d 2448 623d ed1b 013f 1a51 bd3d
00000190: 5ccc 553d 14fd 093f 379f 4b3e 01e8 cc3d
000001a0: 80a2 533f b4da 5c3e 46d6 f83d fd13 4a3f
000001b0: c9da 713e b5e7 fa3d 276f 583f a6b4 693e
000001c0: 9893 f03d 5e74 4e3f e1f2 ab3d fc3f 513d
000001d0: 97a0 dc3e 8529 ae3d 5f40 383d 0f37 e43e
000001e0: fb1a e83d 11a8 723d bede 113f 9d45 d93d
000001f0: ebd0 5a3d c705 eb3e 70a5 1a3e ab35 863d
00000200: f05b 353f fdaa 3c3e 98d8 a03d c481 223f
00000210: f282 9b3e 1dc6 093e c65b 673f 2ca4 b13e
00000220: d856 5c3e 5c4f 663f cfad f13d 8c83 7c3d
00000230: d1b8 243f e4b8 003e 4b19 893d ccc9 1c3f
00000240: 184c 623e a884 ca3d 6e33 5b3f 488a ab3e
00000250: bccb 2b3e ab87 603f ede5 793e 6aa5 043e
00000260: d242 563f 384d 803e 2c59 423e 58f4 5e3f
00000270: 6de5 3d3e f0a4 973d 2703 303f c3fd 3d3e
00000280: f99e ab3d a4ba 333f d9b4 8a3d dd72 2f3d
00000290: 0272 983e 6518 803d 03ac 153d 5e8a af3e
000002a0: 7898 843d 5848 1a3d f4cb ab3e 19d4 873d
000002b0: faeb 103d 971a 9d3e f604 683e 99a8 063e
000002c0: 250a 4d3f cd3b 5f3e c6b7 143e 6362 e73e
000002d0: bb36 493e ab62 df3d e340 4a3f d728 193e
000002e0: e661 ee3d 2da7 293f f58b 563e 8a07 f93d
000002f0: 0cc8 483f 1f81 7e3e 7264 363e 1bd4 4d3f
00000300: f7c5 653e 477e e73d 6f01 5e3f 5f8d 6f3e
00000310: 69c3 d23d 6846 543f 7ee3 7c3e 4450 fd3d
00000320: cdcf 323f 1190 7b3e 70e0 cd3d e98b 033f
00000330: e010 493e 5087 ce3d 8086 5a3f 3a8d 8d3e
00000340: 05bc 1d3e 614e 623f f2e0 1e3e cbb1 ab3d
00000350: 5a8f 333f 2677 1f3e 9eb3 913d e719 173f
00000360: fb42 b13d 67ea 463d ae01 ff3e bf09 b73d
00000370: 7fd8 3b3d 03e3 e83e 42a8 783e 8659 033e
00000380: e302 373f e932 843e 267d 1a3e 08f0 473f
00000390: c3bb 1a3e 6dea 993d 06f8 393f 1722 393e
000003a0: e1ec d13d f64e 343f 2b9c 143e 0dcb 8f3d
000003b0: d795 183f 9daa e53d 56ec 033e ad12 013f
000003c0: eaf6 c73d dfb6 583d 0f7d 0f3f 4fbc cd3d
000003d0: 7aeb 593d 3efa ef3e ad2f d93d 6ff2 703d
000003e0: 339c 1b3f e516 d43d 0625 743d c929 063f
000003f0: d3ff f53d 8084 833d 35a9 1e3f 2e5e e03d
0.2338154 0.19932283 0.8037971 0.27572796 0.1292786 0.8426604 0.09082814 0.055305198
0.48559472 0.11003621 0.05912251 0.5746612 0.10637518 0.058007397 0.6137163 0.13757724
0.06269141 0.53011286 0.08622066 0.043932673 0.49180776 0.07023595 0.041292842 0.43427786
0.09476109 0.04995116 0.5603521 0.111118 0.05977855 0.36932015 0.11665464 0.063853905
0.52038616 0.10325656 0.05259603 0.535053 0.3029673 0.13216005 0.8367418 0.27693018
0.14245668 0.8083145 0.16200519 0.07199556 0.7408592 0.20887153 0.1038855 0.71835583
0.08607635 0.058081478 0.58305985 0.08849078 0.052022763 0.44216698 0.20323406 0.10058157
0.70675653 0.12984264 0.077948354 0.64844114 0.28404137 0.10539967 0.8698287 0.25348765
0.10517613 0.86688244 0.09767255 0.056110103 0.55410075 0.09348036 0.051614758 0.4748725
0.18633175 0.08155925 0.7598061 0.23175 0.16063221 0.7633897 0.06983845 0.04389845
0.40522805 0.077536345 0.043429393 0.42348495 0.16295835 0.101699956 0.8147432 0.25909704
0.14481585 0.85196096 0.16526908 0.071450725 0.4616863 0.083861925 0.050361235 0.36263138
0.11354255 0.05524458 0.50433236 0.092439845 0.052196845 0.5390179 0.19884954 0.10005189
0.8266983 0.21567804 0.121502444 0.7893675 0.23618616 0.12251226 0.84544605 0.22822818
0.11746901 0.8064631 0.08395935 0.05108641 0.4309127 0.08504013 0.044983264 0.44573256
0.11333271 0.059242312 0.569805 0.10608981 0.053421896 0.45902845 0.15102172 0.06553205
0.7084341 0.18424602 0.07853812 0.63479257 0.3037334 0.1345448 0.9037441 0.34695566
0.21517503 0.8996484 0.118007295 0.06164889 0.6434451 0.1257053 0.066942774 0.6124542
0.2209934 0.098885834 0.8562535 0.33503938 0.16776937 0.8770701 0.24404116 0.12953725
0.8369571 0.25058913 0.18979329 0.8709159 0.1854455 0.07404506 0.6875481 0.18553834
0.08379931 0.70206666 0.06772775 0.04283415 0.2977448 0.06254653 0.036540996 0.34285253
0.064743936 0.03766665 0.3355404 0.06632251 0.035381295 0.3068435 0.22658142 0.13150252
0.80093604 0.21800156 0.14523229 0.4519225 0.19649784 0.10907491 0.7900526 0.14956985
0.116397664 0.66270715 0.20951827 0.12159641 0.7843025 0.24853943 0.17811754 0.8040177
0.22438799 0.11303382 0.8672094 0.23393773 0.10291178 0.8291993 0.24696156 0.12368825
0.6984833 0.24566676 0.10052574 0.5138536 0.19635344 0.100844026 0.8536148 0.2764681
0.15403755 0.88400847 0.15515497 0.08383521 0.7014061 0.15572795 0.071143374 0.590239
0.08655354 0.048563387 0.4980597 0.08937406 0.045860764 0.45485696 0.24282935 0.12827119
0.7148878 0.2582009 0.15086803 0.78100634 0.15110688 0.07515416 0.7264408 0.1807941
0.10250259 0.70432985 0.14512698 0.07021151 0.5960364 0.112141825 0.12883124 0.5041912
0.09763892 0.052908774 0.560502 0.10045683 0.053203084 0.46870607 0.106047966 0.058824953
0.60785216 0.10355929 0.05960562 0.5240751 0.12011685 0.06421757 0.6197694 0.10955463

bayes_fc2.weight_mu f4 [1, 64]
00000000: b884 383c f6b0 bc3d 60e7 95bd 314f f8bd
00000010: 4717 a1bd 3866 9c3d fe33 2ebc bfb6 64bd
00000020: aca9 e0bd 28c2 923d c318 5b3c 6e1f 09be
00000030: 2b4d cabc 3451 ed3d 953b 973b 75fb ad3e
00000040: 0f0e d13d dc6e 85bd 5e1b f5bc 28dd e33d
00000050: 9732 a5bd 21c0 d3bd 6779 9d3b 8424 a6bd
00000060: fc81 843c 98a7 833c a8ba 303e caff 2d3e
00000070: 8f37 163e cfae 68bd 0c50 10be bb75 a0bc
00000080: 3dc4 61bc 7813 36bd 5c47 05bd e48a 6f3d
00000090: deba a2bd 06d0 9abc 4a3a 38bd bdb3 323e
000000a0: 75ba cfbd 33ef bfbd 9885 8cbd d308 f0bb
000000b0: 3ae7 0abd d551 e6bb e5f2 07be 1533 8cbd
000000c0: 698c 4e3d 5c77 b9bb 44b6 263c ca77 50bd
000000d0: c705 593d 6ef1 ed3d def8 9abc 742f c83d
000000e0: 9a89 f43d 7833 af3d bdd2 0b3e 0d66 6e3d
000000f0: 74ab cabc 2925 dc3d 6950 ffbd 979d 8c3c
0.011262111 0.0921344 -0.07319522 -0.121244796 -0.07865768 0.07636684 -0.010632513 -0.055838343
-0.10969862 0.071659386 0.013372603 -0.13390896 -0.024695 0.11587754 0.004615257 0.3398091
0.102077596 -0.065152854 -0.029920276 0.111261666 -0.0806629 -0.1033938 0.004805732 -0.081124336
0.016175263 0.016071126 0.17258704 0.16992107 0.14669631 -0.056807335 -0.14093035 -0.019587388
-0.013779697 -0.04445216 -0.032538757 0.058482066 -0.07945798 -0.018898021 -0.044977464 0.17451377
-0.10142986 -0.093717955 -0.068614185 -0.0073252707 -0.03391192 -0.007028798 -0.1327625 -0.068456806
0.050426874 -0.0056599807 0.010175291 -0.05089549 0.052984025 0.11618315 -0.018917497 0.09774676
0.11940308 0.08554739 0.13654609 0.058202792 -0.024739958 0.10749275 -0.12466509 0.017164988

bayes_fc2.weight_rho f4 [1, 64]
00000000: d886 b3bf 2aff 46c0 65e3 37c0 af09 45c0
00000010: 3ea0 43c0 253d 3ec0 f7ba abbf 5b3f 40c0
00000020: 4fad 43c0 e120 20c0 23fc 2fc0 2454 2cc0
00000030: 317d debf 45ab 4ec0 9743 e5bf 591e f1bf
00000040: 566b 49c0 7527 14c0 600f ccbf 0f32 42c0
00000050: 7c1d 29c0 0e87 0bc0 40ca edbf eb5a 3bc0
00000060: 9af4 28c0 8899 08c0 54d9 79bf 80f4 42c0
00000070: 182d 46c0 4299 9abf acda b5bf e894 d1bf
00000080: f917 13c0 c9d5 adbf b555 0dc0 1890 32c0
00000090: f983 48c0 edd0 f7be a64f 3fc0 6ea9 9ebf
000000a0: 808f 3ac0 2d20 32c0 3a39 3ac0 aa1a 03c0
000000b0: 84fe 0cc0 7c58 bfbf 8e6a cabf ef63 3bc0
000000c0: 1f71 dcbf 4ffb 27c0 f0a1 25c0 5ce8 2ac0
000000d0: 5d08 cbbf 04ff 45c0 0d1c b3bf 6b17 3dc0
000000e0: e0a8 33c0 a759 41c0 6e39 24c0 68cd 3bc0
000000f0: 87e0 c1bf 0701 3fc0 1f9c 3fc0 b0c9 15c0
-1.4025526 -3.109324 -2.873254 -3.078716 -3.0566554 -2.972482 -1.3416432 -3.003867
-3.057453 -2.5020068 -2.7497642 -2.6926355 -1.7381955 -3.2292035 -1.7911252 -1.8837386
-3.1471763 -2.3149083 -1.5942192 -3.0343053 -2.6424246 -2.180118 -1.8577347 -2.9274242
-2.6399293 -2.1343708 -0.9759724 -3.046173 -3.0965023 -1.207802 -1.4207358 -1.6373568
-2.2983382 -1.3580867 -2.2083561 -2.7900448 -3.133055 -0.48401585 -2.9892364 -1.2395456
-2.9150085 -2.7832139 -2.9097428 -2.0485024 -2.2030344 -1.4948878 -1.5813768 -2.9279745
-1.7222022 -2.6247137 -2.5880089 -2.670432 -1.5861927 -3.09369 -1.3992935 -2.9545543
-2.8071823 -3.021097 -2.5660052 -2.934412 -1.5146645 -2.9844377 -2.9939039 -2.340435

bayes_fc2.prior_mu_old f4 [1, 64]
00000000: b884 383c f6b0 bc3d 60e7 95bd 314f f8bd
00000010: 4717 a1bd 3866 9c3d fe33 2ebc bfb6 64bd
00000020: aca9 e0bd 28c2 923d c318 5b3c 6e1f 09be
00000030: 2b4d cabc 3451 ed3d 953b 973b 75fb ad3e
00000040: 0f0e d13d dc6e 85bd 5e1b f5bc 28dd e33d
00000050: 9732 a5bd 21c0 d3bd 6779 9d3b 8424 a6bd
00000060: fc81 843c 98a7 833c a8ba 303e caff 2d3e
00000070: 8f37 163e cfae 68bd 0c50 10be bb75 a0bc
00000080: 3dc4 61bc 7813 36bd 5c47 05bd e48a 6f3d
00000090: deba a2bd 06d0 9abc 4a3a 38bd bdb3 323e
000000a0: 75ba cfbd 33ef bfbd 9885 8cbd d308 f0bb
000000b0: 3ae7 0abd d551 e6bb e5f2 07be 1533 8cbd
000000c0: 698c 4e3d 5c77 b9bb 44b6 263c ca77 50bd
000000d0: c705 593d 6ef1 ed3d def8 9abc 742f c83d
000000e0: 9a89 f43d 7833 af3d bdd2 0b3e 0d66 6e3d
000000f0: 74ab cabc 2925 dc3d 6950 ffbd 979d 8c3c
0.011262111 0.0921344 -0.07319522 -0.121244796 -0.07865768 0.07636684 -0.010632513 -0.055838343
-0.10969862 0.071659386 0.013372603 -0.13390896 -0.024695 0.11587754 0.004615257 0.3398091
0.102077596 -0.065152854 -0.029920276 0.111261666 -0.0806629 -0.1033938 0.004805732 -0.081124336
0.016175263 0.016071126 0.17258704 0.16992107 0.14669631 -0.056807335 -0.14093035 -0.019587388
-0.013779697 -0.04445216 -0.032538757 0.058482066 -0.07945798 -0.018898021 -0.044977464 0.17451377
-0.10142986 -0.093717955 -0.068614185 -0.0073252707 -0.03391192 -0.007028798 -0.1327625 -0.068456806
0.050426874 -0.0056599807 0.010175291 -0.05089549 0.052984025 0.11618315 -0.018917497 0.09774676
0.11940308 0.08554739 0.13654609 0.058202792 -0.024739958 0.10749275 -0.12466509 0.017164988

bayes_fc2.prior_sigma_small f4 [1, 64]
00000000: de30 613e d7d8 323d fc2d 613d 5848 383d
00000010: d34c 3c3d 146e 4c3d efce 6d3e 9543 463d
00000020: 4327 3c3d 3441 a13d 96e0 7d3d 8c29 863d
00000030: 3dde 253e 7307 1f3d 6ff1 1d3e f8e9 103e
00000040: 7157 2c3d e9e9 c03d a64f 3d3e 2175 403d
00000050: a0d6 8c3d 104f db3d bb77 143e 3b9c 553d
00000060: ac2d 8d3d 6205 e53d 4bba a33e 283d 3e3d
00000070: c91a 353d f5e0 853e b98a 5d3e d0fc 353e
00000080: cbfc c33d 6b57 6a3e 8e82 d53d 9e25 743d
00000090: b0bd 2e3d 23d5 f53e 8e1d 493d 402f 823e
000000a0: ae35 583d 6cc5 753d 4a52 593d 8d5b f83d
000000b0: 7397 d63d 4434 4f3e f08a 3f3e eb7e 553d
000000c0: 7b55 283e da44 8f3d 8c6f 943d 6b13 893d
000000d0: fdb3 3e3e 819a 353d bfd9 613e 2009 503d
000000e0: 251e 703d ddf4 423d 669e 973d 2129 543d
000000f0: 3186 4b3e 330f 4a3d 9233 483d ae44 bc3d
0.21991298 0.043663826 0.054975495 0.044990867 0.045971703 0.049909666 0.2322347 0.048404295
0.04593588 0.07873765 0.06198176 0.06550893 0.16198058 0.038825464 0.15424131 0.14151752
0.042075578 0.09419615 0.18487415 0.046986703 0.06876874 0.10708439 0.14498799 0.052150946
0.06893477 0.11182667 0.31978068 0.046445042 0.044214997 0.2614819 0.2163495 0.17772222
0.09569701 0.2288491 0.10425292 0.059606187 0.04266137 0.48014173 0.04910045 0.25426674
0.052785568 0.06000273 0.053056993 0.12126837 0.104781054 0.20234782 0.18705344 0.05212299
0.16438858 0.06995554 0.072478384 0.06693157 0.18623348 0.0443368 0.2205572 0.050789952
0.058622498 0.0475968 0.07403259 0.051797036 0.19875409 0.0493309 0.048877306 0.09192787
