models/updated_hmnn_model_1989_2003.pth (torch, 14090 bytes, 12 tensors)

bayes_fc1.weight_mu f4 [64, 6]
0	0xbed49b2d	-0.4152464
1	0xbf1dcb5c	-0.61638427
2	0xbe97c3f6	-0.29641694
3	0xbf03d4cf	-0.51496595
4	0xbedb10fc	-0.42786396
5	0xbe84a226	-0.2590496
6	0x3f0153e0	0.5051861
7	0xbdf2c67d	-0.11854265
8	0x3f9751b7	1.1821812
9	0xbee3d445	-0.44497886
10	0x3de15d19	0.11004085
11	0xbf506462	-0.8140317
12	0xbeb9243d	-0.3616046
13	0x3e5dd1f8	0.21662128
14	0xbf09bfe6	-0.5380844
15	0x3ea7da63	0.32783803
16	0xbe1ae217	-0.15125309
17	0x3f43d1cb	0.76491994
18	0xbeb54abf	-0.3540859
19	0x3e527ed3	0.20556192
20	0xbf8dd64e	-1.1081026
21	0x3ed4ca1c	0.41560447
22	0xbdf90c48	-0.121605456
23	0xbc765c87	-0.015036709
24	0xbebd53b8	-0.36977935
25	0x3e5f65f0	0.2181623
26	0xbf7a753e	-0.9783515
27	0x3ec085ca	0.37602073
28	0xbe18f4f1	-0.14937188
29	0x3ee92500	0.4553604
30	0x3e4ea6c2	0.201808
31	0xbe24b455	-0.16084416
32	0x3fc90178	1.5703573
33	0xbe9d7d3b	-0.30759606
34	0x3e4442e5	0.19166143
35	0x3f10ba60	0.56534386
36	0xbf041d69	-0.51607376
37	0xbec1fcde	-0.37888235
38	0xbe219c77	-0.15782343
39	0xbebafe5c	-0.36522186
40	0xbef4f0fa	-0.478401
41	0xbe12c307	-0.1433221
42	0xbeddc242	-0.4331227
43	0x3e850d7a	0.25986844
44	0xbdb31cb8	-0.08745712
45	0xbe3eb476	-0.18623528
46	0xbeb5bfa7	-0.35497782
47	0x3f8f8d7f	1.1215056
48	0xbe966f4e	-0.29381794
49	0x3e0608c0	0.13089275
50	0xbf81a165	-1.0127379
51	0x3efd45d5	0.4946734
52	0xbe14ba27	-0.14524136
53	0x3d35ebe4	0.044414416
54	0xbf187699	-0.59555966
55	0xbe97bb93	-0.29635295
56	0xbe013cf9	-0.12620915
57	0xbde07dbe	-0.109614834
58	0x3e0c36f0	0.13692832
59	0x3f967fad	1.1757714
60	0xbeb33e84	-0.35008633
61	0xbeb3986d	-0.3507723
62	0xbe0f4f9b	-0.13995211
63	0xbeea1202	-0.45716864
64	0xbe39eb35	-0.1815613
65	0xbe32416d	-0.1740777
66	0xbe4fa0e2	-0.20276216
67	0x3dc2c264	0.09509733
68	0xbfac1b5c	-1.344585
69	0x3efe4041	0.49658397
70	0xbda7e90c	-0.08198747
71	0xbe42aea0	-0.19011927
72	0xbeee131c	-0.46498954
73	0xbe3bfdce	-0.18358538
74	0xbe5f325f	-0.21796559
75	0xbed9356f	-0.4242358
76	0xbf07b0ee	-0.5300435
77	0xbe824c3f	-0.25448796
78	0x3ede033b	0.4336184
79	0xbe0cbe81	-0.13744546
80	0x3f8bdd7b	1.0926965
81	0xbebdf3ca	-0.3710006
82	0x3e39f66d	0.1816041
83	0xbe032ee2	-0.12810853
84	0xbea60328	-0.32424283
85	0xbe8b47c7	-0.272032
86	0xbeb88fdd	-0.3604726
87	0xbeefb729	-0.46819428
88	0xbefa63de	-0.48904318
89	0xbe2cb916	-0.1686748
90	0xbf793ec3	-0.9736139
91	0xbe550423	-0.2080236
92	0xbf8a06df	-1.0783347
93	0xbd908a29	-0.07057602
94	0x3d40196f	0.046899255
95	0x3f3cd0e7	0.7375626
96	0x3e90183f	0.28143498
97	0xbe32ed84	-0.17473418
98	0x3fd3c9f0	1.6546001
99	0xbeba33d7	-0.36367676
100	0x3e4327e0	0.1905818
101	0x3e84405e	0.25830358
102	0xbee3a05f	-0.4445829
103	0xbe436b7a	-0.19083968
104	0xbe4f579c	-0.20248264
105	0xbed64667	-0.41850588
106	0xbeb37f91	-0.35058263
107	0xbe700f16	-0.23443255
108	0xbed4966b	-0.4152101
109	0xbec3ae3d	-0.3821887
110	0xbdf4eb45	-0.119589366
111	0xbec8dcd1	-0.3923097
112	0xbede3196	-0.43397206
113	0xbe41ddee	-0.18932316
114	0x3ea2bc69	0.3178437
115	0xbde4227b	-0.11139389
116	0x3fa06702	1.2531435
117	0xbebb15f0	-0.36540174
118	0x3e5011a0	0.20319223
119	0xbe8874f0	-0.26651716
120	0xbe5fbfd3	-0.21850519
121	0x3d9e78b9	0.0773787
122	0xbf4615c5	-0.7737697
123	0x3e9a174b	0.30095896
124	0xbe0b2164	-0.13586956
125	0x3e0786c9	0.1323501
126	0xbecbbc67	-0.39792177
127	0x3d8072e9	0.062719174
128	0xbe52b230	-0.20575786
129	0xbf080d29	-0.5314508
130	0xbe81fb2e	-0.25386947
131	0x3c397156	0.011318525
132	0xbea5f6c6	-0.32414836
133	0xbebc895c	-0.36823547
134	0xbd450a90	-0.048105776
135	0xbf0e95be	-0.5569724
136	0xbf10b6bc	-0.5652883
137	0xbe3fee9c	-0.18743366
138	0xbeb2e39c	-0.34939277
139	0x3e2428ed	0.16031237
140	0xbf239661	-0.63901335
141	0x3e947fe6	0.2900383
142	0xbe26f17e	-0.1630306
143	0x3ee65f21	0.44994453
144	0xbeaef0c3	-0.34168062
145	0xbec365d6	-0.38163632
146	0xbe327706	-0.17428216
147	0xbf0a6204	-0.5405581
148	0xbeebac1d	-0.4602975
149	0xbe8e3a8e	-0.2777905
150	0xbeb50f53	-0.35363254
151	0xbedaa1c6	-0.42701548
152	0xbe1edfb1	-0.15515019
153	0xbe96e3a1	-0.29470542
154	0xbeeaf6d0	-0.45891428
155	0xbe438f33	-0.19097595
156	0xbec6d2f8	-0.3883283
157	0xbe7e071b	-0.24807398
158	0xbe8c0abe	-0.27351946
159	0xbe882b42	-0.26595503
160	0xbe3788c0	-0.1792326
161	0xbe43145a	-0.19050732
162	0x3e5b13ba	0.21394244
163	0xbdf9e0e9	-0.12201101
164	0x3fa92706	1.3215034
165	0xbea4c9d5	-0.32185236
166	0x3e4b8b68	0.19877398
167	0x3e9d751c	0.3075341
168	0x3ea3bc08	0.31979394
169	0xbe11ded8	-0.14245164
170	0x3f9ad1c5	1.2095267
171	0xbe85fec2	-0.26170927
172	0x3e119b01	0.14219286
173	0x3e9eb400	0.30996704
174	0xbeaf88f2	-0.34284168
175	0xbecc5b9e	-0.39913648
176	0xbe8e38d2	-0.27777725
177	0xbec927af	-0.3928809
178	0xbee16a75	-0.44026533
179	0xbe98aed1	-0.29820874
180	0xbed1d547	-0.4098303
181	0xbe8a8883	-0.27057275
182	0xbea259a7	-0.31709024
183	0xbe46accb	-0.19401853
184	0xbeb13162	-0.3460799
185	0xbeaef029	-0.34167603
186	0xbec776a6	-0.3895771
187	0xbe94d1db	-0.29066357
188	0xbe5658bc	-0.20932287
189	0xbe9221e7	-0.2854149
190	0xbef1576b	-0.47137007
191	0xbe7df6a3	-0.24801116
192	0xbea25b1c	-0.31710136
193	0xbeae41c1	-0.3403454
194	0xbe84739e	-0.2586946
195	0xbeaa1a63	-0.33223256
196	0xbe8dc99f	-0.27692887
197	0xbe06cfb9	-0.13165177
198	0xbeed93df	-0.4640188
199	0xbe9b9484	-0.30386746
200	0xbe90ef17	-0.2830741
201	0xbed480a1	-0.41504386
202	0xbeaeb397	-0.3412139
203	0xbe4a657c	-0.19765276
204	0xbe958921	-0.29206184
205	0xbe20e639	-0.15712823
206	0xbe21cab2	-0.15799978
207	0xbeada7b3	-0.33917007
208	0xbedae142	-0.42749983
209	0xbddf7f98	-0.109130085
210	0xbe8109a0	-0.25202656
211	0xbe7460c6	-0.23865041
212	0x3ef01571	0.46891358
213	0xbec99cc9	-0.3937743
214	0x3e22a417	0.15882908
215	0x3f3d87d0	0.7403536
216	0xbee16259	-0.44020346
217	0x3e860d84	0.26182187
218	0xbf901d8b	-1.1259016
219	0x3e993097	0.29919884
220	0xbe024c7b	-0.12724487
221	0x3e795ebf	0.24352549
222	0xbf0e336f	-0.5554723
223	0xbee54924	-0.44782364
224	0xbe98ad18	-0.2981956
225	0xbef86d35	-0.48520818
226	0xbeb1a69e	-0.3469743
227	0xbea4937a	-0.32143766
228	0xbeb5bf57	-0.35497543
229	0x3e2ce1b7	0.16882978
230	0x3d2ec4c9	0.042668138
231	0xbe45ab5c	-0.1930365
232	0xbebca419	-0.36843947
233	0x3ed680e3	0.41895208
234	0xbeab8015	-0.33496156
235	0xbe48e73f	-0.19619463
236	0xbe6cb6ce	-0.2311661
237	0xbe57dc09	-0.2108003
238	0xbe8a9c92	-0.2707258
239	0x3ac6c4aa	0.0015164812
240	0xbeae0231	-0.33986047
241	0x3e3f1ab7	0.18662535
242	0xbf6ac4a3	-0.91706294
243	0x3eb48ee2	0.3526526
244	0xbdf461d8	-0.11932725
245	0x3e9525e3	0.29130468
246	0xbea295b2	-0.31754833
247	0x3e06c63b	0.13161556
248	0xbf2f7a23	-0.6854574
249	0x3eb7a950	0.35871363
250	0xbe0cd83f	-0.13754366
251	0x3eb1cd8c	0.34727132
252	0xbe89b181	-0.26893237
253	0x3dd51fa3	0.10406425
254	0xbf890f93	-1.0707878
255	0x3ef41449	0.47671726

bayes_fc1.weight_rho f4 [64, 6]
0	0xbf680031	-0.9062529
1	0xbfb12caa	-1.3841755
2	0x3ebc8c4b	0.36825785
3	0xbf729fc0	-0.9477501
4	0xbfc87b17	-1.5662564
5	0x3ec0b6ac	0.37639368
6	0xc044a1cc	-3.0723753
7	0xc0874515	-4.227183
8	0xbeea7ba6	-0.4579746
9	0xc036e286	-2.857576
10	0xc07eff65	-3.984338
11	0xbe569d1e	-0.20958373
12	0xc03b1e26	-2.923715
13	0xc07a3213	-3.9093063
14	0xbc3b2cf3	-0.011424291
15	0xc02c5bad	-2.6930954
16	0xc066cbad	-3.6061814
17	0xbe8683ca	-0.26272422
18	0xc0531e61	-3.2987292
19	0xc08c6e5a	-4.3884706
20	0xbf3a01ad	-0.7265881
21	0xc057828d	-3.3673432
22	0xc0853284	-4.1624165
23	0xbf2e0fb0	-0.6799269
24	0xc0492db5	-3.1434147
25	0xc085c58e	-4.1803656
26	0xbebf576f	-0.37371394
27	0xc05563d1	-3.3342173
28	0xc07cbe8b	-3.9491298
29	0xbf4885ba	-0.7832905
30	0xc039db7a	-2.9040208
31	0xc0751c57	-3.8298547
32	0xbf6145d4	-0.87997174
33	0xc0519138	-3.2744884
34	0xc08b12f6	-4.3460646
35	0xbf1ba103	-0.6079256
36	0xbf777f6a	-0.96678793
37	0xbfc52b10	-1.5403767
38	0x3ec583ba	0.38577062
39	0xbf52c146	-0.8232616
40	0xbfb6c810	-1.4279804
41	0x3ebe8737	0.37212536
42	0xc0160c62	-2.3445058
43	0xc0630646	-3.547258
44	0x3e45f46b	0.1933152
45	0xbfdff176	-1.7495563
46	0xc028c81c	-2.6372137
47	0x3ea7b14b	0.3275245
48	0xc0401831	-3.0014765
49	0xc0834130	-4.1017075
50	0xbea06207	-0.3132479
51	0xc0472f03	-3.1122444
52	0xc079afae	-3.9013476
53	0xbf06cd7e	-0.52657306
54	0xbfc8aac4	-1.5677114
55	0xc01cf7c6	-2.452623
56	0x3e0211d1	0.12702109
57	0xc0284cdf	-2.6296918
58	0xc0583a03	-3.3785408
59	0x3e81732d	0.25283185
60	0xbf2d0219	-0.67581326
61	0xbff2936b	-1.8951238
62	0x3ed609b4	0.41804278
63	0xbf587768	-0.845572
64	0xbff197e7	-1.8874482
65	0x3ecf3416	0.40469426
66	0xc0507c52	-3.257588
67	0xc08c8c18	-4.3921013
68	0xbf09b786	-0.5379566
69	0xc0567455	-3.3508503
70	0xc089534e	-4.291419
71	0xbf10e2ee	-0.5659627
72	0xbf8ca6a9	-1.0988361
73	0xc005d9c5	-2.0914166
74	0x3ea59b8d	0.32345238
75	0xbf78120d	-0.96902543
76	0xbfbb7155	-1.4643961
77	0x3ed00624	0.40629685
78	0xc05d4b74	-3.4577303
79	0xc08732c6	-4.224948
80	0xbf3d9182	-0.7405015
81	0xc057b12b	-3.3701885
82	0xc08f9c50	-4.487831
83	0xbee97c76	-0.4560277
84	0xbf9af214	-1.2105126
85	0xc010eb5d	-2.2643654
86	0x3e93363e	0.2875232
87	0xbf6a6c03	-0.9157106
88	0xbfc062b0	-1.5030117
89	0x3e8a3925	0.26996723
90	0xbfd4c451	-1.6622411
91	0xc076b178	-3.8545818
92	0xbf34167f	-0.70346826
93	0xc06ffa89	-3.7496665
94	0xc09851e0	-4.7599945
95	0xbfd424d3	-1.6573738
96	0xc03291cd	-2.790149
97	0xc0756ea4	-3.834878
98	0xbed88c4a	-0.42294532
99	0xc046a9fe	-3.1041255
100	0xc07d4241	-3.9571688
101	0xbede9de3	-0.43479833
102	0xbf858bd1	-1.0433294
103	0xc00a5b6b	-2.1618297
104	0x3eb70eb3	0.35753402
105	0xbf7f7e52	-0.99802125
106	0xc005b5c4	-2.089219
107	0x3ea7b105	0.32752243
108	0xbf847133	-1.0347046
109	0xbfe5d38d	-1.7955185
110	0x3ec05f66	0.37572783
111	0xbf6a916e	-0.9162816
112	0xbfdb0732	-1.7111571
113	0x3efc6655	0.49296823
114	0xc06a65be	-3.6624599
115	0xc08f17da	-4.4716616
116	0xbf6751a4	-0.9035895
117	0xc0611df8	-3.5174541
118	0xc08ce1de	-4.4025717
119	0xbf4e3bf2	-0.8056022
120	0xc01e2a66	-2.4713378
121	0xc0632fcb	-3.549792
122	0xbe159af2	-0.14609888
123	0xc01f3afd	-2.4879754
124	0xc0586fbc	-3.3818197
125	0xbc592b23	-0.0132549135
126	0xbffba894	-1.9660821
127	0xc0459eb5	-3.0878117
128	0x3ed5222a	0.41627628
129	0xbfbe7b15	-1.4881312
130	0xc0274df5	-2.6141331
131	0x3e76f14e	0.24115488
132	0xbf66e036	-0.9018587
133	0xbfcc5422	-1.5963175
134	0x3f0a6615	0.54062015
135	0xbf0f457b	-0.55965394
136	0xbfabfe2e	-1.3436944
137	0x3ed9513a	0.42444783
138	0xc01f8f15	-2.493108
139	0xc0682714	-3.6273851
140	0x3de3aded	0.11117158
141	0xc0172341	-2.3615267
142	0xc0602e2a	-3.5028176
143	0xbe0e1481	-0.13875009
144	0xbf714a92	-0.9425441
145	0xbfeddf40	-1.8583755
146	0x3f0b7b91	0.5448542
147	0xbf5981d5	-0.8496373
148	0xbfc6372a	-1.5485585
149	0x3ec707b0	0.38873053
150	0xbf4ee63d	-0.80820066
151	0xbfcbef0f	-1.593233
152	0x3ec16973	0.37775764
153	0xbf8f0411	-1.1173116
154	0xbfb4a26c	-1.4112067
155	0x3ec7242e	0.3889479
156	0xbfa03e32	-1.251898
157	0xc0096ca2	-2.1472554
158	0x3e0c63e9	0.13709988
159	0xbfaff7d6	-1.3747509
160	0xc00c6d60	-2.1941757
161	0x3e49d159	0.19708766
162	0xc04e96be	-3.2279506
163	0xc0867873	-4.2022033
164	0xbf4d7136	-0.8025087
165	0xc05f9b18	-3.4938412
166	0xc08bc3ef	-4.3676677
167	0xbf4e0328	-0.80473566
168	0xc05f03b2	-3.4846005
169	0xc0874b80	-4.2279663
170	0xbf8b4921	-1.0881692
171	0xc056a9f6	-3.3541236
172	0xc08b83ff	-4.359863
173	0xbf48ba28	-0.7840905
174	0xbfacefd5	-1.3510691
175	0xbfd9e770	-1.7023754
176	0x3eb4f50c	0.35343206
177	0xbf9ed34a	-1.240823
178	0xbfd685f7	-1.6759633
179	0x3e5b5eec	0.21422929
180	0xbf973cb4	-1.18154
181	0xc0000a2c	-2.0006208
182	0x3eb96362	0.36208636
183	0xbfc9f29c	-1.5777164
184	0xbfeb9357	-1.840434
185	0x3e785f41	0.24255086
186	0xbf89e259	-1.0772201
187	0xbfe0b150	-1.7554111
188	0x3eded7c2	0.43523985
189	0xbf8cf22f	-1.1011409
190	0xbfb6cf00	-1.4281921
191	0x3eb618f2	0.35565907
192	0xbf87532e	-1.057226
193	0xbfe82c92	-1.8138602
194	0x3ecbe331	0.3982177
195	0xbf903df5	-1.1268908
196	0xbff0c02e	-1.8808649
197	0x3ef59467	0.47964785
198	0xbf8c1c94	-1.0946221
199	0xbfe5f9dd	-1.7966877
200	0x3e95b33e	0.29238313
201	0xbf8bfdfe	-1.0936887
202	0xc002c942	-2.0435338
203	0x3ea7fbdc	0.3280934
204	0xbfa6868a	-1.3009808
205	0xc00cd408	-2.2004414
206	0x3ee79ece	0.45238346
207	0xbf7ba2a9	-0.98295075
208	0xbfe7ad36	-1.8099735
209	0x3ec46f7d	0.3836631
210	0xbfcd4dfe	-1.6039426
211	0xc032069b	-2.7816532
212	0x3ed8b30d	0.42324105
213	0xc006fba1	-2.1091082
214	0xc05798df	-3.3687055
215	0x3ea1add9	0.31577948
216	0xc0517fbe	-3.2734218
217	0xc08c6549	-4.387364
218	0xbed8ec78	-0.4236791
219	0xc04a2e4c	-3.1590757
220	0xc086edd9	-4.216534
221	0xbf18f2a2	-0.5974523
222	0xbf7c2648	-0.9849591
223	0xbfb621c8	-1.4229059
224	0x3e9e255e	0.30887884
225	0xbf814246	-1.009835
226	0xbfe1d433	-1.7642883
227	0x3ed0451f	0.40677735
228	0xbfda6fb0	-1.7065334
229	0xc034b7bd	-2.8237145
230	0x3eea0752	0.4570871
231	0xbf9375e2	-1.152035
232	0xc01053ed	-2.2551224
233	0x3f02d521	0.5110646
234	0xbfb54c9d	-1.4164006
235	0xc00f2f4e	-2.2372622
236	0x3e4b398b	0.1984617
237	0xbfcdc654	-1.607615
238	0xbfe0c347	-1.7559594
239	0x3e309e45	0.17247875
240	0xc0448c8b	-3.071078
241	0xc086600c	-4.1992245
242	0xbedc9663	-0.43083486
243	0xc058d507	-3.3880022
244	0xc0839c8a	-4.112859
245	0xbf34f31f	-0.70683473
246	0xc019bb94	-2.4020739
247	0xc074803d	-3.820327
248	0x3dfd89a4	0.123797685
249	0xc0276070	-2.615261
250	0xc05cd403	-3.4504402
251	0xbe68b6d6	-0.22725996
252	0xc02e1664	-2.7201166
253	0xc07581ca	-3.8360467
254	0xbc7f7c85	-0.015593653
255	0xc03d8c17	-2.9616754

bayes_fc1.bias_mu f4 [64]
0	0xbd32715c	-0.04356514
1	0x3c2ea2ab	0.0106589
2	0xbd6e675f	-0.05820405
3	0xbd089e09	-0.03335384
4	0xbd10ce03	-0.035352718
5	0x3d83d42c	0.06436953
6	0xbd336cfa	-0.0438051
7	0x3c79ff67	0.015258647
8	0xbd12ba69	-0.035822306
9	0x3e27cc92	0.16386631
10	0xbd0688a8	-0.03284517
11	0xbd0b752c	-0.03404729
12	0xbc8d05c0	-0.017214656
13	0x3d520f34	0.05128403
14	0xbd535d34	-0.051602557
15	0x3f990f74	1.1957841
16	0x3d94f9fc	0.07274243
17	0xbd2959ea	-0.041345514
18	0xbc5dbc46	-0.013533657
19	0x3cff151e	0.031138
20	0xbb3b228e	-0.0028554532
21	0xbd3f8816	-0.04676064
22	0xbda00eab	-0.07815298
23	0xbccb52be	-0.024819728
24	0xbd851d96	-0.06499784
25	0x3c3447c9	0.011003443
26	0x3c8983a6	0.016786408
27	0x3cb8c82d	0.022556389
28	0x3d6c9ae3	0.0577649
29	0xbcff410d	-0.031158948
30	0xbc85767b	-0.016291847
31	0xbcafbce1	-0.02145237
32	0xbd47ad06	-0.048748992
33	0xbd609639	-0.054830763
34	0xbc7ccaa5	-0.015429174
35	0x3d7e0350	0.062014878
36	0xbdb38a40	-0.087666035
37	0xbcd17dab	-0.025572618
38	0xbca28b6a	-0.019841868
39	0xbb9079df	-0.0044090594
40	0xbc7d25e5	-0.015450929
41	0xbca6fe22	-0.020384852
42	0xbd5accb0	-0.05341786
43	0x3bd0d937	0.0063735503
44	0xbbfab2cb	-0.0076507083
45	0xbd0c9f69	-0.034331713
46	0x3d3dd63f	0.0463469
47	0x3a28bf1d	0.00064371695
48	0xbc00695c	-0.00783762
49	0xbd48667d	-0.048925865
50	0x3c11846c	0.0088816695
51	0xbce69f6b	-0.028152188
52	0xbce09a5a	-0.02741735
53	0x3bcbd71a	0.0062207105
54	0x3c488ad3	0.0122401295
55	0x3d02ad31	0.03190345
56	0x3ca57ecc	0.020202063
57	0x3d924bc4	0.071433574
58	0x3c8a5d69	0.016890245
59	0x3e11b448	0.14228928
60	0xbd31e6b0	-0.04343289
61	0x3c6fe6e9	0.014642456
62	0xbd96687e	-0.07344149
63	0xbd2790f5	-0.040909726

bayes_fc1.bias_rho f4 [64]
0	0xbec3e3eb	-0.38259825
1	0xbfbebada	-1.4900773
2	0xbfa6c6f3	-1.3029464
3	0xbfe57141	-1.7925187
4	0xbfd97d15	-1.6991297
5	0xbfddf3f9	-1.734008
6	0xbedb8d34	-0.42881167
7	0xbf5a8200	-0.85354614
8	0xbfceac09	-1.6146251
9	0xbf30060a	-0.68759215
10	0xbecb3519	-0.39688948
11	0xbfd9288a	-1.6965497
12	0xbf05888f	-0.52161497
13	0xbfd1b2e6	-1.638272
14	0xbf0cfc2b	-0.5507228
15	0xbfd1f36e	-1.6402414
16	0xbfb3711f	-1.4018897
17	0xbeed4eae	-0.4634909
18	0xbef312e4	-0.4747535
19	0xbff609e3	-1.9221767
20	0xbf9feafb	-1.2493585
21	0xbf33604e	-0.70068824
22	0xbe849b2a	-0.2589963
23	0xbf9555e6	-1.1666839
24	0xbec4b35e	-0.38418096
25	0xbee4ec15	-0.44711366
26	0xbf260a97	-0.6485991
27	0xbff0ef6e	-1.8823068
28	0xbff1e1de	-1.8897054
29	0xbf10c57d	-0.56551343
30	0xbf1d3ea0	-0.61423683
31	0xbee22405	-0.44168106
32	0xbeed0f10	-0.46300554
33	0xbf0f96cd	-0.5608948
34	0xbefaf303	-0.49013528
35	0xbf183f75	-0.5947183
36	0xbfce7c5c	-1.6131701
37	0xbee933e1	-0.45547393
38	0xbf17a340	-0.59233475
39	0xbf3b447a	-0.7315136
40	0xbfd55f6c	-1.6669745
41	0xbf9a8417	-1.2071561
42	0xbfa87c9e	-1.316303
43	0xbee764be	-0.45194048
44	0xbed232c8	-0.41054368
45	0xbed888ed	-0.42291966
46	0xbf1b017a	-0.6054913
47	0xbf8dabb8	-1.1068029
48	0xbf09ab03	-0.5377657
49	0xbeea91aa	-0.45814258
50	0xbf010580	-0.5039902
51	0xbf1d5052	-0.61450684
52	0xbed3cc4b	-0.413668
53	0xc005ec45	-2.0925457
54	0xbef38cca	-0.4756835
55	0xbfe6340e	-1.7984636
56	0xbfcc5685	-1.5963904
57	0xbfd6e81d	-1.6789585
58	0xbfb34534	-1.4005494
59	0xbf5fd114	-0.874284
60	0xbefdf44c	-0.49600446
61	0xbff7e4b2	-1.9366667
62	0xbfd3b2ca	-1.6538937
63	0xbf05dea6	-0.5229286

bayes_fc1.prior_mu_old_bias f4 [64]
0	0xbd32715c	-0.04356514
1	0x3c2ea2ab	0.0106589
2	0xbd6e675f	-0.05820405
3	0xbd089e09	-0.03335384
4	0xbd10ce03	-0.035352718
5	0x3d83d42c	0.06436953
6	0xbd336cfa	-0.0438051
7	0x3c79ff67	0.015258647
8	0xbd12ba69	-0.035822306
9	0x3e27cc92	0.16386631
10	0xbd0688a8	-0.03284517
11	0xbd0b752c	-0.03404729
12	0xbc8d05c0	-0.017214656
13	0x3d520f34	0.05128403
14	0xbd535d34	-0.051602557
15	0x3f990f74	1.1957841
16	0x3d94f9fc	0.07274243
17	0xbd2959ea	-0.041345514
18	0xbc5dbc46	-0.013533657
19	0x3cff151e	0.031138
20	0xbb3b228e	-0.0028554532
21	0xbd3f8816	-0.04676064
22	0xbda00eab	-0.07815298
23	0xbccb52be	-0.024819728
24	0xbd851d96	-0.06499784
25	0x3c3447c9	0.011003443
26	0x3c8983a6	0.016786408
27	0x3cb8c82d	0.022556389
28	0x3d6c9ae3	0.0577649
29	0xbcff410d	-0.031158948
30	0xbc85767b	-0.016291847
31	0xbcafbce1	-0.02145237
32	0xbd47ad06	-0.048748992
33	0xbd609639	-0.054830763
34	0xbc7ccaa5	-0.015429174
35	0x3d7e0350	0.062014878
36	0xbdb38a40	-0.087666035
37	0xbcd17dab	-0.025572618
38	0xbca28b6a	-0.019841868
39	0xbb9079df	-0.0044090594
40	0xbc7d25e5	-0.015450929
41	0xbca6fe22	-0.020384852
42	0xbd5accb0	-0.05341786
43	0x3bd0d937	0.0063735503
44	0xbbfab2cb	-0.0076507083
45	0xbd0c9f69	-0.034331713
46	0x3d3dd63f	0.0463469
47	0x3a28bf1d	0.00064371695
48	0xbc00695c	-0.00783762
49	0xbd48667d	-0.048925865
50	0x3c11846c	0.0088816695
51	0xbce69f6b	-0.028152188
52	0xbce09a5a	-0.02741735
53	0x3bcbd71a	0.0062207105
54	0x3c488ad3	0.0122401295
55	0x3d02ad31	0.03190345
56	0x3ca57ecc	0.020202063
57	0x3d924bc4	0.071433574
58	0x3c8a5d69	0.016890245
59	0x3e11b448	0.14228928
60	0xbd31e6b0	-0.04343289
61	0x3c6fe6e9	0.014642456
62	0xbd96687e	-0.07344149
63	0xbd2790f5	-0.040909726

bayes_fc1.prior_sigma_small_bias f4 [64]
0	0x3f052107	0.5200352
1	0x3e501bbc	0.2032308
2	0x3e7625b1	0.24037816
3	0x3e1dbd41	0.15404226
4	0x3e2bf35b	0.16792051
5	0x3e2682b1	0.16260792
6	0x3f0065bb	0.5015523
7	0x3eb5a8f2	0.35480458
8	0x3e39d05c	0.18145889
9	0x3ed08c47	0.40732023
10	0x3f03a6da	0.5142647
11	0x3e2c5c04	0.16831976
12	0x3eee93c8	0.46597123
13	0x3e35d5c2	0.17757323
14	0x3ee913a9	0.45522812
15	0x3e3581d5	0.17725308
16	0x3e61532f	0.22004388
17	0x3ef9dd76	0.48801774
18	0x3ef7a561	0.48368362
19	0x3e0bce46	0.13652906
20	0x3e810f93	0.25207195
21	0x3ece507a	0.40295774
22	0x3f126f49	0.5720106
23	0x3e8accc9	0.27109364
24	0x3f04f6fc	0.5193937
25	0x3efd1e8f	0.49437377
26	0x3ed75080	0.42053604
27	0x3e111b88	0.14170659
28	0x3e101c19	0.14073218
29	0x3ee65206	0.44984454
30	0x3edd6c3c	0.4324664
31	0x3efe34c1	0.49649623
32	0x3ef9f608	0.4882052
33	0x3ee72da9	0.45152023
34	0x3ef4a3e0	0.47781277
35	0x3ee0f426	0.4393627
36	0x3e3a0fb1	0.18170048
37	0x3efb743c	0.49112117
38	0x3ee16350	0.44021082
39	0x3ec92236	0.39283913
40	0x3e311c2f	0.17295907
41	0x3e85f471	0.26163056
42	0x3e733d7b	0.23753922
43	0x3efc2827	0.49249384
44	0x3f02408a	0.5087973
45	0x3f00fe4d	0.5038803
46	0x3edeffd5	0.4355456
47	0x3e923f7f	0.2856407
48	0x3eeb8347	0.45998594
49	0x3efaec9c	0.49008644
50	0x3ef1f502	0.4725724
51	0x3edd5fce	0.43237156
52	0x3f01eef6	0.5075525
53	0x3dee414a	0.11633547
54	0x3ef776a5	0.48332706
55	0x3e1cdf55	0.1531957
56	0x3e3cefaa	0.184508
57	0x3e2f2bbc	0.17106527
58	0x3e61989e	0.22030875
59	0x3eb282f2	0.34865528
60	0x3ef3802f	0.47558734
61	0x3e09ec92	0.1346915
62	0x3e333fd3	0.17504816
63	0x3eee53ad	0.46548215

bayes_fc1.prior_mu_old f4 [64, 6]
0	0xbed49b2d	-0.4152464
1	0xbf1dcb5c	-0.61638427
2	0xbe97c3f6	-0.29641694
3	0xbf03d4cf	-0.51496595
4	0xbedb10fc	-0.42786396
5	0xbe84a226	-0.2590496
6	0x3f0153e0	0.5051861
7	0xbdf2c67d	-0.11854265
8	0x3f9751b7	1.1821812
9	0xbee3d445	-0.44497886
10	0x3de15d19	0.11004085
11	0xbf506462	-0.8140317
12	0xbeb9243d	-0.3616046
13	0x3e5dd1f8	0.21662128
14	0xbf09bfe6	-0.5380844
15	0x3ea7da63	0.32783803
16	0xbe1ae217	-0.15125309
17	0x3f43d1cb	0.76491994
18	0xbeb54abf	-0.3540859
19	0x3e527ed3	0.20556192
20	0xbf8dd64e	-1.1081026
21	0x3ed4ca1c	0.41560447
22	0xbdf90c48	-0.121605456
23	0xbc765c87	-0.015036709
24	0xbebd53b8	-0.36977935
25	0x3e5f65f0	0.2181623
26	0xbf7a753e	-0.9783515
27	0x3ec085ca	0.37602073
28	0xbe18f4f1	-0.14937188
29	0x3ee92500	0.4553604
30	0x3e4ea6c2	0.201808
31	0xbe24b455	-0.16084416
32	0x3fc90178	1.5703573
33	0xbe9d7d3b	-0.30759606
34	0x3e4442e5	0.19166143
35	0x3f10ba60	0.56534386
36	0xbf041d69	-0.51607376
37	0xbec1fcde	-0.37888235
38	0xbe219c77	-0.15782343
39	0xbebafe5c	-0.36522186
40	0xbef4f0fa	-0.478401
41	0xbe12c307	-0.1433221
42	0xbeddc242	-0.4331227
43	0x3e850d7a	0.25986844
44	0xbdb31cb8	-0.08745712
45	0xbe3eb476	-0.18623528
46	0xbeb5bfa7	-0.35497782
47	0x3f8f8d7f	1.1215056
48	0xbe966f4e	-0.29381794
49	0x3e0608c0	0.13089275
50	0xbf81a165	-1.0127379
51	0x3efd45d5	0.4946734
52	0xbe14ba27	-0.14524136
53	0x3d35ebe4	0.044414416
54	0xbf187699	-0.59555966
55	0xbe97bb93	-0.29635295
56	0xbe013cf9	-0.12620915
57	0xbde07dbe	-0.109614834
58	0x3e0c36f0	0.13692832
59	0x3f967fad	1.1757714
60	0xbeb33e84	-0.35008633
61	0xbeb3986d	-0.3507723
62	0xbe0f4f9b	-0.13995211
63	0xbeea1202	-0.45716864
64	0xbe39eb35	-0.1815613
65	0xbe32416d	-0.1740777
66	0xbe4fa0e2	-0.20276216
67	0x3dc2c264	0.09509733
68	0xbfac1b5c	-1.344585
69	0x3efe4041	0.49658397
70	0xbda7e90c	-0.08198747
71	0xbe42aea0	-0.19011927
72	0xbeee131c	-0.46498954
73	0xbe3bfdce	-0.18358538
74	0xbe5f325f	-0.21796559
75	0xbed9356f	-0.4242358
76	0xbf07b0ee	-0.5300435
77	0xbe824c3f	-0.25448796
78	0x3ede033b	0.4336184
79	0xbe0cbe81	-0.13744546
80	0x3f8bdd7b	1.0926965
81	0xbebdf3ca	-0.3710006
82	0x3e39f66d	0.1816041
83	0xbe032ee2	-0.12810853
84	0xbea60328	-0.32424283
85	0xbe8b47c7	-0.272032
86	0xbeb88fdd	-0.3604726
87	0xbeefb729	-0.46819428
88	0xbefa63de	-0.48904318
89	0xbe2cb916	-0.1686748
90	0xbf793ec3	-0.9736139
91	0xbe550423	-0.2080236
92	0xbf8a06df	-1.0783347
93	0xbd908a29	-0.07057602
94	0x3d40196f	0.046899255
95	0x3f3cd0e7	0.7375626
96	0x3e90183f	0.28143498
97	0xbe32ed84	-0.17473418
98	0x3fd3c9f0	1.6546001
99	0xbeba33d7	-0.36367676
100	0x3e4327e0	0.1905818
101	0x3e84405e	0.25830358
102	0xbee3a05f	-0.4445829
103	0xbe436b7a	-0.19083968
104	0xbe4f579c	-0.20248264
105	0xbed64667	-0.41850588
106	0xbeb37f91	-0.35058263
107	0xbe700f16	-0.23443255
108	0xbed4966b	-0.4152101
109	0xbec3ae3d	-0.3821887
110	0xbdf4eb45	-0.119589366
111	0xbec8dcd1	-0.3923097
112	0xbede3196	-0.43397206
113	0xbe41ddee	-0.18932316
114	0x3ea2bc69	0.3178437
115	0xbde4227b	-0.11139389
116	0x3fa06702	1.2531435
117	0xbebb15f0	-0.36540174
118	0x3e5011a0	0.20319223
119	0xbe8874f0	-0.26651716
120	0xbe5fbfd3	-0.21850519
121	0x3d9e78b9	0.0773787
122	0xbf4615c5	-0.7737697
123	0x3e9a174b	0.30095896
124	0xbe0b2164	-0.13586956
125	0x3e0786c9	0.1323501
126	0xbecbbc67	-0.39792177
127	0x3d8072e9	0.062719174
128	0xbe52b230	-0.20575786
129	0xbf080d29	-0.5314508
130	0xbe81fb2e	-0.25386947
131	0x3c397156	0.011318525
132	0xbea5f6c6	-0.32414836
133	0xbebc895c	-0.36823547
134	0xbd450a90	-0.048105776
135	0xbf0e95be	-0.5569724
136	0xbf10b6bc	-0.5652883
137	0xbe3fee9c	-0.18743366
138	0xbeb2e39c	-0.34939277
139	0x3e2428ed	0.16031237
140	0xbf239661	-0.63901335
141	0x3e947fe6	0.2900383
142	0xbe26f17e	-0.1630306
143	0x3ee65f21	0.44994453
144	0xbeaef0c3	-0.34168062
145	0xbec365d6	-0.38163632
146	0xbe327706	-0.17428216
147	0xbf0a6204	-0.5405581
148	0xbeebac1d	-0.4602975
149	0xbe8e3a8e	-0.2777905
150	0xbeb50f53	-0.35363254
151	0xbedaa1c6	-0.42701548
152	0xbe1edfb1	-0.15515019
153	0xbe96e3a1	-0.29470542
154	0xbeeaf6d0	-0.45891428
155	0xbe438f33	-0.19097595
156	0xbec6d2f8	-0.3883283
157	0xbe7e071b	-0.24807398
158	0xbe8c0abe	-0.27351946
159	0xbe882b42	-0.26595503
160	0xbe3788c0	-0.1792326
161	0xbe43145a	-0.19050732
162	0x3e5b13ba	0.21394244
163	0xbdf9e0e9	-0.12201101
164	0x3fa92706	1.3215034
165	0xbea4c9d5	-0.32185236
166	0x3e4b8b68	0.19877398
167	0x3e9d751c	0.3075341
168	0x3ea3bc08	0.31979394
169	0xbe11ded8	-0.14245164
170	0x3f9ad1c5	1.2095267
171	0xbe85fec2	-0.26170927
172	0x3e119b01	0.14219286
173	0x3e9eb400	0.30996704
174	0xbeaf88f2	-0.34284168
175	0xbecc5b9e	-0.39913648
176	0xbe8e38d2	-0.27777725
177	0xbec927af	-0.3928809
178	0xbee16a75	-0.44026533
179	0xbe98aed1	-0.29820874
180	0xbed1d547	-0.4098303
181	0xbe8a8883	-0.27057275
182	0xbea259a7	-0.31709024
183	0xbe46accb	-0.19401853
184	0xbeb13162	-0.3460799
185	0xbeaef029	-0.34167603
186	0xbec776a6	-0.3895771
187	0xbe94d1db	-0.29066357
188	0xbe5658bc	-0.20932287
189	0xbe9221e7	-0.2854149
190	0xbef1576b	-0.47137007
191	0xbe7df6a3	-0.24801116
192	0xbea25b1c	-0.31710136
193	0xbeae41c1	-0.3403454
194	0xbe84739e	-0.2586946
195	0xbeaa1a63	-0.33223256
196	0xbe8dc99f	-0.27692887
197	0xbe06cfb9	-0.13165177
198	0xbeed93df	-0.4640188
199	0xbe9b9484	-0.30386746
200	0xbe90ef17	-0.2830741
201	0xbed480a1	-0.41504386
202	0xbeaeb397	-0.3412139
203	0xbe4a657c	-0.19765276
204	0xbe958921	-0.29206184
205	0xbe20e639	-0.15712823
206	0xbe21cab2	-0.15799978
207	0xbeada7b3	-0.33917007
208	0xbedae142	-0.42749983
209	0xbddf7f98	-0.109130085
210	0xbe8109a0	-0.25202656
211	0xbe7460c6	-0.23865041
212	0x3ef01571	0.46891358
213	0xbec99cc9	-0.3937743
214	0x3e22a417	0.15882908
215	0x3f3d87d0	0.7403536
216	0xbee16259	-0.44020346
217	0x3e860d84	0.26182187
218	0xbf901d8b	-1.1259016
219	0x3e993097	0.29919884
220	0xbe024c7b	-0.12724487
221	0x3e795ebf	0.24352549
222	0xbf0e336f	-0.5554723
223	0xbee54924	-0.44782364
224	0xbe98ad18	-0.2981956
225	0xbef86d35	-0.48520818
226	0xbeb1a69e	-0.3469743
227	0xbea4937a	-0.32143766
228	0xbeb5bf57	-0.35497543
229	0x3e2ce1b7	0.16882978
230	0x3d2ec4c9	0.042668138
231	0xbe45ab5c	-0.1930365
232	0xbebca419	-0.36843947
233	0x3ed680e3	0.41895208
234	0xbeab8015	-0.33496156
235	0xbe48e73f	-0.19619463
236	0xbe6cb6ce	-0.2311661
237	0xbe57dc09	-0.2108003
238	0xbe8a9c92	-0.2707258
239	0x3ac6c4aa	0.0015164812
240	0xbeae0231	-0.33986047
241	0x3e3f1ab7	0.18662535
242	0xbf6ac4a3	-0.91706294
243	0x3eb48ee2	0.3526526
244	0xbdf461d8	-0.11932725
245	0x3e9525e3	0.29130468
246	0xbea295b2	-0.31754833
247	0x3e06c63b	0.13161556
248	0xbf2f7a23	-0.6854574
249	0x3eb7a950	0.35871363
250	0xbe0cd83f	-0.13754366
251	0x3eb1cd8c	0.34727132
252	0xbe89b181	-0.26893237
253	0x3dd51fa3	0.10406425
254	0xbf890f93	-1.0707878
255	0x3ef41449	0.47671726

bayes_fc1.prior_sigma_small f4 [64, 6]
0	0x3eadbf58	0.33935046
1	0x3e64eeed	0.22356768
2	0x3f64e5e5	0.8941329
3	0x3ea7b924	0.3275844
4	0x3e423367	0.18964921
5	0x3f66218e	0.8989495
6	0x3d396dbb	0.045270663
7	0x3c6d5f03	0.014487985
8	0x3efaf523	0.4901515
9	0x3d64a3ee	0.055820398
10	0x3c97027d	0.018433804
11	0x3f1805a2	0.59383595
12	0x3d566235	0.05233975
13	0x3ca2a8fc	0.019855969
14	0x3f2ffcd0	0.68745136
15	0x3d861a43	0.06547978
16	0x3cdb7d5f	0.02679318
17	0x3f1204f9	0.5703884
18	0x3d148a13	0.03626449
19	0x3c4a3b34	0.012343217
20	0x3ec9f44b	0.39444193
21	0x3d0adab3	0.033899974
22	0x3c7d21aa	0.015449921
23	0x3ed1dd46	0.4098913
24	0x3d2cfa40	0.042230844
25	0x3c78a99e	0.015177159
26	0x3f060dc0	0.5236473
27	0x3d0f7335	0.03502198
28	0x3c9c5eb2	0.019088123
29	0x3ec0abd5	0.37631097
30	0x3d5a892d	0.053353477
31	0x3caff7ac	0.021480404
32	0x3eb1a7f0	0.3469844
33	0x3d181e01	0.03713799
34	0x3c52ef74	0.012874473
35	0x3ede8f43	0.43468675
36	0x3ea504df	0.3223028
37	0x3e46d3ff	0.19416808
38	0x3f678eaa	0.90452063
39	0x3eba5738	0.36394668
40	0x3e5c1a55	0.2149442
41	0x3f657bd1	0.89642054
42	0x3dbb8994	0.091571
43	0x3ce89fc2	0.028396491
44	0x3f4b6250	0.7944689
45	0x3e242306	0.16028985
46	0x3d8d8ca1	0.069115885
47	0x3f5ec94a	0.8702589
48	0x3d46ba28	0.048517376
49	0x3c866c3d	0.016409034
50	0x3f0c7a28	0.54873896
51	0x3d325630	0.043539226
52	0x3ca3f267	0.020013047
53	0x3eeda21a	0.46412736
54	0x3e41f18e	0.18939802
55	0x3da91702	0.082563415
56	0x3f423867	0.75867313
57	0x3d8e94eb	0.069619976
58	0x3d095572	0.033528753
59	0x3f53d929	0.82753235
60	0x3ed292d6	0.41127652
61	0x3e0f6212	0.14002255
62	0x3f6c81d9	0.9238563
63	0x3eb6e201	0.35719302
64	0x3e1069da	0.14102879
65	0x3f6a73b9	0.9158283
66	0x3d1aa95c	0.03775917
67	0x3c4980bb	0.012298758
68	0x3eeb7a0e	0.45991558
69	0x3d0d1fc2	0.034454115
70	0x3c5eb3e1	0.013592691
71	0x3ee63cb2	0.44968182
72	0x3e9343bb	0.28762612
73	0x3dee8256	0.11645953
74	0x3f5e2e54	0.8678944
75	0x3ea4b422	0.3216868
76	0x3e54fee4	0.20800358
77	0x3f6ab2bd	0.9167898
78	0x3cfe1394	0.031015195
79	0x3c6de5fe	0.014520166
80	0x3ec7a4aa	0.38992816
81	0x3d0a7763	0.033805262
82	0x3c3735c3	0.011182251
83	0x3efb5812	0.4909063
84	0x3e858f4b	0.26085886
85	0x3dca6f9b	0.09884568
86	0x3f58e290	0.84720707
87	0x3eac5bd1	0.336638
88	0x3e4daf6f	0.20086454
89	0x3f5653a0	0.8372135
90	0x3e31e1a9	0.17371239
91	0x3cabb6e2	0.020961229
92	0x3ecdd7bd	0.40203658
93	0x3cbe7d59	0.02325313
94	0x3c0bbdf9	0.00852918
95	0x3e32ad8a	0.17449012
96	0x3d741f4c	0.05960016
97	0x3caf185a	0.021373916
98	0x3f00fda3	0.5038702
99	0x3d33c24f	0.04388648
100	0x3c9b2131	0.018936725
101	0x3eff9689	0.49919537
102	0x3e9a847a	0.30179197
103	0x3ddf24cd	0.10895691
104	0x3f63476d	0.8878086
105	0x3ea0a9a4	0.31379426
106	0x3def011e	0.11670135
107	0x3f5ec936	0.87025774
108	0x3e9babe9	0.30404595
109	0x3e1d4d21	0.15361454
110	0x3f6607ae	0.8985547
111	0x3eac466f	0.33647487
112	0x3e2a0e74	0.16607076
113	0x3f783ea4	0.9697058
114	0x3ccfa116	0.025345366
115	0x3c3a2dfb	0.011363502
116	0x3eae23e7	0.34011766
117	0x3cef8f3f	0.02924311
118	0x3c476ab1	0.012171433
119	0x3ebd1db2	0.36936718
120	0x3da6141a	0.08109303
121	0x3ce80b26	0.028325628
122	0x3f1f6d6d	0.62276345
123	0x3da371d8	0.07980698
124	0x3d08e441	0.033420805
125	0x3f2fc132	0.6865417
126	0x3e062d43	0.13103203
127	0x3d36a692	0.044592448
128	0x3f6c3c0f	0.9227914
129	0x3e5079a2	0.20358899
130	0x3d90bd81	0.07067395
131	0x3f522b85	0.82097656
132	0x3eae6559	0.34061697
133	0x3e3cf2e2	0.18452027
134	0x3f7fe2d0	0.99955463
135	0x3ee768c7	0.45197126
136	0x3e6d5f97	0.23180996
137	0x3f6d7f4b	0.9277236
138	0x3da2a3ec	0.07941422
139	0x3cd6f1d1	0.026238354
140	0x3f401228	0.75027704
141	0x3db882be	0.09009312
142	0x3cf30a2e	0.02966794
143	0x3f204d1d	0.62617666
144	0x3ea8781b	0.32904133
145	0x3e146110	0.14490151
146	0x3f804927	1.0022324
147	0x3eb6422f	0.3559737
148	0x3e455ac1	0.19272901
149	0x3f680234	0.9062836
150	0x3ebcb49c	0.36856544
151	0x3e3d7b4d	0.18504067
152	0x3f665693	0.8997585
153	0x3e90ea9c	0.28303993
154	0x3e5f7291	0.21821047
155	0x3f680ab2	0.9064132
156	0x3e80c57c	0.2515067
157	0x3de23ec7	0.1104713
158	0x3f439871	0.7640448
159	0x3e66dfc2	0.22546294
160	0x3dd86752	0.10566582
161	0x3f4be9f4	0.7965386
162	0x3d1f3982	0.038873203
163	0x3c7354b5	0.014851739
164	0x3ebd9b0d	0.37032357
165	0x3cf532e1	0.029931488
166	0x3c4e74a7	0.012601054
167	0x3ebd40c9	0.3696349
168	0x3cf770e5	0.0302052
169	0x3c6d2fc4	0.01447672
170	0x3e94a29b	0.29030308
171	0x3d0cabb3	0.034343433
172	0x3c501028	0.012699164
173	0x3ec08af4	0.37606013
174	0x3e6bd0c4	0.23028857
175	0x3e2b7003	0.16741948
176	0x3f62a95f	0.8853969
177	0x3e8209ae	0.2539801
178	0x3e2fa759	0.17153682
179	0x3f4e5535	0.80598766
180	0x3e890105	0.2675859
181	0x3e01e605	0.12685402
182	0x3f63f726	0.89048994
183	0x3e402ee3	0.18767886
184	0x3e16e072	0.14734057
185	0x3f525ec4	0.8217585
186	0x3e960db0	0.29307318
187	0x3e234047	0.15942489
188	0x3f6f2bc7	0.93426174
189	0x3e92f84a	0.28705055
190	0x3e5c0f99	0.21490325
191	0x3f62ff26	0.88670576
192	0x3e98ac67	0.29819033
193	0x3e1aa5d2	0.15102318
194	0x3f697576	0.91194856
195	0x3e8fb637	0.28068706
196	0x3e114d81	0.14189722
197	0x3f762211	0.9614573
198	0x3e93ce03	0.28868112
199	0x3e1d2182	0.15344813
200	0x3f5998be	0.8499869
201	0x3e93ecb2	0.28891522
202	0x3df985b4	0.12183705
203	0x3f5edef6	0.8705896
204	0x3e7693e1	0.24079849
205	0x3dd71ed9	0.105039306
206	0x3f71d831	0.94470507
207	0x3ea2c097	0.3178756
208	0x3e1b34e0	0.15156889
209	0x3f673c7c	0.90326667
210	0x3e3ba325	0.18323953
211	0x3d7624cc	0.060093686
212	0x3f6d4f7d	0.92699414
213	0x3dea8ea2	0.11452986
214	0x3d0aab1e	0.033854596
215	0x3f5d0b10	0.86345005
216	0x3d1846cc	0.037176892
217	0x3c4a742e	0.012356801
218	0x3f00ea9a	0.50357974
219	0x3d2a5842	0.041588075
220	0x3c6fe4d2	0.014641957
221	0x3ee074d8	0.43839145
222	0x3ea278f5	0.31732908
223	0x3e5d1c26	0.21592769
224	0x3f5c05ea	0.85946524
225	0x3e9f0a64	0.31062615
226	0x3e21eaa4	0.15812165
227	0x3f6ac5a5	0.9170783
228	0x3e2ac847	0.16677962
229	0x3d6c4ac7	0.0576885
230	0x3f7294c6	0.9475826
231	0x3e8c9744	0.27459157
232	0x3dcc399e	0.09971927
233	0x3f7b216a	0.9809786
234	0x3e5e6834	0.21719438
235	0x3dcfb98c	0.10142812
236	0x3f4c1b6b	0.79729337
237	0x3e3b0235	0.1826256
238	0x3e232b1b	0.15934412
239	0x3f487948	0.7831006
240	0x3d39a9fa	0.045328118
241	0x3c740d2a	0.014895717
242	0x3f003178	0.50075483
243	0x3d080fd0	0.033218205
244	0x3c84f1b5	0.016228536
245	0x3ecd45d4	0.40092337
246	0x3db17ccf	0.086663835
247	0x3cb1a249	0.021683829
248	0x3f41c82a	0.7569605
249	0x3d90952d	0.07059703
250	0x3cffe822	0.03123862
251	0x3f16016d	0.58595926
252	0x3d82a39c	0.06378862
253	0x3caee48d	0.021349216
254	0x3f2f751d	0.68538076
255	0x3d4e9898	0.050438493

bayes_fc2.weight_mu f4 [1, 64]
0	0xbd0bbc7d	-0.034115303
1	0x3d7803f3	0.06055064
2	0xbd5935f8	-0.053029984
3	0xbd5f0b6a	-0.054454245
4	0xbd99c94a	-0.07509096
5	0x3d9b2bea	0.07576735
6	0x3c5f5a5f	0.013632386
7	0xbd8dea0a	-0.06929405
8	0xbd620285	-0.055178184
9	0x3de9fe4b	0.11425456
10	0x3c0553df	0.008137672
11	0xbd9dbf81	-0.07702542
12	0xbcd2cfbb	-0.02573382
13	0x3d7a5020	0.06111157
14	0x3d0124ae	0.03152912
15	0x3ed17954	0.4091288
16	0x3d670ded	0.056409765
17	0xbbf795ac	-0.007555684
18	0x3c4c344c	0.01246364
19	0x3dab1696	0.08353917
20	0xbdba24ff	-0.09089088
21	0xbe0f35cd	-0.13985367
22	0xbce9cce2	-0.028540079
23	0xbd038006	-0.032104515
24	0xbd071a73	-0.03298421
25	0x3d187467	0.037220385
26	0x3ca817e6	0.020519208
27	0x3d8a4f71	0.067534335
28	0x3dac7772	0.0842122
29	0xbc5e85ac	-0.013581675
30	0xbc12b7d2	-0.008954959
31	0x3d1799ee	0.037012033
32	0x3c7b69e9	0.015345075
33	0x3d3736e0	0.044730067
34	0xbd6e2e96	-0.058149897
35	0x3daaad5d	0.08333848
36	0xbd918790	-0.071059346
37	0x3de8354c	0.113382906
38	0xbcf317cf	-0.029674439
39	0x3e18004c	0.14843863
40	0xbd80d49b	-0.06290551
41	0xbd58322b	-0.05278222
42	0xbd3d2415	-0.04617699
43	0x3c00f9e0	0.007872075
44	0x3c6da9c0	0.014505804
45	0x3c093fcb	0.008377026
46	0xbd1a54d9	-0.037678573
47	0xbd512527	-0.05106082
48	0x3d831efe	0.06402396
49	0x3b406b3e	0.0029360796
50	0x3d3411a1	0.043962125
51	0xbcde2df5	-0.027121523
52	0xbc74c280	-0.014938951
53	0x3d9b45fc	0.07581708
54	0x3df977f7	0.121810846
55	0x3d98d1b0	0.0746187
56	0x3d9d09b1	0.07667864
57	0x3d8b10dd	0.06790326
58	0x3e0ce980	0.13760948
59	0x3dc37711	0.095441945
60	0x3b39d556	0.0028355918
61	0x3da254e6	0.07926349
62	0xbd9e1ca4	-0.077203065
63	0x3cbfa2f6	0.023393136

bayes_fc2.weight_rho f4 [1, 64]
0	0xbfb529b5	-1.4153353
1	0xc09dc506	-4.9303007
2	0xc0980443	-4.75052
3	0xc0a03615	-5.006602
4	0xc097c855	-4.7432046
5	0xc0955a79	-4.667294
6	0xbfb5c339	-1.4200202
7	0xc0884b32	-4.259179
8	0xc09bd8b3	-4.8702025
9	0xc060eaff	-3.514343
10	0xc040df93	-3.013646
11	0xc09a77cb	-4.827123
12	0xbff10619	-1.8829986
13	0xc0a1d059	-5.056683
14	0xbff2ff40	-1.8984146
15	0xc0692cab	-3.6433513
16	0xc09d2be3	-4.9116073
17	0xc0267e38	-2.6014538
18	0xbfe90c70	-1.8206921
19	0xc09ec48c	-4.9614925
20	0xc0837b02	-4.1087656
21	0xc02ce92c	-2.7017317
22	0xc0096ce1	-2.1472704
23	0xc090bb1b	-4.52284
24	0xc01a1eff	-2.4081419
25	0xc00d4db6	-2.207868
26	0xbf4c8eb6	-0.7990526
27	0xc0992c95	-4.786692
28	0xc092cc7f	-4.587463
29	0xbf955348	-1.166604
30	0xbfb87d7b	-1.4413294
31	0xbfe31c1d	-1.7742954
32	0xc0199bfb	-2.4001453
33	0xbfb2094c	-1.3909087
34	0xc01f150b	-2.4856594
35	0xc07ef67c	-3.9837942
36	0xc0a1be77	-5.0545
37	0xbf3141f5	-0.6924127
38	0xc07d8e52	-3.9618115
39	0xbf410937	-0.75404686
40	0xc096bd72	-4.7106256
41	0xc08b0e44	-4.3454914
42	0xc096416b	-4.6954856
43	0xc01067fc	-2.2563467
44	0xc013e3a3	-2.3107688
45	0xbfc9f9d0	-1.5779362
46	0xbfc638e1	-1.5486108
47	0xc08e8add	-4.454451
48	0xbfbfc800	-1.498291
49	0xc0305b45	-2.7555707
50	0xc018506e	-2.379909
51	0xc055b031	-3.3388789
52	0xbffb6a58	-1.9641829
53	0xc09e2742	-4.942292
54	0xbf8d9850	-1.1062107
55	0xc09e0583	-4.938173
56	0xc09b2403	-4.848146
57	0xc0951911	-4.65931
58	0xc07bb3e7	-3.9328554
59	0xc07b147e	-3.9231257
60	0xbfb527f5	-1.4152819
61	0xc096f579	-4.717465
62	0xc09c1e00	-4.878662
63	0xc0206338	-2.5060558

bayes_fc2.prior_mu_old f4 [1, 64]
0	0xbd0bbc7d	-0.034115303
1	0x3d7803f3	0.06055064
2	0xbd5935f8	-0.053029984
3	0xbd5f0b6a	-0.054454245
4	0xbd99c94a	-0.07509096
5	0x3d9b2bea	0.07576735
6	0x3c5f5a5f	0.013632386
7	0xbd8dea0a	-0.06929405
8	0xbd620285	-0.055178184
9	0x3de9fe4b	0.11425456
10	0x3c0553df	0.008137672
11	0xbd9dbf81	-0.07702542
12	0xbcd2cfbb	-0.02573382
13	0x3d7a5020	0.06111157
14	0x3d0124ae	0.03152912
15	0x3ed17954	0.4091288
16	0x3d670ded	0.056409765
17	0xbbf795ac	-0.007555684
18	0x3c4c344c	0.01246364
19	0x3dab1696	0.08353917
20	0xbdba24ff	-0.09089088
21	0xbe0f35cd	-0.13985367
22	0xbce9cce2	-0.028540079
23	0xbd038006	-0.032104515
24	0xbd071a73	-0.03298421
25	0x3d187467	0.037220385
26	0x3ca817e6	0.020519208
27	0x3d8a4f71	0.067534335
28	0x3dac7772	0.0842122
29	0xbc5e85ac	-0.013581675
30	0xbc12b7d2	-0.008954959
31	0x3d1799ee	0.037012033
32	0x3c7b69e9	0.015345075
33	0x3d3736e0	0.044730067
34	0xbd6e2e96	-0.058149897
35	0x3daaad5d	0.08333848
36	0xbd918790	-0.071059346
37	0x3de8354c	0.113382906
38	0xbcf317cf	-0.029674439
39	0x3e18004c	0.14843863
40	0xbd80d49b	-0.06290551
41	0xbd58322b	-0.05278222
42	0xbd3d2415	-0.04617699
43	0x3c00f9e0	0.007872075
44	0x3c6da9c0	0.014505804
45	0x3c093fcb	0.008377026
46	0xbd1a54d9	-0.037678573
47	0xbd512527	-0.05106082
48	0x3d831efe	0.06402396
49	0x3b406b3e	0.0029360796
50	0x3d3411a1	0.043962125
51	0xbcde2df5	-0.027121523
52	0xbc74c280	-0.014938951
53	0x3d9b45fc	0.07581708
54	0x3df977f7	0.121810846
55	0x3d98d1b0	0.0746187
56	0x3d9d09b1	0.07667864
57	0x3d8b10dd	0.06790326
58	0x3e0ce980	0.13760948
59	0x3dc37711	0.095441945
60	0x3b39d556	0.0028355918
61	0x3da254e6	0.07926349
62	0xbd9e1ca4	-0.077203065
63	0x3cbfa2f6	0.023393136

bayes_fc2.prior_sigma_small f4 [1, 64]
0	0x3e5e9ebf	0.21740244
1	0x3bebe039	0.0071983603
2	0x3c0d110d	0.008610022
3	0x3bda9afd	0.006671308
4	0x3c0e1910	0.008672968
5	0x3c19409b	0.009353782
6	0x3e5daf3b	0.21648876
7	0x3c65f2d7	0.014034948
8	0x3bfa6e35	0.0076425322
9	0x3cf04b90	0.029332906
10	0x3d446151	0.04794437
11	0x3c02b495	0.007977624
12	0x3e110394	0.14161521
13	0x3bcff5f9	0.006346461
14	0x3e0ef183	0.13959317
15	0x3cd39567	0.025828077
16	0x3bf04f75	0.0073336908
17	0x3d9285ca	0.071544245
18	0x3e19ab85	0.15006836
19	0x3be4a841	0.0069780652
20	0x3c857c2b	0.01629456
21	0x3d84fc6f	0.064934604
22	0x3de23df4	0.11046973
23	0x3c30f0e0	0.010799617
24	0x3db07570	0.086161494
25	0x3dd59be4	0.104301244
26	0x3ebe276b	0.3713945
27	0x3c08136e	0.008305414
28	0x3c25ec8a	0.010127196
29	0x3e8acf45	0.2711126
30	0x3e597925	0.21237619
31	0x3e206c9b	0.1566643
32	0x3db1d0d2	0.086824074
33	0x3e638e43	0.22222237
34	0x3da3cf16	0.07998483
35	0x3c971754	0.01844374
36	0x3bd069f2	0.006360286
37	0x3ecfb939	0.40571
38	0x3c9a6af6	0.018849831
39	0x3ec56a04	0.38557446
40	0x3c12c854	0.008958895
41	0x3c530e37	0.012881807
42	0x3c1502f7	0.009094945
43	0x3dcbfcbb	0.09960314
44	0x3dc1ad5f	0.09456896
45	0x3e402507	0.18764125
46	0x3e455859	0.19271983
47	0x3c3d6499	0.011559629
48	0x3e4e9111	0.20172526
49	0x3d7c73aa	0.061633743
50	0x3db54b5d	0.08852265
51	0x3d0ecb5d	0.03486191
52	0x3e066a75	0.13126548
53	0x3be91300	0.0071128607
54	0x3e9252ca	0.28578788
55	0x3bea086c	0.0071421172
56	0x3bfffe66	0.007812309
57	0x3c1a799f	0.009428411
58	0x3c9ee92b	0.019398293
59	0x3ca0730b	0.019586107
60	0x3e5ea17b	0.21741287
61	0x3c11c958	0.008898102
62	0x3bf85432	0.0075783962
63	0x3da0a0c4	0.078431636
