models/updated_hmnn_model_2008.pth (torch, 13926 bytes, 12 tensors)

bayes_fc1.weight_mu f4 [64, 6]
0	0xbe9eb56b	-0.30997786
1	0xbf022bf0	-0.50848293
2	0xbe299afc	-0.16563028
3	0xbec1c06a	-0.37842113
4	0xbe64b162	-0.22333291
5	0xbe393108	-0.1808511
6	0x3f00beaf	0.5029096
7	0xbdd72a63	-0.105061315
8	0x3eedd74d	0.46453324
9	0xbecdb2f0	-0.4017558
10	0x3dc16bab	0.09444364
11	0xbe6c50c2	-0.23077682
12	0xbeb8ddff	-0.3610687
13	0x3ddbe2ad	0.10736594
14	0xbe9abfb2	-0.30224377
15	0x3e1379ba	0.14401904
16	0xbe392c6e	-0.18083355
17	0xbd30de48	-0.043180734
18	0xbeb352fa	-0.35024244
19	0x3df53eb6	0.11974852
20	0xbf06baa9	-0.5262857
21	0x3ece1910	0.40253496
22	0xbdeabf5f	-0.114622824
23	0xbdd22814	-0.102615505
24	0xbea8ee27	-0.32994196
25	0x3e173665	0.14766844
26	0xbec44c8c	-0.3833965
27	0x3e94cb1d	0.29061213
28	0xbdde9b1f	-0.10869431
29	0x3cd2d40f	0.025735883
30	0x3e3e97f5	0.18612655
31	0xbdd55d2a	-0.1041816
32	0x3eeebd88	0.46628976
33	0xbe864dc8	-0.26231217
34	0x3db2783b	0.087143384
35	0xbe123ac1	-0.14280225
36	0xbea71731	-0.3263488
37	0xbeb8950b	-0.3605121
38	0xbd24507b	-0.040115815
39	0xbe71551c	-0.23567623
40	0xbec35c85	-0.38156524
41	0xbe20c06a	-0.156984
42	0xbed5d114	-0.41761076
43	0x3e3356e1	0.1751361
44	0xbe49799e	-0.196753
45	0x3c21b81d	0.009870556
46	0xbe96ad1f	-0.29428956
47	0x3d587b9c	0.052852258
48	0xbe966e7a	-0.29381162
49	0x3ddada43	0.10686161
50	0xbf17e4b9	-0.5933338
51	0x3ed99bc3	0.4250165
52	0xbdecefae	-0.11569153
53	0x3c80dac7	0.015729321
54	0xbe4ba222	-0.19886068
55	0xbe7f6f41	-0.24944784
56	0xbd826d07	-0.063684516
57	0xbe839d23	-0.25705823
58	0xbce9e3bc	-0.028550975
59	0xbd58262a	-0.05277077
60	0xbe7aa257	-0.2447599
61	0xbe866729	-0.2625058
62	0xbe014e69	-0.12627567
63	0xbe95d415	-0.29263368
64	0xbb49d4df	-0.0030797047
65	0xbdbc4a10	-0.09193814
66	0xbe5aa9e5	-0.21353872
67	0x3ca5b317	0.020226998
68	0xbf209869	-0.6273256
69	0x3ee6073a	0.44927388
70	0xbdb0c006	-0.086303756
71	0xbd193a8c	-0.03740935
72	0xbe762bb0	-0.24040103
73	0xbdae748c	-0.08518323
74	0xbd712647	-0.058874395
75	0xbe53a0b2	-0.20666769
76	0xbeddb37a	-0.43300992
77	0xbe094095	-0.13403542
78	0x3ef8eb98	0.48617244
79	0xbdd3bc95	-0.103387035
80	0x3ee68031	0.45019677
81	0xbea82a16	-0.3284461
82	0x3deff01d	0.1171572
83	0xbd9403b9	-0.072272725
84	0xbda1c846	-0.07899527
85	0xbe2c8daf	-0.16850923
86	0xbd0b2cd6	-0.033978306
87	0xbed240bf	-0.41065022
88	0xbeca3970	-0.39496946
89	0xbe04c5a2	-0.12966016
90	0xbeef7186	-0.467663
91	0xbe755dbe	-0.23961541
92	0x3a8491a4	0.0010114205
93	0xbe2275a8	-0.15865195
94	0xbc4779dd	-0.012175051
95	0x3e4c24fe	0.19935986
96	0x3ebcd834	0.368837
97	0xbde6d0b4	-0.11270276
98	0x3f2c5e9c	0.6733186
99	0xbebfc88b	-0.3745769
100	0x3e17d284	0.14826399
101	0xbe144292	-0.1447852
102	0xbeaff177	-0.3436391
103	0xbe095366	-0.1341072
104	0xbdcdfac8	-0.10057598
105	0xbe6a85c5	-0.22902592
106	0xbe8ed0aa	-0.27893573
107	0xbd01da7d	-0.031702507
108	0xbe56ab0b	-0.20963685
109	0xbe88d787	-0.26726934
110	0xbde0dea5	-0.10979966
111	0xbe9c625a	-0.30543786
112	0xbe95d76c	-0.29265916
113	0xbde1fd3c	-0.11034629
114	0x3e957896	0.29193562
115	0xbda3aeba	-0.07992311
116	0x3f064c5f	0.52460283
117	0xbebda9ec	-0.37043703
118	0x3e0b3300	0.13593674
119	0xbe51ac3a	-0.20475855
120	0xbe83e3e5	-0.25759807
121	0x3d8f58cd	0.06999359
122	0xbeb760c7	-0.35816023
123	0x3e8cdbb8	0.27511382
124	0xbdc5de96	-0.096615955
125	0x3d8173c2	0.06320907
126	0xbea3ca47	-0.31990263
127	0x3c009284	0.007847432
128	0xbe41a3d2	-0.18910149
129	0xbe8b0aee	-0.27156776
130	0xbe0d05b8	-0.13771713
131	0xbc4b124d	-0.0123945
132	0xbe9d96d8	-0.30779147
133	0xbeb7a386	-0.35866946
134	0xbe27da12	-0.16391781
135	0xbeceaa99	-0.4036453
136	0xbee3bd5a	-0.444804
137	0xbd82e36a	-0.06391032
138	0xbeaede9c	-0.34154212
139	0x3d7d4b0f	0.06183916
140	0xbe406124	-0.18787056
141	0x3e60842a	0.21925417
142	0xbe4a390c	-0.19748324
143	0xbce7561d	-0.028239304
144	0xbd83b9dc	-0.06431934
145	0xbe19c105	-0.15015037
146	0xbda66908	-0.08125502
147	0xbed25292	-0.4107862
148	0xbec18e70	-0.37803984
149	0xbda496ca	-0.08036573
150	0xbe8cd17f	-0.27503583
151	0xbea30b6f	-0.3184466
152	0xbe1d403d	-0.15356536
153	0xbda13171	-0.07870758
154	0xbed9c956	-0.4253642
155	0xbd96da41	-0.073658474
156	0xbea8181c	-0.32830894
157	0xbe00bbe4	-0.12571675
158	0x3af2bd57	0.0018519562
159	0xbea1bfa8	-0.31591535
160	0xbe30641e	-0.17225692
161	0xbc8b9656	-0.01703946
162	0x3e82cb6a	0.25545818
163	0xbdaef6e3	-0.08543184
164	0x3f270bf4	0.65252614
165	0xbeb0b6a4	-0.34514344
166	0x3e26e9b7	0.16300093
167	0xbdbb7703	-0.09153559
168	0x3ebe52e0	0.37172604
169	0xbd91e4da	-0.07123728
170	0x3eec40ff	0.46143338
171	0xbe8d8945	-0.2764379
172	0x3dd2f686	0.10300927
173	0x3dafdc61	0.08586956
174	0xbe654197	-0.22388302
175	0xbe848d6d	-0.2588915
176	0x3cae93f9	0.021310793
177	0xbe8c8856	-0.27447766
178	0xbe8a2177	-0.26978657
179	0xbde9b954	-0.11412302
180	0xbe8ba752	-0.27276093
181	0xbe2a168e	-0.16610166
182	0xbe468109	-0.1938516
183	0x3c99c1a2	0.01876909
184	0xbe90721a	-0.28212053
185	0xbdf6b1e0	-0.12045646
186	0xbe2c10f9	-0.1680335
187	0xbe9512af	-0.29115817
188	0xbc39f5c4	-0.011350099
189	0xbe2138e3	-0.15744357
190	0xbed449c2	-0.41462523
191	0xbdaae03a	-0.08343549
192	0xbe13ffb7	-0.14453016
193	0xbe41a57f	-0.18910788
194	0xbe2ae0bd	-0.16687293
195	0xbe5909f5	-0.21195205
196	0xbe35baf1	-0.17747094
197	0xbdc5d654	-0.096600205
198	0xbeb3bf9b	-0.3510712
199	0xbe8bd1ed	-0.27308598
200	0xbd8e6d14	-0.06954399
201	0xbeb9e08c	-0.36304128
202	0xbe7a3008	-0.24432385
203	0xbd2205ee	-0.039556436
204	0xbe63704e	-0.2221081
205	0xbe2c5d5b	-0.16832487
206	0xbdfc6731	-0.1232437
207	0xbea538f2	-0.32270008
208	0xbeb4e14e	-0.35328144
209	0xbe4958ff	-0.19662856
210	0x3d56e06d	0.052460123
211	0xbe44b93b	-0.19211285
212	0x3ddd56cd	0.108075716
213	0xbef37af7	-0.47554752
214	0x3dd559af	0.104174964
215	0xbd941346	-0.072302386
216	0xbed23243	-0.41053972
217	0x3e523081	0.20526315
218	0xbf0c7ccf	-0.5487794
219	0x3e489508	0.19588101
220	0xbda1b2c7	-0.07895427
221	0x3e10dc87	0.14146625
222	0xbebb4c1a	-0.36581498
223	0xbeb0a16a	-0.3449815
224	0xbc17e1f3	-0.009270179
225	0xbec02fbe	-0.37536424
226	0xbeb232bc	-0.34804332
227	0xbd6a4dee	-0.057203226
228	0xbea0b26c	-0.31386125
229	0x3e16f016	0.14740023
230	0xbe09ebe8	-0.13468897
231	0xbdb62838	-0.0889439
232	0xbe969e90	-0.2941785
233	0xbd86d431	-0.06583441
234	0xbe45424f	-0.19263576
235	0xbe29a484	-0.16566664
236	0x3c4fb3ac	0.012677114
237	0xbddb67e7	-0.10713177
238	0xbe9e6ab6	-0.3094079
239	0x3de14d3e	0.11001061
240	0xbebadecd	-0.36498109
241	0x3dc83b8d	0.097769834
242	0xbee96290	-0.4558301
243	0x3e9eff95	0.3105437
244	0xbdc43e63	-0.09582212
245	0x3d8af704	0.06785396
246	0xbea08fd2	-0.31359726
247	0x3d71c87c	0.059029087
248	0xbeaa9432	-0.3331619
249	0x3e2dde74	0.1697939
250	0xbe18e179	-0.14929761
251	0xbb4a90df	-0.0030909104
252	0xbe8ecf49	-0.2789252
253	0x3d3dfb35	0.046382148
254	0xbeddeb80	-0.43343735
255	0x3eea6498	0.45779872

bayes_fc1.weight_rho f4 [64, 6]
0	0xbf881e00	-1.0634155
1	0xbfa2fcd5	-1.2733408
2	0x3ef4b228	0.47792172
3	0xbf712a1a	-0.94204867
4	0xbfec6aa5	-1.8470045
5	0x3f0122ca	0.5044371
6	0xc01d3893	-2.456578
7	0xc04b75c2	-3.1790624
8	0xbd70556b	-0.05867521
9	0xc00985a9	-2.148783
10	0xc0479afb	-3.1188343
11	0x3dc21b0c	0.09477815
12	0xc00823b1	-2.1271784
13	0xc03b46af	-2.9261892
14	0x3e5e7227	0.21723233
15	0xbfda5031	-1.7055722
16	0xc037d3ec	-2.8723097
17	0x3da72555	0.081614174
18	0xc023d841	-2.560074
19	0xc061947c	-3.5246878
20	0xbc27e232	-0.0102468
21	0xc02fe441	-2.7483065
22	0xc05d637d	-3.4591973
23	0xbe3d8c6c	-0.18510598
24	0xc013a5ae	-2.3069873
25	0xc045e071	-3.0918238
26	0x3dcaa3e1	0.09894539
27	0xc002c04a	-2.0429864
28	0xc03ae0f3	-2.9199798
29	0xbe874448	-0.26419282
30	0xbff1d5e6	-1.8893402
31	0xc0326ac2	-2.787766
32	0x3ca9a701	0.020709516
33	0xc011949d	-2.2746956
34	0xc0439efe	-3.056579
35	0xb9beecd4	-0.00036416075
36	0xbf6055cd	-0.8763092
37	0xbfd8d9bb	-1.6941446
38	0x3ed0e7e7	0.40801927
39	0xbf6ef312	-0.93339646
40	0xbfdd104f	-1.7270602
41	0x3eb527aa	0.35381824
42	0xbfbe720f	-1.4878558
43	0xc0228de8	-2.5399113
44	0x3ea187bb	0.31548867
45	0xbf8c5886	-1.0964515
46	0xc0031ce8	-2.0486393
47	0x3e90e6e6	0.28301162
48	0xc01e3966	-2.4722533
49	0xc050a782	-3.2602239
50	0x3c53b8e7	0.012922502
51	0xc0240205	-2.5626233
52	0xc04bdafe	-3.1852412
53	0xbe243dd3	-0.16039209
54	0xbf9a2445	-1.2042319
55	0xc00546ca	-2.0824456
56	0x3eb50788	0.35357308
57	0xbfd01b5b	-1.6258348
58	0xc01a7f6d	-2.4140275
59	0x3e8551e5	0.26039043
60	0xbf38aed6	-0.7214178
61	0xbffecc2c	-1.9906058
62	0x3ec0f952	0.37690216
63	0xbf733596	-0.9500364
64	0xc00586f3	-2.0863616
65	0x3f00cd05	0.50312835
66	0xc01ac0fd	-2.418029
67	0xc0489072	-3.1338162
68	0x3c63ee91	0.013911859
69	0xc027f5d8	-2.62438
70	0xc0564044	-3.3476725
71	0xbe0a6ed3	-0.13518839
72	0xbfa8a542	-1.3175433
73	0xc019f0ed	-2.40533
74	0x3e952906	0.2913286
75	0xbf92c68d	-1.1466843
76	0xbfca8562	-1.5821955
77	0x3ecd6f52	0.40123993
78	0xc02b8576	-2.6800208
79	0xc062cd2e	-3.5437732
80	0xbe98528b	-0.29750475
81	0xc02d8579	-2.7112715
82	0xc05ba108	-3.4317036
83	0xbe2e68a6	-0.17032108
84	0xbfbc8b1d	-1.4729954
85	0xc00b351e	-2.175117
86	0x3ea65670	0.32487822
87	0xbf76f19e	-0.9646243
88	0xbfd28e39	-1.6449653
89	0x3ec521be	0.38502306
90	0xbfa7c39e	-1.3106573
91	0xc0147f1c	-2.3202581
92	0x3d0615b5	0.032735545
93	0xc017f121	-2.3740923
94	0xc03ffa38	-2.9996471
95	0xbe31cca8	-0.17363226
96	0xc0115d6d	-2.2713273
97	0xc04c5a49	-3.1930106
98	0x3d88b8fd	0.06675909
99	0xc01cf3b2	-2.452374
100	0xc051b453	-3.276631
101	0x3ca52e0f	0.020163564
102	0xbf991101	-1.1958314
103	0xc00bfc1e	-2.187263
104	0x3eff1494	0.49820387
105	0xbf976fc8	-1.1830988
106	0xbfee3f4d	-1.8613068
107	0x3eb492a4	0.35268128
108	0xbf8899a7	-1.0671891
109	0xbff0decd	-1.8817993
110	0x3eec2203	0.461197
111	0xbf8e497a	-1.1116173
112	0xbff1c329	-1.8887683
113	0x3e707cd2	0.23485115
114	0xc0294516	-2.6448417
115	0xc05d3648	-3.456438
116	0xbd87e5b6	-0.06635611
117	0xc027eda0	-2.6238785
118	0xc0574202	-3.3634038
119	0xbe0c443f	-0.13697909
120	0xbff933a6	-1.9468887
121	0xc03907ba	-2.8910966
122	0x3db998b5	0.0906233
123	0xc0040272	-2.0626493
124	0xc045ad3e	-3.0886989
125	0xbb862109	-0.0040932936
126	0xbfd8f27b	-1.6948999
127	0xc030dfa8	-2.763651
128	0x3e4abd91	0.19798876
129	0xbfae68b9	-1.3625709
130	0xc01b5f66	-2.4276977
131	0x3e820f2c	0.254022
132	0xbf461ae6	-0.77384794
133	0xbfdea6b4	-1.7394624
134	0x3ef644a4	0.48099244
135	0xbf20c40b	-0.6279914
136	0xbfb01a8d	-1.3758103
137	0x3f01bffa	0.5068356
138	0xbff38de9	-1.9027683
139	0xc02a78e9	-2.6636298
140	0x3e983d31	0.29734185
141	0xbfe1d73d	-1.764381
142	0xc01e2a02	-2.471314
143	0x3e78df8c	0.24304026
144	0xbf81f0f3	-1.0151657
145	0xbffe6074	-1.9873185
146	0x3efe81ed	0.497085
147	0xbf3b56bf	-0.7317924
148	0xbfc42913	-1.5325035
149	0x3ee02346	0.43776911
150	0xbf887219	-1.065982
151	0xbfe97f3b	-1.8241953
152	0x3efccb14	0.49373686
153	0xbf8a7869	-1.0817996
154	0xbfbeee1e	-1.4916418
155	0x3eca0b84	0.3946191
156	0xbfa89ea2	-1.3173411
157	0xc02012d9	-2.5011504
158	0x3ea57fbf	0.32324025
159	0xbfb11ee0	-1.3837547
160	0xc0151b59	-2.3297942
161	0x3ea2eef4	0.31822932
162	0xc031df6b	-2.7792614
163	0xc062610c	-3.5371733
164	0xbf1815ac	-0.5940807
165	0xc03c73f4	-2.9445772
166	0xc0709047	-3.758806
167	0xbeeabfa1	-0.45849326
168	0xc03a507b	-2.9111621
169	0xc071d0bd	-3.7783654
170	0xbf17af15	-0.5925153
171	0xc039f797	-2.9057367
172	0xc06bf010	-3.6865273
173	0xbec4a616	-0.38407964
174	0xbf872c61	-1.0560418
175	0xbfe5e784	-1.7961278
176	0x3eaef8c4	0.34174168
177	0xbf8af27d	-1.0855252
178	0xbfe8e0b3	-1.8193573
179	0xbd39c932	-0.04535789
180	0xbf9fb172	-1.2476027
181	0xc0042769	-2.0649054
182	0x3eafb745	0.3431951
183	0xbfca92a4	-1.5826001
184	0xbff369b9	-1.9016639
185	0x3e67d3d3	0.22639398
186	0xbf8a0abc	-1.0784526
187	0xbfef6281	-1.8701936
188	0x3e9c096d	0.3047594
189	0xbf8039b2	-1.0017607
190	0xbfae0e36	-1.3598087
191	0x3eedce89	0.46446636
192	0xbf8994da	-1.0748551
193	0xc001d5f7	-2.0286844
194	0x3ecd7dea	0.40135127
195	0xbf82c0ae	-1.0215051
196	0xc00907ec	-2.1411085
197	0x3eea7062	0.45788866
198	0xbf7f580f	-0.9974374
199	0xbffcaa10	-1.9739399
200	0x3ec06170	0.3757434
201	0xbf87f2e7	-1.0621003
202	0xbff52588	-1.9152079
203	0x3da1a079	0.07891936
204	0xbf91492a	-1.1350453
205	0xc00819ff	-2.1265867
206	0x3ec789f5	0.3897244
207	0xbf44a564	-0.76814866
208	0xbfcaf13f	-1.5854872
209	0x3f038091	0.5136805
210	0xbfab8b83	-1.3401951
211	0xc0163359	-2.346884
212	0x3e86fa5e	0.2636289
213	0xbfcbc639	-1.5919868
214	0xc0278a02	-2.6177983
215	0x3dd8783e	0.105698094
216	0xc01cb70e	-2.4486728
217	0xc0573682	-3.362702
218	0xbc985a64	-0.01859779
219	0xc01d1135	-2.4541752
220	0xc052855d	-3.2893898
221	0xbd873cbd	-0.06603382
222	0xbf7d64f9	-0.989822
223	0xbfe439db	-1.7830156
224	0x3e9866ff	0.2976608
225	0xbf674a93	-0.90348166
226	0xbfe0fad2	-1.7576544
227	0x3ec520e2	0.3850165
228	0xbfb99c30	-1.450079
229	0xc0199e07	-2.4002702
230	0x3e7e75b8	0.24849594
231	0xbf91c095	-1.1386896
232	0xc005f40f	-2.0930212
233	0x3ebb07a7	0.36529276
234	0xbfcdb8ce	-1.6072023
235	0xc0200c25	-2.5007412
236	0x3d444f73	0.04792733
237	0xbfe868e4	-1.815701
238	0xbff264d6	-1.8937023
239	0x3d6109bf	0.054940935
240	0xc01dc610	-2.4652138
241	0xc0487920	-3.132393
242	0x3c693290	0.014233246
243	0xc0109e68	-2.2596684
244	0xc04e7b90	-3.2262917
245	0x3d1de7fb	0.038551312
246	0xc0040734	-2.0629396
247	0xc036fc8b	-2.859164
248	0x3e469e52	0.19396332
249	0xbffe9aea	-1.9891026
250	0xc03186db	-2.773856
251	0x3d84a42b	0.06476625
252	0xc001ccab	-2.028117
253	0xc0377559	-2.8665373
254	0x3e2fd2ba	0.1717023
255	0xc0024f71	-2.0360987

bayes_fc1.bias_mu f4 [64]
0	0x3b743583	0.003726334
1	0x3a375e05	0.0006994906
2	0xbc5a6f62	-0.01333222
3	0xbb02073f	-0.0019840745
4	0xbb031913	-0.002000396
5	0xbbd3bdc1	-0.0064618294
6	0xbcf85617	-0.030314488
7	0xbcb56846	-0.022144448
8	0xbbaa6a3d	-0.005200653
9	0xbc1fb029	-0.00974659
10	0xbbfc868a	-0.007706468
11	0x3bea2d6f	0.0071465294
12	0xbce470fe	-0.02788591
13	0x3b2c3750	0.0026278086
14	0xbcc55844	-0.02408994
15	0x3bd890f2	0.0066090757
16	0xbbe41642	-0.006960661
17	0xbb8275c3	-0.0039813234
18	0x3c6e7884	0.0145551
19	0xbbca01b2	-0.006164753
20	0x3c574404	0.013138775
21	0xbc911c29	-0.017713623
22	0xbc24cef8	-0.010059111
23	0xbbf284b2	-0.0074010724
24	0xbcad6f58	-0.021171257
25	0xbcf1f82a	-0.02953728
26	0xbc166f99	-0.00918188
27	0xbba6269c	-0.0050705206
28	0x3c1d56be	0.0096032005
29	0x39edc3b6	0.0004534998
30	0xbcd18bad	-0.025579298
31	0xbb647ecd	-0.0034865618
32	0x3ae7349f	0.0017639584
33	0xbab58a56	-0.0013850431
34	0xbd393cef	-0.045224126
35	0xbc9a4128	-0.018829897
36	0xbd03779c	-0.03209649
37	0xbd4620f1	-0.04837126
38	0xbcc1e1a9	-0.023667173
39	0x3ca21fae	0.019790497
40	0x3c162be8	0.0091657415
41	0x3c692216	0.014229318
42	0x3b3558a8	0.0027671251
43	0xb90ff90f	-0.00013730324
44	0x3bc53071	0.0060177376
45	0xbc57bb7a	-0.0131672565
46	0x3c3087d9	0.010774576
47	0xbb1d0190	-0.002395723
48	0xbd228749	-0.0396798
49	0xbbb04cb5	-0.005380238
50	0xbb307f72	-0.0026931432
51	0xbcd08ae2	-0.02545685
52	0xbca1f727	-0.019771172
53	0x3bc4b789	0.0060033244
54	0x3c380ac2	0.011233034
55	0x3a086bce	0.00052040524
56	0x3c47b10e	0.012188209
57	0x3ba2c291	0.004967042
58	0xbd16995d	-0.036767352
59	0x3c777cf1	0.015105472
60	0x3c534119	0.012893938
61	0xbc0bf7fa	-0.008543009
62	0xbcb428c5	-0.021992097
63	0xbb8aff50	-0.0042418614

bayes_fc1.bias_rho f4 [64]
0	0xbebcad95	-0.36851183
1	0xbf8a57bf	-1.0808028
2	0xbf6db334	-0.9285157
3	0xbfa3fcbd	-1.2811505
4	0xbf8fe540	-1.1241837
5	0xbf7d52f1	-0.98954684
6	0xbee0cf98	-0.4390838
7	0xbf24c0be	-0.643566
8	0xbf8ee9d8	-1.1165113
9	0xbf374d4e	-0.7160233
10	0xbed5b088	-0.41736245
11	0xbf954f6c	-1.1664863
12	0xbefd4948	-0.49469972
13	0xbfaed09f	-1.3657416
14	0xbf0b2774	-0.54357076
15	0xbf828fa8	-1.020009
16	0xbf838de5	-1.0277678
17	0xbf088bfe	-0.5333861
18	0xbef74daa	-0.4830144
19	0xbf9c9fd8	-1.223628
20	0xbf813bea	-1.0096409
21	0xbf3cbee9	-0.73728806
22	0xbe9d8c9d	-0.30771342
23	0xbf4f3632	-0.8094207
24	0xbebf21bb	-0.37330422
25	0xbedfeeb8	-0.43736815
26	0xbf251288	-0.644814
27	0xbfcd169b	-1.6022524
28	0xbfcb17d8	-1.5866652
29	0xbf178912	-0.5919353
30	0xbf27de12	-0.6557323
31	0xbed9bbac	-0.42525995
32	0xbf05ec99	-0.52314144
33	0xbf17634e	-0.591359
34	0xbec60d7b	-0.3868216
35	0xbf4146f2	-0.7549888
36	0xbf8f11c8	-1.1177301
37	0xbeeb39e5	-0.45942608
38	0xbf1eb76c	-0.6199863
39	0xbf5fd1f7	-0.87429756
40	0xbf87c8ba	-1.0608132
41	0xbf671915	-0.9027265
42	0xbf79548a	-0.9739462
43	0xbeeb8033	-0.45996246
44	0xbecb86d8	-0.39751315
45	0xbefc523f	-0.492815
46	0xbf1e386f	-0.6180486
47	0xbf71c04b	-0.9443404
48	0xbefe9d42	-0.49729353
49	0xbef2d23a	-0.47426015
50	0xbf170181	-0.5898667
51	0xbf16b188	-0.5886464
52	0xbedb2074	-0.42798197
53	0xbfb56883	-1.417252
54	0xbf0c58bb	-0.5482289
55	0xbf94f07b	-1.1635889
56	0xbf86fbdf	-1.0545615
57	0xbf85461b	-1.041202
58	0xbf74f84f	-0.9569139
59	0xbf1d05d6	-0.6133703
60	0xbed1db28	-0.40987515
61	0xbf71473e	-0.9424933
62	0xbfa689f6	-1.3010852
63	0xbf073d15	-0.5282758

bayes_fc1.prior_mu_old_bias f4 [64]
0	0x3b743583	0.003726334
1	0x3a375e05	0.0006994906
2	0xbc5a6f62	-0.01333222
3	0xbb02073f	-0.0019840745
4	0xbb031913	-0.002000396
5	0xbbd3bdc1	-0.0064618294
6	0xbcf85617	-0.030314488
7	0xbcb56846	-0.022144448
8	0xbbaa6a3d	-0.005200653
9	0xbc1fb029	-0.00974659
10	0xbbfc868a	-0.007706468
11	0x3bea2d6f	0.0071465294
12	0xbce470fe	-0.02788591
13	0x3b2c3750	0.0026278086
14	0xbcc55844	-0.02408994
15	0x3bd890f2	0.0066090757
16	0xbbe41642	-0.006960661
17	0xbb8275c3	-0.0039813234
18	0x3c6e7884	0.0145551
19	0xbbca01b2	-0.006164753
20	0x3c574404	0.013138775
21	0xbc911c29	-0.017713623
22	0xbc24cef8	-0.010059111
23	0xbbf284b2	-0.0074010724
24	0xbcad6f58	-0.021171257
25	0xbcf1f82a	-0.02953728
26	0xbc166f99	-0.00918188
27	0xbba6269c	-0.0050705206
28	0x3c1d56be	0.0096032005
29	0x39edc3b6	0.0004534998
30	0xbcd18bad	-0.025579298
31	0xbb647ecd	-0.0034865618
32	0x3ae7349f	0.0017639584
33	0xbab58a56	-0.0013850431
34	0xbd393cef	-0.045224126
35	0xbc9a4128	-0.018829897
36	0xbd03779c	-0.03209649
37	0xbd4620f1	-0.04837126
38	0xbcc1e1a9	-0.023667173
39	0x3ca21fae	0.019790497
40	0x3c162be8	0.0091657415
41	0x3c692216	0.014229318
42	0x3b3558a8	0.0027671251
43	0xb90ff90f	-0.00013730324
44	0x3bc53071	0.0060177376
45	0xbc57bb7a	-0.0131672565
46	0x3c3087d9	0.010774576
47	0xbb1d0190	-0.002395723
48	0xbd228749	-0.0396798
49	0xbbb04cb5	-0.005380238
50	0xbb307f72	-0.0026931432
51	0xbcd08ae2	-0.02545685
52	0xbca1f727	-0.019771172
53	0x3bc4b789	0.0060033244
54	0x3c380ac2	0.011233034
55	0x3a086bce	0.00052040524
56	0x3c47b10e	0.012188209
57	0x3ba2c291	0.004967042
58	0xbd16995d	-0.036767352
59	0x3c777cf1	0.015105472
60	0x3c534119	0.012893938
61	0xbc0bf7fa	-0.008543009
62	0xbcb428c5	-0.021992097
63	0xbb8aff50	-0.0042418614

bayes_fc1.prior_sigma_small_bias f4 [64]
0	0x3f0698f1	0.5257712
1	0x3e95968e	0.29216427
2	0x3eaa7e45	0.3329946
3	0x3e7af50a	0.24507537
4	0x3e900d25	0.28135028
5	0x3ea1d5ba	0.31608373
6	0x3efeba15	0.49751344
7	0x3ed8335a	0.42226678
8	0x3e910479	0.28323725
9	0x3ecbb940	0.39789772
10	0x3f018eb2	0.5060836
11	0x3e8ad2f0	0.27114058
12	0x3ef3c0ef	0.47608134
13	0x3e68be32	0.22728804
14	0x3eea6b41	0.45784953
15	0x3e9da7a5	0.30791965
16	0x3e9c9ae5	0.30586925
17	0x3eec573a	0.461603
18	0x3ef60734	0.4805237
19	0x3e840691	0.2578626
20	0x3e9f112f	0.31067798
21	0x3ec82cd1	0.39096692
22	0x3f0d1394	0.55108
23	0x3ebc8355	0.36818948
24	0x3f0618b3	0.5238144
25	0x3eff1245	0.49818626
26	0x3ed7fb08	0.4218371
27	0x3e3bed63	0.18352275
28	0x3e3e9ef2	0.1861532
29	0x3ee175f6	0.4403531
30	0x3ed61046	0.4180929
31	0x3f00c1a3	0.50295466
32	0x3eee494c	0.46540296
33	0x3ee190de	0.44055837
34	0x3f04b0ef	0.5183248
35	0x3ec54288	0.38527322
36	0x3e90dd16	0.28293675
37	0x3efaab74	0.48958933
38	0x3edc6425	0.43045154
39	0x3eb2826c	0.3486513
40	0x3e983355	0.29726663
41	0x3eae4486	0.34036654
42	0x3ea40308	0.32033563
43	0x3efa903f	0.48938176
44	0x3f03966c	0.514014
45	0x3ef41e90	0.47679567
46	0x3edcbd0a	0.43112975
47	0x3ea83622	0.328538
48	0x3ef34043	0.47509965
49	0x3ef7be2e	0.48387283
50	0x3ee1d699	0.44109038
51	0x3ee20fab	0.4415258
52	0x3f007b2f	0.50187963
53	0x3e5e3ca6	0.21702823
54	0x3ee98b4a	0.45614082
55	0x3e8b2d3b	0.27182946
56	0x3e99068a	0.298878
57	0x3e9acd2d	0.30234662
58	0x3ea66abb	0.32503304
59	0x3edd941e	0.43277067
60	0x3f025204	0.50906396
61	0x3ea879f9	0.32905558
62	0x3e768e05	0.24077614
63	0x3eed4f46	0.46349543

bayes_fc1.prior_mu_old f4 [64, 6]
0	0xbe9eb56b	-0.30997786
1	0xbf022bf0	-0.50848293
2	0xbe299afc	-0.16563028
3	0xbec1c06a	-0.37842113
4	0xbe64b162	-0.22333291
5	0xbe393108	-0.1808511
6	0x3f00beaf	0.5029096
7	0xbdd72a63	-0.105061315
8	0x3eedd74d	0.46453324
9	0xbecdb2f0	-0.4017558
10	0x3dc16bab	0.09444364
11	0xbe6c50c2	-0.23077682
12	0xbeb8ddff	-0.3610687
13	0x3ddbe2ad	0.10736594
14	0xbe9abfb2	-0.30224377
15	0x3e1379ba	0.14401904
16	0xbe392c6e	-0.18083355
17	0xbd30de48	-0.043180734
18	0xbeb352fa	-0.35024244
19	0x3df53eb6	0.11974852
20	0xbf06baa9	-0.5262857
21	0x3ece1910	0.40253496
22	0xbdeabf5f	-0.114622824
23	0xbdd22814	-0.102615505
24	0xbea8ee27	-0.32994196
25	0x3e173665	0.14766844
26	0xbec44c8c	-0.3833965
27	0x3e94cb1d	0.29061213
28	0xbdde9b1f	-0.10869431
29	0x3cd2d40f	0.025735883
30	0x3e3e97f5	0.18612655
31	0xbdd55d2a	-0.1041816
32	0x3eeebd88	0.46628976
33	0xbe864dc8	-0.26231217
34	0x3db2783b	0.087143384
35	0xbe123ac1	-0.14280225
36	0xbea71731	-0.3263488
37	0xbeb8950b	-0.3605121
38	0xbd24507b	-0.040115815
39	0xbe71551c	-0.23567623
40	0xbec35c85	-0.38156524
41	0xbe20c06a	-0.156984
42	0xbed5d114	-0.41761076
43	0x3e3356e1	0.1751361
44	0xbe49799e	-0.196753
45	0x3c21b81d	0.009870556
46	0xbe96ad1f	-0.29428956
47	0x3d587b9c	0.052852258
48	0xbe966e7a	-0.29381162
49	0x3ddada43	0.10686161
50	0xbf17e4b9	-0.5933338
51	0x3ed99bc3	0.4250165
52	0xbdecefae	-0.11569153
53	0x3c80dac7	0.015729321
54	0xbe4ba222	-0.19886068
55	0xbe7f6f41	-0.24944784
56	0xbd826d07	-0.063684516
57	0xbe839d23	-0.25705823
58	0xbce9e3bc	-0.028550975
59	0xbd58262a	-0.05277077
60	0xbe7aa257	-0.2447599
61	0xbe866729	-0.2625058
62	0xbe014e69	-0.12627567
63	0xbe95d415	-0.29263368
64	0xbb49d4df	-0.0030797047
65	0xbdbc4a10	-0.09193814
66	0xbe5aa9e5	-0.21353872
67	0x3ca5b317	0.020226998
68	0xbf209869	-0.6273256
69	0x3ee6073a	0.44927388
70	0xbdb0c006	-0.086303756
71	0xbd193a8c	-0.03740935
72	0xbe762bb0	-0.24040103
73	0xbdae748c	-0.08518323
74	0xbd712647	-0.058874395
75	0xbe53a0b2	-0.20666769
76	0xbeddb37a	-0.43300992
77	0xbe094095	-0.13403542
78	0x3ef8eb98	0.48617244
79	0xbdd3bc95	-0.103387035
80	0x3ee68031	0.45019677
81	0xbea82a16	-0.3284461
82	0x3deff01d	0.1171572
83	0xbd9403b9	-0.072272725
84	0xbda1c846	-0.07899527
85	0xbe2c8daf	-0.16850923
86	0xbd0b2cd6	-0.033978306
87	0xbed240bf	-0.41065022
88	0xbeca3970	-0.39496946
89	0xbe04c5a2	-0.12966016
90	0xbeef7186	-0.467663
91	0xbe755dbe	-0.23961541
92	0x3a8491a4	0.0010114205
93	0xbe2275a8	-0.15865195
94	0xbc4779dd	-0.012175051
95	0x3e4c24fe	0.19935986
96	0x3ebcd834	0.368837
97	0xbde6d0b4	-0.11270276
98	0x3f2c5e9c	0.6733186
99	0xbebfc88b	-0.3745769
100	0x3e17d284	0.14826399
101	0xbe144292	-0.1447852
102	0xbeaff177	-0.3436391
103	0xbe095366	-0.1341072
104	0xbdcdfac8	-0.10057598
105	0xbe6a85c5	-0.22902592
106	0xbe8ed0aa	-0.27893573
107	0xbd01da7d	-0.031702507
108	0xbe56ab0b	-0.20963685
109	0xbe88d787	-0.26726934
110	0xbde0dea5	-0.10979966
111	0xbe9c625a	-0.30543786
112	0xbe95d76c	-0.29265916
113	0xbde1fd3c	-0.11034629
114	0x3e957896	0.29193562
115	0xbda3aeba	-0.07992311
116	0x3f064c5f	0.52460283
117	0xbebda9ec	-0.37043703
118	0x3e0b3300	0.13593674
119	0xbe51ac3a	-0.20475855
120	0xbe83e3e5	-0.25759807
121	0x3d8f58cd	0.06999359
122	0xbeb760c7	-0.35816023
123	0x3e8cdbb8	0.27511382
124	0xbdc5de96	-0.096615955
125	0x3d8173c2	0.06320907
126	0xbea3ca47	-0.31990263
127	0x3c009284	0.007847432
128	0xbe41a3d2	-0.18910149
129	0xbe8b0aee	-0.27156776
130	0xbe0d05b8	-0.13771713
131	0xbc4b124d	-0.0123945
132	0xbe9d96d8	-0.30779147
133	0xbeb7a386	-0.35866946
134	0xbe27da12	-0.16391781
135	0xbeceaa99	-0.4036453
136	0xbee3bd5a	-0.444804
137	0xbd82e36a	-0.06391032
138	0xbeaede9c	-0.34154212
139	0x3d7d4b0f	0.06183916
140	0xbe406124	-0.18787056
141	0x3e60842a	0.21925417
142	0xbe4a390c	-0.19748324
143	0xbce7561d	-0.028239304
144	0xbd83b9dc	-0.06431934
145	0xbe19c105	-0.15015037
146	0xbda66908	-0.08125502
147	0xbed25292	-0.4107862
148	0xbec18e70	-0.37803984
149	0xbda496ca	-0.08036573
150	0xbe8cd17f	-0.27503583
151	0xbea30b6f	-0.3184466
152	0xbe1d403d	-0.15356536
153	0xbda13171	-0.07870758
154	0xbed9c956	-0.4253642
155	0xbd96da41	-0.073658474
156	0xbea8181c	-0.32830894
157	0xbe00bbe4	-0.12571675
158	0x3af2bd57	0.0018519562
159	0xbea1bfa8	-0.31591535
160	0xbe30641e	-0.17225692
161	0xbc8b9656	-0.01703946
162	0x3e82cb6a	0.25545818
163	0xbdaef6e3	-0.08543184
164	0x3f270bf4	0.65252614
165	0xbeb0b6a4	-0.34514344
166	0x3e26e9b7	0.16300093
167	0xbdbb7703	-0.09153559
168	0x3ebe52e0	0.37172604
169	0xbd91e4da	-0.07123728
170	0x3eec40ff	0.46143338
171	0xbe8d8945	-0.2764379
172	0x3dd2f686	0.10300927
173	0x3dafdc61	0.08586956
174	0xbe654197	-0.22388302
175	0xbe848d6d	-0.2588915
176	0x3cae93f9	0.021310793
177	0xbe8c8856	-0.27447766
178	0xbe8a2177	-0.26978657
179	0xbde9b954	-0.11412302
180	0xbe8ba752	-0.27276093
181	0xbe2a168e	-0.16610166
182	0xbe468109	-0.1938516
183	0x3c99c1a2	0.01876909
184	0xbe90721a	-0.28212053
185	0xbdf6b1e0	-0.12045646
186	0xbe2c10f9	-0.1680335
187	0xbe9512af	-0.29115817
188	0xbc39f5c4	-0.011350099
189	0xbe2138e3	-0.15744357
190	0xbed449c2	-0.41462523
191	0xbdaae03a	-0.08343549
192	0xbe13ffb7	-0.14453016
193	0xbe41a57f	-0.18910788
194	0xbe2ae0bd	-0.16687293
195	0xbe5909f5	-0.21195205
196	0xbe35baf1	-0.17747094
197	0xbdc5d654	-0.096600205
198	0xbeb3bf9b	-0.3510712
199	0xbe8bd1ed	-0.27308598
200	0xbd8e6d14	-0.06954399
201	0xbeb9e08c	-0.36304128
202	0xbe7a3008	-0.24432385
203	0xbd2205ee	-0.039556436
204	0xbe63704e	-0.2221081
205	0xbe2c5d5b	-0.16832487
206	0xbdfc6731	-0.1232437
207	0xbea538f2	-0.32270008
208	0xbeb4e14e	-0.35328144
209	0xbe4958ff	-0.19662856
210	0x3d56e06d	0.052460123
211	0xbe44b93b	-0.19211285
212	0x3ddd56cd	0.108075716
213	0xbef37af7	-0.47554752
214	0x3dd559af	0.104174964
215	0xbd941346	-0.072302386
216	0xbed23243	-0.41053972
217	0x3e523081	0.20526315
218	0xbf0c7ccf	-0.5487794
219	0x3e489508	0.19588101
220	0xbda1b2c7	-0.07895427
221	0x3e10dc87	0.14146625
222	0xbebb4c1a	-0.36581498
223	0xbeb0a16a	-0.3449815
224	0xbc17e1f3	-0.009270179
225	0xbec02fbe	-0.37536424
226	0xbeb232bc	-0.34804332
227	0xbd6a4dee	-0.057203226
228	0xbea0b26c	-0.31386125
229	0x3e16f016	0.14740023
230	0xbe09ebe8	-0.13468897
231	0xbdb62838	-0.0889439
232	0xbe969e90	-0.2941785
233	0xbd86d431	-0.06583441
234	0xbe45424f	-0.19263576
235	0xbe29a484	-0.16566664
236	0x3c4fb3ac	0.012677114
237	0xbddb67e7	-0.10713177
238	0xbe9e6ab6	-0.3094079
239	0x3de14d3e	0.11001061
240	0xbebadecd	-0.36498109
241	0x3dc83b8d	0.097769834
242	0xbee96290	-0.4558301
243	0x3e9eff95	0.3105437
244	0xbdc43e63	-0.09582212
245	0x3d8af704	0.06785396
246	0xbea08fd2	-0.31359726
247	0x3d71c87c	0.059029087
248	0xbeaa9432	-0.3331619
249	0x3e2dde74	0.1697939
250	0xbe18e179	-0.14929761
251	0xbb4a90df	-0.0030909104
252	0xbe8ecf49	-0.2789252
253	0x3d3dfb35	0.046382148
254	0xbeddeb80	-0.43343735
255	0x3eea6498	0.45779872

bayes_fc1.prior_sigma_small f4 [64, 6]
0	0x3e97dbb4	0.29659808
1	0x3e7cb361	0.24677803
2	0x3f75dc38	0.9603915
3	0x3ea88a51	0.32918027
4	0x3e15f523	0.14644293
5	0x3f7a1244	0.9768412
6	0x3da872fb	0.08225056
7	0x3d270aaf	0.040781673
8	0x3f2a0ba0	0.6642399
9	0x3de1eb13	0.11031165
10	0x3d3130b7	0.04325935
11	0x3f3ddd58	0.7416587
12	0x3de695a1	0.11259008
13	0x3d55de12	0.052213736
14	0x3f4ec22f	0.8076505
15	0x3e2aef00	0.16692734
16	0x3d6162fb	0.055026036
17	0x3f3c1afa	0.7347866
18	0x3d987ce9	0.074457
19	0x3ceddb95	0.029035369
20	0x3f302330	0.6880369
21	0x3d7e3c82	0.062069423
22	0x3cfdb5b3	0.03097043
23	0x3f1ad8d5	0.6048711
24	0x3dc26095	0.09491078
25	0x3d35ef71	0.044417802
26	0x3f3e6c82	0.7438432
27	0x3df9a6a1	0.12189985
28	0x3d572a4a	0.052530564
29	0x3f11db27	0.56975025
30	0x3e1028ab	0.14078014
31	0x3d74b008	0.05973819
32	0x3f341c37	0.7035555
33	0x3dc8743f	0.09787797
34	0x3d3c506a	0.045975126
35	0x3f31662a	0.69296515
36	0x3eb234de	0.3480596
37	0x3e2cbdca	0.16869274
38	0x3f6af684	0.91782403
39	0x3ea9c966	0.33161467
40	0x3e2794d5	0.16365369
41	0x3f62b83e	0.8856238
42	0x3e5086ee	0.20363972
43	0x3d9b7a8e	0.07591735
44	0x3f5d000b	0.8632819
45	0x3e9391ed	0.2882227
46	0x3df8535c	0.121252745
47	0x3f5839c8	0.8446317
48	0x3da5eebb	0.08102175
49	0x3d1a4312	0.03766162
50	0x3f331ae8	0.6996293
51	0x3d981d20	0.0742743
52	0x3d26088a	0.040535487
53	0x3f1dbce2	0.6161634
54	0x3e864cc6	0.26230448
55	0x3df08978	0.1174497
56	0x3f62aecc	0.8854797
57	0x3e37eafc	0.17960733
58	0x3daf7762	0.08567692
59	0x3f54f073	0.83179396
60	0x3ecad191	0.3961301
61	0x3e032030	0.12805247
62	0x3f663551	0.89925104
63	0x3ea76580	0.32694626
64	0x3defa659	0.1170165
65	0x3f79dccd	0.9760254
66	0x3daecb6f	0.08534896
67	0x3d2e9c5c	0.042629585
68	0x3f333b8b	0.7001273
69	0x3d8f50ab	0.06997808
70	0x3d0d90c9	0.034561906
71	0x3f20b9d8	0.62783575
72	0x3e72f8c6	0.23727712
73	0x3db0ef4d	0.08639393
74	0x3f59712e	0.84938323
75	0x3e8d4002	0.27587897
76	0x3e3f6655	0.1869138
77	0x3f69ec07	0.91375774
78	0x3d87cf68	0.066313565
79	0x3ce96cb5	0.028494218
80	0x3f0e2fde	0.5554179
81	0x3d83c360	0.06433749
82	0x3d0255d6	0.03182014
83	0x3f1c925f	0.61160845
84	0x3e535907	0.2063943
85	0x3ddc59ed	0.107593395
86	0x3f5e648f	0.8687219
87	0x3ea55311	0.32289937
88	0x3e34b915	0.17648728
89	0x3f677182	0.90407574
90	0x3e747719	0.23873557
91	0x3dbfee60	0.09371638
92	0x3f35ab8d	0.7096489
93	0x3db64e68	0.089016736
94	0x3d471515	0.04860409
95	0x3f1c2f2d	0.61009485
96	0x3dc91929	0.09819252
97	0x3d24c61d	0.040227998
98	0x3f3a2229	0.72708374
99	0x3da9215a	0.082583144
100	0x3d17cc2e	0.037059955
101	0x3f340a25	0.7032798
102	0x3e874ba3	0.26424894
103	0x3dd9d3e0	0.10636115
104	0x3f7913dd	0.97295934
105	0x3e88d115	0.26722017
106	0x3e13f98a	0.1445066
107	0x3f628c78	0.8849559
108	0x3e975cef	0.2956309
109	0x3e112d1d	0.14177366
110	0x3f7339d4	0.95010114
111	0x3e91a2fe	0.28444666
112	0x3e103c5c	0.14085525
113	0x3f51447e	0.81745136
114	0x3d8c8280	0.068608284
115	0x3cfe6666	0.031054687
116	0x3f2917cd	0.6605194
117	0x3d8f6273	0.070011996
118	0x3d0b64a5	0.03403153
119	0x3f208327	0.6270012
120	0x3e089c67	0.13340913
121	0x3d5d4d9a	0.054029085
122	0x3f3d4ee4	0.739485
123	0x3df511c9	0.11966283
124	0x3d367e04	0.04455377
125	0x3f30ec1a	0.6911026
126	0x3e2c9f0f	0.16857551
127	0x3d7a7b24	0.061152592
128	0x3f4c0a64	0.79703355
129	0x3e696765	0.22793348
130	0x3dad2e93	0.08456149
131	0x3f540514	0.8282025
132	0x3ec2313b	0.37928185
133	0x3e25ac9a	0.16179124
134	0x3f765882	0.962288
135	0x3edaf617	0.42765877
136	0x3e66a7b9	0.22524919
137	0x3f7a7451	0.97833735
138	0x3e0e5d1a	0.13902703
139	0x3d89fb0c	0.067373365
140	0x3f5a5303	0.85282916
141	0x3e21e716	0.15810809
142	0x3da61513	0.08109488
143	0x3f5270be	0.8220328
144	0x3e9e5031	0.30920556
145	0x3e0387e9	0.12844814
146	0x3f78e643	0.9722635
147	0x3ec91658	0.3927486
148	0x3e48416c	0.19556206
149	0x3f6f9076	0.93579805
150	0x3e978573	0.29594
151	0x3e192bbd	0.14958091
152	0x3f785deb	0.9701831
153	0x3e957577	0.2919118
154	0x3e4fd05c	0.20294327
155	0x3f68e879	0.90979725
156	0x3e7303f7	0.23731981
157	0x3da16336	0.07880251
158	0x3f5e2644	0.8677714
159	0x3e650507	0.22365199
160	0x3dbe310d	0.092866994
161	0x3f5d67f5	0.8648675
162	0x3d76b73e	0.060233347
163	0x3ceaf2c7	0.028680218
164	0x3ee111dd	0.4395894
165	0x3d5211ac	0.051286384
166	0x3cbcc6c2	0.023043994
167	0x3efadacd	0.48995057
168	0x3d590570	0.0529837
169	0x3cb92933	0.022602653
170	0x3ee15ae3	0.44014654
171	0x3d5a2bc6	0.0532644
172	0x3ccac09e	0.02475005
173	0x3f04f9ad	0.51943475
174	0x3e98d470	0.29849577
175	0x3e1d3664	0.1535278
176	0x3f60e863	0.87854594
177	0x3e94fa03	0.29096994
178	0x3e19dc4e	0.15025446
179	0x3f2bb4a9	0.6707254
180	0x3e8142e4	0.25246346
181	0x3df48c85	0.119408645
182	0x3f612017	0.8793959
183	0x3e3f5441	0.18684484
184	0x3e0e82b1	0.13917042
185	0x3f500f8e	0.81273735
186	0x3e95e4ab	0.29276022
187	0x3e12c14b	0.14331548
188	0x3f5b6a62	0.857092
189	0x3ea025d0	0.3127885
190	0x3e69fb24	0.22849709
191	0x3f73bd51	0.9521075
192	0x3e965c81	0.2936745
193	0x3dfd08a3	0.12355163
194	0x3f69f066	0.91382444
195	0x3e9d73b5	0.3075234
196	0x3de390c4	0.11111596
197	0x3f72b4f1	0.94807345
198	0x3ea0be41	0.31395152
199	0x3e053129	0.13007034
200	0x3f660849	0.8985639
201	0x3e9807f8	0.2969358
202	0x3e0cb820	0.13742113
203	0x3f3bbf22	0.7333852
204	0x3e8eb170	0.2786975
205	0x3de6b6ad	0.112653114
206	0x3f682908	0.9068761
207	0x3ec31d7d	0.38108435
208	0x3e3ed36c	0.18635339
209	0x3f7b8ca0	0.9826145
210	0x3e6e1da7	0.23253499
211	0x3dbb1c97	0.091363125
212	0x3f556864	0.8336241
213	0x3e3db285	0.18525131
214	0x3d903a9c	0.07042429
215	0x3f3f5516	0.74739206
216	0x3da9bb6d	0.08287702
217	0x3d0b7d48	0.034055024
218	0x3f2f1384	0.68389153
219	0x3da8d68f	0.08244049
220	0x3d15e86d	0.03659861
221	0x3f292203	0.6606752
222	0x3ea1cbf5	0.3160092
223	0x3e1f225b	0.1554045
224	0x3f5a5f01	0.85301214
225	0x3eae27fa	0.34014875
226	0x3e22e9b3	0.15909462
227	0x3f677140	0.9040718
228	0x3e57c3d4	0.21070796
229	0x3db1cb5f	0.08681368
230	0x3f53395f	0.82509416
231	0x3e8e3d6a	0.2778123
232	0x3dee25ec	0.11628327
233	0x3f64731d	0.8923815
234	0x3e3b1445	0.18269451
235	0x3da17378	0.07883352
236	0x3f37a765	0.717398
237	0x3e1a623b	0.15076534
238	0x3e0f92ca	0.1402084
239	0x3f389320	0.72099495
240	0x3da70ee7	0.08157139
241	0x3d2edab1	0.04268903
242	0x3f334626	0.70028913
243	0x3dcb57e1	0.09928871
244	0x3d1f7be2	0.038936503
245	0x3f366d84	0.7126086
246	0x3df5009e	0.11963008
247	0x3d644997	0.055734243
248	0x3f4b7999	0.7948242
249	0x3e034f95	0.12823327
250	0x3d780368	0.060550123
251	0x3f39deb6	0.72605455
252	0x3dfd2b39	0.1236176
253	0x3d62a7ed	0.055335928
254	0x3f485da7	0.782679
255	0x3dfb4652	0.12269272

bayes_fc2.weight_mu f4 [1, 64]
0	0xbb85e89e	-0.004086568
1	0x3dc47f0c	0.09594545
2	0xbd36728d	-0.044542838
3	0xbdb34883	-0.08754065
4	0xbd700d24	-0.058606282
5	0x3d93f3bf	0.07224225
6	0x3ca333bf	0.019922135
7	0xbd5a2cfe	-0.053265564
8	0xbda4b031	-0.08041418
9	0x3c5d52ce	0.013508512
10	0xbbc321a2	-0.005954937
11	0xbdaa245b	-0.083077155
12	0xbc394391	-0.011307613
13	0x3e04cd14	0.12968856
14	0x3bae0d87	0.005311671
15	0x3e86a611	0.26298574
16	0x3da99fc8	0.08282429
17	0xbcf42af0	-0.02980563
18	0x3d930218	0.07178134
19	0x3dc91b73	0.09819689
20	0xbda80ba7	-0.082053475
21	0xbd8cf34b	-0.06882342
22	0xbc1368c7	-0.008997149
23	0xbd4f0611	-0.050542895
24	0x3cd67c94	0.02618245
25	0xbc8b46ac	-0.017001472
26	0x3e1fa93f	0.15591906
27	0x3df71ba3	0.12065818
28	0x3e2730f1	0.16327263
29	0xbcf7ff85	-0.030273208
30	0xbd459fb4	-0.048248008
31	0x3d098873	0.033577394
32	0xbd191a66	-0.03737869
33	0xbd016383	-0.031589042
34	0xbcdd8914	-0.027042903
35	0x3d9635d8	0.07334489
36	0xbd715276	-0.05891653
37	0x3da0837d	0.078375794
38	0xbd0cdd5a	-0.034390785
39	0x3e0ffd43	0.14061455
40	0xbda1f42b	-0.079078995
41	0xbd6d7bfe	-0.057979576
42	0xbd54f845	-0.05199458
43	0xbc8f2ecf	-0.017478375
44	0xbd188101	-0.037232403
45	0xbd8e25fe	-0.0694084
46	0x3cc68fb8	0.024238452
47	0xbd469d0b	-0.04848961
48	0xbc07a05c	-0.008277979
49	0xbcd8e4aa	-0.026476223
50	0xbb94a221	-0.004535929
51	0xb9942681	-0.00028257447
52	0xbbee0f89	-0.0072650355
53	0x3dc34315	0.09534279
54	0x3d4797fb	0.048728924
55	0x3da95641	0.08268405
56	0x3dfcb3b2	0.12338962
57	0x3db79038	0.089630544
58	0x3de2aea2	0.11068465
59	0x3d00642d	0.031345535
60	0x3bd4a8ca	0.006489848
61	0x3d9b2c1c	0.075767726
62	0xbdb914cf	-0.09037172
63	0x3c603163	0.01368365

bayes_fc2.weight_rho f4 [1, 64]
0	0xbf8f33c3	-1.1187671
1	0xc0643eca	-3.5663323
2	0xc0471735	-3.1107914
3	0xc067d515	-3.6223805
4	0xc05becfc	-3.4363394
5	0xc0529969	-3.2906134
6	0xbf9246b5	-1.1427828
7	0xc047fe43	-3.124894
8	0xc061d0f6	-3.528379
9	0xc019de97	-2.4042108
10	0xc030ac57	-2.7605188
11	0xc04cd81f	-3.200691
12	0xbfd8b1cf	-1.6929263
13	0xc06a27eb	-3.6586864
14	0xbfd61e16	-1.6727931
15	0xbfb88c3b	-1.4417795
16	0xc05de0af	-3.4668386
17	0xc00b9984	-2.1812449
18	0xbfa7946b	-1.3092169
19	0xc05da66c	-3.4632826
20	0xc0437bcd	-3.0544312
21	0xc00ccf80	-2.2001648
22	0xbfdea596	-1.7394283
23	0xc0468394	-3.101781
24	0xc02b5e84	-2.6776438
25	0xc008fec9	-2.1405509
26	0xbf1d09d2	-0.6134311
27	0xc0631c39	-3.5485976
28	0xc05b952a	-3.4309793
29	0xbf84fc00	-1.0389404
30	0xbf9e7368	-1.2378969
31	0xbfb192f5	-1.3872973
32	0xc00e42f2	-2.222836
33	0xbf8e625e	-1.1123769
34	0xc00a9f09	-2.1659567
35	0xc0386c8d	-2.8816254
36	0xc0625d96	-3.536962
37	0xbeb73348	-0.35781312
38	0xc04505d4	-3.0784807
39	0xbf5bb3e8	-0.8582139
40	0xc0536d2b	-3.303538
41	0xc03ca49a	-2.9475465
42	0xc056c7ff	-3.3559568
43	0xc002b81d	-2.0424874
44	0xc00670c7	-2.1006334
45	0xbfb29c2b	-1.3953909
46	0xbfa54b3c	-1.2913585
47	0xc04f044b	-3.234637
48	0xbfbb4ebe	-1.4633405
49	0xc0283de7	-2.6287782
50	0xc01e8b45	-2.4772503
51	0xc02f98cc	-2.743701
52	0xbfb9994b	-1.4499906
53	0xc05bd4fe	-3.434875
54	0xbf9d3793	-1.2282585
55	0xc052d514	-3.2942553
56	0xc04ab112	-3.1670575
57	0xc0552949	-3.3306448
58	0xc02abda7	-2.6678255
59	0xc04290d6	-3.04009
60	0xbf9b67e9	-1.2141086
61	0xc051f0be	-3.2803187
62	0xc05c03ee	-3.4377398
63	0xc01430fa	-2.3154893

bayes_fc2.prior_mu_old f4 [1, 64]
0	0xbb85e89e	-0.004086568
1	0x3dc47f0c	0.09594545
2	0xbd36728d	-0.044542838
3	0xbdb34883	-0.08754065
4	0xbd700d24	-0.058606282
5	0x3d93f3bf	0.07224225
6	0x3ca333bf	0.019922135
7	0xbd5a2cfe	-0.053265564
8	0xbda4b031	-0.08041418
9	0x3c5d52ce	0.013508512
10	0xbbc321a2	-0.005954937
11	0xbdaa245b	-0.083077155
12	0xbc394391	-0.011307613
13	0x3e04cd14	0.12968856
14	0x3bae0d87	0.005311671
15	0x3e86a611	0.26298574
16	0x3da99fc8	0.08282429
17	0xbcf42af0	-0.02980563
18	0x3d930218	0.07178134
19	0x3dc91b73	0.09819689
20	0xbda80ba7	-0.082053475
21	0xbd8cf34b	-0.06882342
22	0xbc1368c7	-0.008997149
23	0xbd4f0611	-0.050542895
24	0x3cd67c94	0.02618245
25	0xbc8b46ac	-0.017001472
26	0x3e1fa93f	0.15591906
27	0x3df71ba3	0.12065818
28	0x3e2730f1	0.16327263
29	0xbcf7ff85	-0.030273208
30	0xbd459fb4	-0.048248008
31	0x3d098873	0.033577394
32	0xbd191a66	-0.03737869
33	0xbd016383	-0.031589042
34	0xbcdd8914	-0.027042903
35	0x3d9635d8	0.07334489
36	0xbd715276	-0.05891653
37	0x3da0837d	0.078375794
38	0xbd0cdd5a	-0.034390785
39	0x3e0ffd43	0.14061455
40	0xbda1f42b	-0.079078995
41	0xbd6d7bfe	-0.057979576
42	0xbd54f845	-0.05199458
43	0xbc8f2ecf	-0.017478375
44	0xbd188101	-0.037232403
45	0xbd8e25fe	-0.0694084
46	0x3cc68fb8	0.024238452
47	0xbd469d0b	-0.04848961
48	0xbc07a05c	-0.008277979
49	0xbcd8e4aa	-0.026476223
50	0xbb94a221	-0.004535929
51	0xb9942681	-0.00028257447
52	0xbbee0f89	-0.0072650355
53	0x3dc34315	0.09534279
54	0x3d4797fb	0.048728924
55	0x3da95641	0.08268405
56	0x3dfcb3b2	0.12338962
57	0x3db79038	0.089630544
58	0x3de2aea2	0.11068465
59	0x3d00642d	0.031345535
60	0x3bd4a8ca	0.006489848
61	0x3d9b2c1c	0.075767726
62	0xbdb914cf	-0.09037172
63	0x3c603163	0.01368365

bayes_fc2.prior_sigma_small f4 [1, 64]
0	0x3e90bb9b	0.28268132
1	0x3ce44a22	0.02786738
2	0x3d329725	0.043601174
3	0x3cd80249	0.026368277
4	0x3d01bdef	0.031675275
5	0x3d15ba59	0.036554668
6	0x3e8dbb7c	0.27682102
7	0x3d30247c	0.043003544
8	0x3cecfe72	0.028929923
9	0x3db11fe4	0.08648661
10	0x3d7b3e40	0.061338663
11	0x3d2389bd	0.03992628
12	0x3e2cef64	0.16888195
13	0x3cd06781	0.02543998
14	0x3e302a84	0.17203718
15	0x3e596292	0.21229008
16	0x3cfbcece	0.03073826
17	0x3ddb131a	0.10697003
18	0x3e74c757	0.23904167
19	0x3cfcb0f0	0.03084609
20	0x3d3cb5b9	0.04607174
21	0x3dd72d4f	0.10506689
22	0x3e25adf0	0.16179633
23	0x3d342bfd	0.043987263
24	0x3d881f75	0.06646625
25	0x3de3af85	0.11117462
26	0x3edd9152	0.43274933
27	0x3ce85126	0.028359007
28	0x3d026da2	0.031842835
29	0x3e9b1a94	0.30293715
30	0x3e825fcd	0.25463715
31	0x3e644b2f	0.22294305
32	0x3dd297d9	0.10282869
33	0x3e918a59	0.28425863
34	0x3dde45d9	0.10853166
35	0x3d5f5a4b	0.05452947
36	0x3ceaff4e	0.028686192
37	0x3f07b88d	0.5301598
38	0x3d385333	0.04500122
39	0x3eb4f280	0.35341263
40	0x3d13d6e7	0.03609362
41	0x3d51763c	0.051138148
42	0x3d0c6add	0.0342816
43	0x3df9c4aa	0.12195714
44	0x3dec7148	0.11545044
45	0x3e62a48e	0.22133085
46	0x3e78b1ba	0.24286547
47	0x3d1e2f0b	0.038619082
48	0x3e5532e1	0.2082019
49	0x3d8eb525	0.06968144
50	0x3da5234e	0.080633745
51	0x3d7f5fc7	0.0623472
52	0x3e57c83a	0.21072474
53	0x3d01edd8	0.031720966
54	0x3e837cdd	0.256812
55	0x3d153184	0.036424175
56	0x3d2904a0	0.041264176
57	0x3d0ff45a	0.03514514
58	0x3d896c00	0.067100525
59	0x3d3f5f7a	0.046721913
60	0x3e852339	0.26003435
61	0x3d173fbf	0.036926027
62	0x3d01902e	0.03163164
63	0x3dc0ce88	0.09414393
