models/updated_hmnn_model_2000_2014.pth (torch, 14090 bytes, 12 tensors)

bayes_fc1.weight_mu f4 [64, 6]
00000000: 2337 3abf ab6e 45bf 848b 8ebe c9be 39bf
00000010: 7189 18bf 1541 7bbe 5097 093f 896a c3bd
00000020: 5407 e43f 7499 d1be a8c0 d93d 6b53 8dbf
00000030: c9b7 bebe 119d 533e 0290 b2bf 7cdd b93e
00000040: 54d7 1bbe 2f63 473f e2f6 bcbe 87f2 3b3e
00000050: 9e26 aebf bd98 db3e 6b49 edbd 7432 993e
00000060: e447 bcbe 1cbb 4e3e a5c8 b2bf 7958 ca3e
00000070: b298 12be 0e99 f93e 79fb 893e a3f9 fbbd
00000080: 98b9 0140 be0b a6be 669e 3a3e 50f6 89be
00000090: d908 3ebf 9db2 1abf 9c6d 6dbe 2238 20bf
000000a0: 36fc 1fbf 55fb 88be 62fb efbe c475 893e
000000b0: da48 1cbf 0610 a9be 756f 8fbe 7089 a03f
000000c0: 73f8 96be b86a e13d 3bcb e0bf 09fc 053f
000000d0: f0ff 04be 51af 8c3e 3d60 60bf 075d 98be
000000e0: 4f5e edbe 4db5 37be 658b da3d 53ec 9b3e
000000f0: cd70 17bf e832 d6be a723 eebd b18c 27bf
00000100: b13d 94be 3294 16be d396 64be 9d6c b53d
00000110: 0de8 11c0 868d f73e 3607 9bbd f3ed e2be
00000120: 7fb7 2ebf 3516 abbe 1b15 27be 08e4 1abf
00000130: 500f 2dbf 5b1a 7abe bfec ec3e 3db5 03be
00000140: b33a b23f 8f9f c2be 6af8 2b3e 9bc9 54bf
00000150: c35b f1be 6c07 9bbe d1be 6abe 010f 0cbf
00000160: 0fe4 26bf 2e13 3ebe e2dd 70bf ad7d 50be
00000170: 4224 8abf cae0 88bd e824 103d 56b0 543f
00000180: 23c1 b73e 7ef1 11be d199 2840 c544 bdbe
00000190: 4493 333e 94d1 7cbe 7acf 0ebf 6939 66be
000001a0: b2d5 29be d435 28bf b12f d7be 6541 30be
000001b0: 9df2 25bf 0a17 eabe f413 45be 3da1 31bf
000001c0: 2805 13bf ca74 82be ac46 a23e 8daa d8bd
000001d0: b5c3 d33f 189b c9be ae52 313e 66e3 24bf
000001e0: 686e 92be 1f2e 523d 1c13 c0bf 46b0 c33e
000001f0: 0cec d4bd 6cf3 093f 9378 c7be 6a17 ea3d
00000200: 6d14 9cbe 69c1 09bf 982a 5fbe de37 813d
00000210: 7900 08bf 9f5c e3be 6d05 bcbd 4cc6 4bbf
00000220: 7ac7 38bf 9319 8dbd 6b90 b8be ad43 1c3e
00000230: cdbd 8fbf cfdd e73e 4d5e 04be ce5b 253f
00000240: a42b eabe 6005 09bf c99d c6bd 4396 2bbf
00000250: d764 19bf a0df 44be 1d5a fdbe 8864 eabe
00000260: cdbe a1bd 55a7 c7be da50 18bf 8c7f 87bd
00000270: dc41 0dbf ccda babe 93d4 7cbe 1a58 07bf
00000280: bb3c 8fbe 4b28 95be 6c6b 8c3e 1676 00be
00000290: 80af f43f 4b99 b4be c561 323e c841 86bd
000002a0: 7e65 a93e ed76 f8bd e0e7 be3f 2239 8ebe
000002b0: 1fa2 163e ec96 ecbe 0543 15bf 433c 11bf
000002c0: 7da8 54be 93c9 1bbf b4f0 0dbf b39c 65be
000002d0: 4c59 13bf fa99 c1be ee32 78be 5ec4 c7be
000002e0: 2ea3 e5be 97b0 a0be bf0f 22bf cf88 eabe
000002f0: e4a1 24be 0188 0abf 5b49 29bf 7783 9dbe
00000300: 9ceb 05bf 2781 d4be 5807 5bbe 3397 f8be
00000310: 77db c5be af18 78be 5880 18bf 5c13 e3be
00000320: 5a37 41be ce14 10bf 6732 e9be 7b83 36be
00000330: 3bc8 cebe 4f57 5fbe 9734 1ebe 9435 19bf
00000340: 61e9 14bf c56e 03be 96d2 d4be 4d6a 87be
00000350: 1cdb c53d 8c59 d3be 16d0 043e b9e0 3a3e
00000360: 4613 dbbe b91f 7b3e 05ff d5bf c31e a73e
00000370: feec f5bd 56ee 663e 9299 37bf a7df 18bf
00000380: c92c 6cbe 7b5d 29bf f6cf ebbe 97ff 52be
00000390: 5fa3 0bbf c4a1 a73d c605 13be 1215 afbe
000003a0: 42db b5be 2a8e 403e c4f4 adbe f71a 66be
000003b0: 04dd 70be ffea 9bbe 67f9 bbbe 7c43 15be
000003c0: ba4f b0be 5fa0 353e 83de b0bf 4797 b43e
000003d0: 5669 debd 619e 033f 19ff a2be 7a3f 003e
000003e0: 3d6c ddbf 0554 e83e 213f f0bd c554 dc3e
000003f0: 39f9 94be 0151 b53d e0a5 b2bf a498 093f
-0.7274038 -0.7712199 -0.27840817 -0.7255674 -0.5958472 -0.24536546 0.5374651 -0.09541804
1.7814736 -0.40937388 0.106324494 -1.1041082 -0.37249592 0.20665385 -1.3950198 0.36301792
-0.1521886 0.7788572 -0.36907107 0.18354236 -1.3605535 0.42889968 -0.11586269 0.29921305
-0.36773598 0.20188564 -1.3967482 0.39520624 -0.14316061 0.48749584 0.2694967 -0.12303474
2.0269527 -0.32430834 0.18224487 -0.26945734 -0.7423225 -0.6042879 -0.23186344 -0.6258565
-0.6249422 -0.2675425 -0.46871477 0.2684766 -0.6104866 -0.33020037 -0.28014722 1.2541943
-0.29486427 0.11006683 -1.7562021 0.523377 -0.12988257 0.27477506 -0.8764685 -0.29758474
-0.46361014 -0.17940255 0.10671119 0.3045374 -0.59156495 -0.41835713 -0.11627894 -0.65449053
-0.28953317 -0.1470497 -0.2232316 0.08858607 -2.2797883 0.4835016 -0.07569735 -0.44322166
-0.6824874 -0.3341538 -0.16316645 -0.605042 -0.6760149 -0.24424116 0.46274373 -0.12862106
1.3924164 -0.3801236 0.16793981 -0.83120126 -0.4714032 -0.302791 -0.22924353 -0.54710394
-0.6519174 -0.18562004 -0.94088566 -0.20360442 -1.0792315 -0.066835 0.035191447 0.8308157
0.3588954 -0.14252278 2.6343882 -0.3696653 0.17536646 -0.24689323 -0.55785334 -0.22482838
-0.16585425 -0.65707135 -0.42028573 -0.17212446 -0.64823323 -0.45720702 -0.19245893 -0.69386655
-0.5742974 -0.25479728 0.31694543 -0.10579405 1.65441 -0.3937614 0.17316696 -0.6440948
-0.28599858 0.051313516 -1.5005832 0.38220423 -0.10396585 0.5388706 -0.38959178 0.11430247
-0.30484334 -0.53810745 -0.21793592 0.06309484 -0.5312572 -0.44406602 -0.091807224 -0.7959945
-0.7217938 -0.068896435 -0.36047682 0.15260191 -1.1229798 0.45286414 -0.12926598 0.6459321
-0.4573642 -0.53523827 -0.09698064 -0.67026156 -0.59919494 -0.19225931 -0.49482813 -0.45779824
-0.078977205 -0.38994852 -0.5949837 -0.066161245 -0.5517862 -0.36495054 -0.24690466 -0.5286881
-0.2797602 -0.29132304 0.27425706 -0.12545046 1.9116058 -0.35273203 0.17420109 -0.065555155
0.33085245 -0.12132058 1.4914513 -0.27777964 0.14710282 -0.46208894 -0.5830539 -0.5673258
-0.20767398 -0.6085445 -0.5544541 -0.22423057 -0.5755813 -0.37812787 -0.24238178 -0.39017004
-0.4485106 -0.31384727 -0.63305277 -0.45807502 -0.16077381 -0.54113775 -0.66127557 -0.30764362
-0.52312636 -0.41504785 -0.2138952 -0.48552856 -0.38644 -0.24228166 -0.5957084 -0.44350708
-0.18868771 -0.56281745 -0.45546266 -0.17823593 -0.4038714 -0.2181065 -0.15449749 -0.5984738
-0.5816861 -0.12835224 -0.41566914 -0.2644829 0.096609324 -0.41279256 0.12970003 0.18249787
-0.42788142 0.2452382 -1.6718451 0.32640657 -0.12008093 0.22551855 -0.71718705 -0.59716266
-0.23063959 -0.66158265 -0.460571 -0.20605312 -0.5454616 0.08185151 -0.14357671 -0.34195763
-0.35518843 0.18804231 -0.33975804 -0.22471224 -0.23521811 -0.30452725 -0.36713716 -0.14576524
-0.34435827 0.17736958 -1.3817905 0.35271665 -0.10859935 0.5141354 -0.3183525 0.12524214
-1.7298657 0.45376602 -0.11730791 0.43033424 -0.29096392 0.08853341 -1.3956871 0.53748536

bayes_fc1.weight_rho f4 [64, 6]
00000000: 762e 33bf f5a4 88bf b1ab e13e 82db bfbe
00000010: 412b a1bf 8bb4 083f 8c61 6cc0 f9b3 92c0
00000020: d6ac 73be 2222 49c0 910a 90c0 b357 74be
00000030: 3ee6 64c0 e87e 8bc0 dc7a 8abe 344a 5fc0
00000040: ea8e 8cc0 7cdc 8a3d 9985 69c0 3901 9bc0
00000050: 992d f9bd 218d 70c0 3895 91c0 a75d e3be
00000060: 81b2 5ec0 f219 94c0 8300 57be ea1c 66c0
00000070: 551b 8ec0 7aa7 21bf 5c14 67c0 95a6 8ec0
00000080: 924c 59bf d78a 7ac0 f5e5 a2c0 cb20 10bf
00000090: e4a3 25bf 5fa5 93bf 60bd 083f 95e1 01bf
000000a0: f53d 90bf b511 113f 02ab 19c0 141b 6dc0
000000b0: c8a3 e83e f06b e7bf a0c9 36c0 4d1c 9c3f
000000c0: 60de 4fc0 d7fa 8dc0 fc41 a8bd 6ee4 70c0
000000d0: d4bd 8cc0 5fdd 9ebe 8628 b0bf ece8 19c0
000000e0: f663 c33e e1a9 2ec0 9f49 77c0 575c f53e
000000f0: 6470 12bf 1f6e ccbf b758 fe3e 2cdb dfbe
00000100: 4d89 d1bf 3ec1 023f a51f 70c0 fa19 a2c0
00000110: cf55 69bf afc3 80c0 2362 9ac0 a5c2 25bf
00000120: 8488 48bf 9635 e9bf 8d2a f93e c396 1fbf
00000130: 9376 9bbf 2f9d fa3e d389 79c0 e1a3 9bc0
00000140: d589 2bbf 2c72 7bc0 3936 9dc0 28a2 ffbe
00000150: f03c 40bf bce0 e7bf f18b c83e e53e 05bf
00000160: aa65 95bf 41b1 ff3e c067 75bf da6f 74c0
00000170: 7153 263e 3bde 6cc0 5066 98c0 2a79 6ebf
00000180: fb5d 62c0 2aa5 88c0 4fb7 07bf 1f22 62c0
00000190: 7926 8dc0 e8e3 0abe 613d 2cbf 0b2d e8bf
000001a0: 1eef 193f 1e03 2ebf e3d1 cfbf 00bd fe3e
000001b0: f762 29bf b252 bfbf d693 fb3e f294 26bf
000001c0: eb23 acbf 38b3 0f3f 1d9e 85c0 fc08 9fc0
000001d0: 2e0e 5ebf a728 83c0 557a 9bc0 bd68 29bf
000001e0: 02ca 4ac0 84e5 8ec0 51ce 093d 62c6 59c0
000001f0: 055d 8bc0 f0b5 c6be ac0d ebbf 6cb4 4fc0
00000200: 6f42 b53e 480b 67bf 5b32 1dc0 0b76 1a3f
00000210: 777b 17bf 5a76 b4bf 246a f93e afb7 0bbf
00000220: fc0f 88bf 7d22 013f 58aa 42c0 a6f1 82c0
00000230: 16b6 e13d 180f 33c0 9387 81c0 a704 9d3d
00000240: 8b06 d4be 82cf b3bf 777f 0f3f 4a02 bdbe
00000250: e0f8 97bf 2f52 133f 5be7 28bf a4fe b3bf
00000260: ac44 013f 1300 36bf 277f 97bf 818c 213f
00000270: fc46 85bf 5cdf febf aac7 db3e e462 95bf
00000280: 9779 0cc0 fc91 063f 51e9 5cc0 5589 98c0
00000290: 69cb 3bbf 9457 7dc0 1e75 97c0 c4f0 cfbe
000002a0: 605e 7cc0 7da0 9bc0 5bb8 5cbf a5cc 7ac0
000002b0: e4bf 9dc0 8001 33bf 7908 50bf 099f b5bf
000002c0: 930f e03e 6b40 68bf 2ba5 a7bf 1167 ce3e
000002d0: e225 5fbf 4ad7 ebbf 2b84 143f d07f 9cbf
000002e0: 6ce1 c9bf 44c9 043f 4c78 1fbf 073a b6bf
000002f0: e43c 093f ce6b 54bf d84a 92bf 7e2d 083f
00000300: bfcb 2bbf dcd9 b3bf 57ef 1c3f ae6d 18bf
00000310: ef84 d9bf 4567 f23e 34f4 40bf 21ef c4bf
00000320: 0ff8 fd3e 37c5 3cbf 5528 ccbf 5ce1 d13e
00000330: 30d8 6bbf b959 ffbf 48d0 043f 2b42 44bf
00000340: 0662 bfbf bb0e d03e 0471 b4bf 5aca 1dc0
00000350: 93df 003f 0b5c 00c0 7148 52c0 0b47 e73e
00000360: b61a 79c0 0aa9 9bc0 530a 58bf 65db 71c0
00000370: ea8d 99c0 d1dd 1ebf b07e 21bf 4f8e 93bf
00000380: 3c2a 033f 3ef7 35bf 180f cbbf 1506 e43e
00000390: cbba b9bf 3a32 33c0 8ad5 af3e 666e f8be
000003a0: a13a f1bf a1c4 253f 49f4 7ebf e6c0 15c0
000003b0: d202 ce3e be47 b2bf 8bbd d0bf 63e2 ea3e
000003c0: e0ae 6bc0 fce2 97c0 83f7 39be 23d8 79c0
000003d0: e55d 8fc0 1218 04bf caa2 3cc0 dc0a 88c0
000003e0: c569 a53b 6472 53c0 f9c8 8fc0 6c6e b9be
000003f0: 9e93 4cc0 3f3b 8ac0 ed44 083e 38cd 56c0
-0.6999277 -1.0675341 0.44076303 -0.3747216 -1.2591325 0.53400487 -3.6934538 -4.5844693
-0.237964 -3.1427083 -4.50129 -0.2386158 -3.5765529 -4.3592415 -0.2704686 -3.488904
-4.3924456 0.06780335 -3.6487792 -4.8438993 -0.121669 -3.7586138 -4.549465 -0.4440739
-3.479645 -4.628167 -0.20996289 -3.5955148 -4.4408364 -0.63146174 -3.6106176 -4.4578347
-0.8488246 -3.914724 -5.090571 -0.5630004 -0.647032 -1.1534842 0.53413963 -0.50734836
-1.1268908 0.56667644 -2.4010625 -3.7047777 0.45437455 -1.8079815 -2.8560562 1.2196137
-3.2479477 -4.43687 -0.082157105 -3.7639422 -4.3981724 -0.31028268 -1.3762367 -2.4048414
0.38162202 -2.7291186 -3.8638685 0.47922012 -0.57202744 -1.5971106 0.4967706 -0.43721902
-1.6370026 0.51076114 -3.7519314 -5.065671 -0.9114656 -4.023887 -4.8244796 -0.6475013
-0.78333306 -1.8219478 0.48665276 -0.6233942 -1.2145561 0.48948047 -3.8990371 -4.8637547
-0.6700719 -3.9288435 -4.912869 -0.49928403 -0.75092983 -1.8115458 0.39169267 -0.52049094
-1.167165 0.49939921 -0.95861435 -3.8193269 0.16242768 -3.7010639 -4.7624893 -0.9315363
-3.536986 -4.2701616 -0.5301408 -3.5333326 -4.4109464 -0.13563502 -0.67281157 -1.8138746
0.6013049 -0.67973506 -1.6235927 0.4975357 -0.66166633 -1.4947112 0.49136227 -0.6507102
-1.3448461 0.5613284 -4.175551 -4.9698467 -0.86740386 -4.0987124 -4.858683 -0.6617544
-3.1685796 -4.465517 0.033644024 -3.4027333 -4.355105 -0.38810682 -1.8363547 -3.245387
0.35402247 -0.9025159 -2.4561985 0.6033637 -0.5917277 -1.4098618 0.4871379 -0.54577154
-1.0629878 0.5044325 -3.041647 -4.091998 0.11021058 -2.7977962 -4.0477996 0.07666903
-0.41411242 -1.4047701 0.5605387 -0.3691581 -1.1872826 0.5754728 -0.6597802 -1.4062085
0.5049541 -0.71093863 -1.1835679 0.63105017 -1.0412288 -1.9911914 0.4292577 -1.1670804
-2.1949213 0.52566504 -3.4517405 -4.766764 -0.73357254 -3.9584703 -4.7330465 -0.40613377
-3.9432602 -4.863341 -0.86218804 -3.9187405 -4.929674 -0.69924164 -0.8126293 -1.4189159
0.43761882 -0.90723294 -1.309728 0.40313008 -0.8716718 -1.8425076 0.5801417 -1.2226505
-1.5771918 0.51869607 -0.62292933 -1.4236459 0.53608537 -0.82976997 -1.142909 0.53194416
-0.67107767 -1.405086 0.61302704 -0.5954236 -1.6993693 0.47344413 -0.75372624 -1.5385476
0.49603316 -0.73738426 -1.5949808 0.40992248 -0.9212675 -1.9949256 0.5188031 -0.76663464
-1.4951789 0.40636238 -1.409699 -2.4654756 0.5034115 -2.0056179 -3.2856715 0.4517139
-3.8922553 -4.8643847 -0.84390754 -3.7790158 -4.7985735 -0.62057215 -0.63083935 -1.1527804
0.5123632 -0.71080387 -1.5863981 0.4453589 -1.451013 -2.7999406 0.34342605 -0.48521727
-1.8846017 0.64753157 -0.995915 -2.3398986 0.40236527 -1.3928144 -1.6307844 0.45875844
-3.6825485 -4.746458 -0.18160824 -3.903817 -4.4802117 -0.5159923 -2.9474359 -4.2513256
0.005048009 -3.3038568 -4.493283 -0.36217058 -3.1965098 -4.319732 0.13307543 -3.3562756

bayes_fc1.bias_mu f4 [64]
00000000: b928 43bd 2eaa 603c 5875 56bd b032 b3ba
00000010: 3333 12bd 6cad c5b9 6d18 27bc feac 8ebd
00000020: 1a03 18bd 824b 963c 083f a93b 4e9a 5dbd
00000030: 9bb1 91bc c998 1abb ab7a f0bc 2397 b33d
00000040: 0d6d 583d e882 c4bc f63c 84bc 2dfe e13c
00000050: 7ef0 893c 0353 d33c 94a7 08bc 5ff2 57bd
00000060: fe5a 1c3d 73de 353c 7685 d8bc 468a a23c
00000070: 9e5a 02bd a2a2 c1bb a77e aabc 755c a53a
00000080: 9960 833c 4062 6cbc 8633 12bb a450 223d
00000090: 3379 9dbc 6aa0 82bc dded a9bc 0cc8 333c
000000a0: 8733 a0bc 8fbd 6fbd 8cc5 22bd 5508 bb3c
000000b0: 10ba c0bb 4f0a 8f3c 05a1 4cbc 127d 49bc
000000c0: 5abc 983c a81c 5cba 7b3f babc b2bf 4fbb
000000d0: 2e12 d43c 8d85 433c fc36 13bd d990 ab3c
000000e0: d50d 033c 7a23 b53c 9325 5dbd bf59 2dbd
000000f0: feee fabc c4f1 d83b b89e 83bc b86b f5bc
-0.047646258 0.013712449 -0.052358 -0.0013671722 -0.03569336 -0.00037703977 -0.010198695 -0.069665894
-0.037112333 0.018346552 0.0051649846 -0.054102235 -0.017784884 -0.0023589602 -0.029355368 0.087690614
0.052838374 -0.023988202 -0.01614235 0.02758702 0.016838308 0.025796419 -0.008340735 -0.052721377
0.038172714 0.011100399 -0.026430827 0.019841325 -0.0318247 -0.00590928 -0.020812346 0.0012616055
0.016037272 -0.0144277215 -0.0022308542 0.039627686 -0.019222831 -0.015945632 -0.020743305 0.010972988
-0.01955582 -0.058530387 -0.039739177 0.022831121 -0.0058815554 0.01746097 -0.012489562 -0.0122978855
0.0186445 -0.0008396604 -0.022735348 -0.0031699953 0.025887575 0.011933696 -0.03594111 0.020943092
0.007998903 0.022111643 -0.05399091 -0.042321917 -0.030631538 0.0066206176 -0.016066894 -0.02995859

bayes_fc1.bias_rho f4 [64]
00000000: a731 51be c6ae bebf f286 a3bf 1c6c bcbf
00000010: fe45 c1bf 983c e8bf d6cd 84be 71af 12bf
00000020: 804b b3bf cf0f 2ebf f575 8dbe 0250 eabf
00000030: dbfb 8ebe 6c0d dcbf 9a3d 5dbe 36de 91bf
00000040: bf32 bfbf 5506 78be 1b16 62be 9c2e fcbf
00000050: 03ed acbf 51f0 0abf 8148 5abe 326c 8cbf
00000060: a163 42be 9490 38be f7e6 f1be a70d dbbf
00000070: 1d17 f6bf a4fb c0be f714 c1be c244 34be
00000080: c6c0 7fbe b06a 95be 2e70 b3be 853e 0ebf
00000090: 9bb6 e5bf db44 95be 8ddc ddbe 9b95 eabe
000000a0: 7560 d3bf ea5e b1bf 70b4 90bf cafd c3be
000000b0: 0506 30be ef6a 6dbe b550 01bf 4035 29bf
000000c0: 55e4 8abe 5894 84be 8221 acbe 5b4c d9be
000000d0: f8f6 64be d6bb fabf f782 93be ca85 d1bf
000000e0: 697d d9bf 1ea0 fabf 7fec 5cbf bc8d 1fbf
000000f0: 2e4b 7bbe bcc6 00c0 f2cc e1bf e4db c6be
-0.20429097 -1.4897087 -1.2775557 -1.4720492 -1.5099485 -1.8143492 -0.2593829 -0.5729895
-1.4007416 -0.6799287 -0.27629057 -1.8305666 -0.27926525 -1.7191596 -0.2160553 -1.1395938
-1.4937361 -0.24221165 -0.22078745 -1.9701724 -1.350983 -0.54272944 -0.2131672 -1.0970519
-0.18983318 -0.18023902 -0.47246525 -1.7113541 -1.9225804 -0.37691987 -0.37711307 -0.17604354
-0.24975881 -0.2918296 -0.35046524 -0.5556415 -1.7946352 -0.29154095 -0.4333233 -0.45817265
-1.6513811 -1.385709 -1.1305065 -0.38279563 -0.17189796 -0.23185323 -0.50513774 -0.6609688
-0.2712733 -0.25894427 -0.33619314 -0.42441067 -0.22359836 -1.9588573 -0.28810856 -1.6368954
-1.6991397 -1.9580114 -0.86298364 -0.62325644 -0.24540398 -2.0121298 -1.7640669 -0.38839638

bayes_fc1.prior_mu_old_bias f4 [64]
00000000: b928 43bd 2eaa 603c 5875 56bd b032 b3ba
00000010: 3333 12bd 6cad c5b9 6d18 27bc feac 8ebd
00000020: 1a03 18bd 824b 963c 083f a93b 4e9a 5dbd
00000030: 9bb1 91bc c998 1abb ab7a f0bc 2397 b33d
00000040: 0d6d 583d e882 c4bc f63c 84bc 2dfe e13c
00000050: 7ef0 893c 0353 d33c 94a7 08bc 5ff2 57bd
00000060: fe5a 1c3d 73de 353c 7685 d8bc 468a a23c
00000070: 9e5a 02bd a2a2 c1bb a77e aabc 755c a53a
00000080: 9960 833c 4062 6cbc 8633 12bb a450 223d
00000090: 3379 9dbc 6aa0 82bc dded a9bc 0cc8 333c
000000a0: 8733 a0bc 8fbd 6fbd 8cc5 22bd 5508 bb3c
000000b0: 10ba c0bb 4f0a 8f3c 05a1 4cbc 127d 49bc
000000c0: 5abc 983c a81c 5cba 7b3f babc b2bf 4fbb
000000d0: 2e12 d43c 8d85 433c fc36 13bd d990 ab3c
000000e0: d50d 033c 7a23 b53c 9325 5dbd bf59 2dbd
000000f0: feee fabc c4f1 d83b b89e 83bc b86b f5bc
-0.047646258 0.013712449 -0.052358 -0.0013671722 -0.03569336 -0.00037703977 -0.010198695 -0.069665894
-0.037112333 0.018346552 0.0051649846 -0.054102235 -0.017784884 -0.0023589602 -0.029355368 0.087690614
0.052838374 -0.023988202 -0.01614235 0.02758702 0.016838308 0.025796419 -0.008340735 -0.052721377
0.038172714 0.011100399 -0.026430827 0.019841325 -0.0318247 -0.00590928 -0.020812346 0.0012616055
0.016037272 -0.0144277215 -0.0022308542 0.039627686 -0.019222831 -0.015945632 -0.020743305 0.010972988
-0.01955582 -0.058530387 -0.039739177 0.022831121 -0.0058815554 0.01746097 -0.012489562 -0.0122978855
0.0186445 -0.0008396604 -0.022735348 -0.0031699953 0.025887575 0.011933696 -0.03594111 0.020943092
0.007998903 0.022111643 -0.05399091 -0.042321917 -0.030631538 0.0066206176 -0.016066894 -0.02995859

bayes_fc1.prior_sigma_small_bias f4 [64]
00000000: 2fa1 183f 822d 503e 26c2 7b3e 4d87 533e
00000010: 7565 4c3e db93 1a3e 4064 123f e0ef e43e
00000020: a88e 613e 32dd d13e f983 103f 5444 183e
00000030: f32f 103f 8bce 283e 0e48 173f ad20 8e3e
00000040: 996b 4f3e bb50 143f dcbd 163f d1a9 053e
00000050: 69d5 6b3e c593 ea3e 939c 173f 3a7e 933e
00000060: 694c 1a3f ca69 1b3f 7b18 f83e 8d06 2a3e
00000070: c6c0 0b3e 2fb8 053f 08b3 053f 0de7 1b3f
00000080: b077 133f a1ce 0e3f 217f 083f 4228 e83e
00000090: 1e6e 1d3e b7d6 0e3f 8ce2 ff3e 15eb fa3e
000000a0: b4a9 333e 6f9e 643e 6442 8f3e c81b 053f
000000b0: 1c63 1c3f 1d7c 153f 62bc f13e 2726 d53e
000000c0: 0412 113f c570 123f 4c03 0a3f a4d7 003f
000000d0: f16b 163f 9916 073e 0137 0f3f 8210 363e
000000e0: f3f2 2b3e 0332 073e b038 b43e 61ce db3e
000000f0: cff4 133f 6780 003e 21f3 213e 3587 043f
0.59620947 0.2032986 0.2458578 0.20657082 0.19960578 0.15095465 0.5718422 0.4471426
0.22027075 0.4098907 0.56451374 0.14869815 0.56323165 0.1648504 0.5909432 0.27759305
0.20255889 0.57935685 0.5888345 0.13053061 0.23030628 0.45815864 0.5922329 0.2880724
0.6027284 0.60708296 0.48456177 0.16604061 0.13647756 0.52234167 0.52226305 0.6089943
0.57604504 0.5578404 0.53318983 0.45343214 0.15374038 0.5579638 0.4997753 0.49007478
0.17545205 0.22326063 0.2798034 0.51995516 0.6108873 0.58392507 0.47214037 0.4163067
0.56668115 0.5720332 0.5391128 0.5032904 0.58758456 0.13192214 0.55943304 0.17779735
0.16791897 0.13202672 0.351995 0.42930892 0.57795423 0.12548982 0.15815403 0.5176881

bayes_fc1.prior_mu_old f4 [64, 6]
00000000: 2337 3abf ab6e 45bf 848b 8ebe c9be 39bf
00000010: 7189 18bf 1541 7bbe 5097 093f 896a c3bd
00000020: 5407 e43f 7499 d1be a8c0 d93d 6b53 8dbf
00000030: c9b7 bebe 119d 533e 0290 b2bf 7cdd b93e
00000040: 54d7 1bbe 2f63 473f e2f6 bcbe 87f2 3b3e
00000050: 9e26 aebf bd98 db3e 6b49 edbd 7432 993e
00000060: e447 bcbe 1cbb 4e3e a5c8 b2bf 7958 ca3e
00000070: b298 12be 0e99 f93e 79fb 893e a3f9 fbbd
00000080: 98b9 0140 be0b a6be 669e 3a3e 50f6 89be
00000090: d908 3ebf 9db2 1abf 9c6d 6dbe 2238 20bf
000000a0: 36fc 1fbf 55fb 88be 62fb efbe c475 893e
000000b0: da48 1cbf 0610 a9be 756f 8fbe 7089 a03f
000000c0: 73f8 96be b86a e13d 3bcb e0bf 09fc 053f
000000d0: f0ff 04be 51af 8c3e 3d60 60bf 075d 98be
000000e0: 4f5e edbe 4db5 37be 658b da3d 53ec 9b3e
000000f0: cd70 17bf e832 d6be a723 eebd b18c 27bf
00000100: b13d 94be 3294 16be d396 64be 9d6c b53d
00000110: 0de8 11c0 868d f73e 3607 9bbd f3ed e2be
00000120: 7fb7 2ebf 3516 abbe 1b15 27be 08e4 1abf
00000130: 500f 2dbf 5b1a 7abe bfec ec3e 3db5 03be
00000140: b33a b23f 8f9f c2be 6af8 2b3e 9bc9 54bf
00000150: c35b f1be 6c07 9bbe d1be 6abe 010f 0cbf
00000160: 0fe4 26bf 2e13 3ebe e2dd 70bf ad7d 50be
00000170: 4224 8abf cae0 88bd e824 103d 56b0 543f
00000180: 23c1 b73e 7ef1 11be d199 2840 c544 bdbe
00000190: 4493 333e 94d1 7cbe 7acf 0ebf 6939 66be
000001a0: b2d5 29be d435 28bf b12f d7be 6541 30be
000001b0: 9df2 25bf 0a17 eabe f413 45be 3da1 31bf
000001c0: 2805 13bf ca74 82be ac46 a23e 8daa d8bd
000001d0: b5c3 d33f 189b c9be ae52 313e 66e3 24bf
000001e0: 686e 92be 1f2e 523d 1c13 c0bf 46b0 c33e
000001f0: 0cec d4bd 6cf3 093f 9378 c7be 6a17 ea3d
00000200: 6d14 9cbe 69c1 09bf 982a 5fbe de37 813d
00000210: 7900 08bf 9f5c e3be 6d05 bcbd 4cc6 4bbf
00000220: 7ac7 38bf 9319 8dbd 6b90 b8be ad43 1c3e
00000230: cdbd 8fbf cfdd e73e 4d5e 04be ce5b 253f
00000240: a42b eabe 6005 09bf c99d c6bd 4396 2bbf
00000250: d764 19bf a0df 44be 1d5a fdbe 8864 eabe
00000260: cdbe a1bd 55a7 c7be da50 18bf 8c7f 87bd
00000270: dc41 0dbf ccda babe 93d4 7cbe 1a58 07bf
00000280: bb3c 8fbe 4b28 95be 6c6b 8c3e 1676 00be
00000290: 80af f43f 4b99 b4be c561 323e c841 86bd
000002a0: 7e65 a93e ed76 f8bd e0e7 be3f 2239 8ebe
000002b0: 1fa2 163e ec96 ecbe 0543 15bf 433c 11bf
000002c0: 7da8 54be 93c9 1bbf b4f0 0dbf b39c 65be
000002d0: 4c59 13bf fa99 c1be ee32 78be 5ec4 c7be
000002e0: 2ea3 e5be 97b0 a0be bf0f 22bf cf88 eabe
000002f0: e4a1 24be 0188 0abf 5b49 29bf 7783 9dbe
00000300: 9ceb 05bf 2781 d4be 5807 5bbe 3397 f8be
00000310: 77db c5be af18 78be 5880 18bf 5c13 e3be
00000320: 5a37 41be ce14 10bf 6732 e9be 7b83 36be
00000330: 3bc8 cebe 4f57 5fbe 9734 1ebe 9435 19bf
00000340: 61e9 14bf c56e 03be 96d2 d4be 4d6a 87be
00000350: 1cdb c53d 8c59 d3be 16d0 043e b9e0 3a3e
00000360: 4613 dbbe b91f 7b3e 05ff d5bf c31e a73e
00000370: feec f5bd 56ee 663e 9299 37bf a7df 18bf
00000380: c92c 6cbe 7b5d 29bf f6cf ebbe 97ff 52be
00000390: 5fa3 0bbf c4a1 a73d c605 13be 1215 afbe
000003a0: 42db b5be 2a8e 403e c4f4 adbe f71a 66be
000003b0: 04dd 70be ffea 9bbe 67f9 bbbe 7c43 15be
000003c0: ba4f b0be 5fa0 353e 83de b0bf 4797 b43e
000003d0: 5669 debd 619e 033f 19ff a2be 7a3f 003e
000003e0: 3d6c ddbf 0554 e83e 213f f0bd c554 dc3e
000003f0: 39f9 94be 0151 b53d e0a5 b2bf a498 093f
-0.7274038 -0.7712199 -0.27840817 -0.7255674 -0.5958472 -0.24536546 0.5374651 -0.09541804
1.7814736 -0.40937388 0.106324494 -1.1041082 -0.37249592 0.20665385 -1.3950198 0.36301792
-0.1521886 0.7788572 -0.36907107 0.18354236 -1.3605535 0.42889968 -0.11586269 0.29921305
-0.36773598 0.20188564 -1.3967482 0.39520624 -0.14316061 0.48749584 0.2694967 -0.12303474
2.0269527 -0.32430834 0.18224487 -0.26945734 -0.7423225 -0.6042879 -0.23186344 -0.6258565
-0.6249422 -0.2675425 -0.46871477 0.2684766 -0.6104866 -0.33020037 -0.28014722 1.2541943
-0.29486427 0.11006683 -1.7562021 0.523377 -0.12988257 0.27477506 -0.8764685 -0.29758474
-0.46361014 -0.17940255 0.10671119 0.3045374 -0.59156495 -0.41835713 -0.11627894 -0.65449053
-0.28953317 -0.1470497 -0.2232316 0.08858607 -2.2797883 0.4835016 -0.07569735 -0.44322166
-0.6824874 -0.3341538 -0.16316645 -0.605042 -0.6760149 -0.24424116 0.46274373 -0.12862106
1.3924164 -0.3801236 0.16793981 -0.83120126 -0.4714032 -0.302791 -0.22924353 -0.54710394
-0.6519174 -0.18562004 -0.94088566 -0.20360442 -1.0792315 -0.066835 0.035191447 0.8308157
0.3588954 -0.14252278 2.6343882 -0.3696653 0.17536646 -0.24689323 -0.55785334 -0.22482838
-0.16585425 -0.65707135 -0.42028573 -0.17212446 -0.64823323 -0.45720702 -0.19245893 -0.69386655
-0.5742974 -0.25479728 0.31694543 -0.10579405 1.65441 -0.3937614 0.17316696 -0.6440948
-0.28599858 0.051313516 -1.5005832 0.38220423 -0.10396585 0.5388706 -0.38959178 0.11430247
-0.30484334 -0.53810745 -0.21793592 0.06309484 -0.5312572 -0.44406602 -0.091807224 -0.7959945
-0.7217938 -0.068896435 -0.36047682 0.15260191 -1.1229798 0.45286414 -0.12926598 0.6459321
-0.4573642 -0.53523827 -0.09698064 -0.67026156 -0.59919494 -0.19225931 -0.49482813 -0.45779824
-0.078977205 -0.38994852 -0.5949837 -0.066161245 -0.5517862 -0.36495054 -0.24690466 -0.5286881
-0.2797602 -0.29132304 0.27425706 -0.12545046 1.9116058 -0.35273203 0.17420109 -0.065555155
0.33085245 -0.12132058 1.4914513 -0.27777964 0.14710282 -0.46208894 -0.5830539 -0.5673258
-0.20767398 -0.6085445 -0.5544541 -0.22423057 -0.5755813 -0.37812787 -0.24238178 -0.39017004
-0.4485106 -0.31384727 -0.63305277 -0.45807502 -0.16077381 -0.54113775 -0.66127557 -0.30764362
-0.52312636 -0.41504785 -0.2138952 -0.48552856 -0.38644 -0.24228166 -0.5957084 -0.44350708
-0.18868771 -0.56281745 -0.45546266 -0.17823593 -0.4038714 -0.2181065 -0.15449749 -0.5984738
-0.5816861 -0.12835224 -0.41566914 -0.2644829 0.096609324 -0.41279256 0.12970003 0.18249787
-0.42788142 0.2452382 -1.6718451 0.32640657 -0.12008093 0.22551855 -0.71718705 -0.59716266
-0.23063959 -0.66158265 -0.460571 -0.20605312 -0.5454616 0.08185151 -0.14357671 -0.34195763
-0.35518843 0.18804231 -0.33975804 -0.22471224 -0.23521811 -0.30452725 -0.36713716 -0.14576524
-0.34435827 0.17736958 -1.3817905 0.35271665 -0.10859935 0.5141354 -0.3183525 0.12524214
-1.7298657 0.45376602 -0.11730791 0.43033424 -0.29096392 0.08853341 -1.3956871 0.53748536

bayes_fc1.prior_sigma_small f4 [64, 6]
00000000: 8c71 ce3e 5d51 973e c607 703f d7f2 053f
00000010: 6fe6 7f3e 2bd1 7e3f b45e c93c 3e6b 263c
00000020: 49cb 143f e318 2d3d 33c6 343c 76b8 143f
00000030: fdff e13c 0d31 503c d528 113f ee64 f63c
00000040: 156f 493c 8845 3a3f ee73 d23c 1b8a 003c
00000050: 7058 223f f1cf bc3c fc50 2c3c 1cba fd3e
00000060: dba6 f83c 7e56 1f3c 82fa 173f d9cf dd3c
00000070: 56f9 3f3c fe57 da3e f187 da3c c3c1 3c3c
00000080: 1962 b63e 32ca a13c 820d c93b 73c9 e63e
00000090: 0d97 d73e ae69 8c3e bcd6 7e3f 6b4f f13e
000000a0: 37b6 8f3e 8f0f 823f d8a8 b13d 3d21 c73c
000000b0: fa27 723f 627e 1b3e 81fa 643d e43b bd3f
000000c0: ad21 1c3d 81bb 403c 3f25 273f ffd1 bb3c
000000d0: 674a 483c 4bcc 0c3f 2f91 663e 8104 b13d
000000e0: f6ec 663f 2e81 813d bc24 aa3c c110 763f
000000f0: 5c1d e53e ddcf 3c3e 73d9 783f f119 ff3e
00000100: ee0b 363e fc14 7b3f 4a10 be3c 1d1b ce3b
00000110: 19fb ac3e a034 913c cd0c 033c eb81 d73e
00000120: 15aa c03e ab7d 193e 003e 773f 14c8 db3e
00000130: cb15 853e d6b0 773f 8552 a43c 530b fc3b
00000140: 1291 d33e 1f8b 9f3c 2c02 f03b a8dd f23e
00000150: deec c53e f3fa 1a3e f875 683f aeca ee3e
00000160: d0bd 8a3e 9b44 793f eb2c a63e 4ccf b13c
00000170: 6a14 473f 9edc c73c 3665 0b3c 420e aa3e
00000180: e0fd ea3c 5074 633c a8f4 ec3e edd6 eb3c
00000190: 80c3 453c 32ac 203f a317 d33e 4aa5 1a3e
000001a0: 05e8 843f bbe5 d13e b44b 383e a1f8 783f
000001b0: 0607 d53e c13c 4f3e 52fd 773f 92f1 d63e
000001c0: 2621 6d3e dd9f 813f 82da 793c f2c2 e23b
000001d0: 0c8d b33e 9ed2 863c 2152 fd3b 1903 d53e
000001e0: 28c4 283d 1252 3b3c d0c9 353f b51a 063d
000001f0: 920c 513c e18e 043f 3473 173e 3886 1c3d
00000200: 1ac0 623f 7d4c ae3e b282 a83d 9d13 853f
00000210: a77f e13e b9b7 5f3e b251 773f 5b01 ea3e
00000220: 18ea 973e 1412 7a3f 0315 3f3d 39b9 873c
00000230: edf0 3f3f 0251 723d d6cd 8d3c 8772 3b3f
00000240: 5fe3 013f 37be 603e 638f 813f a087 063f
00000250: b250 883e bfc7 823f 395b d53e f473 603e
00000260: 6527 7a3f 6794 cc3e aac2 883e ee60 873f
00000270: 42cc 9a3e be0d 033e 093e 6e3f 72c0 8a3e
00000280: 2440 d83d 2379 7d3f 5094 ff3c a1cd 0a3c
00000290: 9bca c83e 06ee 9a3c d98a 0f3c f1b3 023f
000002a0: 1a48 9d3c ef25 fc3b a357 b43e cc25 a13c
000002b0: ee05 ec3b 648f ce3e f101 bc3e 9be7 5d3e
000002c0: 7a8a 6f3f 659a ad3e daaa 743e 4136 6a3f
000002d0: d3e7 b23e 0a96 163e bf29 833f b323 843e
000002e0: 6c46 403e 795a 7c3f 58dd db3e 7df6 5c3e
000002f0: 2727 7f3f 9053 b93e 7bb7 8d3e 107c 7e3f
00000300: 7664 d33e e6ad 603e a7e0 853f 48d3 e03e
00000310: a5e9 2b3e 3f27 753f 7677 c53e ad28 473e
00000320: 69bb 783f bb28 c83e f62d 3d3e 7541 6b3f
00000330: 0b8c ab3e 5798 023e df5e 7c3f 675c c33e
00000340: 4a26 4f3e 51b5 6a3f 1ac0 5f3e 2704 a73d
00000350: 5de8 793f 4e4a 013e cb74 163d 5fbd 713f
00000360: e86d a53c d9e2 fb3b 9223 b73e ba0a b93c
00000370: ac79 063c 4a49 dc3e 5274 da3e d07f 8c3e
00000380: a056 7b3f 399a cc3e d6aa 3e3e 33bf 703f
00000390: 5495 573e facf 713d f228 613f 1d99 f53e
000003a0: 20cc 103e 74c2 883f 0df4 a03e 635d bc3d
000003b0: 3718 6a3f cc2a 633e 1d16 373e ddd7 723f
000003c0: fe8c cb3c 6aa3 0d3c f840 1b3f ec8b a33c
000003d0: 799a 383c c6a6 ef3e 057c 513d b4bf 673c
000003e0: b717 323f 0fcb 133d 2d38 363c 3143 073f
000003f0: af35 243d cc86 583c ad0b 433f 995f 0c3d
0.40321004 0.29554263 0.9376186 0.5232367 0.24990247 0.99537915 0.02458129 0.0101574045
0.5812269 0.042260062 0.0110335825 0.58093965 0.027587885 0.012707007 0.5670293 0.030077424
0.01229455 0.72762346 0.025690045 0.007845427 0.63416195 0.023048373 0.010517355 0.49556053
0.030353 0.009725211 0.5936662 0.027076649 0.011717161 0.42645258 0.02667615 0.011520806
0.35621718 0.019749735 0.0061356435 0.4507557 0.4210743 0.27424377 0.9954641 0.47130904
0.28068706 1.0160998 0.086747825 0.024307841 0.9459225 0.1518493 0.05590296 1.4783902
0.038118053 0.011763454 0.6529121 0.022927282 0.01222477 0.54999226 0.2251632 0.08643437
0.90205324 0.06323467 0.02076947 0.96119314 0.44748962 0.18438669 0.972068 0.4982448
0.17777988 0.98078895 0.023201127 0.0062898532 0.33785322 0.017725289 0.007998657 0.42091307
0.37629762 0.14989345 0.9657898 0.42926085 0.2599319 0.96754205 0.02005888 0.0076917796
0.41321617 0.019475518 0.0073244777 0.47434735 0.38657278 0.15134792 0.90805006 0.46639007
0.2709794 0.9737031 0.32456145 0.021705292 0.77765524 0.02439719 0.008508017 0.33214003
0.02868551 0.0138827115 0.46280408 0.028789008 0.012070537 0.6276275 0.4122897 0.15102115
1.0383307 0.40995583 0.17997628 0.9725438 0.4160692 0.2023802 0.9687091 0.4198118
0.23157176 1.0126911 0.01524985 0.006920212 0.35068548 0.016457852 0.007730738 0.41603926
0.041202694 0.011433141 0.71011066 0.032740314 0.012759345 0.51780516 0.1479004 0.03821394
0.88574374 0.3404273 0.08228053 1.039661 0.44042704 0.21847428 0.9660903 0.4570416
0.29670787 0.97683835 0.046650898 0.016567813 0.74977 0.059159286 0.017310064 0.7322163
0.50737566 0.21947561 1.0121883 0.525507 0.26624066 1.0217208 0.4167116 0.21919233
0.9771636 0.39956972 0.26711017 1.0576456 0.3023396 0.12798211 0.9306341 0.2709995
0.10559109 0.99012965 0.03119865 0.008471877 0.39217076 0.018912327 0.008761131 0.5105582
0.01919942 0.0076949517 0.35223112 0.019671343 0.0072028553 0.40343773 0.3672023 0.21670382
0.93570673 0.33906856 0.238933 0.91489035 0.34942493 0.14705673 1.0247115 0.25808486
0.18776864 0.9857555 0.4294231 0.21578403 0.99669117 0.36196566 0.27679047 0.99408054
0.41287583 0.21941337 1.0459183 0.43911195 0.16788347 0.9576301 0.38567704 0.1944911
0.97160965 0.39093575 0.18474564 0.91896755 0.33505282 0.12753426 0.9858226 0.38156435
0.2022945 0.91682917 0.21850625 0.08155089 0.97620183 0.12626001 0.036732476 0.9442958
0.020194009 0.0076869545 0.35769325 0.022588123 0.00820772 0.43024665 0.4266687 0.27441263
0.98179054 0.39961413 0.18619856 0.94041747 0.21053058 0.059036233 0.879531 0.4796838
0.14140368 1.0684342 0.31436196 0.091974996 0.914432 0.22184294 0.1787953 0.9486063
0.024847504 0.008644918 0.6064601 0.01996418 0.011267298 0.46806926 0.051143665 0.014144827
0.69567436 0.036082324 0.011121792 0.528369 0.04009026 0.013215732 0.7618969 0.034270857

bayes_fc2.weight_mu f4 [1, 64]
00000000: eae0 ac3b 7336 573d 2711 1dbd 09d2 37bd
00000010: ec33 2dbd a42f 803d 5be1 55bd a0c0 33bd
00000020: 0de5 50bd e590 c13d d181 e7bc 3f75 a9bd
00000030: 87c9 ddbc eeff 853d 8b58 41bd 806c bf3e
00000040: aab0 3d3d 266b 383a fd0f 473d c4c9 7e3d
00000050: 9c55 98bd 61b3 63bd 73eb 363c 3d06 14bd
00000060: 384c c63b 280c 5fbd 349a 42bc fca1 4d3d
00000070: bffa 9f3d 3193 833c ac06 b23c 1a45 053d
00000080: 7ebc 95bc fc21 143d fcbe 7cbc dbc0 933d
00000090: 047f 72bd b3ae 013e 0312 8fbc ba4b 2c3e
000000a0: 8e52 59bd e200 55bd 26af 2fbd c8ce f53c
000000b0: dd41 d23c c2a0 14be 3f5d 513d 10ec 13bd
000000c0: e8c2 e13c a6ed 0cbb 7fdf 9c3c 5428 88bc
000000d0: 1444 b0bd fe51 883d 1633 95bd 2436 7e3d
000000e0: 2356 a03d 73c9 823d a56d e33d 5a83 9a3d
000000f0: 38c0 1a3e 739d 943d 1956 84bd 0dad a13c
0.0052758353 0.05254216 -0.038346436 -0.04487804 -0.042285845 0.06259087 -0.05221687 -0.043884873
-0.05099969 0.094514646 -0.028260143 -0.08274316 -0.027073635 0.06542955 -0.04720358 0.37387466
0.046311058 0.00070350093 0.048599232 0.062204137 -0.07438204 -0.05559099 0.011164534 -0.03613876
0.0060515665 -0.054454952 -0.011877585 0.05020331 0.07811498 0.016061397 0.021731697 0.032536604
-0.018278357 0.036165223 -0.015426394 0.07214519 -0.059203163 0.12664299 -0.017464643 0.16825762
-0.053057246 -0.052002795 -0.042891644 0.030005828 0.025666172 -0.14514449 0.051114317 -0.0361138
0.027558759 -0.0021503954 0.01914954 -0.016620792 -0.08606735 0.06656264 -0.072851345 0.06206335
0.07828929 0.0638608 0.111048974 0.075445846 0.15112388 0.072565936 -0.06461734 0.019735837

bayes_fc2.weight_rho f4 [1, 64]
00000000: 9023 94bf 0a7a b4c0 b851 b0c0 b44e b3c0
00000010: ca21 aec0 bcac b0c0 0f52 97bf 4bd1 99c0
00000020: df32 acc0 ce81 67c0 26a3 4fc0 a185 aec0
00000030: 6c30 e3bf 4fd4 b3c0 d775 f4bf bb4b 61c0
00000040: 76e8 aec0 ce8f 1ac0 3b87 d0bf ba93 aac0
00000050: b362 9ac0 d9c4 39c0 189b 0fc0 3ec9 abc0
00000060: 645f 09c0 89ab 19c0 e602 92be 0df8 a9c0
00000070: 3147 afc0 f49f 32bf 517d 9ebf 664a ccbf
00000080: ced6 29c0 8db9 76bf a412 18c0 3b9d 81c0
00000090: b1f1 b0c0 03ec 0fbf de23 8cc0 fa16 17bf
000000a0: 89a8 afc0 de0d a4c0 3e09 acc0 0dcf 15c0
000000b0: e570 18c0 2c06 acbf 2aeb c1bf 0d36 a5c0
000000c0: a387 99bf 9bc1 35c0 2f27 19c0 fbdd 6bc0
000000d0: b2ee fcbf 38e3 afc0 361f 2ebf 212d acc0
000000e0: c5a1 afc0 9288 adc0 2da9 7ec0 6eb1 87c0
000000f0: cfcf 6cbf daef acc0 0b52 adc0 beb3 23c0
-1.1573353 -5.6398973 -5.5099754 -5.6033573 -5.4416246 -5.5210857 -1.1821917 -4.8067985
-5.38121 -3.6172976 -3.2443328 -5.453812 -1.7749152 -5.6196666 -1.9098462 -3.5202472
-5.4658766 -2.4150271 -1.6291269 -5.330533 -4.8245482 -2.9026396 -2.2438412 -5.3683157
-2.1464472 -2.4010947 -0.28517836 -5.3115296 -5.4774404 -0.6977532 -1.2381994 -1.5960205
-2.6537356 -0.9637688 -2.3761377 -4.050443 -5.5295033 -0.562195 -4.3793783 -0.59019434
-5.489323 -5.126693 -5.376128 -2.3407624 -2.3818905 -1.3439384 -1.5149891 -5.162848
-1.1994518 -2.8399417 -2.3930166 -3.6854236 -1.9760344 -5.4964867 -0.68016374 -5.380509
-5.4884973 -5.422921 -3.9790757 -4.240409 -0.9250459 -5.4042788 -5.416265 -2.5578456

bayes_fc2.prior_mu_old f4 [1, 64]
00000000: eae0 ac3b 7336 573d 2711 1dbd 09d2 37bd
00000010: ec33 2dbd a42f 803d 5be1 55bd a0c0 33bd
00000020: 0de5 50bd e590 c13d d181 e7bc 3f75 a9bd
00000030: 87c9 ddbc eeff 853d 8b58 41bd 806c bf3e
00000040: aab0 3d3d 266b 383a fd0f 473d c4c9 7e3d
00000050: 9c55 98bd 61b3 63bd 73eb 363c 3d06 14bd
00000060: 384c c63b 280c 5fbd 349a 42bc fca1 4d3d
00000070: bffa 9f3d 3193 833c ac06 b23c 1a45 053d
00000080: 7ebc 95bc fc21 143d fcbe 7cbc dbc0 933d
00000090: 047f 72bd b3ae 013e 0312 8fbc ba4b 2c3e
000000a0: 8e52 59bd e200 55bd 26af 2fbd c8ce f53c
000000b0: dd41 d23c c2a0 14be 3f5d 513d 10ec 13bd
000000c0: e8c2 e13c a6ed 0cbb 7fdf 9c3c 5428 88bc
000000d0: 1444 b0bd fe51 883d 1633 95bd 2436 7e3d
000000e0: 2356 a03d 73c9 823d a56d e33d 5a83 9a3d
000000f0: 38c0 1a3e 739d 943d 1956 84bd 0dad a13c
0.0052758353 0.05254216 -0.038346436 -0.04487804 -0.042285845 0.06259087 -0.05221687 -0.043884873
-0.05099969 0.094514646 -0.028260143 -0.08274316 -0.027073635 0.06542955 -0.04720358 0.37387466
0.046311058 0.00070350093 0.048599232 0.062204137 -0.07438204 -0.05559099 0.011164534 -0.03613876
0.0060515665 -0.054454952 -0.011877585 0.05020331 0.07811498 0.016061397 0.021731697 0.032536604
-0.018278357 0.036165223 -0.015426394 0.07214519 -0.059203163 0.12664299 -0.017464643 0.16825762
-0.053057246 -0.052002795 -0.042891644 0.030005828 0.025666172 -0.14514449 0.051114317 -0.0361138
0.027558759 -0.0021503954 0.01914954 -0.016620792 -0.08606735 0.06656264 -0.072851345 0.06206335
0.07828929 0.0638608 0.111048974 0.075445846 0.15112388 0.072565936 -0.06461734 0.019735837

bayes_fc2.prior_sigma_small f4 [1, 64]
00000000: caf0 8b3e b373 683b 8f51 843b 4216 713b
00000010: a2a8 8d3b 0bdc 823b f8ec 883e d460 053c
00000020: e975 963b 5f18 d93c b1af 1c3d 46f2 8b3b
00000030: 0d55 203e a631 6d3b 036d 0d3e aae6 ee3c
00000040: 8e45 8a3b 5e4c af3d 4e5d 373e 5a43 9e3b
00000050: 820a 033c 78d4 5a3d d76d ce3d 9f68 983b
00000060: 1c6b e23d 71a7 b13d 5a89 0f3f bc4a a13b
00000070: 6eaf 883b 31d0 ce3e e456 823e 0100 3d3e
00000080: 974e 8b3d 0572 a53e 29f3 b53d d26e 8d3c
00000090: cbc3 813b c4ef e63e 2311 4c3c 48c7 e13e
000000a0: f212 873b e8f0 c13b b139 973b 9c35 bc3d
000000b0: 6ef3 b43d 5c52 6d3e db76 4b3e ed12 bb3b
000000c0: 98dd 863e 3a98 683d a708 b33d 39f9 ca3c
000000d0: 41ee 043e a01c 863b d6d2 d13e db90 963b
000000e0: 752f 873b c853 903b 95cc 973c 4846 6a3c
000000f0: 3dff aa3e 7b09 933b fd49 913b d4d0 983d
0.27332145 0.0035469353 0.004038043 0.0036786948 0.004323081 0.0039935163 0.26743293 0.008140761
0.0045916927 0.026500879 0.03825349 0.0042708246 0.15657444 0.0036192923 0.13811116 0.029162724
0.0042197173 0.08559488 0.17906687 0.0048298063 0.007998111 0.053425282 0.10079544 0.0046511437
0.11055586 0.08674515 0.56068957 0.004922239 0.0041713035 0.40393212 0.25456917 0.18457033
0.06802099 0.32313552 0.0888427 0.017264757 0.003960108 0.45104802 0.012455258 0.44097352
0.0041221315 0.005918611 0.0046150316 0.09189913 0.08835493 0.23175949 0.19869559 0.0057090432
0.26340938 0.0567858 0.08741885 0.024777042 0.12981512 0.004092768 0.40981168 0.004594905
0.0041255304 0.0044045188 0.01853017 0.014298983 0.33397856 0.004487214 0.004433869 0.07461706
