models/updated_hmnn_model_2003_2017.pth (torch, 14090 bytes, 12 tensors)

bayes_fc1.weight_mu f4 [64, 6]
-0.7705729 -0.78960043 -0.29197574 -0.80899775 -0.61424935 -0.18810053 0.54643124 -0.09737422
2.2083097 -0.41392484 0.096475765 -0.87100357 -0.37738258 0.20161088 -1.4788668 0.36667046
-0.1568521 0.7278903 -0.37547842 0.17433867 -1.4568615 0.42858255 -0.12470037 0.30534667
-0.36833358 0.20099954 -1.6704372 0.4018635 -0.13908122 0.3984461 0.27460837 -0.11863538
2.1616566 -0.3248089 0.17876689 -0.28844228 -0.82768613 -0.6907897 -0.2496223 -0.7600945
-0.6677622 -0.25395086 -0.46595153 0.24922916 -0.73174757 -0.32216322 -0.31498942 0.9623125
-0.29724 0.10170241 -1.8880621 0.5205384 -0.13786067 0.30859324 -0.8864151 -0.27456492
-0.5446788 -0.19968797 0.08696206 0.13518843 -0.6354513 -0.4744974 -0.024851846 -0.5614088
-0.2777764 -0.17635496 -0.2183075 0.09848421 -2.4867392 0.4904539 -0.06435697 -0.62643236
-0.6971304 -0.30454922 -0.12483457 -0.65306854 -0.5878914 -0.16896139 0.45540234 -0.13439
1.5492173 -0.38979205 0.16033646 -0.8279709 -0.5529864 -0.38292006 -0.17159164 -0.6531809
-0.70997316 -0.23290795 -0.97828805 -0.18530196 -1.1291882 -0.07876867 0.038100388 0.74886173
0.36371684 -0.13217215 2.867846 -0.37389582 0.1720438 -0.21166034 -0.5500304 -0.23860237
-0.085271254 -0.6951883 -0.44288042 -0.09712131 -0.74849766 -0.41661108 -0.09092638 -0.7134901
-0.53215873 -0.23350988 0.32135662 -0.108067505 1.8087113 -0.39245576 0.17466792 -0.6228737
-0.25015253 0.049055997 -1.4735991 0.39951682 -0.1123956 0.62045306 -0.40630677 0.1141673
-0.33869782 -0.5893182 -0.28053743 -0.005838257 -0.55011225 -0.48690277 -0.1492476 -0.7726836
-0.7642971 -0.08787645 -0.3566945 0.1455401 -1.2513556 0.49120596 -0.12055577 0.5930203
-0.5434749 -0.62792015 -0.09747328 -0.7778681 -0.6767844 -0.15334454 -0.59803724 -0.5153665
-0.09388178 -0.49952185 -0.6335381 -0.07511885 -0.60687697 -0.3706864 -0.20155531 -0.57598966
-0.28838295 -0.27175102 0.28875396 -0.12873481 2.1051693 -0.35806975 0.16958281 -0.11601342
0.33099708 -0.12161816 1.697353 -0.30585256 0.14039257 -0.49404368 -0.6463993 -0.57792974
-0.21860585 -0.6532639 -0.58248603 -0.20503792 -0.51856196 -0.3829402 -0.1817714 -0.45849535
-0.45686418 -0.30614746 -0.67195576 -0.46994755 -0.15736477 -0.5432838 -0.7035098 -0.3769801
-0.5659832 -0.4398361 -0.116939075 -0.54325867 -0.3222981 -0.21501972 -0.6646242 -0.5093937
-0.18527006 -0.68516403 -0.5151031 -0.2321451 -0.42954212 -0.24014106 -0.17164601 -0.585255
-0.57397723 -0.114421315 -0.41991213 -0.25635982 -0.083163306 -0.4457988 0.10177 -0.020725315
-0.4162608 0.25138986 -1.814998 0.34500822 -0.112795435 0.081420854 -0.83032525 -0.6806564
-0.18179749 -0.7130125 -0.43515214 -0.25774154 -0.54168653 0.08118617 -0.07555836 -0.37227026
-0.36272898 0.13739236 -0.43961596 -0.25007305 -0.21384628 -0.36749524 -0.42228043 -0.20208324
-0.3459855 0.17287493 -1.5546376 0.35514626 -0.10968673 0.47457063 -0.29592368 0.13497703
-2.1369846 0.46691737 -0.103536345 0.268242 -0.29407433 0.083186194 -1.5411986 0.5495508
00000000: 4444 45bf 4123 4abf d87d 95be 7a1a 4fbf
00000010: 723f 1dbf 6d9d 40be ebe2 0b3f 236c c7bd
00000020: f254 0d40 f5ed d3be 1695 c53d 17fa 5ebf
00000030: 4a38 c1be 1573 4e3e 824b bdbf 3bbc bb3e
00000040: d69d 20be 0557 3a3f b53e c0be d685 323e
00000050: 707a babf 2c6f db3e e862 ffbd 6656 9c3e
00000060: 3896 bcbe d3d2 4d3e e3d0 d5bf 0dc1 cd3e
00000070: 4f6b 0ebe 2101 cc3e 7899 8c3e 1bf7 f2bd
00000080: 9558 0a40 5a4d a6be ab0e 373e b5ae 93be
00000090: 3de3 53bf 98d7 30bf fd9c 7fbe 8e95 42bf
000000a0: 77f2 2abf d905 82be 3391 eebe ee35 7f3e
000000b0: cf53 3bbf 94f2 a4be 4b46 a1be 1d5a 763f
000000c0: d72f 98be 5a49 d03d 05ac f1bf 0142 053f
000000d0: 592b 0dbe efff 9d3e 1aec 62bf c693 8cbe
000000e0: 1270 0bbf 017b 4cbe 2a19 b23d d66e 0a3e
000000f0: f0ac 22bf 53f1 f2be 1996 cbbc 7db8 0fbf
00000100: b538 8ebe 6596 34be 008c 5fbe 17b2 c93d
00000110: bc26 1fc0 c61c fb3e 96cd 83bd df5d 20bf
00000120: 2377 32bf e0ed 9bbe 44a9 ffbd 802f 27bf
00000130: 0d80 16bf 3704 2dbe 7f2a e93e 889d 09be
00000140: c14c c63f d392 c7be 3e2f 243e e7f5 53bf
00000150: 8490 0dbf 190e c4be b8b5 2fbe dd36 27bf
00000160: cdc0 35bf 6c7f 6ebe 1671 7abf ccbf 3dbe
00000170: 3d89 90bf 7851 a1bd 270f 1c3d 67b5 3f3f
00000180: 1839 ba3e 2358 07be ca8a 3740 466f bfbe
00000190: 402c 303e 7dbd 58be cbce 0cbf 2e54 74be
000001a0: b2a2 aebd dcf7 31bf 39c1 e2be 8ae7 c6bd
000001b0: 8b9d 3fbf 0c4e d5be 9c37 babd 4aa7 36bf
000001c0: 8e3b 08bf 371d 6fbe db88 a43e 7f52 ddbd
000001d0: da83 e73f f6ef c8be 26dc 323e a774 1fbf
000001e0: fe13 80be f1ee 483d e59e bcbf 788d cc3e
000001f0: aa2f e6bd 03d6 1e3f 7107 d0be 8cd0 e93d
00000200: cd69 adbe 8fdd 16bf 9aa2 8fbe d94e bfbb
00000210: 28d4 0cbf 524b f9be 5dd4 18be 98ce 45bf
00000220: faa8 43bf 91f8 b3bd a9a0 b6be 7708 153e
00000230: 6c2c a0bf 597f fb3e f2e5 f6bd 2ed0 173f
00000240: 2c21 0bbf 60bf 20bf 12a0 c7bd 5d22 47bf
00000250: be41 2dbf 5a06 1dbe f818 19bf 0fef 03bf
00000260: 1745 c0bd 54c1 ffbe 8e2f 22bf e9d7 99bd
00000270: 4a5c 1bbf 9cca bdbe 8464 4ebe 0f74 13bf
00000280: eea6 93be f322 8bbe 8fd7 933e 0fd3 03be
00000290: 18bb 0640 eb54 b7be 1ea7 2d3e 7298 edbd
000002a0: 7378 a93e f112 f9bd dd42 d93f b598 9cbe
000002b0: 12c3 0f3e 4bf3 fcbe 6d7a 25bf 34f3 13bf
000002c0: 36da 5fbe 4e3c 27bf ce1d 15bf 76f5 51be
000002d0: 7ac0 04bf bd10 c4be 4822 3abe e7bf eabe
000002e0: 1aea e9be 5cbf 9cbe 4b05 2cbf f79c f0be
000002f0: 3b24 21be a614 0bbf 3819 34bf 8903 c1be
00000300: 46e4 10bf 3332 e1be c17d efbd 0013 0bbf
00000310: 4204 a5be 212e 5cbe d024 2abf a067 02bf
00000320: 6fb7 3dbe e966 2fbf ccdd 03bf 72b7 6dbe
00000330: f2ec dbbe 8ae7 75be f9c3 2fbe 46d3 15bf
00000340: 2cf0 12bf b955 eabd b9fe d6be 9841 83be
00000350: 8651 aabd be3f e4be ca6c d03d 23c8 a9bc
00000360: 2320 d5be 2cb6 803e db51 e8bf eba4 b03e
00000370: 4b01 e7bd fabf a63d 3290 54bf 7f3f 2ebf
00000380: 1f29 3abe fd87 36bf 43cc debe b3f6 83be
00000390: f8ab 0abf ef44 a63d 57be 9abd 359a bebe
000003a0: 9db7 b9be 95b0 0c3e 5815 e1be 9309 80be
000003b0: 85fa 5abe 5628 bcbe 2435 d8be e9ee 4ebe
000003c0: 0325 b1be 2006 313e 5dfe c6bf bbd5 b53e
000003d0: 70a3 e0bd ecfa f23e 4f83 97be 6b37 0a3e
000003e0: 5bc4 08c0 cb0f ef3e dd0a d4bd 0457 893e
000003f0: e990 96be 865d aa3d ff45 c5bf 5caf 0c3f

bayes_fc1.weight_rho f4 [64, 6]
-0.60364413 -0.989695 0.5275535 -0.27683383 -1.141546 0.5175635 -3.8801332 -4.600913
-0.41586363 -3.3809707 -4.6774716 -0.03026929 -3.569975 -4.4447036 -0.061711695 -3.5666866
-4.4733024 0.11126075 -3.808091 -4.937603 -0.062230453 -3.7937984 -4.6909933 -0.46403688
-3.5250099 -4.7196302 -0.20049588 -3.7279208 -4.509136 -0.40684906 -3.778089 -4.527284
-0.7300926 -4.0144234 -5.181364 -0.45610133 -0.5688219 -1.1858479 0.4885931 -0.5341947
-1.0638685 0.5757168 -2.3204372 -3.7290401 0.4617198 -1.7390807 -2.7550507 1.2650572
-3.412765 -4.508839 -0.13747473 -3.8214607 -4.523685 -0.20795377 -1.2292048 -2.3135214
0.35482866 -2.5643103 -3.885242 0.4151102 -0.5598396 -1.5255501 0.50451905 -0.2824925
-1.5459803 0.52867347 -3.9006846 -5.1681314 -1.0985973 -4.081632 -5.043107 -0.6388913
-0.7212148 -1.6572905 0.5138526 -0.5790544 -0.97853065 0.5507104 -3.9305832 -4.980458
-0.67897457 -3.9433007 -4.9280066 -0.41655073 -0.5784262 -1.7107569 0.4666319 -0.5260591
-1.1645368 0.4450719 -0.97666067 -3.7412064 0.21565978 -3.6722934 -4.78996 -0.5833755
-3.7000918 -4.3673444 -0.48596838 -3.6218464 -4.630431 -0.11827955 -0.5605214 -1.7850941
0.4896887 -0.6049511 -1.4688519 0.48957586 -0.6057621 -1.2368846 0.45165807 -0.4906693
-1.1051068 0.53369063 -4.235634 -5.0286236 -0.8209156 -4.007795 -4.9307423 -0.6510588
-3.271821 -4.493708 0.086100295 -3.4302108 -4.5516133 -0.45966056 -1.8642448 -3.2352903
0.37260222 -0.9156447 -2.3932383 0.60042346 -0.46941584 -1.4065827 0.42655614 -0.3663345
-0.9882101 0.44451243 -3.0973415 -4.173768 0.20758419 -3.042946 -4.120805 0.024198603
-0.4282638 -1.4058346 0.49696746 -0.34193873 -1.2061895 0.66906804 -0.67909336 -1.4291456
0.5290868 -0.5162104 -1.1423695 0.62323475 -0.95516014 -1.767599 0.46829474 -1.0002787
-2.0754018 0.54074746 -3.6347752 -4.8325396 -0.7250306 -3.9196184 -4.852941 -0.46376437
-3.9937267 -5.100818 -0.93600965 -3.943944 -5.032594 -0.5723729 -0.7001081 -1.247789
0.48205176 -0.7903419 -1.2953968 0.3501542 -0.7150288 -1.6125772 0.5913319 -1.1513133
-1.4541785 0.5825777 -0.5201529 -1.3184667 0.42304322 -0.70082825 -1.1170369 0.44486454
-0.6539876 -1.2755202 0.58339924 -0.6475688 -1.5695021 0.47849977 -0.64893997 -1.4252845
0.52688354 -0.80041444 -1.61392 0.3920179 -0.8839062 -2.0225997 0.51534384 -0.6644662
-1.3041371 0.41665116 -1.3278639 -2.3208647 0.5568105 -1.9561661 -3.3413918 0.41747218
-3.9759734 -4.9594064 -0.9276259 -3.9129262 -4.935771 -0.6586774 -0.5970627 -1.1178242
0.5473612 -0.5825599 -1.4257777 0.41528955 -1.2558511 -2.7150486 0.33668932 -0.44567862
-1.7300949 0.61724305 -0.9923797 -2.2915685 0.41881248 -1.3777205 -1.6657494 0.42838675
-3.800828 -4.75496 -0.08907475 -3.919799 -4.5535955 -0.34062526 -3.2427506 -4.464504
-0.051754072 -3.573318 -4.5990467 -0.2911153 -3.2566082 -4.3473086 0.15095648 -3.481167
00000000: 6c88 1abf a75c 7dbf bf0d 073f 2abd 8dbe
00000010: 2e1e 92bf 0b7f 043f 1a54 78c0 ae3a 93c0
00000020: 14ec d4be d361 58c0 d9ad 95c0 4df7 f7bc
00000030: 787a 64c0 033b 8ec0 67c5 7cbd 9844 64c0
00000040: 4b25 8fc0 addc e33d c3b7 73c0 d800 9ec0
00000050: 5ce5 7ebd 98cd 72c0 9e1c 96c0 3e96 edbe
00000060: c399 61c0 3607 97c0 cb4e 4dbe 4196 6ec0
00000070: d84a 90c0 854e d0be 36cc 71c0 83df 90c0
00000080: 59e7 3abf 2876 80c0 bccd a5c0 1d86 e9be
00000090: 509e 11bf ddc9 97bf e028 fa3e fcc0 08bf
000000a0: d82c 88bf 2d62 133f 0b82 14c0 98a8 6ec0
000000b0: 8a66 ec3e 329a debf c052 30c0 65ed a13f
000000c0: be6a 5ac0 6948 90c0 2dc6 0cbe d092 74c0
000000d0: 07c2 90c0 d5f1 54be 9556 9dbf bc10 14c0
000000e0: 1aac b53e a91d 24c0 cea7 78c0 5389 d43e
000000f0: a651 0fbf 3a45 c3bf 2928 013f dba2 90be
00000100: afe2 c5bf 2557 073f d1a4 79c0 5561 a5c0
00000110: d69e 8cbf bb9c 82c0 2261 a1c0 618e 23bf
00000120: 88a1 38bf 1822 d4bf d88b 033f e93c 14bf
00000130: fc80 7abf 5bfb 0c3f ad8e 7bc0 e95f 9fc0
00000140: 47d1 2dbf 0a5f 7cc0 3bb2 9dc0 2346 d5be
00000150: bd13 14bf 15fa dabf 60ea ee3e cfab 06bf
00000160: 8b0f 95bf 77e0 e33e 6f06 7abf ed6f 6fc0
00000170: ebd5 5c3e db06 6bc0 5a47 99c0 1958 15bf
00000180: 4ece 6cc0 49c1 8bc0 d9d0 f8be 55cc 67c0
00000190: 7e2c 94c0 8c3c f2bd 557e 0fbf f77d e4bf
000001a0: 7ab8 fa3e 13de 1abf 5703 bcbf b0a9 fa3e
000001b0: 3a13 1bbf 3c52 9ebf ba3f e73e 0239 fbbe
000001c0: 2474 8dbf f39f 083f 508a 87c0 7cea a0c0
000001d0: 8627 52bf db3f 80c0 a4c8 9dc0 caab 26bf
000001e0: 8465 51c0 75cc 8fc0 5a55 b03d 9388 5bc0
000001f0: d1a6 91c0 a158 ebbe 939f eebf ff0e 4fc0
00000200: b8c5 be3e b167 6abf d12a 19c0 5ab5 193f
00000210: 4657 f0be e70a b4bf 9165 da3e 3290 bbbe
00000220: 56fb 7cbf 2297 e33e d83a 46c0 828f 85c0
00000230: f390 543e a1bf 42c0 a2dd 83c0 263c c63c
00000240: 6545 dbbe 63f2 b3bf 8572 fe3e 9812 afbe
00000250: 6b64 9abf 0b48 2b3f 10d9 2dbf 3eee b6bf
00000260: 3c72 073f 5d26 04bf 2a39 92bf 508c 1f3f
00000270: 6085 74bf af40 e2bf 54c4 ef3e 2209 80bf
00000280: 62d3 04c0 6d6e 0a3f 28a0 68c0 2aa4 9ac0
00000290: 9b9b 39bf 07db 7ac0 4b4b 9bc0 8672 edbe
000002a0: 3899 7fc0 e739 a3c0 549e 6fbf 9469 7cc0
000002b0: 030b a1c0 0887 12bf 493a 33bf 8db7 9fbf
000002c0: 7dcf f63e d953 4abf 90cf a5bf 6947 b33e
000002d0: 210c 37bf ee68 cebf 8761 173f 3c5e 93bf
000002e0: 8522 babf d023 153f be28 05bf 84c3 a8bf
000002f0: 1f99 d83e 7b69 33bf 11fb 8ebf 49c5 e33e
00000300: bb6b 27bf 3f44 a3bf a759 153f 12c7 25bf
00000310: 72e5 c8bf ecfd f43e ee20 26bf b96f b6bf
00000320: d7e1 063f f6e7 4cbf ee94 cebf 92b6 c83e
00000330: ad47 62bf 4672 01c0 93ed 033f 751a 2abf
00000340: f7ed a6bf 4d53 d53e 72f7 a9bf 0c89 14c0
00000350: 228b 0e3f a763 fabf 5dd9 55c0 eabe d53e
00000360: 5976 7ec0 75b3 9ec0 e478 6dbf 626d 7ac0
00000370: d6f1 9dc0 159f 28bf 1ad9 18bf dd14 8fbf
00000380: dd1f 0c3f a522 15bf e27f b6bf d5a0 d43e
00000390: bbbf a0bf 5bc3 2dc0 8b62 ac3e fd2f e4be
000003a0: c073 ddbf a403 1e3f 990c 7ebf 0fa9 12c0
000003b0: 976e d63e 2559 b0bf 4737 d5bf 8255 db3e
000003c0: c440 73c0 a228 98c0 d36c b6bd fddd 7ac0
000003d0: 0eb7 91c0 6f66 aebe 3a89 4fc0 37dd 8ec0
000003e0: 14fc 53bd 3eb1 64c0 642b 93c0 110d 95be
000003f0: 456c 50c0 271d 8bc0 5694 1a3e 71cb 5ec0

bayes_fc1.bias_mu f4 [64]
-0.036718592 0.049290873 -0.0041825203 -0.012926124 -0.025368748 0.027795218 0.0012611763 -0.06102166
0.034932494 -0.0022436036 -0.03781103 -0.041384086 -0.0066029895 0.014445422 0.0034646576 0.07300617
0.05179215 -0.0044216835 -0.0452119 -0.005408093 -0.025993282 -0.032082956 -0.049207386 -0.017129898
-0.028792702 -0.005716123 -0.026190415 0.022091934 0.027054667 -0.052829422 -0.03148285 0.003810658
-0.047781356 -0.023189487 0.0175983 -0.049569752 -0.031770036 -0.00048676826 0.023140015 -0.02311443
-0.017391857 -0.0742585 -0.08305481 -0.033004537 -0.00932352 -0.022565272 -0.018666763 -0.07416642
-0.044344645 0.029831791 -0.013135902 0.0047037327 -0.02043842 0.050107706 -0.07185702 0.022738645
-0.015124141 0.025029585 -0.010260441 0.0103042 -0.06145607 0.00674054 -0.017479215 -0.018112225
00000000: 3c66 16bd 3ae5 493d 860d 89bb 18c8 53bc
00000010: 1fd2 cfbc ccb2 e33c 0e4e a53a d9f1 79bd
00000020: 6015 0f3d 6c09 13bb bddf 1abd 5c82 29bd
00000030: e45d d8bb 7eac 6c3c 4f0f 633b 4284 953d
00000040: 0124 543d c5e3 90bb 1d30 39bd 5f36 b1bb
00000050: ddef d4bc 6b69 03bd af8d 49bd 0054 8cbc
00000060: acde ebbc 514e bbbb 488d d6bc 25fa b43c
00000070: c0a1 dd3c aa63 58bd 29f4 00bd 3bbc 793b
00000080: 62b6 43bd e1f7 bdbc 4f2a 903c a709 4bbd
00000090: 4c21 02bd ee34 ffb9 2190 bd3c 795a bdbc
000000a0: 5e79 8ebc d714 98bd a418 aabd c42f 07bd
000000b0: adc1 18bc ceda b8bc 0aeb 98bc 90e4 97bd
000000c0: bba2 35bd cd61 f43c f737 57bc c521 9a3b
000000d0: 796e a7bc bd3d 4d3d c629 93bd 6546 ba3c
000000e0: 3fcb 77bc d80a cd3c 691b 28bc f3d2 283c
000000f0: 5cb9 7bbd bfdf dc3b 9230 8fbc 1760 94bc

bayes_fc1.bias_rho f4 [64]
-0.15489945 -1.4216199 -1.2531778 -1.5263511 -1.6624312 -1.8498703 -0.1344155 -0.4347173
-1.4189456 -0.7094749 -0.17060913 -1.9579375 -0.24965347 -1.698382 -0.2248259 -1.2073821
-1.4841679 -0.29099083 -0.20353834 -1.9024463 -1.4333862 -0.5331359 -0.20177446 -1.1541898
-0.09933819 -0.21535762 -0.45544678 -1.6289018 -2.0432954 -0.3127614 -0.2987312 -0.25102058
-0.17157574 -0.3380804 -0.34034348 -0.6431517 -1.8683916 -0.17188074 -0.30820596 -0.45691526
-1.497991 -1.4202516 -1.2057638 -0.29173923 -0.19315194 -0.27467275 -0.4817042 -0.7056917
-0.19416541 -0.19388998 -0.2755644 -0.40650827 -0.22012204 -1.8635072 -0.23444402 -1.6779826
-1.7638105 -1.8224171 -0.8248498 -0.72758836 -0.23279466 -1.9334129 -1.8163233 -0.35012555
00000000: f69d 1ebe a4f7 b5bf 2168 a0bf 795f c3bf
00000010: 8cca d4bf 8dc8 ecbf 38a4 09be 4493 debe
00000020: 02a0 b5bf 26a0 35bf 29b4 2ebe b29d fabf
00000030: 29a5 7fbe 9564 d9bf c338 66be 7f8b 9abf
00000040: 37f9 bdbf c0fc 94be 5b6c 50be 5c83 f3bf
00000050: 3379 b7bf 987b 08bf f79d 4ebe 7ebc 93bf
00000060: d271 cbbd b586 5cbe 5230 e9be db7f d0bf
00000070: 5ac5 02c0 4322 a0be 4cf3 98be c585 80be
00000080: 8db1 2fbe e018 adbe 8041 aebe 97a5 24bf
00000090: 7527 efbf 8101 30be 2ccd 9dbe ccf0 e9be
000000a0: 2bbe bfbf ceca b5bf 7856 9abf d85e 95be
000000b0: 9fc9 45be e8a1 8cbe efa1 f6be 36a8 34bf
000000c0: 4cd3 46be 188b 46be c716 8dbe da21 d0be
000000d0: ac67 61be 6787 eebf 1812 70be 22c8 d6bf
000000e0: 8bc4 e1bf f744 e9bf 5b29 53bf 3b43 3abf
000000f0: b961 6ebe 137a f7bf 487d e8bf a843 b3be

bayes_fc1.prior_mu_old_bias f4 [64]
-0.036718592 0.049290873 -0.0041825203 -0.012926124 -0.025368748 0.027795218 0.0012611763 -0.06102166
0.034932494 -0.0022436036 -0.03781103 -0.041384086 -0.0066029895 0.014445422 0.0034646576 0.07300617
0.05179215 -0.0044216835 -0.0452119 -0.005408093 -0.025993282 -0.032082956 -0.049207386 -0.017129898
-0.028792702 -0.005716123 -0.026190415 0.022091934 0.027054667 -0.052829422 -0.03148285 0.003810658
-0.047781356 -0.023189487 0.0175983 -0.049569752 -0.031770036 -0.00048676826 0.023140015 -0.02311443
-0.017391857 -0.0742585 -0.08305481 -0.033004537 -0.00932352 -0.022565272 -0.018666763 -0.07416642
-0.044344645 0.029831791 -0.013135902 0.0047037327 -0.02043842 0.050107706 -0.07185702 0.022738645
-0.015124141 0.025029585 -0.010260441 0.0103042 -0.06145607 0.00674054 -0.017479215 -0.018112225
00000000: 3c66 16bd 3ae5 493d 860d 89bb 18c8 53bc
00000010: 1fd2 cfbc ccb2 e33c 0e4e a53a d9f1 79bd
00000020: 6015 0f3d 6c09 13bb bddf 1abd 5c82 29bd
00000030: e45d d8bb 7eac 6c3c 4f0f 633b 4284 953d
00000040: 0124 543d c5e3 90bb 1d30 39bd 5f36 b1bb
00000050: ddef d4bc 6b69 03bd af8d 49bd 0054 8cbc
00000060: acde ebbc 514e bbbb 488d d6bc 25fa b43c
00000070: c0a1 dd3c aa63 58bd 29f4 00bd 3bbc 793b
00000080: 62b6 43bd e1f7 bdbc 4f2a 903c a709 4bbd
00000090: 4c21 02bd ee34 ffb9 2190 bd3c 795a bdbc
000000a0: 5e79 8ebc d714 98bd a418 aabd c42f 07bd
000000b0: adc1 18bc ceda b8bc 0aeb 98bc 90e4 97bd
000000c0: bba2 35bd cd61 f43c f737 57bc c521 9a3b
000000d0: 796e a7bc bd3d 4d3d c629 93bd 6546 ba3c
000000e0: 3fcb 77bc d80a cd3c 691b 28bc f3d2 283c
000000f0: 5cb9 7bbd bfdf dc3b 9230 8fbc 1760 94bc

bayes_fc1.prior_sigma_small_bias f4 [64]
0.6186937 0.21617757 0.25122228 0.19665766 0.17368206 0.14605303 0.6281962 0.49922726
0.21669804 0.4000521 0.61147666 0.13203585 0.5760911 0.16803613 0.5870393 0.26157853
0.2043202 0.5581991 0.5965476 0.13906881 0.21390092 0.4616955 0.59734046 0.27407458
0.6447111 0.5912546 0.49113172 0.17910376 0.12186441 0.5489444 0.5548954 0.57549274
0.6110346 0.53832674 0.53738534 0.4224095 0.14355627 0.61089516 0.5508714 0.4905621
0.20178008 0.21644372 0.26195124 0.55787903 0.60122746 0.56521195 0.4810238 0.40130106
0.60076964 0.60089403 0.5648271 0.51040846 0.5891307 0.14421083 0.58278 0.17121878
0.15819153 0.14982814 0.36346242 0.394116 0.5835088 0.13510211 0.15067829 0.53333026
00000000: b662 1e3f a75d 5d3e 35a0 803e a060 493e
00000010: b6d9 313e ed8e 153e 77d1 203f b79a ff3e
00000020: 17e6 5d3e a1d3 cc3e bc89 1c3f 6834 073e
00000030: b57a 133f aa11 2c3e 3548 163f 9fed 853e
00000040: 5139 513e 23e6 0e3f 58b7 183f 0e68 0e3e
00000050: d808 5b3e 5a63 ec3e 4eeb 183f 8153 8c3e
00000060: c90b 253f 765c 173f 9e75 fb3e fa66 373e
00000070: 0c94 f93d 9f87 0c3f a00d 0e3f 7e53 133f
00000080: c36c 1c3f c8cf 093f 1692 093f 0f46 d83e
00000090: 6a00 133e a063 1c3f e805 0d3f f52a fb3e
000000a0: 709f 4e3e 6ca3 5d3e 791e 863e 29d1 0e3f
000000b0: 0bea 193f bbb1 103f c048 f63e 5577 cd3e
000000c0: 0acc 193f 31d4 193f 8298 103f 21aa 023f
000000d0: 45d1 163f 01ac 133e 1231 153f fa53 2f3e
000000e0: f6fc 213e 8c6c 193e bf17 ba3e 93c9 c93e
000000f0: d560 153f 3558 0a3e 694b 1a3e 5588 083f

bayes_fc1.prior_mu_old f4 [64, 6]
-0.7705729 -0.78960043 -0.29197574 -0.80899775 -0.61424935 -0.18810053 0.54643124 -0.09737422
2.2083097 -0.41392484 0.096475765 -0.87100357 -0.37738258 0.20161088 -1.4788668 0.36667046
-0.1568521 0.7278903 -0.37547842 0.17433867 -1.4568615 0.42858255 -0.12470037 0.30534667
-0.36833358 0.20099954 -1.6704372 0.4018635 -0.13908122 0.3984461 0.27460837 -0.11863538
2.1616566 -0.3248089 0.17876689 -0.28844228 -0.82768613 -0.6907897 -0.2496223 -0.7600945
-0.6677622 -0.25395086 -0.46595153 0.24922916 -0.73174757 -0.32216322 -0.31498942 0.9623125
-0.29724 0.10170241 -1.8880621 0.5205384 -0.13786067 0.30859324 -0.8864151 -0.27456492
-0.5446788 -0.19968797 0.08696206 0.13518843 -0.6354513 -0.4744974 -0.024851846 -0.5614088
-0.2777764 -0.17635496 -0.2183075 0.09848421 -2.4867392 0.4904539 -0.06435697 -0.62643236
-0.6971304 -0.30454922 -0.12483457 -0.65306854 -0.5878914 -0.16896139 0.45540234 -0.13439
1.5492173 -0.38979205 0.16033646 -0.8279709 -0.5529864 -0.38292006 -0.17159164 -0.6531809
-0.70997316 -0.23290795 -0.97828805 -0.18530196 -1.1291882 -0.07876867 0.038100388 0.74886173
0.36371684 -0.13217215 2.867846 -0.37389582 0.1720438 -0.21166034 -0.5500304 -0.23860237
-0.085271254 -0.6951883 -0.44288042 -0.09712131 -0.74849766 -0.41661108 -0.09092638 -0.7134901
-0.53215873 -0.23350988 0.32135662 -0.108067505 1.8087113 -0.39245576 0.17466792 -0.6228737
-0.25015253 0.049055997 -1.4735991 0.39951682 -0.1123956 0.62045306 -0.40630677 0.1141673
-0.33869782 -0.5893182 -0.28053743 -0.005838257 -0.55011225 -0.48690277 -0.1492476 -0.7726836
-0.7642971 -0.08787645 -0.3566945 0.1455401 -1.2513556 0.49120596 -0.12055577 0.5930203
-0.5434749 -0.62792015 -0.09747328 -0.7778681 -0.6767844 -0.15334454 -0.59803724 -0.5153665
-0.09388178 -0.49952185 -0.6335381 -0.07511885 -0.60687697 -0.3706864 -0.20155531 -0.57598966
-0.28838295 -0.27175102 0.28875396 -0.12873481 2.1051693 -0.35806975 0.16958281 -0.11601342
0.33099708 -0.12161816 1.697353 -0.30585256 0.14039257 -0.49404368 -0.6463993 -0.57792974
-0.21860585 -0.6532639 -0.58248603 -0.20503792 -0.51856196 -0.3829402 -0.1817714 -0.45849535
-0.45686418 -0.30614746 -0.67195576 -0.46994755 -0.15736477 -0.5432838 -0.7035098 -0.3769801
-0.5659832 -0.4398361 -0.116939075 -0.54325867 -0.3222981 -0.21501972 -0.6646242 -0.5093937
-0.18527006 -0.68516403 -0.5151031 -0.2321451 -0.42954212 -0.24014106 -0.17164601 -0.585255
-0.57397723 -0.114421315 -0.41991213 -0.25635982 -0.083163306 -0.4457988 0.10177 -0.020725315
-0.4162608 0.25138986 -1.814998 0.34500822 -0.112795435 0.081420854 -0.83032525 -0.6806564
-0.18179749 -0.7130125 -0.43515214 -0.25774154 -0.54168653 0.08118617 -0.07555836 -0.37227026
-0.36272898 0.13739236 -0.43961596 -0.25007305 -0.21384628 -0.36749524 -0.42228043 -0.20208324
-0.3459855 0.17287493 -1.5546376 0.35514626 -0.10968673 0.47457063 -0.29592368 0.13497703
-2.1369846 0.46691737 -0.103536345 0.268242 -0.29407433 0.083186194 -1.5411986 0.5495508
00000000: 4444 45bf 4123 4abf d87d 95be 7a1a 4fbf
00000010: 723f 1dbf 6d9d 40be ebe2 0b3f 236c c7bd
00000020: f254 0d40 f5ed d3be 1695 c53d 17fa 5ebf
00000030: 4a38 c1be 1573 4e3e 824b bdbf 3bbc bb3e
00000040: d69d 20be 0557 3a3f b53e c0be d685 323e
00000050: 707a babf 2c6f db3e e862 ffbd 6656 9c3e
00000060: 3896 bcbe d3d2 4d3e e3d0 d5bf 0dc1 cd3e
00000070: 4f6b 0ebe 2101 cc3e 7899 8c3e 1bf7 f2bd
00000080: 9558 0a40 5a4d a6be ab0e 373e b5ae 93be
00000090: 3de3 53bf 98d7 30bf fd9c 7fbe 8e95 42bf
000000a0: 77f2 2abf d905 82be 3391 eebe ee35 7f3e
000000b0: cf53 3bbf 94f2 a4be 4b46 a1be 1d5a 763f
000000c0: d72f 98be 5a49 d03d 05ac f1bf 0142 053f
000000d0: 592b 0dbe efff 9d3e 1aec 62bf c693 8cbe
000000e0: 1270 0bbf 017b 4cbe 2a19 b23d d66e 0a3e
000000f0: f0ac 22bf 53f1 f2be 1996 cbbc 7db8 0fbf
00000100: b538 8ebe 6596 34be 008c 5fbe 17b2 c93d
00000110: bc26 1fc0 c61c fb3e 96cd 83bd df5d 20bf
00000120: 2377 32bf e0ed 9bbe 44a9 ffbd 802f 27bf
00000130: 0d80 16bf 3704 2dbe 7f2a e93e 889d 09be
00000140: c14c c63f d392 c7be 3e2f 243e e7f5 53bf
00000150: 8490 0dbf 190e c4be b8b5 2fbe dd36 27bf
00000160: cdc0 35bf 6c7f 6ebe 1671 7abf ccbf 3dbe
00000170: 3d89 90bf 7851 a1bd 270f 1c3d 67b5 3f3f
00000180: 1839 ba3e 2358 07be ca8a 3740 466f bfbe
00000190: 402c 303e 7dbd 58be cbce 0cbf 2e54 74be
000001a0: b2a2 aebd dcf7 31bf 39c1 e2be 8ae7 c6bd
000001b0: 8b9d 3fbf 0c4e d5be 9c37 babd 4aa7 36bf
000001c0: 8e3b 08bf 371d 6fbe db88 a43e 7f52 ddbd
000001d0: da83 e73f f6ef c8be 26dc 323e a774 1fbf
000001e0: fe13 80be f1ee 483d e59e bcbf 788d cc3e
000001f0: aa2f e6bd 03d6 1e3f 7107 d0be 8cd0 e93d
00000200: cd69 adbe 8fdd 16bf 9aa2 8fbe d94e bfbb
00000210: 28d4 0cbf 524b f9be 5dd4 18be 98ce 45bf
00000220: faa8 43bf 91f8 b3bd a9a0 b6be 7708 153e
00000230: 6c2c a0bf 597f fb3e f2e5 f6bd 2ed0 173f
00000240: 2c21 0bbf 60bf 20bf 12a0 c7bd 5d22 47bf
00000250: be41 2dbf 5a06 1dbe f818 19bf 0fef 03bf
00000260: 1745 c0bd 54c1 ffbe 8e2f 22bf e9d7 99bd
00000270: 4a5c 1bbf 9cca bdbe 8464 4ebe 0f74 13bf
00000280: eea6 93be f322 8bbe 8fd7 933e 0fd3 03be
00000290: 18bb 0640 eb54 b7be 1ea7 2d3e 7298 edbd
000002a0: 7378 a93e f112 f9bd dd42 d93f b598 9cbe
000002b0: 12c3 0f3e 4bf3 fcbe 6d7a 25bf 34f3 13bf
000002c0: 36da 5fbe 4e3c 27bf ce1d 15bf 76f5 51be
000002d0: 7ac0 04bf bd10 c4be 4822 3abe e7bf eabe
000002e0: 1aea e9be 5cbf 9cbe 4b05 2cbf f79c f0be
000002f0: 3b24 21be a614 0bbf 3819 34bf 8903 c1be
00000300: 46e4 10bf 3332 e1be c17d efbd 0013 0bbf
00000310: 4204 a5be 212e 5cbe d024 2abf a067 02bf
00000320: 6fb7 3dbe e966 2fbf ccdd 03bf 72b7 6dbe
00000330: f2ec dbbe 8ae7 75be f9c3 2fbe 46d3 15bf
00000340: 2cf0 12bf b955 eabd b9fe d6be 9841 83be
00000350: 8651 aabd be3f e4be ca6c d03d 23c8 a9bc
00000360: 2320 d5be 2cb6 803e db51 e8bf eba4 b03e
00000370: 4b01 e7bd fabf a63d 3290 54bf 7f3f 2ebf
00000380: 1f29 3abe fd87 36bf 43cc debe b3f6 83be
00000390: f8ab 0abf ef44 a63d 57be 9abd 359a bebe
000003a0: 9db7 b9be 95b0 0c3e 5815 e1be 9309 80be
000003b0: 85fa 5abe 5628 bcbe 2435 d8be e9ee 4ebe
000003c0: 0325 b1be 2006 313e 5dfe c6bf bbd5 b53e
000003d0: 70a3 e0bd ecfa f23e 4f83 97be 6b37 0a3e
000003e0: 5bc4 08c0 cb0f ef3e dd0a d4bd 0457 893e
000003f0: e990 96be 865d aa3d ff45 c5bf 5caf 0c3f

bayes_fc1.prior_sigma_small f4 [64, 6]
0.4361982 0.3160436 0.9913169 0.56427944 0.27712023 0.98504573 0.020437794 0.00999257
0.5066792 0.033448722 0.009259502 0.67812705 0.027767451 0.0116722 0.6627673 0.027857646
0.011344977 0.75032413 0.021947876 0.007146174 0.66251594 0.022260327 0.009135707 0.48780695
0.02902615 0.008878941 0.59791565 0.023758298 0.010947818 0.51027226 0.02260883 0.010751984
0.393301 0.017892335 0.0056045996 0.49087775 0.44864726 0.2665762 0.96699196 0.4613041
0.29648185 1.0218769 0.093700364 0.023732033 0.9504218 0.16184826 0.061664835 1.5136526
0.032418754 0.010951053 0.6267704 0.021659523 0.010790545 0.59456617 0.25659776 0.0943209
0.8862176 0.07415363 0.020334698 0.922089 0.45190373 0.19680071 0.9768923 0.5618432
0.19318143 0.99202144 0.020026188 0.005679045 0.2876858 0.01673901 0.0064329295 0.42387944
0.3961965 0.17450348 0.9827222 0.44496015 0.31908113 1.005943 0.019441992 0.0068474193
0.41021165 0.019198649 0.007214833 0.5064061 0.44518584 0.166132 0.95343786 0.46431825
0.27160388 0.9402425 0.31959236 0.023448389 0.8067795 0.02510044 0.0082784295 0.4434104
0.02442063 0.012605103 0.47939765 0.02638218 0.009703324 0.6357551 0.4516559 0.15510559
0.9676711 0.4357364 0.20716831 0.9676011 0.43545 0.2548648 0.9442618 0.47760993
0.2860624 0.995181 0.014366935 0.006526473 0.36466295 0.018010264 0.007195194 0.4196923
0.03723536 0.011117089 0.7371237 0.031866923 0.010494905 0.4894986 0.1441118 0.038594346
0.8967029 0.33665684 0.08740029 1.0377613 0.48573393 0.21911868 0.92899865 0.52666205
0.3164462 0.9399016 0.044178713 0.015276857 0.802316 0.04659172 0.016101124 0.7053197
0.5017684 0.21926594 0.97219044 0.5367224 0.26185316 1.0826241 0.4101717 0.21471895
0.99228156 0.46798775 0.27692097 1.0525513 0.32551998 0.15763812 0.95446014 0.31318673
0.1182327 0.9996351 0.026047662 0.007934702 0.39494982 0.019654252 0.0077750836 0.48791215
0.018263109 0.0060732807 0.3308778 0.01918642 0.006500694 0.447365 0.40315017 0.2524219
0.96294284 0.37410492 0.24199608 0.8834726 0.3982243 0.18179902 1.0318999 0.2747649
0.20993039 1.026274 0.46651605 0.23708214 0.92687464 0.4029113 0.28310764 0.94011617
0.41868943 0.24630183 1.0268011 0.42088985 0.18908927 0.9607484 0.42041904 0.21546619
0.9908956 0.3709722 0.18157594 0.90824413 0.3458325 0.124260716 0.9836556 0.4151171
0.24012387 0.9230174 0.23510596 0.093662135 1.0098166 0.13225514 0.03477592 0.9235123
0.018587213 0.006992587 0.3332467 0.019784926 0.0071592308 0.41708755 0.43852973 0.2829136
1.00382 0.44370258 0.21537063 0.922197 0.25062898 0.06410255 0.8755954 0.49493375
0.16319615 1.0486549 0.31531683 0.09631672 0.9243205 0.22486421 0.17315377 0.9301067
0.022106107 0.008572044 0.6496012 0.019650735 0.010474231 0.53726816 0.038312912 0.0114446655
0.6676049 0.027676048 0.010011143 0.5581458 0.03779549 0.01285857 0.7714712 0.03030753
00000000: 5f55 df3e 77d0 a13e f2c6 7d3f 9e74 103f
00000010: b4e2 8d3e f52b 7c3f 296d a73c e0b7 233c
00000020: bab5 013f 8701 093d 2bb5 173c bc99 2d3f
00000030: 9178 e33c c13c 3f3c 1eab 293f b835 e43c
00000040: 48e0 393c 3e15 403f 08cc b33c 742a ea3b
00000050: a59a 293f 4a5b b63c efad 153c d5c1 f93e
00000060: 40c8 ed3c fa78 113c 0011 193f c3a0 c23c
00000070: 7a5e 333c 34a1 023f 2736 b93c 1729 303c
00000080: c05e c93e f292 923c caa6 b73b 5454 fb3e
00000090: 18b5 e53e ad7c 883e c98c 773f 0d30 ec3e
000000a0: 78cc 973e ddcc 823f fae5 bf3d ae69 c23c
000000b0: d84e 733f 8dbb 253e 4494 7c3d 5ebf c13f
000000c0: 87c9 043d 0c6c 333c 0674 203f 506f b13c
000000d0: d3ca 303c 7d35 183f c860 833e 512b c13d
000000e0: 28df 623f dcdd 973d f494 a63c 060e 6c3f
000000f0: ed5f e73e 2086 493e 9d15 7a3f f5d4 0f3f
00000100: 5ad1 453e 1ef5 7d3f f60d a43c 4817 ba3b
00000110: 8e4b 933e 4020 893c 53cb d23b ba06 d93e
00000120: 45da ca3e 0ab1 323e af93 7b3f d1d1 e33e
00000130: 9a5e a33e bdc2 803f d044 9f3c 5160 e03b
00000140: 4307 d23e 7c46 9d3c 686a ec3b d5a3 013f
00000150: 66ef e33e 821e 2a3e 8114 743f 1fbb ed3e
00000160: aa0f 8b3e bcb3 703f 9ca1 a33e d616 c03c
00000170: 1a89 4e3f 709f cd3c 40a2 073c b006 e33e
00000180: c60d c83c a285 4e3c 9c73 f53e 711f d83c
00000190: b1fa 1e3c d9c0 223f 713f e73e 00d4 1e3e
000001a0: 4bb9 773f d718 df3e ee23 543e b5b4 773f
000001b0: 4df3 de3e a47d 823e 24bb 713f 4a89 f43e
000001c0: c576 923e 2fc4 7e3f 4b63 6b3c 06dc d53b
000001d0: 1ab5 ba3e 438a 933c a9c5 eb3b e9e1 d63e
000001e0: 1b84 183d 7324 363c 24b4 3c3f e486 023d
000001f0: d2f2 2b3c 8f9f fa3e 0b92 133e 1b15 1e3d
00000200: 528e 653f 495e ac3e ecfe b23d 5dd5 843f
00000210: 1eb2 f83e a660 603e dbd2 6d3f 53d3 063f
00000220: 3c05 a23e 649d 703f bdf4 343d c84b 7a3c
00000230: 9564 4d3f f6d6 3e3d 81e6 833c d58f 343f
00000240: e573 003f 4087 603e 79e1 783f a466 093f
00000250: 9e11 863e 6d93 8a3f 0602 d23e 49df 5b3e
00000260: 2a06 7e3f 179c ef3e 96c8 8d3e 00ba 863f
00000270: 8eaa a63e e36b 213e 8057 743f 035a a03e
00000280: fc23 f23d 16e8 7f3f e861 d53c 8d00 023c
00000290: dd36 ca3e f401 a13c 21c6 fe3b 9fcf f93e
000002a0: 849c 953c 5f02 c73b d168 a93e d72c 9d3c
000002b0: c603 d53b 060d e53e b369 ce3e 713d 813e
000002c0: 6c83 763f ae8a bf3e d2cd 773e 432b 623f
000002d0: 0ee4 cb3e 8629 3a3e 4c15 843f fcad 8c3e
000002e0: fef7 563e f25c 833f 31db ee3e a9c5 723e
000002f0: a847 6d3f 644a ce3e 7cf3 903e 74ab 703f
00000300: 765e d63e 8c36 7c3e 386e 833f e07e d73e
00000310: 9ea0 413e 9bf3 753f 2a41 d73e 2ba3 5c3e
00000320: 56ab 7d3f 11f0 bd3e 0bef 393e b082 683f
00000330: f510 b13e 677c fe3d dad0 7b3f 3b8a d43e
00000340: 08e3 753e de4a 6c3f 9ebf 703e efd1 bf3d
00000350: ac41 813f e46d 073e 3271 0e3d 4d6b 6c3f
00000360: 3644 983c 1222 e53b 509f aa3e ff13 a23c
00000370: fb97 ea3b 808c d53e f886 e03e 0dda 903e
00000380: 2c7d 803f fc2c e33e 1e8a 5c3e 1a15 6c3f
00000390: 7152 803e 3348 833d 0527 603f f567 fd3e
000003a0: e41c 273e 533a 863f 3571 a13e b341 c53d
000003b0: 45a0 6c3f ce42 663e 394f 313e 791b 6e3f
000003c0: de17 b53c c271 0c3c 444c 263f 94fa a03c
000003d0: 1c9c 2b3c 688a 093f 00ee 1c3d 6882 3b3c
000003e0: 28e8 2a3f e1b8 e23c c705 243c a5e2 0e3f
000003f0: 72cf 1a3d c0ac 523c 237f 453f 7f47 f83c

bayes_fc2.weight_mu f4 [1, 64]
-0.035268158 0.048878472 -0.036770716 -0.039141774 -0.043176834 0.05950838 -0.08647166 -0.036591724
-0.04917412 0.09290838 -0.002568014 -0.08714483 -0.092843495 0.057720926 -0.0066997274 0.38127473
0.031680897 -0.03683977 0.08471167 0.06398858 -0.06800633 -0.052993868 0.06122558 -0.03154234
-0.040596567 -0.040858805 -0.024567125 0.049792532 0.07425796 0.04444716 0.098363936 0.024659932
-0.030996328 -0.010157046 -0.009158877 0.061054524 -0.058981333 0.06547332 -0.011251971 0.14639594
-0.049562283 -0.051099166 -0.033628553 -0.0124426 -0.028267495 -0.077185854 -0.008357946 -0.02859388
0.0053295624 -0.012193288 0.036330815 -0.018904062 -0.031176295 0.06329351 0.04035637 0.053392485
0.07381437 0.05636131 0.1062588 0.06858399 0.09099415 0.07126079 -0.06055784 -0.02805947
00000000: 5875 10bd cb34 483d e49c 16bd 2053 20bd
00000010: 31da 30bd 0fbf 733d 0e18 b1bd 34e1 15bd
00000020: cd6a 49bd c046 be3d 204c 28bb fd78 b2bd
00000030: bb24 bebd c76c 6c3d 6389 dbbb 7136 c33e
00000040: d4c3 013d 4ce5 16bd 507d ad3d 720c 833d
00000050: e746 8bbd 1910 59bd acc7 7a3d 8a32 01bd
00000060: 9648 26bd 905b 27bd ff40 c9bc 41f3 4b3d
00000070: 8f14 983d 3a0e 363d 0873 c93d a003 ca3c
00000080: 03ec fdbc bd69 26bc 1d0f 16bc 4f14 7a3d
00000090: 6996 71bd e016 863d 305a 38bc d1e8 153e
000000a0: d201 4bbd 5c4d 51bd 18be 09bd 0cdc 4bbc
000000b0: 3c91 e7bc 9e13 9ebd c4ef 08bc b63d eabc
000000c0: 9ca3 ae3b 5bc6 47bc 9fcf 143d b1dc 9abc
000000d0: 6e65 ffbc 07a0 813d b94c 253d 14b2 5a3d
000000e0: fd2b 973d 1edb 663d 379e d93d c375 8c3d
000000f0: 245b ba3d 2df1 913d 7f0b 78bd f9dc e5bc

bayes_fc2.weight_rho f4 [1, 64]
-1.0455331 -5.786484 -5.6196427 -5.681304 -5.502865 -5.6005898 -1.1370307 -4.821538
-5.4924955 -3.6344216 -3.238429 -5.5278125 -1.6400411 -5.707652 -1.8132067 -3.465701
-5.6595693 -2.413313 -1.5776607 -5.4708395 -4.8726516 -3.0220454 -2.2615988 -5.501039
-2.2557085 -2.4095058 -0.13497905 -5.471905 -5.641414 -0.6075869 -1.1215813 -1.5707595
-2.7934813 -0.8516505 -2.290103 -4.119519 -5.611535 -0.6051381 -4.4249578 -0.52363247
-5.498711 -5.379613 -5.652149 -2.384721 -2.3408742 -1.2914407 -1.4235651 -5.3297772
-1.3018553 -2.7689319 -2.3814847 -3.7920647 -1.9415177 -5.4775 -0.65271926 -5.511798
-5.588482 -5.3970547 -3.9382381 -4.2302732 -0.921073 -5.500555 -5.440978 -2.5157642
00000000: 07d4 85bf e02a b9c0 1dd4 b3c0 3ecd b5c0
00000010: 7817 b0c0 0838 b3c0 398a 91bf 0a4a 9ac0
00000020: 86c2 afc0 5d9a 68c0 6c42 4fc0 d7e3 b0c0
00000030: deec d1bf 16a5 b6c0 2817 e8bf 0cce 5dc0
00000040: 311b b5c0 b873 1ac0 c9f0 c9bf 1e11 afc0
00000050: c3ec 9bc0 3169 41c0 09be 10c0 8308 b0c0
00000060: 875d 10c0 5835 1ac0 f337 0abe d919 afc0
00000070: 7786 b4c0 d18a 1bbf fa8f 8fbf a60e c9bf
00000080: 66c8 32c0 c405 5abf 0c91 12c0 1ad3 83c0
00000090: b291 b3c0 55ea 1abf 4199 8dc0 c70c 06bf
000000a0: 71f5 afc0 ca25 acc0 68de b4c0 459f 18c0
000000b0: e2d0 15c0 ee4d a5bf 6237 b6bf 898d aac0
000000c0: 32a3 a6bf 2e36 31c0 3f6a 18c0 30b1 72c0
000000d0: a783 f8bf ae47 afc0 9c18 27bf a660 b0c0
000000e0: d8d4 b2c0 acb4 acc0 180c 7cc0 665e 87c0
000000f0: 71cb 6bbf 8c04 b0c0 7e1c aec0 4802 21c0

bayes_fc2.prior_mu_old f4 [1, 64]
-0.035268158 0.048878472 -0.036770716 -0.039141774 -0.043176834 0.05950838 -0.08647166 -0.036591724
-0.04917412 0.09290838 -0.002568014 -0.08714483 -0.092843495 0.057720926 -0.0066997274 0.38127473
0.031680897 -0.03683977 0.08471167 0.06398858 -0.06800633 -0.052993868 0.06122558 -0.03154234
-0.040596567 -0.040858805 -0.024567125 0.049792532 0.07425796 0.04444716 0.098363936 0.024659932
-0.030996328 -0.010157046 -0.009158877 0.061054524 -0.058981333 0.06547332 -0.011251971 0.14639594
-0.049562283 -0.051099166 -0.033628553 -0.0124426 -0.028267495 -0.077185854 -0.008357946 -0.02859388
0.0053295624 -0.012193288 0.036330815 -0.018904062 -0.031176295 0.06329351 0.04035637 0.053392485
0.07381437 0.05636131 0.1062588 0.06858399 0.09099415 0.07126079 -0.06055784 -0.02805947
00000000: 5875 10bd cb34 483d e49c 16bd 2053 20bd
00000010: 31da 30bd 0fbf 733d 0e18 b1bd 34e1 15bd
00000020: cd6a 49bd c046 be3d 204c 28bb fd78 b2bd
00000030: bb24 bebd c76c 6c3d 6389 dbbb 7136 c33e
00000040: d4c3 013d 4ce5 16bd 507d ad3d 720c 833d
00000050: e746 8bbd 1910 59bd acc7 7a3d 8a32 01bd
00000060: 9648 26bd 905b 27bd ff40 c9bc 41f3 4b3d
00000070: 8f14 983d 3a0e 363d 0873 c93d a003 ca3c
00000080: 03ec fdbc bd69 26bc 1d0f 16bc 4f14 7a3d
00000090: 6996 71bd e016 863d 305a 38bc d1e8 153e
000000a0: d201 4bbd 5c4d 51bd 18be 09bd 0cdc 4bbc
000000b0: 3c91 e7bc 9e13 9ebd c4ef 08bc b63d eabc
000000c0: 9ca3 ae3b 5bc6 47bc 9fcf 143d b1dc 9abc
000000d0: 6e65 ffbc 07a0 813d b94c 253d 14b2 5a3d
000000e0: fd2b 973d 1edb 663d 379e d93d c375 8c3d
000000f0: 245b ba3d 2df1 913d 7f0b 78bd f9dc e5bc

bayes_fc2.prior_sigma_small f4 [1, 64]
0.30121833 0.0030640548 0.0036193784 0.0034033123 0.0040667993 0.0036888714 0.27821493 0.008022127
0.004109102 0.026056753 0.038475692 0.003966796 0.17728563 0.003314959 0.15111482 0.030772714
0.003477962 0.08573561 0.1876884 0.0041988706 0.00762391 0.047552735 0.0991064 0.0040742164
0.09966366 0.08604896 0.6279334 0.0041944077 0.003541569 0.43480617 0.28198907 0.18887274
0.05940765 0.35537115 0.09645138 0.01612167 0.0036487887 0.4356703 0.011903588 0.46522027
0.0040836926 0.0045990143 0.0035038195 0.088115886 0.0918893 0.24284773 0.21579969 0.0048334496
0.2406114 0.0608401 0.088389255 0.022298528 0.1340815 0.0041710553 0.4191235 0.0040307054
0.0037337232 0.004519674 0.019295156 0.0144436015 0.3351082 0.0040761847 0.004325871 0.07770256
00000000: 4a39 9a3e 4fce 483b 1833 6d3b 1b0a 5f3b
00000010: c942 853b fec0 713b 3072 8e3e 3d6f 033c
00000020: a5a5 863b f974 d53c b098 1d3d e6fb 813b
00000030: 5d8a 353e c83f 593b d8bd 1a3e 0f17 fc3c
00000040: 85ee 633b 2796 af3d 6331 403e ae96 893b
00000050: fed1 f93b a8c6 423d 4cf8 ca3d 0181 853b
00000060: 761c cc3d 703a b03d 3ec0 203f 3e71 893b
00000070: ab19 683b ea9e de3e df60 903e db67 413e
00000080: 7055 733d 35f3 b53e 4d88 c53d 9811 843c
00000090: 8420 6f3b 2d10 df3e 4407 433c 5a31 ee3e
000000a0: 7fd0 853b 54b3 963b 56a0 653b 1a76 b43d
000000b0: 7530 bc3d 13ad 783e 98fa 5c3e ea61 9e3b
000000c0: d662 763e 7833 793d 6d05 b53d 67ab b63c
000000d0: a94c 093e 59ad 883b 5b97 d63e 0214 843b
000000e0: 7bb1 743b c619 943b e010 9e3c dba4 6c3c
000000f0: 4d93 ab3e 8491 853b 09c0 8d3b 8522 9f3d
