models/updated_hmnn_model_1992_2006.pth (torch, 14090 bytes, 12 tensors)

bayes_fc1.weight_mu f4 [64, 6]
-0.49304137 -0.6360565 -0.29229543 -0.596453 -0.48516926 -0.26712468 0.5160083 -0.11979284
1.329138 -0.44399184 0.10437706 -1.0171727 -0.37728986 0.21066867 -0.81412864 0.3320872
-0.16608451 0.9128102 -0.3754594 0.19628519 -1.2723926 0.40830362 -0.13634874 0.019071698
-0.37812418 0.20457691 -1.1661026 0.36815244 -0.15848193 0.52479756 0.22078882 -0.14006305
1.7445184 -0.31903094 0.1868585 0.4765373 -0.5545507 -0.4955809 -0.20494922 -0.45616835
-0.5223223 -0.18180361 -0.45774108 0.27144828 -0.12530395 -0.2580669 -0.31927586 1.6638695
-0.29755515 0.12560357 -1.2663 0.4925098 -0.14861217 0.12222129 -0.6533897 -0.27373645
-0.021067068 -0.15639587 0.11495124 1.1525925 -0.37998533 -0.38632396 -0.08956481 -0.5213966
-0.18834786 -0.17964181 -0.21780352 0.086801685 -1.6626855 0.49841452 -0.08171513 -0.22668308
-0.54724085 -0.19981669 -0.20399818 -0.48680115 -0.556752 -0.2055586 0.4420541 -0.1351966
1.2317888 -0.37993324 0.16912425 -0.21338026 -0.3532176 -0.2632692 -0.28914547 -0.5375294
-0.51002234 -0.12887603 -1.0267344 -0.20261857 -1.2354754 -0.058723602 0.04713246 0.7890138
0.28563896 -0.15772046 2.0737731 -0.37254533 0.18841569 0.2259676 -0.38322097 -0.1465401
-0.15589002 -0.48583198 -0.34531137 -0.21989946 -0.44099227 -0.40689883 -0.08508345 -0.39304265
-0.43895227 -0.18312164 0.31452677 -0.10441357 1.3867111 -0.36832574 0.19745634 -0.3449692
-0.2470466 0.07771506 -1.0963047 0.32850364 -0.12730551 0.24565808 -0.34493104 0.08529585
-0.15849295 -0.4227927 -0.22307445 0.26138088 -0.4046259 -0.38076976 -0.112911366 -0.6284183
-0.61917007 -0.18941453 -0.34385258 0.16046178 -0.5933265 0.34688315 -0.15599881 0.68468237
-0.40300098 -0.42979664 -0.13710423 -0.6042348 -0.4627847 -0.23184092 -0.3783361 -0.4691917
-0.0755282 -0.33312857 -0.49603885 -0.13316306 -0.44771796 -0.32796276 -0.2648122 -0.33051875
-0.22447279 -0.2857012 0.22616506 -0.12463395 1.5164801 -0.35293338 0.18536088 0.25982267
0.3341342 -0.13089493 1.390369 -0.26711625 0.14725916 0.2701212 -0.36133608 -0.40804783
-0.2820554 -0.43716115 -0.45002383 -0.24581285 -0.42291144 -0.27746305 -0.23626097 -0.17460269
-0.35936776 -0.27995044 -0.42076182 -0.38052708 -0.171524 -0.33621585 -0.5673982 -0.21861681
-0.3148822 -0.30699265 -0.26891676 -0.38239166 -0.30144492 -0.17539927 -0.49086925 -0.31727582
-0.24852923 -0.48748124 -0.36943498 -0.19963068 -0.34994578 -0.17134032 -0.20935078 -0.4286777
-0.39592063 -0.12481871 -0.32870263 -0.23680994 0.62808186 -0.3926825 0.158218 0.7299686
-0.4377474 0.25850582 -1.3066378 0.31638253 -0.11764317 0.28985903 -0.6120694 -0.50269914
-0.3125124 -0.5648078 -0.422297 -0.2617681 -0.40285113 0.16213772 -0.01879417 -0.264858
-0.38441932 0.53264904 -0.29475567 -0.18215874 -0.16755557 -0.25086513 -0.38614112 -0.10355547
-0.36115396 0.17764509 -1.134388 0.33487675 -0.1249661 0.40081328 -0.34612203 0.13282384
-1.0355395 0.3993218 -0.12494594 0.47429645 -0.28227058 0.09921411 -1.2423811 0.48740682
00000000: eb6f fcbe 99d4 22bf bfa7 95be 25b1 18bf
00000010: 1b68 f8be 91c4 88be 1f19 043f f355 f5bd
00000020: 3221 aa3f e652 e3be a4c3 d53d b732 82bf
00000030: 232c c1be 87b9 573e bc6a 50bf 5507 aa3e
00000040: 0f12 2abe eead 693f 373c c0be fcfe 483e
00000050: c3dd a2bf 2c0d d13e 019f 0bbe 403c 9c3c
00000060: 7e99 c1be 9c7c 513e da42 95bf 7a7e bc3e
00000070: 1649 22be 2259 063f 7716 623e b06c 0fbe
00000080: 614c df3f 0658 a3be d657 3f3e b2fc f33e
00000090: 09f7 0dbf c8bc fdbe 35de 51be e68e e9be
000000a0: eab6 05bf ba2a 3abe 0a5d eabe 45fb 8a3e
000000b0: ae4f 00be 5821 84be 2078 a3be adf9 d43f
000000c0: 2659 98be 399e 003e 1e16 a2bf 3f2a fc3e
000000d0: ca2d 18be 284f fa3d 8c44 27bf 2f27 8cbe
000000e0: d894 acbc 3d26 20be 8e6b eb3d 2788 933f
000000f0: 708d c2be 41cc c5be c16d b7bd 3f7a 05bf
00000100: 43de 40be 06f4 37be e307 5fbe 15c5 b13d
00000110: e1d2 d4bf 3030 ff3e 435a a7bd 9c1f 68be
00000120: fa17 0cbf bf9c 4cbe e6e4 50be 003e f9be
00000130: 4d87 0ebf f47d 52be ea54 e23e fa70 0abe
00000140: 41ab 9d3f 9c86 c2be e82e 2d3e 5b80 5abe
00000150: f0d8 b4be 38cb 86be e00a 94be 879b 09bf
00000160: d390 02bf 14f8 03be 086c 83bf 3e7b 4fbe
00000170: 0f24 9ebf 2988 70bd f70d 413d cffc 493f
00000180: 453f 923e 7981 21be b3b8 0440 43be bebe
00000190: 0bf0 403e 0d64 673e 8a35 c4be 9c0e 16be
000001a0: a2a1 1fbe f8be f8be a7cc b0be 532d 61be
000001b0: bdc9 e1be 0b55 d0be 3b40 aebd e33c c9be
000001c0: 5abe e0be 3d84 3bbe a709 a13e c8d6 d5bd
000001d0: c07f b13f 3195 bcbe ff31 4a3e ce9f b0be
000001e0: c9f9 7cbe 1329 9f3d b653 8cbf a131 a83e
000001f0: 605c 02be cb8d 7b3e cd9a b0be 97af ae3d
00000200: fa4b 22be 4978 d8be a16d 64be b7d3 853e
00000210: 202b cfbe 41f4 c2be 133e e7bd 06e0 20bf
00000220: ee81 1ebf e2f5 41be 720d b0be 1850 243e
00000230: 3fe4 17bf ab9a b13e 27be 1fbe 5847 2f3f
00000240: 2556 cebe 4e0e dcbe 0d65 0cbe 22af 1abf
00000250: 1ef2 ecbe b567 6dbe 45b5 c1be e539 f0be
00000260: 87ae 9abd d48f aabe cef8 fdbe e65b 08be
00000270: 4a3b e5be bcea a7be 7795 87be c139 a9be
00000280: 32dc 65be 6d47 92be d097 673e 1640 ffbd
00000290: 051c c23f afb3 b4be 3ecf 3d3e 7a07 853e
000002a0: a313 ab3e 5209 06be 9df7 b13f 76c3 88be
000002b0: 1bcb 163e 534d 8a3e 0b01 b9be a5eb d0be
000002c0: 9169 90be 96d3 dfbe 8669 e6be 5db6 7bbe
000002d0: d987 d8be a30f 8ebe 65ee 71be 0ccb 32be
000002e0: 0dff b7be aa55 8fbe 186e d7be 72d4 c2be
000002f0: fda3 2fbe 7c24 acbe 0241 11bf 16dd 5fbe
00000300: 3d38 a1be 242e 9dbe 75af 89be d7c8 c3be
00000310: fd56 9abe de9b 33be 3753 fbbe fa71 a2be
00000320: 727e 7ebe 2497 f9be 9526 bdbe fc6b 4cbe
00000330: 182c b3be d673 2fbe 0d60 56be a57b dbbe
00000340: 1cb6 cabe f4a0 ffbd b64b a8be 4e7e 72be
00000350: f9c9 203f ae0d c9be e603 223e 39df 3a3f
00000360: 6d20 e0be e05a 843e e83f a7bf e4fc a13e
00000370: e7ee f0bd 6768 943e 95b0 1cbf e4b0 00bf
00000380: a001 a0be 3e97 10bf 5037 d8be 7806 86be
00000390: 8142 cebe 6e07 263e 3bf6 99bc 789b 87be
000003a0: 9cd2 c4be b05b 083f 37ea 96be d287 3abe
000003b0: b093 2bbe 6571 80be 4ab4 c5be e414 d4bd
000003c0: 2ce9 b8be 98e8 353e a033 91bf f774 ab3e
000003d0: 3aee ffbd 6637 cd3e e836 b1be f902 083e
000003e0: 8f8c 84bf e873 cc3e a8e3 ffbd fcd6 f23e
000003f0: c585 90be c430 cb3d 5806 9fbf 638d f93e

bayes_fc1.weight_rho f4 [64, 6]
-0.84621555 -1.2555773 0.43376034 -0.71925646 -1.5190116 0.4171217 -3.401226 -4.293679
-0.444998 -2.854045 -4.10667 -0.28496096 -3.0200784 -4.030192 -0.13472238 -2.8937528
-3.9477286 -0.17063838 -3.3948863 -4.551082 -0.5535944 -3.4666116 -4.4155483 -0.6543515
-3.3915749 -4.3959064 -0.25725508 -3.4235928 -4.2438316 -0.7604415 -3.1375508 -3.9680624
-0.78248143 -3.4886396 -4.5860877 -0.6260496 -0.8728677 -1.479325 0.38123465 -0.7988028
-1.4124635 0.46219906 -2.3484178 -3.6221633 0.25536177 -1.778542 -2.6023338 0.6377573
-3.0686512 -4.2481265 -0.34365693 -3.3408961 -4.141954 -0.26971275 -1.4379638 -2.5480883
0.22804505 -2.7622614 -3.4886196 0.29290378 -0.5774547 -1.7581052 0.46360195 -0.7814977
-1.7909225 0.43487006 -3.4290206 -4.6854734 -0.73595184 -3.5184243 -4.584895 -0.48505715
-1.0461466 -1.9915377 0.36586037 -0.8867103 -1.3633893 0.47041884 -3.6075835 -4.3863225
-0.799805 -3.534258 -4.7115602 -0.44319534 -1.0134381 -2.0795016 0.37702706 -0.9595541
-1.3352273 0.34630558 -1.614879 -3.9644942 -0.66924185 -3.8577504 -4.879653 -1.5601943
-2.9817438 -4.034598 -0.43979526 -3.3046844 -4.032057 -0.30977574 -0.71342313 -2.005613
0.42220613 -0.869495 -1.8794585 0.4444615 -0.88943714 -1.7544007 0.4651189 -0.7379098
-1.5493829 0.5246441 -3.896807 -4.7942667 -1.0301505 -3.6699157 -4.6051984 -0.85911524
-2.7972746 -4.0420284 -0.29460877 -2.9445856 -3.8812475 -0.21759886 -1.8582416 -3.1350799
0.50428945 -1.1048112 -2.5624082 0.5251069 -0.8697892 -1.546223 0.46888033 -0.531783
-1.1837075 0.40093553 -2.5986164 -3.8512652 0.25894746 -2.4207656 -3.6323376 -0.15095642
-0.7929692 -1.6935743 0.55062735 -0.6755065 -1.3374667 0.4695939 -0.7494446 -1.5539358
0.4052664 -0.9644843 -1.3628263 0.47781664 -1.2104582 -2.18165 0.24689154 -1.4052743
-2.2659264 0.24333626 -3.2938297 -4.453345 -0.8718872 -3.5465524 -4.507681 -0.75375485
-3.6458776 -4.3100886 -0.9958722 -3.7072787 -4.481879 -0.82263726 -1.0977572 -1.6237326
0.38207787 -1.1068485 -1.6173296 0.2673042 -0.9941939 -1.9124944 0.45619342 -1.3906547
-1.8085674 0.36639276 -0.9132092 -1.8224072 0.41524082 -1.0149257 -1.4121999 0.3953247
-0.85601413 -1.6925685 0.42936382 -0.9992035 -1.7628249 0.50561035 -0.96678627 -1.753049
0.3344429 -0.9702711 -1.9246956 0.4074788 -1.1995746 -2.1392863 0.458316 -0.96691066
-1.6404095 0.4124284 -1.6160712 -2.710414 0.51765215 -2.1563344 -3.3816934 0.3251377
-3.4285145 -4.58279 -0.6247799 -3.4140935 -4.241595 -0.6355442 -0.87982213 -1.4021164
0.3517806 -0.9458366 -1.7075546 0.4383795 -1.6806446 -2.916902 0.3916459 -1.0133512
-2.2116292 0.64571935 -1.3676901 -2.2565408 0.33177516 -1.5839803 -1.9055501 0.25602654
-3.2628882 -4.5183845 -0.4552934 -3.4767914 -4.2659993 -0.47079837 -2.6802788 -3.9316504
0.13594112 -2.807156 -3.9467354 -0.049448967 -2.9372485 -4.063842 -0.083093084 -3.0911522
00000000: 95a1 58bf c2b6 a0bf d615 de3e 3121 38bf
00000010: f96e c2bf fa90 d53e b0ad 59c0 d265 89c0
00000020: c7d6 e3be aca8 36c0 d769 83c0 67e6 91be
00000030: f748 41c0 55f7 80c0 aaf4 09be 3f33 39c0
00000040: 96a7 7cc0 d4bb 2ebe d145 59c0 77a2 91c0
00000050: 5db8 0dbf f7dc 5dc0 2c4c 8dc0 9483 27bf
00000060: 900f 59c0 44ab 8cc0 f0b6 83be 251c 5bc0
00000070: 78cd 87c0 4bac 42bf a2cd 48c0 bcf4 7dc0
00000080: b450 48bf df45 5fc0 3bc1 92c0 c944 20bf
00000090: 4274 5fbf 865a bdbf 3031 c33e 577e 4cbf
000000a0: 9bcb b4bf 5ba5 ec3e 7a4c 16c0 86d1 67c0
000000b0: c7be 823e 44a7 e3bf a38c 26c0 1044 233f
000000c0: c864 44c0 a7f0 87c0 cdf3 afbe 3ed1 55c0
000000d0: e38a 84c0 ca17 8abe 330f b8bf e113 23c0
000000e0: a484 693e e4c8 30c0 8b45 5fc0 7cf7 953e
000000f0: 12d4 13bf 9709 e1bf 3c5d ed3e 3c10 48bf
00000100: f33c e5bf 4aa7 de3e 1375 5bc0 66ef 95c0
00000110: 5767 3cbf dd2d 61c0 76b7 92c0 6959 f8be
00000120: 22e8 85bf b5ea febf 0d52 bb3e 72ff 62bf
00000130: 8a83 aebf bdda f03e a6e2 66c0 c15c 8cc0
00000140: 05c0 4cbf 4831 62c0 1ac5 96c0 80ea e2be
00000150: 57b8 81bf 8e16 05c0 b109 c13e 56a5 75bf
00000160: bae8 aabf f74e b13e 5bb4 cebf 46ba 7dc0
00000170: 6f53 2bbf 62e5 76c0 1e26 9cc0 72b4 c7bf
00000180: e4d4 3ec0 6d1b 81c0 d82c e1be f37f 53c0
00000190: 9c06 81c0 ed9a 9ebe e6a2 36bf f75b 00c0
000001a0: 672b d83e 3997 5ebf 1992 f0bf 7590 e33e
000001b0: 27b2 63bf 3490 e0bf 1124 ee3e a8e7 3cbf
000001c0: 2e52 c6bf 134f 063f 4965 79c0 a26a 99c0
000001d0: f9db 83bf e6df 6ac0 c95d 93c0 faee 5bbf
000001e0: 8c06 33c0 4c58 81c0 f6d6 96be 1774 3cc0
000001f0: 5c66 78c0 3cd2 5ebe dcda edbf 26a5 48c0
00000200: 1d19 013f 746a 8dbf 7ffe 23c0 686d 063f
00000210: 81aa 5ebf a3ea c5bf 1511 f03e ee22 08bf
00000220: ba83 97bf 6c47 cd3e bb4f 26c0 217b 76c0
00000230: c394 843e d3ed 1ac0 3878 68c0 5294 1abe
00000240: 0800 4bbf 0bc7 d8bf eaf5 0c3f feed 2cbf
00000250: 1c32 abbf 9d6e f03e 9adb 3fbf 5ee7 c6bf
00000260: 147f cf3e 71e8 76bf 1871 aebf 62a4 f43e
00000270: 4bf0 9abf 27a0 0bc0 23d1 7c3e 07e0 b3bf
00000280: f004 11c0 242d 793e 1bce 52c0 cd81 8ec0
00000290: 0034 5fbf b7fa 62c0 ec3e 90c0 14f6 40bf
000002a0: 0f56 69c0 3fec 89c0 7bf1 7ebf 0e44 6dc0
000002b0: 8e6b 8fc0 5b98 52bf 4f83 8cbf 78d6 cfbf
000002c0: b69f c33e 36ad 8dbf a804 cfbf 19dc 883e
000002d0: 7e83 7ebf 9ecc f4bf 2f92 e93e f900 b2bf
000002e0: 237f e7bf d597 bb3e 14c8 69bf a444 e9bf
000002f0: 729a d43e 16e9 81bf f7c2 b4bf 0068 ca3e
00000300: be23 5bbf 16a6 d8bf 93d5 db3e cdcb 7fbf
00000310: 3fa4 e1bf ae6f 013f 4e7f 77bf e963 e0bf
00000320: 1a3c ab3e b063 78bf 6d5c f6bf 10a1 d03e
00000330: a98b 99bf 11ea 08c0 65a8 ea3e 7587 77bf
00000340: f0f8 d1bf d129 d33e 6cdb cebf 6c77 2dc0
00000350: da84 043f 6201 0ac0 aa6d 58c0 7378 a63e
00000360: c86c 5bc0 37a6 92c0 93f1 1fbf 8280 5ac0
00000370: 25bb 87c0 06b3 22bf 063c 61bf 8d78 b3bf
00000380: 961c b43e 5922 72bf 2691 dabf 4773 e03e
00000390: 5d1f d7bf 86ae 3ac0 d085 c83e 7eb5 81bf
000003a0: 558b 0dc0 dd4d 253f 7810 afbf 2a6b 10c0
000003b0: 6fde a93e debf cabf 11e9 f3bf e915 833e
000003c0: 29d3 50c0 9b96 90c0 371c e9be c083 5ec0
000003d0: 1183 88c0 7c0c f1be b089 2bc0 29a0 7bc0
000003e0: 2634 0b3e 72a8 33c0 5097 7cc0 008b 4abd
000003f0: e1fb 3bc0 fe0a 82c0 b52c aabd 70d5 45c0

bayes_fc1.bias_mu f4 [64]
-0.017642243 0.0057003503 -0.020031476 -0.01647654 -0.019586425 0.023681808 0.014746294 0.051469292
-0.06236036 0.050194424 0.0034283083 -0.083555505 -0.0037638291 0.026974283 -0.01372081 0.79604393
0.050697025 0.0054651457 0.032152373 0.036309358 -0.07790504 0.011365405 -0.030267699 -0.00698256
-0.015306743 -0.023135649 -0.040980022 0.01272457 0.06081748 -0.030204961 0.033714868 -0.014770085
0.0039915144 -0.0056178337 -0.011009592 0.095832594 -0.034849025 -0.0062464415 0.0044683367 -0.0007767972
-0.020375868 -0.042312384 -0.05492924 -0.010726428 -0.0029670657 -0.022804579 -0.05742284 0.031188995
-0.049878284 0.010538816 -0.02505584 -0.017653238 0.011142259 -0.005688805 0.0204288 0.027211145
0.08877731 0.037808865 0.004208835 0.12659134 -0.019967016 0.056255482 -0.07207996 0.0044643953
00000000: 7786 90bc 01ca ba3b 0d19 a4bc cff9 86bc
00000010: b673 a0bc 5a00 c23c 719a 713c 77d1 523d
00000020: 946d 7fbd ab98 4d3d 78ad 603b 261f abbd
00000030: 93aa 76bb 2cf9 dc3c 40cd 60bc 89c9 4b3f
00000040: afa7 4f3d f714 b33b 35b2 033d 1fb9 143d
00000050: ad8c 9fbd f735 3a3c f7f3 f7bc f5cd e4bb
00000060: 22c9 7abc f986 bdbc abda 27bd b77a 503c
00000070: c01b 793d 6570 f7bc 9a18 0a3d 3afe 71bc
00000080: 40cb 823b ce15 b8bb 9361 34bc e143 c43d
00000090: dabd 0ebd f3ae ccbb 206b 923b faa1 4bba
000000a0: 4beb a6bc c04f 2dbd 7cfd 60bd e6bd 2fbc
000000b0: 1a73 42bb abd0 babc 3634 6bbd 1080 ff3c
000000c0: 2c4d 4cbd 00ab 2c3c e841 cdbc 869d 90bc
000000d0: 068e 363c 2869 babb 4c5a a73c e8e9 de3c
000000e0: e1d0 b53d 78dd 1a3d 44ea 893b 29a1 013e
000000f0: de91 a3bc 266c 663d a89e 93bd 104a 923b

bayes_fc1.bias_rho f4 [64]
-0.33207908 -1.4912182 -1.439986 -1.6785219 -1.7082584 -1.7540748 -0.3145204 -0.74545234
-1.5241653 -0.8455475 -0.34190968 -1.7347643 -0.39427564 -1.7566198 -0.4629487 -0.74929965
-1.5935649 -0.42304403 -0.33171403 -2.0250018 -1.310288 -0.65534645 -0.26390204 -1.163333
-0.31827542 -0.34334576 -0.6651706 -1.8451504 -1.9718481 -0.5439362 -0.45425892 -0.37501124
-0.39525968 -0.4353162 -0.4416134 -0.62896717 -1.7484528 -0.4062723 -0.42830193 -0.6286098
-1.576909 -1.2961442 -1.3460948 -0.43795112 -0.3347189 -0.4443677 -0.6532488 -0.89597815
-0.5025548 -0.42437598 -0.48696542 -0.5434858 -0.3838329 -2.0958743 -0.39949885 -1.8391038
-1.6804512 -1.762371 -1.240637 -0.7311606 -0.3365613 -1.8748988 -1.7470224 -0.46304023
00000000: 4506 aabe 3de0 bebf 7651 b8bf ced9 d6bf
00000010: 36a8 dabf 8685 e0bf d108 a1be f7d5 3ebf
00000020: d917 c3bf cd75 58bf c90e afbe c20c debf
00000030: 7fde c9be ebd8 e0bf 9d07 edbe 1ad2 3fbf
00000040: eff9 cbbf 3a99 d8be 6cd6 a9be a199 01c0
00000050: 84b7 a7bf c9c4 27bf 2b1e 87be 19e8 94bf
00000060: fff4 a2be 04cb afbe 9f48 2abf e32d ecbf
00000070: 8565 fcbf 673f 0bbf a094 e8be 7901 c0be
00000080: 7a5f cabe c4e1 debe 271b e2be fe03 21bf
00000090: 4dcd dfbf ec02 d0be 644a dbbe 92ec 20bf
000000a0: 27d8 c9bf 0ee8 a5bf d64c acbf 213b e0be
000000b0: 4760 abbe 2a84 e3be 503b 27bf d35e 65bf
000000c0: 6ea7 00bf cf47 d9be 8853 f9be e321 0bbf
000000d0: bf85 c4be ce22 06c0 1d8b ccbe c167 ebbf
000000e0: 0619 d7bf 5f95 e1bf 31cd 9ebf 572d 3bbf
000000f0: c351 acbe affc efbf 6e9e dfbf 9c13 edbe

bayes_fc1.prior_mu_old_bias f4 [64]
-0.017642243 0.0057003503 -0.020031476 -0.01647654 -0.019586425 0.023681808 0.014746294 0.051469292
-0.06236036 0.050194424 0.0034283083 -0.083555505 -0.0037638291 0.026974283 -0.01372081 0.79604393
0.050697025 0.0054651457 0.032152373 0.036309358 -0.07790504 0.011365405 -0.030267699 -0.00698256
-0.015306743 -0.023135649 -0.040980022 0.01272457 0.06081748 -0.030204961 0.033714868 -0.014770085
0.0039915144 -0.0056178337 -0.011009592 0.095832594 -0.034849025 -0.0062464415 0.0044683367 -0.0007767972
-0.020375868 -0.042312384 -0.05492924 -0.010726428 -0.0029670657 -0.022804579 -0.05742284 0.031188995
-0.049878284 0.010538816 -0.02505584 -0.017653238 0.011142259 -0.005688805 0.0204288 0.027211145
0.08877731 0.037808865 0.004208835 0.12659134 -0.019967016 0.056255482 -0.07207996 0.0044643953
00000000: 7786 90bc 01ca ba3b 0d19 a4bc cff9 86bc
00000010: b673 a0bc 5a00 c23c 719a 713c 77d1 523d
00000020: 946d 7fbd ab98 4d3d 78ad 603b 261f abbd
00000030: 93aa 76bb 2cf9 dc3c 40cd 60bc 89c9 4b3f
00000040: afa7 4f3d f714 b33b 35b2 033d 1fb9 143d
00000050: ad8c 9fbd f735 3a3c f7f3 f7bc f5cd e4bb
00000060: 22c9 7abc f986 bdbc abda 27bd b77a 503c
00000070: c01b 793d 6570 f7bc 9a18 0a3d 3afe 71bc
00000080: 40cb 823b ce15 b8bb 9361 34bc e143 c43d
00000090: dabd 0ebd f3ae ccbb 206b 923b faa1 4bba
000000a0: 4beb a6bc c04f 2dbd 7cfd 60bd e6bd 2fbc
000000b0: 1a73 42bb abd0 babc 3634 6bbd 1080 ff3c
000000c0: 2c4d 4cbd 00ab 2c3c e841 cdbc 869d 90bc
000000d0: 068e 363c 2869 babb 4c5a a73c e8e9 de3c
000000e0: e1d0 b53d 78dd 1a3d 44ea 893b 29a1 013e
000000f0: de91 a3bc 266c 663d a89e 93bd 104a 923b

bayes_fc1.prior_sigma_small_bias f4 [64]
0.54082936 0.20302106 0.21263337 0.17113394 0.16651483 0.15962192 0.54820174 0.38833225
0.19704825 0.35720038 0.5367345 0.16249444 0.5153165 0.15924686 0.48822716 0.38709575
0.18498462 0.5038311 0.5409818 0.123980336 0.23881403 0.41822478 0.56987655 0.2718903
0.54661876 0.5361383 0.41487786 0.14669573 0.1303257 0.45771527 0.49159285 0.5231187
0.5149203 0.4989919 0.49652272 0.42731932 0.16045336 0.5105028 0.5017534 0.42744365
0.18781707 0.24183547 0.23131378 0.49795756 0.5397274 0.4954457 0.41894224 0.34231806
0.4731132 0.5033041 0.47901806 0.4578807 0.51953477 0.115970455 0.51321644 0.1475229
0.17083071 0.15840228 0.25402182 0.39295384 0.5389594 0.14268851 0.16066554 0.48819178
00000000: cb73 0a3f c1e4 4f3e 90bc 593e bc3d 2f3e
00000010: dd82 2a3e ee73 233e f356 0c3f 7cd3 c63e
00000020: 04c7 493e f8e2 b63e 6f67 093f f164 263e
00000030: c8eb 033f 9c11 233e e9f8 f93e 6a31 c63e
00000040: 9c6c 3d3e 13fb 003f c97d 0a3f 67e9 fd3d
00000050: aa8b 743e 8f21 d63e 6ee3 113f 3535 8b3e
00000060: 35ef 0b3f 5c40 093f df6a d43e 6837 163e
00000070: 1a74 053e a859 ea3e 0fb2 fb3e 1beb 053f
00000080: d1d1 033f de7b ff3e 3a38 fe3e 99c9 da3e
00000090: e34d 243e 50b0 023f e972 003f e5d9 da3e
000000a0: 1e53 403e b8a3 773e 85dd 6c3e 4bf4 fe3e
000000b0: 932b 0a3f 0fab fd3e 997f d63e 5044 af3e
000000c0: e53b f23e 8ad8 003f db41 f53e 576f ea3e
000000d0: 3b00 053f eb81 ed3d 2762 033f 3e10 173e
000000e0: 3fee 2e3e 3534 223e 260f 823e 3f31 c93e
000000f0: 3ef9 093f f01c 123e 8285 243e 46f4 f93e

bayes_fc1.prior_mu_old f4 [64, 6]
-0.49304137 -0.6360565 -0.29229543 -0.596453 -0.48516926 -0.26712468 0.5160083 -0.11979284
1.329138 -0.44399184 0.10437706 -1.0171727 -0.37728986 0.21066867 -0.81412864 0.3320872
-0.16608451 0.9128102 -0.3754594 0.19628519 -1.2723926 0.40830362 -0.13634874 0.019071698
-0.37812418 0.20457691 -1.1661026 0.36815244 -0.15848193 0.52479756 0.22078882 -0.14006305
1.7445184 -0.31903094 0.1868585 0.4765373 -0.5545507 -0.4955809 -0.20494922 -0.45616835
-0.5223223 -0.18180361 -0.45774108 0.27144828 -0.12530395 -0.2580669 -0.31927586 1.6638695
-0.29755515 0.12560357 -1.2663 0.4925098 -0.14861217 0.12222129 -0.6533897 -0.27373645
-0.021067068 -0.15639587 0.11495124 1.1525925 -0.37998533 -0.38632396 -0.08956481 -0.5213966
-0.18834786 -0.17964181 -0.21780352 0.086801685 -1.6626855 0.49841452 -0.08171513 -0.22668308
-0.54724085 -0.19981669 -0.20399818 -0.48680115 -0.556752 -0.2055586 0.4420541 -0.1351966
1.2317888 -0.37993324 0.16912425 -0.21338026 -0.3532176 -0.2632692 -0.28914547 -0.5375294
-0.51002234 -0.12887603 -1.0267344 -0.20261857 -1.2354754 -0.058723602 0.04713246 0.7890138
0.28563896 -0.15772046 2.0737731 -0.37254533 0.18841569 0.2259676 -0.38322097 -0.1465401
-0.15589002 -0.48583198 -0.34531137 -0.21989946 -0.44099227 -0.40689883 -0.08508345 -0.39304265
-0.43895227 -0.18312164 0.31452677 -0.10441357 1.3867111 -0.36832574 0.19745634 -0.3449692
-0.2470466 0.07771506 -1.0963047 0.32850364 -0.12730551 0.24565808 -0.34493104 0.08529585
-0.15849295 -0.4227927 -0.22307445 0.26138088 -0.4046259 -0.38076976 -0.112911366 -0.6284183
-0.61917007 -0.18941453 -0.34385258 0.16046178 -0.5933265 0.34688315 -0.15599881 0.68468237
-0.40300098 -0.42979664 -0.13710423 -0.6042348 -0.4627847 -0.23184092 -0.3783361 -0.4691917
-0.0755282 -0.33312857 -0.49603885 -0.13316306 -0.44771796 -0.32796276 -0.2648122 -0.33051875
-0.22447279 -0.2857012 0.22616506 -0.12463395 1.5164801 -0.35293338 0.18536088 0.25982267
0.3341342 -0.13089493 1.390369 -0.26711625 0.14725916 0.2701212 -0.36133608 -0.40804783
-0.2820554 -0.43716115 -0.45002383 -0.24581285 -0.42291144 -0.27746305 -0.23626097 -0.17460269
-0.35936776 -0.27995044 -0.42076182 -0.38052708 -0.171524 -0.33621585 -0.5673982 -0.21861681
-0.3148822 -0.30699265 -0.26891676 -0.38239166 -0.30144492 -0.17539927 -0.49086925 -0.31727582
-0.24852923 -0.48748124 -0.36943498 -0.19963068 -0.34994578 -0.17134032 -0.20935078 -0.4286777
-0.39592063 -0.12481871 -0.32870263 -0.23680994 0.62808186 -0.3926825 0.158218 0.7299686
-0.4377474 0.25850582 -1.3066378 0.31638253 -0.11764317 0.28985903 -0.6120694 -0.50269914
-0.3125124 -0.5648078 -0.422297 -0.2617681 -0.40285113 0.16213772 -0.01879417 -0.264858
-0.38441932 0.53264904 -0.29475567 -0.18215874 -0.16755557 -0.25086513 -0.38614112 -0.10355547
-0.36115396 0.17764509 -1.134388 0.33487675 -0.1249661 0.40081328 -0.34612203 0.13282384
-1.0355395 0.3993218 -0.12494594 0.47429645 -0.28227058 0.09921411 -1.2423811 0.48740682
00000000: eb6f fcbe 99d4 22bf bfa7 95be 25b1 18bf
00000010: 1b68 f8be 91c4 88be 1f19 043f f355 f5bd
00000020: 3221 aa3f e652 e3be a4c3 d53d b732 82bf
00000030: 232c c1be 87b9 573e bc6a 50bf 5507 aa3e
00000040: 0f12 2abe eead 693f 373c c0be fcfe 483e
00000050: c3dd a2bf 2c0d d13e 019f 0bbe 403c 9c3c
00000060: 7e99 c1be 9c7c 513e da42 95bf 7a7e bc3e
00000070: 1649 22be 2259 063f 7716 623e b06c 0fbe
00000080: 614c df3f 0658 a3be d657 3f3e b2fc f33e
00000090: 09f7 0dbf c8bc fdbe 35de 51be e68e e9be
000000a0: eab6 05bf ba2a 3abe 0a5d eabe 45fb 8a3e
000000b0: ae4f 00be 5821 84be 2078 a3be adf9 d43f
000000c0: 2659 98be 399e 003e 1e16 a2bf 3f2a fc3e
000000d0: ca2d 18be 284f fa3d 8c44 27bf 2f27 8cbe
000000e0: d894 acbc 3d26 20be 8e6b eb3d 2788 933f
000000f0: 708d c2be 41cc c5be c16d b7bd 3f7a 05bf
00000100: 43de 40be 06f4 37be e307 5fbe 15c5 b13d
00000110: e1d2 d4bf 3030 ff3e 435a a7bd 9c1f 68be
00000120: fa17 0cbf bf9c 4cbe e6e4 50be 003e f9be
00000130: 4d87 0ebf f47d 52be ea54 e23e fa70 0abe
00000140: 41ab 9d3f 9c86 c2be e82e 2d3e 5b80 5abe
00000150: f0d8 b4be 38cb 86be e00a 94be 879b 09bf
00000160: d390 02bf 14f8 03be 086c 83bf 3e7b 4fbe
00000170: 0f24 9ebf 2988 70bd f70d 413d cffc 493f
00000180: 453f 923e 7981 21be b3b8 0440 43be bebe
00000190: 0bf0 403e 0d64 673e 8a35 c4be 9c0e 16be
000001a0: a2a1 1fbe f8be f8be a7cc b0be 532d 61be
000001b0: bdc9 e1be 0b55 d0be 3b40 aebd e33c c9be
000001c0: 5abe e0be 3d84 3bbe a709 a13e c8d6 d5bd
000001d0: c07f b13f 3195 bcbe ff31 4a3e ce9f b0be
000001e0: c9f9 7cbe 1329 9f3d b653 8cbf a131 a83e
000001f0: 605c 02be cb8d 7b3e cd9a b0be 97af ae3d
00000200: fa4b 22be 4978 d8be a16d 64be b7d3 853e
00000210: 202b cfbe 41f4 c2be 133e e7bd 06e0 20bf
00000220: ee81 1ebf e2f5 41be 720d b0be 1850 243e
00000230: 3fe4 17bf ab9a b13e 27be 1fbe 5847 2f3f
00000240: 2556 cebe 4e0e dcbe 0d65 0cbe 22af 1abf
00000250: 1ef2 ecbe b567 6dbe 45b5 c1be e539 f0be
00000260: 87ae 9abd d48f aabe cef8 fdbe e65b 08be
00000270: 4a3b e5be bcea a7be 7795 87be c139 a9be
00000280: 32dc 65be 6d47 92be d097 673e 1640 ffbd
00000290: 051c c23f afb3 b4be 3ecf 3d3e 7a07 853e
000002a0: a313 ab3e 5209 06be 9df7 b13f 76c3 88be
000002b0: 1bcb 163e 534d 8a3e 0b01 b9be a5eb d0be
000002c0: 9169 90be 96d3 dfbe 8669 e6be 5db6 7bbe
000002d0: d987 d8be a30f 8ebe 65ee 71be 0ccb 32be
000002e0: 0dff b7be aa55 8fbe 186e d7be 72d4 c2be
000002f0: fda3 2fbe 7c24 acbe 0241 11bf 16dd 5fbe
00000300: 3d38 a1be 242e 9dbe 75af 89be d7c8 c3be
00000310: fd56 9abe de9b 33be 3753 fbbe fa71 a2be
00000320: 727e 7ebe 2497 f9be 9526 bdbe fc6b 4cbe
00000330: 182c b3be d673 2fbe 0d60 56be a57b dbbe
00000340: 1cb6 cabe f4a0 ffbd b64b a8be 4e7e 72be
00000350: f9c9 203f ae0d c9be e603 223e 39df 3a3f
00000360: 6d20 e0be e05a 843e e83f a7bf e4fc a13e
00000370: e7ee f0bd 6768 943e 95b0 1cbf e4b0 00bf
00000380: a001 a0be 3e97 10bf 5037 d8be 7806 86be
00000390: 8142 cebe 6e07 263e 3bf6 99bc 789b 87be
000003a0: 9cd2 c4be b05b 083f 37ea 96be d287 3abe
000003b0: b093 2bbe 6571 80be 4ab4 c5be e414 d4bd
000003c0: 2ce9 b8be 98e8 353e a033 91bf f774 ab3e
000003d0: 3aee ffbd 6637 cd3e e836 b1be f902 083e
000003e0: 8f8c 84bf e873 cc3e a8e3 ffbd fcd6 f23e
000003f0: c585 90be c430 cb3d 5806 9fbf 638d f93e

bayes_fc1.prior_sigma_small f4 [64, 6]
0.35699975 0.2506897 0.93336374 0.39683753 0.19797193 0.923301 0.0327889 0.01356221
0.4951995 0.056012418 0.016328467 0.5607829 0.047644164 0.017614864 0.62805307 0.053889554
0.019114632 0.61146325 0.032994032 0.0105004525 0.45417893 0.030745132 0.012015449 0.41856495
0.033101678 0.012252334 0.57276946 0.032075163 0.014250471 0.38353303 0.042474005 0.018733466
0.37656477 0.03008526 0.010141062 0.42833486 0.34907243 0.20521693 0.901823 0.37147197
0.21796422 0.95071584 0.0912293 0.02637393 0.82895726 0.15604961 0.071483515 1.0620286
0.045435794 0.014189829 0.53600913 0.034792863 0.015766818 0.56735647 0.21302103 0.0753218
0.8136562 0.061235074 0.030085852 0.850285 0.44553503 0.15902834 0.95157677 0.37687355
0.15427029 0.93403727 0.03190428 0.009186043 0.3913995 0.029215163 0.010153103 0.4797448
0.3010588 0.12794052 0.8927166 0.34501344 0.22776672 0.955767 0.026756136 0.012369596
0.37116113 0.028762762 0.008950562 0.4959039 0.30966532 0.11777636 0.89932513 0.3243011
0.23356774 0.8812166 0.18141676 0.018799804 0.41349724 0.020895604 0.007570919 0.19069909
0.04946074 0.017538099 0.49723467 0.036053006 0.01758233 0.5502068 0.39875203 0.12626056
0.92636895 0.3500674 0.14208338 0.93987054 0.34421858 0.15957385 0.9525083 0.39076576
0.19258454 0.9894881 0.020103218 0.008242999 0.3052419 0.025159448 0.009950052 0.35314438
0.05918926 0.017409388 0.5566531 0.051285967 0.020415261 0.5902548 0.14491959 0.042576883
0.9767492 0.28613594 0.074289694 0.98977894 0.3499805 0.1931388 0.95482033 0.462196
0.26707745 0.9135755 0.07174042 0.021030137 0.8309793 0.085125364 0.02611041 0.62051475
0.37328568 0.16878127 1.0058904 0.41138 0.23310168 0.9552593 0.38704923 0.1917885
0.9161715 0.32293802 0.22788142 0.9603267 0.26087138 0.106928945 0.8241931 0.21937628
0.098698884 0.8221987 0.0364394 0.011572351 0.34936142 0.028416248 0.010963675 0.3856679
0.02576374 0.013342945 0.31437352 0.024247855 0.0112486305 0.3641372 0.2878959 0.17995326
0.90232414 0.2856294 0.18101059 0.83570427 0.3148265 0.13776994 0.94703543 0.222273
0.15176678 0.893031 0.33735365 0.14982952 0.9221676 0.3092694 0.21801586 0.91021883
0.354068 0.16893755 0.9306984 0.31347597 0.1583358 0.97757286 0.32230324 0.15977333
0.87428546 0.3213443 0.13620795 0.9174994 0.26338094 0.111307755 0.94833523 0.32226896
0.17722578 0.9204745 0.18121906 0.06439095 0.9851013 0.1095256 0.03342496 0.8688725
0.031920176 0.010174391 0.42877746 0.032376405 0.014282156 0.42503712 0.34702826 0.2199991
0.8844271 0.32811928 0.16662283 0.9361691 0.17080034 0.0526883 0.90802217 0.30968848
0.103929356 1.067245 0.2268922 0.09958474 0.87273145 0.18660975 0.13866639 0.8293319
0.037563268 0.010847581 0.49119124 0.030438432 0.013940214 0.48520222 0.06629702 0.019421455
0.76342595 0.058623992 0.019133447 0.6687283 0.051654052 0.017036922 0.65246344 0.044446994
00000000: acc8 b63e 665a 803e edf0 6e3f 4a2e cb3e
00000010: 27b9 4a3e 745d 6c3f a74d 063d 0834 5e3c
00000020: ca8a fd3e 476d 653d 47c3 853c 788f 0f3f
00000030: 8726 433d 0c4d 903c 16c8 203f 4bbb 5c3d
00000040: 4a96 9c3c db88 1c3f c024 073d 170a 2c3c
00000050: 248a e83e 37dd fb3c 72dc 443c 254e d63e
00000060: a095 073d 03be 483c 05a1 123f 3f61 033d
00000070: cf7a 693c 715e c43e 39f9 2d3d ed76 993c
00000080: 19cd c03e 5d75 f63c b226 263c b54e db3e
00000090: 9fb9 b23e 6324 523e dfdd 663f 9331 be3e
000000a0: 0332 5f3e 1d62 733f 6dd6 ba3d 240e d83c
000000b0: 8b36 543f 78cb 1f3e f365 923d 8ef0 873f
000000c0: e21a 3a3d 757c 683c e537 093f f682 0e3d
000000d0: 6a29 813c 463e 113f 2f22 5a3e 5142 9a3d
000000e0: c64b 503f a1d1 7a3d 9b76 f63c 47ac 593f
000000f0: 2b1d e43e 53d8 223e 899a 733f 92f5 c03e
00000100: 08f9 1d3e 111d 6f3f 10ae 023d 0f81 163c
00000110: 8465 c83e a354 ef3c 3359 263c 1ca1 f53e
00000120: 6124 9a3e d702 033e 1389 643f 9aa5 b03e
00000130: ae3b 693e 25ad 743f af2f db3c d9a9 4a3c
00000140: d508 be3e e29f eb3c 61a5 123c 1ee7 fd3e
00000150: 748c 9e3e bb34 f13d 2c3a 663f cb0a a63e
00000160: 622c 6f3e 6997 613f 51c5 393e 0c02 9a3c
00000170: e9b5 d33e 422d ab3c 7915 f83b 9f46 433e
00000180: 5897 4a3d 0fac 8f3c 8b95 fe3e 51ac 133d
00000190: d208 903c 5ada 0c3f 3a29 cc3e 734a 013e
000001a0: 8426 6d3f 093c b33e 4e7e 113e 5b9b 703f
000001b0: 6b3d b03e 5467 233e 95d7 733f 7312 c83e
000001c0: e234 453e 184f 7d3f 81af a43c a50d 073c
000001d0: ab48 9c3e 301b ce3c 8b05 233c 57cf b43e
000001e0: 7070 723d 229e 8e3c d180 0e3f 3c11 523d
000001f0: e83d a73c f01a 173f cd65 143e 1965 2e3d
00000200: 3c0c 7a3f 6980 923e 3225 983d 2762 7d3f
00000210: a530 b33e 2dc6 453e 1b6f 743f f4a4 ec3e
00000220: 60be 883e 15e0 693f a4ec 923d 6547 ac3c
00000230: 0fbb 543f 3556 ae3d 80e5 d53c 0eda 1e3f
00000240: 4d1f bf3e ffd4 2c3e 04c1 803f 66a0 d23e
00000250: 35b2 6e3e e08b 743f 512b c63e 3464 443e
00000260: 378a 6a3f 2258 a53e bf59 693e f8d7 753f
00000270: ef90 853e 90fd da3d 52fe 523f 2da4 603e
00000280: a422 ca3d 9d7b 523f 7b41 153d f599 3d3c
00000290: 80df b23e 31c9 e83c fca0 333c 4376 c53e
000002a0: 7b0e d33c 5e9c 5a3c 91f5 a03e 70a3 c63c
000002b0: 2d4c 383c 3170 ba3e 1767 933e ab45 383e
000002c0: b7fe 663f 043e 923e d75a 393e b7f0 553f
000002d0: f030 a13e 9013 0d3e ea70 723f 899b 633e
000002e0: c068 1b3e ae9d 643f 9eb9 ac3e e96c 193e
000002f0: 2d13 6c3f 8f58 9e3e 8d3f 5f3e 1a04 693f
00000300: 6748 b53e f7fd 2c3e 4042 6e3f ec7f a03e
00000310: c822 223e 3742 7a3f ee04 a53e 9f9b 233e
00000320: 2cd1 5f3f 3d87 a43e 197a 0b3e 3ee1 6a3f
00000330: ded9 863e 52f5 e33d 19c6 723f 7000 a53e
00000340: ad7a 353e 38a4 6b3f 7d91 393e 67df 833d
00000350: 992f 7c3f f54e e03d 9ce8 083d 6e6e 5e3f
00000360: bbbe 023d 7db2 263c b888 db3e 1f9d 043d
00000370: b4ff 693c 779e d93e b0ad b13e 7247 613e
00000380: d069 623f 40ff a73e 2d9f 2a3e c7a8 6f3f
00000390: 49e6 2e3e b0cf 573d 2474 683f 7d8f 9e3e
000003a0: ead8 d43d 7c9b 883f 6e56 683e 16f3 cb3d
000003b0: 546b 5f3f a016 3f3e 90fe 0d3e 184f 543f
000003c0: f1db 193d 0dba 313c 6b7d fb3e 055a f93c
000003d0: 7f65 643c 6d6c f83e bbc6 873d be19 9f3c
000003e0: e26f 433f b61f 703d bfbd 9c3c c731 2b3f
000003f0: 3393 533d 0491 8b3c d807 273f 0d0e 363d

bayes_fc2.weight_mu f4 [1, 64]
-0.035271745 0.053519066 -0.04839885 -0.054858156 -0.053434297 0.06469942 0.0035026255 -0.06608061
-0.046732582 0.103421755 -0.004167002 -0.08185367 -0.05692097 0.06212445 0.0134347 0.39748067
0.05167476 0.03326122 0.061762042 0.076201886 -0.08225136 -0.101997815 0.0052172225 -0.030397242
0.0066007827 -0.0050895563 0.05002361 0.063412175 0.08085256 0.025519732 0.065817095 0.017685447
0.03603046 0.08255146 -0.07262595 0.079643264 -0.06713602 0.004968805 -0.02588478 0.12820968
-0.050993424 -0.05557922 -0.049280636 -0.023276072 0.022457626 0.014783509 -0.0143802725 -0.032563012
0.05240071 -0.013643844 0.042336162 -0.015201989 -0.03172029 0.06710976 0.11013551 0.06545223
0.07588594 0.06281847 0.139485 0.083210394 0.053810313 0.07808144 -0.07910621 0.009062373
00000000: 1b79 10bd cf36 5b3d df3d 46bd f2b2 60bd
00000010: ecdd 5abd 2181 843d 4e8c 653b 4555 87bd
00000020: aa6a 3fbd c9ce d33d 598b 88bb e6a2 a7bd
00000030: f725 69bd 3576 7e3d 371d 5c3c 9682 cb3e
00000040: eaa8 533d eb3c 083d 32fa 7c3d bc0f 9c3d
00000050: 6773 a8bd 3be4 d0bd 3cf5 aa3b a303 f9bc
00000060: 614b d83b 4bc6 a6bb 8fe5 4c3d 3ede 813d
00000070: 0796 a53d c20e d13c 1dcb 863d 12e1 903c
00000080: ad94 133d bd10 a93d eabc 94bd 021c a33d
00000090: 9c7e 89bd 5bd1 a23b 510c d4bc 6649 033e
000000a0: 7bde 50bd 09a7 63bd 7eda 49bd 76ad bebc
000000b0: 0ef9 b73c 8836 723c 3c9b 6bbc cb60 05bd
000000c0: 20a2 563d 6e8a 5fbc af68 2d3d c311 79bc
000000d0: 23ed 01bd d870 893d ba8e e13d d20b 863d
000000e0: 166a 9b3d f8a6 803d 28d5 0e3e 366a aa3d
000000f0: 3468 5c3d 29e9 9f3d 7002 a2bd 597a 143c

bayes_fc2.weight_rho f4 [1, 64]
-1.3735011 -5.166159 -4.9006414 -5.216089 -4.868339 -4.970143 -1.357284 -4.4638915
-5.0863576 -3.734173 -3.0868902 -5.0582585 -1.8459122 -5.255413 -1.8028743 -3.6224575
-5.1890798 -2.5077982 -1.690407 -5.2694955 -4.4557996 -2.750662 -2.1531715 -4.9617057
-2.3017251 -2.2344046 -0.7384486 -5.036972 -4.9123425 -1.0137808 -1.3552226 -1.7527108
-2.4253478 -1.2914746 -2.5283852 -3.9686563 -5.255523 -0.57113796 -4.1751976 -0.9139347
-4.9495435 -4.7398214 -4.9043894 -2.3347156 -2.336769 -1.5128262 -1.5840707 -4.6947937
-1.4672576 -2.7567856 -2.411543 -3.5044813 -2.047737 -5.278044 -0.9887849 -5.1055307
-5.065229 -5.0213156 -3.9116223 -4.193277 -1.3283447 -4.9609594 -5.0979877 -2.5289478
00000000: e2ce afbf 2d51 a5c0 0ed2 9cc0 33ea a6c0
00000010: 6fc9 9bc0 690b 9fc0 7bbb adbf 33d8 8ec0
00000020: 71c3 a2c0 b1fc 6ec0 9c8f 45c0 41dd a1c0
00000030: da46 ecbf 582c a8c0 96c4 e6bf 58d6 67c0
00000040: f10c a6c0 c47f 20c0 425f d8bf b59f a8c0
00000050: e995 8ec0 d90a 30c0 90cd 09c0 4bc6 9ec0
00000060: 774f 13c0 7c00 0fc0 f80a 3dbf e02e a1c0
00000070: e931 9dc0 92c3 81bf ef77 adbf d458 e0bf
00000080: e638 1bc0 0a4f a5bf 10d1 21c0 77fe 7dc0
00000090: 3f2d a8c0 1936 12bf 389b 85c0 a0f7 69bf
000000a0: a962 9ec0 9eac 97c0 c2f0 9cc0 fb6b 15c0
000000b0: a08d 15c0 4aa4 c1bf d4c2 cabf c03b 96c0
000000c0: 19cf bbbf 2d6f 30c0 b856 1ac0 6c49 60c0
000000d0: 1f0e 03c0 bde5 a8c0 0221 7dbf 8260 a3c0
000000e0: 5b16 a2c0 9eae a0c0 0558 7ac0 532f 86c0
000000f0: 3307 aabf 2ec0 9ec0 b722 a3c0 48da 21c0

bayes_fc2.prior_mu_old f4 [1, 64]
-0.035271745 0.053519066 -0.04839885 -0.054858156 -0.053434297 0.06469942 0.0035026255 -0.06608061
-0.046732582 0.103421755 -0.004167002 -0.08185367 -0.05692097 0.06212445 0.0134347 0.39748067
0.05167476 0.03326122 0.061762042 0.076201886 -0.08225136 -0.101997815 0.0052172225 -0.030397242
0.0066007827 -0.0050895563 0.05002361 0.063412175 0.08085256 0.025519732 0.065817095 0.017685447
0.03603046 0.08255146 -0.07262595 0.079643264 -0.06713602 0.004968805 -0.02588478 0.12820968
-0.050993424 -0.05557922 -0.049280636 -0.023276072 0.022457626 0.014783509 -0.0143802725 -0.032563012
0.05240071 -0.013643844 0.042336162 -0.015201989 -0.03172029 0.06710976 0.11013551 0.06545223
0.07588594 0.06281847 0.139485 0.083210394 0.053810313 0.07808144 -0.07910621 0.009062373
00000000: 1b79 10bd cf36 5b3d df3d 46bd f2b2 60bd
00000010: ecdd 5abd 2181 843d 4e8c 653b 4555 87bd
00000020: aa6a 3fbd c9ce d33d 598b 88bb e6a2 a7bd
00000030: f725 69bd 3576 7e3d 371d 5c3c 9682 cb3e
00000040: eaa8 533d eb3c 083d 32fa 7c3d bc0f 9c3d
00000050: 6773 a8bd 3be4 d0bd 3cf5 aa3b a303 f9bc
00000060: 614b d83b 4bc6 a6bb 8fe5 4c3d 3ede 813d
00000070: 0796 a53d c20e d13c 1dcb 863d 12e1 903c
00000080: ad94 133d bd10 a93d eabc 94bd 021c a33d
00000090: 9c7e 89bd 5bd1 a23b 510c d4bc 6649 033e
000000a0: 7bde 50bd 09a7 63bd 7eda 49bd 76ad bebc
000000b0: 0ef9 b73c 8836 723c 3c9b 6bbc cb60 05bd
000000c0: 20a2 563d 6e8a 5fbc af68 2d3d c311 79bc
000000d0: 23ed 01bd d870 893d ba8e e13d d20b 863d
000000e0: 166a 9b3d f8a6 803d 28d5 0e3e 366a aa3d
000000f0: 3468 5c3d 29e9 9f3d 7002 a2bd 597a 143c

bayes_fc2.prior_sigma_small f4 [1, 64]
0.22571532 0.0056902245 0.0074142544 0.0054138387 0.007656733 0.0069181705 0.22901334 0.011451635
0.00616147 0.023611952 0.044632655 0.006336502 0.14659181 0.0052056173 0.15257038 0.026366273
0.0055616423 0.078300305 0.16927382 0.00513301 0.011544142 0.061927818 0.109854184 0.006976583
0.09538839 0.10170411 0.3905915 0.006472389 0.0073283203 0.30957407 0.22943564 0.15982328
0.08475224 0.24284044 0.0767645 0.018722447 0.0052050455 0.4478106 0.015255199 0.33714595
0.0070616514 0.008702232 0.0073866206 0.092431515 0.092250384 0.19908568 0.18659437 0.009101212
0.20746683 0.06156116 0.085881166 0.029619347 0.121355824 0.005089427 0.3162903 0.0060448134
0.006292626 0.006574186 0.019810487 0.014983912 0.23500524 0.0069817733 0.006090443 0.076722935
00000000: eb21 673e 1075 ba3b 46f3 f23b 9266 b13b
00000010: 55e5 fa3b d2b1 e23b 7982 6a3e a39f 3b3c
00000020: 28e6 c93b da6d c13c bbd0 363d 6ea2 cf3b
00000030: 2a1c 163e e293 aa3b 693b 1c3e 15fe d73c
00000040: 703e b63b e95b a03d 1e56 2d3e cf32 a83b
00000050: a423 3d3c 06a8 7d3d 3bfb e03d d29b e43b
00000060: fd5a c33d 3f4a d03d 9cfb c73e 5616 d43b
00000070: 6822 f03b 7e80 9e3e 2df1 6a3e b7a8 233e
00000080: 9592 ad3d 2aab 783e b536 9d3d d15f 993c
00000090: 168f aa3b 6e47 e53e f1f0 793c 659e ac3e
000000a0: 6d65 e73b ce93 0e3c 770b f23b bc4c bd3d
000000b0: c5ed bc3d 1edd 4b3e 9812 3f3e 401d 153c
000000c0: 2f72 543e 8e27 7c3d 77e2 af3d 46a4 f23c
000000d0: 6789 f83d 35c5 a63b cdf0 a13e 9213 c63b
000000e0: 5f32 ce3b 456c d73b 9a49 a23c 157f 753c
000000f0: 37a5 703e 5cc7 e43b 5792 c73b ea20 9d3d
