models/updated_hmnn_model_2006.pth (torch, 13926 bytes, 12 tensors)

bayes_fc1.weight_mu f4 [64, 6]
0	0xbe836079	-0.2565954
1	0xbef5fb52	-0.48043305
2	0xbe322b4a	-0.17399326
3	0xbeb90fec	-0.3614496
4	0xbe603c94	-0.21898109
5	0xbe3076ca	-0.17232814
6	0x3ef61272	0.48060948
7	0xbdd685bc	-0.104747266
8	0x3ed858a4	0.42255127
9	0xbecc2af1	-0.39876512
10	0x3df300b8	0.118653715
11	0xbe30cdd6	-0.1726602
12	0xbebaee4d	-0.36509934
13	0x3ddc93ee	0.10770403
14	0xbea1f3ff	-0.31631467
15	0x3e14c939	0.14529885
16	0xbe295345	-0.16535671
17	0xbd3ecb01	-0.04658032
18	0xbea68720	-0.32524967
19	0x3e02c4f9	0.12770452
20	0xbef9b1fe	-0.4876861
21	0x3ed23cfc	0.41062152
22	0xbdc8c3ad	-0.09802947
23	0xbdc2cdf1	-0.095119365
24	0xbeac40ee	-0.33643287
25	0x3e1309f3	0.14359264
26	0xbec13717	-0.37737343
27	0x3e8952a7	0.2682087
28	0xbe08fd14	-0.13377792
29	0xbd18c768	-0.037299544
30	0x3e3ae711	0.18252207
31	0xbdc4e1ac	-0.09613356
32	0x3f00b713	0.5027935
33	0xbe633f68	-0.22192156
34	0x3dedb5d2	0.11606945
35	0xbd81955e	-0.06327318
36	0xbe846d2f	-0.2586455
37	0xbeacc51e	-0.33744138
38	0xbd328438	-0.043583125
39	0xbe38fe7f	-0.18065833
40	0xbea9e4fc	-0.33182514
41	0xbd9efc58	-0.077629745
42	0xbedb3be0	-0.42819118
43	0x3e30f142	0.17279533
44	0xbe599583	-0.2124844
45	0xbd035a92	-0.032068796
46	0xbe9fac8c	-0.3118633
47	0x3c15cb9b	0.009142782
48	0xbe8962c5	-0.26833168
49	0x3de48084	0.11157325
50	0xbf10b343	-0.5652353
51	0x3ed7bf79	0.4213827
52	0xbdfcacc0	-0.12337637
53	0x3bc51b2a	0.006015201
54	0xbe4391fd	-0.19098659
55	0xbe7fa29e	-0.24964377
56	0xbd8379bc	-0.06419703
57	0xbe6fc000	-0.23413086
58	0xbc6dd898	-0.014516972
59	0xbd252097	-0.040314283
60	0xbe8c0232	-0.27345425
61	0xbe843e0d	-0.2582859
62	0xbe061bd4	-0.13096553
63	0xbe99e4bc	-0.30057323
64	0xbcb59631	-0.022166343
65	0xbdeb740b	-0.11496743
66	0xbe536527	-0.20644055
67	0x3c9f8432	0.019472215
68	0xbf22d7c1	-0.63610464
69	0x3ee4d1c2	0.44691283
70	0xbdb4a3f9	-0.08820338
71	0xbda1f555	-0.079081215
72	0xbe7563d7	-0.23963867
73	0xbd8e23b7	-0.06940406
74	0xbdd8a773	-0.105788134
75	0xbe3cf489	-0.18452658
76	0xbec79307	-0.3897936
77	0xbdf8324d	-0.12118969
78	0x3ef12c79	0.47104242
79	0xbde55875	-0.111985125
80	0x3ec96e67	0.39342043
81	0xbea925d0	-0.3303666
82	0x3df8f088	0.12155253
83	0xbdb67b98	-0.089102924
84	0xbd706a43	-0.05869509
85	0xbe29f587	-0.16597567
86	0xbd531fe1	-0.051544074
87	0xbec86153	-0.39136752
88	0xbec30805	-0.38092056
89	0xbe0e4a6a	-0.13895574
90	0xbedde273	-0.4333683
91	0xbe700049	-0.23437609
92	0x3dc7ad81	0.0974989
93	0xbe0e45f0	-0.13893867
94	0x3c55e11f	0.013054161
95	0x3e7a347e	0.24434087
96	0x3ead0837	0.3379533
97	0xbded6dbf	-0.11593198
98	0x3f25ac01	0.6471558
99	0xbeb67f84	-0.35644162
100	0x3e243b6d	0.16038294
101	0xbdc31f5c	-0.09527466
102	0xbea7a47c	-0.3274268
103	0xbddf4ca8	-0.10903293
104	0xbdc21043	-0.09475758
105	0xbe41f16b	-0.1893975
106	0xbe8137dc	-0.2523793
107	0xbc9c50b3	-0.01908145
108	0xbe5d1dbe	-0.21593377
109	0xbe818874	-0.25299418
110	0xbdde8cbf	-0.10866689
111	0xbe97dbe5	-0.29659954
112	0xbe909dc7	-0.28245375
113	0xbdd90982	-0.105975166
114	0x3e8d629e	0.276143
115	0xbd9fa429	-0.07794983
116	0x3f04696d	0.51723367
117	0xbeb4a110	-0.3527913
118	0x3e24b694	0.16085273
119	0xbe4537d8	-0.19259584
120	0xbe8b3424	-0.27188218
121	0x3d84ff97	0.064940624
122	0xbebb4794	-0.36578047
123	0x3e8287d3	0.2549425
124	0xbdcba7bb	-0.099441014
125	0x3d708f61	0.058730487
126	0xbe987031	-0.29773095
127	0x3cacf9e6	0.021115255
128	0xbe3fcd56	-0.18730673
129	0xbe89b701	-0.26897433
130	0xbe01dab2	-0.12681082
131	0x3c958b77	0.018254979
132	0xbe7c48ea	-0.2463719
133	0xbeaafff5	-0.33398405
134	0xbe21e0c7	-0.15808402
135	0xbeb194cc	-0.34683836
136	0xbebfd203	-0.37464914
137	0xbd03d773	-0.03218789
138	0xbea65857	-0.32489273
139	0x3db8497e	0.089983925
140	0xbe54ace9	-0.20769085
141	0x3e56296f	0.20914243
142	0xbe37a766	-0.17934951
143	0xbd1c3eae	-0.038145714
144	0xbcf65a42	-0.030072335
145	0xbe08d673	-0.13363056
146	0xbdc2e9de	-0.09517263
147	0xbeb6da45	-0.357134
148	0xbeb943b7	-0.36184475
149	0xbd775881	-0.06038714
150	0xbe7f6b0a	-0.24943176
151	0xbe9865db	-0.2976521
152	0xbe1b1706	-0.15145501
153	0xbc8f9387	-0.017526401
154	0xbec8f416	-0.39248723
155	0xbd87732f	-0.066137664
156	0xbea3a36e	-0.31960624
157	0xbdff1709	-0.124555655
158	0xbcca6232	-0.024705026
159	0xbe93823b	-0.28810295
160	0xbe2488bd	-0.16067787
161	0xbd09647a	-0.033543088
162	0x3e7a6dcb	0.24455945
163	0xbdb3a484	-0.08771613
164	0x3f292a16	0.66079843
165	0xbeaf4981	-0.34235767
166	0x3e322c47	0.17399703
167	0xbca860f9	-0.020554053
168	0x3eb46239	0.35231188
169	0xbd90d1ae	-0.07071243
170	0x3ede5dec	0.43431032
171	0xbe8d34eb	-0.27579436
172	0x3de30a82	0.110859886
173	0x3ddfd105	0.10928539
174	0xbe4e76be	-0.20162484
175	0xbe924cb5	-0.28574148
176	0x3cb99600	0.022654533
177	0xbe6a9304	-0.22907645
178	0xbe855061	-0.26037887
179	0xbe048bd8	-0.12943971
180	0xbe8d3374	-0.27578318
181	0xbe3cad86	-0.18425569
182	0xbe496d98	-0.19670713
183	0x3c336671	0.010949717
184	0xbe8dbf94	-0.27685225
185	0xbe0abb79	-0.13548078
186	0xbe1ebfc6	-0.15502843
187	0xbe88ec63	-0.2674285
188	0xbbe0ded2	-0.0068624998
189	0xbdf9ed04	-0.1220341
190	0xbed4dfea	-0.41577083
191	0xbdc7d4f2	-0.09757413
192	0xbdeba376	-0.11505787
193	0xbe4508d5	-0.1924165
194	0xbe387775	-0.18014319
195	0xbe585d4c	-0.2112934
196	0xbe358363	-0.17725901
197	0xbdb636c7	-0.08897167
198	0xbea87b76	-0.32906693
199	0xbe789e5d	-0.24279161
200	0xbd54a05a	-0.051910736
201	0xbeb10e4a	-0.34581214
202	0xbe82f388	-0.25576425
203	0xbd15ad86	-0.036542438
204	0xbe3484ef	-0.17628835
205	0xbe272314	-0.16321975
206	0xbdfe7e42	-0.124264255
207	0xbe982738	-0.29717422
208	0xbebd6424	-0.36990464
209	0xbe3e58a2	-0.18588498
210	0x3d99b377	0.07504933
211	0xbe2b3326	-0.1671873
212	0x3de724c3	0.112863086
213	0xbee66dd5	-0.4500567
214	0x3e01e47a	0.12684813
215	0xbc6bcca3	-0.014392051
216	0xbec3f2f9	-0.3827131
217	0x3e559edd	0.20861383
218	0xbeffbbda	-0.49948007
219	0x3e464457	0.19362007
220	0xbda14e6e	-0.078762874
221	0x3e101501	0.14070512
222	0xbe988d1b	-0.29795155
223	0xbe95cb8b	-0.29256853
224	0x3d1502e3	0.036379706
225	0xbea77f58	-0.32714343
226	0xbea97408	-0.33096337
227	0xbda205fa	-0.07911296
228	0xbe9b62f5	-0.30348936
229	0x3e1e3653	0.1545041
230	0xbdc4d389	-0.0961066
231	0xbd98cd1d	-0.07460997
232	0xbe9ecb6b	-0.3101457
233	0xbd20da8a	-0.039270915
234	0xbe20fe5b	-0.15722029
235	0xbe155651	-0.14583708
236	0x3b46a8bb	0.0030312974
237	0xbda5afdf	-0.080901854
238	0xbe9378f4	-0.28803217
239	0x3e104a13	0.14090757
240	0xbeb1cbc0	-0.3472576
241	0x3de40026	0.11132841
242	0xbee11624	-0.43962204
243	0x3e9b04d9	0.30277136
244	0xbdd2fcaf	-0.10302102
245	0x3daec635	0.08533899
246	0xbea67ef0	-0.3251872
247	0x3d735818	0.059410185
248	0xbe94918b	-0.2901729
249	0x3e3adae0	0.18247557
250	0xbe1c551f	-0.15266846
251	0xbc80ff38	-0.015746698
252	0xbe8bf167	-0.27332613
253	0x3d35f5c4	0.044423833
254	0xbed242b7	-0.41066524
255	0x3ee4e600	0.44706726

bayes_fc1.weight_rho f4 [64, 6]
0	0xbf9541de	-1.1660726
1	0xbfa90c00	-1.3206787
2	0x3efa2b16	0.48860997
3	0xbf7e7471	-0.99396425
4	0xbfeed704	-1.8659368
5	0x3ee1b8ed	0.440864
6	0xc0171243	-2.3604896
7	0xc045535b	-3.0832126
8	0xbd984dc5	-0.07436708
9	0xc00c37e8	-2.1909122
10	0xc043352c	-3.0501204
11	0x3db25591	0.08707727
12	0xc00aaf05	-2.1669323
13	0xc03ab395	-2.9172108
14	0x3e1479de	0.14499614
15	0xbfdeff5a	-1.7421677
16	0xc0370968	-2.859949
17	0x3c592090	0.013252392
18	0xc022a433	-2.541272
19	0xc05da5a2	-3.4632344
20	0xbdb015c0	-0.085978985
21	0xc02f2ce5	-2.7371151
22	0xc05bf107	-3.4365861
23	0xbe5ddcde	-0.21666285
24	0xc00f9d20	-2.2439651
25	0xc043bc02	-3.05835
26	0x3d21ae6c	0.039472982
27	0xc005ea00	-2.0924072
28	0xc03ad049	-2.9189627
29	0xbeb9823c	-0.36232173
30	0xbff6cfb1	-1.9282132
31	0xc02f8d37	-2.742994
32	0xb9dc7da4	-0.0004205528
33	0xc00ef7f0	-2.233883
34	0xc03db295	-2.9640248
35	0xbd2f046b	-0.042728823
36	0xbf5366e4	-0.82578874
37	0xbfdbc4cc	-1.7169433
38	0x3ec2d7b8	0.38055205
39	0xbf67a8c8	-0.90491915
40	0xbfdcb53c	-1.7242808
41	0x3eaa6e28	0.33287168
42	0xbfc9694a	-1.5735257
43	0xc024d59f	-2.5755384
44	0x3ea80a37	0.32820293
45	0xbf94e14f	-1.1631259
46	0xc004d7ba	-2.075667
47	0x3e86dab8	0.26338744
48	0xc018c18a	-2.3868127
49	0xc04e5e28	-3.2244968
50	0xbcc334b7	-0.023828847
51	0xc020e314	-2.5138597
52	0xc04a4157	-3.160238
53	0xbe516234	-0.20447618
54	0xbfa42bfe	-1.2825925
55	0xc00b6a73	-2.1783721
56	0x3e983823	0.2973033
57	0xbfd8c3a6	-1.6934707
58	0xc01ac42f	-2.418224
59	0x3e712337	0.2354859
60	0xbf4b5ae3	-0.7943556
61	0xc004fb46	-2.0778365
62	0x3eca97dd	0.39568987
63	0xbf80c441	-1.0059892
64	0xc006b10b	-2.1045558
65	0x3efaf849	0.49017552
66	0xc01799bb	-2.368758
67	0xc043936c	-3.055873
68	0xbd56b1d1	-0.052415673
69	0xc0235bbc	-2.552474
70	0xc050e4ad	-3.2639573
71	0xbe2b861a	-0.16750374
72	0xbfb51b3a	-1.4148934
73	0xc01cd637	-2.4505746
74	0x3ea58aee	0.32332557
75	0xbf9c3363	-1.2203182
76	0xbfcec7e8	-1.6154757
77	0x3ed1c9bb	0.4097422
78	0xc02df11c	-2.7178411
79	0xc05c9cc5	-3.4470685
80	0xbea73090	-0.32654238
81	0xc0286f1c	-2.6317816
82	0xc056ebd0	-3.3581429
83	0xbe8d683a	-0.2761858
84	0xbfc7cdab	-1.560964
85	0xc0105228	-2.2550144
86	0x3ea092ec	0.31362092
87	0xbf88643d	-1.065559
88	0xbfdab657	-1.7086896
89	0x3ec9d8f4	0.39423335
90	0xbfb2666f	-1.393751
91	0xc018d2a6	-2.387857
92	0xbd2ca3aa	-0.04214827
93	0xc014c9ef	-2.324825
94	0xc03ad9d2	-2.9195447
95	0xbe8340bf	-0.25635335
96	0xc00c1493	-2.1887558
97	0xc048b45c	-3.1360083
98	0x3c2ce781	0.010553242
99	0xc01dc062	-2.464867
100	0xc04f1b5f	-3.2360456
101	0xbc4c8f8d	-0.012485397
102	0xbfa5aa06	-1.2942512
103	0xc00cbbe1	-2.1989672
104	0x3ee6f68e	0.4510998
105	0xbf9d3ecc	-1.2284789
106	0xbff4352a	-1.9078724
107	0x3e935d33	0.28782043
108	0xbf928ed1	-1.1449834
109	0xbff8884f	-1.9416598
110	0x3ee4945e	0.44644445
111	0xbf96f857	-1.1794537
112	0xbff7da81	-1.9363557
113	0x3e94669b	0.28984532
114	0xc02a13f5	-2.657468
115	0xc059c9cd	-3.402942
116	0xbe168baa	-0.14701715
117	0xc0259029	-2.5869238
118	0xc052a28c	-3.291171
119	0xbe486307	-0.19569026
120	0xbffc07bc	-1.968986
121	0xc0398f8d	-2.8993866
122	0xbc2de677	-0.010614029
123	0xc0084713	-2.129338
124	0xc0446bb2	-3.0690732
125	0xbdef2e90	-0.11678803
126	0xbfd98ce0	-1.6996117
127	0xc02c9fc4	-2.6972513
128	0x3e49b51d	0.19697995
129	0xbfb33efa	-1.4003594
130	0xc01d376d	-2.456508
131	0x3e4a58f9	0.19760503
132	0xbf475fd5	-0.77880603
133	0xbfe50efa	-1.7895195
134	0x3ef8b874	0.48578227
135	0xbf179b0c	-0.5922096
136	0xbfa891be	-1.3169477
137	0x3edaf913	0.42768154
138	0xbff4e5e6	-1.913266
139	0xc02758ac	-2.614787
140	0x3e443bdc	0.1916346
141	0xbfea750b	-1.8316969
142	0xc0202567	-2.5022829
143	0x3e1536c2	0.1457167
144	0xbf91026d	-1.1328865
145	0xc00252c5	-2.0363019
146	0x3edda822	0.43292338
147	0xbf318d9a	-0.6935669
148	0xbfc6c20b	-1.5527967
149	0x3ef622fc	0.48073566
150	0xbf8bac2d	-1.0911919
151	0xbff0ab32	-1.8802245
152	0x3ee83b2e	0.4535765
153	0xbf8f5062	-1.1196406
154	0xbfc35d82	-1.5262911
155	0x3ebbc396	0.36672658
156	0xbfb1bfec	-1.3886695
157	0xc01f3878	-2.4878216
158	0x3e9504b4	0.2910515
159	0xbfbb0f72	-1.4614089
160	0xc019b513	-2.401677
161	0x3e9f198b	0.31074175
162	0xc02f53f8	-2.7395
163	0xc05db048	-3.4638844
164	0xbf247689	-0.6424337
165	0xc0390152	-2.8907056
166	0xc06a7b34	-3.6637697
167	0xbf0c331d	-0.5476549
168	0xc0398930	-2.8989983
169	0xc06da164	-3.7129755
170	0xbf2a5ede	-0.66551006
171	0xc034c331	-2.8244135
172	0xc068d204	-3.6378183
173	0xbf0229e7	-0.5084519
174	0xbf8c0e1d	-1.0941807
175	0xbfede585	-1.8585669
176	0x3ec214e4	0.37906563
177	0xbf946350	-1.1592808
178	0xbfe45699	-1.7838928
179	0xbe21c379	-0.15797223
180	0xbfa7c046	-1.3105552
181	0xc004bf12	-2.074162
182	0x3e956c64	0.29184258
183	0xbfd50072	-1.6640761
184	0xbffe5804	-1.987061
185	0x3e52c5ec	0.20583314
186	0xbf8fb343	-1.1226581
187	0xbfefe5cc	-1.8742003
188	0x3e996db3	0.29966506
189	0xbf8167b9	-1.0109779
190	0xbfb22b55	-1.3919474
191	0x3ecab4dc	0.3959111
192	0xbf934936	-1.1506717
193	0xc0017436	-2.022718
194	0x3eb6fb60	0.3573866
195	0xbf8903e9	-1.0704318
196	0xc009cc02	-2.1530766
197	0x3ecadc89	0.3962138
198	0xbf8891e1	-1.0669519
199	0xbffd787c	-1.9802394
200	0x3ea3f449	0.32022312
201	0xbf90e628	-1.1320238
202	0xc001fb72	-2.030972
203	0x3c10f250	0.008846834
204	0xbf9b9eda	-1.2157853
205	0xc00b6d26	-2.178537
206	0x3ec109d9	0.37702826
207	0xbf4fde51	-0.811986
208	0xbfd5243b	-1.6651682
209	0x3ef18e0d	0.4717869
210	0xbfbf6d6a	-1.4955266
211	0xc010d81e	-2.2631907
212	0x3e797838	0.24362266
213	0xbfc89095	-1.5669123
214	0xc025ac29	-2.5886328
215	0x3d4114ab	0.04713885
216	0xc0187d26	-2.3826385
217	0xc0529650	-3.2904243
218	0xbda55b51	-0.08074058
219	0xc019ff16	-2.4061942
220	0xc0513183	-3.268647
221	0xbd90d54b	-0.070719324
222	0xbf837b33	-1.0271972
223	0xbfe70cb9	-1.8050758
224	0x3e8a7966	0.27045745
225	0xbf6da801	-0.9283448
226	0xbfe20471	-1.7657605
227	0x3ea89e11	0.32933095
228	0xbfbe31ce	-1.4858949
229	0xc019cc8f	-2.4031103
230	0x3e5ea231	0.21741559
231	0xbf950bdb	-1.1644243
232	0xc007ace8	-2.1199284
233	0x3ea919b2	0.33027416
234	0xbfd2fbbb	-1.6483072
235	0xc020d662	-2.513085
236	0xbbc68d6d	-0.0060593397
237	0xbfeab7b6	-1.8337314
238	0xbff1ebd9	-1.89001
239	0xbd557a78	-0.05211875
240	0xc019d1a3	-2.4034202
241	0xc04782bd	-3.1173546
242	0xbc662f74	-0.0140494
243	0xc0113fc1	-2.2695162
244	0xc049c3b2	-3.1525693
245	0xbc0e814b	-0.008697818
246	0xc007fff2	-2.1249967
247	0xc036f981	-2.8589785
248	0x3e25e134	0.1619919
249	0xc003f37c	-2.061736
250	0xc032dec3	-2.7948463
251	0xbced27b8	-0.028949603
252	0xc0003744	-2.0033731
253	0xc0367b04	-2.8512583
254	0x3e036761	0.12832405
255	0xc002d9f4	-2.0445528

bayes_fc1.bias_mu f4 [64]
0	0xba0b9001	-0.00053238875
1	0x3d38ecc0	0.045147657
2	0xbd31f16f	-0.04344314
3	0xbcb2902e	-0.021797266
4	0x3c9492c4	0.01813639
5	0x3d167e4a	0.036741532
6	0xbbcfd01c	-0.0063419472
7	0xbd0e0c3d	-0.03467964
8	0xbc665067	-0.014057255
9	0xbceb4d25	-0.028723309
10	0xbb03c93b	-0.0020108956
11	0xbd280738	-0.04102251
12	0xbcee03ea	-0.0290546
13	0x3c22d4c5	0.0099384235
14	0xbce2d9cb	-0.027691742
15	0x3b90e9d9	0.004422408
16	0x3d03ab4a	0.032145776
17	0xbd870260	-0.0659225
18	0x3cda1585	0.02662159
19	0x3c0b8926	0.008516585
20	0xbcb0bebe	-0.021575328
21	0x3c4cb526	0.012494361
22	0xbd45c8a3	-0.048287045
23	0x3c84a062	0.016189758
24	0x3be02825	0.006840723
25	0xbcd39f48	-0.025832787
26	0xbc0d1b5f	-0.008612483
27	0x3c854ef6	0.016273003
28	0x3c95da10	0.018292457
29	0x3b4b33a4	0.0031006122
30	0x3bc0653e	0.005871444
31	0xbc91494c	-0.017735146
32	0x39fd00be	0.00048256473
33	0xbc8cbe25	-0.017180512
34	0xbc47c023	-0.012191805
35	0xbaad7129	-0.0013232577
36	0xbc85e6d7	-0.016345425
37	0xbbd479a9	-0.0064842296
38	0x3cab2f02	0.020896439
39	0x3b9d628a	0.0048030065
40	0xbc7e82ff	-0.015534162
41	0xbd0e6f5f	-0.03477418
42	0xbce94694	-0.028476037
43	0xbc9cd90e	-0.019146468
44	0xbbe399c9	-0.006945823
45	0xbc94a996	-0.018147271
46	0x3c9bf7a5	0.019038985
47	0x3bfbf976	0.00768965
48	0x3c020435	0.007935573
49	0xbc1b78e3	-0.009489271
50	0xbc31c6fd	-0.010850665
51	0xbc1ccfd8	-0.009571038
52	0x3d47194f	0.04860812
53	0x3c86ab6f	0.016439168
54	0x3c95a430	0.018266767
55	0x3d193791	0.037406508
56	0x3c9bba8b	0.019009849
57	0x3b9964f8	0.004681226
58	0x3ba49699	0.0050228355
59	0x3b4fedc4	0.0031727413
60	0xbc931038	-0.01795207
61	0x3d075264	0.03303756
62	0xbc8fd17d	-0.017555946
63	0x3bd45755	0.0064801374

bayes_fc1.bias_rho f4 [64]
0	0xbed3a6d9	-0.41338232
1	0xbf8ba74c	-1.091043
2	0xbf6fe955	-0.9371541
3	0xbfa7d093	-1.3110527
4	0xbf9966ad	-1.1984459
5	0xbf801f3e	-1.0009534
6	0xbeeb6af9	-0.4598005
7	0xbf26dcf3	-0.6518089
8	0xbf96ff17	-1.1796597
9	0xbf31465e	-0.69247997
10	0xbecdc8ec	-0.40192354
11	0xbf9a5f0d	-1.2060257
12	0xbf0f5a41	-0.5599709
13	0xbfb30d1b	-1.3988374
14	0xbf0eccba	-0.5578114
15	0xbf87d461	-1.0611688
16	0xbf8b5411	-1.088503
17	0xbf0799c9	-0.5296903
18	0xbf06ede3	-0.52706736
19	0xbfa5a4a9	-1.2940875
20	0xbf8972d3	-1.0738167
21	0xbf47a730	-0.7798948
22	0xbead3a01	-0.33833316
23	0xbf624e7f	-0.88401026
24	0xbed44a12	-0.4146276
25	0xbee37e36	-0.4443223
26	0xbf2e1e69	-0.6801515
27	0xbfd2a483	-1.6456455
28	0xbfd2ddc6	-1.647393
29	0xbf1ce9be	-0.6129416
30	0xbf26663d	-0.64999753
31	0xbf003cdf	-0.5009288
32	0xbefea407	-0.49734518
33	0xbf296976	-0.66176546
34	0xbed304d2	-0.41214615
35	0xbf49bd0f	-0.78804106
36	0xbf91fb4f	-1.1404818
37	0xbef4c28e	-0.47804683
38	0xbf1f3e0d	-0.62204057
39	0xbf6402fe	-0.89067066
40	0xbf8c360a	-1.0953991
41	0xbf7bcd12	-0.9835979
42	0xbf820160	-1.015667
43	0xbf060c4e	-0.52362525
44	0xbed02d4c	-0.4065956
45	0xbf0db899	-0.553598
46	0xbf32d7f6	-0.6986078
47	0xbf7a880f	-0.9786386
48	0xbf07e382	-0.53081524
49	0xbf066075	-0.5249093
50	0xbf205f2d	-0.62645227
51	0xbf26bdf5	-0.651336
52	0xbee0496f	-0.43806025
53	0xbfba6ab8	-1.4563818
54	0xbf0e6f20	-0.55638313
55	0xbf93c67d	-1.1544949
56	0xbf8e32fd	-1.110931
57	0xbf8a82c1	-1.0821153
58	0xbf7e79f6	-0.9940485
59	0xbf25131e	-0.64482296
60	0xbedaf9d8	-0.4276874
61	0xbf760230	-0.9609709
62	0xbfae50d2	-1.3618414
63	0xbf1733e7	-0.5906357

bayes_fc1.prior_mu_old_bias f4 [64]
0	0xba0b9001	-0.00053238875
1	0x3d38ecc0	0.045147657
2	0xbd31f16f	-0.04344314
3	0xbcb2902e	-0.021797266
4	0x3c9492c4	0.01813639
5	0x3d167e4a	0.036741532
6	0xbbcfd01c	-0.0063419472
7	0xbd0e0c3d	-0.03467964
8	0xbc665067	-0.014057255
9	0xbceb4d25	-0.028723309
10	0xbb03c93b	-0.0020108956
11	0xbd280738	-0.04102251
12	0xbcee03ea	-0.0290546
13	0x3c22d4c5	0.0099384235
14	0xbce2d9cb	-0.027691742
15	0x3b90e9d9	0.004422408
16	0x3d03ab4a	0.032145776
17	0xbd870260	-0.0659225
18	0x3cda1585	0.02662159
19	0x3c0b8926	0.008516585
20	0xbcb0bebe	-0.021575328
21	0x3c4cb526	0.012494361
22	0xbd45c8a3	-0.048287045
23	0x3c84a062	0.016189758
24	0x3be02825	0.006840723
25	0xbcd39f48	-0.025832787
26	0xbc0d1b5f	-0.008612483
27	0x3c854ef6	0.016273003
28	0x3c95da10	0.018292457
29	0x3b4b33a4	0.0031006122
30	0x3bc0653e	0.005871444
31	0xbc91494c	-0.017735146
32	0x39fd00be	0.00048256473
33	0xbc8cbe25	-0.017180512
34	0xbc47c023	-0.012191805
35	0xbaad7129	-0.0013232577
36	0xbc85e6d7	-0.016345425
37	0xbbd479a9	-0.0064842296
38	0x3cab2f02	0.020896439
39	0x3b9d628a	0.0048030065
40	0xbc7e82ff	-0.015534162
41	0xbd0e6f5f	-0.03477418
42	0xbce94694	-0.028476037
43	0xbc9cd90e	-0.019146468
44	0xbbe399c9	-0.006945823
45	0xbc94a996	-0.018147271
46	0x3c9bf7a5	0.019038985
47	0x3bfbf976	0.00768965
48	0x3c020435	0.007935573
49	0xbc1b78e3	-0.009489271
50	0xbc31c6fd	-0.010850665
51	0xbc1ccfd8	-0.009571038
52	0x3d47194f	0.04860812
53	0x3c86ab6f	0.016439168
54	0x3c95a430	0.018266767
55	0x3d193791	0.037406508
56	0x3c9bba8b	0.019009849
57	0x3b9964f8	0.004681226
58	0x3ba49699	0.0050228355
59	0x3b4fedc4	0.0031727413
60	0xbc931038	-0.01795207
61	0x3d075264	0.03303756
62	0xbc8fd17d	-0.017555946
63	0x3bd45755	0.0064801374

bayes_fc1.prior_sigma_small_bias f4 [64]
0	0x3f01f66b	0.5076663
1	0x3e9443cd	0.28957978
2	0x3ea93e94	0.33055556
3	0x3e746117	0.23865162
4	0x3e86fc23	0.2636424
5	0x3ea0423d	0.31300536
6	0x3efa9875	0.4894444
7	0x3ed6c038	0.41943526
8	0x3e893aed	0.2680277
9	0x3ecfb648	0.40568757
10	0x3f032268	0.51224375
11	0x3e861690	0.2618909
12	0x3ee759ac	0.45185602
13	0x3e61f16a	0.22064748
14	0x3ee7c0a5	0.45264164
15	0x3e98275a	0.29717523
16	0x3e949796	0.290219
17	0x3eed0a89	0.462971
18	0x3eed8a0c	0.46394384
19	0x3e7817a1	0.24227764
20	0x3e967f27	0.29393885
21	0x3ec13793	0.37737712
22	0x3f09c8e3	0.53822154
23	0x3eb10cf7	0.34580204
24	0x3f01d5f0	0.5071707
25	0x3efdad63	0.49546346
26	0x3ed1d360	0.4098158
27	0x3e349c3e	0.17637727
28	0x3e34523a	0.17609492
29	0x3edda7dd	0.43292132
30	0x3ed7119a	0.42005616
31	0x3ef28c45	0.47372642
32	0x3ef33db3	0.4750801
33	0x3ed5029a	0.41603547
34	0x3f0216ae	0.50815856
35	0x3ebfe8e0	0.37482357
36	0x3e8e0479	0.27737787
37	0x3ef70002	0.48242193
38	0x3edc0606	0.42973346
39	0x3eb00e59	0.34385946
40	0x3e93b47b	0.28848633
41	0x3ea2a97f	0.3176994
42	0x3e9e3eb8	0.30907226
43	0x3eee31b3	0.46522292
44	0x3f02a7d8	0.5103736
45	0x3ee889f8	0.45417762
46	0x3eceaafb	0.40364823
47	0x3ea35abd	0.31905165
48	0x3eecd3e9	0.46255425
49	0x3eedf31e	0.46474546
50	0x3edb3c52	0.42819458
51	0x3ed6d575	0.4195973
52	0x3efeeeb0	0.4979148
53	0x3e568ab8	0.20951355
54	0x3ee804d4	0.45316184
55	0x3e8c49eb	0.27400145
56	0x3e91b944	0.2846166
57	0x3e956afe	0.2918319
58	0x3ea13616	0.31486577
59	0x3ed7faa1	0.42183402
60	0x3f0082cd	0.50199586
61	0x3ea5d763	0.3239089
62	0x3e698e63	0.22808222
63	0x3ee1b2a8	0.44081616

bayes_fc1.prior_mu_old f4 [64, 6]
0	0xbe836079	-0.2565954
1	0xbef5fb52	-0.48043305
2	0xbe322b4a	-0.17399326
3	0xbeb90fec	-0.3614496
4	0xbe603c94	-0.21898109
5	0xbe3076ca	-0.17232814
6	0x3ef61272	0.48060948
7	0xbdd685bc	-0.104747266
8	0x3ed858a4	0.42255127
9	0xbecc2af1	-0.39876512
10	0x3df300b8	0.118653715
11	0xbe30cdd6	-0.1726602
12	0xbebaee4d	-0.36509934
13	0x3ddc93ee	0.10770403
14	0xbea1f3ff	-0.31631467
15	0x3e14c939	0.14529885
16	0xbe295345	-0.16535671
17	0xbd3ecb01	-0.04658032
18	0xbea68720	-0.32524967
19	0x3e02c4f9	0.12770452
20	0xbef9b1fe	-0.4876861
21	0x3ed23cfc	0.41062152
22	0xbdc8c3ad	-0.09802947
23	0xbdc2cdf1	-0.095119365
24	0xbeac40ee	-0.33643287
25	0x3e1309f3	0.14359264
26	0xbec13717	-0.37737343
27	0x3e8952a7	0.2682087
28	0xbe08fd14	-0.13377792
29	0xbd18c768	-0.037299544
30	0x3e3ae711	0.18252207
31	0xbdc4e1ac	-0.09613356
32	0x3f00b713	0.5027935
33	0xbe633f68	-0.22192156
34	0x3dedb5d2	0.11606945
35	0xbd81955e	-0.06327318
36	0xbe846d2f	-0.2586455
37	0xbeacc51e	-0.33744138
38	0xbd328438	-0.043583125
39	0xbe38fe7f	-0.18065833
40	0xbea9e4fc	-0.33182514
41	0xbd9efc58	-0.077629745
42	0xbedb3be0	-0.42819118
43	0x3e30f142	0.17279533
44	0xbe599583	-0.2124844
45	0xbd035a92	-0.032068796
46	0xbe9fac8c	-0.3118633
47	0x3c15cb9b	0.009142782
48	0xbe8962c5	-0.26833168
49	0x3de48084	0.11157325
50	0xbf10b343	-0.5652353
51	0x3ed7bf79	0.4213827
52	0xbdfcacc0	-0.12337637
53	0x3bc51b2a	0.006015201
54	0xbe4391fd	-0.19098659
55	0xbe7fa29e	-0.24964377
56	0xbd8379bc	-0.06419703
57	0xbe6fc000	-0.23413086
58	0xbc6dd898	-0.014516972
59	0xbd252097	-0.040314283
60	0xbe8c0232	-0.27345425
61	0xbe843e0d	-0.2582859
62	0xbe061bd4	-0.13096553
63	0xbe99e4bc	-0.30057323
64	0xbcb59631	-0.022166343
65	0xbdeb740b	-0.11496743
66	0xbe536527	-0.20644055
67	0x3c9f8432	0.019472215
68	0xbf22d7c1	-0.63610464
69	0x3ee4d1c2	0.44691283
70	0xbdb4a3f9	-0.08820338
71	0xbda1f555	-0.079081215
72	0xbe7563d7	-0.23963867
73	0xbd8e23b7	-0.06940406
74	0xbdd8a773	-0.105788134
75	0xbe3cf489	-0.18452658
76	0xbec79307	-0.3897936
77	0xbdf8324d	-0.12118969
78	0x3ef12c79	0.47104242
79	0xbde55875	-0.111985125
80	0x3ec96e67	0.39342043
81	0xbea925d0	-0.3303666
82	0x3df8f088	0.12155253
83	0xbdb67b98	-0.089102924
84	0xbd706a43	-0.05869509
85	0xbe29f587	-0.16597567
86	0xbd531fe1	-0.051544074
87	0xbec86153	-0.39136752
88	0xbec30805	-0.38092056
89	0xbe0e4a6a	-0.13895574
90	0xbedde273	-0.4333683
91	0xbe700049	-0.23437609
92	0x3dc7ad81	0.0974989
93	0xbe0e45f0	-0.13893867
94	0x3c55e11f	0.013054161
95	0x3e7a347e	0.24434087
96	0x3ead0837	0.3379533
97	0xbded6dbf	-0.11593198
98	0x3f25ac01	0.6471558
99	0xbeb67f84	-0.35644162
100	0x3e243b6d	0.16038294
101	0xbdc31f5c	-0.09527466
102	0xbea7a47c	-0.3274268
103	0xbddf4ca8	-0.10903293
104	0xbdc21043	-0.09475758
105	0xbe41f16b	-0.1893975
106	0xbe8137dc	-0.2523793
107	0xbc9c50b3	-0.01908145
108	0xbe5d1dbe	-0.21593377
109	0xbe818874	-0.25299418
110	0xbdde8cbf	-0.10866689
111	0xbe97dbe5	-0.29659954
112	0xbe909dc7	-0.28245375
113	0xbdd90982	-0.105975166
114	0x3e8d629e	0.276143
115	0xbd9fa429	-0.07794983
116	0x3f04696d	0.51723367
117	0xbeb4a110	-0.3527913
118	0x3e24b694	0.16085273
119	0xbe4537d8	-0.19259584
120	0xbe8b3424	-0.27188218
121	0x3d84ff97	0.064940624
122	0xbebb4794	-0.36578047
123	0x3e8287d3	0.2549425
124	0xbdcba7bb	-0.099441014
125	0x3d708f61	0.058730487
126	0xbe987031	-0.29773095
127	0x3cacf9e6	0.021115255
128	0xbe3fcd56	-0.18730673
129	0xbe89b701	-0.26897433
130	0xbe01dab2	-0.12681082
131	0x3c958b77	0.018254979
132	0xbe7c48ea	-0.2463719
133	0xbeaafff5	-0.33398405
134	0xbe21e0c7	-0.15808402
135	0xbeb194cc	-0.34683836
136	0xbebfd203	-0.37464914
137	0xbd03d773	-0.03218789
138	0xbea65857	-0.32489273
139	0x3db8497e	0.089983925
140	0xbe54ace9	-0.20769085
141	0x3e56296f	0.20914243
142	0xbe37a766	-0.17934951
143	0xbd1c3eae	-0.038145714
144	0xbcf65a42	-0.030072335
145	0xbe08d673	-0.13363056
146	0xbdc2e9de	-0.09517263
147	0xbeb6da45	-0.357134
148	0xbeb943b7	-0.36184475
149	0xbd775881	-0.06038714
150	0xbe7f6b0a	-0.24943176
151	0xbe9865db	-0.2976521
152	0xbe1b1706	-0.15145501
153	0xbc8f9387	-0.017526401
154	0xbec8f416	-0.39248723
155	0xbd87732f	-0.066137664
156	0xbea3a36e	-0.31960624
157	0xbdff1709	-0.124555655
158	0xbcca6232	-0.024705026
159	0xbe93823b	-0.28810295
160	0xbe2488bd	-0.16067787
161	0xbd09647a	-0.033543088
162	0x3e7a6dcb	0.24455945
163	0xbdb3a484	-0.08771613
164	0x3f292a16	0.66079843
165	0xbeaf4981	-0.34235767
166	0x3e322c47	0.17399703
167	0xbca860f9	-0.020554053
168	0x3eb46239	0.35231188
169	0xbd90d1ae	-0.07071243
170	0x3ede5dec	0.43431032
171	0xbe8d34eb	-0.27579436
172	0x3de30a82	0.110859886
173	0x3ddfd105	0.10928539
174	0xbe4e76be	-0.20162484
175	0xbe924cb5	-0.28574148
176	0x3cb99600	0.022654533
177	0xbe6a9304	-0.22907645
178	0xbe855061	-0.26037887
179	0xbe048bd8	-0.12943971
180	0xbe8d3374	-0.27578318
181	0xbe3cad86	-0.18425569
182	0xbe496d98	-0.19670713
183	0x3c336671	0.010949717
184	0xbe8dbf94	-0.27685225
185	0xbe0abb79	-0.13548078
186	0xbe1ebfc6	-0.15502843
187	0xbe88ec63	-0.2674285
188	0xbbe0ded2	-0.0068624998
189	0xbdf9ed04	-0.1220341
190	0xbed4dfea	-0.41577083
191	0xbdc7d4f2	-0.09757413
192	0xbdeba376	-0.11505787
193	0xbe4508d5	-0.1924165
194	0xbe387775	-0.18014319
195	0xbe585d4c	-0.2112934
196	0xbe358363	-0.17725901
197	0xbdb636c7	-0.08897167
198	0xbea87b76	-0.32906693
199	0xbe789e5d	-0.24279161
200	0xbd54a05a	-0.051910736
201	0xbeb10e4a	-0.34581214
202	0xbe82f388	-0.25576425
203	0xbd15ad86	-0.036542438
204	0xbe3484ef	-0.17628835
205	0xbe272314	-0.16321975
206	0xbdfe7e42	-0.124264255
207	0xbe982738	-0.29717422
208	0xbebd6424	-0.36990464
209	0xbe3e58a2	-0.18588498
210	0x3d99b377	0.07504933
211	0xbe2b3326	-0.1671873
212	0x3de724c3	0.112863086
213	0xbee66dd5	-0.4500567
214	0x3e01e47a	0.12684813
215	0xbc6bcca3	-0.014392051
216	0xbec3f2f9	-0.3827131
217	0x3e559edd	0.20861383
218	0xbeffbbda	-0.49948007
219	0x3e464457	0.19362007
220	0xbda14e6e	-0.078762874
221	0x3e101501	0.14070512
222	0xbe988d1b	-0.29795155
223	0xbe95cb8b	-0.29256853
224	0x3d1502e3	0.036379706
225	0xbea77f58	-0.32714343
226	0xbea97408	-0.33096337
227	0xbda205fa	-0.07911296
228	0xbe9b62f5	-0.30348936
229	0x3e1e3653	0.1545041
230	0xbdc4d389	-0.0961066
231	0xbd98cd1d	-0.07460997
232	0xbe9ecb6b	-0.3101457
233	0xbd20da8a	-0.039270915
234	0xbe20fe5b	-0.15722029
235	0xbe155651	-0.14583708
236	0x3b46a8bb	0.0030312974
237	0xbda5afdf	-0.080901854
238	0xbe9378f4	-0.28803217
239	0x3e104a13	0.14090757
240	0xbeb1cbc0	-0.3472576
241	0x3de40026	0.11132841
242	0xbee11624	-0.43962204
243	0x3e9b04d9	0.30277136
244	0xbdd2fcaf	-0.10302102
245	0x3daec635	0.08533899
246	0xbea67ef0	-0.3251872
247	0x3d735818	0.059410185
248	0xbe94918b	-0.2901729
249	0x3e3adae0	0.18247557
250	0xbe1c551f	-0.15266846
251	0xbc80ff38	-0.015746698
252	0xbe8bf167	-0.27332613
253	0x3d35f5c4	0.044423833
254	0xbed242b7	-0.41066524
255	0x3ee4e600	0.44706726

bayes_fc1.prior_sigma_small f4 [64, 6]
0	0x3e8adfd0	0.2712388
1	0x3e724b5f	0.23661564
2	0x3f778d79	0.96700245
3	0x3ea13912	0.31488854
4	0x3e135690	0.1438849
5	0x3f700bcd	0.93768007
6	0x3db8b19d	0.09018252
7	0x3d37795b	0.044793468
8	0x3f281a87	0.6566548
9	0x3dd91325	0.10599355
10	0x3d3d81ad	0.046266247
11	0x3f3cd58a	0.73763335
12	0x3dde1143	0.10843136
13	0x3d57bf12	0.052672453
14	0x3f44ad67	0.7682709
15	0x3e2542c9	0.16138758
16	0x3d641cfa	0.055691697
17	0x3f3325c9	0.6997953
18	0x3d9b466f	0.075817935
19	0x3cfcb402	0.030847553
20	0x3f26ad46	0.65108144
21	0x3d80813d	0.0627465
22	0x3d01b5df	0.031667586
23	0x3f17364b	0.5906722
24	0x3dce679b	0.10078355
25	0x3d3bfd0b	0.045895617
26	0x3f368c4e	0.7130784
27	0x3dee4944	0.11635068
28	0x3d5760e5	0.05258264
29	0x3f073f20	0.52830696
30	0x3e0b04db	0.13576071
31	0x3d7f8c98	0.06238994
32	0x3f316451	0.69293696
33	0x3dd064b3	0.10175457
34	0x3d4e1f8e	0.05032306
35	0x3f2c08e9	0.67201096
36	0x3eb9f242	0.3631764
37	0x3e2926ee	0.16518757
38	0x3f66c34c	0.9014175
39	0x3eadf1ae	0.3397345
40	0x3e2802f4	0.16407377
41	0x3f5f952d	0.87337
42	0x3e40eb32	0.1883972
43	0x3d963b50	0.07335532
44	0x3f5ee323	0.87065333
45	0x3e8b3bad	0.27193967
46	0x3df2147e	0.11820315
47	0x3f555f71	0.8334876
48	0x3db419b1	0.08793963
49	0x3d1fc3d0	0.0390051
50	0x3f2e69ec	0.68130374
51	0x3d9f6d3c	0.07784507
52	0x3d2a26a4	0.041540757
53	0x3f189bbc	0.5961263
54	0x3e7aa2eb	0.24476211
55	0x3ddbac18	0.10726184
56	0x3f5a518f	0.852807
57	0x3e2cd938	0.16879737
58	0x3daec311	0.085333
59	0x3f515bba	0.8178059
60	0x3ebee6b8	0.372854
61	0x3df195cd	0.1179615
62	0x3f691267	0.91043705
63	0x3e9f912d	0.31165448
64	0x3deb9171	0.1150235
65	0x3f77cd14	0.967973
66	0x3db73d30	0.089472175
67	0x3d3c71b3	0.04600687
68	0x3f2ad30a	0.6672827
69	0x3d999bd3	0.07500424
70	0x3d19b2a3	0.037523877
71	0x3f1ce6e9	0.6128984
72	0x3e5eb563	0.21748881
73	0x3da96c30	0.08272588
74	0x3f5e2983	0.8678209
75	0x3e84694e	0.2586159
76	0x3e39ab5f	0.18131779
77	0x3f6b3a5b	0.9188592
78	0x3d82ed69	0.06392939
79	0x3d0060fc	0.03134249
80	0x3f0b0b9c	0.5431459
81	0x3d8e4b4e	0.06947957
82	0x3d0c1db2	0.034208007
83	0x3f1086ef	0.5645589
84	0x3e432399	0.19056548
85	0x3dcc3efe	0.09972952
86	0x3f5cb94b	0.86220235
87	0x3e9793a7	0.29604837
88	0x3e2a7188	0.16644871
89	0x3f68d95f	0.9095668
90	0x3e62f9f7	0.22165667
91	0x3db3eba0	0.08785176
92	0x3f2c1b88	0.6722951
93	0x3dbf189f	0.09330868
94	0x3d5741a5	0.052552838
95	0x3f12bacb	0.57316273
96	0x3dd984f6	0.106210634
97	0x3d2e3c8a	0.042538203
98	0x3f32ccd1	0.69843775
99	0x3da71d24	0.08159855
100	0x3d1df721	0.03856576
101	0x3f2fda40	0.686924
102	0x3e780e67	0.24224244
103	0x3dd76bf6	0.10518639
104	0x3f71a4c9	0.9439207
105	0x3e837652	0.2567621
106	0x3e0dafd1	0.138366
107	0x3f58edb1	0.8473769
108	0x3e8d75cb	0.2762893
109	0x3e0947fd	0.13406368
110	0x3f70ea92	0.94107926
111	0x3e894145	0.2680761
112	0x3e09f6d9	0.13473071
113	0x3f593990	0.8485346
114	0x3d8ace22	0.06777598
115	0x3d0613a9	0.032733593
116	0x3f1f518a	0.62233794
117	0x3d949757	0.07255428
118	0x3d15a55d	0.036534656
119	0x3f199eed	0.60008126
120	0x3e05cfe4	0.13067585
121	0x3d5b8631	0.05359477
122	0x3f301737	0.68785423
123	0x3de61d2f	0.11236035
124	0x3d3a073b	0.04541705
125	0x3f22eedb	0.63645715
126	0x3e2bdfd4	0.16784602
127	0x3d85906d	0.06521688
128	0x3f4be615	0.7964795
129	0x3e61a278	0.22034633
130	0x3da875e1	0.082256086
131	0x3f4bfc93	0.7968227
132	0x3ec16473	0.3777195
133	0x3e1e2da4	0.15447098
134	0x3f771aad	0.9652508
135	0x3ee16927	0.44025537
136	0x3e7319c2	0.23740295
137	0x3f6dff7e	0.92967975
138	0x3e0cf98a	0.13767067
139	0x3d90a61d	0.070629336
140	0x3f4b25f6	0.793548
141	0x3e181b6a	0.14854208
142	0x3da1363f	0.07871675
143	0x3f44c6ba	0.7686573
144	0x3e8ef652	0.27922302
145	0x3dfb3a07	0.12266927
146	0x3f6ecfa6	0.93285596
147	0x3ecf86c9	0.4053252
148	0x3e449856	0.19198737
149	0x3f764e1c	0.96212935
150	0x3e943ee5	0.28954235
151	0x3e1163b8	0.14198196
152	0x3f7207fe	0.94543445
153	0x3e909f6d	0.28246632
154	0x3e49636f	0.19666837
155	0x3f64aa99	0.8932281
156	0x3e640356	0.22266898
157	0x3da37808	0.079818785
158	0x3f5966c9	0.8492246
159	0x3e559222	0.20856526
160	0x3db18e16	0.08669679
161	0x3f5c4c57	0.86053985
162	0x3d803547	0.06260162
163	0x3cfc8a9d	0.030827815
164	0x3ed8667e	0.42265695
165	0x3d5d632b	0.054049652
166	0x3ccf5c62	0.025312606
167	0x3ee9a6da	0.4563511
168	0x3d5b9b74	0.05361505
169	0x3cc58606	0.024111759
170	0x3ed45bc3	0.4147626
171	0x3d6c21b4	0.05764933
172	0x3cd4be0f	0.025969533
173	0x3ef11914	0.47089446
174	0x3e93dc85	0.2887918
175	0x3e145a4c	0.1448757
176	0x3f668973	0.9005348
177	0x3e8bb3d9	0.2728565
178	0x3e1f0146	0.1552783
179	0x3f1e05e1	0.6172772
180	0x3e747cc7	0.23875724
181	0x3df26c83	0.11837103
182	0x3f598475	0.8496774
183	0x3e319503	0.17342
184	0x3e03900d	0.1284792
185	0x3f4d254c	0.80135036
186	0x3e903e35	0.2817246
187	0x3e12354b	0.14278142
188	0x3f5aaa6a	0.8541628
189	0x3e9ee269	0.31032112
190	0x3e635808	0.2220155
191	0x3f691b11	0.91056925
192	0x3e8cc232	0.2749191
193	0x3dfe7529	0.1242469
194	0x3f6341be	0.8877219
195	0x3e96f049	0.29480198
196	0x3de10068	0.109864056
197	0x3f6926ed	0.9107502
198	0x3e9764e5	0.29569164
199	0x3e04684e	0.12930414
200	0x3f5db3a2	0.8660222
201	0x3e8f11e0	0.27943325
202	0x3dfc7d62	0.123286024
203	0x3f3294a1	0.6975804
204	0x3e84f0ef	0.25965068
205	0x3ddba34f	0.10724508
206	0x3f663a38	0.89932585
207	0x3ebc1bdc	0.36740005
208	0x3e316774	0.1732462
209	0x3f74e458	0.95660925
210	0x3e4f159a	0.20223084
211	0x3dcaa99b	0.09895631
212	0x3f528623	0.82235926
213	0x3e4215b5	0.18953593
214	0x3d9458af	0.072434776
215	0x3f378cf1	0.71699435
216	0x3db4d249	0.08829171
217	0x3d15c176	0.03656145
218	0x3f2751c7	0.6535916
219	0x3db0c9cf	0.08632242
220	0x3d18fdf0	0.03735155
221	0x3f288db9	0.6584125
222	0x3e9cae9b	0.30601963
223	0x3e1be9d4	0.15225917
224	0x3f5665d9	0.8374916
225	0x3eaa849d	0.333043
226	0x3e21b23b	0.15790646
227	0x3f5f0e1e	0.87130916
228	0x3e50e5b7	0.2040013
229	0x3db14fb8	0.08657783
230	0x3f4ec8d7	0.8077521
231	0x3e8b132c	0.27163064
232	0x3de82bb4	0.11336461
233	0x3f5f3214	0.8718579
234	0x3e342b8b	0.17594735
235	0x3d9f8bab	0.077903114
236	0x3f30abd8	0.6901221
237	0x3e17d1db	0.14826147
238	0x3e10119e	0.1406922
239	0x3f2adc84	0.6674273
240	0x3db1423e	0.08655213
241	0x3d317273	0.043322038
242	0x3f2fa757	0.68614715
243	0x3dc97209	0.098362036
244	0x3d2b6f0a	0.041853942
245	0x3f3055b4	0.6888077
246	0x3de70f8e	0.11282264
247	0x3d645422	0.055744298
248	0x3f4704fb	0.77741975
249	0x3df547ce	0.11976586
250	0x3d7302f1	0.059328977
251	0x3f2dc457	0.67877716
252	0x3e01902b	0.12652652
253	0x3d660ca8	0.056164414
254	0x3f4265d3	0.7593662
255	0x3df94873	0.12172022

bayes_fc2.weight_mu f4 [1, 64]
0	0x3cf25586	0.029581796
1	0x3decc3fa	0.11560817
2	0xbd77e3c7	-0.06051996
3	0xbdbbb96f	-0.09166228
4	0xbd836a8a	-0.06416805
5	0x3da83990	0.08214104
6	0x3cbb3b5e	0.022855457
7	0xbd5492a3	-0.051897656
8	0xbdbaf2c9	-0.09128339
9	0x3ca78862	0.020450775
10	0x3cbc02bc	0.022950523
11	0xbdd3c637	-0.10340541
12	0xbc9f0581	-0.019411804
13	0x3df3acdc	0.11898205
14	0x3c20368b	0.009778629
15	0x3e91cbee	0.28475899
16	0x3dc1c267	0.094609074
17	0xbc6fb6f0	-0.014631018
18	0x3d23e49a	0.040012933
19	0x3de3792b	0.11107095
20	0xbdc157fc	-0.0944061
21	0xbdaa3c0b	-0.083122335
22	0x3c62ebd1	0.013850168
23	0xbd8b77af	-0.06809937
24	0x3d02eeb3	0.031965923
25	0xbd1182ec	-0.035525247
26	0x3df7e4e2	0.12104203
27	0x3e14db7a	0.14536849
28	0x3e1f4f0a	0.15557495
29	0xbd45864f	-0.04822379
30	0xbd6ed5d4	-0.05830939
31	0x3c7c89e5	0.015413736
32	0xbc94f1c6	-0.018181693
33	0xbc834bc2	-0.016027335
34	0xbcf897f3	-0.030345893
35	0x3d92d132	0.07168807
36	0xbd8d2628	-0.06892043
37	0x3da70945	0.08156065
38	0xbd31402a	-0.043274082
39	0x3dec0aa6	0.115254685
40	0xbda42adb	-0.080159865
41	0xbd7f8d42	-0.062390573
42	0xbd7ec8f1	-0.06220335
43	0xbbc0bc0c	-0.005881792
44	0xbce1b826	-0.02755363
45	0xbdb2f188	-0.08737475
46	0xbbf22460	-0.00738959
47	0xbd2786a6	-0.040899895
48	0xbc706f6b	-0.014675002
49	0xbc8ea517	-0.017412705
50	0xbbbdfce1	-0.005797968
51	0xbc9825fe	-0.018572804
52	0x3cab6d58	0.020926163
53	0x3dd98756	0.106215164
54	0x3d27c9eb	0.04096405
55	0x3dcfd35e	0.10147737
56	0x3df86649	0.12128884
57	0x3dcbd34a	0.099524096
58	0x3de36ab4	0.111043364
59	0x3d0b93c5	0.03407647
60	0x3ab3746d	0.0013691314
61	0x3db4ca03	0.08827593
62	0xbdd2a5c2	-0.10285522
63	0x3cf87a87	0.030331863

bayes_fc2.weight_rho f4 [1, 64]
0	0xbf9cb2e8	-1.2242098
1	0xc05eed16	-3.4832206
2	0xc046379a	-3.0971437
3	0xc0616c8c	-3.5222502
4	0xc0579297	-3.3683221
5	0xc04f6877	-3.240751
6	0xbf951fc4	-1.1650319
7	0xc047c44b	-3.1213558
8	0xc05dc125	-3.4649136
9	0xc01b76c7	-2.4291246
10	0xc0313418	-2.7688046
11	0xc049830e	-3.148624
12	0xbfd88008	-1.6914072
13	0xc0647c1b	-3.5700748
14	0xbfe169b4	-1.7610383
15	0xbfc23119	-1.5171233
16	0xc059d176	-3.4034095
17	0xc00bede5	-2.186395
18	0xbfadb70c	-1.3571486
19	0xc05a68bf	-3.4126432
20	0xc03faed3	-2.9950454
21	0xc00d3a9e	-2.2067027
22	0xbfd95fa0	-1.6982307
23	0xc044e5ee	-3.0765338
24	0xc0292c19	-2.6433165
25	0xc0086683	-2.1312568
26	0xbf43c00e	-0.7646493
27	0xc05cf832	-3.4526486
28	0xc0584bde	-3.3796306
29	0xbf8c63ba	-1.0967934
30	0xbfa734b0	-1.3062954
31	0xbfb26220	-1.3936195
32	0xc00f43c8	-2.238512
33	0xbf9ac01d	-1.2089878
34	0xc00b9725	-2.1811001
35	0xc03519b8	-2.8296947
36	0xc05ba621	-3.4320147
37	0xbece4621	-0.4028788
38	0xc042c716	-3.0434012
39	0xbf5c7ed2	-0.8613101
40	0xc04f42db	-3.2384555
41	0xc03b1974	-2.9234285
42	0xc05331d0	-3.2999153
43	0xc005c3c6	-2.090074
44	0xc0098c55	-2.1491902
45	0xbfbb9fa5	-1.4658095
46	0xbfb01f12	-1.3759482
47	0xc0493c82	-3.144318
48	0xbfbe4941	-1.4866105
49	0xc028b4c9	-2.6360343
50	0xc01cc6cd	-2.4496338
51	0xc030a501	-2.760071
52	0xbfc1c560	-1.5138359
53	0xc05a19d1	-3.4078257
54	0xbfa199d8	-1.2625074
55	0xc04b63f1	-3.177975
56	0xc04669d8	-3.1002102
57	0xc050a9f1	-3.2603724
58	0xc024cf9b	-2.5751712
59	0xc0411165	-3.0166867
60	0xbfaf9e45	-1.3720175
61	0xc04e61d6	-3.2247214
62	0xc056e507	-3.3577287
63	0xc013e4be	-2.3108363

bayes_fc2.prior_mu_old f4 [1, 64]
0	0x3cf25586	0.029581796
1	0x3decc3fa	0.11560817
2	0xbd77e3c7	-0.06051996
3	0xbdbbb96f	-0.09166228
4	0xbd836a8a	-0.06416805
5	0x3da83990	0.08214104
6	0x3cbb3b5e	0.022855457
7	0xbd5492a3	-0.051897656
8	0xbdbaf2c9	-0.09128339
9	0x3ca78862	0.020450775
10	0x3cbc02bc	0.022950523
11	0xbdd3c637	-0.10340541
12	0xbc9f0581	-0.019411804
13	0x3df3acdc	0.11898205
14	0x3c20368b	0.009778629
15	0x3e91cbee	0.28475899
16	0x3dc1c267	0.094609074
17	0xbc6fb6f0	-0.014631018
18	0x3d23e49a	0.040012933
19	0x3de3792b	0.11107095
20	0xbdc157fc	-0.0944061
21	0xbdaa3c0b	-0.083122335
22	0x3c62ebd1	0.013850168
23	0xbd8b77af	-0.06809937
24	0x3d02eeb3	0.031965923
25	0xbd1182ec	-0.035525247
26	0x3df7e4e2	0.12104203
27	0x3e14db7a	0.14536849
28	0x3e1f4f0a	0.15557495
29	0xbd45864f	-0.04822379
30	0xbd6ed5d4	-0.05830939
31	0x3c7c89e5	0.015413736
32	0xbc94f1c6	-0.018181693
33	0xbc834bc2	-0.016027335
34	0xbcf897f3	-0.030345893
35	0x3d92d132	0.07168807
36	0xbd8d2628	-0.06892043
37	0x3da70945	0.08156065
38	0xbd31402a	-0.043274082
39	0x3dec0aa6	0.115254685
40	0xbda42adb	-0.080159865
41	0xbd7f8d42	-0.062390573
42	0xbd7ec8f1	-0.06220335
43	0xbbc0bc0c	-0.005881792
44	0xbce1b826	-0.02755363
45	0xbdb2f188	-0.08737475
46	0xbbf22460	-0.00738959
47	0xbd2786a6	-0.040899895
48	0xbc706f6b	-0.014675002
49	0xbc8ea517	-0.017412705
50	0xbbbdfce1	-0.005797968
51	0xbc9825fe	-0.018572804
52	0x3cab6d58	0.020926163
53	0x3dd98756	0.106215164
54	0x3d27c9eb	0.04096405
55	0x3dcfd35e	0.10147737
56	0x3df86649	0.12128884
57	0x3dcbd34a	0.099524096
58	0x3de36ab4	0.111043364
59	0x3d0b93c5	0.03407647
60	0x3ab3746d	0.0013691314
61	0x3db4ca03	0.08827593
62	0xbdd2a5c2	-0.10285522
63	0x3cf87a87	0.030331863

bayes_fc2.prior_sigma_small f4 [1, 64]
0	0x3e83f53e	0.25773042
1	0x3cf7c70f	0.030246286
2	0x3d34fdb5	0.044187266
3	0x3cee6e0d	0.02910521
4	0x3d0ab880	0.03386736
5	0x3d1d3ce5	0.03838815
6	0x3e8b003c	0.27148616
7	0x3d30c0e9	0.043152723
8	0x3cfc4920	0.030796587
9	0x3dacf1f4	0.084445864
10	0x3d793b5a	0.060847618
11	0x3d2c18f0	0.04201597
12	0x3e2d2d4f	0.16911815
13	0x3ce372d4	0.027764715
14	0x3e22676b	0.15859763
15	0x3e4b1220	0.19831133
16	0x3d0603e1	0.032718543
17	0x3dda01d1	0.10644878
18	0x3e6a89bd	0.22904105
19	0x3d04cd9a	0.03242264
20	0x3d47fa81	0.048822884
21	0x3dd5d871	0.104416735
22	0x3e2c17cc	0.16805953
23	0x3d38ad1d	0.04508697
24	0x3d8cb790	0.06870949
25	0x3de5b25c	0.1121566
26	0x3ec3af01	0.38219455
27	0x3cff59d6	0.031170767
28	0x3d092fc9	0.033492837
29	0x3e9386b5	0.2881371
30	0x3e756a5b	0.23966353
31	0x3e6300d1	0.2216828
32	0x3dcf7a61	0.10130764
33	0x3e85bd36	0.2612092
34	0x3ddb1acd	0.10698471
35	0x3d6aec41	0.057354216
36	0x3d024b9e	0.031810395
37	0x3f030952	0.51186097
38	0x3d3ec13e	0.04657101
39	0x3eb479d0	0.35249186
40	0x3d1d97a4	0.038474694
41	0x3d567189	0.05235437
42	0x3d145dce	0.03622227
43	0x3deecfc3	0.11660721
44	0x3de1d4c7	0.11026912
45	0x3e54b95a	0.20773831
46	0x3e66a06d	0.22522135
47	0x3d2cd318	0.042193502
48	0x3e50c31b	0.20386927
49	0x3d8db5f3	0.0691947
50	0x3da9935f	0.08280062
51	0x3d7b5a31	0.06136531
52	0x3e4bad5b	0.19890349
53	0x3d056f22	0.032576688
54	0x3e7f230f	0.24915718
55	0x3d273846	0.04082515
56	0x3d3472ec	0.04405491
57	0x3d1a3d50	0.03765613
58	0x3d9648ee	0.07338129
59	0x3d43cc45	0.04780223
60	0x3e67708c	0.22601527
61	0x3d1fbacf	0.038996514
62	0x3d0c2c4d	0.034221936
63	0x3dc1aa2e	0.09456287
