models/updated_hmnn_model_1991_2005.pth (torch, 14090 bytes, 12 tensors)

bayes_fc1.weight_mu f4 [64, 6]
-0.4726699 -0.6357939 -0.3082032 -0.57874703 -0.447805 -0.24922322 0.5074544 -0.120040506
1.265934 -0.44531137 0.10690874 -0.96036875 -0.37742582 0.21214654 -0.73294973 0.32566294
-0.16759333 0.81938 -0.37094954 0.20069732 -1.2482162 0.40985456 -0.13462153 -0.05955102
-0.3759777 0.20313545 -1.1245593 0.3692009 -0.16385461 0.47433287 0.19848584 -0.14870584
1.6614951 -0.32532734 0.18441786 0.51096195 -0.54805154 -0.44975525 -0.19148193 -0.43298542
-0.5113858 -0.17516465 -0.45677674 0.2578611 -0.082150675 -0.25343323 -0.35014778 1.3739375
-0.2890643 0.13106562 -1.1427068 0.49666566 -0.14397 0.11817776 -0.6096619 -0.2814535
0.059619486 -0.15545282 0.11767323 1.1726112 -0.4001224 -0.38206518 -0.1466828 -0.49949718
-0.190806 -0.1790608 -0.2139064 0.089409985 -1.5531185 0.5031558 -0.08031496 -0.20324849
-0.5068562 -0.1954433 -0.18064323 -0.450112 -0.5311072 -0.2039032 0.43835953 -0.13369295
1.1794211 -0.37350702 0.17488864 -0.14436215 -0.3279572 -0.24895673 -0.31330687 -0.50169426
-0.4789252 -0.114797 -1.0173688 -0.20526317 -1.2017827 -0.06449891 0.04376551 0.7646599
0.2722876 -0.16455942 1.8975649 -0.36766595 0.19168697 0.2513793 -0.42343277 -0.18122895
-0.16835183 -0.4710155 -0.34442484 -0.21856265 -0.4575947 -0.4095663 -0.12816486 -0.4566688
-0.4351493 -0.2157355 0.31718627 -0.10536419 1.3467121 -0.35952234 0.2042884 -0.2866002
-0.2223322 0.08857813 -0.9579471 0.3350159 -0.1131235 0.2091743 -0.38211063 0.06672131
-0.18048865 -0.47599968 -0.2426015 0.14263257 -0.35751572 -0.37964222 -0.07437167 -0.61138034
-0.60676724 -0.19418254 -0.35138944 0.15230122 -0.6081835 0.3131071 -0.16589962 0.558461
-0.38310888 -0.41366133 -0.1398605 -0.5969297 -0.46757403 -0.23320426 -0.3706638 -0.46347198
-0.09987645 -0.3162375 -0.45303664 -0.13709898 -0.4373185 -0.28808343 -0.29476056 -0.30907992
-0.21762805 -0.19787623 0.21303731 -0.122399785 1.4398631 -0.35303396 0.18770269 0.2759683
0.31692532 -0.14130737 1.3149885 -0.27044183 0.1463537 0.30776405 -0.37507534 -0.39549807
-0.27460104 -0.4093952 -0.43750316 -0.2439501 -0.43840224 -0.2778642 -0.31471854 -0.18995944
-0.3348105 -0.34401456 -0.41713032 -0.3458201 -0.19728011 -0.3463131 -0.51512814 -0.2252884
-0.3202788 -0.31767088 -0.26457822 -0.36155707 -0.28903374 -0.17123851 -0.49545252 -0.3222571
-0.27464643 -0.45354134 -0.34046063 -0.15452172 -0.3417386 -0.1733205 -0.21132044 -0.40513498
-0.4110097 -0.14579621 -0.34022853 -0.24536537 0.59607255 -0.4341689 0.14028375 0.7623953
-0.43707713 0.2568482 -1.2394437 0.31169426 -0.1222521 0.31999454 -0.63285244 -0.48534396
-0.30080888 -0.55661213 -0.4054178 -0.32111353 -0.38403913 0.15993151 -0.018126756 -0.27306747
-0.38641018 0.45609742 -0.29637384 -0.17714283 -0.18785667 -0.24312659 -0.34365585 -0.043823734
-0.34370837 0.18493901 -1.0630249 0.34664455 -0.121636234 0.3106682 -0.34089333 0.1339563
-0.9366367 0.38719743 -0.11703207 0.4309286 -0.26370755 0.097471155 -1.1219953 0.49409935
00000000: ca01 f2be 64c3 22bf cfcc 9dbe c428 14bf
00000010: b246 e5be 5f34 7fbe 88e8 013f ccd7 f5bd
00000020: 200a a23f daff e3be f8f2 da3d bada 75bf
00000030: f53d c1be f13c 593e 98a2 3bbf 4bbd a63e
00000040: 969d 2bbe e3c2 513f 19ed bdbe 9983 4d3e
00000050: 8cc5 9fbf 75d8 d13e 3ada 09be c5eb 73bd
00000060: 2680 c0be bd02 503e 8ff1 8fbf e607 bd3e
00000070: 81c9 27be c2db f23e df3f 4b3e 5846 18be
00000080: dfab d43f 4e91 a6be 09d8 3c3e 67ce 023f
00000090: 1b4d 0cbf 5246 e6be d713 44be 44b0 ddbe
000000a0: 2eea 02bf 5d5e 33be a4de e9be 5f06 843e
000000b0: 9d3e a8bd 00c2 81be 9246 b3be 2fdd af3f
000000c0: 3c00 94be 1136 063e 3744 92bf f64a fe3e
000000d0: df6c 13be 2e07 f23d cd12 1cbf ac1a 90be
000000e0: 9033 743d 062f 1fbe aafe f03d 2018 963f
000000f0: d8dc ccbe 0c9e c3be 0434 16be 18be ffbe
00000100: a662 43be b75b 37be 480a 5bbe 951c b73d
00000110: 96cc c6bf d2ce 003f 2b7c a4bd 5f20 50be
00000120: 54c1 01bf 4a22 48be 8afa 38be 1475 e6be
00000130: a4f6 07bf 00cc 50be a970 e03e cee6 08be
00000140: 45f7 963f 503c bfbe 0216 333e acd3 13be
00000150: 02ea a7be 83ee 7ebe c269 a0be 096f 00bf
00000160: af35 f5be b11a ebbd 2439 82bf 8230 52be
00000170: 04d4 99bf 0118 84bd 7743 333d c0c0 433f
00000180: 4869 8b3e 4482 28be 68e3 f23f b63e bcbe
00000190: 9749 443e cab4 803e 2ecc d8be 1594 39be
000001a0: 6c64 2cbe f228 f1be 7458 b0be e3ce 5fbe
000001b0: da49 eabe adb2 d1be a63d 03be 7ed0 e9be
000001c0: e4cb debe c4e9 5cbe 3d66 a23e 2ec9 d7bd
000001d0: 1061 ac3f 5013 b8be fa30 513e 43bd 92be
000001e0: 0dab 63be 7368 b53d 053c 75bf 3487 ab3e
000001f0: 4bad e7bd ca31 563e 01a4 c3be 2fa5 883d
00000200: 04d2 38be 3bb6 f3be 876c 78be 460e 123e
00000210: 4d0c b7be 7760 c2be 2d50 98bd 6c83 1cbf
00000220: 1955 1bbf cad7 46be 51e9 b3be daf4 1b3e
00000230: eab1 1bbf 934f a03e 97e1 29be 4df7 0e3f
00000240: d926 c4be 6bcb d3be 9737 0fbe 63d0 18bf
00000250: dd65 efbe 19cd 6ebe a5c7 bdbe 334c edbe
00000260: 068c ccbd e2e9 a1be 6bf4 e7be ad63 0cbe
00000270: 36e8 dfbe ac7f 93be dbea 96be b93f 9ebe
00000280: e3d9 5ebe 11a0 4abe 7426 5a3e bdac fabd
00000290: 6f4d b83f dec0 b4be 2235 403e b84b 8d3e
000002a0: 0944 a23e e1b2 10be 8b51 a83f 5a77 8abe
000002b0: bfdd 153e 4093 9d3e e009 c0be b97e cabe
000002c0: 8298 8cbe 3f9c d1be 6a00 e0be 0ece 79be
000002d0: 4276 e0be 3744 8ebe ca22 a1be ba84 42be
000002e0: 486c abbe ad22 b0be 1b92 d5be 550f b1be
000002f0: cc03 4abe f34f b1be 70df 03bf 01b2 66be
00000300: 95fb a3be c2a5 a2be cc76 87be 021e b9be
00000310: 3bfc 93be 2659 2fbe f4ab fdbe e2fe a4be
00000320: 759e 8cbe 9236 e8be db50 aebe f13a 1ebe
00000330: 5df8 aebe ee7a 31be 6364 58be da6d cfbe
00000340: dd6f d2be 9a4b 15be 6f32 aebe 0f41 7bbe
00000350: 3698 183f 634b debe 8ba6 0f3e 572c 433f
00000360: 93c8 dfbe 9b81 833e 17a6 9ebf 6496 9f3e
00000370: 4f5f fabd 53d6 a33e 9e02 22bf 017f f8be
00000380: 9f03 9abe 227e 0ebf ec92 cfbe fe68 a4be
00000390: c7a0 c4be 16c5 233e 907e 94bc 80cf 8bbe
000003a0: 8ed7 c5be 9a85 e93e 50be 97be ee64 35be
000003b0: 805d 40be 2df6 78be a9f3 afbe 8480 33bd
000003c0: 8bfa afbe a760 3d3e 3311 88bf 657b b13e
000003d0: 6b1c f9bd e70f 9f3e 9289 aebe d72b 093e
000003e0: 6cc7 6fbf be3e c63e 83ae efbd aca2 dc3e
000003f0: ad04 87be f59e c73d 8b9d 8fbf 97fa fc3e

bayes_fc1.weight_rho f4 [64, 6]
-0.8829694 -1.3255209 0.41109806 -0.7958738 -1.5028039 0.3859294 -3.2945273 -4.263348
-0.5316146 -2.852601 -4.0427203 -0.3052321 -3.0177963 -3.969212 -0.14925256 -2.8102415
-3.8037615 -0.27393135 -3.390425 -4.525416 -0.59894615 -3.4172304 -4.3981194 -0.7238761
-3.3191411 -4.3966274 -0.28091103 -3.4405913 -4.160763 -0.8258395 -3.1196887 -3.9470162
-0.80837643 -3.4350705 -4.464525 -0.6385345 -0.9237126 -1.5181043 0.42121503 -0.7641787
-1.384015 0.39553928 -2.3780513 -3.637708 0.23063646 -1.713809 -2.6276588 0.58716786
-3.0936809 -4.1564307 -0.36202163 -3.2914977 -4.0631557 -0.3370492 -1.5185155 -2.5322695
0.22707449 -2.779312 -3.4105759 0.24609673 -0.65770656 -1.7935139 0.44286147 -0.76265514
-1.8084416 0.41592324 -3.2899115 -4.63047 -0.630528 -3.4515524 -4.559829 -0.49455118
-1.0212094 -2.0377178 0.34875244 -0.91141754 -1.3543253 0.44474483 -3.5132504 -4.3071375
-0.81677705 -3.4503272 -4.628983 -0.48063657 -1.025988 -2.096264 0.34018162 -0.9481036
-1.3581094 0.35603136 -1.631154 -3.9601486 -0.67127377 -3.8358543 -4.8644757 -1.5923296
-2.8800228 -4.019406 -0.36338308 -3.237321 -3.962371 -0.3643872 -0.83609754 -2.0823174
0.42919162 -0.9072053 -1.9633104 0.37697187 -0.91664237 -1.8193647 0.4019061 -0.8862074
-1.6625171 0.49899712 -3.8590698 -4.731584 -0.98463875 -3.6010602 -4.530648 -0.8348031
-2.6990247 -3.763597 -0.16574499 -2.8083997 -3.7193637 -0.15015912 -1.8446625 -3.1366892
0.48531878 -1.2188406 -2.6124752 0.3860803 -0.8641399 -1.5370048 0.4818696 -0.571543
-1.2810551 0.40874436 -2.5337718 -3.7532303 0.16798998 -2.3725204 -3.548375 -0.14014229
-0.8508868 -1.748243 0.56721765 -0.75085515 -1.4388181 0.41053692 -0.757366 -1.5976588
0.41608563 -1.0431979 -1.369628 0.48257065 -1.2368352 -2.1523693 0.18785252 -1.3893489
-2.2792192 0.27910104 -3.1965747 -4.344964 -0.9027782 -3.5624137 -4.446198 -0.7494927
-3.5069718 -4.338067 -1.0193483 -3.5910902 -4.3061295 -0.7876414 -1.2307519 -1.6430827
0.38085493 -1.1259884 -1.5763009 0.22910249 -1.1081771 -2.0111215 0.3912489 -1.483673
-1.7800813 0.298998 -0.922158 -1.743611 0.41734225 -1.0822852 -1.3932248 0.39210865
-0.8499015 -1.7270409 0.41889107 -1.0174732 -1.7568673 0.47240812 -1.0644441 -1.7383875
0.32011786 -1.0042913 -1.9404806 0.39179304 -1.230407 -2.2023535 0.42729148 -0.997696
-1.7028842 0.39427722 -1.6592157 -2.8183672 0.44552705 -2.2995744 -3.44843 0.3321814
-3.2850587 -4.4941254 -0.56846166 -3.3340342 -4.2749987 -0.650055 -0.9690646 -1.3857176
0.33468476 -0.97527117 -1.7413381 0.42419562 -1.727866 -2.9515555 0.40056506 -1.0295305
-2.2529993 0.58816105 -1.4361184 -2.2145433 0.2893415 -1.6109232 -1.8466955 0.25083107
-3.1624587 -4.434427 -0.4495662 -3.4639397 -4.199898 -0.55906665 -2.465914 -3.9202118
0.07993186 -2.7418845 -3.76631 -0.13899513 -2.817131 -3.9899583 -0.06475142 -3.0189128
00000000: 480a 62bf abaa a9bf 727b d23e 63be 4bbf
00000010: e15b c0bf 8a98 c53e 89d9 52c0 596d 88c0
00000020: e517 08bf 0491 36c0 f75d 81c0 6247 9cbe
00000030: 9323 41c0 9207 7ec0 aad5 18be ffda 33c0
00000040: d470 73c0 bb40 8cbe b9fc 58c0 35d0 90c0
00000050: 8954 19bf e7b3 5ac0 65bd 8cc0 f24f 39bf
00000060: cf6c 54c0 2cb1 8cc0 92d3 8fbe a632 5cc0
00000070: f824 85c0 386a 53bf fba8 47c0 ea9b 7cc0
00000080: c2f1 4ebf 32d8 5bc0 64dd 8ec0 ff76 23bf
00000090: 6e78 6cbf 3e51 c2bf 7fa9 d73e 37a1 43bf
000000a0: 6727 b1bf 2084 ca3e fe31 18c0 35d0 68c0
000000b0: f72b 6c3e 185e dbbf 902b 28c0 a250 163f
000000c0: defe 45c0 7b01 85c0 e65a b9be e6a7 52c0
000000d0: 5f05 82c0 b691 acbe b75e c2bf b410 22c0
000000e0: 3786 683e 3fe0 31c0 e046 5ac0 c800 7c3e
000000f0: 755f 28bf dd91 e5bf bdbe e23e 5e3d 43bf
00000100: 047b e7bf e4f3 d43e e98d 52c0 cf2c 94c0
00000110: 486a 21bf 3ce6 5cc0 1fea 91c0 d035 fdbe
00000120: fdb6 82bf f869 02c0 ae8f b23e a952 69bf
00000130: 885a adbf 98b5 e33e 18d9 60c0 12d4 89c0
00000140: 4d18 51bf 29d2 5cc0 a120 94c0 ff15 f6be
00000150: 9353 83bf 3029 06c0 492c ae3e ebb6 72bf
00000160: 87d6 adbf be49 b63e a7c9 d0bf 1373 7dc0
00000170: 99d8 2bbf a37e 75c0 c9a9 9bc0 75d1 cbbf
00000180: 4b52 38c0 f99e 80c0 590d babe 4430 4fc0
00000190: 7d97 7dc0 f690 babe 7d0a 56bf b044 05c0
000001a0: 01bf db3e 9b3e 68bf c14d fbbf 7502 c13e
000001b0: 13a9 6abf f1e0 e8bf a3c6 cd3e 7dde 62bf
000001c0: 5ccd d4bf 8d7c ff3e 00fb 76c0 2369 97c0
000001d0: 4911 7cbf c577 66c0 12fb 90c0 a8b5 55bf
000001e0: d2bc 2cc0 c6de 70c0 0eb9 29be d2bc 33c0
000001f0: 0e0a 6ec0 50c3 19be e71d ecbf 84bf 48c0
00000200: b47b f83e f802 9cbf cb32 27c0 51ac c53e
00000210: 4638 5dbf 93bc c4bf 9db7 f63e a450 12bf
00000220: 9df9 a3bf f146 d13e 5129 22c0 ed34 70c0
00000230: 9105 2c3e 60d7 17c0 9318 63c0 7681 0fbe
00000240: b8d3 59bf 6dc6 dfbf 2d35 113f 0b38 40bf
00000250: 312b b8bf e531 d23e bde2 41bf 1580 ccbf
00000260: 2d09 d53e 8287 85bf f84f afbf 8013 f73e
00000270: 9e50 9ebf 6bc0 09c0 695c 403e 2fd6 b1bf
00000280: bade 11c0 55e6 8e3e ae94 4cc0 f209 8bc0
00000290: 791c 67bf 96fe 63c0 4147 8ec0 c1de 3fbf
000002a0: 3a72 60c0 72d1 8ac0 017a 82bf 6cd4 65c0
000002b0: d0cb 89c0 dea2 49bf 4789 9dbf 8950 d2bf
000002c0: 6bff c23e 6320 90bf 3ac4 c9bf d899 6a3e
000002d0: bfd8 8dbf 37b6 00c0 c751 c83e ffe8 bdbf
000002e0: b4d9 e3bf 4416 993e 8c12 6cbf a52e dfbf
000002f0: e2ad d53e 5288 8abf 3155 b2bf 77c2 c83e
00000300: 2593 59bf ad0f ddbf e478 d63e 903c 82bf
00000310: 07e1 e0bf 7adf f13e b43f 88bf 7b83 debf
00000320: 7de6 a33e 9e8c 80bf ab61 f8bf 1999 c83e
00000330: fa7d 9dbf 5cf3 0cc0 f3c5 da3e 0169 7fbf
00000340: 1cf8 d9bf b4de c93e 2e61 d4bf 2160 34c0
00000350: 1f1c e43e 3a2c 13c0 14b3 5cc0 ae13 aa3e
00000360: 673e 52c0 e0cf 8fc0 b486 11bf d160 55c0
00000370: cacc 88c0 016a 26bf 9e14 78bf 325f b1bf
00000380: cd5b ab3e 5fab 79bf 2be4 debf 2b30 d93e
00000390: b72a ddbf 49e6 3cc0 dd16 cd3e a8c7 83bf
000003a0: 2431 10c0 b991 163f bad2 b7bf 14bb 0dc0
000003b0: 9224 943e bb32 cebf 8560 ecbf ee6c 803e
000003c0: b965 4ac0 d3e6 8dc0 8a2d e6be 30b1 5dc0
000003d0: 9065 86c0 fe1e 0fbf 89d1 1dc0 c0e4 7ac0
000003e0: 51b3 a33d 097b 2fc0 390b 71c0 bd54 0ebe
000003f0: e04b 34c0 7a5b 7fc0 649c 84bd de35 41c0

bayes_fc1.bias_mu f4 [64]
-0.012599322 0.01860027 -0.023063783 -0.036345534 -0.030085517 0.033756286 -0.031039804 0.08015129
-0.028310055 0.10440382 0.011634964 -0.06541462 0.0033425107 0.029352985 -0.026042316 0.9632456
0.062100638 0.019372653 0.007579359 0.020848703 -0.06754809 0.029934062 -0.02570689 -0.020196423
-0.041537013 -0.042600885 -0.017552286 0.045312393 0.037005693 -0.019283248 -0.0049629677 -0.013725002
-0.010737706 0.029679794 -0.017638631 0.06820426 -0.039221883 0.0011010607 0.044383395 -0.023270767
-0.045406267 -0.0598295 -0.0015740435 -0.016616963 -0.00035883707 -0.017859926 -0.0033260197 0.004298675
-0.048017554 -0.034744456 -0.009717898 0.014059769 0.0075044483 0.016230697 -0.029216671 0.05266634
0.028960107 0.041529004 0.1043344 0.17169645 -0.010734763 0.0498749 -0.024900448 -0.028645048
00000000: 636d 4ebc 985f 983c 42f0 bcbc 0edf 14bd
00000010: e775 f6bc 0844 0a3d 3047 febc 5c26 a43d
00000020: 7dea e7bc acd1 d53d 93a0 3e3c 1af8 85bd
00000030: 060e 5b3b ac75 f03c b256 d5bc 4397 763f
00000040: 3d5d 7e3d 66b3 9e3c 465c f83b e6ca aa3c
00000050: a756 8abd 4738 f53c 4197 d2bc f872 a5bc
00000060: b722 2abd 447e 2ebd d0c9 8fbc 7d99 393d
00000070: 4893 173d e7f7 9dbc 64a0 a2bb d5de 60bc
00000080: 34ed 2fbc 0a23 f33c e47e 90bc adae 8b3d
00000090: 20a7 20bd 7751 903a 5dcb 353d 56a2 bebc
000000a0: ecfb 39bd c70f 75bd 2350 ceba 4c20 88bc
000000b0: 4c22 bcb9 fb4e 92bc 5af9 59bb e6db 8c3b
000000c0: 0eae 44bd 3450 0ebd d237 1fbc f25a 663c
000000d0: e0e7 f53b 3df6 843c cd57 efbc a9b8 573d
000000e0: bf3d ed3c 511a 2a3d 46ad d53d 32d1 2f3e
000000f0: dce0 2fbc a049 4c3d 06fc cbbc 05a9 eabc

bayes_fc1.bias_rho f4 [64]
-0.3606719 -1.45351 -1.4363139 -1.7192483 -1.7136106 -1.8042428 -0.3994118 -0.7575772
-1.5328387 -0.72041655 -0.33664444 -1.6946644 -0.43773535 -1.6875423 -0.4601279 -1.2941447
-1.547566 -0.3984073 -0.41190132 -1.9964113 -1.3403325 -0.55344534 -0.29430366 -1.14023
-0.3133278 -0.32576898 -0.6972888 -1.9043684 -1.9618626 -0.46111557 -0.5165311 -0.33120233
-0.38257858 -0.5271475 -0.45505512 -0.5847197 -1.8019041 -0.34709838 -0.51601994 -0.7298074
-1.6188614 -1.2364869 -1.3812896 -0.40891758 -0.37915725 -0.45208898 -0.6004012 -0.99727863
-0.48671576 -0.447019 -0.48522243 -0.5418752 -0.41111672 -2.1176887 -0.4547046 -1.8733802
-1.7915754 -1.875984 -1.1680351 -0.7625423 -0.41580406 -1.7477129 -1.758779 -0.54949504
00000000: fda9 b8be 9e0c babf 22d9 b7bf 5410 dcbf
00000010: 9857 dbbf 6ef1 e6bf b47f ccbe 94f0 41bf
00000020: 0f34 c4bf 386d 38bf a95c acbe c3ea d8bf
00000030: d91e e0be 6301 d8bf e295 ebbe 89a6 a5bf
00000040: a516 c6bf 0bfc cbbe bbe4 d2be 688a ffbf
00000050: 0490 abbf 98ae 0dbf f8ae 96be 0ef3 91bf
00000060: 806c a0be 31cb a6be 8581 32bf 58c2 f3bf
00000070: 501e fbbf 5717 ecbe 623b 04bf 5a93 a9be
00000080: 57e1 c3be 23f3 06bf fcfc e8be 31b0 15bf
00000090: cba4 e6bf e1b6 b1be e219 04bf a8d4 3abf
000000a0: da36 cfbf 3445 9ebf 19ce b0bf a55d d1be
000000b0: e620 c2be 3578 e7be e5b3 19bf a74d 7fbf
000000c0: cf32 f9be addf e4be 136f f8be 55b8 0abf
000000d0: e47d d2be 3688 07c0 0bcf e8be ecca efbf
000000e0: 5852 e5bf 3e20 f0bf 2d82 95bf f935 43bf
000000f0: 45e4 d4be 0eb5 dfbf ac1f e1bf b5ab 0cbf

bayes_fc1.prior_mu_old_bias f4 [64]
-0.012599322 0.01860027 -0.023063783 -0.036345534 -0.030085517 0.033756286 -0.031039804 0.08015129
-0.028310055 0.10440382 0.011634964 -0.06541462 0.0033425107 0.029352985 -0.026042316 0.9632456
0.062100638 0.019372653 0.007579359 0.020848703 -0.06754809 0.029934062 -0.02570689 -0.020196423
-0.041537013 -0.042600885 -0.017552286 0.045312393 0.037005693 -0.019283248 -0.0049629677 -0.013725002
-0.010737706 0.029679794 -0.017638631 0.06820426 -0.039221883 0.0011010607 0.044383395 -0.023270767
-0.045406267 -0.0598295 -0.0015740435 -0.016616963 -0.00035883707 -0.017859926 -0.0033260197 0.004298675
-0.048017554 -0.034744456 -0.009717898 0.014059769 0.0075044483 0.016230697 -0.029216671 0.05266634
0.028960107 0.041529004 0.1043344 0.17169645 -0.010734763 0.0498749 -0.024900448 -0.028645048
00000000: 636d 4ebc 985f 983c 42f0 bcbc 0edf 14bd
00000010: e775 f6bc 0844 0a3d 3047 febc 5c26 a43d
00000020: 7dea e7bc acd1 d53d 93a0 3e3c 1af8 85bd
00000030: 060e 5b3b ac75 f03c b256 d5bc 4397 763f
00000040: 3d5d 7e3d 66b3 9e3c 465c f83b e6ca aa3c
00000050: a756 8abd 4738 f53c 4197 d2bc f872 a5bc
00000060: b722 2abd 447e 2ebd d0c9 8fbc 7d99 393d
00000070: 4893 173d e7f7 9dbc 64a0 a2bb d5de 60bc
00000080: 34ed 2fbc 0a23 f33c e47e 90bc adae 8b3d
00000090: 20a7 20bd 7751 903a 5dcb 353d 56a2 bebc
000000a0: ecfb 39bd c70f 75bd 2350 ceba 4c20 88bc
000000b0: 4c22 bcb9 fb4e 92bc 5af9 59bb e6db 8c3b
000000c0: 0eae 44bd 3450 0ebd d237 1fbc f25a 663c
000000d0: e0e7 f53b 3df6 843c cd57 efbc a9b8 573d
000000e0: bf3d ed3c 511a 2a3d 46ad d53d 32d1 2f3e
000000f0: dce0 2fbc a049 4c3d 06fc cbbc 05a9 eabc

bayes_fc1.prior_sigma_small_bias f4 [64]
0.52898437 0.21005699 0.21333781 0.16483691 0.16569571 0.15237685 0.51325136 0.38444632
0.19550252 0.3964577 0.53892475 0.16861206 0.49804223 0.16972047 0.48931774 0.24226534
0.19290304 0.5136547 0.5082561 0.12735647 0.23250648 0.45423332 0.5567834 0.2774389
0.5487052 0.54347014 0.40408647 0.13881947 0.13155119 0.48893568 0.46786788 0.5411957
0.5200432 0.4639141 0.4912837 0.44292915 0.15270774 0.5345827 0.4680589 0.39339375
0.18075712 0.2549543 0.2241465 0.5094461 0.521432 0.49243608 0.4373458 0.31399432
0.4791131 0.49441066 0.47968182 0.45847273 0.5085688 0.11360488 0.49141976 0.14289059
0.15417697 0.14254428 0.27077293 0.38286427 0.50670284 0.1605631 0.15892929 0.45567727
00000000: 856b 073f 2e19 573e 3a75 5a3e 02cb 283e
00000010: 23ac 293e ad08 1c3e 7164 033f 26d6 c43e
00000020: d031 483e 81fc ca3e f9f6 093f a4a8 2c3e
00000030: 64ff fe3e 34cb 2d3e db87 fa3e 6814 783e
00000040: 6088 453e e07e 033f 121d 023f bc69 023e
00000050: 2e16 6e3e 4591 e83e 5b89 0e3f 790c 8e3e
00000060: f277 0c3f dc20 0b3f 6ce4 ce3e b126 0e3e
00000070: 5bb5 063e c755 fa3e 618c ef3e cd8b 0a3f
00000080: 8d21 053f 2686 ed3e 8a89 fb3e 9cc7 e23e
00000090: 6b5f 1c3e 69da 083f 6ba5 ef3e e86a c93e
000000a0: 6518 393e 5f89 823e a986 653e 0f6b 023f
000000b0: 917c 053f 9520 fc3e caeb df3e ddc3 a03e
000000c0: 504e f53e 6523 fd3e db98 f53e f0bc ea3e
000000d0: 9131 023f ada9 e83d 5f9b fb3e e951 123e
000000e0: 91e0 1d3e 21f7 113e c0a2 8a3e c906 c43e
000000f0: 47b7 013f a76a 243e 5cbe 223e 884e e93e

bayes_fc1.prior_mu_old f4 [64, 6]
-0.4726699 -0.6357939 -0.3082032 -0.57874703 -0.447805 -0.24922322 0.5074544 -0.120040506
1.265934 -0.44531137 0.10690874 -0.96036875 -0.37742582 0.21214654 -0.73294973 0.32566294
-0.16759333 0.81938 -0.37094954 0.20069732 -1.2482162 0.40985456 -0.13462153 -0.05955102
-0.3759777 0.20313545 -1.1245593 0.3692009 -0.16385461 0.47433287 0.19848584 -0.14870584
1.6614951 -0.32532734 0.18441786 0.51096195 -0.54805154 -0.44975525 -0.19148193 -0.43298542
-0.5113858 -0.17516465 -0.45677674 0.2578611 -0.082150675 -0.25343323 -0.35014778 1.3739375
-0.2890643 0.13106562 -1.1427068 0.49666566 -0.14397 0.11817776 -0.6096619 -0.2814535
0.059619486 -0.15545282 0.11767323 1.1726112 -0.4001224 -0.38206518 -0.1466828 -0.49949718
-0.190806 -0.1790608 -0.2139064 0.089409985 -1.5531185 0.5031558 -0.08031496 -0.20324849
-0.5068562 -0.1954433 -0.18064323 -0.450112 -0.5311072 -0.2039032 0.43835953 -0.13369295
1.1794211 -0.37350702 0.17488864 -0.14436215 -0.3279572 -0.24895673 -0.31330687 -0.50169426
-0.4789252 -0.114797 -1.0173688 -0.20526317 -1.2017827 -0.06449891 0.04376551 0.7646599
0.2722876 -0.16455942 1.8975649 -0.36766595 0.19168697 0.2513793 -0.42343277 -0.18122895
-0.16835183 -0.4710155 -0.34442484 -0.21856265 -0.4575947 -0.4095663 -0.12816486 -0.4566688
-0.4351493 -0.2157355 0.31718627 -0.10536419 1.3467121 -0.35952234 0.2042884 -0.2866002
-0.2223322 0.08857813 -0.9579471 0.3350159 -0.1131235 0.2091743 -0.38211063 0.06672131
-0.18048865 -0.47599968 -0.2426015 0.14263257 -0.35751572 -0.37964222 -0.07437167 -0.61138034
-0.60676724 -0.19418254 -0.35138944 0.15230122 -0.6081835 0.3131071 -0.16589962 0.558461
-0.38310888 -0.41366133 -0.1398605 -0.5969297 -0.46757403 -0.23320426 -0.3706638 -0.46347198
-0.09987645 -0.3162375 -0.45303664 -0.13709898 -0.4373185 -0.28808343 -0.29476056 -0.30907992
-0.21762805 -0.19787623 0.21303731 -0.122399785 1.4398631 -0.35303396 0.18770269 0.2759683
0.31692532 -0.14130737 1.3149885 -0.27044183 0.1463537 0.30776405 -0.37507534 -0.39549807
-0.27460104 -0.4093952 -0.43750316 -0.2439501 -0.43840224 -0.2778642 -0.31471854 -0.18995944
-0.3348105 -0.34401456 -0.41713032 -0.3458201 -0.19728011 -0.3463131 -0.51512814 -0.2252884
-0.3202788 -0.31767088 -0.26457822 -0.36155707 -0.28903374 -0.17123851 -0.49545252 -0.3222571
-0.27464643 -0.45354134 -0.34046063 -0.15452172 -0.3417386 -0.1733205 -0.21132044 -0.40513498
-0.4110097 -0.14579621 -0.34022853 -0.24536537 0.59607255 -0.4341689 0.14028375 0.7623953
-0.43707713 0.2568482 -1.2394437 0.31169426 -0.1222521 0.31999454 -0.63285244 -0.48534396
-0.30080888 -0.55661213 -0.4054178 -0.32111353 -0.38403913 0.15993151 -0.018126756 -0.27306747
-0.38641018 0.45609742 -0.29637384 -0.17714283 -0.18785667 -0.24312659 -0.34365585 -0.043823734
-0.34370837 0.18493901 -1.0630249 0.34664455 -0.121636234 0.3106682 -0.34089333 0.1339563
-0.9366367 0.38719743 -0.11703207 0.4309286 -0.26370755 0.097471155 -1.1219953 0.49409935
00000000: ca01 f2be 64c3 22bf cfcc 9dbe c428 14bf
00000010: b246 e5be 5f34 7fbe 88e8 013f ccd7 f5bd
00000020: 200a a23f daff e3be f8f2 da3d bada 75bf
00000030: f53d c1be f13c 593e 98a2 3bbf 4bbd a63e
00000040: 969d 2bbe e3c2 513f 19ed bdbe 9983 4d3e
00000050: 8cc5 9fbf 75d8 d13e 3ada 09be c5eb 73bd
00000060: 2680 c0be bd02 503e 8ff1 8fbf e607 bd3e
00000070: 81c9 27be c2db f23e df3f 4b3e 5846 18be
00000080: dfab d43f 4e91 a6be 09d8 3c3e 67ce 023f
00000090: 1b4d 0cbf 5246 e6be d713 44be 44b0 ddbe
000000a0: 2eea 02bf 5d5e 33be a4de e9be 5f06 843e
000000b0: 9d3e a8bd 00c2 81be 9246 b3be 2fdd af3f
000000c0: 3c00 94be 1136 063e 3744 92bf f64a fe3e
000000d0: df6c 13be 2e07 f23d cd12 1cbf ac1a 90be
000000e0: 9033 743d 062f 1fbe aafe f03d 2018 963f
000000f0: d8dc ccbe 0c9e c3be 0434 16be 18be ffbe
00000100: a662 43be b75b 37be 480a 5bbe 951c b73d
00000110: 96cc c6bf d2ce 003f 2b7c a4bd 5f20 50be
00000120: 54c1 01bf 4a22 48be 8afa 38be 1475 e6be
00000130: a4f6 07bf 00cc 50be a970 e03e cee6 08be
00000140: 45f7 963f 503c bfbe 0216 333e acd3 13be
00000150: 02ea a7be 83ee 7ebe c269 a0be 096f 00bf
00000160: af35 f5be b11a ebbd 2439 82bf 8230 52be
00000170: 04d4 99bf 0118 84bd 7743 333d c0c0 433f
00000180: 4869 8b3e 4482 28be 68e3 f23f b63e bcbe
00000190: 9749 443e cab4 803e 2ecc d8be 1594 39be
000001a0: 6c64 2cbe f228 f1be 7458 b0be e3ce 5fbe
000001b0: da49 eabe adb2 d1be a63d 03be 7ed0 e9be
000001c0: e4cb debe c4e9 5cbe 3d66 a23e 2ec9 d7bd
000001d0: 1061 ac3f 5013 b8be fa30 513e 43bd 92be
000001e0: 0dab 63be 7368 b53d 053c 75bf 3487 ab3e
000001f0: 4bad e7bd ca31 563e 01a4 c3be 2fa5 883d
00000200: 04d2 38be 3bb6 f3be 876c 78be 460e 123e
00000210: 4d0c b7be 7760 c2be 2d50 98bd 6c83 1cbf
00000220: 1955 1bbf cad7 46be 51e9 b3be daf4 1b3e
00000230: eab1 1bbf 934f a03e 97e1 29be 4df7 0e3f
00000240: d926 c4be 6bcb d3be 9737 0fbe 63d0 18bf
00000250: dd65 efbe 19cd 6ebe a5c7 bdbe 334c edbe
00000260: 068c ccbd e2e9 a1be 6bf4 e7be ad63 0cbe
00000270: 36e8 dfbe ac7f 93be dbea 96be b93f 9ebe
00000280: e3d9 5ebe 11a0 4abe 7426 5a3e bdac fabd
00000290: 6f4d b83f dec0 b4be 2235 403e b84b 8d3e
000002a0: 0944 a23e e1b2 10be 8b51 a83f 5a77 8abe
000002b0: bfdd 153e 4093 9d3e e009 c0be b97e cabe
000002c0: 8298 8cbe 3f9c d1be 6a00 e0be 0ece 79be
000002d0: 4276 e0be 3744 8ebe ca22 a1be ba84 42be
000002e0: 486c abbe ad22 b0be 1b92 d5be 550f b1be
000002f0: cc03 4abe f34f b1be 70df 03bf 01b2 66be
00000300: 95fb a3be c2a5 a2be cc76 87be 021e b9be
00000310: 3bfc 93be 2659 2fbe f4ab fdbe e2fe a4be
00000320: 759e 8cbe 9236 e8be db50 aebe f13a 1ebe
00000330: 5df8 aebe ee7a 31be 6364 58be da6d cfbe
00000340: dd6f d2be 9a4b 15be 6f32 aebe 0f41 7bbe
00000350: 3698 183f 634b debe 8ba6 0f3e 572c 433f
00000360: 93c8 dfbe 9b81 833e 17a6 9ebf 6496 9f3e
00000370: 4f5f fabd 53d6 a33e 9e02 22bf 017f f8be
00000380: 9f03 9abe 227e 0ebf ec92 cfbe fe68 a4be
00000390: c7a0 c4be 16c5 233e 907e 94bc 80cf 8bbe
000003a0: 8ed7 c5be 9a85 e93e 50be 97be ee64 35be
000003b0: 805d 40be 2df6 78be a9f3 afbe 8480 33bd
000003c0: 8bfa afbe a760 3d3e 3311 88bf 657b b13e
000003d0: 6b1c f9bd e70f 9f3e 9289 aebe d72b 093e
000003e0: 6cc7 6fbf be3e c63e 83ae efbd aca2 dc3e
000003f0: ad04 87be f59e c73d 8b9d 8fbf 97fa fc3e

bayes_fc1.prior_sigma_small f4 [64, 6]
0.34610647 0.23559731 0.91967434 0.37238172 0.20090236 0.90461516 0.036414444 0.013976964
0.4622583 0.056091122 0.01739745 0.552132 0.047750466 0.01871214 0.62130284 0.058448568
0.02204206 0.5655321 0.03313914 0.010771983 0.4378615 0.032276623 0.012225414 0.3953267
0.03554463 0.012243557 0.5625233 0.03154298 0.015475295 0.36316094 0.043223187 0.019128123
0.36851126 0.031714864 0.011444421 0.4240027 0.33435732 0.19813494 0.92577046 0.38234404
0.22359985 0.91034704 0.08868017 0.025972363 0.8150999 0.16566543 0.06975683 1.0292217
0.044337194 0.0155419605 0.52843016 0.03652294 0.017048517 0.53875613 0.19806105 0.076478004
0.81311595 0.06023039 0.032488663 0.823747 0.41741875 0.15390024 0.93889594 0.38282838
0.15178448 0.9225787 0.03657987 0.009702951 0.42677683 0.031204432 0.010409479 0.47613764
0.3076017 0.1225059 0.8826505 0.337867 0.22961965 0.9400432 0.02936451 0.013382117
0.3659294 0.031242097 0.009717318 0.48143157 0.30633858 0.1159278 0.8776342 0.32748565
0.22884445 0.8869247 0.17873481 0.018880911 0.41280955 0.02135328 0.0076862574 0.18519334
0.054614585 0.017804196 0.5278715 0.038517542 0.018839385 0.5274598 0.36004823 0.11746391
0.9305941 0.33907652 0.13137285 0.8992924 0.33637178 0.15025343 0.91415685 0.34516022
0.17366838 0.97345287 0.020868339 0.008773897 0.31741622 0.026928911 0.010716067 0.3604398
0.065105006 0.022935107 0.6137047 0.058553223 0.023960045 0.62088346 0.1467623 0.04250985
0.96496385 0.25895283 0.07078717 0.904705 0.35165203 0.19476397 0.96283025 0.4476644
0.24509609 0.91825956 0.07636747 0.023171356 0.7806656 0.08915071 0.028365234 0.62552905
0.3555996 0.16048446 1.0164452 0.38659674 0.21285719 0.9193369 0.38451374 0.18429442
0.92267656 0.3018262 0.22649914 0.9632637 0.25487593 0.109937675 0.79147804 0.22253339
0.097457066 0.8424034 0.04008771 0.012888559 0.34035164 0.027975282 0.011654871 0.3870338
0.029546749 0.012977183 0.30809483 0.027195096 0.013395524 0.37494853 0.25624782 0.17679211
0.90159744 0.280908 0.18792121 0.81424516 0.28529942 0.12560877 0.9077853 0.20441169
0.15582737 0.8537798 0.33479938 0.16117261 0.9234339 0.2917889 0.2217613 0.90829825
0.35589457 0.1636566 0.9243679 0.30859235 0.15921044 0.9569918 0.2963342 0.16195188
0.86596125 0.31210938 0.1342117 0.9081099 0.25632578 0.10484881 0.9294436 0.31388184
0.16734105 0.909593 0.17419544 0.057989005 0.9405199 0.09558426 0.0313005 0.87296796
0.036754582 0.011112477 0.44877747 0.035028283 0.013816183 0.42003646 0.32167602 0.22325891
0.8744264 0.31997263 0.16151126 0.92757106 0.16353208 0.050938666 0.91335356 0.30540505
0.099920966 1.0298601 0.21337536 0.10364207 0.8482464 0.18207417 0.14648505 0.8264067
0.041450493 0.011792063 0.4934179 0.030826136 0.014885765 0.45218486 0.08151656 0.019642705
0.7339115 0.06245709 0.022873674 0.62606263 0.058058694 0.018331435 0.6612955 0.047698427
00000000: de34 b13e 6c40 713e c76f 6b3f d1a8 be3e
00000010: 59b9 4d3e dc94 673f 5027 153d a3ff 643c
00000020: 1fad ec3e cebf 653d 1985 8e3c 8658 0d3f
00000030: fe95 433d 344a 993c b40d 1f3f c467 6f3d
00000040: 8d91 b43c b6c6 103f e8bc 073d f97c 303c
00000050: 622f e03e 7e34 043d 1a4d 483c 4368 ca3e
00000060: 3f97 113d 3399 483c 8701 103f 3633 013d
00000070: 178c 7d3c 3bf0 b93e cc0a 313d 95b2 9c3c
00000080: 82ad bc3e 72e7 013d 6181 3b3c e216 d93e
00000090: e230 ab3e e3e3 4a3e 4bff 6c3f 99c2 c33e
000000a0: 5cf7 643e 810c 693f f39d b53d fec3 d43c
000000b0: 63aa 503f 33a4 293e abdc 8e3d 89bd 833f
000000c0: eb9a 353d b5a3 7e3c 3347 073f 1499 153d
000000d0: 55a9 8b3c eceb 093f 84d0 4a3e 80a0 9c3d
000000e0: 5e28 503f 24b4 763d d512 053d 15e1 523f
000000f0: e9b7 d53e 0698 1d3e 7c5b 703f 1502 c43e
00000100: 646d 1b3e 1e2e 6c3f c6d4 153d 20f9 1e3c
00000110: 7e82 da3e 70a0 ff3c 858c 2a3c 50c8 f33e
00000120: f87d 9d3e 60e4 fa3d 62f5 613f e7fc ac3e
00000130: 6a21 6b3e aca6 703f d78d f03c ab40 5b3c
00000140: 195b bb3e 6def ff3c 6335 1f3c 337e f63e
00000150: 69d8 9c3e 8e6b ed3d a3ac 603f 33ac a73e
00000160: 3356 6a3e 7f0d 633f 4206 373e 24ac 9a3c
00000170: c65b d33e 13ed ae3c 00dd fb3b 53a3 3d3e
00000180: 8bb3 5f3d 1bda 913c 9622 073f 92c4 1d3d
00000190: 0e55 9a3c 9b07 073f 3e58 b83e eb90 f03d
000001a0: 6a3b 6e3f 709b ad3e 9b86 063e 0738 663f
000001b0: ec38 ac3e 09dc 193e 2f06 6a3f d7b8 b03e
000001c0: 20d6 313e 3534 793f 14f4 aa3c 64c0 0f3c
000001d0: 6184 a23e 059a dc3c 7192 2f3c 918b b83e
000001e0: c655 853d 68e2 bb3c c01b 1d3f 81d5 6f3d
000001f0: db47 c43c 38f2 1e3f db48 163e cf1e 2e3d
00000200: df07 773f 7795 843e ddf8 903d bf9a 673f
00000210: bc0b b43e 3570 473e 0b7c 763f 4534 e53e
00000220: 78fa 7a3e 0f13 6b3f 8c66 9c3d dbd1 bd3c
00000230: b3d9 473f a694 b63d 355e e83c ac22 203f
00000240: 2711 b63e 0a56 243e e01a 823f 02f0 c53e
00000250: 3cf7 593e aa59 6b3f fcde c43e adb7 3c3e
00000260: 8834 6c3f f788 9a3e 64ef 673e 7398 763f
00000270: 197f 823e 0127 e13d 4e9e 4a3f cbdf 633e
00000280: 9297 c73d c0a7 573f 0333 243d 892a 533c
00000290: 9242 ae3e 6b2c e53c 12f4 3e3c 4b29 c63e
000002a0: 060c f23c 409e 543c 9bbe 9d3e 40c8 de3c
000002b0: e678 5b3c 41f9 bf3e ea32 833e fe08 353e
000002c0: 17cf 663f 2cd3 8f3e 6b6e 403e 5f72 503f
000002d0: c412 923e 969f 003e 9e64 683f 4c51 513e
000002e0: 3691 1f3e 5091 5a3f d36a ab3e 6f0a 253e
000002f0: 2a66 6c3f 5b65 953e 6515 633e 3c86 683f
00000300: d037 b63e 9995 273e 60a3 6c3f d1ff 9d3e
00000310: 1008 233e 6afd 743f 1eb9 973e b7d6 253e
00000320: a3af 5d3f cdcc 9f3e cb6e 093e e479 683f
00000330: 223d 833e f9ba d63d 04f0 6d3f 1fb5 a03e
00000340: 745b 2b3e 16db 683f 4a60 323e e185 6d3d
00000350: eac5 703f aec1 c33d f434 003d d47a 5f3f
00000360: f98b 163d 1b11 363c 29c6 e53e d179 0f3d
00000370: 465d 623c 050f d73e b8b2 a43e fc9d 643e
00000380: 69da 5f3f 74d3 a33e 3563 253e 4c75 6d3f
00000390: f474 273e 10a5 503d 8ad1 693f 0d5e 9c3e
000003a0: 5da3 cc3d 75d2 833f 127f 5a3e 4b42 d43d
000003b0: ad26 593f a771 3a3e 2d00 163e 648f 533f
000003c0: fec7 293d 7f33 413c 45a1 fc3e 1887 fc3c
000003d0: 6ce3 733c c684 e73e 27f2 a63d bde9 a03c
000003e0: a0e1 3b3f 01d3 7f3d 9261 bb3c a445 203f
000003f0: f4ce 6d3d ce2b 963c a94a 293f 6d5f 433d

bayes_fc2.weight_mu f4 [1, 64]
-0.052800205 0.054047655 -0.048463218 -0.054366443 -0.058676038 0.06232893 -0.0026588172 -0.058004018
-0.050664973 0.09551914 -0.0007868904 -0.07989724 -0.025295455 0.06326088 0.040427838 0.39537108
0.056497164 -0.0149734495 0.058825135 0.082132764 -0.084114045 -0.11865832 -0.014826584 -0.033288695
-0.029642882 -0.0072144293 8.131803e-05 0.06180359 0.086650446 0.0069329306 0.040208522 0.034263283
0.03351057 0.06595093 -0.062238038 0.08059556 -0.06872214 0.019707652 -0.030106781 0.16513959
-0.05852589 -0.0555351 -0.050892927 -0.02077457 0.005091429 0.038297214 -0.028018635 -0.03392015
0.07760471 -0.004472977 0.050571594 -0.027317263 -0.034352712 0.076367855 0.12373497 0.06991271
0.07472431 0.061343916 0.14096627 0.08835389 0.023347447 0.078620605 -0.07983242 0.018202154
00000000: 0745 58bd 1361 5d3d 5e81 46bd 59af 5ebd
00000010: 4956 70bd 9f4c 7f3d 8d3f 2ebb 9f95 6dbd
00000020: 1386 4fbd 8a9f c33d 5247 4eba 2aa1 a3bd
00000030: 6a38 cfbc ec8e 813d a997 253d 146e ca3e
00000040: 9269 673d 3353 75bc a0f2 703d 3935 a83d
00000050: fc43 acbd 2203 f3bd 33eb 72bc ba59 08bd
00000060: a1d5 f2bc 0567 ecbb 4989 aa38 c325 7d3d
00000070: ca75 b13d a32d e33b b1b1 243d a857 0c3d
00000080: 6142 093d 4811 873d 50ed 7ebd 490f a53d
00000090: 31be 8cbd f171 a13c 7fa2 f6bc 5a1a 293e
000000a0: d8b8 6fbd c678 63bd 1a75 50bd 6e2f aabc
000000b0: 01d6 a63b 8add 1c3d 5687 e5bc dbef 0abd
000000c0: 38ef 9e3d 0d92 92bb 2924 4f3d 74c8 dfbc
000000d0: 6eb5 0cbd c066 9c3d c368 fd3d 652e 8f3d
000000e0: 0f09 993d c243 7b3d 7659 103e e2f2 b43d
000000f0: 2543 bf3c d703 a13d 2e7f a3bd af1c 953c

bayes_fc2.weight_rho f4 [1, 64]
-1.4001976 -5.1014395 -4.885902 -5.1863894 -4.833323 -4.847353 -1.3957338 -4.4286647
-4.967156 -3.6623592 -3.0792627 -4.967332 -1.812489 -5.194375 -1.8123273 -3.652745
-5.0921974 -2.538828 -1.7449664 -5.2161613 -4.341461 -2.7453032 -2.1851761 -4.8309913
-2.3543403 -2.2008657 -0.78558725 -4.956574 -4.8212695 -1.034329 -1.4071612 -1.7813731
-2.4546168 -1.3258413 -2.5252476 -3.9379888 -5.1594915 -0.61228096 -4.1555023 -0.89260966
-4.7876287 -4.6655107 -4.904827 -2.365799 -2.328872 -1.6123466 -1.5578911 -4.6379223
-1.4722613 -2.7987666 -2.4014738 -3.4529836 -2.0557814 -5.1614785 -1.0019988 -4.987396
-5.0155253 -4.9298916 -3.9467444 -4.1321673 -1.3751527 -4.807417 -5.021974 -2.5470138
00000000: ad39 b3bf fe3e a3c0 4f59 9cc0 e7f6 a5c0
00000010: 95aa 9ac0 841d 9bc0 68a7 b2bf 9fb7 8dc0
00000020: f1f2 9ec0 1864 6ac0 a412 45c0 62f4 9ec0
00000030: a4ff e7bf 5238 a6c0 57fa e7bf 93c6 69c0
00000040: 48f3 a2c0 287c 22c0 0f5b dfbf cbea a6c0
00000050: 40ed 8ac0 0cb3 2fc0 edd9 0bc0 7b97 9ac0
00000060: 83ad 16c0 fcda 0cc0 3f1c 49bf 419c 9ec0
00000070: d747 9ac0 e564 84bf dc1d b4bf 0904 e4bf
00000080: 7118 1dc0 2bb5 a9bf a89d 21c0 0208 7cc0
00000090: 8e1a a5c0 72be 1cbf e0f9 84c0 1182 64bf
000000a0: 4134 99c0 dd4b 95c0 58f4 9cc0 4069 17c0
000000b0: 3d0c 15c0 6061 cebf fa68 c7bf dc69 94c0
000000c0: 0f73 bcbf fe1e 33c0 bfb1 19c0 affd 5cc0
000000d0: ec91 03c0 d52a a5c0 7f41 80bf bf98 9fc0
000000e0: 2f7f a0c0 acc1 9dc0 7697 7cc0 b73a 84c0
000000f0: 0105 b0bf 5cd6 99c0 03b4 a0c0 4602 23c0

bayes_fc2.prior_mu_old f4 [1, 64]
-0.052800205 0.054047655 -0.048463218 -0.054366443 -0.058676038 0.06232893 -0.0026588172 -0.058004018
-0.050664973 0.09551914 -0.0007868904 -0.07989724 -0.025295455 0.06326088 0.040427838 0.39537108
0.056497164 -0.0149734495 0.058825135 0.082132764 -0.084114045 -0.11865832 -0.014826584 -0.033288695
-0.029642882 -0.0072144293 8.131803e-05 0.06180359 0.086650446 0.0069329306 0.040208522 0.034263283
0.03351057 0.06595093 -0.062238038 0.08059556 -0.06872214 0.019707652 -0.030106781 0.16513959
-0.05852589 -0.0555351 -0.050892927 -0.02077457 0.005091429 0.038297214 -0.028018635 -0.03392015
0.07760471 -0.004472977 0.050571594 -0.027317263 -0.034352712 0.076367855 0.12373497 0.06991271
0.07472431 0.061343916 0.14096627 0.08835389 0.023347447 0.078620605 -0.07983242 0.018202154
00000000: 0745 58bd 1361 5d3d 5e81 46bd 59af 5ebd
00000010: 4956 70bd 9f4c 7f3d 8d3f 2ebb 9f95 6dbd
00000020: 1386 4fbd 8a9f c33d 5247 4eba 2aa1 a3bd
00000030: 6a38 cfbc ec8e 813d a997 253d 146e ca3e
00000040: 9269 673d 3353 75bc a0f2 703d 3935 a83d
00000050: fc43 acbd 2203 f3bd 33eb 72bc ba59 08bd
00000060: a1d5 f2bc 0567 ecbb 4989 aa38 c325 7d3d
00000070: ca75 b13d a32d e33b b1b1 243d a857 0c3d
00000080: 6142 093d 4811 873d 50ed 7ebd 490f a53d
00000090: 31be 8cbd f171 a13c 7fa2 f6bc 5a1a 293e
000000a0: d8b8 6fbd c678 63bd 1a75 50bd 6e2f aabc
000000b0: 01d6 a63b 8add 1c3d 5687 e5bc dbef 0abd
000000c0: 38ef 9e3d 0d92 92bb 2924 4f3d 74c8 dfbc
000000d0: 6eb5 0cbd c066 9c3d c368 fd3d 652e 8f3d
000000e0: 0f09 993d c243 7b3d 7659 103e e2f2 b43d
000000f0: 2543 bf3c d703 a13d 2e7f a3bd af1c 953c

bayes_fc2.prior_sigma_small f4 [1, 64]
0.22037832 0.0060695196 0.007523933 0.005576583 0.007928512 0.007818483 0.22126277 0.011859803
0.0069387937 0.025347887 0.04496682 0.006937577 0.1512155 0.0055323504 0.15123819 0.025589654
0.0061257025 0.075996585 0.16097097 0.0054134475 0.012933494 0.062250428 0.10657191 0.007946948
0.0907143 0.104997 0.37559125 0.0070123514 0.0080242725 0.3041444 0.21900487 0.15564106
0.08240555 0.23553006 0.076996684 0.019299923 0.0057281824 0.4331535 0.015556285 0.34329566
0.008297672 0.0093704 0.0073833996 0.08972577 0.09294881 0.18183735 0.19109933 0.009631255
0.20653124 0.05910357 0.08671366 0.03116049 0.12043977 0.0057168445 0.31272453 0.006800237
0.006612237 0.007201295 0.019133275 0.01592065 0.22538185 0.008135749 0.0065698726 0.07539981
00000000: dbaa 613e d2e2 c63b 538b f63b c5bb b63b
00000010: 97e6 013c 1819 003c b592 623e 9f4f 423c
00000020: d25e e33b 5fa6 cf3c 212f 383d 9d54 e33b
00000030: 3cd8 1a3e b848 b53b 2fde 1a3e 65a1 d13c
00000040: 1eba c83b 19a4 9b3d 93d5 243e 4a63 b13b
00000050: 01e7 533c 4efa 7e3d 6042 da3d ea33 023c
00000060: 6bc8 b93d ab08 d73d 7f4d c03e dec7 e53b
00000070: 3d78 033c d1b8 9b3e d042 603e 5f60 1f3e
00000080: 3ec4 a83d cb2e 713e 70b0 9d3d df1a 9e3c
00000090: 7ab3 bb3b 4cc6 dd3e cadf 7e3c 73c4 af3e
000000a0: f5f2 073c 4e86 193c 72f0 f13b 25c2 b73d
000000b0: f25b be3d 9233 3a3e 8baf 433e 69cc 1d3c
000000c0: ed7c 533e 9616 723d ee96 b13d 4944 ff3c
000000d0: 20a9 f63d 5e54 bb3b 6e1d a03e 86d4 de3b
000000e0: 77ab d83b d7f8 eb3b 63bd 9c3c 066c 823c
000000f0: 80ca 663e ce4b 053c 1648 d73b 376b 9a3d
