models/updated_hmnn_model_1998.pth (torch, 13926 bytes, 12 tensors)

bayes_fc1.weight_mu f4 [64, 6]
000000 95 a1 24 be e0 71 df be 0b 0d 08 be 00 5e 84 be
       -0.16077264 -0.43641567 -0.13286225 -0.25852966
000010 c5 3d 61 be e0 55 ed bd 16 63 d7 3e 44 1c e2 bd
       -0.2199622 -0.11588645 0.42067784 -0.110405475
000020 e7 a0 22 3e 8e 2e b3 be f8 39 c2 3d 65 69 2a be
       0.15881692 -0.34996456 0.09483713 -0.16641767
000030 1b b8 98 be 06 21 10 3e ac 94 82 be 54 8b 09 3e
       -0.2982796 0.14075097 -0.25504053 0.13432056
000040 09 a4 16 be a1 ec 55 3d 7d 79 ac be 7a 74 07 3e
       -0.14711012 0.05222762 -0.33686438 0.13228026
000050 3c b6 c0 be be ff cd 3e 1e 9c bd bd 1d 1e d6 bd
       -0.37639034 0.40234178 -0.092582926 -0.104549624
000060 51 53 9f be f1 34 3a 3e ab 35 a8 be 9e 5a 81 3e
       -0.31118253 0.18184258 -0.32853445 0.25264448
000070 71 53 00 be ff bf 2f bc a6 31 f4 3d 6c 4f 15 be
       -0.1253183 -0.010726928 0.11923532 -0.14581078
000080 50 ef 88 3e 68 93 43 be 37 19 da 3d dd 70 04 be
       0.2674508 -0.190992 0.106493406 -0.12933679
000090 cc b6 3b be 8d 43 a6 be 09 5e a8 bd 4b 9d 1d be
       -0.1833145 -0.32473412 -0.08221061 -0.15392034
0000a0 4e 16 99 be fe 70 86 bd 69 8e d5 be 10 3b 47 3e
       -0.2989983 -0.0656452 -0.41710213 0.19456124
0000b0 09 e0 2b be d7 1d 32 bd ba c6 a7 be 9a af 6f 3d
       -0.16784681 -0.04348549 -0.32768804 0.058517076
0000c0 fe 33 8d be 17 c6 e3 3d fc ec c8 be eb c2 b4 3e
       -0.2757873 0.11121767 -0.39243305 0.3530496
0000d0 b6 df 02 be 0e 20 26 bd cd 75 bf bd 00 53 71 be
       -0.12780651 -0.040557913 -0.093486406 -0.23566818
0000e0 f1 2e 0e 3d c9 5e 1d be f7 fd bf 3b bd 5e 76 3d
       0.034712736 -0.15368189 0.0058591324 0.060148943
0000f0 ce 02 8a be 42 9a 4d be aa 88 34 bd 84 d3 8c be
       -0.26955265 -0.20078376 -0.044075646 -0.27505124
000100 5c bb 14 3c 39 97 ba bd d7 aa 2d be 53 30 95 3b
       0.009077873 -0.09110875 -0.16959701 0.00455288
000110 38 59 e9 be 8d ef c3 3e b1 78 c3 bd d5 63 9c bc
       -0.4557588 0.382687 -0.095445044 -0.019090572
000120 fe 6d 4f be 7c 14 c4 bc ba 4c 5e bd 97 61 fe bd
       -0.20256802 -0.023935549 -0.05427239 -0.124209575
000130 54 68 ae be f3 ad 55 bd e6 50 ea 3e 63 c7 05 be
       -0.3406397 -0.052167844 0.45764846 -0.13064341
000140 4a eb e0 3d 1e 48 9d be 76 82 04 3e 15 cf 46 bd
       0.10982378 -0.30719084 0.12940392 -0.048537333
000150 24 69 3c bb 21 5e cb bd 68 66 1b bd 3f 51 81 be
       -0.0028749192 -0.09930063 -0.03793946 -0.25257298
000160 05 7e a8 be 8e f3 8c 3c 8b c9 dc be 72 6b 6c be
       -0.32908645 0.01720598 -0.43122515 -0.23087862
000170 42 19 a5 3d 78 36 fd bd bb dd 79 3c b5 45 94 3e
       0.08061458 -0.12363905 0.015250619 0.28959432
000180 3f 03 79 3e de 3d 08 be 41 d8 bf 3e 5a 26 a0 be
       0.24317645 -0.1330485 0.37469676 -0.3127926
000190 5b 0e 2e 3e f2 cf c9 bd 65 4a 82 be 4a f5 2c bd
       0.16997664 -0.098541155 -0.25447384 -0.042226113
0001a0 9a 87 a4 bd f5 44 f8 bd 2b c4 41 be bb c7 d3 3c
       -0.080336764 -0.121225275 -0.18922488 0.025852075
0001b0 56 08 fc bd 3a 3c 53 be 32 27 9e bd 4d fd 42 be
       -0.123062775 -0.20628443 -0.0772232 -0.19041939
0001c0 b8 d2 73 be 07 b6 52 bd b0 1a 63 3e d3 7b b3 bd
       -0.23810852 -0.051443126 0.22178149 -0.08763852
0001d0 c9 a8 8f 3e ae ea 99 be eb ef 1b 3e 58 0e dc bd
       0.2805846 -0.3006186 0.1522824 -0.10744923
0001e0 63 7a 70 be 2a d8 40 3d 5c 48 4b be 85 92 6e 3e
       -0.23484187 0.04708115 -0.19851822 0.2329808
0001f0 f7 ea c1 bd fe 54 8b 3d b5 3b 84 be 92 ca 80 3d
       -0.09468644 0.0680332 -0.25826803 0.06288637
000200 ba d4 0d be 2e 4e 45 be 2c 55 d7 bd ca af 39 3d
       -0.1385068 -0.19268104 -0.10514292 0.04533366
000210 ee 78 e5 bd c0 da 81 be b2 8e c4 bd 83 f7 83 be
       -0.11204706 -0.25362206 -0.095975295 -0.25774774
000220 9e 6d b8 be 5c e4 a6 bd 2b 47 a7 be cb 62 d1 3d
       -0.3602113 -0.08149025 -0.32671484 0.102239214
000230 ac 44 87 be 90 17 3c 3e 8c 4e 1e be bb b6 fe bc
       -0.2641958 0.18368363 -0.15459651 -0.031092992
000240 62 e2 16 3d 0b 20 9b bd bd 3f ad bd b7 4f 87 be
       0.03683699 -0.07574471 -0.08459423 -0.26428005
000250 99 9a 87 be 5e 24 c4 bd ae ca a5 bd 52 8c 72 be
       -0.26485136 -0.09577249 -0.08095299 -0.2368634
000260 23 87 52 bd db 7d 99 3d a2 10 a3 be 70 97 60 bd
       -0.051398408 0.07494708 -0.31848627 -0.054831922
000270 e6 dd 77 be c7 e8 d0 bd f3 71 05 bd 90 b1 4c be
       -0.24205741 -0.10200649 -0.032579374 -0.1998961
000280 72 df cd bd f1 e7 cd bc 71 b2 4f 3e b5 d8 b1 bd
       -0.100523844 -0.025135012 0.20282914 -0.08683912
000290 56 ba ce 3e b9 8c a0 be 18 a9 44 3e 1e a0 85 3c
       0.40376538 -0.31357363 0.19205129 0.016311701
0002a0 38 2f a4 3e 77 70 8c bd a8 b8 4e 3e 42 a5 6f be
       0.32067275 -0.068573885 0.20187628 -0.23402885
0002b0 5f 78 d4 3d 12 dc 2d 3e f6 4a 00 be 60 d5 84 be
       0.103745215 0.16978481 -0.12528595 -0.25944042
0002c0 a1 6b 76 bd 65 d6 1b be ea 11 8b be 93 54 e9 bd
       -0.060161237 -0.15218504 -0.27162105 -0.113930844
0002d0 30 16 6f be 75 cd 1f be 5f 18 0b be 6c 3b 71 3d
       -0.23348308 -0.1560572 -0.13583516 0.05889456
0002e0 11 0b 83 be 56 2d 38 be d5 69 b2 bd d9 b3 8f be
       -0.2559438 -0.17986044 -0.08711592 -0.280669
0002f0 d6 06 63 bd 07 2c ba bd b1 36 c4 be a1 7f a9 bd
       -0.05542644 -0.09090429 -0.38322976 -0.082762964
000300 a6 dc ae bd 60 73 3a be 57 71 de bd 1c 2b 12 be
       -0.08538179 -0.18208075 -0.108614616 -0.14274257
000310 52 b5 0d be ca 4e 57 bc ca d8 81 be 4a 09 11 be
       -0.138387 -0.013141343 -0.2536071 -0.141637
000320 c4 71 f7 bb 97 8a 5a be f8 bb 3b be 32 7a 01 bd
       -0.0075514037 -0.2134193 -0.18333423 -0.031610675
000330 d4 64 9f bd 4f 5e b0 bd e3 86 b7 bd 30 92 79 be
       -0.07782903 -0.08611738 -0.089612745 -0.24372172
000340 c5 6b 93 be 14 23 b0 bd b6 ac 3c 3c 9a dd 53 be
       -0.2879316 -0.086004406 0.011515787 -0.20690003
000350 3e 0d b6 3c 99 9b e6 be 21 4c cb 3d 4d bc 49 bd
       0.022223111 -0.45040587 0.0992663 -0.049251843
000360 82 f8 c8 be 31 cf 56 3e 1e 8a 93 be c9 36 de 3d
       -0.39252096 0.20977475 -0.28816313 0.10850293
000370 71 51 a3 bd 01 ae b8 3d f8 18 3a be 14 c4 77 be
       -0.07974518 0.090175636 -0.18173587 -0.24195892
000380 8c b4 36 ba d8 2d 86 be 0c 8f 5b be 6e d8 db bd
       -0.00069696526 -0.2620685 -0.21441287 -0.1073464
000390 68 61 9a be 96 14 12 3e b6 ae b8 bd 6c 59 48 bd
       -0.3015244 0.14265665 -0.090176985 -0.048913404
0003a0 16 74 ad be 66 52 65 bd 0a d1 b3 bd e4 79 06 be
       -0.3387763 -0.055986784 -0.087801054 -0.13132435
0003b0 ab 65 2f bd 98 58 a6 bd 92 5b 73 be 68 ea 13 3e
       -0.042821568 -0.08122367 -0.237654 0.14444888
0003c0 3a f0 99 be c4 c2 02 3e a2 95 a4 be 66 45 74 3e
       -0.3006609 0.1276961 -0.3214541 0.23854598
0003d0 9f 2c ca bd db e5 98 3d 63 f5 9a be 5e fd 96 3d
       -0.09871792 0.074657165 -0.3026534 0.07372545
0003e0 99 c0 49 be 7b 64 2c 3e a6 c8 d3 bd ad 16 8d bb
       -0.19702376 0.16835205 -0.10341005 -0.0043056817
0003f0 db 3c 39 be f4 70 c2 3c 81 a5 94 be ae 16 de 3e
       -0.18089621 0.0237355 -0.2903252 0.43376678

bayes_fc1.weight_rho f4 [64, 6]
000000 e2 a2 a4 bf 75 49 c1 bf bf 7d 90 3e e4 1f 91 bf
       -1.2862208 -1.5100542 0.28220937 -1.1337857
000010 7f b8 fe bf c0 60 a2 3e 28 54 15 c0 ee 15 39 c0
       -1.9900054 0.3171444 -2.3332615 -2.8919635
000020 65 80 d0 be 36 07 0a c0 5f f1 35 c0 96 6c 85 be
       -0.40722957 -2.1566901 -2.8428571 -0.26059407
000030 e6 98 0c c0 c5 8d 36 c0 99 8e 54 bd e7 1f f2 bf
       -2.1968322 -2.852403 -0.051893804 -1.8915986
000040 a8 ae 31 c0 50 f8 9e be 53 f8 1f c0 7c 5b 4d c0
       -2.7762852 -0.31048822 -2.4995315 -3.2087088
000050 70 4e c5 be db 93 29 c0 a0 1b 4f c0 1a 06 01 bf
       -0.38536406 -2.6496494 -3.236061 -0.50399935
000060 b5 47 13 c0 5d c1 3e c0 ad 33 65 be 12 23 0a c0
       -2.3012516 -2.980552 -0.22382994 -2.1583905
000070 68 37 34 c0 6f 51 34 bf 94 94 02 c0 67 6a 2c c0
       -2.8158817 -0.7043676 -2.0403185 -2.6939943
000080 f9 3f 9f be a4 92 0d c0 95 c2 3c c0 53 f1 95 be
       -0.31103495 -2.2120752 -2.9493763 -0.29285678
000090 e2 73 7f bf 2a a6 f2 bf 89 d1 8d 3e e2 a7 91 bf
       -0.997862 -1.8956959 0.27698925 -1.1379359
0000a0 bc 21 ee bf f5 a3 50 3e 35 f7 db bf 0e 2d 27 c0
       -1.8604045 0.20375045 -1.7184817 -2.612125
0000b0 26 e8 26 3e 71 78 b8 bf 11 76 0b c0 33 d8 d7 3d
       0.16299495 -1.4411756 -2.1790812 0.105392836
0000c0 a8 3d 1d c0 e8 13 3a c0 7f 64 47 be 60 5f 18 c0
       -2.4568882 -2.907465 -0.1947193 -2.3808212
0000d0 e7 7a 3b c0 c4 a5 08 bf 15 c4 b8 bf f3 4b 0f c0
       -2.9293764 -0.5337794 -1.443484 -2.2390106
0000e0 bf 9a 06 3e e4 c8 fa bf 1a e0 1b c0 3d f0 0c bd
       0.13144968 -1.9592557 -2.435553 -0.034408797
0000f0 42 61 86 bf 1a 37 0a c0 d3 16 bc 3e d9 de 99 bf
       -1.0498431 -2.1596131 0.36736163 -1.2021133
000100 44 a4 0a c0 ea 54 a9 3e 15 7f 15 c0 86 34 39 c0
       -2.166276 0.33072597 -2.3358815 -2.8938308
000110 b0 8c 5e be 7d 98 14 c0 0e da 3e c0 6c bc db be
       -0.21733356 -2.3218071 -2.982059 -0.42917192
000120 af b6 cb bf d4 e7 1c c0 dd 55 14 3e d2 f4 a7 bf
       -1.5915126 -2.4516497 0.14485879 -1.3121588
000130 22 81 dc bf 5a aa 36 3e 08 6b 29 c0 2b 12 4a c0
       -1.7226908 0.17838421 -2.6471577 -3.157359
000140 39 e1 0e bf 95 6e 24 c0 4b 8f 48 c0 9e 17 0f bf
       -0.5581241 -2.5692494 -3.133746 -0.5589541
000150 f9 b9 d8 bf 72 4b 11 c0 55 2e 70 3e 2c d5 99 bf
       -1.6931754 -2.2702298 0.23455174 -1.201818
000160 0e fd ec bf d7 90 99 3e 1d 54 ce bf 36 a9 23 c0
       -1.8514726 0.29993317 -1.6119419 -2.5572028
000170 e3 01 de be f6 31 1b c0 4c c4 3a c0 0f d5 37 bf
       -0.43360814 -2.4249244 -2.918231 -0.71809477
000180 a6 c8 05 c0 64 39 38 c0 00 1a a2 be 32 ac 13 c0
       -2.0903716 -2.8785028 -0.3166046 -2.307385
000190 b6 8f 41 c0 08 27 80 be fe 44 bd bf 57 91 0e c0
       -3.0243964 -0.25029778 -1.478668 -2.2276208
0001a0 52 f3 7b 3e 14 94 b1 bf 51 5a 03 c0 9f 6a 83 3e
       0.24604538 -1.3873315 -2.0523875 0.25667283
0001b0 7f 3e aa bf 14 5d 02 c0 4f af 98 3e de f1 ae bf
       -1.3300322 -2.036931 0.2982125 -1.3667562
0001c0 85 26 04 c0 61 7e 7f 3e 56 28 1d c0 22 c7 3f c0
       -2.064851 0.24950553 -2.455587 -2.996529
0001d0 88 61 03 bf 80 0b 1a c0 dc 82 46 c0 12 83 f8 be
       -0.51320696 -2.406952 -3.101737 -0.485375
0001e0 2a 41 0a c0 67 71 34 c0 a0 8f 7b be b5 fe 0a c0
       -2.1602273 -2.8194215 -0.24566507 -2.171796
0001f0 59 ae 3d c0 2e cb 01 bf 85 04 e7 bf 4a 16 2d c0
       -2.9637663 -0.5070065 -1.8048254 -2.7044854
000200 10 48 85 3d 1e 94 c3 bf 98 9a 1d c0 84 e9 ca bd
       0.065078855 -1.5279577 -2.4625607 -0.09907821
000210 c8 15 80 bf d6 67 f5 bf 62 00 d7 3e 3f d2 56 bf
       -1.0006647 -1.9172313 0.4199248 -0.8391456
000220 30 f6 b5 bf 17 bb d9 3e be 5c 07 c0 9a c4 2e c0
       -1.4215755 0.4252555 -2.1150355 -2.7307496
000230 ca 61 6e bd 6a 53 00 c0 14 ff 29 c0 3e 2b e3 bd
       -0.058198728 -2.0050912 -2.6561937 -0.11092232
000240 be 3d ac bf 1d 65 0f c0 61 13 ae 3e ad 24 5b bf
       -1.3456342 -2.2405465 0.3399916 -0.8560284
000250 cb 27 d4 bf be 0e c8 3e 1a a0 a1 bf b1 b9 fd bf
       -1.6574644 0.39073747 -1.2626984 -1.9822294
000260 e7 41 98 3e 8b 68 9f bf db 2a c6 bf 7c d8 a2 3e
       0.2973778 -1.2453779 -1.5481828 0.3180579
000270 8f c4 c2 bf 56 bd 25 c0 5b 60 6f 3d fa 1f c9 bf
       -1.5216235 -2.5896811 0.0584415 -1.5712883
000280 a4 4f 1a c0 9c 61 ca 3d e9 19 2b c0 0f d8 4d c0
       -2.4111109 0.09881899 -2.6734564 -3.2163122
000290 12 7f 74 bf 80 da 2c c0 67 e8 54 c0 b9 d7 5d bf
       -0.95506394 -2.7008362 -3.3266847 -0.8665729
0002a0 2d b4 2f c0 16 c6 54 c0 29 eb 5e bf 16 5e 2d c0
       -2.745372 -3.3245902 -0.87077576 -2.7088675
0002b0 4d 3e 56 c0 c3 a1 78 bf 66 27 a9 bf 42 86 fe bf
       -3.3475525 -0.9712183 -1.3215148 -1.9884722
0002c0 be 45 ac 3e 68 3b b1 bf a9 93 ec bf a4 fd fc be
       0.3364696 -1.3846254 -1.8482562 -0.49412262
0002d0 db dc c3 bf 3e d7 09 c0 d2 31 37 3e c6 0f e9 bf
       -1.5301775 -2.1537623 0.17890099 -1.8207939
0002e0 e1 70 02 c0 f3 86 4f bc e4 ad b0 bf 11 9b fe bf
       -2.0381396 -0.012666452 -1.3803067 -1.9891073
0002f0 bd 59 49 3e 88 93 9a bf 5b 2b cf bf 58 7b 34 3e
       0.19663139 -1.2076273 -1.6185106 0.17625177
000300 62 84 a7 bf 21 0f 06 c0 7c 80 9d 3e d7 30 a7 bf
       -1.3087275 -2.0946734 0.30762088 -1.306178
000310 6f 3b 0f c0 27 0f 9b 3e b4 c9 9f bf 90 f9 01 c0
       -2.2380025 0.30284998 -1.248343 -2.030857
000320 d7 61 8d 3d a9 8e 9e bf 06 45 0b c0 ae 51 99 be
       0.06903427 -1.2387286 -2.1760879 -0.2994513
000330 40 9e bc bf c8 1d 11 c0 b7 35 bd 3e 70 c9 8c bf
       -1.4735794 -2.2674427 0.36955044 -1.0998974
000340 6c 26 e0 bf 44 10 d3 3e c0 a7 db bf d0 5b 19 c0
       -1.7511725 0.41223347 -1.7160568 -2.3962288
000350 74 70 97 3d a4 ff da bf 1c 05 28 c0 7f 4d 03 be
       0.073944956 -1.7109265 -2.6253119 -0.12822531
000360 0a 39 16 c0 04 08 43 c0 5b 26 b3 be 86 43 17 c0
       -2.3472314 -3.0473642 -0.349902 -2.3634963
000370 32 4b 44 c0 3e 18 e6 be a0 87 96 bf 46 7c f7 bf
       -3.0670896 -0.4494037 -1.176014 -1.93348
000380 5e 97 aa 3d 7b 2e 92 bf 6d 00 ea bf df e5 51 3e
       0.08329652 -1.1420435 -1.828138 0.20497845
000390 0b 8e e2 bf e6 a3 1f c0 b4 32 96 3d dd bb c4 bf
       -1.7699598 -2.4943786 0.073338896 -1.5369831
0003a0 48 89 0e c0 c9 26 d4 3d 88 3c e6 bf f4 8f 24 c0
       -2.227129 0.1035896 -1.7987223 -2.5712862
0003b0 04 76 31 be 86 84 03 c0 79 78 f8 bf c6 67 9f be
       -0.17330176 -2.0549636 -1.9411765 -0.3113386
0003c0 57 c7 13 c0 16 08 3d c0 dd b1 67 be dd 5b 0e c0
       -2.3090417 -2.9536185 -0.22626443 -2.224357
0003d0 34 5d 3a c0 f9 fb da be de 59 0e c0 5d 87 34 c0
       -2.9119387 -0.42770365 -2.224235 -2.820762
0003e0 2e be 27 bd f7 53 0a c0 ab 90 33 c0 8c f8 ab be
       -0.040952854 -2.1613748 -2.8057048 -0.33588064
0003f0 ef 6f 01 c0 55 f3 30 c0 2d ae ab bd a2 e6 08 c0
       -2.022457 -2.7648518 -0.08382831 -2.1390767

bayes_fc1.bias_mu f4 [64]
000000 d1 a3 23 bd 98 6b 71 bb ca 70 b6 bb 17 25 ba bb
       -0.03995115 -0.0036837813 -0.0055676447 -0.005680691
000010 90 fc d6 3c 1b 85 a8 bb 8e 73 c2 3c de 41 35 bc
       0.026243478 -0.0051428205 0.023736741 -0.011063067
000020 b2 ab e8 ba c2 c5 51 3b 02 0e 82 bb ed 63 a1 bb
       -0.0017751365 0.0032008742 -0.003968955 -0.004925242
000030 65 2e d4 bc 7f fc da 3c 9e ac 67 bc 1f 4c ce 3b
       -0.025901029 0.026731728 -0.014140276 0.0062956954
000040 89 1a f4 3c 92 d0 32 bb 29 4b e9 bc ee b3 c2 39
       0.02979781 -0.0027284962 -0.028478222 0.00037136622
000050 6f 28 78 bc 6c 70 14 bc 16 90 b3 bd 6f 83 85 bc
       -0.015146359 -0.009060007 -0.087677166 -0.016298024
000060 f3 ec ab bc c7 e7 1d bc c6 38 f3 bb d7 7b a4 bc
       -0.02098701 -0.00963778 -0.0074225394 -0.020078583
000070 96 e5 0d bb ce 9f e0 3b 4c c9 98 bc 2a 99 c7 bb
       -0.0021651736 0.0068549877 -0.018650673 -0.0060912566
000080 82 5b e7 bb f8 0b b9 bb d0 29 c9 bc 02 cf 76 39
       -0.007060469 -0.0056471787 -0.02455607 0.00023537505
000090 e1 16 92 3c bf e2 3c 3a b5 df c7 bb 0a 4d 4e bc
       0.017833175 0.00072054187 -0.006099666 -0.01259161
0000a0 08 5d 1a 3c 49 ac db 3c c6 65 0f 3c fa 3c ba bc
       0.009421594 0.02681555 0.008752292 -0.022734154
0000b0 7e 2d 6a bc 53 30 09 bc 7f d5 44 bc 16 fb fb 3b
       -0.014293073 -0.008373338 -0.012013792 0.007689844
0000c0 e0 25 9a bb e8 a9 29 bd 6d ea eb bb d6 cc 22 bd
       -0.004704222 -0.0414218 -0.0071995766 -0.039746128
0000d0 3c 82 5f bc 09 f6 25 3c d9 bc e0 bc f2 de 67 bc
       -0.01364189 0.01012946 -0.0274338 -0.014152275
0000e0 cc 51 ce ba 4e 7e ae bb 92 9b be bb 22 e0 10 3c
       -0.001574093 -0.0053251153 -0.0058168853 0.0088425
0000f0 ad 91 c2 bc b5 ec a5 3a 7e ba 4a bb a0 98 44 3c
       -0.023751104 0.0012659045 -0.0030933912 0.011999279

bayes_fc1.bias_rho f4 [64]
000000 bd 5c fa be df e2 a4 bf 30 3e 93 bf 4e 3a b7 bf
       -0.4889888 -1.2881736 -1.1503353 -1.4314668
000010 1d 7e aa bf 12 b1 a2 bf bf e0 e3 be a4 99 41 bf
       -1.3319737 -1.2710288 -0.44507405 -0.7562506
000020 6a 48 a4 bf 28 d0 5d bf a4 b3 09 bf ae 76 9d bf
       -1.2834599 -0.86645746 -0.53789735 -1.2301843
000030 a3 51 21 bf c7 1c c3 bf b4 bb 47 bf fc b4 ae bf
       -0.6301519 -1.5243157 -0.7802079 -1.3648982
000040 70 94 9e bf bb a6 27 bf 55 81 01 bf 6e 98 b9 bf
       -1.238905 -0.65488786 -0.5058797 -1.4499643
000050 da 84 9f bf 7c 83 78 bf 3f c5 7e be ec bd 87 bf
       -1.2462418 -0.9707563 -0.24879931 -1.0604835
000060 08 14 d6 be e8 f5 fe be 5c 6f 62 bf 28 a8 e3 bf
       -0.41812158 -0.49796987 -0.8845117 -1.7785692
000070 b3 f7 eb bf 8f 8e 25 bf 69 04 37 bf 91 af fa be
       -1.8434967 -0.6467065 -0.71491104 -0.48962072
000080 36 d3 03 bf cb cf 1e bf e2 1e 04 bf 21 f7 6b bf
       -0.5149416 -0.62035817 -0.51609623 -0.92173964
000090 cb 52 b6 bf bc 9d 2a bf 34 40 55 bf 21 1a 8a bf
       -1.4244016 -0.66646934 -0.8330109 -1.0789224
0000a0 78 36 a4 bf 76 ed 98 bf af 3d 8a bf dc fb fb be
       -1.2829123 -1.1947467 -1.0800074 -0.4921559
0000b0 fd 0e fd be b2 96 fc be b4 4b 44 bf 7a de 91 bf
       -0.49425498 -0.4933372 -0.76678014 -1.139602
0000c0 91 f6 17 bf e5 c9 ff be 9d ac 38 bf 8f 85 2d bf
       -0.59360605 -0.4995872 -0.72138387 -0.6778192
0000d0 b1 e6 00 bf 81 ef d8 bf f2 80 10 bf a6 21 b8 bf
       -0.5035201 -1.6948091 -0.56446755 -1.4385269
0000e0 39 89 9d bf 51 1c b0 bf 69 71 a6 bf 08 f4 52 bf
       -1.2307502 -1.3758641 -1.300336 -0.8240361
0000f0 ac 5a eb be da 8c 8f bf 0f 97 c0 bf 1a 21 2f bf
       -0.45967615 -1.121486 -1.50461 -0.68409884

bayes_fc1.prior_mu_old_bias f4 [64]
000000 d1 a3 23 bd 98 6b 71 bb ca 70 b6 bb 17 25 ba bb
       -0.03995115 -0.0036837813 -0.0055676447 -0.005680691
000010 90 fc d6 3c 1b 85 a8 bb 8e 73 c2 3c de 41 35 bc
       0.026243478 -0.0051428205 0.023736741 -0.011063067
000020 b2 ab e8 ba c2 c5 51 3b 02 0e 82 bb ed 63 a1 bb
       -0.0017751365 0.0032008742 -0.003968955 -0.004925242
000030 65 2e d4 bc 7f fc da 3c 9e ac 67 bc 1f 4c ce 3b
       -0.025901029 0.026731728 -0.014140276 0.0062956954
000040 89 1a f4 3c 92 d0 32 bb 29 4b e9 bc ee b3 c2 39
       0.02979781 -0.0027284962 -0.028478222 0.00037136622
000050 6f 28 78 bc 6c 70 14 bc 16 90 b3 bd 6f 83 85 bc
       -0.015146359 -0.009060007 -0.087677166 -0.016298024
000060 f3 ec ab bc c7 e7 1d bc c6 38 f3 bb d7 7b a4 bc
       -0.02098701 -0.00963778 -0.0074225394 -0.020078583
000070 96 e5 0d bb ce 9f e0 3b 4c c9 98 bc 2a 99 c7 bb
       -0.0021651736 0.0068549877 -0.018650673 -0.0060912566
000080 82 5b e7 bb f8 0b b9 bb d0 29 c9 bc 02 cf 76 39
       -0.007060469 -0.0056471787 -0.02455607 0.00023537505
000090 e1 16 92 3c bf e2 3c 3a b5 df c7 bb 0a 4d 4e bc
       0.017833175 0.00072054187 -0.006099666 -0.01259161
0000a0 08 5d 1a 3c 49 ac db 3c c6 65 0f 3c fa 3c ba bc
       0.009421594 0.02681555 0.008752292 -0.022734154
0000b0 7e 2d 6a bc 53 30 09 bc 7f d5 44 bc 16 fb fb 3b
       -0.014293073 -0.008373338 -0.012013792 0.007689844
0000c0 e0 25 9a bb e8 a9 29 bd 6d ea eb bb d6 cc 22 bd
       -0.004704222 -0.0414218 -0.0071995766 -0.039746128
0000d0 3c 82 5f bc 09 f6 25 3c d9 bc e0 bc f2 de 67 bc
       -0.01364189 0.01012946 -0.0274338 -0.014152275
0000e0 cc 51 ce ba 4e 7e ae bb 92 9b be bb 22 e0 10 3c
       -0.001574093 -0.0053251153 -0.0058168853 0.0088425
0000f0 ad 91 c2 bc b5 ec a5 3a 7e ba 4a bb a0 98 44 3c
       -0.023751104 0.0012659045 -0.0030933912 0.011999279

bayes_fc1.prior_sigma_small_bias f4 [64]
000000 fa dc f4 3e f9 65 79 3e cb cc 8c 3e d0 69 5b 3e
       0.47824842 0.24355306 0.27499995 0.21427083
000010 43 de 6f 3e 0a 38 7d 3e e5 86 fd 3e ac 0d c5 3e
       0.2342463 0.24728408 0.4951698 0.38486993
000020 92 71 7a 3e c0 b1 b3 3e ea 7c eb 3e bc 43 83 3e
       0.24457386 0.3509655 0.4599374 0.25637615
000030 9e 93 da 3e f6 bf 49 3e ad 2a c1 3e 29 eb 68 3e
       0.42690748 0.19702134 0.37727872 0.22745956
000040 1c 42 82 3e 1b 36 d6 3e cb 97 f1 3e 8a c9 57 3e
       0.25441062 0.41838154 0.4718612 0.21072975
000050 b6 6a 81 3e c4 75 a4 3e 3b 93 13 3f 73 3e 98 3e
       0.25276726 0.32121098 0.5764653 0.29735145
000060 f2 7a 01 3f be 1e f3 3e c1 f9 b0 3e 70 ca 1f 3e
       0.50578225 0.47484392 0.34565547 0.15604568
000070 98 72 16 3e b7 a5 d7 3e 21 e9 cb 3e 7f bd f4 3e
       0.14692152 0.42118618 0.398263 0.47800824
000080 44 da ef 3e 19 53 dc 3e ae a1 ef 3e 6e 7a ab 3e
       0.4684621 0.43032148 0.4680304 0.33491844
000090 0c d0 5c 3e 18 31 d4 3e b3 d2 b8 3e 0b d5 95 3e
       0.21563739 0.41443706 0.3609825 0.292641
0000a0 ba 90 7a 3e aa 6c 87 3e f9 b0 95 3e 54 3f f4 3e
       0.24469271 0.26450092 0.29236582 0.47704566
0000b0 05 d7 f3 3e 9c 04 f4 3e 5a 56 c3 3e 6b 20 8e 3e
       0.47624984 0.47659767 0.3815182 0.27759108
0000c0 ff 27 e1 3e a6 ce f2 3e 05 d3 ca 3e 3d 3a d2 3e
       0.43975827 0.47423285 0.3961412 0.41060057
0000d0 38 0c f2 3e c1 a2 2c 3e b4 83 e6 3e e0 05 5a 3e
       0.47274947 0.1685896 0.45022357 0.21291304
0000e0 f7 32 83 3e e0 a4 66 3e 0e b8 76 3e 42 38 ba 3e
       0.2562482 0.22523832 0.24093649 0.36371046
0000f0 c5 9e fa 3e f2 63 90 3e 3e 63 4d 3e a4 25 d1 3e
       0.48949257 0.28201252 0.20057389 0.4084903

bayes_fc1.prior_mu_old f4 [64, 6]
000000 95 a1 24 be e0 71 df be 0b 0d 08 be 00 5e 84 be
       -0.16077264 -0.43641567 -0.13286225 -0.25852966
000010 c5 3d 61 be e0 55 ed bd 16 63 d7 3e 44 1c e2 bd
       -0.2199622 -0.11588645 0.42067784 -0.110405475
000020 e7 a0 22 3e 8e 2e b3 be f8 39 c2 3d 65 69 2a be
       0.15881692 -0.34996456 0.09483713 -0.16641767
000030 1b b8 98 be 06 21 10 3e ac 94 82 be 54 8b 09 3e
       -0.2982796 0.14075097 -0.25504053 0.13432056
000040 09 a4 16 be a1 ec 55 3d 7d 79 ac be 7a 74 07 3e
       -0.14711012 0.05222762 -0.33686438 0.13228026
000050 3c b6 c0 be be ff cd 3e 1e 9c bd bd 1d 1e d6 bd
       -0.37639034 0.40234178 -0.092582926 -0.104549624
000060 51 53 9f be f1 34 3a 3e ab 35 a8 be 9e 5a 81 3e
       -0.31118253 0.18184258 -0.32853445 0.25264448
000070 71 53 00 be ff bf 2f bc a6 31 f4 3d 6c 4f 15 be
       -0.1253183 -0.010726928 0.11923532 -0.14581078
000080 50 ef 88 3e 68 93 43 be 37 19 da 3d dd 70 04 be
       0.2674508 -0.190992 0.106493406 -0.12933679
000090 cc b6 3b be 8d 43 a6 be 09 5e a8 bd 4b 9d 1d be
       -0.1833145 -0.32473412 -0.08221061 -0.15392034
0000a0 4e 16 99 be fe 70 86 bd 69 8e d5 be 10 3b 47 3e
       -0.2989983 -0.0656452 -0.41710213 0.19456124
0000b0 09 e0 2b be d7 1d 32 bd ba c6 a7 be 9a af 6f 3d
       -0.16784681 -0.04348549 -0.32768804 0.058517076
0000c0 fe 33 8d be 17 c6 e3 3d fc ec c8 be eb c2 b4 3e
       -0.2757873 0.11121767 -0.39243305 0.3530496
0000d0 b6 df 02 be 0e 20 26 bd cd 75 bf bd 00 53 71 be
       -0.12780651 -0.040557913 -0.093486406 -0.23566818
0000e0 f1 2e 0e 3d c9 5e 1d be f7 fd bf 3b bd 5e 76 3d
       0.034712736 -0.15368189 0.0058591324 0.060148943
0000f0 ce 02 8a be 42 9a 4d be aa 88 34 bd 84 d3 8c be
       -0.26955265 -0.20078376 -0.044075646 -0.27505124
000100 5c bb 14 3c 39 97 ba bd d7 aa 2d be 53 30 95 3b
       0.009077873 -0.09110875 -0.16959701 0.00455288
000110 38 59 e9 be 8d ef c3 3e b1 78 c3 bd d5 63 9c bc
       -0.4557588 0.382687 -0.095445044 -0.019090572
000120 fe 6d 4f be 7c 14 c4 bc ba 4c 5e bd 97 61 fe bd
       -0.20256802 -0.023935549 -0.05427239 -0.124209575
000130 54 68 ae be f3 ad 55 bd e6 50 ea 3e 63 c7 05 be
       -0.3406397 -0.052167844 0.45764846 -0.13064341
000140 4a eb e0 3d 1e 48 9d be 76 82 04 3e 15 cf 46 bd
       0.10982378 -0.30719084 0.12940392 -0.048537333
000150 24 69 3c bb 21 5e cb bd 68 66 1b bd 3f 51 81 be
       -0.0028749192 -0.09930063 -0.03793946 -0.25257298
000160 05 7e a8 be 8e f3 8c 3c 8b c9 dc be 72 6b 6c be
       -0.32908645 0.01720598 -0.43122515 -0.23087862
000170 42 19 a5 3d 78 36 fd bd bb dd 79 3c b5 45 94 3e
       0.08061458 -0.12363905 0.015250619 0.28959432
000180 3f 03 79 3e de 3d 08 be 41 d8 bf 3e 5a 26 a0 be
       0.24317645 -0.1330485 0.37469676 -0.3127926
000190 5b 0e 2e 3e f2 cf c9 bd 65 4a 82 be 4a f5 2c bd
       0.16997664 -0.098541155 -0.25447384 -0.042226113
0001a0 9a 87 a4 bd f5 44 f8 bd 2b c4 41 be bb c7 d3 3c
       -0.080336764 -0.121225275 -0.18922488 0.025852075
0001b0 56 08 fc bd 3a 3c 53 be 32 27 9e bd 4d fd 42 be
       -0.123062775 -0.20628443 -0.0772232 -0.19041939
0001c0 b8 d2 73 be 07 b6 52 bd b0 1a 63 3e d3 7b b3 bd
       -0.23810852 -0.051443126 0.22178149 -0.08763852
0001d0 c9 a8 8f 3e ae ea 99 be eb ef 1b 3e 58 0e dc bd
       0.2805846 -0.3006186 0.1522824 -0.10744923
0001e0 63 7a 70 be 2a d8 40 3d 5c 48 4b be 85 92 6e 3e
       -0.23484187 0.04708115 -0.19851822 0.2329808
0001f0 f7 ea c1 bd fe 54 8b 3d b5 3b 84 be 92 ca 80 3d
       -0.09468644 0.0680332 -0.25826803 0.06288637
000200 ba d4 0d be 2e 4e 45 be 2c 55 d7 bd ca af 39 3d
       -0.1385068 -0.19268104 -0.10514292 0.04533366
000210 ee 78 e5 bd c0 da 81 be b2 8e c4 bd 83 f7 83 be
       -0.11204706 -0.25362206 -0.095975295 -0.25774774
000220 9e 6d b8 be 5c e4 a6 bd 2b 47 a7 be cb 62 d1 3d
       -0.3602113 -0.08149025 -0.32671484 0.102239214
000230 ac 44 87 be 90 17 3c 3e 8c 4e 1e be bb b6 fe bc
       -0.2641958 0.18368363 -0.15459651 -0.031092992
000240 62 e2 16 3d 0b 20 9b bd bd 3f ad bd b7 4f 87 be
       0.03683699 -0.07574471 -0.08459423 -0.26428005
000250 99 9a 87 be 5e 24 c4 bd ae ca a5 bd 52 8c 72 be
       -0.26485136 -0.09577249 -0.08095299 -0.2368634
000260 23 87 52 bd db 7d 99 3d a2 10 a3 be 70 97 60 bd
       -0.051398408 0.07494708 -0.31848627 -0.054831922
000270 e6 dd 77 be c7 e8 d0 bd f3 71 05 bd 90 b1 4c be
       -0.24205741 -0.10200649 -0.032579374 -0.1998961
000280 72 df cd bd f1 e7 cd bc 71 b2 4f 3e b5 d8 b1 bd
       -0.100523844 -0.025135012 0.20282914 -0.08683912
000290 56 ba ce 3e b9 8c a0 be 18 a9 44 3e 1e a0 85 3c
       0.40376538 -0.31357363 0.19205129 0.016311701
0002a0 38 2f a4 3e 77 70 8c bd a8 b8 4e 3e 42 a5 6f be
       0.32067275 -0.068573885 0.20187628 -0.23402885
0002b0 5f 78 d4 3d 12 dc 2d 3e f6 4a 00 be 60 d5 84 be
       0.103745215 0.16978481 -0.12528595 -0.25944042
0002c0 a1 6b 76 bd 65 d6 1b be ea 11 8b be 93 54 e9 bd
       -0.060161237 -0.15218504 -0.27162105 -0.113930844
0002d0 30 16 6f be 75 cd 1f be 5f 18 0b be 6c 3b 71 3d
       -0.23348308 -0.1560572 -0.13583516 0.05889456
0002e0 11 0b 83 be 56 2d 38 be d5 69 b2 bd d9 b3 8f be
       -0.2559438 -0.17986044 -0.08711592 -0.280669
0002f0 d6 06 63 bd 07 2c ba bd b1 36 c4 be a1 7f a9 bd
       -0.05542644 -0.09090429 -0.38322976 -0.082762964
000300 a6 dc ae bd 60 73 3a be 57 71 de bd 1c 2b 12 be
       -0.08538179 -0.18208075 -0.108614616 -0.14274257
000310 52 b5 0d be ca 4e 57 bc ca d8 81 be 4a 09 11 be
       -0.138387 -0.013141343 -0.2536071 -0.141637
000320 c4 71 f7 bb 97 8a 5a be f8 bb 3b be 32 7a 01 bd
       -0.0075514037 -0.2134193 -0.18333423 -0.031610675
000330 d4 64 9f bd 4f 5e b0 bd e3 86 b7 bd 30 92 79 be
       -0.07782903 -0.08611738 -0.089612745 -0.24372172
000340 c5 6b 93 be 14 23 b0 bd b6 ac 3c 3c 9a dd 53 be
       -0.2879316 -0.086004406 0.011515787 -0.20690003
000350 3e 0d b6 3c 99 9b e6 be 21 4c cb 3d 4d bc 49 bd
       0.022223111 -0.45040587 0.0992663 -0.049251843
000360 82 f8 c8 be 31 cf 56 3e 1e 8a 93 be c9 36 de 3d
       -0.39252096 0.20977475 -0.28816313 0.10850293
000370 71 51 a3 bd 01 ae b8 3d f8 18 3a be 14 c4 77 be
       -0.07974518 0.090175636 -0.18173587 -0.24195892
000380 8c b4 36 ba d8 2d 86 be 0c 8f 5b be 6e d8 db bd
       -0.00069696526 -0.2620685 -0.21441287 -0.1073464
000390 68 61 9a be 96 14 12 3e b6 ae b8 bd 6c 59 48 bd
       -0.3015244 0.14265665 -0.090176985 -0.048913404
0003a0 16 74 ad be 66 52 65 bd 0a d1 b3 bd e4 79 06 be
       -0.3387763 -0.055986784 -0.087801054 -0.13132435
0003b0 ab 65 2f bd 98 58 a6 bd 92 5b 73 be 68 ea 13 3e
       -0.042821568 -0.08122367 -0.237654 0.14444888
0003c0 3a f0 99 be c4 c2 02 3e a2 95 a4 be 66 45 74 3e
       -0.3006609 0.1276961 -0.3214541 0.23854598
0003d0 9f 2c ca bd db e5 98 3d 63 f5 9a be 5e fd 96 3d
       -0.09871792 0.074657165 -0.3026534 0.07372545
0003e0 99 c0 49 be 7b 64 2c 3e a6 c8 d3 bd ad 16 8d bb
       -0.19702376 0.16835205 -0.10341005 -0.0043056817
0003f0 db 3c 39 be f4 70 c2 3c 81 a5 94 be ae 16 de 3e
       -0.18089621 0.0237355 -0.2903252 0.43376678

bayes_fc1.prior_sigma_small f4 [64, 6]
000000 b7 d4 79 3e 72 60 4c 3e ce 1b 58 3f 9d d9 8e 3e
       0.2439755 0.19958666 0.84417427 0.279004
000010 1c 33 03 3e cf 3e 5d 3f 16 90 bd 3d d0 1d 5d 3d
       0.12812465 0.86423963 0.09255998 0.05398351
000020 3d 97 02 3f 9d 3b e0 3d b3 ef 67 3d b1 41 12 3f
       0.5101202 0.1094887 0.05662508 0.5713149
000030 d5 db d7 3d 24 cb 65 3d b2 e3 2a 3f 00 db 0f 3e
       0.105399765 0.056101933 0.66753685 0.14048386
000040 eb 6d 77 3d 99 c6 0c 3f 94 a3 a1 3d f2 41 22 3d
       0.06040756 0.54990536 0.07892528 0.03961367
000050 96 d7 04 3f be db 8b 3d 84 f6 1d 3d 8e f4 f1 3e
       0.5189146 0.06829022 0.038565174 0.47256893
000060 94 71 c3 3d b0 d3 4a 3d 32 65 16 3f 3a df df 3d
       0.09543148 0.049518287 0.5874816 0.10931249
000070 e3 18 6e 3d ba b0 cd 3e 58 47 fa 3d 68 fc 85 3d
       0.058129203 0.40173894 0.12220639 0.06542283
000080 71 b7 0c 3f d6 c1 d4 3d aa 16 51 3d da b1 0e 3f
       0.5496741 0.10388534 0.051047005 0.5574013
000090 43 af a0 3e 7a 4e 0f 3e ff 58 57 3f 63 55 8e 3e
       0.31383714 0.1399478 0.8412017 0.2779952
0000a0 61 19 14 3e 16 da 4c 3f 8f e9 28 3e 6a 05 91 3d
       0.14462806 0.8002027 0.16495346 0.07081111
0000b0 83 28 47 3f dc 80 59 3e 4b 86 db 3d 8f 4a 3f 3f
       0.7779619 0.21240562 0.10718974 0.7472314
0000c0 23 66 a8 3d d9 cd 59 3d a5 bb 19 3f dd 22 b5 3d
       0.08222606 0.053174827 0.6005195 0.0884454
0000d0 4f 34 55 3d 2b 44 ec 3e 2b 0d 59 3e 34 61 cf 3d
       0.05205184 0.46145758 0.2119643 0.10125962
0000e0 e2 d2 42 3f b1 09 07 3e d4 e1 ab 3d 49 14 2d 3f
       0.7610303 0.1318729 0.08392683 0.6760908
0000f0 99 a6 99 3e e3 9c df 3d 30 c3 64 3f e5 8c 86 3e
       0.30009916 0.10918596 0.8936033 0.2627937
000100 a3 34 de 3d 4e 43 5f 3f cb 16 bd 3d 01 b7 5c 3d
       0.108498834 0.87212074 0.09232863 0.053885464
000110 b0 22 17 3f c6 a5 bf 3d 65 87 4a 3d 6c 5c 00 3f
       0.59037304 0.09357791 0.04944553 0.50141025
000120 8c c7 3d 3e 76 3f a9 3d 94 a8 44 3f 8e 23 74 3e
       0.18533152 0.08264057 0.7681973 0.23841688
000130 12 42 28 3e b8 4b 49 3f 13 32 8c 3d a6 a1 2a 3d
       0.16431454 0.7863116 0.068454884 0.041658066
000140 ba b1 e7 3e 35 25 97 3d 70 9f 2e 3d 23 8a e7 3e
       0.45252782 0.073801436 0.04263252 0.45222577
000150 3e e5 2c 3e 00 4f c9 3d 89 39 51 3f d7 95 86 3e
       0.16884324 0.09829521 0.81728417 0.26286194
000160 e3 55 15 3e 83 b4 5a 3f 36 45 3a 3e 11 e9 98 3d
       0.14583544 0.8543169 0.18190464 0.07466329
000170 dd d3 ff 3e 9f a4 ad 3d 36 88 57 3d 30 60 cb 3e
       0.49966326 0.084786646 0.052620135 0.39721823
000180 98 be ee 3d 50 08 60 3d 57 1d 0c 3f b5 4d c2 3d
       0.116574466 0.054695427 0.5473227 0.09487478
000190 4d 54 42 3d 39 68 13 3f 5b 44 52 3e 3d a3 d1 3d
       0.047443677 0.57580906 0.20533888 0.10236213
0001a0 31 df 52 3f 64 49 64 3e 55 73 f7 3d f9 66 54 3f
       0.82371813 0.22293621 0.12082545 0.82969624
0001b0 a1 48 70 3e f4 13 fb 3d c2 73 5a 3f 25 88 68 3e
       0.23465206 0.12259665 0.8533288 0.22708185
0001c0 b9 8f f4 3d 8d 5e 53 3f 06 9c a8 3d 6c b0 47 3d
       0.119414754 0.8256615 0.08232884 0.048752233
0001d0 5b 2f f0 3e f8 a8 b0 3d f8 2d 34 3d 3c 91 f5 3e
       0.4691113 0.08625978 0.04398915 0.47962368
0001e0 98 7b df 3d a1 47 6d 3d 4d ed 13 3f cd 0b dd 3d
       0.109122455 0.05792964 0.5778397 0.107932664
0001f0 db 2c 4e 3d 41 60 f1 3e 19 f3 1b 3e c8 a1 84 3d
       0.050335746 0.47143748 0.15229453 0.0647617
000200 4a e9 39 3f 7d 15 49 3e ff 7b a7 3d e2 13 25 3f
       0.72621596 0.19637103 0.08177947 0.64483464
000210 69 4c a0 3e 13 74 0c 3e 40 cc 6c 3f 93 df b7 3e
       0.31308296 0.13716154 0.9249916 0.3591276
000220 ea 5f 5d 3e 4b 9f 6d 3f 3c 3f e9 3d d2 4c 81 3d
       0.2161862 0.92821187 0.11389014 0.063134804
000230 c8 1a 2a 3f af 5a 01 3e f1 f9 8a 3d 22 a4 23 3f
       0.66447115 0.1263225 0.06785954 0.6392232
000240 75 f6 6c 3e b5 13 cf 3d 5d a5 60 3f d9 47 b5 3e
       0.23140891 0.10111181 0.87752324 0.35406378
000250 bd a9 32 3e 9f 50 68 3f 05 18 7f 3e 16 29 04 3e
       0.17447563 0.9074802 0.24911506 0.12906298
000260 5d 54 5a 3f 02 84 81 3e 04 6c 45 3e 74 61 5d 3f
       0.8528498 0.25296026 0.19279486 0.86476827
000270 4f 3e 4a 3e 4c 32 94 3d 14 09 39 3f 01 50 41 3e
       0.19750331 0.07236156 0.7227948 0.18878175
000280 1c f5 af 3d 28 68 3e 3f e9 ac 88 3d 6b 0d 21 3d
       0.08591673 0.7437768 0.06673605 0.039319437
000290 0f ae a6 3e f6 19 85 3d 08 84 10 3d 46 ad b3 3e
       0.3255467 0.06499092 0.035282165 0.35093135
0002a0 f2 f5 7e 3d 3f d0 10 3d 79 0a b3 3e 00 12 84 3d
       0.06224627 0.03535485 0.34968928 0.06448746
0002b0 0f 95 0d 3d 22 65 a4 3e 33 1d 72 3e 79 63 03 3e
       0.03456598 0.32108408 0.23643951 0.12830915
0002c0 9e 1e 60 3f 4e d7 64 3e 77 c8 15 3e 98 dd f3 3e
       0.8754672 0.22347757 0.14627253 0.4763
0002d0 d5 ad 48 3e 03 db e0 3d 2a 5e 49 3f cc a7 19 3e
       0.19597562 0.10979273 0.7865931 0.15005416
0002e0 e3 ca fa 3d 5a d4 2f 3f 6c ba 65 3e 6f 4f 03 3e
       0.12245729 0.686834 0.22434396 0.1282327
0002f0 8a d9 4b 3f 39 e6 85 3e 9b 27 39 3e aa ff 48 3f
       0.79628813 0.26152208 0.18081515 0.7851511
000300 9e e2 74 3e e5 c6 ed 3d 64 d6 5b 3f ea 70 75 3e
       0.23914573 0.11610202 0.8587401 0.23968855
000310 1f 94 cf 3d 62 22 5b 3f 40 2d 81 3e 5f 84 fc 3d
       0.10135674 0.8559934 0.25229836 0.12329935
000320 3e 6f 3a 3f 4d 47 82 3e 07 26 dc 3d 88 f9 0d 3f
       0.7282599 0.25445023 0.10749441 0.5545888
000330 7c 3c 53 3e f9 d7 c9 3d fa 17 65 3f f9 20 93 3e
       0.20628542 0.09855647 0.8948971 0.28736094
000340 51 e4 23 3e 89 9c 6b 3f 53 4a 29 3e e3 7b b2 3d
       0.16005065 0.9203573 0.16532259 0.08715036
000350 e8 15 3b 3f b3 17 2a 3e ab 2f 8f 3d 02 8f 21 3f
       0.730803 0.16610603 0.06991514 0.6310884
000360 b0 0c bb 3d 82 04 3e 3d 63 8e 08 3f dc 29 b8 3d
       0.09133279 0.046391018 0.53342265 0.08992359
000370 ac 63 3a 3d 90 a9 fc 3e 6e ab 89 3e fd 55 0a 3e
       0.04550521 0.49348116 0.26888603 0.13509364
000380 60 54 3c 3f ec d2 8d 3e 64 9c 18 3e 6d 06 4d 3f
       0.73566246 0.27699983 0.14903408 0.8008793
000390 b9 11 21 3e 18 71 a2 3d 50 01 3b 3f 37 71 47 3e
       0.15729417 0.07931727 0.7304888 0.19476782
0003a0 55 bc d1 3d 63 0c 3f 3f b4 d5 1c 3e 4f d9 96 3d
       0.102409996 0.74628276 0.15315896 0.07365667
0003b0 12 39 1c 3f ca d9 f6 3d e3 57 09 3e 07 af 0c 3f
       0.6102458 0.12053259 0.13412432 0.5495457
0003c0 25 ff c1 3d bd 39 50 3d 5d 1e 16 3f fb 49 d2 3d
       0.09472493 0.050836314 0.5864008 0.10268017
0003d0 6f db 58 3d 62 82 00 3f 38 50 d2 3d 92 f8 6c 3d
       0.052943643 0.5019895 0.10269207 0.057854243
0003e0 e4 41 2c 3f 6d 3d df 3d 6a 76 70 3d d5 0b 0a 3f
       0.6728804 0.10900388 0.05870668 0.53924304
0003f0 27 85 fe 3d 7d 30 7a 3d c2 f0 26 3f e5 00 e4 3d
       0.124277405 0.0610814 0.6521112 0.11132983

bayes_fc2.weight_mu f4 [1, 64]
000000 0e bc 52 3c b6 b2 dc 3d 35 79 a2 bd 6c 0f fe bd
       0.012862219 0.10776274 -0.07933275 -0.12405285
000010 28 2d ca bd 53 5d b1 3d 5e bd 50 3c 28 a5 81 bd
       -0.09871894 0.08660378 0.012740461 -0.06330329
000020 be 81 e5 bd 43 f1 76 3d 07 e1 f6 3b a3 b1 f9 bd
       -0.11206387 0.06028868 0.0075341496 -0.12192085
000030 43 87 2e bc 4e 6a 03 3e 78 92 cd 3c 46 9f b3 3e
       -0.010652366 0.12833521 0.025094256 0.35082453
000040 f2 7b ce 3d 02 cb 2f bd cc 54 9f bb 44 8c dc 3d
       0.100822344 -0.042918213 -0.0048624035 0.10768941
000050 eb f4 92 bd f2 41 c8 bd 82 bc 49 3d d8 88 92 bd
       -0.07175621 -0.09778203 0.04925204 -0.07155007
000060 e3 85 1c 3d cb ec c7 3c 59 53 13 3e 77 ea 25 3e
       0.03821362 0.024404904 0.14387263 0.16202722
000070 8f 40 1c 3e 20 2c 25 bd 1d 72 05 be 8d 79 92 bc
       0.15259002 -0.040325284 -0.13031812 -0.017880226
000080 fe 8e db bc c5 e4 20 bd 50 21 fd bc ce ef 82 3d
       -0.026801582 -0.03928067 -0.030899674 0.06393395
000090 94 ec a4 bd 33 a1 91 3d e5 f7 00 bd d0 8f 1b 3e
       -0.08052936 0.071108244 -0.03148641 0.15191579
0000a0 f3 21 cf bd ac 09 a1 bd 36 e1 9a bd 68 9c 1e bc
       -0.10113897 -0.07863173 -0.07562487 -0.009680845
0000b0 ce 78 23 bd d4 7d 37 bc f1 eb c8 bd 6a 14 89 bd
       -0.03991013 -0.011199433 -0.09810627 -0.06693347
0000c0 92 13 6d 3d 9e 99 e6 3c b8 fb b9 ba c0 9d 77 bd
       0.05787999 0.028149422 -0.0014189398 -0.060453176
0000d0 8d b9 6b 3d 7f 0e e5 3d a9 bd 57 3c e2 74 d3 3d
       0.057550002 0.111844055 0.013167777 0.10325028
0000e0 8b 92 dc 3d c2 02 b5 3d e1 26 e6 3d 2e cb 74 3d
       0.10770138 0.08838417 0.11237884 0.05976408
0000f0 0c ce 14 bd 9a 2a a2 3d 08 37 f5 bd f2 7f b2 3c
       -0.036329314 0.07918282 -0.11973387 0.021789525

bayes_fc2.weight_rho f4 [1, 64]
000000 4d 98 b3 bf b9 37 4a c0 cf f8 3b c0 94 b7 4a c0
       -1.4030854 -3.159651 -2.937061 -3.1674547
000010 90 8e 49 c0 bb 64 40 c0 74 f1 a7 bf 22 61 41 c0
       -3.1493263 -3.006148 -1.3120561 -3.0215535
000020 a5 ac 48 c0 59 c8 1d c0 19 07 2f c0 39 9a 2f c0
       -3.1355374 -2.4653533 -2.7348082 -2.743788
000030 4f 65 e0 bf 17 4e 52 c0 00 cc e7 bf 4e f4 e7 bf
       -1.7530917 -3.2860162 -1.8109131 -1.8121431
000040 ad 84 4b c0 2f e1 11 c0 b2 35 c9 bf 6a d0 45 c0
       -3.179973 -2.279369 -1.5719512 -3.0908456
000050 08 51 2d c0 b3 6f 0e c0 0e 07 ee bf 68 30 3e c0
       -2.7080708 -2.2255676 -1.8595903 -2.9717045
000060 cb 15 29 c0 e5 9b 0a c0 35 12 6a bf 83 a1 49 c0
       -2.6419551 -2.165765 -0.9143403 -3.150483
000070 f2 79 49 c0 f5 81 96 bf c5 42 b6 bf 71 c5 cd bf
       -3.148068 -1.175841 -1.4239126 -1.6075879
000080 ea b7 13 c0 17 1c a7 bf 9e a0 0c c0 87 fd 30 c0
       -2.3081002 -1.3055447 -2.1973033 -2.765474
000090 be 83 4a c0 8b 27 ce be 8a 13 40 c0 d5 51 94 bf
       -3.164291 -0.40264544 -3.0011926 -1.1587473
0000a0 1d dd 3c c0 85 de 35 c0 08 38 3e c0 a1 7c 03 c0
       -2.9509957 -2.8417065 -2.9721699 -2.0544817
0000b0 95 28 0f c0 01 be bf bf a0 89 c4 bf 7a 9a 3b c0
       -2.236852 -1.497986 -1.53545 -2.9313035
0000c0 26 c0 d9 bf a8 c7 28 c0 58 0a 23 c0 7f f8 2c c0
       -1.7011764 -2.637186 -2.5475063 -2.702667
0000d0 5d a5 d0 bf b6 03 4e c0 de 4b ab bf 71 1d 3d c0
       -1.6300465 -3.2189765 -1.3382528 -2.954922
0000e0 87 3c 3a c0 ed 72 44 c0 4f f8 23 c0 c8 15 3e c0
       -2.9099443 -3.0695145 -2.5620306 -2.9700794
0000f0 c8 fd c2 bf db ef 3f c0 78 75 41 c0 fd e8 14 c0
       -1.5233698 -2.9990146 -3.0227947 -2.3267205

bayes_fc2.prior_mu_old f4 [1, 64]
000000 0e bc 52 3c b6 b2 dc 3d 35 79 a2 bd 6c 0f fe bd
       0.012862219 0.10776274 -0.07933275 -0.12405285
000010 28 2d ca bd 53 5d b1 3d 5e bd 50 3c 28 a5 81 bd
       -0.09871894 0.08660378 0.012740461 -0.06330329
000020 be 81 e5 bd 43 f1 76 3d 07 e1 f6 3b a3 b1 f9 bd
       -0.11206387 0.06028868 0.0075341496 -0.12192085
000030 43 87 2e bc 4e 6a 03 3e 78 92 cd 3c 46 9f b3 3e
       -0.010652366 0.12833521 0.025094256 0.35082453
000040 f2 7b ce 3d 02 cb 2f bd cc 54 9f bb 44 8c dc 3d
       0.100822344 -0.042918213 -0.0048624035 0.10768941
000050 eb f4 92 bd f2 41 c8 bd 82 bc 49 3d d8 88 92 bd
       -0.07175621 -0.09778203 0.04925204 -0.07155007
000060 e3 85 1c 3d cb ec c7 3c 59 53 13 3e 77 ea 25 3e
       0.03821362 0.024404904 0.14387263 0.16202722
000070 8f 40 1c 3e 20 2c 25 bd 1d 72 05 be 8d 79 92 bc
       0.15259002 -0.040325284 -0.13031812 -0.017880226
000080 fe 8e db bc c5 e4 20 bd 50 21 fd bc ce ef 82 3d
       -0.026801582 -0.03928067 -0.030899674 0.06393395
000090 94 ec a4 bd 33 a1 91 3d e5 f7 00 bd d0 8f 1b 3e
       -0.08052936 0.071108244 -0.03148641 0.15191579
0000a0 f3 21 cf bd ac 09 a1 bd 36 e1 9a bd 68 9c 1e bc
       -0.10113897 -0.07863173 -0.07562487 -0.009680845
0000b0 ce 78 23 bd d4 7d 37 bc f1 eb c8 bd 6a 14 89 bd
       -0.03991013 -0.011199433 -0.09810627 -0.06693347
0000c0 92 13 6d 3d 9e 99 e6 3c b8 fb b9 ba c0 9d 77 bd
       0.05787999 0.028149422 -0.0014189398 -0.060453176
0000d0 8d b9 6b 3d 7f 0e e5 3d a9 bd 57 3c e2 74 d3 3d
       0.057550002 0.111844055 0.013167777 0.10325028
0000e0 8b 92 dc 3d c2 02 b5 3d e1 26 e6 3d 2e cb 74 3d
       0.10770138 0.08838417 0.11237884 0.05976408
0000f0 0c ce 14 bd 9a 2a a2 3d 08 37 f5 bd f2 7f b2 3c
       -0.036329314 0.07918282 -0.11973387 0.021789525

bayes_fc2.prior_sigma_small f4 [1, 64]
000000 4e 15 61 3e b1 3f 2a 3d 17 9d 53 3d cb f3 28 3d
       0.21980783 0.041564647 0.051663484 0.041248124
000010 a5 fa 2b 3d ae d2 45 3d 44 29 74 3e 9d de 42 3d
       0.04198708 0.048296623 0.23843867 0.04757558
000020 1b 51 2e 3d 2c 09 a7 3d e1 ca 80 3d 43 5a 7f 3d
       0.042557817 0.08156046 0.06288696 0.06234194
000030 f8 99 23 3e c2 67 16 3d 40 12 1b 3e f7 e4 1a 3e
       0.15976703 0.036720045 0.1514368 0.15126406
000040 8c e4 26 3d 45 90 c7 3d 1f 32 41 3e 07 1c 36 3d
       0.040745303 0.09744314 0.18866776 0.044460323
000050 1a 2c 84 3d 13 0c d2 3d 22 36 14 3e c8 95 4c 3d
       0.06453724 0.10256209 0.14473775 0.04994753
000060 fd e6 8c 3d 30 50 de 3d 2e 8f ac 3e cf c8 2b 3d
       0.06879995 0.10855138 0.33702987 0.041939553
000070 ef 30 2c 3d c7 b0 89 3e ea e8 5c 3e 64 03 3b 3e
       0.042038854 0.26892683 0.21573225 0.18263012
000080 c7 2b c2 3d 4e 94 75 3e 21 c3 d7 3d d6 09 7a 3d
       0.09481006 0.23982355 0.10535265 0.061044537
000090 0e 7a 29 3d 73 0f 03 3f 42 c8 46 3d 8d c4 8b 3e
       0.041376166 0.5119545 0.048530824 0.27298394
0000a0 3a c2 50 3d 28 32 68 3d 03 7e 4c 3d 7b f6 f6 3d
       0.05096648 0.056688458 0.04992486 0.12058731
0000b0 4d ce cf 3d ad 9f 4e 3e 63 b8 47 3e e9 cd 54 3d
       0.101467706 0.20178099 0.19503932 0.051954184
0000c0 7d a0 2b 3e 99 8d 8d 3d 77 58 9a 3d 9e dd 84 3d
       0.1676044 0.06911773 0.075364046 0.064875826
0000d0 cc 35 37 3e d6 a1 20 3d 5f 87 6e 3e 09 f6 4f 3d
       0.17891616 0.03921684 0.23293827 0.050771747
0000e0 60 47 59 3d b0 f2 39 3d 60 33 98 3d de e8 4c 3d
       0.053046584 0.04539746 0.07431674 0.050026767
0000f0 52 ec 49 3e 8e 34 47 3d 2f a2 42 3d 2b c0 be 3d
       0.19719055 0.048634104 0.04751795 0.09313997
