models/updated_hmnn_model_1985_1999.pth (torch, 14090 bytes, 12 tensors)

bayes_fc1.weight_mu f4 [64, 6]
-0.32419494 -0.54107505 -0.25480467 -0.4109366 -0.40394127 -0.24617438 0.4953949 -0.12766503
0.7402549 -0.42097148 0.122672915 -0.4577659 -0.38383913 0.2086166 -0.49925277 0.23404922
-0.18805447 0.40652856 -0.3628961 0.21232416 -0.9656025 0.4096831 -0.11797325 -0.10698253
-0.36233315 0.22961216 -0.67922044 0.36477172 -0.17190996 0.3181328 0.17849025 -0.19395524
1.0258249 -0.26826954 0.20845486 0.36582297 -0.4235233 -0.3862802 -0.1919699 -0.3311447
-0.38606268 -0.173765 -0.43605897 0.23289146 -0.06582938 -0.1505338 -0.38707212 0.680741
-0.2917734 0.14045264 -0.90442365 0.47291955 -0.14660019 -0.11095717 -0.44404408 -0.37243545
-0.123190604 -0.1756785 0.10886241 0.70219153 -0.36483392 -0.32446256 -0.123737454 -0.40040907
-0.14290397 -0.1326191 -0.21980816 0.09369344 -1.0783103 0.4576725 -0.07596085 -0.22523892
-0.3563042 -0.16601907 -0.23883511 -0.2975568 -0.45645398 -0.2535479 0.424762 -0.1410326
0.661791 -0.35243353 0.18879037 -0.108268216 -0.20962976 -0.22734483 -0.26548904 -0.3264084
-0.48386243 -0.13474159 -0.9322446 -0.22441384 -0.5610456 -0.07868306 0.056022648 0.7075126
0.26448154 -0.20169413 1.0717005 -0.34515774 0.21204345 0.24097368 -0.39512005 -0.10721523
-0.14688276 -0.1974293 -0.27908158 -0.1115234 -0.33232328 -0.34512568 -0.18375354 -0.3334916
-0.37495807 -0.16140358 0.29991046 -0.12366635 0.9595323 -0.34431207 0.20108439 -0.05895374
-0.24222742 0.06008814 -0.60091776 0.26937208 -0.14450493 0.0040375195 -0.40392497 0.082203634
-0.07841915 -0.33594346 -0.25143975 0.20085306 -0.19216582 -0.3577877 -4.6158075e-06 -0.50713646
-0.5833458 -0.20789193 -0.39133054 0.16489427 -0.4595935 0.22922544 -0.1532328 0.22958499
-0.1830486 -0.24992707 -0.09907287 -0.41002497 -0.4165063 -0.20998363 -0.29629806 -0.38223094
-0.19309042 -0.13131283 -0.47947705 -0.12028931 -0.33168966 -0.2691375 -0.28523174 -0.29315338
-0.19806924 -0.25339532 0.19145067 -0.119618334 0.89358366 -0.3070288 0.20696433 0.3131497
0.2963071 -0.17828052 0.79914707 -0.27167737 0.13157906 0.3887128 -0.255604 -0.3928041
-0.21058482 -0.27376837 -0.37601152 -0.2725738 -0.33004412 -0.24554572 -0.26451552 -0.12993778
-0.31697473 -0.28829086 -0.35064214 -0.33076507 -0.21201044 -0.27516273 -0.4469943 -0.14772071
-0.24632451 -0.32305762 -0.26460722 -0.28972048 -0.23778765 -0.11915134 -0.39429954 -0.29438293
-0.20850253 -0.32476836 -0.31480995 -0.1790128 -0.26073524 -0.1051903 -0.13286373 -0.3094312
-0.39420938 -0.09562788 -0.15268499 -0.2734496 0.23615131 -0.4199594 0.15097803 0.44525912
-0.427878 0.27303407 -0.8342608 0.28221393 -0.12601887 0.20411016 -0.44315973 -0.45404026
-0.2426097 -0.46047288 -0.3567636 -0.2352299 -0.31322208 0.18220687 0.08638906 -0.16866934
-0.32849455 0.23991974 -0.285357 -0.22663197 -0.27730638 -0.18045801 -0.2975461 -0.010260064
-0.32630154 0.19036774 -0.86863315 0.32679814 -0.12737617 0.20375577 -0.3412316 0.12286032
-0.5012444 0.25784075 -0.15347412 0.097235605 -0.2763672 0.11450193 -0.85381913 0.47033852
00000000: e1fc a5be e583 0abf c275 82be 4866 d2be
00000010: 64d1 cebe 2315 7cbe 66a4 fd3e 9fba 02be
00000020: 5881 3d3f 9389 d7be f03b fb3d 4b60 eabe
00000030: 9086 c4be 979f 553e 0f9e ffbe 99aa 6f3e
00000040: 5a91 40be 8324 d03e 85cd b9be 816b 593e
00000050: ba31 77bf fcc1 d13e f69b f1bd a819 dbbd
00000060: bb83 b9be 731f 6b3e 64e1 2dbf 5cc3 ba3e
00000070: 2a09 30be 4de2 a23e 26c6 363e 349c 46be
00000080: 3b4e 833f a05a 89be 3175 553e 264d bb3e
00000090: 0cd8 d8be 85c6 c5be c293 44be cc8b a9be
000000a0: 02aa c5be 74ef 31be 1f43 dfbe 197b 6e3e
000000b0: 8ed1 86bd 8825 1abe 512e c6be 0b45 2e3f
000000c0: 5363 95be d1d2 0f3e 4f88 67bf 8322 f23e
000000d0: 5c1e 16be 833d e3bd bf59 e3be dcaf bebe
000000e0: 5b4b fcbd 11e5 33be 41f3 de3d d3c2 333f
000000f0: 83cb babe f51f a6be 106a fdbd 6b02 cdbe
00000100: 6b55 12be 4dcd 07be 6415 61be 59e2 bf3d
00000110: 1206 8abf 0d54 ea3e 5d91 9bbd 08a5 66be
00000120: 816d b6be e700 2abe 3191 74be 5d59 98be
00000130: 56b4 e9be 08d1 81be 687a d93e da6a 10be
00000140: 236b 293f 2b72 b4be 4352 413e babb ddbd
00000150: 2fa9 56be 15cd 68be 2eee 87be 001f a7be
00000160: d1bc f7be b3f9 09be 95a7 6ebf becc 65be
00000170: afa0 0fbf 9624 a1bd 0178 653d 8c1f 353f
00000180: 206a 873e e888 4ebe 7b2d 893f 84b8 b0be
00000190: eb21 593e cec1 763e 2d4d cabe a993 dbbd
000001a0: 6f68 16be e82a 4abe c8e3 8ebe 6166 e4bd
000001b0: 4726 aabe 50b4 b0be e329 3cbe 69bf aabe
000001c0: 81fa bfbe fb46 25be dd8d 993e c944 fdbd
000001d0: e9a3 753f ac49 b0be 11e9 4d3e 7a79 71bd
000001e0: 770a 78be fb1e 763d bfd5 19bf 23eb 893e
000001f0: 1af9 13be 2b4d 843b 41cf cebe 615a a83d
00000200: 389a a0bd c800 acbe b6bc 80be 6dac 4d3e
00000210: 1ec7 44be f32f b7be 7ce1 9ab6 b2d3 01bf
00000220: 2656 15bf 9fe1 54be 7a5c c8be 0bda 283e
00000230: d74f ebbe 13ba 6a3e 0fe9 1cbe 5418 6b3e
00000240: 1871 3bbe e2ec 7fbe b8e6 cabd cbee d1be
00000250: 5040 d5be f305 57be 61b4 97be c6b3 c3be
00000260: 7fb9 45be df76 06be 047e f5be 3e5a f6bd
00000270: 3ad3 a9be 64cc 89be e509 92be 3318 96be
00000280: aad2 4abe 08bd 81be a50b 443e 75fa f4bd
00000290: e6c1 643f e132 9dbe 75ee 533e 2855 a03e
000002a0: 90b5 973e 2b8f 36be e794 4c3f 4c19 8bbe
000002b0: a9bc 063e 5d05 c73e 87de 82be 9e1d c9be
000002c0: 8ca3 57be 5e2b 8cbe 9584 c0be cb8e 8bbe
000002d0: 8bfb a8be 5670 7bbe 946e 87be 690e 05be
000002e0: 834a a2be dc9a 93be 5e87 b3be 0a5a a9be
000002f0: 4419 59be 21e2 8cbe 70dc e4be 1944 17be
00000300: 7e3c 7cbe cf67 a5be 997a 87be 3e56 94be
00000310: 9b7e 73be 9e05 f4bd a1e1 c9be 5cb9 96be
00000320: b081 55be 0a48 a6be c52e a1be 224f 37be
00000330: 177f 85be 036e d7bd 6e0d 08be c46d 9ebe
00000340: d0d5 c9be 8dd8 c3bd 7459 1cbe 9601 8cbe
00000350: a6d1 713e eb04 d7be fc99 1a3e 01f9 e33e
00000360: d312 dbbe 1fcb 8b3e 1e92 55bf 587e 903e
00000370: 170b 01be 4102 513e d5e5 e2be f777 e8be
00000380: ad6e 78be 1ac3 ebbe b8a9 b6be 1be0 70be
00000390: a55e a0be 7094 3a3e bfec b03d a8b7 2cbe
000003a0: 7030 a8be 85ad 753e 501a 92be 3612 68be
000003b0: 1afb 8dbe fcc9 38be f657 98be d419 28bc
000003c0: ff10 a7be c3ef 423e be5e 5ebf 1652 a73e
000003d0: e66e 02be 5aa5 503e e9b5 aebe 319e fb3d
000003e0: 8e51 00bf b403 843e 5228 1dbe 7623 c73d
000003f0: 0080 8dbe fd7f ea3d e493 5abf 36d0 f03e

bayes_fc1.weight_rho f4 [64, 6]
-1.0721693 -1.4438524 0.3289478 -0.92287594 -1.7769521 0.36811864 -2.9562263 -3.8606405
-0.35946524 -2.7063017 -3.6042256 -0.27914563 -2.551054 -3.6700428 0.010595503 -2.3789966
-3.1800034 -0.3094851 -3.0473049 -3.9715352 -0.59666157 -3.1556456 -3.8664088 -0.6726919
-2.7654278 -3.6708267 -0.27567062 -2.7935069 -3.6477442 -0.61317384 -2.5928524 -3.6769404
-0.7933905 -2.965405 -3.8526647 -0.41391572 -1.0620507 -1.7594675 0.3570034 -0.9753668
-1.490752 0.25773123 -2.1388078 -3.182924 0.1779697 -1.5716082 -2.4235415 0.13600023
-2.8918147 -3.7485166 -0.39441502 -2.8971152 -3.6774046 -0.5407001 -1.4856678 -2.520758
0.039159182 -2.234034 -2.823915 0.17821789 -0.8821988 -1.9551948 0.44133663 -1.1065371
-1.9918976 0.42567557 -2.7263312 -3.8099093 -0.5051875 -2.911935 -3.8461227 -0.33743656
-1.1548907 -2.1550617 0.33170033 -1.1416677 -1.5695179 0.290921 -3.1572409 -4.066684
-0.690859 -3.1932917 -4.034149 -0.5302943 -1.4366115 -2.3717062 0.24047151 -0.98076105
-1.6965683 0.33231556 -1.7190495 -3.5934339 -0.7569611 -3.495671 -4.3987513 -1.6398258
-2.5370758 -3.4694092 -0.41123325 -2.7915146 -3.6972034 -0.35012126 -1.3022623 -2.0946822
0.28489092 -0.97313213 -2.0662239 0.3128383 -1.0451692 -1.9422098 0.35170257 -1.135687
-1.8948115 0.3602459 -3.148484 -4.031328 -0.80066067 -3.1612885 -3.824839 -0.7180459
-2.220612 -3.1827526 -0.18814012 -2.4534707 -3.163531 -0.09434548 -2.0518706 -2.90394
0.30021626 -1.4390104 -2.5557034 0.14214388 -0.90068537 -1.6436535 0.57868004 -0.7470359
-1.5980912 0.3412078 -2.1901824 -3.2283833 0.20562464 -2.1784573 -3.194896 -0.2053813
-1.0500159 -1.7438484 0.47455063 -0.94168234 -1.606218 0.42293298 -1.0789237 -1.8218864
0.36298198 -1.1283711 -1.6081883 0.40326533 -1.2351725 -2.210387 -0.023630386 -1.6042536
-2.4710326 0.033109874 -2.8923457 -3.855632 -0.87708604 -3.0867827 -4.028684 -0.72446007
-3.017335 -3.8523679 -0.80805844 -3.105039 -4.0415955 -0.85742503 -1.4141505 -1.8192488
0.3269322 -1.2867607 -1.7093174 0.084422156 -1.2517503 -2.0135624 0.3257767 -1.7239227
-1.9525367 0.16999847 -1.0293874 -1.8186237 0.46598879 -1.0813204 -1.5145962 0.36607417
-1.1814698 -1.8832504 0.34741524 -1.1685193 -1.9562635 0.45317394 -1.2042371 -1.7702147
0.2722112 -1.0991488 -2.0396178 0.344432 -1.5364019 -2.1604543 0.41724023 -1.040223
-1.9492608 0.3630207 -1.6140896 -2.6460643 0.2774841 -1.8517426 -2.9773436 0.13554397
-2.939476 -3.9416013 -0.30694962 -2.791095 -3.7268634 -0.70529914 -1.0646112 -1.6082859
0.19993624 -1.0817112 -1.8982537 0.327021 -1.5494719 -2.6718116 0.5231309 -1.3435295
-2.1270685 0.34541345 -1.4617779 -2.3877957 0.06005694 -1.7557379 -1.9102612 0.005012663
-2.9312518 -3.8914583 -0.5103059 -3.130848 -3.854905 -0.62069845 -2.281829 -3.3737354
0.0030971437 -2.2759454 -3.2062385 -0.12235237 -2.6102388 -3.3764358 -0.11683089 -2.7262108
00000000: d83c 89bf 28d0 b8bf d96b a83e 9941 6cbf
00000010: 2b73 e3bf 0c7a bc3e d032 3dc0 bc14 77c0
00000020: d40b b8be 0c34 2dc0 a2ab 66c0 2dec 8ebe
00000030: 7844 23c0 fbe1 6ac0 c398 2d3c 7b41 18c0
00000040: 2d85 4bc0 d574 9ebe 0b07 43c0 a22d 7ec0
00000050: d0be 18bf 19f6 49c0 3e73 77c0 8935 2cbf
00000060: c5fc 30c0 d3ee 6ac0 b324 8dbe d1c8 32c0
00000070: a474 69c0 f6f8 1cbf 4bf1 25c0 fe52 6bc0
00000080: a41b 4bbf 32c9 3dc0 0f92 76c0 c3ec d3be
00000090: 47f1 87bf 3b36 e1bf 26c9 b63e a3b1 79bf
000000a0: f6d0 bebf 59f5 833e 3ae2 08c0 07b5 4bc0
000000b0: b03d 363e 752a c9bf 4e1b 1bc0 a543 0b3e
000000c0: 7e13 39c0 b2e7 6fc0 c4f0 c9be 566a 39c0
000000d0: 995a 6bc0 526b 0abf 5d2a bebf 1954 21c0
000000e0: 6165 203d 6afa 0ec0 06bb 34c0 c07e 363e
000000f0: c8d7 61bf d343 fabf e0f6 e13e 02a3 8dbf
00000100: 80f6 febf 26f2 d93e 367c 2ec0 8ed5 73c0
00000110: f853 01bf 255d 3ac0 e026 76c0 7cc4 acbe
00000120: 75d3 93bf 88ec 09c0 a0d4 a93e 2b22 92bf
00000130: f6e5 c8bf 99f3 943e 3c10 4ac0 4622 82c0
00000140: 23dc 30bf e45e 4cc0 c017 81c0 5ec1 07bf
00000150: e3e2 b7bf 09ca 17c0 2a3e 763e 2813 7bbf
00000160: 2629 d9bf 4425 aa3e d009 dcbf d2fa 65c0
00000170: 34c8 41bf 13b9 5fc0 92c2 8cc0 d0e5 d1bf
00000180: 735f 22c0 cd0a 5ec0 2a8d d2be 2da8 32c0
00000190: fb9e 6cc0 1843 b3be 88b0 a6bf 460f 06c0
000001a0: 39dd 913e 301f 79bf 033d 04c0 572c a03e
000001b0: 1bc8 85bf 559a f8bf 5c12 b43e 315e 91bf
000001c0: 2f89 f2bf 2772 b83e c380 49c0 a400 81c0
000001d0: 19f8 4cbf 8d52 4ac0 2aca 74c0 dbd1 37bf
000001e0: 821e 0ec0 38b2 4bc0 cea7 40be aa05 1dc0
000001f0: 4b77 4ac0 3438 c1bd d951 03c0 27da 39c0
00000200: f2b5 993e 7e31 b8bf a590 23c0 2a8e 113e
00000210: 5193 66bf 3d63 d2bf 6024 143f bf3d 3fbf
00000220: 418e ccbf cab2 ae3e f32b 0cc0 d59d 4ec0
00000230: 448f 523e d86b 0bc0 2d79 4cc0 7a4f 52be
00000240: ec66 86bf 6d36 dfbf 4df8 f23e 1812 71bf
00000250: 8d98 cdbf ac8a d83e 2c1a 8abf 9333 e9bf
00000260: c6d8 b93e 776e 90bf 1dd9 cdbf cb78 ce3e
00000270: 221a 9ebf fb76 0dc0 8394 c1bc 2f58 cdbf
00000280: 6625 1ec0 389e 073d 311c 39c0 adc2 76c0
00000290: b688 60bf d98d 45c0 fbea 80c0 3776 39bf
000002a0: 041c 41c0 328d 76c0 ebdc 4ebf f5b8 46c0
000002b0: c054 81c0 3580 5bbf e202 b5bf 25dd e8bf
000002c0: a863 a73e 93b4 a4bf eaca dabf 86e5 ac3d
000002d0: 5b39 a0bf 35de 00c0 34cc a63e 80a9 dcbf
000002e0: b9ec f9bf 1414 2e3e f7c2 83bf a9c8 e8bf
000002f0: 1596 ee3e b568 8abf 4ade c1bf 136e bb3e
00000300: 673a 97bf 590e f1bf 69e0 b13e 0a92 95bf
00000310: d866 fabf 6a06 e83e 7124 9abf 6596 e2bf
00000320: 445f 8b3e e8b0 8cbf 1989 02c0 6459 b03e
00000330: d1a8 c4bf e244 0ac0 83a0 d53e 0726 85bf
00000340: 6181 f9bf d9dd b93e 7d9a cebf 1e59 29c0
00000350: 6512 8e3e e705 edbf cc8c 3ec0 0acc 0a3e
00000360: 6020 3cc0 3243 7cc0 8028 9dbe 4da1 32c0
00000370: ee84 6ec0 7c8e 34bf 2e45 88bf 50dc cdbf
00000380: 16bc 4c3e 8375 8abf faf9 f2bf 4c6f a73e
00000390: 1855 c6bf f6fe 2ac0 e8eb 053f c6f8 abbf
000003a0: e421 08c0 08da b03e 8a1b bbbf a5d1 18c0
000003b0: 44fe 753d 05bc e0bf 7083 f4bf 4441 a43b
000003c0: a199 3bc0 a70d 79c0 68a3 02bf d05f 48c0
000003d0: c3b6 76c0 18e6 1ebf 7d09 12c0 48eb 57c0
000003e0: 73f9 4a3b 17a9 11c0 0333 4dc0 e193 fabd
000003f0: 270e 27c0 8617 58c0 0945 efbd 3d7a 2ec0

bayes_fc1.bias_mu f4 [64]
0.017287169 0.08593488 -0.009708746 -0.060127042 -0.041179728 0.16291809 -0.014567629 0.061790224
-0.08377291 0.2830495 5.4737768e-05 -0.11438878 -0.010244614 0.074926764 -0.034633353 1.1458576
0.1301497 -0.0018577774 -0.050988838 0.080949135 -0.06478108 0.027614856 -0.01295781 -0.042090636
-0.046339102 -0.05551257 -0.037275434 0.087756485 0.10244362 -0.026544403 -0.009760249 -0.053578675
-0.00081029267 0.021009997 -0.014485518 0.27848387 -0.062967956 0.0018026973 0.075876065 -0.02630813
-0.06253988 0.033425108 -0.12066946 -0.0039977757 -0.043373298 -0.0050732554 -0.041414965 0.06628901
0.010481327 -0.01766582 -0.062765025 0.04420231 -0.006905345 0.04005444 -0.045383513 0.10298823
0.09757966 0.12517105 0.21742299 0.2651303 -0.048719462 0.14700092 -0.072706655 0.020422963
00000000: d29d 8d3c a0fe af3d 6f11 1fbc c647 76bd
00000010: 13ac 28bd 00d4 263e 11ad 6ebc bf17 7d3d
00000020: 2291 abbd ddeb 903e 3b96 6538 aa44 eabd
00000030: 07d9 27bc 3473 993d b4db 0dbd 76ab 923f
00000040: f745 053e aa80 f3ba acd9 50bd a9c8 a53d
00000050: f1ab 84bd 8d38 e23c ff4c 54bc 3b67 2cbd
00000060: 12ce 3dbd 2661 63bd 20ae 18bd acb9 b33d
00000070: f6cd d13d a673 d9bc 74e9 1fbc 5075 5bbd
00000080: d269 54ba 281d ac3c ab54 6dbc 7095 8e3e
00000090: 58f5 80bd 7c48 ec3a e964 9b3d 2684 d7bc
000000a0: e914 80bd c4e8 083d 8d21 f7bd c6ff 82bb
000000b0: 33a8 31bd 8d3d a6bb bda2 29bd 88c2 873d
000000c0: dfb9 2b3c e9b7 90bc f38a 80bd 7b0d 353d
000000d0: 3b46 e2bb 2010 243d 10e4 39bd 7eeb d23d
000000e0: d8d7 c73d d72c 003e 22a4 5e3e 29bf 873e
000000f0: 0f8e 47bd 6987 163e 3ae7 94bd 0f4e a73c

bayes_fc1.bias_rho f4 [64]
-0.4663992 -1.5328914 -1.4184395 -1.7190468 -1.5807685 -1.504713 -0.5203317 -0.9083926
-1.61715 -0.62224233 -0.4592602 -1.5243357 -0.54022294 -1.7498316 -0.5977029 -1.7742975
-1.3633888 -0.5814182 -0.5485852 -1.7113701 -1.2235559 -0.8406528 -0.32866883 -1.1122532
-0.3930172 -0.4792166 -0.9427803 -1.8071002 -1.7265365 -0.6938384 -0.6764291 -0.51873773
-0.49069646 -0.57763803 -0.44988313 -0.6688352 -1.5891573 -0.605726 -0.58227533 -0.8786907
-1.7862862 -1.1869794 -1.3780687 -0.56541103 -0.5038412 -0.52285993 -0.86593926 -1.1535447
-0.62927866 -0.4699068 -0.57665837 -0.7760441 -0.4633874 -2.1104128 -0.5363315 -1.6681185
-1.3850235 -1.5240245 -1.2904904 -0.7563316 -0.5792773 -1.5366578 -1.6172734 -0.48868456
00000000: e0cb eebe c935 c4bf 6d8f b5bf ba09 dcbf
00000010: 9f56 cabf 709a c0bf 7534 05bf 6b8c 68bf
00000020: c5fe cebf 464b 1fbf 2724 ebbe 6f1d c3bf
00000030: 0d4c 0abf 7bfa dfbf 0f03 19bf 2e1c e3bf
00000040: 8683 aebf d3d7 14bf 1470 0cbf 2d0e dbbf
00000050: 7b9d 9cbf 0635 57bf 4847 a8be 505e 8ebf
00000060: 8d39 c9be e15b f5be 0d5a 71bf 0f4f e7bf
00000070: 26ff dcbf 659f 31bf 752a 2dbf ffcb 04bf
00000080: 913c fbbe 16e0 13bf 1557 e6be c938 2bbf
00000090: 8269 cbbf dc10 1bbf ff0f 15bf e0f1 60bf
000000a0: 07a5 e4bf f1ee 97bf 8e64 b0bf c7be 10bf
000000b0: bdfb 00bf 26da 05bf 32ae 5dbf 5aa7 93bf
000000c0: 6818 21bf a097 f0be e29f 13bf d3aa 46bf
000000d0: 1d41 edbe 0111 07c0 054d 09bf e884 d5bf
000000e0: 7348 b1bf 3c13 c3bf ca2e a5bf f39e 41bf
000000f0: 844b 14bf 34b1 c4bf d102 cfbf dd34 fabe

bayes_fc1.prior_mu_old_bias f4 [64]
0.017287169 0.08593488 -0.009708746 -0.060127042 -0.041179728 0.16291809 -0.014567629 0.061790224
-0.08377291 0.2830495 5.4737768e-05 -0.11438878 -0.010244614 0.074926764 -0.034633353 1.1458576
0.1301497 -0.0018577774 -0.050988838 0.080949135 -0.06478108 0.027614856 -0.01295781 -0.042090636
-0.046339102 -0.05551257 -0.037275434 0.087756485 0.10244362 -0.026544403 -0.009760249 -0.053578675
-0.00081029267 0.021009997 -0.014485518 0.27848387 -0.062967956 0.0018026973 0.075876065 -0.02630813
-0.06253988 0.033425108 -0.12066946 -0.0039977757 -0.043373298 -0.0050732554 -0.041414965 0.06628901
0.010481327 -0.01766582 -0.062765025 0.04420231 -0.006905345 0.04005444 -0.045383513 0.10298823
0.09757966 0.12517105 0.21742299 0.2651303 -0.048719462 0.14700092 -0.072706655 0.020422963
00000000: d29d 8d3c a0fe af3d 6f11 1fbc c647 76bd
00000010: 13ac 28bd 00d4 263e 11ad 6ebc bf17 7d3d
00000020: 2291 abbd ddeb 903e 3b96 6538 aa44 eabd
00000030: 07d9 27bc 3473 993d b4db 0dbd 76ab 923f
00000040: f745 053e aa80 f3ba acd9 50bd a9c8 a53d
00000050: f1ab 84bd 8d38 e23c ff4c 54bc 3b67 2cbd
00000060: 12ce 3dbd 2661 63bd 20ae 18bd acb9 b33d
00000070: f6cd d13d a673 d9bc 74e9 1fbc 5075 5bbd
00000080: d269 54ba 281d ac3c ab54 6dbc 7095 8e3e
00000090: 58f5 80bd 7c48 ec3a e964 9b3d 2684 d7bc
000000a0: e914 80bd c4e8 083d 8d21 f7bd c6ff 82bb
000000b0: 33a8 31bd 8d3d a6bb bda2 29bd 88c2 873d
000000c0: dfb9 2b3c e9b7 90bc f38a 80bd 7b0d 353d
000000d0: 3b46 e2bb 2010 243d 10e4 39bd 7eeb d23d
000000e0: d8d7 c73d d72c 003e 22a4 5e3e 29bf 873e
000000f0: 0f8e 47bd 6987 163e 3ae7 94bd 0f4e a73c

bayes_fc1.prior_sigma_small_bias f4 [64]
0.48689568 0.19549316 0.21679665 0.16486754 0.18715724 0.20055515 0.46644944 0.33873522
0.18104035 0.42966297 0.48965356 0.19701776 0.45908067 0.16024908 0.43830252 0.156664
0.22776683 0.44411185 0.45601034 0.16603816 0.257879 0.3586731 0.5422553 0.28428927
0.51582336 0.48197442 0.3289751 0.1519735 0.16373277 0.40523475 0.41106892 0.4670439
0.47759962 0.44546908 0.49329448 0.41363496 0.18573034 0.43546274 0.4438046 0.34736013
0.1549344 0.26631153 0.22479412 0.44988164 0.4726285 0.46550772 0.35111892 0.2742293
0.42721105 0.48554504 0.44582137 0.37858918 0.4880577 0.11438877 0.46051502 0.17277749
0.22339787 0.19707343 0.24305269 0.38484403 0.44488013 0.1948254 0.18101989 0.47836405
00000000: 644a f93e 5c2f 483e f1ff 5d3e 09d3 283e
00000010: 26a6 3f3e 545e 4d3e 76d2 ee3e b46e ad3e
00000020: a462 393e c9fc db3e dfb3 fa3e 06bf 493e
00000030: 9f0c eb3e 5618 243e 3069 e03e 876c 203e
00000040: b53b 693e a162 e33e 307a e93e e805 2a3e
00000050: b708 843e 00a4 b73e 3ed1 0a3f 5d8e 913e
00000060: 000d 043f 5ac5 f63e 6d6f a83e f19e 1b3e
00000070: 90a9 273e ee7a cf3e a077 d23e 6120 ef3e
00000080: f087 f43e 8614 e43e 1891 fc3e f6c7 d33e
00000090: 1830 3e3e f9f4 de3e 5b3a e33e 30d9 b13e
000000a0: 20a7 1e3e fc59 883e 6e30 663e e356 e63e
000000b0: 5dfc f13e 0757 ee3e dcc5 b33e c867 8c3e
000000c0: 68bb da3e 5c99 f83e b342 e43e 71d6 c13e
000000d0: b3e2 f93e a944 ea3d a0c8 eb3e 95ec 303e
000000e0: 69c2 643e 9ecd 493e cee2 783e 470a c53e
000000f0: 54c7 e33e 4f80 473e 475d 393e 22ec f43e

bayes_fc1.prior_mu_old f4 [64, 6]
-0.32419494 -0.54107505 -0.25480467 -0.4109366 -0.40394127 -0.24617438 0.4953949 -0.12766503
0.7402549 -0.42097148 0.122672915 -0.4577659 -0.38383913 0.2086166 -0.49925277 0.23404922
-0.18805447 0.40652856 -0.3628961 0.21232416 -0.9656025 0.4096831 -0.11797325 -0.10698253
-0.36233315 0.22961216 -0.67922044 0.36477172 -0.17190996 0.3181328 0.17849025 -0.19395524
1.0258249 -0.26826954 0.20845486 0.36582297 -0.4235233 -0.3862802 -0.1919699 -0.3311447
-0.38606268 -0.173765 -0.43605897 0.23289146 -0.06582938 -0.1505338 -0.38707212 0.680741
-0.2917734 0.14045264 -0.90442365 0.47291955 -0.14660019 -0.11095717 -0.44404408 -0.37243545
-0.123190604 -0.1756785 0.10886241 0.70219153 -0.36483392 -0.32446256 -0.123737454 -0.40040907
-0.14290397 -0.1326191 -0.21980816 0.09369344 -1.0783103 0.4576725 -0.07596085 -0.22523892
-0.3563042 -0.16601907 -0.23883511 -0.2975568 -0.45645398 -0.2535479 0.424762 -0.1410326
0.661791 -0.35243353 0.18879037 -0.108268216 -0.20962976 -0.22734483 -0.26548904 -0.3264084
-0.48386243 -0.13474159 -0.9322446 -0.22441384 -0.5610456 -0.07868306 0.056022648 0.7075126
0.26448154 -0.20169413 1.0717005 -0.34515774 0.21204345 0.24097368 -0.39512005 -0.10721523
-0.14688276 -0.1974293 -0.27908158 -0.1115234 -0.33232328 -0.34512568 -0.18375354 -0.3334916
-0.37495807 -0.16140358 0.29991046 -0.12366635 0.9595323 -0.34431207 0.20108439 -0.05895374
-0.24222742 0.06008814 -0.60091776 0.26937208 -0.14450493 0.0040375195 -0.40392497 0.082203634
-0.07841915 -0.33594346 -0.25143975 0.20085306 -0.19216582 -0.3577877 -4.6158075e-06 -0.50713646
-0.5833458 -0.20789193 -0.39133054 0.16489427 -0.4595935 0.22922544 -0.1532328 0.22958499
-0.1830486 -0.24992707 -0.09907287 -0.41002497 -0.4165063 -0.20998363 -0.29629806 -0.38223094
-0.19309042 -0.13131283 -0.47947705 -0.12028931 -0.33168966 -0.2691375 -0.28523174 -0.29315338
-0.19806924 -0.25339532 0.19145067 -0.119618334 0.89358366 -0.3070288 0.20696433 0.3131497
0.2963071 -0.17828052 0.79914707 -0.27167737 0.13157906 0.3887128 -0.255604 -0.3928041
-0.21058482 -0.27376837 -0.37601152 -0.2725738 -0.33004412 -0.24554572 -0.26451552 -0.12993778
-0.31697473 -0.28829086 -0.35064214 -0.33076507 -0.21201044 -0.27516273 -0.4469943 -0.14772071
-0.24632451 -0.32305762 -0.26460722 -0.28972048 -0.23778765 -0.11915134 -0.39429954 -0.29438293
-0.20850253 -0.32476836 -0.31480995 -0.1790128 -0.26073524 -0.1051903 -0.13286373 -0.3094312
-0.39420938 -0.09562788 -0.15268499 -0.2734496 0.23615131 -0.4199594 0.15097803 0.44525912
-0.427878 0.27303407 -0.8342608 0.28221393 -0.12601887 0.20411016 -0.44315973 -0.45404026
-0.2426097 -0.46047288 -0.3567636 -0.2352299 -0.31322208 0.18220687 0.08638906 -0.16866934
-0.32849455 0.23991974 -0.285357 -0.22663197 -0.27730638 -0.18045801 -0.2975461 -0.010260064
-0.32630154 0.19036774 -0.86863315 0.32679814 -0.12737617 0.20375577 -0.3412316 0.12286032
-0.5012444 0.25784075 -0.15347412 0.097235605 -0.2763672 0.11450193 -0.85381913 0.47033852
00000000: e1fc a5be e583 0abf c275 82be 4866 d2be
00000010: 64d1 cebe 2315 7cbe 66a4 fd3e 9fba 02be
00000020: 5881 3d3f 9389 d7be f03b fb3d 4b60 eabe
00000030: 9086 c4be 979f 553e 0f9e ffbe 99aa 6f3e
00000040: 5a91 40be 8324 d03e 85cd b9be 816b 593e
00000050: ba31 77bf fcc1 d13e f69b f1bd a819 dbbd
00000060: bb83 b9be 731f 6b3e 64e1 2dbf 5cc3 ba3e
00000070: 2a09 30be 4de2 a23e 26c6 363e 349c 46be
00000080: 3b4e 833f a05a 89be 3175 553e 264d bb3e
00000090: 0cd8 d8be 85c6 c5be c293 44be cc8b a9be
000000a0: 02aa c5be 74ef 31be 1f43 dfbe 197b 6e3e
000000b0: 8ed1 86bd 8825 1abe 512e c6be 0b45 2e3f
000000c0: 5363 95be d1d2 0f3e 4f88 67bf 8322 f23e
000000d0: 5c1e 16be 833d e3bd bf59 e3be dcaf bebe
000000e0: 5b4b fcbd 11e5 33be 41f3 de3d d3c2 333f
000000f0: 83cb babe f51f a6be 106a fdbd 6b02 cdbe
00000100: 6b55 12be 4dcd 07be 6415 61be 59e2 bf3d
00000110: 1206 8abf 0d54 ea3e 5d91 9bbd 08a5 66be
00000120: 816d b6be e700 2abe 3191 74be 5d59 98be
00000130: 56b4 e9be 08d1 81be 687a d93e da6a 10be
00000140: 236b 293f 2b72 b4be 4352 413e babb ddbd
00000150: 2fa9 56be 15cd 68be 2eee 87be 001f a7be
00000160: d1bc f7be b3f9 09be 95a7 6ebf becc 65be
00000170: afa0 0fbf 9624 a1bd 0178 653d 8c1f 353f
00000180: 206a 873e e888 4ebe 7b2d 893f 84b8 b0be
00000190: eb21 593e cec1 763e 2d4d cabe a993 dbbd
000001a0: 6f68 16be e82a 4abe c8e3 8ebe 6166 e4bd
000001b0: 4726 aabe 50b4 b0be e329 3cbe 69bf aabe
000001c0: 81fa bfbe fb46 25be dd8d 993e c944 fdbd
000001d0: e9a3 753f ac49 b0be 11e9 4d3e 7a79 71bd
000001e0: 770a 78be fb1e 763d bfd5 19bf 23eb 893e
000001f0: 1af9 13be 2b4d 843b 41cf cebe 615a a83d
00000200: 389a a0bd c800 acbe b6bc 80be 6dac 4d3e
00000210: 1ec7 44be f32f b7be 7ce1 9ab6 b2d3 01bf
00000220: 2656 15bf 9fe1 54be 7a5c c8be 0bda 283e
00000230: d74f ebbe 13ba 6a3e 0fe9 1cbe 5418 6b3e
00000240: 1871 3bbe e2ec 7fbe b8e6 cabd cbee d1be
00000250: 5040 d5be f305 57be 61b4 97be c6b3 c3be
00000260: 7fb9 45be df76 06be 047e f5be 3e5a f6bd
00000270: 3ad3 a9be 64cc 89be e509 92be 3318 96be
00000280: aad2 4abe 08bd 81be a50b 443e 75fa f4bd
00000290: e6c1 643f e132 9dbe 75ee 533e 2855 a03e
000002a0: 90b5 973e 2b8f 36be e794 4c3f 4c19 8bbe
000002b0: a9bc 063e 5d05 c73e 87de 82be 9e1d c9be
000002c0: 8ca3 57be 5e2b 8cbe 9584 c0be cb8e 8bbe
000002d0: 8bfb a8be 5670 7bbe 946e 87be 690e 05be
000002e0: 834a a2be dc9a 93be 5e87 b3be 0a5a a9be
000002f0: 4419 59be 21e2 8cbe 70dc e4be 1944 17be
00000300: 7e3c 7cbe cf67 a5be 997a 87be 3e56 94be
00000310: 9b7e 73be 9e05 f4bd a1e1 c9be 5cb9 96be
00000320: b081 55be 0a48 a6be c52e a1be 224f 37be
00000330: 177f 85be 036e d7bd 6e0d 08be c46d 9ebe
00000340: d0d5 c9be 8dd8 c3bd 7459 1cbe 9601 8cbe
00000350: a6d1 713e eb04 d7be fc99 1a3e 01f9 e33e
00000360: d312 dbbe 1fcb 8b3e 1e92 55bf 587e 903e
00000370: 170b 01be 4102 513e d5e5 e2be f777 e8be
00000380: ad6e 78be 1ac3 ebbe b8a9 b6be 1be0 70be
00000390: a55e a0be 7094 3a3e bfec b03d a8b7 2cbe
000003a0: 7030 a8be 85ad 753e 501a 92be 3612 68be
000003b0: 1afb 8dbe fcc9 38be f657 98be d419 28bc
000003c0: ff10 a7be c3ef 423e be5e 5ebf 1652 a73e
000003d0: e66e 02be 5aa5 503e e9b5 aebe 319e fb3d
000003e0: 8e51 00bf b403 843e 5228 1dbe 7623 c73d
000003f0: 0080 8dbe fd7f ea3d e493 5abf 36d0 f03e

bayes_fc1.prior_sigma_small f4 [64, 6]
0.29435867 0.21189392 0.8710864 0.33459517 0.15627949 0.89405066 0.050707214 0.020835927
0.5294802 0.0646479 0.026844934 0.5632832 0.075106926 0.025156291 0.69845897 0.08859998
0.040744085 0.5503298 0.04639371 0.018669125 0.43867216 0.04172803 0.020717317 0.41233012
0.06104728 0.025136823 0.56478125 0.05940618 0.025716309 0.4328397 0.072140515 0.02498551
0.37315446 0.05025537 0.021001033 0.5074539 0.29694855 0.15882815 0.8874964 0.31994647
0.20310675 0.83029306 0.11135817 0.040627643 0.78608596 0.18872674 0.08489913 0.7634575
0.05399133 0.023279576 0.51526034 0.053713433 0.024974057 0.45890504 0.2040432 0.07733009
0.71291846 0.10173994 0.05767726 0.7862211 0.34633195 0.13237551 0.93796766 0.28570673
0.12789729 0.92846596 0.0634057 0.021908434 0.47212166 0.05294383 0.021137426 0.5385948
0.27390662 0.109657705 0.8726879 0.27709076 0.18908656 0.84914994 0.041662883 0.016988982
0.4062284 0.04021692 0.0175459 0.46274722 0.21328062 0.08922018 0.8205939 0.31847233
0.16831689 0.8730461 0.16486715 0.027132293 0.38464302 0.029877575 0.012217739 0.1773206
0.076124914 0.030660544 0.5085224 0.059521195 0.02449041 0.53333205 0.24052438 0.11610106
0.8457039 0.32055885 0.119260326 0.86175025 0.30131298 0.13399468 0.88438123 0.27854148
0.14006335 0.8894053 0.04202173 0.017595034 0.3708959 0.04149803 0.021587254 0.39723423
0.10304623 0.04063447 0.6034952 0.082496256 0.04140697 0.6470867 0.120884284 0.053357676
0.85447943 0.21282032 0.07477124 0.7667426 0.34095582 0.17669964 1.0237746 0.3878229
0.18422163 0.8782339 0.106066965 0.038856708 0.80123544 0.10725318 0.040153727 0.59571993
0.30005434 0.16113725 0.9583121 0.32928306 0.18285894 0.92680806 0.2926407 0.149902
0.89101803 0.280325 0.18252994 0.9149715 0.25525025 0.104052044 0.6814018 0.18318747
0.0811168 0.70983917 0.05396343 0.020939456 0.34783128 0.044637345 0.017641209 0.39513606
0.04777198 0.021007204 0.36860928 0.043847278 0.01741686 0.35364753 0.21763405 0.1502696
0.86991477 0.24385864 0.16635247 0.7362489 0.25153953 0.12532096 0.8692436 0.16412796
0.13270546 0.78175455 0.30544272 0.15035684 0.9530427 0.29203317 0.1987664 0.8928429
0.26760238 0.14158198 0.8818667 0.27065814 0.13224307 0.9451883 0.26230326 0.15725708
0.8384867 0.28754798 0.12228703 0.8801196 0.1948707 0.10909899 0.92337245 0.3026021
0.13311316 0.89104086 0.18154778 0.06852727 0.8414832 0.1457988 0.049673527 0.76321393
0.05154203 0.019230992 0.5514037 0.059545446 0.023783136 0.40143085 0.29629135 0.18251365
0.7981038 0.2919342 0.13961415 0.8699664 0.19256896 0.06684232 0.9885377 0.23184408
0.11260179 0.88069415 0.2084958 0.08785691 0.72362643 0.15937674 0.13805765 0.69565666
0.051956803 0.02020995 0.47019857 0.04275364 0.020954529 0.4302025 0.09721499 0.033687565
0.69469696 0.097761504 0.03970973 0.6338411 0.07094016 0.03359823 0.63643694 0.0634131
00000000: 2eb6 963e b8fa 583e 85ff 5e3f 0f50 ab3e
00000010: bb07 203e 81e0 643f 5eb2 4f3d 1bb0 aa3c
00000020: 048c 073f 1e66 843d e8e9 db3c 5433 103f
00000030: a9d1 993d 9114 ce3c 35ce 323f e873 b53d
00000040: 45e3 263d 6ae2 0c3f 5507 3e3d feef 983c
00000050: a399 e03e 03eb 2a3d 5db7 a93c ef1c d33e
00000060: b60c 7a3d bdeb cd3c 8195 103f e553 733d
00000070: 02ab d23c 2a9d dd3e 68be 933d 6aae cc3c
00000080: 1a0e bf3e 93d8 4d3d 5c0a ac3c 80e8 013f
00000090: a409 983e d9a3 223e f732 633f 06d0 a33e
000000a0: 37fb 4f3e 168e 543f c10f e43d 2c69 263d
000000b0: ee3c 493f 9541 413e 98df ad3d f371 433f
000000c0: 0326 5d3d cfb4 be3c 1ae8 033f 9e02 5c3d
000000d0: 6596 cc3c 9af5 ea3e b3f0 503e 3d5f 9e3d
000000e0: d381 363f 085d d03d fe3e 6c3d c945 493f
000000f0: 6c52 b13e 728d 073e a61e 703f 2748 923e
00000100: 82f7 023e f2af 6d3f d9da 813d 5179 b33c
00000110: eeb9 f13e a1db 583d 6528 ad3c 59e1 093f
00000120: 7d3d 8c3e 3894 e03d 7968 5f3f d7de 8d3e
00000130: e89f 413e e461 593f b3a6 2a3d 7a2c 8b3c
00000140: 2bfd cf3e 7fba 243d 6bbc 8f3c 34ed ec3e
00000150: 3c66 5a3e 12b9 b63d 7112 523f ce0e a33e
00000160: 435b 2c3e f37f 5f3f efd2 283e 8b44 de3c
00000170: eeef c43e d1c1 f43c e92c 483c 8893 353e
00000180: 61e7 9b3d d22b fb3c 862e 023f 7fcc 733d
00000190: 1da0 c83c 7388 083f 064c 763e 64c6 ed3d
000001a0: 0d80 583f 4a20 a43e c23e f43d aa9b 5c3f
000001b0: b245 9a3e e735 093e cf66 623f fd9c 8e3e
000001c0: c46c 0f3e 11b0 633f fa1e 2c3d 7623 903c
000001d0: 11e6 bd3e d7f9 293d c1d7 b03c 4962 cb3e
000001e0: e709 d33d 5470 263d a97e 1a3f ccf3 a83d
000001f0: 5b9a 293d 79a7 253f 2e92 f73d 948d 5a3d
00000200: 2abf 5a3f 92ed 593e aa21 993d 3e49 443f
00000210: c391 ae3e c0f0 343e 0c0b 833f b990 c63e
00000220: 98a4 3c3e f0d3 603f a339 d93d 3628 1f3d
00000230: c41d 4d3f 8ea7 db3d 3c78 243d 1a81 183f
00000240: b9a0 993e 2a01 253e f153 753f ca97 a83e
00000250: 603f 3b3e 4b43 6d3f 00d5 953e e97f 193e
00000260: c219 643f c286 8f3e 21e9 3a3e 923b 6a3f
00000270: 29b0 823e 3d19 d53d 5970 2e3f 7f95 3b3e
00000280: 9120 a63d 05b8 353f c208 5d3d 3989 ab3c
00000290: f116 b23e a6d5 363d 4c84 903c 464f ca3e
000002a0: 8dac 433d 4d17 ac3c 5bba bc3e 3499 333d
000002b0: cead 8e3c 4a11 b53e 76db 5e3e 46e0 193e
000002c0: bcb2 5e3f 14b6 793e 4d58 2a3e cf7a 3c3f
000002d0: cac9 803e 2354 003e c086 5e3f 2911 283e
000002e0: f1e3 073e 1121 483f fd62 9c3e 25f7 193e
000002f0: 9bfa 733f 5f85 953e 6b89 4b3e 5a91 643f
00000300: 2e03 893e defa 103e 04c2 613f b493 8a3e
00000310: ba6a 073e dcf7 713f 9d4c 863e 0008 213e
00000320: 10a7 563f 7d39 933e 9f71 fa3d 854f 613f
00000330: 2f8c 473e 4b6f df3d 2362 6c3f aaee 9a3e
00000340: d14e 083e 411b 643f a9e7 393e 0658 8c3d
00000350: 716b 573f 484c 153e 7876 4b3d fd61 433f
00000360: bc1d 533d 508a 9d3c cb28 0d3f ede5 733d
00000370: dad4 c23c 5888 cd3e 80b3 973e dce4 3a3e
00000380: 8850 4c3f 6678 953e 03f7 0e3e 1eb6 5e3f
00000390: cc30 453e a0e4 883d cf10 7d3f 8968 6d3e
000003a0: c49b e63d 2c75 613f ec7f 553e 53ee b33d
000003b0: 953f 393f a833 233e fc5e 0d3e 8e16 323f
000003c0: a8d0 543d 568f a53c debd f03e 711e 2f3d
000003d0: d5a8 ab3c 8143 dc3e a718 c73d f9fb 093d
000003e0: a9d7 313f 2f37 c83d aba6 223d 6943 223f
000003f0: 1349 913d 4c9e 093d 88ed 223f bade 813d

bayes_fc2.weight_mu f4 [1, 64]
-0.0041148504 0.06766572 -0.05270703 -0.074652314 -0.10332521 0.094503336 0.06587092 -0.05958528
-0.067110494 0.11535429 -0.00040151324 -0.080677785 -0.056684937 0.06645594 0.06628635 0.41345012
0.06595743 -0.0470383 -0.018155593 0.09075185 -0.07929414 -0.156402 -0.059810985 -0.06337636
-0.07514083 0.065427445 0.000973821 0.07631825 0.0948207 -0.03100081 0.03903742 -0.012161109
0.029784914 0.0511374 -0.054552615 0.08529369 -0.07895205 0.18040493 -0.029639693 0.108702675
-0.065152556 -0.06209456 -0.0651441 0.020299088 -0.02879675 0.01816381 -0.045841616 -0.061156392
0.018519761 -0.001887741 0.009612427 -0.089491285 0.057904474 0.11022109 0.031901587 0.087135375
0.07588173 0.06602152 0.13624068 0.09461079 0.0033491408 0.098903514 -0.096805625 0.07159786
00000000: ded5 86bb 5394 8a3d 54e3 57bd 50e3 98bd
00000010: 2b9c d3bd f78a c13d 55e7 863d b20f 74bd
00000020: 3a71 89bd df3e ec3d 3282 d2b9 653a a5bd
00000030: 772e 68bd 0d1a 883d 23c1 873d bcaf d33e
00000040: b014 873d 3cab 40bd 0abb 94bc 1bdc b93d
00000050: f764 a2bd d927 20be 5dfc 74bd 77cb 81bd
00000060: 6fe3 99bd d3fe 853d 0548 7f3a be4c 9c3d
00000070: 5b31 c23d 69f5 fdbc b4e5 1f3d 633f 47bc
00000080: 7eff f33c 7375 513d 9072 5fbd 75ae ae3d
00000090: 9db1 a1bd 12bc 383e f1ce f2bc 829f de3d
000000a0: b46e 85bd de56 7ebd 456a 85bd 464a a63c
000000b0: 29e7 ebbc 45cc 943c 6bc4 3bbd 207f 7abd
000000c0: c1b6 973c 146e f7ba 717d 1d3c 3547 b7bd
000000d0: 3e2d 6d3d 98bb e13d 3dab 023d 0874 b23d
000000e0: e167 9b3d 4a36 873d ad82 0b3e 4dc3 c13d
000000f0: 427d 5b3b ed8d ca3d 0742 c6bd e6a1 923d

bayes_fc2.weight_rho f4 [1, 64]
-1.4072663 -4.4412584 -4.1683598 -4.410352 -4.2020483 -4.2775683 -1.4658481 -3.9113054
-4.3253336 -3.1598027 -2.8902478 -4.151814 -1.8116933 -4.583051 -1.9104246 -3.3420382
-4.5423765 -2.487558 -1.7188996 -4.419656 -3.6353269 -2.707844 -2.0526757 -3.9457262
-2.3720112 -2.2227092 -0.96642625 -4.1980925 -4.1172433 -1.3231744 -1.4845277 -1.6211032
-2.4285011 -1.4829159 -2.335307 -3.530299 -4.5416856 -0.62758297 -3.5531974 -0.8442006
-4.267931 -3.791487 -4.2139354 -2.152419 -2.2677553 -1.5880492 -1.7482829 -3.8784997
-1.608638 -2.7179718 -2.4069567 -3.0237737 -1.9490956 -4.3271127 -1.1726369 -4.423207
-4.2004547 -4.1209755 -3.6303854 -3.5970845 -1.4839864 -4.2755785 -4.2029734 -2.3224592
00000000: 4d21 b4bf ca1e 8ec0 3463 85c0 9b21 8dc0
00000010: 2e77 86c0 d7e1 88c0 e9a0 bbbf d452 7ac0
00000020: 2269 8ac0 353a 4ac0 d2f9 38c0 a9db 84c0
00000030: 91e5 e7bf 5ba8 92c0 cb88 f4bf f4e3 55c0
00000040: 265b 91c0 2634 1fc0 e704 dcbf d26d 8dc0
00000050: 32a9 68c0 514d 2dc0 0a5f 03c0 c786 7cc0
00000060: 08cf 17c0 de40 0ec0 b667 77bf c656 86c0
00000070: 75c0 83c0 c75d a9bf 0105 bebf 4f80 cfbf
00000080: 906c 1bc0 30d0 bdbf ab75 15c0 6bf0 61c0
00000090: 7d55 91c0 47a9 20bf 9667 63c0 881d 58bf
000000a0: e492 88c0 b9a7 72c0 8fd8 86c0 3cc1 09c0
000000b0: e722 11c0 3245 cbbf bcc7 dfbf 5739 78c0
000000c0: dae7 cdbf 40f3 2dc0 940b 1ac0 8285 41c0
000000d0: f77b f9bf b577 8ac0 f718 96bf e98a 8dc0
000000e0: 206a 86c0 08df 83c0 3c58 68c0 a236 66c0
000000f0: 44f3 bdbf 8ad1 88c0 c27e 86c0 2ca3 14c0

bayes_fc2.prior_mu_old f4 [1, 64]
-0.0041148504 0.06766572 -0.05270703 -0.074652314 -0.10332521 0.094503336 0.06587092 -0.05958528
-0.067110494 0.11535429 -0.00040151324 -0.080677785 -0.056684937 0.06645594 0.06628635 0.41345012
0.06595743 -0.0470383 -0.018155593 0.09075185 -0.07929414 -0.156402 -0.059810985 -0.06337636
-0.07514083 0.065427445 0.000973821 0.07631825 0.0948207 -0.03100081 0.03903742 -0.012161109
0.029784914 0.0511374 -0.054552615 0.08529369 -0.07895205 0.18040493 -0.029639693 0.108702675
-0.065152556 -0.06209456 -0.0651441 0.020299088 -0.02879675 0.01816381 -0.045841616 -0.061156392
0.018519761 -0.001887741 0.009612427 -0.089491285 0.057904474 0.11022109 0.031901587 0.087135375
0.07588173 0.06602152 0.13624068 0.09461079 0.0033491408 0.098903514 -0.096805625 0.07159786
00000000: ded5 86bb 5394 8a3d 54e3 57bd 50e3 98bd
00000010: 2b9c d3bd f78a c13d 55e7 863d b20f 74bd
00000020: 3a71 89bd df3e ec3d 3282 d2b9 653a a5bd
00000030: 772e 68bd 0d1a 883d 23c1 873d bcaf d33e
00000040: b014 873d 3cab 40bd 0abb 94bc 1bdc b93d
00000050: f764 a2bd d927 20be 5dfc 74bd 77cb 81bd
00000060: 6fe3 99bd d3fe 853d 0548 7f3a be4c 9c3d
00000070: 5b31 c23d 69f5 fdbc b4e5 1f3d 633f 47bc
00000080: 7eff f33c 7375 513d 9072 5fbd 75ae ae3d
00000090: 9db1 a1bd 12bc 383e f1ce f2bc 829f de3d
000000a0: b46e 85bd de56 7ebd 456a 85bd 464a a63c
000000b0: 29e7 ebbc 45cc 943c 6bc4 3bbd 207f 7abd
000000c0: c1b6 973c 146e f7ba 717d 1d3c 3547 b7bd
000000d0: 3e2d 6d3d 98bb e13d 3dab 023d 0874 b23d
000000e0: e167 9b3d 4a36 873d ad82 0b3e 4dc3 c13d
000000f0: 427d 5b3b ed8d ca3d 0742 c6bd e6a1 923d

bayes_fc2.prior_sigma_small f4 [1, 64]
0.21898422 0.011712247 0.01535907 0.012077668 0.014854023 0.013780968 0.20773107 0.019816702
0.013142396 0.041558474 0.054073744 0.015613321 0.15132721 0.010171746 0.13803656 0.034753833
0.01059178 0.07983901 0.16488992 0.01196649 0.026033482 0.06455141 0.12079264 0.019152582
0.089194156 0.10284109 0.32240245 0.014912463 0.01615811 0.23609032 0.20425373 0.18038677
0.084496364 0.2045517 0.092379324 0.028875224 0.010599062 0.4278009 0.02823068 0.35760513
0.013913498 0.022311268 0.014679779 0.10993249 0.09852713 0.18591827 0.16047855 0.020470865
0.18245491 0.0639213 0.08625939 0.047472537 0.13313377 0.013119187 0.26968327 0.011924325
0.014877538 0.016098399 0.026160771 0.027034746 0.20435376 0.01380823 0.0148403905 0.09351967
00000000: 663d 603e b9e4 3f3c 9ca4 7b3c 69e1 453c
00000010: 4a5e 733c 92c9 613c 74b7 543e a356 a23c
00000020: 3453 573c 3839 2a3d 6e7c 5d3d 04cf 7f3c
00000030: 85f5 1a3e 65a7 263c 7559 0d3e 095a 0e3d
00000040: 2589 2d3c a382 a33d e7d8 283e 190f 443c
00000050: 2b44 d53c 8833 843d 2262 f73d e0e5 9c3c
00000060: 6dab b63d 599e d23d ef11 a53e 6753 743c
00000070: 035e 843c a9c1 713e e427 513e 4fb7 383e
00000080: 6e0c ad3d 0076 513e 5f31 bd3d bc8b ec3c
00000090: b0a7 2d3c b808 db3e 0744 e73c 0518 b73e
000000a0: 71f5 633c 1fc6 b63c 7583 703c 4924 e13d
000000b0: 98c8 c93d 5c61 3e3e 7d54 243e 84b2 a73c
000000c0: 76d5 3a3e 2ce9 823d c3a8 b03d 9072 423d
000000d0: 3854 083e dcf1 563c ed13 8a3e 3e5e 433c
000000e0: ebc0 733c cae0 833c 1d4f d63c f977 dd3c
000000f0: 1d42 513e ea3b 623c 1c25 733c 3e87 bf3d
