models/updated_hmnn_model_1999_2013.pth (torch, 14090 bytes, 12 tensors)

bayes_fc1.weight_mu f4 [64, 6]
0	0xbf2d2939	-0.67641026
1	0xbf3abbf3	-0.7294304
2	0xbe73dcb9	-0.23814668
3	0xbf397025	-0.72436744
4	0xbf0cf092	-0.5505458
5	0xbe5ce124	-0.2157026
6	0x3f09bae6	0.5380081
7	0xbdc6949d	-0.096963145
8	0x3fde8ea1	1.7387277
9	0xbed80a0b	-0.42195162
10	0x3dd93180	0.106051445
11	0xbf8f19d9	-1.1179763
12	0xbebbd4cd	-0.36685792
13	0x3e55a5a1	0.20863964
14	0xbfa3beca	-1.2792599
15	0x3ebbb546	0.36661738
16	0xbe1c82c5	-0.1528426
17	0x3f601a83	0.87540454
18	0xbeb98846	-0.3623678
19	0x3e3faabe	0.18717477
20	0xbf9caa21	-1.2239419
21	0x3ede6b8b	0.43441424
22	0xbdf02550	-0.11725867
23	0x3eb25ce9	0.3483651
24	0xbeb7311d	-0.35779658
25	0x3e4de5fd	0.20107265
26	0xbfa78a92	-1.3089163
27	0x3ecc255b	0.3987225
28	0xbe16c141	-0.14722158
29	0x3f097f51	0.53709894
30	0x3e8f11cc	0.27943265
31	0xbdf40a94	-0.1191608
32	0x400058f1	2.0054286
33	0xbea5eeff	-0.32408902
34	0x3e3a2ab8	0.18180358
35	0xbe4719a5	-0.19443376
36	0xbf423266	-0.7585815
37	0xbf1df83e	-0.6170691
38	0xbe72ed12	-0.23723248
39	0xbf28ee16	-0.6598829
40	0xbf2481b5	-0.6426042
41	0xbe99f212	-0.30067497
42	0xbef32b69	-0.47494057
43	0x3e858aa8	0.2608235
44	0xbf176904	-0.59144616
45	0xbe9aa202	-0.30201727
46	0xbe94dd25	-0.2907497
47	0x3fa9e79c	1.3273807
48	0xbe99473a	-0.29937154
49	0x3de4defd	0.11175344
50	0xbfd470ec	-1.6596961
51	0x3f04cff2	0.518798
52	0xbe09acb8	-0.13444793
53	0x3e95474f	0.29155967
54	0xbf5d9edb	-0.8657052
55	0xbe91e56b	-0.28495345
56	0xbeef6db0	-0.46763372
57	0xbe328423	-0.17433219
58	0x3de13afe	0.1099758
59	0x3ec08428	0.37600827
60	0xbf10573c	-0.5638311
61	0xbed5ead3	-0.4178072
62	0xbe0f7175	-0.14008124
63	0xbf2da6e0	-0.67832756
64	0xbe99672a	-0.2996152
65	0xbe173f1b	-0.14770167
66	0xbe67a7df	-0.22622631
67	0x3db1dcd7	0.086847
68	0xc00d696c	-2.2095594
69	0x3ef8926f	0.4854922
70	0xbd9dc321	-0.077032335
71	0xbeb224cb	-0.34793696
72	0xbf2249dd	-0.63393956
73	0xbea27ae0	-0.3173437
74	0xbe43d184	-0.19122893
75	0xbf143f68	-0.5790925
76	0xbf255e50	-0.64597034
77	0xbe5f0e3c	-0.21782774
78	0x3eeebf77	0.4663045
79	0xbe001728	-0.12508833
80	0x3faefeb4	1.3671479
81	0xbec24869	-0.3794587
82	0x3e2dcae5	0.1697193
83	0xbf53a2aa	-0.8267008
84	0xbee4b786	-0.44671267
85	0xbe97e1f6	-0.29664582
86	0xbe6463f0	-0.22303748
87	0xbf08f275	-0.5349496
88	0xbf2593b9	-0.6467853
89	0xbe2bb407	-0.16767894
90	0xbf7152dd	-0.94267064
91	0xbe529fcf	-0.20568775
92	0xbf93ecb5	-1.1556612
93	0xbd9a6330	-0.0753845
94	0x3d0c5150	0.034257233
95	0x3f4c8269	0.7988649
96	0x3eb284ef	0.34867045
97	0xbe165fb0	-0.1468494
98	0x40221229	2.5323584
99	0xbec0bc3d	-0.37643614
100	0x3e32bd23	0.17454962
101	0xbe8b828f	-0.27248046
102	0xbf0d5ca9	-0.55219513
103	0xbe61310c	-0.21991366
104	0xbe36009d	-0.17773671
105	0xbf2278b6	-0.6346544
106	0xbed5c34c	-0.41750562
107	0xbe28275d	-0.16421266
108	0xbf1e3f58	-0.61815405
109	0xbeec16e6	-0.4611122
110	0xbe3c2b42	-0.18375877
111	0xbf22339a	-0.6335999
112	0xbf10441e	-0.5635394
113	0xbe80f903	-0.2518998
114	0x3ea56528	0.3230374
115	0xbdd21d00	-0.102594376
116	0x3fcbb589	1.5914775
117	0xbec80474	-0.39065897
118	0x3e3425c3	0.1759253
119	0xbf28e8d8	-0.6598029
120	0xbe92f3f9	-0.2870176
121	0x3d4385f0	0.047735155
122	0xbfb7bc37	-1.4354314
123	0x3ebd4506	0.36966723
124	0xbddf4e3c	-0.10903594
125	0x3f01f717	0.50767654
126	0xbec09924	-0.37616837
127	0x3dcd728b	0.10031613
128	0xbea9b9ac	-0.3314947
129	0xbefe02a7	-0.496114
130	0xbe655eab	-0.22399394
131	0x3dc29763	0.09501531
132	0xbf0431b1	-0.51638323
133	0xbed7d119	-0.42151716
134	0xbda4779b	-0.080306254
135	0xbf3bfe37	-0.73434776
136	0xbf244e31	-0.6418181
137	0xbd8b4dcb	-0.06801947
138	0xbeb88549	-0.36039189
139	0x3e1f7c5e	0.15574786
140	0xbf81a3d9	-1.0128127
141	0x3ee70726	0.4512264
142	0xbe06e83f	-0.13174532
143	0x3f3b960d	0.73275834
144	0xbef67ae0	-0.4814062
145	0xbf0e7d71	-0.5566016
146	0xbdf4fc27	-0.11962157
147	0xbf2b4d81	-0.66915137
148	0xbf1e336d	-0.6179722
149	0xbe6e36b8	-0.23263061
150	0xbef02a88	-0.4690745
151	0xbee0ad0c	-0.43882024
152	0xbd9a792d	-0.07542644
153	0xbeb9a55d	-0.36258975
154	0xbf18be00	-0.59664917
155	0xbd77dae8	-0.0605115
156	0xbf024f0a	-0.50901854
157	0xbeab0ae7	-0.33406755
158	0xbe3a3408	-0.18183911
159	0xbef7fa1b	-0.48433003
160	0xbe8bc679	-0.2729986
161	0xbe851e0e	-0.25999492
162	0x3e8b2b7f	0.27181622
163	0xbe01e831	-0.1268623
164	0x3febae22	1.8412516
165	0xbeb4453e	-0.35209078
166	0x3e32fde4	0.17479664
167	0xbd96d3a9	-0.0736459
168	0x3eaf9d47	0.3429968
169	0xbdea60a8	-0.11444217
170	0x3fbef0ac	1.4917197
171	0xbe89836d	-0.26858082
172	0x3e1b8575	0.15187629
173	0xbeb380df	-0.35059258
174	0xbf11d15b	-0.56960076
175	0xbf0a01a9	-0.53908783
176	0xbe55fe79	-0.20897855
177	0xbf10370b	-0.5633399
178	0xbf0fb6c9	-0.56138283
179	0xbe63d6eb	-0.22249953
180	0xbf120d53	-0.5705158
181	0xbeba27a8	-0.3635838
182	0xbe8384cf	-0.25687262
183	0xbec9fb04	-0.39449322
184	0xbed9374d	-0.42425004
185	0xbe9a92ff	-0.30190274
186	0xbf16c3ab	-0.58892316
187	0xbedbe61d	-0.42949
188	0xbe0e02ac	-0.13868207
189	0xbef35933	-0.4752899
190	0xbf2879e2	-0.6581098
191	0xbe9b4d66	-0.30332488
192	0xbf052b1e	-0.52018917
193	0xbebe5ad9	-0.37178686
194	0xbe6c0f69	-0.23052754
195	0xbf09ae28	-0.53781366
196	0xbeb119d4	-0.34590018
197	0xbe936edc	-0.28795516
198	0xbf1ad2b3	-0.6047775
199	0xbee2be9f	-0.44286057
200	0xbe5fc00c	-0.21850604
201	0xbf141f25	-0.5786002
202	0xbeea8068	-0.4580109
203	0xbe4d47eb	-0.20046966
204	0xbed6825a	-0.41896325
205	0xbe59a26d	-0.21253367
206	0xbe33cef5	-0.17559417
207	0xbf0fbb6c	-0.5614536
208	0xbf0d1fc5	-0.551266
209	0xbe0887b9	-0.13333024
210	0xbec639e1	-0.38716033
211	0xbe8f49bb	-0.2798594
212	0x3e0d4e1f	0.13799332
213	0xbec8c0f0	-0.392097
214	0x3e13957f	0.14412497
215	0x3e728fa8	0.23687613
216	0xbedc3db6	-0.43015832
217	0x3e795d18	0.24351919
218	0xbfd484df	-1.6603049
219	0x3ea58c88	0.3233378
220	0xbdf927e5	-0.121658124
221	0x3e83f6b6	0.25774163
222	0xbf28b8e5	-0.65907127
223	0xbf222f98	-0.6335387
224	0xbe6844f1	-0.22682549
225	0xbf309d3f	-0.6898994
226	0xbed3ad00	-0.41342926
227	0xbe857c3b	-0.26071343
228	0xbf047fdd	-0.51757604
229	0x3da3dd6b	0.080012165
230	0xbe09b9e8	-0.13449824
231	0xbeb4e458	-0.35330462
232	0xbeba5ef6	-0.36400574
233	0x3e6debc7	0.23234473
234	0xbeb43725	-0.35198322
235	0xbe73b44a	-0.23799244
236	0xbe741d71	-0.23839356
237	0xbe9a5e3e	-0.30150026
238	0xbec19bde	-0.3781423
239	0xbe1e7e6c	-0.15477914
240	0xbead429a	-0.33839875
241	0x3e36bd8c	0.17845744
242	0xbfa6a3a4	-1.3018689
243	0x3eb65474	0.35611308
244	0xbddcd1fd	-0.107822396
245	0x3f090f84	0.535393
246	0xbea52d43	-0.32261094
247	0x3df7ac2b	0.12093385
248	0xbfd044a0	-1.6270943
249	0x3ee4bbd2	0.44674546
250	0xbdf69a83	-0.120411895
251	0x3eec4889	0.4614909
252	0xbe937eb5	-0.28807607
253	0x3dbfa255	0.09357134
254	0xbfa90ec5	-1.3207632
255	0x3f07eb92	0.53093827

bayes_fc1.weight_rho f4 [64, 6]
0	0xbf3560f1	-0.70851046
1	0xbf8cfbca	-1.101434
2	0x3ee39859	0.4445217
3	0xbef541fa	-0.479019
4	0xbfa3d685	-1.2799841
5	0x3f02d7bf	0.5111045
6	0xc069a231	-3.6505244
7	0xc090dd78	-4.5270348
8	0xbe50ff2d	-0.20409842
9	0xc04500fe	-3.0781856
10	0xc08e83e9	-4.4536023
11	0xbeb7b906	-0.3588335
12	0xc060868d	-3.5082123
13	0xc08c9365	-4.3929925
14	0xbe44fb09	-0.19236387
15	0xc05c908e	-3.446323
16	0xc08acac7	-4.337253
17	0x3dd95196	0.106112644
18	0xc0640d59	-3.5633147
19	0xc098a0fb	-4.769651
20	0xbe29a139	-0.16565408
21	0xc06d70b4	-3.7100039
22	0xc0914636	-4.5398207
23	0xbed174ba	-0.40909368
24	0xc05b8e81	-3.4305727
25	0xc0943b7c	-4.6322613
26	0xbde0a70c	-0.10969362
27	0xc0642d73	-3.565274
28	0xc08b3350	-4.3500137
29	0xbf20f95c	-0.6288049
30	0xc061f3b8	-3.5305004
31	0xc08e3979	-4.4445157
32	0xbf56b93f	-0.83876413
33	0xc0751846	-3.8296065
34	0xc0a10f13	-5.03309
35	0xbf0c6cc7	-0.5485348
36	0xbf3f68ca	-0.7476927
37	0xbf9b1592	-1.2115958
38	0x3f025868	0.5091615
39	0xbf2e8493	-0.6817104
40	0xbf9aa53e	-1.2081678
41	0x3f1016ea	0.56284964
42	0xc0187e75	-2.3827183
43	0xc06ebfbf	-3.7304533
44	0x3ee0843a	0.4385088
45	0xbfebdb60	-1.8426323
46	0xc0375b0d	-2.8649323
47	0x3f93b462	1.1539423
48	0xc04b05f5	-3.1722386
49	0xc08ec535	-4.461573
50	0xbdc6827e	-0.09692858
51	0xc06af25f	-3.6710432
52	0xc08b51ab	-4.353719
53	0xbe8f99c3	-0.28046998
54	0xbfb6437e	-1.4239347
55	0xc01b5833	-2.4272583
56	0x3eac66d0	0.3367219
57	0xc02fb272	-2.7452664
58	0xc0778e79	-3.8680708
59	0x3efb3eef	0.49071452
60	0xbf138369	-0.5762239
61	0xbfd0e9f9	-1.6321403
62	0x3ef82b0e	0.48470348
63	0xbf08d780	-0.53453827
64	0xbfe0e1d5	-1.7568918
65	0x3ef1457c	0.47123325
66	0xc06cf51f	-3.702461
67	0xc0a27b2d	-5.077536
68	0xbf5ee129	-0.8706232
69	0xc07c0347	-3.9377
70	0xc098fb8d	-4.780707
71	0xbf1e4942	-0.6183053
72	0xbf50b99e	-0.8153323
73	0xbfe9b6b1	-1.8258878
74	0x3ee90647	0.45512602
75	0xbf238638	-0.63876677
76	0xbf98fd91	-1.1952382
77	0x3ef89744	0.48552907
78	0xc077ea63	-3.8736808
79	0xc09ba285	-4.863589
80	0xbf1fa173	-0.62355727
81	0xc077ae9b	-3.870032
82	0xc09c7308	-4.889042
83	0xbef68609	-0.48149136
84	0xbf3e7307	-0.7439427
85	0xbfec5869	-1.8464481
86	0x3edd9774	0.43279612
87	0xbf103fae	-0.5634717
88	0xbf9b383f	-1.212654
89	0x3ef33d8c	0.47507894
90	0xbf831a6e	-1.0242441
91	0xc075fe99	-3.8436644
92	0x3d43569d	0.047690023
93	0xc06e1be9	-3.7204535
94	0xc098ee35	-4.779078
95	0xbf806d03	-1.0033268
96	0xc05e4698	-3.4730587
97	0xc088a8b0	-4.2705917
98	0xbef9c4f8	-0.48783088
99	0xc06509f7	-3.5787332
100	0xc08a9887	-4.331119
101	0xbdd957f2	-0.10612477
102	0xbf2f0f62	-0.6838285
103	0xbff0fee2	-1.8827784
104	0x3f16c666	0.5889648
105	0xbf3a9a44	-0.7289164
106	0xbfd80620	-1.6876869
107	0x3f038dc5	0.513882
108	0xbf34619f	-0.7046146
109	0xbfc5f8e0	-1.5466576
110	0x3f029ee0	0.51023674
111	0xbf2bec7e	-0.67157733
112	0xbfab7ada	-1.3396866
113	0x3f12f19e	0.5739993
114	0xc0826727	-4.075092
115	0xc09dc045	-4.9297204
116	0xbf67e241	-0.9057961
117	0xc0819efb	-4.050657
118	0xc09b64c4	-4.8560505
119	0xbf2acd1d	-0.6671923
120	0xc046a89b	-3.1040409
121	0xc08f36f4	-4.475458
122	0x3cda10ad	0.02661928
123	0xc056acb6	-3.3542914
124	0xc08b6c0f	-4.3569407
125	0xbed575a4	-0.41691315
126	0xbfe84bac	-1.8148093
127	0xc050e288	-3.2638264
128	0x3eb586a2	0.3545428
129	0xbf657938	-0.8963809
130	0xc022fb0a	-2.5465722
131	0x3f270996	0.65249
132	0xbf230b49	-0.63689095
133	0xbfb53025	-1.4155318
134	0x3efcf6ed	0.4940714
135	0xbf001acb	-0.5004088
136	0xbf7499f4	-0.95547414
137	0x3f058426	0.5215477
138	0xc03e1107	-2.9697893
139	0xc0834e5f	-4.103317
140	0x3dd6dfe2	0.10491921
141	0xc03161bb	-2.77159
142	0xc07dff42	-3.9687047
143	0x3d829257	0.06375568
144	0xbf01d56b	-0.50716275
145	0xbfbe7fd4	-1.488276
146	0x3f114d0a	0.5675818
147	0xbec99d5a	-0.39377862
148	0xbf9c0344	-1.2188497
149	0x3f0a80e0	0.541029
150	0xbf263869	-0.64929825
151	0xbfb3233e	-1.399513
152	0x3efb686f	0.49103114
153	0xbf2740c3	-0.65333194
154	0xbfa0a32e	-1.2549798
155	0x3f1dd855	0.6165822
156	0xbf864374	-1.0489335
157	0xbffb66db	-1.9640764
158	0x3ee23d34	0.4418732
159	0xbf91e8cb	-1.1399168
160	0xc009ceda	-2.1532502
161	0x3f06a7d6	0.5259985
162	0xc0595bb3	-3.3962219
163	0xc09699ac	-4.706259
164	0xbf4356a9	-0.7630411
165	0xc07ad3e1	-3.919182
166	0xc0999972	-4.799981
167	0xbefac332	-0.48977047
168	0xc074c3e6	-3.8244567
169	0xc097724a	-4.7327013
170	0xbf667fb0	-0.90038586
171	0xc07c4bc5	-3.9421246
172	0xc09e893d	-4.9542527
173	0xbf2f6fed	-0.6853016
174	0xbf649280	-0.8928604
175	0xbfb479a1	-1.4099618
176	0x3ed799d6	0.42109555
177	0xbf67c236	-0.9053072
178	0xbfb0f6af	-1.3825282
179	0x3ece4066	0.40283507
180	0xbf76dab9	-0.96427494
181	0xbfefa678	-1.8722677
182	0x3f1154a9	0.56769806
183	0xbfa3747a	-1.2769921
184	0xbfd046f6	-1.6271656
185	0x3f00337f	0.50078577
186	0xbf12aebe	-0.57297885
187	0xbfb33910	-1.4001789
188	0x3f027094	0.5095303
189	0xbf43c392	-0.7647029
190	0xbf99fb0a	-1.2029736
191	0x3f04fc0b	0.5194709
192	0xbf330015	-0.69922
193	0xbfb29330	-1.3951168
194	0x3f118a85	0.5685199
195	0xbf35b32f	-0.7097654
196	0xbfcf7133	-1.6206421
197	0x3f02d876	0.51111543
198	0xbf4d3e13	-0.8017284
199	0xbfcdaa41	-1.6067582
200	0x3f0310bb	0.51197404
201	0xbf412a7f	-0.7545547
202	0xbfd41968	-1.6570253
203	0x3ed34fdb	0.41271862
204	0xbf73469d	-0.9502962
205	0xc003786e	-2.0542254
206	0x3f05729d	0.5212801
207	0xbf426883	-0.7594072
208	0xbfc15b55	-1.5105997
209	0x3ec37604	0.38175976
210	0xbfbbf77c	-1.4684901
211	0xc02b48f5	-2.676328
212	0x3f0f02f5	0.5586389
213	0xbffce09e	-1.9756048
214	0xc0549c41	-3.322037
215	0x3ed02af1	0.40657762
216	0xc0795aef	-3.8961751
217	0xc09af096	-4.8418684
218	0xbf5c2cbc	-0.8600576
219	0xc06ed691	-3.731846
220	0xc0969118	-4.7052116
221	0xbf15ca2f	-0.5851163
222	0xbf126bfc	-0.5719602
223	0xbfa67304	-1.300385
224	0x3effcb62	0.49959856
225	0xbf48d27c	-0.78446174
226	0xbfc34655	-1.5255839
227	0x3edd5dac	0.43235528
228	0xbfba4d09	-1.4554759
229	0xc032eac6	-2.7955794
230	0x3ebf127a	0.37318784
231	0xbf24ab54	-0.64323926
232	0xbffdbbdd	-1.9822956
233	0x3f272f26	0.6530632
234	0xbf88a8e1	-1.0676538
235	0xc0164d7b	-2.348479
236	0x3ecbf08a	0.39831954
237	0xbfad40ae	-1.3535364
238	0xbfd25b6f	-1.6434153
239	0x3eda4d8d	0.42637292
240	0xc06a2ef4	-3.6591158
241	0xc0962a8d	-4.692694
242	0xbe3eb01e	-0.18621871
243	0xc077d808	-3.8725605
244	0xc08d7aab	-4.421224
245	0xbee48ad9	-0.44637182
246	0xc03b8c32	-2.9304318
247	0xc086f41d	-4.217299
248	0x3c336b8a	0.010950932
249	0xc052b550	-3.2923164
250	0xc08ed0a9	-4.462971
251	0xbe9bf099	-0.30457
252	0xc0488cf3	-3.1336029
253	0xc08a57a2	-4.3231974
254	0x3e1a64f8	0.15077579
255	0xc0549222	-3.3214192

bayes_fc1.bias_mu f4 [64]
0	0xbd1894ee	-0.037251405
1	0xbd06a742	-0.032874353
2	0xbc8df5b0	-0.017329067
3	0xbcf024bb	-0.02931439
4	0xbca67574	-0.020319678
5	0xbca22251	-0.019791754
6	0xbd64d17c	-0.055863842
7	0xbdf09296	-0.11746709
8	0xbd21513d	-0.039384115
9	0x3c6c3d1d	0.014418867
10	0x3c2c9184	0.0105327405
11	0xbce97909	-0.028500097
12	0xbbe4ab0f	-0.0069783996
13	0xbaf738db	-0.0018861549
14	0xbce60d69	-0.028082566
15	0x3d2db5b6	0.04240962
16	0x3d0b6de9	0.034040365
17	0xbc8d0d53	-0.017218268
18	0xbcdabfd6	-0.026702803
19	0x3c928277	0.017884476
20	0xbd7d0170	-0.06176895
21	0xbc213736	-0.0098398235
22	0x3bc71cb2	0.006076419
23	0xbd6ee163	-0.058320414
24	0x3ccf0c42	0.0252744
25	0xbd1822e8	-0.037142664
26	0x3bbf225a	0.0058329524
27	0xbc3d44de	-0.011552064
28	0x3c2bbc74	0.010481942
29	0xbd725f98	-0.059173197
30	0xbcfbd3b9	-0.030740606
31	0xbd0e60c2	-0.034760244
32	0xbcf29438	-0.029611692
33	0x3bd33d9e	0.0064465543
34	0x3c96805f	0.018371759
35	0x3ccd79ee	0.025082555
36	0xbc977f45	-0.018493304
37	0xbca48470	-0.020082682
38	0x3bffbd85	0.007804575
39	0xbc2c0eca	-0.010501573
40	0xbd65d48b	-0.0561109
41	0xbd2261b8	-0.039643973
42	0xbc5f538c	-0.013630759
43	0xbca1a887	-0.01973368
44	0xbd726646	-0.059179567
45	0xbcb3a93b	-0.021931281
46	0xbd0ef4de	-0.034901492
47	0xbda55a4d	-0.08073864
48	0xbc9c7e33	-0.019103145
49	0xbcaad84c	-0.020855092
50	0x3c85f2f3	0.016351199
51	0xbc2bb00a	-0.010478983
52	0xbcaf0759	-0.021365808
53	0x3ce69a73	0.028149819
54	0xbc57f3e6	-0.0131807085
55	0x3b5b4b4c	0.0033461628
56	0xbcda34e0	-0.02663654
57	0xba837d73	-0.0010031894
58	0x3d3565de	0.0442866
59	0x3d61212d	0.05496328
60	0xbca07eaf	-0.019591657
61	0xbd07c776	-0.033149205
62	0x3c40db20	0.0117709935
63	0x3c33305d	0.010936824

bayes_fc1.bias_rho f4 [64]
0	0xbe84cd95	-0.25938097
1	0xbfb73a4b	-1.4314665
2	0xbfab4109	-1.3379222
3	0xbfc31457	-1.5240582
4	0xbfbb136a	-1.46153
5	0xbfedbd91	-1.8573476
6	0xbe8f206c	-0.27954423
7	0xbf07c5a3	-0.53035945
8	0xbfb0904d	-1.3794037
9	0xbf3f02a2	-0.7461339
10	0xbe7bef16	-0.24602923
11	0xbff8c06a	-1.943372
12	0xbe9f1d41	-0.31077006
13	0xbfebae7a	-1.8412621
14	0xbe9749b1	-0.2954841
15	0xbfa52cbb	-1.2904276
16	0xbfbc268a	-1.4699261
17	0xbea98b8f	-0.33114287
18	0xbe66143f	-0.22468661
19	0xbfefc322	-1.8731425
20	0xbfad759c	-1.3551517
21	0xbf166412	-0.58746445
22	0xbe1d508e	-0.1536276
23	0xbf940fa4	-1.1567273
24	0xbe2a880b	-0.16653459
25	0xbe650c7e	-0.22368047
26	0xbf0066d9	-0.50156933
27	0xbfe4a185	-1.7861792
28	0xbffaec68	-1.9603395
29	0xbeb1a97a	-0.34699613
30	0xbed59ff9	-0.41723612
31	0xbe85d40d	-0.26138344
32	0xbe9489d3	-0.29011402
33	0xbea483d7	-0.32131836
34	0xbebbed46	-0.36704463
35	0xbf16b315	-0.5886701
36	0xbfeeac77	-1.8646382
37	0xbe731ceb	-0.237415
38	0xbeee57e7	-0.4655144
39	0xbf0b114a	-0.54323256
40	0xbfca0004	-1.5781255
41	0xbfa7069d	-1.3048893
42	0xbf8dff2f	-1.1093501
43	0xbebb5204	-0.3658601
44	0xbe89dd41	-0.26926616
45	0xbe822ca6	-0.2542469
46	0xbf0494b9	-0.5178943
47	0xbf3e3b81	-0.74309546
48	0xbe9899c1	-0.29804805
49	0xbe878270	-0.26466703
50	0xbec1fb39	-0.3788698
51	0xbf01d096	-0.507089
52	0xbe87c37e	-0.26516336
53	0xbffa098c	-1.9534163
54	0xbe8b5204	-0.2721101
55	0xbfe141af	-1.759817
56	0xbfe38df6	-1.7777698
57	0xbff2f868	-1.8982058
58	0xbf606aa3	-0.87662715
59	0xbf24f706	-0.6443943
60	0xbe92fa10	-0.28706408
61	0xc0002b98	-2.0026608
62	0xbfee632f	-1.8624018
63	0xbec55394	-0.38540328

bayes_fc1.prior_mu_old_bias f4 [64]
0	0xbd1894ee	-0.037251405
1	0xbd06a742	-0.032874353
2	0xbc8df5b0	-0.017329067
3	0xbcf024bb	-0.02931439
4	0xbca67574	-0.020319678
5	0xbca22251	-0.019791754
6	0xbd64d17c	-0.055863842
7	0xbdf09296	-0.11746709
8	0xbd21513d	-0.039384115
9	0x3c6c3d1d	0.014418867
10	0x3c2c9184	0.0105327405
11	0xbce97909	-0.028500097
12	0xbbe4ab0f	-0.0069783996
13	0xbaf738db	-0.0018861549
14	0xbce60d69	-0.028082566
15	0x3d2db5b6	0.04240962
16	0x3d0b6de9	0.034040365
17	0xbc8d0d53	-0.017218268
18	0xbcdabfd6	-0.026702803
19	0x3c928277	0.017884476
20	0xbd7d0170	-0.06176895
21	0xbc213736	-0.0098398235
22	0x3bc71cb2	0.006076419
23	0xbd6ee163	-0.058320414
24	0x3ccf0c42	0.0252744
25	0xbd1822e8	-0.037142664
26	0x3bbf225a	0.0058329524
27	0xbc3d44de	-0.011552064
28	0x3c2bbc74	0.010481942
29	0xbd725f98	-0.059173197
30	0xbcfbd3b9	-0.030740606
31	0xbd0e60c2	-0.034760244
32	0xbcf29438	-0.029611692
33	0x3bd33d9e	0.0064465543
34	0x3c96805f	0.018371759
35	0x3ccd79ee	0.025082555
36	0xbc977f45	-0.018493304
37	0xbca48470	-0.020082682
38	0x3bffbd85	0.007804575
39	0xbc2c0eca	-0.010501573
40	0xbd65d48b	-0.0561109
41	0xbd2261b8	-0.039643973
42	0xbc5f538c	-0.013630759
43	0xbca1a887	-0.01973368
44	0xbd726646	-0.059179567
45	0xbcb3a93b	-0.021931281
46	0xbd0ef4de	-0.034901492
47	0xbda55a4d	-0.08073864
48	0xbc9c7e33	-0.019103145
49	0xbcaad84c	-0.020855092
50	0x3c85f2f3	0.016351199
51	0xbc2bb00a	-0.010478983
52	0xbcaf0759	-0.021365808
53	0x3ce69a73	0.028149819
54	0xbc57f3e6	-0.0131807085
55	0x3b5b4b4c	0.0033461628
56	0xbcda34e0	-0.02663654
57	0xba837d73	-0.0010031894
58	0x3d3565de	0.0442866
59	0x3d61212d	0.05496328
60	0xbca07eaf	-0.019591657
61	0xbd07c776	-0.033149205
62	0x3c40db20	0.0117709935
63	0x3c33305d	0.010936824

bayes_fc1.prior_sigma_small_bias f4 [64]
0	0x3f12644e	0.571843
1	0x3e5b69d5	0.2142709
2	0x3e6e9961	0.23300697
3	0x3e49cc08	0.19706738
4	0x3e558c27	0.20854245
5	0x3e14856e	0.14504024
6	0x3f102814	0.56311154
7	0x3eecea0b	0.4627231
8	0x3e65ea03	0.2245255
9	0x3ec6b6be	0.38811296
10	0x3f13e2d4	0.5776799
11	0x3e090fb8	0.13384902
12	0x3f0cbec9	0.54978615
13	0x3e16c2b7	0.14722715
14	0x3f0e6856	0.55627954
15	0x3e78e65c	0.24306625
16	0x3e53ef43	0.2069674
17	0x3f0a8d6e	0.54122055
18	0x3f164c43	0.58710116
19	0x3e125a35	0.14292224
20	0x3e6af4fb	0.22945015
21	0x3ee246fc	0.44194782
22	0x3f1e892d	0.61928064
23	0x3e8c03d9	0.27346686
24	0x3f1d0406	0.61334264
25	0x3f16698d	0.5875481
26	0x3ef26c99	0.47348478
27	0x3e1eab28	0.15494978
28	0x3e06e69a	0.13173905
29	0x3f08dd2f	0.534625
30	0x3f0191fd	0.50613385
31	0x3f122b2f	0.5709714
32	0x3f0efeb9	0.55857426
33	0x3f0b9b4f	0.5453386
34	0x3f06c046	0.52637136
35	0x3ee20e8f	0.44151732
36	0x3e138434	0.144059
37	0x3f14db26	0.58146894
38	0x3ef9771b	0.48723683
39	0x3eea7b8a	0.45797378
40	0x3e401c89	0.18760885
41	0x3e75b8f4	0.23996335
42	0x3e91ec9f	0.2850084
43	0x3f06e00f	0.52685636
44	0x3f114af3	0.5675499
45	0x3f12f70e	0.57408226
46	0x3eef49a5	0.46735874
47	0x3ec736fb	0.38909134
48	0x3f0e20b2	0.5551864
49	0x3f11cda8	0.5695443
50	0x3f058438	0.52154875
51	0x3ef15c31	0.4714065
52	0x3f11bf88	0.5693288
53	0x3e07c74c	0.1325962
54	0x3f10fa4b	0.56631917
55	0x3e229665	0.15877683
56	0x3e1fe8ba	0.15616122
57	0x3e0ef8a6	0.1396204
58	0x3eb2289e	0.34796613
59	0x3ed80df8	0.42198157
60	0x3f0f5457	0.5598807
61	0x3e01a65f	0.12661122
62	0x3e13d2ef	0.14435934
63	0x3f04d68c	0.5188987

bayes_fc1.prior_mu_old f4 [64, 6]
0	0xbf2d2939	-0.67641026
1	0xbf3abbf3	-0.7294304
2	0xbe73dcb9	-0.23814668
3	0xbf397025	-0.72436744
4	0xbf0cf092	-0.5505458
5	0xbe5ce124	-0.2157026
6	0x3f09bae6	0.5380081
7	0xbdc6949d	-0.096963145
8	0x3fde8ea1	1.7387277
9	0xbed80a0b	-0.42195162
10	0x3dd93180	0.106051445
11	0xbf8f19d9	-1.1179763
12	0xbebbd4cd	-0.36685792
13	0x3e55a5a1	0.20863964
14	0xbfa3beca	-1.2792599
15	0x3ebbb546	0.36661738
16	0xbe1c82c5	-0.1528426
17	0x3f601a83	0.87540454
18	0xbeb98846	-0.3623678
19	0x3e3faabe	0.18717477
20	0xbf9caa21	-1.2239419
21	0x3ede6b8b	0.43441424
22	0xbdf02550	-0.11725867
23	0x3eb25ce9	0.3483651
24	0xbeb7311d	-0.35779658
25	0x3e4de5fd	0.20107265
26	0xbfa78a92	-1.3089163
27	0x3ecc255b	0.3987225
28	0xbe16c141	-0.14722158
29	0x3f097f51	0.53709894
30	0x3e8f11cc	0.27943265
31	0xbdf40a94	-0.1191608
32	0x400058f1	2.0054286
33	0xbea5eeff	-0.32408902
34	0x3e3a2ab8	0.18180358
35	0xbe4719a5	-0.19443376
36	0xbf423266	-0.7585815
37	0xbf1df83e	-0.6170691
38	0xbe72ed12	-0.23723248
39	0xbf28ee16	-0.6598829
40	0xbf2481b5	-0.6426042
41	0xbe99f212	-0.30067497
42	0xbef32b69	-0.47494057
43	0x3e858aa8	0.2608235
44	0xbf176904	-0.59144616
45	0xbe9aa202	-0.30201727
46	0xbe94dd25	-0.2907497
47	0x3fa9e79c	1.3273807
48	0xbe99473a	-0.29937154
49	0x3de4defd	0.11175344
50	0xbfd470ec	-1.6596961
51	0x3f04cff2	0.518798
52	0xbe09acb8	-0.13444793
53	0x3e95474f	0.29155967
54	0xbf5d9edb	-0.8657052
55	0xbe91e56b	-0.28495345
56	0xbeef6db0	-0.46763372
57	0xbe328423	-0.17433219
58	0x3de13afe	0.1099758
59	0x3ec08428	0.37600827
60	0xbf10573c	-0.5638311
61	0xbed5ead3	-0.4178072
62	0xbe0f7175	-0.14008124
63	0xbf2da6e0	-0.67832756
64	0xbe99672a	-0.2996152
65	0xbe173f1b	-0.14770167
66	0xbe67a7df	-0.22622631
67	0x3db1dcd7	0.086847
68	0xc00d696c	-2.2095594
69	0x3ef8926f	0.4854922
70	0xbd9dc321	-0.077032335
71	0xbeb224cb	-0.34793696
72	0xbf2249dd	-0.63393956
73	0xbea27ae0	-0.3173437
74	0xbe43d184	-0.19122893
75	0xbf143f68	-0.5790925
76	0xbf255e50	-0.64597034
77	0xbe5f0e3c	-0.21782774
78	0x3eeebf77	0.4663045
79	0xbe001728	-0.12508833
80	0x3faefeb4	1.3671479
81	0xbec24869	-0.3794587
82	0x3e2dcae5	0.1697193
83	0xbf53a2aa	-0.8267008
84	0xbee4b786	-0.44671267
85	0xbe97e1f6	-0.29664582
86	0xbe6463f0	-0.22303748
87	0xbf08f275	-0.5349496
88	0xbf2593b9	-0.6467853
89	0xbe2bb407	-0.16767894
90	0xbf7152dd	-0.94267064
91	0xbe529fcf	-0.20568775
92	0xbf93ecb5	-1.1556612
93	0xbd9a6330	-0.0753845
94	0x3d0c5150	0.034257233
95	0x3f4c8269	0.7988649
96	0x3eb284ef	0.34867045
97	0xbe165fb0	-0.1468494
98	0x40221229	2.5323584
99	0xbec0bc3d	-0.37643614
100	0x3e32bd23	0.17454962
101	0xbe8b828f	-0.27248046
102	0xbf0d5ca9	-0.55219513
103	0xbe61310c	-0.21991366
104	0xbe36009d	-0.17773671
105	0xbf2278b6	-0.6346544
106	0xbed5c34c	-0.41750562
107	0xbe28275d	-0.16421266
108	0xbf1e3f58	-0.61815405
109	0xbeec16e6	-0.4611122
110	0xbe3c2b42	-0.18375877
111	0xbf22339a	-0.6335999
112	0xbf10441e	-0.5635394
113	0xbe80f903	-0.2518998
114	0x3ea56528	0.3230374
115	0xbdd21d00	-0.102594376
116	0x3fcbb589	1.5914775
117	0xbec80474	-0.39065897
118	0x3e3425c3	0.1759253
119	0xbf28e8d8	-0.6598029
120	0xbe92f3f9	-0.2870176
121	0x3d4385f0	0.047735155
122	0xbfb7bc37	-1.4354314
123	0x3ebd4506	0.36966723
124	0xbddf4e3c	-0.10903594
125	0x3f01f717	0.50767654
126	0xbec09924	-0.37616837
127	0x3dcd728b	0.10031613
128	0xbea9b9ac	-0.3314947
129	0xbefe02a7	-0.496114
130	0xbe655eab	-0.22399394
131	0x3dc29763	0.09501531
132	0xbf0431b1	-0.51638323
133	0xbed7d119	-0.42151716
134	0xbda4779b	-0.080306254
135	0xbf3bfe37	-0.73434776
136	0xbf244e31	-0.6418181
137	0xbd8b4dcb	-0.06801947
138	0xbeb88549	-0.36039189
139	0x3e1f7c5e	0.15574786
140	0xbf81a3d9	-1.0128127
141	0x3ee70726	0.4512264
142	0xbe06e83f	-0.13174532
143	0x3f3b960d	0.73275834
144	0xbef67ae0	-0.4814062
145	0xbf0e7d71	-0.5566016
146	0xbdf4fc27	-0.11962157
147	0xbf2b4d81	-0.66915137
148	0xbf1e336d	-0.6179722
149	0xbe6e36b8	-0.23263061
150	0xbef02a88	-0.4690745
151	0xbee0ad0c	-0.43882024
152	0xbd9a792d	-0.07542644
153	0xbeb9a55d	-0.36258975
154	0xbf18be00	-0.59664917
155	0xbd77dae8	-0.0605115
156	0xbf024f0a	-0.50901854
157	0xbeab0ae7	-0.33406755
158	0xbe3a3408	-0.18183911
159	0xbef7fa1b	-0.48433003
160	0xbe8bc679	-0.2729986
161	0xbe851e0e	-0.25999492
162	0x3e8b2b7f	0.27181622
163	0xbe01e831	-0.1268623
164	0x3febae22	1.8412516
165	0xbeb4453e	-0.35209078
166	0x3e32fde4	0.17479664
167	0xbd96d3a9	-0.0736459
168	0x3eaf9d47	0.3429968
169	0xbdea60a8	-0.11444217
170	0x3fbef0ac	1.4917197
171	0xbe89836d	-0.26858082
172	0x3e1b8575	0.15187629
173	0xbeb380df	-0.35059258
174	0xbf11d15b	-0.56960076
175	0xbf0a01a9	-0.53908783
176	0xbe55fe79	-0.20897855
177	0xbf10370b	-0.5633399
178	0xbf0fb6c9	-0.56138283
179	0xbe63d6eb	-0.22249953
180	0xbf120d53	-0.5705158
181	0xbeba27a8	-0.3635838
182	0xbe8384cf	-0.25687262
183	0xbec9fb04	-0.39449322
184	0xbed9374d	-0.42425004
185	0xbe9a92ff	-0.30190274
186	0xbf16c3ab	-0.58892316
187	0xbedbe61d	-0.42949
188	0xbe0e02ac	-0.13868207
189	0xbef35933	-0.4752899
190	0xbf2879e2	-0.6581098
191	0xbe9b4d66	-0.30332488
192	0xbf052b1e	-0.52018917
193	0xbebe5ad9	-0.37178686
194	0xbe6c0f69	-0.23052754
195	0xbf09ae28	-0.53781366
196	0xbeb119d4	-0.34590018
197	0xbe936edc	-0.28795516
198	0xbf1ad2b3	-0.6047775
199	0xbee2be9f	-0.44286057
200	0xbe5fc00c	-0.21850604
201	0xbf141f25	-0.5786002
202	0xbeea8068	-0.4580109
203	0xbe4d47eb	-0.20046966
204	0xbed6825a	-0.41896325
205	0xbe59a26d	-0.21253367
206	0xbe33cef5	-0.17559417
207	0xbf0fbb6c	-0.5614536
208	0xbf0d1fc5	-0.551266
209	0xbe0887b9	-0.13333024
210	0xbec639e1	-0.38716033
211	0xbe8f49bb	-0.2798594
212	0x3e0d4e1f	0.13799332
213	0xbec8c0f0	-0.392097
214	0x3e13957f	0.14412497
215	0x3e728fa8	0.23687613
216	0xbedc3db6	-0.43015832
217	0x3e795d18	0.24351919
218	0xbfd484df	-1.6603049
219	0x3ea58c88	0.3233378
220	0xbdf927e5	-0.121658124
221	0x3e83f6b6	0.25774163
222	0xbf28b8e5	-0.65907127
223	0xbf222f98	-0.6335387
224	0xbe6844f1	-0.22682549
225	0xbf309d3f	-0.6898994
226	0xbed3ad00	-0.41342926
227	0xbe857c3b	-0.26071343
228	0xbf047fdd	-0.51757604
229	0x3da3dd6b	0.080012165
230	0xbe09b9e8	-0.13449824
231	0xbeb4e458	-0.35330462
232	0xbeba5ef6	-0.36400574
233	0x3e6debc7	0.23234473
234	0xbeb43725	-0.35198322
235	0xbe73b44a	-0.23799244
236	0xbe741d71	-0.23839356
237	0xbe9a5e3e	-0.30150026
238	0xbec19bde	-0.3781423
239	0xbe1e7e6c	-0.15477914
240	0xbead429a	-0.33839875
241	0x3e36bd8c	0.17845744
242	0xbfa6a3a4	-1.3018689
243	0x3eb65474	0.35611308
244	0xbddcd1fd	-0.107822396
245	0x3f090f84	0.535393
246	0xbea52d43	-0.32261094
247	0x3df7ac2b	0.12093385
248	0xbfd044a0	-1.6270943
249	0x3ee4bbd2	0.44674546
250	0xbdf69a83	-0.120411895
251	0x3eec4889	0.4614909
252	0xbe937eb5	-0.28807607
253	0x3dbfa255	0.09357134
254	0xbfa90ec5	-1.3207632
255	0x3f07eb92	0.53093827

bayes_fc1.prior_sigma_small f4 [64, 6]
0	0x3eccfd53	0.4003702
1	0x3e92eeb3	0.28697738
2	0x3f709dc3	0.93990725
3	0x3ef6cf41	0.48204997
4	0x3e7b3787	0.24532901
5	0x3f7b230d	0.9810036
6	0x3cd2172f	0.02564582
7	0x3c303447	0.010754651
8	0x3f18a6da	0.59629595
9	0x3d3860d1	0.045014206
10	0x3c3d8d88	0.011569388
11	0x3f079d0a	0.52974
12	0x3cf1c054	0.029510655
13	0x3c49530f	0.012287869
14	0x3f1a0162	0.6015836
15	0x3d00791d	0.031365503
16	0x3c54ca48	0.012987681
17	0x3f3f6363	0.7476103
18	0x3ce4f850	0.027950436
19	0x3c0a67a2	0.00844756
20	0x3f1d1e7b	0.61374635
21	0x3cc61ab6	0.024182659
22	0x3c2dfa3b	0.010618742
23	0x3f026673	0.50937575
24	0x3d027afe	0.031855576
25	0x3c1eb0a3	0.009685668
26	0x3f23ca2d	0.6398037
27	0x3ce4872b	0.027896484
28	0x3c521bfc	0.012824055
29	0x3edad0ff	0.42737576
30	0x3cec7fb7	0.028869493
31	0x3c3f45e7	0.011674381
32	0x3eb7eea9	0.3592427
33	0x3cb002bd	0.02148568
34	0x3bd4e8d3	0.0064974814
35	0x3ee97c9a	0.45602876
36	0x3ec6750e	0.3876118
37	0x3e856eb6	0.26061028
38	0x3f7ad37c	0.9797895
39	0x3ed18eb5	0.4092919
40	0x3e85d5ed	0.26139775
41	0x3f81bf9d	1.0136601
42	0x3db4cebe	0.088284954
43	0x3cc22439	0.023698913
44	0x3f6fadee	0.9362477
45	0x3e169192	0.14703968
46	0x3d630299	0.0554224
47	0x3fb6cb34	1.4280763
48	0x3d28298d	0.04105525
49	0x3c3c0e7c	0.011478063
50	0x3f2556e0	0.64585686
51	0x3ccde079	0.025131451
52	0x3c51564e	0.012776924
53	0x3f100df6	0.562713
54	0x3e5ce7cb	0.21572797
55	0x3dad4142	0.084597126
56	0x3f602844	0.8756144
57	0x3d7efca2	0.06225265
58	0x3ca96ff4	0.020683266
59	0x3f77e2fc	0.96830726
60	0x3ee45730	0.4459777
61	0x3e36dbf4	0.17857343
62	0x3f76eeea	0.96458304
63	0x3eec1f69	0.46117714
64	0x3e23071d	0.15920682
65	0x3f74ce00	0.9562683
66	0x3cc7960d	0.024363542
67	0x3bcbaeb3	0.006215894
68	0x3eb31060	0.3497343
69	0x3c9e2672	0.019305442
70	0x3c08e3af	0.008355065
71	0x3edcb141	0.43103984
72	0x3ebb9529	0.36637238
73	0x3e18ee24	0.14934593
74	0x3f72461b	0.9463822
75	0x3ed90c5d	0.42392245
76	0x3e875db2	0.2643867
77	0x3f771068	0.9650941
78	0x3ca87fc7	0.020568741
79	0x3bfc15fd	0.007693051
80	0x3edbc09e	0.42920393
81	0x3ca91bd7	0.020643158
82	0x3bf5c632	0.0075004334
83	0x3ef65367	0.48110506
84	0x3ec71332	0.38881832
85	0x3e160904	0.14651877
86	0x3f6eca97	0.9327788
87	0x3ee6b309	0.45058468
88	0x3e854ee7	0.2603676
89	0x3f756949	0.9586378
90	0x3e9d14c3	0.30679902
91	0x3cad945b	0.021188905
92	0x3f379f6e	0.71727645
93	0x3cc411c6	0.023934256
94	0x3c091c93	0.008368629
95	0x3e9feeb5	0.31236807
96	0x3cfa4522	0.030550543
97	0x3c635b72	0.013876783
98	0x3ef516b1	0.47868875
99	0x3ce183b3	0.02752862
100	0x3c561747	0.013067073
101	0x3f2438d1	0.64149195
102	0x3ed13187	0.408581
103	0x3e110b33	0.14164428
104	0x3f83e365	1.030377
105	0x3ec990e6	0.3936836
106	0x3e2dc549	0.1696979
107	0x3f7b94e3	0.9827406
108	0x3ecda604	0.40165722
109	0x3e45b22c	0.19306248
110	0x3f7aff82	0.98046124
111	0x3ed34e51	0.41270688
112	0x3e6e394f	0.23264049
113	0x3f82a8da	1.020778
114	0x3c8a04aa	0.016847927
115	0x3bec0325	0.0072025233
116	0x3eadd094	0.33948195
117	0x3c8d6728	0.017261103
118	0x3bfdfc6b	0.007751038
119	0x3ed410f3	0.4141918
120	0x3d33c61e	0.04389011
121	0x3c397a63	0.011320683
122	0x3f34e028	0.70654535
123	0x3d0ca5c2	0.034337766
124	0x3c50ab09	0.01273609
125	0x3f019a65	0.5062621
126	0x3e1a82f6	0.1508902
127	0x3d19b7b0	0.037528694
128	0x3f62d425	0.88604957
129	0x3eaf3503	0.34220132
130	0x3d9a7c09	0.07543189
131	0x3f892d34	1.071692
132	0x3ed9615f	0.424571
133	0x3e5e94af	0.21736406
134	0x3f786b88	0.9703908
135	0x3ef2a5fe	0.47392267
136	0x3ea69f1f	0.32543275
137	0x3f7ccfaf	0.987544
138	0x3d4cf7b7	0.050040927
139	0x3c86355b	0.016382864
140	0x3f3f3a39	0.74698216
141	0x3d788f27	0.060683396
142	0x3c995def	0.018721549
143	0x3f39bc89	0.72553307
144	0x3ef1588f	0.47137877
145	0x3e5072a3	0.2035623
146	0x3f82227d	1.0166775
147	0x3f03f8e6	0.51551664
148	0x3e849531	0.25895074
149	0x3f7ff3bf	0.999813
150	0x3ed7310c	0.42029607
151	0x3e61ce5c	0.22051376
152	0x3f77efdb	0.96850365
153	0x3ed67bde	0.41891378
154	0x3e806bc5	0.25082222
155	0x3f862c43	1.0482258
156	0x3e99c584	0.30033505
157	0x3e066de4	0.13127857
158	0x3f70340d	0.93829423
159	0x3e8e166b	0.2775148
160	0x3de0f6f0	0.109845996
161	0x3f7d86df	0.9903392
162	0x3d06f753	0.03295071
163	0x3c136c0a	0.0089979265
164	0x3ec3f1ff	0.38270566
165	0x3ca113c4	0.019662745
166	0x3c064971	0.008196221
167	0x3ef4b60a	0.47795135
168	0x3cb0e8e3	0.021595424
169	0x3c0f977a	0.008764142
170	0x3eae9d1b	0.34104237
171	0x3c9d756a	0.019221026
172	0x3be65017	0.0070285904
173	0x3ed0f0cc	0.40808713
174	0x3eafbae7	0.34322283
175	0x3e5fb294	0.21845466
176	0x3f6cfa90	0.9256983
177	0x3eade308	0.33962274
178	0x3e654580	0.22389793
179	0x3f6a2aab	0.91471356
180	0x3ea55fb4	0.32299578
181	0x3e1278c2	0.14303878
182	0x3f8224ec	1.0167518
183	0x3e7be25c	0.24598068
184	0x3e37b1ab	0.17938869
185	0x3f797d2b	0.97456616
186	0x3ee4f061	0.44714645
187	0x3e61abd3	0.22038202
188	0x3f7ae295	0.98001987
189	0x3ec3acc5	0.3821775
190	0x3e8672d8	0.26259494
191	0x3f7c7a4f	0.9862413
192	0x3ece9056	0.40344495
193	0x3e62b2d3	0.22138529
194	0x3f82361d	1.0172764
195	0x3eccc714	0.39995635
196	0x3e38cb43	0.18046288
197	0x3f7b237f	0.9810104
198	0x3ebdbab6	0.37056512
199	0x3e3b27b6	0.18276867
200	0x3f7b46ad	0.9815472
201	0x3ec554ba	0.38541204
202	0x3e32bc2a	0.17454591
203	0x3f6bafaa	0.9206492
204	0x3ea75c01	0.3268738
205	0x3df705be	0.12061642
206	0x3f7cc4ae	0.9873761
207	0x3ec489a3	0.38386258
208	0x3e4c4693	0.19948797
209	0x3f66f252	0.902135
210	0x3e5435ae	0.20723602
211	0x3d884bd9	0.06655092
212	0x3f8167c6	1.0109794
213	0x3e04fbf8	0.12986743
214	0x3d112d5d	0.035443652
215	0x3f6abdc9	0.9169584
216	0x3ca4c9e2	0.020115796
217	0x3c00ccbc	0.0078613125
218	0x3eb4aa9a	0.3528641
219	0x3cc1dfdc	0.023666315
220	0x3c139367	0.009007311
221	0x3ee2b503	0.44278726
222	0x3ee52089	0.44751385
223	0x3e76b550	0.24092603
224	0x3f794cbc	0.9738271
225	0x3ec07bb5	0.3759438
226	0x3e49848c	0.19679469
227	0x3f6eb912	0.93251145
228	0x3e56b79f	0.20968483
229	0x3d72d6ac	0.05928676
230	0x3f65a50c	0.89704967
231	0x3ed8421b	0.42237934
232	0x3e0426fb	0.12905495
233	0x3f89398e	1.0720689
234	0x3e974d5a	0.29551202
235	0x3dbad3a0	0.091223955
236	0x3f697974	0.9120095
237	0x3e6b4bdb	0.22978155
238	0x3e34fadd	0.17673822
239	0x3f6dcb98	0.92888784
240	0x3cd050e3	0.025429195
241	0x3c156d1d	0.009120253
242	0x3f1ab7bf	0.60436624
243	0x3ca8afa2	0.02059156
244	0x3c43c0ea	0.01194785
245	0x3efd447f	0.4946632
246	0x3d54fc34	0.051998332
247	0x3c6fb636	0.014630845
248	0x3f32d9eb	0.69863766
249	0x3d157a4d	0.03649359
250	0x3c3bcb9c	0.0114621185
251	0x3f0d6af0	0.552413
252	0x3d2ea5b3	0.04263849
253	0x3c57c850	0.013170317
254	0x3f4578c5	0.77137405
255	0x3d1143ec	0.035465166

bayes_fc2.weight_mu f4 [1, 64]
0	0x3b63ca08	0.0034757871
1	0x3d591d5a	0.053006507
2	0xbd1b0468	-0.037846
3	0xbd433257	-0.04765543
4	0xbd2f3be6	-0.042781733
5	0x3d7c7671	0.061636392
6	0xbd192633	-0.037389945
7	0xbd253e34	-0.040342525
8	0xbd57e987	-0.052712943
9	0x3dc493ea	0.09598525
10	0xbcf866f7	-0.030322535
11	0xbda778ef	-0.08177363
12	0xbc5c9d33	-0.013465214
13	0x3d91142d	0.07083926
14	0xbda664de	-0.08124708
15	0x3ebe4621	0.3716288
16	0x3d3e6e55	0.04649194
17	0xbc5d4145	-0.013504331
18	0x3c7365c7	0.014855809
19	0x3d8525af	0.06501328
20	0xbd8c9384	-0.06864074
21	0xbd5b4563	-0.05353297
22	0xbcaa5d1e	-0.020796355
23	0xbd0d30bf	-0.034470316
24	0xba598502	-0.0008297713
25	0xbd90e195	-0.07074276
26	0x3c7c91a3	0.015415582
27	0x3d5e2d0a	0.05424217
28	0x3d9fc4c2	0.078012004
29	0x3ddfbfd4	0.1092526
30	0x3cef373a	0.029201139
31	0x3c5b00b2	0.013366865
32	0xbc43e006	-0.011955267
33	0x39dce6c7	0.00042133612
34	0xbc82a93f	-0.015949843
35	0x3d91efc6	0.07125811
36	0xbd6776b8	-0.056509703
37	0x3e107d33	0.1411026
38	0xbc609fe8	-0.01371
39	0x3e37ff2b	0.17968433
40	0xbd54dd3f	-0.05196881
41	0xbd58b7cf	-0.05290967
42	0xbd395e77	-0.045256104
43	0x3cb2d6a0	0.021830857
44	0x3c8ff30d	0.01757195
45	0xbdd0e3bf	-0.10199689
46	0x3ccab997	0.0247467
47	0xbd00c09b	-0.031433683
48	0xbcaec85f	-0.021335779
49	0x3ad61648	0.0016333545
50	0x3c1fe871	0.009760008
51	0xbcd15df5	-0.025557498
52	0xbd44da3d	-0.04805969
53	0x3d8b9582	0.06815626
54	0xbba889f7	-0.0051434
55	0x3d781e86	0.060575984
56	0x3da1abd5	0.078941025
57	0x3d84e0e5	0.06488208
58	0x3de247d2	0.11048855
59	0x3d9f6ff8	0.07785028
60	0x3de56ba9	0.11202175
61	0x3d9d848d	0.07691298
62	0xbd810caa	-0.063012436
63	0x3cd35cc9	0.02580108

bayes_fc2.weight_rho f4 [1, 64]
0	0xbf94acc0	-1.1615219
1	0xc0b1b17c	-5.5529156
2	0xc0ad5116	-5.416148
3	0xc0b37ae8	-5.608753
4	0xc0acb1fc	-5.3967266
5	0xc0b063d2	-5.512185
6	0xbfa0b0bc	-1.2553935
7	0xc098f861	-4.7803197
8	0xc0a9c092	-5.304757
9	0xc06aa223	-3.666146
10	0xc04eb52b	-3.2298076
11	0xc0aefcb1	-5.468346
12	0xbfe36c26	-1.7767379
13	0xc0b2767d	-5.576964
14	0xbfe72c21	-1.8060342
15	0xc06112fb	-3.5167835
16	0xc0af2b08	-5.474003
17	0xc01c7c30	-2.4450798
18	0xbfd2cb6b	-1.6468328
19	0xc0ad2406	-5.4106474
20	0xc099a631	-4.801537
21	0xc0365477	-2.8489053
22	0xc00f7f13	-2.242131
23	0xc0aa355e	-5.3190145
24	0xc00cf149	-2.2022269
25	0xc01abca1	-2.417763
26	0xbea82073	-0.32837257
27	0xc0a808dd	-5.251082
28	0xc0afd976	-5.4952955
29	0xbf3d6165	-0.7397674
30	0xbfa2e0fc	-1.272491
31	0xbfc56889	-1.5422527
32	0xc029bed4	-2.6522722
33	0xbf8accdd	-1.0843769
34	0xc01712a2	-2.3605123
35	0xc080cff6	-4.025386
36	0xc0b1b5d0	-5.553444
37	0xbf112d3f	-0.56709665
38	0xc08be89f	-4.372146
39	0xbf27296d	-0.65297586
40	0xc0ae0e4f	-5.4392467
41	0xc0a3b1eb	-5.1154685
42	0xc0abbf32	-5.3670893
43	0xc016f227	-2.3585298
44	0xc0198000	-2.3984375
45	0xbfb3e8f7	-1.405547
46	0xbfc59dc7	-1.5438775
47	0xc0a4ce98	-5.150219
48	0xbfa568a8	-1.2922564
49	0xc035329c	-2.831214
50	0xc0147556	-2.3196616
51	0xc06de9dd	-3.717399
52	0xbffaa2b0	-1.9580898
53	0xc0addcf6	-5.433223
54	0xbf380a56	-0.7189077
55	0xc0ab6b62	-5.3568583
56	0xc0ae515d	-5.447432
57	0xc0ad6b77	-5.4193683
58	0xc07dd150	-3.9659004
59	0xc08909f5	-4.2824655
60	0xbf7c6116	-0.9858564
61	0xc0aaf592	-5.342477
62	0xc0ab8be7	-5.360828
63	0xc024502c	-2.5673933

bayes_fc2.prior_mu_old f4 [1, 64]
0	0x3b63ca08	0.0034757871
1	0x3d591d5a	0.053006507
2	0xbd1b0468	-0.037846
3	0xbd433257	-0.04765543
4	0xbd2f3be6	-0.042781733
5	0x3d7c7671	0.061636392
6	0xbd192633	-0.037389945
7	0xbd253e34	-0.040342525
8	0xbd57e987	-0.052712943
9	0x3dc493ea	0.09598525
10	0xbcf866f7	-0.030322535
11	0xbda778ef	-0.08177363
12	0xbc5c9d33	-0.013465214
13	0x3d91142d	0.07083926
14	0xbda664de	-0.08124708
15	0x3ebe4621	0.3716288
16	0x3d3e6e55	0.04649194
17	0xbc5d4145	-0.013504331
18	0x3c7365c7	0.014855809
19	0x3d8525af	0.06501328
20	0xbd8c9384	-0.06864074
21	0xbd5b4563	-0.05353297
22	0xbcaa5d1e	-0.020796355
23	0xbd0d30bf	-0.034470316
24	0xba598502	-0.0008297713
25	0xbd90e195	-0.07074276
26	0x3c7c91a3	0.015415582
27	0x3d5e2d0a	0.05424217
28	0x3d9fc4c2	0.078012004
29	0x3ddfbfd4	0.1092526
30	0x3cef373a	0.029201139
31	0x3c5b00b2	0.013366865
32	0xbc43e006	-0.011955267
33	0x39dce6c7	0.00042133612
34	0xbc82a93f	-0.015949843
35	0x3d91efc6	0.07125811
36	0xbd6776b8	-0.056509703
37	0x3e107d33	0.1411026
38	0xbc609fe8	-0.01371
39	0x3e37ff2b	0.17968433
40	0xbd54dd3f	-0.05196881
41	0xbd58b7cf	-0.05290967
42	0xbd395e77	-0.045256104
43	0x3cb2d6a0	0.021830857
44	0x3c8ff30d	0.01757195
45	0xbdd0e3bf	-0.10199689
46	0x3ccab997	0.0247467
47	0xbd00c09b	-0.031433683
48	0xbcaec85f	-0.021335779
49	0x3ad61648	0.0016333545
50	0x3c1fe871	0.009760008
51	0xbcd15df5	-0.025557498
52	0xbd44da3d	-0.04805969
53	0x3d8b9582	0.06815626
54	0xbba889f7	-0.0051434
55	0x3d781e86	0.060575984
56	0x3da1abd5	0.078941025
57	0x3d84e0e5	0.06488208
58	0x3de247d2	0.11048855
59	0x3d9f6ff8	0.07785028
60	0x3de56ba9	0.11202175
61	0x3d9d848d	0.07691298
62	0xbd810caa	-0.063012436
63	0x3cd35cc9	0.02580108

bayes_fc2.prior_sigma_small f4 [1, 64]
0	0x3e8b6dc3	0.2723218
1	0x3b7d891f	0.0038686467
2	0x3b914e53	0.004434386
3	0x3b6fcabd	0.0036589347
4	0x3b942630	0.004521154
5	0x3b8406f1	0.004029148
6	0x3e805fbe	0.25073045
7	0x3c08f133	0.008358288
8	0x3ba262a1	0.004955605
9	0x3ccedff7	0.02525328
10	0x3d1eef54	0.03880246
11	0x3b89ee6e	0.0042093312
12	0x3e200fdb	0.15631048
13	0x3b7785ca	0.0037768953
14	0x3e1bc65c	0.15212387
15	0x3cefb7cb	0.029262444
16	0x3b8927ab	0.004185637
17	0x3daa5180	0.08316326
18	0x3e3469f0	0.17618537
19	0x3b921b0c	0.0044587906
20	0x3c061437	0.0081835305
21	0x3d66938f	0.056293067
22	0x3dcec3e0	0.10095954
23	0x3ba01795	0.0048856237
24	0x3dd6c195	0.104861416
25	0x3daed6d9	0.08537073
26	0x3f0ad95f	0.5423793
27	0x3bab50ee	0.0052281534
28	0x3b864577	0.0040976363
29	0x3ec7c3be	0.39016527
30	0x3e7ce41d	0.24696393
31	0x3e467d46	0.19383726
32	0x3d8b8114	0.06811729
33	0x3e952006	0.29125994
34	0x3db8b096	0.09018056
35	0x3c90fd72	0.017698977
36	0x3b7d66e7	0.003866607
37	0x3ee606e2	0.44927126
38	0x3c4d89f5	0.012545099
39	0x3ed68bd8	0.41903567
40	0x3b8dfec8	0.004333351
41	0x3bc41fa5	0.0059852176
42	0x3b989863	0.004656838
43	0x3db90a4c	0.09035167
44	0x3db21b56	0.0869662
45	0x3e609617	0.21932255
46	0x3e463245	0.19355114
47	0x3bbd71d1	0.0057813902
48	0x3e787efd	0.24267192
49	0x3d6a9387	0.0572696
50	0x3dc00a5c	0.09376976
51	0x3cc4a981	0.024006607
52	0x3e072f78	0.13201702
53	0x3b8ed9f1	0.0043594767
54	0x3ecb3d44	0.3969518
55	0x3b9a292a	0.004704614
56	0x3b8cd717	0.0042981016
57	0x3b90d6ff	0.004420161
58	0x3c99cb29	0.018773632
59	0x3c60b121	0.013714106
60	0x3ea258fd	0.31708518
61	0x3b9c6378	0.0047726
62	0x3b998d2d	0.004686019
63	0x3d976a80	0.0739336
