models/updated_hmnn_model_2018.pth (torch, 13926 bytes, 12 tensors)

bayes_fc1.weight_mu f4 [64, 6]
00000000: 4f9c cabe ee8a 20bf c84c 50be 4ecf ccbe
00000010: 4c01 85be de15 62be 6744 0b3f 8898 f0bd
00000020: 3946 023f 6307 c0be 0621 af3d 6f17 88be
00000030: 5bbf aabe 6142 e73d 48a6 87be dce6 d13d
00000040: 5fc9 3fbe 7836 32bd 1f5a aebe 3780 073e
00000050: 156e 13bf ca5b e03e 297b debd ed5d 543d
00000060: bf29 c2be a069 283e 2746 eabe 3fea ab3e
00000070: 641d febd a545 c13b 0e3e 473e 8627 03be
00000080: 412f be3e cec4 96be dc75 723d bcc7 0bbe
00000090: 5adb cbbe 34b7 fabe 73d5 4dbd 420e b6be
000000a0: dbff f1be c655 03be 8efe fabe 1b84 e33d
000000b0: 460d 79be 2280 12be 7ad4 afbe c1a5 edbc
000000c0: ee98 9ebe 4a76 e83d 76a8 26bf baad ee3e
000000d0: bb20 f7bd 7b07 db3d adc0 5dbe 001f 9fbe
000000e0: 6580 08bd b1a3 89be 9175 85bd ec4a 02bd
000000f0: c77d 95be 9b49 9abe acb6 babd 6f54 aebe
00000100: c0da b1bd 6dcb d8bd 8574 73be d1cd 843d
00000110: dd90 1fbf f9f6 ea3e d8c8 cfbd 57d3 a3bb
00000120: dd7d 9dbe 1136 03be e123 05be 454a 90be
00000130: c84f ecbe 3283 14be 249b ff3e 7603 eebd
00000140: 9106 033f b008 a3be a591 e83d 03e4 3abe
00000150: c6bb 54be 76a8 72be 89cd 19be cf52 fcbe
00000160: 0566 e2be 1f80 19be a4c7 f3be 8c56 63be
00000170: 825b 93bd 5d24 59be 3614 8bbc 9554 a33d
00000180: ac88 e43e 3780 fabd 2a56 1f3f 0434 cabe
00000190: 57c0 123e f4d0 9cbe e7db dabe 8429 25be
000001a0: 58c5 08be d095 a2be 96de a8be 9e29 a8bd
000001b0: 1fdc b5be 1655 b0be ea08 13be 238c d1be
000001c0: 80ec abbe def7 07be ac16 a43e 1e37 cebd
000001d0: 8d40 213f 3569 bfbe a3a9 df3d 5f74 8abe
000001e0: bebf 9abe f975 883d 9fa8 d8be 25ad 803e
000001f0: b0fe ebbd 5d30 aebc 2138 a5be 0820 17bc
00000200: a994 08be 66c7 adbe 4e21 2abe cf27 14bd
00000210: 9261 c7be 1702 edbe 32e4 34bd c6e8 d3be
00000220: 4584 f3be a171 6fbd 0353 b1be 7eae 863d
00000230: a357 9dbe bfde 4e3e 5ce8 66be d86e c1bd
00000240: aaa6 3fbe 3be0 84be c150 3abe 27a1 d4be
00000250: a408 ecbe fec9 1d3c 2fe6 9ebe e507 abbe
00000260: f488 dcbc c643 10be f260 efbe c0df b1bd
00000270: 24c9 b2be 79ee 59be 3b3d 81bd a18e afbe
00000280: 0bcc 66be 3d56 b4bd 6c6c 933e a29c c8bd
00000290: 4223 273f f874 a8be 947e 1a3e 418d 1ebe
000002a0: effe c93e 0774 a4bd 2404 003f a641 82be
000002b0: ff56 b13d c359 c7bd ccb2 c2be 2ddf acbe
000002c0: 2132 ee3c e5e5 cdbe 00d2 e0be f088 c3bd
000002d0: 7b43 b1be 41d9 8bbe 6c5d 27be 4a95 f9bd
000002e0: b4ac babe 9b57 1dbe c043 8bbe 0000 f2be
000002f0: 8edc c0bd bfea 9fbe 8168 0bbf 6515 cdbd
00000300: 1d4d 69be 9df7 94be 33ca 34be 4a73 a8be
00000310: a7a6 82be cd29 a0bc 3a70 c3be 0081 a0be
00000320: a786 abbd be57 e4be 0277 9fbe 1735 00be
00000330: 7772 a3be 9a5f 4cbe 1b87 efbd 9374 bfbe
00000340: 991b d1be a67f b8bd c247 043c 5057 6dbe
00000350: 5b72 d23d 7963 febe 265d af3d 5642 fbbd
00000360: cc7a d1be f0b3 543e 4335 19bf 3071 643e
00000370: 8e75 dfbd 6801 5c3e 10fa d2be 5144 d2be
00000380: 0a99 a8bc c405 d7be bc8b c9be 14f7 48be
00000390: d540 d1be 2aef de3d 15ff 19be 23c9 38be
000003a0: 29c1 9cbe 7beb d2bd 1ced 79be 1b33 4dbe
000003b0: 5a5f 56bd a778 51be 76be debe 0d95 8dbc
000003c0: 35dc c5be 4852 bf3d 01e9 febe 79c6 a73e
000003d0: ddfc ccbd 42b9 a43d aada a0be 14bd d73c
000003e0: b4c9 98be f366 443e 066b 00be 6aaa e5b9
000003f0: 4d62 b2be d430 d03d 21e4 f4be f5b7 f13e
-0.3957238 -0.6271199 -0.2034179 -0.4000191 -0.25977552 -0.22078654 0.5440125 -0.11747843
0.508884 -0.37505636 0.085512206 -0.26580378 -0.33349118 0.11291958 -0.2649405 0.10249111
-0.1872916 -0.043508977 -0.34053132 0.13232504 -0.57589847 0.4382003 -0.10863335 0.051847387
-0.37922475 0.16446543 -0.45756647 0.33577153 -0.124079496 0.005898195 0.19457266 -0.12808046
0.37145427 -0.29447025 0.05919443 -0.13650411 -0.3981579 -0.48967898 -0.05025239 -0.35557753
-0.47265515 -0.12825689 -0.49022335 0.111091815 -0.2432147 -0.14306691 -0.34341794 -0.029009702
-0.3097605 0.11350687 -0.651008 0.46616918 -0.1206679 0.10694786 -0.21655531 -0.3107834
-0.03332557 -0.268827 -0.06516565 -0.031809732 -0.29197523 -0.30134282 -0.09116873 -0.34048793
-0.086843014 -0.105856754 -0.23774917 0.06484569 -0.6233042 0.4589155 -0.1014573 -0.004999559
-0.3076009 -0.12813593 -0.13001968 -0.28181663 -0.46154618 -0.14503172 0.4992305 -0.11621754
0.51181895 -0.31842566 0.113559045 -0.18251042 -0.20774755 -0.23697075 -0.15019812 -0.49281928
-0.4421846 -0.1499028 -0.4761325 -0.22200984 -0.07195188 -0.21205278 -0.01697741 0.07975117
0.44635522 -0.12231486 0.6224085 -0.3949281 0.14331184 -0.3062817 -0.42745897 -0.16129118
-0.1335653 -0.31754923 -0.3298232 -0.08211063 -0.35519502 -0.34439915 -0.14358869 -0.40927228
-0.33578873 -0.13278148 0.32048547 -0.100691065 0.6298912 -0.37384954 0.109210275 -0.2704191
-0.30224413 0.066631265 -0.42316148 0.251321 -0.11523187 -0.021263296 -0.32269385 -0.009223945
-0.1333796 -0.3394119 -0.16614267 -0.036170777 -0.38941628 -0.46290657 -0.044162937 -0.4138853
-0.4756185 -0.058457974 -0.34633645 0.065762505 -0.30730924 0.20202158 -0.22549576 -0.0944497
-0.18715921 -0.25952324 -0.18194868 -0.415292 -0.46100342 0.009630678 -0.3103499 -0.3340446
-0.026920773 -0.14088354 -0.4675365 -0.08685255 -0.34919083 -0.21282376 -0.06310507 -0.34288505
-0.22538774 -0.08805511 0.28793657 -0.097955 0.65288174 -0.3290174 0.15087348 -0.15483572
0.3945231 -0.08029943 0.5000632 -0.2544071 0.08659171 -0.097339176 -0.38027036 -0.3376402
0.029076638 -0.40214458 -0.43910217 -0.09547603 -0.34621796 -0.2731419 -0.16344231 -0.12186678
-0.36459887 -0.1536545 -0.27200127 -0.47265625 -0.094170675 -0.31233785 -0.54456335 -0.10013846
-0.22783323 -0.29095164 -0.17655258 -0.3290046 -0.2551777 -0.019551182 -0.3817156 -0.3134842
-0.08375292 -0.44598192 -0.31145483 -0.12520252 -0.31923267 -0.19958344 -0.11695691 -0.37393627
-0.40841368 -0.09008722 0.008073749 -0.23177838 0.10275718 -0.49685267 0.085626885 -0.12268512
-0.40914 0.20771766 -0.59846896 0.22308803 -0.10911094 0.21484911 -0.41206408 -0.41067746
-0.020580787 -0.41996586 -0.3936442 -0.19625503 -0.40869775 0.10885461 -0.15038712 -0.18045478
-0.3061612 -0.102988206 -0.24406856 -0.20039026 -0.052337028 -0.20456181 -0.43504685 -0.017282987
-0.38644567 0.09341866 -0.49787143 0.3276861 -0.10009167 0.080431476 -0.31416827 0.026335277
-0.29841387 0.19179897 -0.12540826 -0.00043805252 -0.34840623 0.10165563 -0.478303 0.4721066

bayes_fc1.weight_rho f4 [64, 6]
00000000: 310c 46bf 9350 93bf c187 093f 0ea2 30bf
00000010: 308f d2bf 9c5b 1e3f c835 28c0 ea5a 60c0
00000020: e983 813e ae88 16c0 918d 52c0 9340 a33e
00000030: 4e0c 01c0 5b46 32c0 72a2 b83e a195 afbf
00000040: 6b42 34c0 3dd4 4c3e 5c37 2dc0 e381 67c0
00000050: 7ed6 a83d 1188 32c0 ba2d 6bc0 252a 0d3d
00000060: b0b1 14c0 5f6b 4fc0 bab4 953e 1f4d 0ac0
00000070: 1caa 46c0 ba1c fc3d 52ff debf 531d 35c0
00000080: f587 a03e f9be 09c0 f603 45c0 98c5 943e
00000090: 5c21 03bf 3252 c1bf b109 d83e 4c2e 27bf
000000a0: 2792 c7bf ce0d bc3e aa15 b3bf 2f9f 23c0
000000b0: 3a6e e03e 361e 61bf 4d52 fbbf a0b7 d43e
000000c0: bcaa 29c0 173e 5ec0 4217 843e 39f5 2ac0
000000d0: fb98 5cc0 3eac fe3d 99fa 7cbf 3a65 e8bf
000000e0: d75d 083f 5f63 aebf 4628 0fc0 05d0 cc3e
000000f0: 96cd 1abf 298d debf 9920 d23e e5ec 46bf
00000100: 488b 02c0 8199 fd3e de0f 19c0 8692 50c0
00000110: 3c81 9a3e 7902 2dc0 cc16 61c0 0729 0f3e
00000120: 182e 85bf e115 10c0 cc84 ad3e ee6c 54bf
00000130: aaf2 a8bf 4c3a 153f 7592 38c0 72ec 74c0
00000140: 780c 9d3c 1174 36c0 0f24 69c0 da1d 04bd
00000150: 3254 97bf 1fb5 05c0 40fa b93e 67b1 47bf
00000160: 8664 b2bf 2e3b ed3e 2e41 82bf 0052 06c0
00000170: a58f 973e 3f4c 0ac0 bcd3 34c0 eade 983e
00000180: f7df 16c0 bdde 5ac0 91d5 ab3e a04a 25c0
00000190: c734 5dc0 a415 043e 72b4 87bf 29a4 05c0
000001a0: 13ac 203f 3146 62bf afa0 cebf 3264 d63e
000001b0: 565a 6abf c1b4 e5bf e85b 0e3f 9422 71bf
000001c0: 0ca0 d3bf 5ee7 b13e c27d 30c0 6481 6dc0
000001d0: 45b3 233e c890 26c0 61f2 62c0 a56e 203e
000001e0: 338e f0bf a0f0 40c0 9ee4 8f3e 4822 00c0
000001f0: 84b0 42c0 bb2f 713e 69e2 b8bf c9c8 28c0
00000200: 0b5a e33e dc3f 90bf d5eb 15c0 0613 eb3e
00000210: 3f01 0ebf a25c d0bf 9f30 ef3e bdff d4be
00000220: 51ed 9dbf 2526 0a3f e111 e8bf 2f4d 2ac0
00000230: a790 073f b420 cabf 240c 1cc0 b02f d33e
00000240: fc2d 21bf c319 f2bf e39e 283f b6e6 e5be
00000250: 3070 b0bf d906 073f d0fe 4dbf f475 cabf
00000260: 50af 0d3f 4eb9 4bbf d138 a4bf facf 003f
00000270: e2fa 86bf 92fd 1cc0 d6b5 c43e d740 8ebf
00000280: 1a0e 0bc0 66c3 b33e 744a 34c0 3dc9 70c0
00000290: 53e4 48be 3660 3ec0 33d1 7ac0 4ded acbd
000002a0: 4979 4fc0 12fb 7dc0 1bc6 0abe 242b 40c0
000002b0: a568 80c0 63d8 aabc 3577 56bf 460f d3bf
000002c0: 3942 003f ae4e 45bf 5fe6 d8bf dd0d 533e
000002d0: 9a41 81bf 6a0d 06c0 365b f33e ade3 bbbf
000002e0: ec9f d5bf 160f 8e3e 957e 4dbf ce79 cdbf
000002f0: ff79 cb3e 7e9b 4ebf 77b5 9fbf d53a 083f
00000300: 94d5 5abf 86f5 ebbf d080 d93e 8017 49bf
00000310: ec1b febf 3c2f 003f 8a84 36bf 3e57 e3bf
00000320: d98d 263f da8b 4fbf 21b8 d2bf 107e 893e
00000330: 58c5 6dbf 7e77 02c0 c5ce 073f 3e41 19bf
00000340: 4d68 bebf 43b6 f53e f313 97bf 0798 13c0
00000350: bfa5 cc3e e5d3 adbf b269 20c0 25a8 ac3e
00000360: 890a 20c0 b049 5dc0 2369 343e 57c7 25c0
00000370: f33a 58c0 8355 143e 643e 38bf b7a0 d0bf
00000380: f282 ec3e 88e9 2cbf b3ce c5bf cf2d f43e
00000390: f0ef a4bf 0ab9 1ac0 289c 033f 1d7c 7dbf
000003a0: 4fed 00c0 63c5 d73e ba0d b3bf cabb 0fc0
000003b0: b967 ba3e 1d51 d2bf 5b0f d6bf f125 783e
000003c0: 07b9 1fc0 3a88 4ac0 ac0f 593e c283 11c0
000003d0: 72a1 5ac0 5d68 803e c603 f8bf e617 34c0
000003e0: ccb7 af3e 5709 d9bf d02b 2ac0 7f40 9f3e
000003f0: dcf3 05c0 6d5d 40c0 a59d b83e 3f74 0cc0
-0.7736235 -1.1508964 0.5372277 -0.68997276 -1.6449947 0.61858535 -2.6282825 -3.505549
0.25295952 -2.3520923 -3.2898905 0.31885204 -2.016376 -2.7855442 0.36061436 -1.3717538
-2.8165538 0.20002837 -2.7065039 -3.6173027 0.08244036 -2.7895548 -3.674666 0.03446402
-2.3233452 -3.2409284 0.29239446 -2.160957 -3.1041327 0.12310167 -1.7421668 -2.8299148
0.31353727 -2.152281 -3.0783668 0.29057002 -0.5122278 -1.5103209 0.42194894 -0.6530502
-1.5591477 0.36729282 -1.3990986 -2.5565908 0.43834096 -0.87936723 -1.9634491 0.41546345
-2.6510458 -3.4725397 0.25798994 -2.6712172 -3.4468372 0.12435196 -0.9881988 -1.8155892
0.5326819 -1.3624076 -2.236833 0.40002456 -0.6046995 -1.7386829 0.41040495 -0.7770522
-2.039751 0.49531177 -2.3915935 -3.258943 0.30176723 -2.703276 -3.5170164 0.13980494
-1.0404692 -2.2513354 0.33890378 -0.82978714 -1.3199055 0.5829208 -2.883939 -3.8269315
0.019170985 -2.8508341 -3.6428258 -0.03225503 -1.1822569 -2.0891798 0.36323738 -0.7800507
-1.3936927 0.46334213 -1.0176141 -2.098755 0.2960178 -2.1609037 -2.8254232 0.2985757
-2.3574197 -3.4198449 0.33561376 -2.5826797 -3.4563463 0.1289888 -1.0601943 -2.0881445
0.62762564 -0.88388354 -1.6142787 0.41873318 -0.9154409 -1.7945787 0.5560899 -0.9419339
-1.6533217 0.34746832 -2.7576756 -3.7110224 0.15986355 -2.6025867 -3.5460436 0.15667208
-1.8793396 -3.0146866 0.2810411 -2.0020924 -3.0420237 0.23553364 -1.4444095 -2.637255
0.44404635 -1.1269488 -2.342519 0.4591295 -0.5547065 -1.6278269 0.46716782 -0.41601363
-1.2338048 0.53964454 -1.8130456 -2.660961 0.52955097 -1.579123 -2.438241 0.4124732
-0.6296079 -1.8914112 0.6586744 -0.4490258 -1.3784237 0.52744824 -0.8046694 -1.5817246
0.5534563 -0.7957963 -1.2829839 0.5031735 -1.0545313 -2.4529767 0.3841998 -1.1113538
-2.1727357 0.35110015 -2.8170443 -3.7622826 -0.19618349 -2.9746222 -3.9190185 -0.08443699
-3.2417777 -3.968449 -0.13552134 -3.002633 -4.012774 -0.020855134 -0.83775645 -1.6489036
0.5010105 -0.7707318 -1.6945304 0.20610757 -1.0098145 -2.0945687 0.47530526 -1.4678856
-1.6689429 0.27745885 -0.80271274 -1.6052797 0.39741513 -0.8070601 -1.2477254 0.5321477
-0.85482144 -1.8434303 0.4248109 -0.78551483 -1.9852271 0.50072074 -0.7129599 -1.7760999
0.6506019 -0.8107277 -1.6462442 0.2685399 -0.9287925 -2.0385432 0.5304988 -0.59865177
-1.487558 0.47990617 -1.1802963 -2.306154 0.39970204 -1.358029 -2.5064511 0.33722034
-2.500643 -3.4576225 0.17618231 -2.5902917 -3.378598 0.14485745 -0.719702 -1.6299046
0.46193653 -0.6754384 -1.5453705 0.476912 -1.2885723 -2.417544 0.5141015 -0.99017507
-2.0144842 0.42142782 -1.3988564 -2.2458367 0.3640726 -1.6431004 -1.6723436 0.24233223
-2.4956682 -3.1645646 0.21197385 -2.2736669 -3.4161038 0.25079623 -1.9376152 -2.8139586
0.34319913 -1.6955975 -2.658924 0.31103894 -2.093009 -3.0057023 0.36057773 -2.194595

bayes_fc1.bias_mu f4 [64]
00000000: 2739 c23c b0d0 d9bb ae47 ff3c fd06 0d3b
00000010: 29f4 e5bb a0b5 e43c 45a9 833c 9606 ad3c
00000020: 4429 d23b 8295 84bc e512 0fbd 76a6 563c
00000030: 0ea4 3f3a 4655 f13c 7649 9a3c fba2 efbb
00000040: 7f30 183c ce0f 14bc a2a7 5a3b 360d a3bb
00000050: 0fdb 55bb 171f ab3b 2e3a 23bd 87a7 f8bb
00000060: 4dca 703c ecce 75bc 5343 a93b 0d55 c9bb
00000070: c0d7 913a 1fcd 803c 6003 31bc 3a89 e33c
00000080: 3e0a 0ebd c261 2e3d f190 303a 2761 0f3c
00000090: f2b9 523a c5ac 94bc 0fa2 223c 498a 01bd
000000a0: c6ec 4b3a 2baf 383c 2c00 9bbc 3aae 86bc
000000b0: e821 883c 9758 81bc 1c12 7a3c f87a 68bc
000000c0: fd51 c3bc be99 ac3a 8050 02bb 3445 c3bb
000000d0: 42e4 003c 1c35 84bb eb91 2fbc f57c adbc
000000e0: 026d bb3b 1578 dabc 87ae dbbb 44df 193c
000000f0: 9c52 3fbd 731e 0abd 0e01 42bc 5c6b ad3c
0.023708893 -0.006647192 0.03116211 0.0021519058 -0.0070176315 0.027918637 0.016071925 0.021121304
0.0064136107 -0.016184572 -0.03493013 0.013101211 0.0007310518 0.029459607 0.018833857 -0.00731313
0.009288906 -0.009036971 0.0033364077 -0.00497594 -0.003263179 0.005222212 -0.039850406 -0.00758833
0.01469667 -0.015002947 0.0051654964 -0.006144172 0.001112692 0.01572281 -0.010804027 0.027775396
-0.034677736 0.042573698 0.0006735465 0.00875119 0.0008038572 -0.01814879 0.009926333 -0.03162602
0.00077791174 0.011272232 -0.01892098 -0.0164405 0.01661773 -0.015789313 0.015263107 -0.014189474
-0.023842806 0.0013168377 -0.0019884408 -0.0059591774 0.007866921 -0.0040346514 -0.010715942 -0.021177748
0.005719782 -0.026668588 -0.006704155 0.00939161 -0.04670964 -0.033720445 -0.011841072 0.021169357

bayes_fc1.bias_rho f4 [64]
00000000: 19c7 65be 9141 63bf e711 43bf db49 93bf
00000010: 2da0 79bf dfc7 53bf 3901 b4be 5dd1 ffbe
00000020: 620a 76bf 6485 f6be abc1 9dbe 98e4 6fbf
00000030: 1dc1 c9be fe20 96bf e76e d5be f39b 38bf
00000040: 8194 69bf bc11 a9be 0f04 c0be b461 88bf
00000050: 41b6 4fbf 5dbb 0cbf 0db9 49be 96be 19bf
00000060: 9d73 73be 246e 8fbe a1c0 0fbf ac40 a9bf
00000070: a6db a2bf b5ec ccbe 248f 0abf 7542 8abe
00000080: b7d4 cabe e52c d2be a2d5 95be db91 18bf
00000090: 4d46 77bf fbdf 8abe e5a1 f3be 682f 27bf
000000a0: 2e30 64bf 1cf0 3ebf a931 45bf b44b adbe
000000b0: 0b9d 74be 0a64 8cbe 3333 13bf 0382 54bf
000000c0: 36d1 a5be d422 b4be 5d70 ecbe a0cd fdbe
000000d0: 60e3 a3be 4971 91bf 809b f7be 3d37 80bf
000000e0: 08a8 59bf b3b8 73bf e361 26bf 2459 dabe
000000f0: 90c0 9bbe 96b9 43bf 5edf 88bf 3abf e0be
-0.22439231 -0.8877192 -0.7619919 -1.1506914 -0.97510034 -0.82726854 -0.35157183 -0.4996442
-0.9610959 -0.48148644 -0.3081182 -0.9370818 -0.39405146 -1.1728818 -0.41686174 -0.7211296
-0.91242224 -0.33021343 -0.37503096 -1.0654817 -0.8113747 -0.54973394 -0.19699498 -0.60056436
-0.23774572 -0.28013718 -0.56153303 -1.3222861 -1.2723281 -0.40024343 -0.54124665 -0.27003828
-0.39615414 -0.41049877 -0.2926455 -0.5959756 -0.96591645 -0.2712401 -0.47584453 -0.6530671
-0.89136016 -0.7458513 -0.770289 -0.3384682 -0.23888032 -0.27420074 -0.575 -0.8301088
-0.32386178 -0.35182822 -0.46179476 -0.49570942 -0.3200941 -1.1362697 -0.48360825 -1.0016857
-0.8502202 -0.95203704 -0.64993113 -0.42646134 -0.3042035 -0.76455057 -1.0693166 -0.43895894

bayes_fc1.prior_mu_old_bias f4 [64]
00000000: 2739 c23c b0d0 d9bb ae47 ff3c fd06 0d3b
00000010: 29f4 e5bb a0b5 e43c 45a9 833c 9606 ad3c
00000020: 4429 d23b 8295 84bc e512 0fbd 76a6 563c
00000030: 0ea4 3f3a 4655 f13c 7649 9a3c fba2 efbb
00000040: 7f30 183c ce0f 14bc a2a7 5a3b 360d a3bb
00000050: 0fdb 55bb 171f ab3b 2e3a 23bd 87a7 f8bb
00000060: 4dca 703c ecce 75bc 5343 a93b 0d55 c9bb
00000070: c0d7 913a 1fcd 803c 6003 31bc 3a89 e33c
00000080: 3e0a 0ebd c261 2e3d f190 303a 2761 0f3c
00000090: f2b9 523a c5ac 94bc 0fa2 223c 498a 01bd
000000a0: c6ec 4b3a 2baf 383c 2c00 9bbc 3aae 86bc
000000b0: e821 883c 9758 81bc 1c12 7a3c f87a 68bc
000000c0: fd51 c3bc be99 ac3a 8050 02bb 3445 c3bb
000000d0: 42e4 003c 1c35 84bb eb91 2fbc f57c adbc
000000e0: 026d bb3b 1578 dabc 87ae dbbb 44df 193c
000000f0: 9c52 3fbd 731e 0abd 0e01 42bc 5c6b ad3c
0.023708893 -0.006647192 0.03116211 0.0021519058 -0.0070176315 0.027918637 0.016071925 0.021121304
0.0064136107 -0.016184572 -0.03493013 0.013101211 0.0007310518 0.029459607 0.018833857 -0.00731313
0.009288906 -0.009036971 0.0033364077 -0.00497594 -0.003263179 0.005222212 -0.039850406 -0.00758833
0.01469667 -0.015002947 0.0051654964 -0.006144172 0.001112692 0.01572281 -0.010804027 0.027775396
-0.034677736 0.042573698 0.0006735465 0.00875119 0.0008038572 -0.01814879 0.009926333 -0.03162602
0.00077791174 0.011272232 -0.01892098 -0.0164405 0.01661773 -0.015789313 0.015263107 -0.014189474
-0.023842806 0.0013168377 -0.0019884408 -0.0059591774 0.007866921 -0.0040346514 -0.010715942 -0.021177748
0.005719782 -0.026668588 -0.006704155 0.00939161 -0.04670964 -0.033720445 -0.011841072 0.021169357

bayes_fc1.prior_sigma_small_bias f4 [64]
00000000: d454 163f 087f b03e bd1d c43e 93c1 8c3e
00000010: 96d9 a33e 38b7 b93e 2c61 083f d4cb f23e
00000020: dad2 a53e a753 f63e 5808 0d3f 3e41 a93e
00000030: b2f1 033f 570c 8a3e bc9b 013f ecdd ca3e
00000040: 29d7 ac3e e5a6 0a3f 95ea 053f 4096 973e
00000050: 7f34 bc3e 1243 e93e 5b78 193f 36e4 df3e
00000060: 98d1 143f 5a17 103f 450f e73e a4f2 713e
00000070: 75ed 7c3e 914e 033f 3edb ea3e 0a35 113f
00000080: 3bba 033f b741 023f c5b7 0e3f 93b9 e03e
00000090: 5a24 a53e f412 113f 8e6e f73e bf87 d63e
000000a0: 0ff4 af3e a9c2 c63e a7c4 c23e 34c5 093f
000000b0: d3b0 143f 16bf 103f ed90 e43e 1346 b93e
000000c0: 4b55 0b3f 3b5a 083f 5b33 fa3e d28e f33e
000000d0: 0cbd 0b3f 6c8a 8e3e 82e9 f53e 7328 a03e
000000e0: 4e2b b63e 6c1c a73e 9714 d73e 87a2 003f
000000f0: 2275 0d3f 1db3 c33e 9f15 973e 80c0 fe3e
0.5872319 0.34471917 0.38303939 0.27491435 0.32001942 0.36272597 0.5327327 0.47421134
0.3238743 0.48110697 0.55090857 0.33057588 0.5154067 0.2696254 0.50628257 0.39622438
0.33757904 0.5416091 0.5231107 0.2960682 0.367588 0.45558983 0.5994927 0.437288
0.58132315 0.5628563 0.45128837 0.23627716 0.24699958 0.5129176 0.45870394 0.56721556
0.5145604 0.5088152 0.5574916 0.43891582 0.32254297 0.56669545 0.48326534 0.4190044
0.3436589 0.3882039 0.3804066 0.53816533 0.5808231 0.56541574 0.4464182 0.36186275
0.5442702 0.5326268 0.48867306 0.475699 0.5458534 0.27839983 0.48029715 0.3128086
0.35579914 0.32638872 0.42007896 0.50248 0.55256855 0.3822259 0.29508683 0.4975624

bayes_fc1.prior_mu_old f4 [64, 6]
00000000: 4f9c cabe ee8a 20bf c84c 50be 4ecf ccbe
00000010: 4c01 85be de15 62be 6744 0b3f 8898 f0bd
00000020: 3946 023f 6307 c0be 0621 af3d 6f17 88be
00000030: 5bbf aabe 6142 e73d 48a6 87be dce6 d13d
00000040: 5fc9 3fbe 7836 32bd 1f5a aebe 3780 073e
00000050: 156e 13bf ca5b e03e 297b debd ed5d 543d
00000060: bf29 c2be a069 283e 2746 eabe 3fea ab3e
00000070: 641d febd a545 c13b 0e3e 473e 8627 03be
00000080: 412f be3e cec4 96be dc75 723d bcc7 0bbe
00000090: 5adb cbbe 34b7 fabe 73d5 4dbd 420e b6be
000000a0: dbff f1be c655 03be 8efe fabe 1b84 e33d
000000b0: 460d 79be 2280 12be 7ad4 afbe c1a5 edbc
000000c0: ee98 9ebe 4a76 e83d 76a8 26bf baad ee3e
000000d0: bb20 f7bd 7b07 db3d adc0 5dbe 001f 9fbe
000000e0: 6580 08bd b1a3 89be 9175 85bd ec4a 02bd
000000f0: c77d 95be 9b49 9abe acb6 babd 6f54 aebe
00000100: c0da b1bd 6dcb d8bd 8574 73be d1cd 843d
00000110: dd90 1fbf f9f6 ea3e d8c8 cfbd 57d3 a3bb
00000120: dd7d 9dbe 1136 03be e123 05be 454a 90be
00000130: c84f ecbe 3283 14be 249b ff3e 7603 eebd
00000140: 9106 033f b008 a3be a591 e83d 03e4 3abe
00000150: c6bb 54be 76a8 72be 89cd 19be cf52 fcbe
00000160: 0566 e2be 1f80 19be a4c7 f3be 8c56 63be
00000170: 825b 93bd 5d24 59be 3614 8bbc 9554 a33d
00000180: ac88 e43e 3780 fabd 2a56 1f3f 0434 cabe
00000190: 57c0 123e f4d0 9cbe e7db dabe 8429 25be
000001a0: 58c5 08be d095 a2be 96de a8be 9e29 a8bd
000001b0: 1fdc b5be 1655 b0be ea08 13be 238c d1be
000001c0: 80ec abbe def7 07be ac16 a43e 1e37 cebd
000001d0: 8d40 213f 3569 bfbe a3a9 df3d 5f74 8abe
000001e0: bebf 9abe f975 883d 9fa8 d8be 25ad 803e
000001f0: b0fe ebbd 5d30 aebc 2138 a5be 0820 17bc
00000200: a994 08be 66c7 adbe 4e21 2abe cf27 14bd
00000210: 9261 c7be 1702 edbe 32e4 34bd c6e8 d3be
00000220: 4584 f3be a171 6fbd 0353 b1be 7eae 863d
00000230: a357 9dbe bfde 4e3e 5ce8 66be d86e c1bd
00000240: aaa6 3fbe 3be0 84be c150 3abe 27a1 d4be
00000250: a408 ecbe fec9 1d3c 2fe6 9ebe e507 abbe
00000260: f488 dcbc c643 10be f260 efbe c0df b1bd
00000270: 24c9 b2be 79ee 59be 3b3d 81bd a18e afbe
00000280: 0bcc 66be 3d56 b4bd 6c6c 933e a29c c8bd
00000290: 4223 273f f874 a8be 947e 1a3e 418d 1ebe
000002a0: effe c93e 0774 a4bd 2404 003f a641 82be
000002b0: ff56 b13d c359 c7bd ccb2 c2be 2ddf acbe
000002c0: 2132 ee3c e5e5 cdbe 00d2 e0be f088 c3bd
000002d0: 7b43 b1be 41d9 8bbe 6c5d 27be 4a95 f9bd
000002e0: b4ac babe 9b57 1dbe c043 8bbe 0000 f2be
000002f0: 8edc c0bd bfea 9fbe 8168 0bbf 6515 cdbd
00000300: 1d4d 69be 9df7 94be 33ca 34be 4a73 a8be
00000310: a7a6 82be cd29 a0bc 3a70 c3be 0081 a0be
00000320: a786 abbd be57 e4be 0277 9fbe 1735 00be
00000330: 7772 a3be 9a5f 4cbe 1b87 efbd 9374 bfbe
00000340: 991b d1be a67f b8bd c247 043c 5057 6dbe
00000350: 5b72 d23d 7963 febe 265d af3d 5642 fbbd
00000360: cc7a d1be f0b3 543e 4335 19bf 3071 643e
00000370: 8e75 dfbd 6801 5c3e 10fa d2be 5144 d2be
00000380: 0a99 a8bc c405 d7be bc8b c9be 14f7 48be
00000390: d540 d1be 2aef de3d 15ff 19be 23c9 38be
000003a0: 29c1 9cbe 7beb d2bd 1ced 79be 1b33 4dbe
000003b0: 5a5f 56bd a778 51be 76be debe 0d95 8dbc
000003c0: 35dc c5be 4852 bf3d 01e9 febe 79c6 a73e
000003d0: ddfc ccbd 42b9 a43d aada a0be 14bd d73c
000003e0: b4c9 98be f366 443e 066b 00be 6aaa e5b9
000003f0: 4d62 b2be d430 d03d 21e4 f4be f5b7 f13e
-0.3957238 -0.6271199 -0.2034179 -0.4000191 -0.25977552 -0.22078654 0.5440125 -0.11747843
0.508884 -0.37505636 0.085512206 -0.26580378 -0.33349118 0.11291958 -0.2649405 0.10249111
-0.1872916 -0.043508977 -0.34053132 0.13232504 -0.57589847 0.4382003 -0.10863335 0.051847387
-0.37922475 0.16446543 -0.45756647 0.33577153 -0.124079496 0.005898195 0.19457266 -0.12808046
0.37145427 -0.29447025 0.05919443 -0.13650411 -0.3981579 -0.48967898 -0.05025239 -0.35557753
-0.47265515 -0.12825689 -0.49022335 0.111091815 -0.2432147 -0.14306691 -0.34341794 -0.029009702
-0.3097605 0.11350687 -0.651008 0.46616918 -0.1206679 0.10694786 -0.21655531 -0.3107834
-0.03332557 -0.268827 -0.06516565 -0.031809732 -0.29197523 -0.30134282 -0.09116873 -0.34048793
-0.086843014 -0.105856754 -0.23774917 0.06484569 -0.6233042 0.4589155 -0.1014573 -0.004999559
-0.3076009 -0.12813593 -0.13001968 -0.28181663 -0.46154618 -0.14503172 0.4992305 -0.11621754
0.51181895 -0.31842566 0.113559045 -0.18251042 -0.20774755 -0.23697075 -0.15019812 -0.49281928
-0.4421846 -0.1499028 -0.4761325 -0.22200984 -0.07195188 -0.21205278 -0.01697741 0.07975117
0.44635522 -0.12231486 0.6224085 -0.3949281 0.14331184 -0.3062817 -0.42745897 -0.16129118
-0.1335653 -0.31754923 -0.3298232 -0.08211063 -0.35519502 -0.34439915 -0.14358869 -0.40927228
-0.33578873 -0.13278148 0.32048547 -0.100691065 0.6298912 -0.37384954 0.109210275 -0.2704191
-0.30224413 0.066631265 -0.42316148 0.251321 -0.11523187 -0.021263296 -0.32269385 -0.009223945
-0.1333796 -0.3394119 -0.16614267 -0.036170777 -0.38941628 -0.46290657 -0.044162937 -0.4138853
-0.4756185 -0.058457974 -0.34633645 0.065762505 -0.30730924 0.20202158 -0.22549576 -0.0944497
-0.18715921 -0.25952324 -0.18194868 -0.415292 -0.46100342 0.009630678 -0.3103499 -0.3340446
-0.026920773 -0.14088354 -0.4675365 -0.08685255 -0.34919083 -0.21282376 -0.06310507 -0.34288505
-0.22538774 -0.08805511 0.28793657 -0.097955 0.65288174 -0.3290174 0.15087348 -0.15483572
0.3945231 -0.08029943 0.5000632 -0.2544071 0.08659171 -0.097339176 -0.38027036 -0.3376402
0.029076638 -0.40214458 -0.43910217 -0.09547603 -0.34621796 -0.2731419 -0.16344231 -0.12186678
-0.36459887 -0.1536545 -0.27200127 -0.47265625 -0.094170675 -0.31233785 -0.54456335 -0.10013846
-0.22783323 -0.29095164 -0.17655258 -0.3290046 -0.2551777 -0.019551182 -0.3817156 -0.3134842
-0.08375292 -0.44598192 -0.31145483 -0.12520252 -0.31923267 -0.19958344 -0.11695691 -0.37393627
-0.40841368 -0.09008722 0.008073749 -0.23177838 0.10275718 -0.49685267 0.085626885 -0.12268512
-0.40914 0.20771766 -0.59846896 0.22308803 -0.10911094 0.21484911 -0.41206408 -0.41067746
-0.020580787 -0.41996586 -0.3936442 -0.19625503 -0.40869775 0.10885461 -0.15038712 -0.18045478
-0.3061612 -0.102988206 -0.24406856 -0.20039026 -0.052337028 -0.20456181 -0.43504685 -0.017282987
-0.38644567 0.09341866 -0.49787143 0.3276861 -0.10009167 0.080431476 -0.31416827 0.026335277
-0.29841387 0.19179897 -0.12540826 -0.00043805252 -0.34840623 0.10165563 -0.478303 0.4721066

bayes_fc1.prior_sigma_small f4 [64, 6]
00000000: 853a c23e 1dbb 8c3e 6556 7f3f f623 d03e
00000010: d6b7 343e e856 863f a4c6 8e3d f662 f23c
00000020: e0dd 533f bc2e ba3d 90d5 153d 967f 5d3f
00000030: bdfa ff3d 4637 753d 4bbe 633f 887e 673e
00000040: 19f1 6d3d da53 4c3f 7b5f 843d 1918 d93c
00000050: 2937 3c3f 5a43 743d 4024 cd3c 24e5 353f
00000060: ca5d bf3d e335 1d3d 2a99 593f 0c54 df3d
00000070: fdc1 333d f4af 413f d242 253e 65df 6a3d
00000080: 20b6 5c3f d22b e13d 7558 383d bb54 593f
00000090: 6d5f f03e cc53 4c3e 561c 6d3f 8188 d63e
000000a0: 4576 433e 85c0 643f dce3 613e 2900 993d
000000b0: 3ea7 6f3f 2dbf b13e 2182 063e f71b 6c3f
000000c0: 72ab 8b3d e365 fa3c a797 543f c7f8 883d
000000d0: 7768 003d 74db 413f a205 a23e 5666 1a3e
000000e0: 859a 7e3f 1f70 693e 40cf cf3d 55bc 693f
000000f0: 7c24 df3e 23cb 253e 7654 6b3f cfac c13e
00000100: 9569 fa3d 089e 783f 2647 b33d bd74 1a3d
00000110: 94f9 5a3f 91c9 843d b5a9 ef3c 35f7 433f
00000120: 3ee6 9a3e 61f6 cc3d b97b 603f e152 b93e
00000130: 1776 723e 2964 833f b0d9 5e3d 257a b03c
00000140: 4ce9 333f f424 663d 82b1 d33c af59 2d3f
00000150: f7ea 883e 6403 ef3d a123 643f 2731 c13e
00000160: 00fd 623e 1690 733f eafa 9d3e c2dc ec3d
00000170: 3c21 5a3f f156 df3d 6be6 6b3d 6c81 5a3f
00000180: 9b3c b93d 87dd 033d e8fd 5f3f 5f33 953d
00000190: 486c fe3c 017d 423f 3348 983e 333f ef3d
000001a0: bb17 873f d311 b13e 6fdf 393e 229d 6c3f
000001b0: ed65 ac3e 3a70 1d3e aa32 813f 8a8e a83e
000001c0: e857 333e 0ec4 613f dbef 7b3d b3e7 c53c
000001d0: a4b9 463f cc5c 923d 17e7 e83c cd48 463f
000001e0: 7082 113e 422e 443d 2af0 573f 18b8 013e
000001f0: 0303 3f3d 795d 513f d7de 583e 2f8b 8d3d
00000200: c88a 703f 5ab4 8f3e cee4 bb3d c3e6 723f
00000210: f254 e83e 3495 373e 182a 743f d2b1 013f
00000220: 91d8 823e 69ba 7f3f c3c3 1a3e 5356 8a3d
00000230: 4e19 7e3f d2ef 3f3e 8570 ab3d fca5 6b3f
00000240: 67ac da3e 71e1 0f3e 9ab2 893f dcbc fc3e
00000250: b11d 663e 9cc2 7d3f 7843 bd3e 627b 3f3e
00000260: d8fb 803f faab be3e a58c 7a3e a5de 793f
00000270: 9007 993e 5008 a93d 6751 673f 8bab 913e
00000280: 6bd9 dc3d a34f 623f 16d4 6d3d f220 bc3c
00000290: 5890 193f ed00 4c3d 721a a13c a6dd 263f
000002a0: 5e14 1d3d e067 993c acaf 203f c080 463d
000002b0: 55d0 923c 46ca 2e3f 8916 b83e 5312 343e
000002c0: 5786 793f 4bb2 c23e 17ae 2c3e 362f 4d3f
000002d0: 1b0b 9f3e e9cc ed3d 6e72 753f 5953 543e
000002e0: 4dca 303e 806a 573f c792 bd3e 7e68 3b3e
000002f0: 0056 693f b6e2 bc3e 4e3f 813e 7684 7e3f
00000300: 0977 b53e fa74 163e ad8d 6d3f 7850 c03e
00000310: 0fca 033e 847a 793f 323d cc3e 1028 203e
00000320: 8804 893f 974e bc3e df82 343e 991e 563f
00000330: ff73 aa3e 80b2 fa3d 6840 7e3f 113d e03e
00000340: 5195 503e 872c 763f 4f27 893e 2888 c23d
00000350: adaf 693f 835a 6a3e 2291 a03d 533b 603f
00000360: 6077 a13d 7c1a fe3c 30fd 483f f51b 943d
00000370: 7753 093d 88a8 443f 2a1b cb3e e33b 373e
00000380: 8f57 733f 68a3 d23e 71ed 453e 61b3 753f
00000390: 614f 793e 40e0 ae3d e49d 7b3f 6bbf a13e
000003a0: b037 003e b607 6d3f 6ef0 613e 9d09 ce3d
000003b0: ec43 643f 3e08 353e 253d 303e bd56 523f
000003c0: 913d a23d 6c6e 293d 7503 4e3f 8fa6 c83d
000003d0: 085a 043d 1c8e 533f 40cd 093e de8a 6e3d
000003e0: 3f20 613f b382 2c3e 259c 8a3d 9557 5c3f
000003f0: 9f26 ee3d bbe8 453d e1bc 633f 4751 d83d
0.37935272 0.27486506 0.997412 0.40652436 0.17648253 1.0495272 0.069714814 0.029588204
0.8276043 0.09090945 0.036580622 0.86522806 0.124989964 0.059867166 0.8896224 0.22606862
0.058091257 0.7981545 0.06463524 0.026500748 0.7352167 0.059634544 0.0250417 0.71052766
0.09344061 0.03838147 0.84999335 0.109047025 0.043886174 0.7565911 0.16138771 0.057341952
0.862154 0.10994686 0.045006234 0.84894913 0.46947804 0.19953841 0.9262136 0.4190102
0.19088085 0.8935626 0.22059578 0.07470734 0.93614566 0.34716168 0.13135578 0.9223017
0.0681981 0.030566161 0.83043903 0.066880755 0.031349625 0.75725484 0.31644922 0.150781
0.9945453 0.22796677 0.10146952 0.91302997 0.43582523 0.16190772 0.9192575 0.37827155
0.122271694 0.97116137 0.08753805 0.037708987 0.85537076 0.06483758 0.029255727 0.76549083
0.30253786 0.100079305 0.87688786 0.36196044 0.2367786 1.0264941 0.05440682 0.021542618
0.7027786 0.056187585 0.025841478 0.6771497 0.26741764 0.116705686 0.89116865 0.37732813
0.22166824 0.9514173 0.30855495 0.11565544 0.8520696 0.10905255 0.05759279 0.8535373
0.09044763 0.032193687 0.87496805 0.07285189 0.031057492 0.7597199 0.29742584 0.11681976
1.0554117 0.3458391 0.1815164 0.92427266 0.33671513 0.15374842 1.0093586 0.3292125
0.17514002 0.8818978 0.06150804 0.024158334 0.77627015 0.07146606 0.028430505 0.77454835
0.14209914 0.047895677 0.84350836 0.12667882 0.04663373 0.8178325 0.21178757 0.06911313
0.93961763 0.28067285 0.091745004 0.94883364 0.45377308 0.1792801 0.9537673 0.5066196
0.25555852 0.99893814 0.1511374 0.06754746 0.9925736 0.18743828 0.08371071 0.9205015
0.42709658 0.14050843 1.075763 0.49362838 0.22472264 0.99125075 0.36965537 0.1869941
1.0076857 0.37240583 0.24467714 0.97605354 0.29888582 0.082535386 0.90358585 0.2845119
0.10783657 0.88402766 0.05806359 0.022964928 0.59985876 0.04980557 0.01966593 0.6518196
0.0383495 0.01872629 0.62768054 0.04846263 0.017921606 0.68277395 0.35954693 0.17585115
0.9747061 0.38026652 0.16863285 0.80150163 0.3106316 0.11611349 0.9587773 0.2073492
0.17264672 0.8414688 0.37026045 0.1830158 0.9114685 0.36891717 0.2524361 0.9942087
0.3544238 0.1469306 0.92794305 0.37561393 0.12870048 0.9745257 0.39890438 0.15640283
1.0704508 0.3677871 0.17628048 0.8364044 0.33291623 0.122410774 0.99317026 0.4379659
0.2036946 0.96161693 0.26787803 0.09498626 0.91283685 0.2288609 0.07840182 0.8759052
0.07884097 0.031018488 0.78511333 0.07231895 0.033526864 0.7681966 0.39669162 0.17893939
0.9505548 0.41140294 0.19328858 0.95976835 0.24346687 0.08538866 0.98287797 0.31591353
0.12521243 0.9258989 0.22064373 0.10060427 0.8916614 0.17678925 0.17210825 0.821636
0.07921899 0.041365072 0.80474025 0.097973935 0.032312423 0.82638717 0.13457203 0.058237903
0.8793983 0.16846733 0.067680635 0.8607114 0.1162846 0.048317652 0.8896008 0.105623774

bayes_fc2.weight_mu f4 [1, 64]
00000000: e2e2 073d 4345 c93d 3f73 62bd df08 96bd
00000010: 7256 6fbd 037c 1e3d 2ab2 8cbc 2bf0 48bd
00000020: 31b8 afbd 3e48 3e3d 937e a83c 2518 9bbd
00000030: bc1d 58bc ddd6 c63d ce77 433d 5170 473e
00000040: 04e3 353d ff68 5e3c c92b 043d 013b 9b3d
00000050: 1da3 3cbd b2a6 8abd 9fcb 2abd fc71 e5bc
00000060: 8ddd 883c a3ec 34bd 728e 173e 92e1 973d
00000070: a8f6 df3d 4b44 2abc 57d5 4a3d 9252 063d
00000080: 9aa8 babc 628f 84bc 5838 92bc 5604 193d
00000090: 4f46 5dbd 6e18 273d 0deb 2abd 4147 e43d
000000a0: 9c33 9abd 2778 5dbd 7d47 78bd 1acc 0d3c
000000b0: dd8b 2fbd 5bd5 8bbd bbb7 6f3d b93d 8bbd
000000c0: 5d51 1d3b e442 12bd 1f63 933c 9fc8 c3bc
000000d0: f031 853d 92b3 953d 6dab f83b 18d0 943d
000000e0: 3ae5 a83d ee56 8d3d 076b f13c 73dd a53c
000000f0: ec42 80bc b288 9e3d 4b66 b2bd 5679 883c
0.033175357 0.09827664 -0.05528569 -0.07325911 -0.05843205 0.038692486 -0.017174799 -0.049057167
-0.085800536 0.046455614 0.020568168 -0.075729646 -0.013190683 0.09708951 0.047721677 0.19476439
0.044405952 0.013574838 0.03226832 0.075796135 -0.046053994 -0.06770076 -0.041698094 -0.028008454
0.016707206 -0.044170987 0.14800432 0.07416071 0.10935718 -0.010392259 0.049519863 0.03279359
-0.022785474 -0.016181652 -0.017849132 0.03735765 -0.05402213 0.040794782 -0.04172807 0.11146403
-0.07529375 -0.054069664 -0.06061505 0.008654619 -0.042857993 -0.06827804 0.05852483 -0.06798882
0.0024004795 -0.035708323 0.0179916 -0.023899375 0.065036654 0.07309641 0.007588795 0.07266253
0.082468465 0.06901346 0.02946998 0.020247197 -0.01565691 0.07740916 -0.08710917 0.01665942

bayes_fc2.weight_rho f4 [1, 64]
00000000: f4a5 5dbf acbf 78c0 1b27 4bc0 05fb 75c0
00000010: 1415 77c0 2807 5bc0 e69b 6dbf 2a84 49c0
00000020: 8788 78c0 582e 16c0 c10b 2dc0 945f 65c0
00000030: c4e6 c5bf ecb9 72c0 57e4 c3bf f30e 6abf
00000040: a085 69c0 99bc ffbf 0fdf 66bf 117a 6ac0
00000050: 7712 4ac0 603e 03c0 2dd5 cbbf 03b4 4ec0
00000060: 594c 28c0 44c2 fbbf 7d77 b1be ef0b 78c0
00000070: 9bf6 72c0 2773 4abf fca3 88bf d89d a6bf
00000080: c096 04c0 952a 56bf f596 05c0 53ed 39c0
00000090: b3c9 74c0 29d4 a5bd 0979 4bc0 bb2c e2be
000000a0: 8934 66c0 ce18 42c0 d8d1 6bc0 739c f1bf
000000b0: e21c 0ac0 f7ba 92bf cd3e 87bf 863e 65c0
000000c0: 20c2 a3bf 2855 2ec0 4ed0 1ec0 8912 2cc0
000000d0: 6e8c b1bf 9eef 6ec0 e041 79bf 4439 6ac0
000000e0: d668 63c0 7190 67c0 dbb5 2ec0 1fb5 34c0
000000f0: 7e2d 7abf 6237 56c0 a8dd 6ec0 a09a 0bc0
-0.8658135 -3.8866987 -3.1742618 -3.843446 -3.8606615 -3.4223118 -0.9281601 -3.1486917
-3.883333 -2.3465786 -2.7038424 -3.5839586 -1.5461049 -3.7925978 -1.5304059 -0.9142906
-3.6487808 -1.997943 -0.9018411 -3.6637003 -3.157377 -2.050682 -1.5924431 -3.229737
-2.62966 -1.966866 -0.34661475 -3.8757284 -3.7963016 -0.7908196 -1.0675044 -1.301692
-2.071701 -0.83658725 -2.0873387 -2.9051101 -3.8248107 -0.08097107 -3.1792624 -0.44174752
-3.5969565 -3.032764 -3.6846828 -1.887587 -2.1580129 -1.1463307 -1.056604 -3.5819411
-1.2793617 -2.7239475 -2.481464 -2.6886313 -1.3870981 -3.733375 -0.9736614 -3.6597452
-3.5532737 -3.618191 -2.7298496 -2.8235548 -0.97725666 -3.3471303 -3.7322788 -2.1813126

bayes_fc2.prior_mu_old f4 [1, 64]
00000000: e2e2 073d 4345 c93d 3f73 62bd df08 96bd
00000010: 7256 6fbd 037c 1e3d 2ab2 8cbc 2bf0 48bd
00000020: 31b8 afbd 3e48 3e3d 937e a83c 2518 9bbd
00000030: bc1d 58bc ddd6 c63d ce77 433d 5170 473e
00000040: 04e3 353d ff68 5e3c c92b 043d 013b 9b3d
00000050: 1da3 3cbd b2a6 8abd 9fcb 2abd fc71 e5bc
00000060: 8ddd 883c a3ec 34bd 728e 173e 92e1 973d
00000070: a8f6 df3d 4b44 2abc 57d5 4a3d 9252 063d
00000080: 9aa8 babc 628f 84bc 5838 92bc 5604 193d
00000090: 4f46 5dbd 6e18 273d 0deb 2abd 4147 e43d
000000a0: 9c33 9abd 2778 5dbd 7d47 78bd 1acc 0d3c
000000b0: dd8b 2fbd 5bd5 8bbd bbb7 6f3d b93d 8bbd
000000c0: 5d51 1d3b e442 12bd 1f63 933c 9fc8 c3bc
000000d0: f031 853d 92b3 953d 6dab f83b 18d0 943d
000000e0: 3ae5 a83d ee56 8d3d 076b f13c 73dd a53c
000000f0: ec42 80bc b288 9e3d 4b66 b2bd 5679 883c
0.033175357 0.09827664 -0.05528569 -0.07325911 -0.05843205 0.038692486 -0.017174799 -0.049057167
-0.085800536 0.046455614 0.020568168 -0.075729646 -0.013190683 0.09708951 0.047721677 0.19476439
0.044405952 0.013574838 0.03226832 0.075796135 -0.046053994 -0.06770076 -0.041698094 -0.028008454
0.016707206 -0.044170987 0.14800432 0.07416071 0.10935718 -0.010392259 0.049519863 0.03279359
-0.022785474 -0.016181652 -0.017849132 0.03735765 -0.05402213 0.040794782 -0.04172807 0.11146403
-0.07529375 -0.054069664 -0.06061505 0.008654619 -0.042857993 -0.06827804 0.05852483 -0.06798882
0.0024004795 -0.035708323 0.0179916 -0.023899375 0.065036654 0.07309641 0.007588795 0.07266253
0.082468465 0.06901346 0.02946998 0.020247197 -0.01565691 0.07740916 -0.08710917 0.01665942

bayes_fc2.prior_sigma_small f4 [1, 64]
00000000: bdca b33e 8157 a63c 4dd4 273d f59d ad3c
00000010: 32af aa3c ad8b 033d 798b aa3e 0416 2c3d
00000020: 9ee5 a63c 922a bb3d edb6 843d e65a e03c
00000030: 9dcb 453e c192 b63c 2da3 483e 0c91 ac3e
00000040: d873 d23c c039 023e 0366 ae3e 0660 cf3c
00000050: e0a0 2a3d 2cd9 f73d 4b9e 3d3e 26f2 1e3d
00000060: 0b96 8e3d 0814 063e 89e7 083f 7128 a83c
00000070: dde7 b53c 2577 bf3e 5c52 973e fe6b 763e
00000080: b4fc f23d d644 b83e ce6d ef3d dc4d 5a3d
00000090: 06d9 b03c 874a 273f 4d02 273d 5a31 fe3e
000000a0: 227f dd3c 5ebf 403d 421f cb3c 1265 103e
000000b0: bbf3 df3d 2f4b 8d3e 6ec1 983e 50cd e03c
000000c0: 075b 7b3e b627 823d 7f78 a43d eaae 863d
000000d0: 9e55 643e ec94 c13c 430d a43e c12f d03c
000000e0: 933f e73c 66e7 d83c b469 813d 2b54 6c3d
000000f0: 3e8c a33e 1aa4 0d3d a4ca c13c 800f db3d
0.35115615 0.020305397 0.04097395 0.021193484 0.020835493 0.032115627 0.33309534 0.042013183
0.020373162 0.09138979 0.06480203 0.027387094 0.19315954 0.022286775 0.19593497 0.33704412
0.025690004 0.12717342 0.34062204 0.025314342 0.04165733 0.12101969 0.18517415 0.03880515
0.06962212 0.13093579 0.53478295 0.020527096 0.022205288 0.37395588 0.29555023 0.24064633
0.118646055 0.35990018 0.116908655 0.05329691 0.02158786 0.65348095 0.04077368 0.49647027
0.02703816 0.047057502 0.024795178 0.14101055 0.1093516 0.27596423 0.29835075 0.02744165
0.24546443 0.063552305 0.08030795 0.06576331 0.22298285 0.023630582 0.32041368 0.025413396
0.028228557 0.026477527 0.063189894 0.057697456 0.31942934 0.034580328 0.023656197 0.10696316
