models/updated_hmnn_model_1997_2011.pth (torch, 14090 bytes, 12 tensors)

bayes_fc1.weight_mu f4 [64, 6]
000000 cb 21 17 bf c6 b5 37 bf c6 08 72 be a2 8f 2f bf
       -0.5903594 -0.7176174 -0.2363616 -0.6857854
000010 31 dc fe be 55 1e 5f be 17 ab 0d 3f 66 9c bf bd
       -0.49777368 -0.21788915 0.5533919 -0.093560025
000020 91 99 ef 3f 7a 0b c7 be c4 d3 f2 3d 0f f1 60 bf
       1.871874 -0.38875943 0.11856797 -0.87867826
000030 74 67 bf be 31 6b 5e 3e 34 2d a2 bf f3 67 bc 3e
       -0.37383616 0.21720578 -1.2670045 0.36798057
000040 af f0 19 be 00 76 5b 3f b2 c6 c4 be 99 20 3b 3e
       -0.1503322 0.8572693 -0.38432842 0.18274154
000050 ad 5a a5 bf a2 5c d1 3e 8b 4b 05 be ce b4 84 3e
       -1.2918297 0.40890986 -0.13017099 0.25919193
000060 1a f6 be be 13 c4 4f 3e a0 9b a4 bf a1 a0 c6 3e
       -0.37297136 0.2028964 -1.2859993 0.38794425
000070 0a d4 1c be 1c 0d 0a 3f bb 5c 93 3e de 2b fc bd
       -0.15315261 0.53926253 0.28781685 -0.123130545
000080 50 5b 03 40 3c ae 9f be 38 4d 3b 3e 9a 40 3c 3d
       2.0524483 -0.31187618 0.18291175 0.045960046
000090 f6 76 2a bf 16 d6 11 bf f7 b4 48 be 65 dd 11 bf
       -0.6658777 -0.56967294 -0.19600283 -0.56978446
0000a0 37 5d 12 bf ef 0b 7b be 33 db f6 be ef 8b 82 3e
       -0.57173485 -0.24516271 -0.4821411 0.25497386
0000b0 c0 4d ec be 9f 42 af be a7 4c 94 be d8 6b d5 3f
       -0.4615307 -0.34230515 -0.2896473 1.6673536
0000c0 be 28 9b be 6e be f0 3d 42 2b ca bf 03 0b 05 3f
       -0.3030452 0.117550716 -1.5794451 0.5196993
0000d0 30 5f 0f be 3f 87 91 3e 15 ba 4f bf 6a d7 85 be
       -0.14001155 0.28423497 -0.81143314 -0.2614091
0000e0 82 fd bc be 40 9f 1c be 5b 60 ea 3d 96 bb ff 3e
       -0.3691216 -0.15295124 0.114441596 0.49947804
0000f0 26 a7 fb be 74 2e ca be 91 9e e3 bd 8b b3 19 bf
       -0.49150962 -0.39488566 -0.111142285 -0.60039586
000100 7b 6a 8e be 7d c8 22 be 9e 15 67 be a1 06 ba 3d
       -0.27815613 -0.15896793 -0.2256684 0.090832956
000110 c9 4a 06 c0 ba 5d fa 3e 6d 83 9b bd 42 98 c3 be
       -2.0983145 0.48899633 -0.07593427 -0.382021
000120 cc ca 29 bf cb d6 94 be 1a eb 4c be ca 06 09 bf
       -0.6632507 -0.29070124 -0.20011559 -0.53525984
000130 71 85 24 bf cf 2e 67 be a1 22 ea 3e 6e 79 07 be
       -0.64266115 -0.2257645 0.45729545 -0.13229915
000140 bd 41 c1 3f 08 24 c3 be be 88 2c 3e d5 bf f7 be
       1.5098187 -0.38113427 0.16849038 -0.48388544
000150 15 35 fe be a0 c8 8f be 8d 30 5b be e6 c7 16 bf
       -0.49649873 -0.28082752 -0.2140524 -0.5889877
000160 1b 97 14 bf 59 05 5f be c9 89 78 bf c6 b7 52 be
       -0.5804307 -0.21779384 -0.97085243 -0.20577917
000170 4f ba a1 bf cd 45 97 bd ba 5b 06 3d 5a 04 4d 3f
       -1.2634982 -0.0738636 0.03280232 0.80084765
000180 ba 6b b7 3e 82 d5 13 be ac 89 22 40 e5 73 bb be
       0.35824376 -0.14436916 2.5396528 -0.36611858
000190 24 9f 3e 3e e3 b6 58 bd ce a6 03 bf b7 db 4c be
       0.18615395 -0.05290879 -0.514264 -0.2000569
0001a0 4e 97 38 be bd 00 1d bf c4 f2 cd be 48 8d 6a be
       -0.18026468 -0.6132925 -0.40224278 -0.22905457
0001b0 35 98 12 bf 72 f1 ee be bd 28 3c be 61 9a 15 bf
       -0.572635 -0.46668583 -0.18374915 -0.5843869
0001c0 3a 4e 0a bf 0e 5d 93 be 9d fa a5 3e ad 46 d0 bd
       -0.54025614 -0.28781933 0.32417765 -0.1016973
0001d0 c6 ae cc 3f c4 fd c4 be f2 41 39 3e 70 3c 07 bf
       1.5990837 -0.38474858 0.18091562 -0.52826595
0001e0 41 5c 8a be df 63 53 3d 29 fe aa bf be e1 bd 3e
       -0.2702351 0.051608916 -1.3358814 0.3708629
0001f0 43 e3 e0 bd 1e 4a 05 3f c1 37 c4 be f8 39 b0 3d
       -0.10980847 0.5206622 -0.38323787 0.08604807
000200 b2 77 a0 be 41 41 09 bf 66 7d 65 be 57 e6 b5 3d
       -0.3134132 -0.53615195 -0.22411117 0.088818245
000210 1d ab e9 be 17 24 cb be 6c 80 30 bd 80 c6 2e bf
       -0.45638362 -0.39675972 -0.043091223 -0.68271637
000220 b1 65 21 bf 8f 2d c9 bd 74 7d ba be c7 a9 22 3e
       -0.63045794 -0.09823143 -0.36423838 0.15885077
000230 40 8e 69 bf 67 52 d5 3e 53 97 0d be 5c 69 39 3f
       -0.9123268 0.4166443 -0.13827257 0.7242639
000240 7a 92 e7 be d2 05 f9 be 2a 3c d9 bd 4d 85 1c bf
       -0.4522894 -0.48637253 -0.106071785 -0.611409
000250 ef 38 11 bf e2 e2 58 be 21 88 da be 9f 59 dc be
       -0.567275 -0.21180299 -0.42681983 -0.43037125
000260 fb e4 90 bd 91 0b ce be f9 25 09 bf fc 6d 0f be
       -0.070749246 -0.402432 -0.53573567 -0.140068
000270 e7 0f 06 bf 9f d8 a9 be 7a ee 7b be 29 95 f0 be
       -0.52368015 -0.3317308 -0.2460269 -0.469888
000280 2a b2 8a be 22 9b a1 be b5 88 8b 3e 9b 11 03 be
       -0.27089053 -0.3156367 0.27252737 -0.12799685
000290 cc 0c e9 3f 21 ff ae be ca 02 3d 3e ce 4d ce 3d
       1.820703 -0.34179023 0.18458095 0.10073434
0002a0 4f f1 ad 3e b3 46 ef bd be 84 c8 3f 25 9b 88 be
       0.33973166 -0.11683407 1.566551 -0.26680866
0002b0 f5 87 1a 3e 67 1f f4 bd 8c 26 fa be 7e 43 04 bf
       0.15090926 -0.11920052 -0.48857534 -0.51665485
0002c0 0a 86 98 be 01 4d fc be 42 df 07 bf ab fb 5c be
       -0.29789764 -0.492775 -0.5307504 -0.21580379
0002d0 a9 ea 0a bf 14 29 a1 be bb 3c 67 be 89 1a 9c be
       -0.54264313 -0.31476653 -0.2258176 -0.30488995
0002e0 39 c4 c6 be e4 ad 93 be 3d d1 12 bf e2 13 e8 be
       -0.3882158 -0.28843606 -0.5735052 -0.4532767
0002f0 c0 ce 02 be ff b1 d8 be ec 2f 25 bf 4e 01 96 be
       -0.12774181 -0.423233 -0.6452625 -0.2929787
000300 15 b3 f0 be 60 87 b8 be 17 8d 8b be 0d c2 08 bf
       -0.4701163 -0.36040783 -0.2725608 -0.534211
000310 30 d3 a8 be 63 be 7c be cf 86 1c bf bd 6c c4 be
       -0.32973623 -0.24682002 -0.611432 -0.3836421
000320 86 c2 8c be 7c d9 0e bf b9 a8 cb be 02 87 36 be
       -0.2749216 -0.55800605 -0.39777163 -0.17824939
000330 0e d8 b9 be bf c6 3d be 88 ba 52 be 97 ea f1 be
       -0.3629765 -0.18532847 -0.20578969 -0.4724929
000340 53 37 01 bf ff f6 12 be e3 c4 c1 be d7 b1 8e be
       -0.50475043 -0.14352034 -0.37845525 -0.27870056
000350 fd 15 a5 3e 03 63 cd be f3 6d 10 3e c8 f9 c8 3e
       0.32243338 -0.40114602 0.14104442 0.39253068
000360 ed 3e dd be d7 81 7a 3e 56 4e cf bf dd 13 a2 3e
       -0.4321207 0.24463592 -1.6195781 0.3165578
000370 44 2e fe bd 62 91 6d 3e 39 2b 29 bf 19 c9 25 bf
       -0.12411168 0.2319999 -0.6608158 -0.64759976
000380 74 db 8e be 98 b5 30 bf 99 0e c7 be 85 cb 9f be
       -0.27901804 -0.6902709 -0.38878325 -0.3120996
000390 cd 81 fc be 6a c6 c8 3d 76 e4 cd bd 5a 50 b4 be
       -0.4931778 0.098034695 -0.10053341 -0.35217553
0003a0 19 1a bc be 64 43 b1 3e 2b 1d c5 be 5c e7 60 be
       -0.3673866 0.34621727 -0.38498816 -0.21963257
0003b0 87 80 6f be 24 f1 98 be cc 99 be be a2 a8 3e be
       -0.23388873 -0.29871476 -0.37226713 -0.18619016
0003c0 1b c3 b2 be a8 ae 33 3e 66 fe a9 bf 02 61 b2 3e
       -0.3491448 0.17547095 -1.3280761 0.34839636
0003d0 b1 2e ea bd ec 52 e9 3e a0 09 ac be 08 61 fd 3d
       -0.11434687 0.45571077 -0.33601093 0.12372023
0003e0 ab 0d ce bf ee 0d dc 3e 41 d9 f2 bd b5 f3 ee 3e
       -1.6097921 0.42979378 -0.11857844 0.4667031
0003f0 52 14 9b be 45 09 b9 3d 39 1a b6 bf 0a 12 06 3f
       -0.3028894 0.09034971 -1.4226753 0.52371275

bayes_fc1.weight_rho f4 [64, 6]
000000 ab 98 36 bf 32 c5 93 bf 00 47 fd 3e 9a 8d 0c bf
       -0.713267 -1.1544554 0.4946823 -0.54903567
000010 56 a0 a9 bf 1a 79 02 3f 82 5c 68 c0 77 2c 8d c0
       -1.3252056 0.50966036 -3.6306462 -4.411678
000020 ab 06 a8 be d5 db 3c c0 3b ae 8a c0 88 40 b2 be
       -0.32817587 -2.9509175 -4.3337684 -0.34814858
000030 ac 0c 59 c0 7b c1 89 c0 eb c1 a1 be 42 35 56 c0
       -3.3913984 -4.304868 -0.3159326 -3.3470006
000040 ee 23 87 c0 5e 07 40 bd a8 1b 61 c0 8b ce 93 c0
       -4.223136 -0.046882026 -3.517313 -4.618963
000050 ee 36 82 be 31 a1 68 c0 31 18 91 c0 c3 3b 09 bf
       -0.25432533 -3.6348383 -4.534203 -0.53606814
000060 23 a4 5e c0 c4 30 94 c0 76 23 3c be 7d 84 64 c0
       -3.478768 -4.630953 -0.18372902 -3.5705864
000070 fe 79 89 c0 a4 08 20 bf 98 a0 5e c0 c2 57 8b c0
       -4.2961416 -0.62513185 -3.4785519 -4.3544626
000080 a9 6c 6c bf ec d9 71 c0 1a a8 a0 c0 e1 54 13 bf
       -0.923533 -3.778926 -5.02052 -0.5755139
000090 e8 81 2c bf 5c f4 a1 bf 4c 37 ed 3e fd 01 2b bf
       -0.6738572 -1.2652698 0.4633125 -0.6679991
0000a0 5d db a2 bf 2f c5 0e 3f 75 0d 17 c0 86 52 69 c0
       -1.2723194 0.5576963 -2.3601964 -3.6456618
0000b0 12 a5 ba 3e 23 83 f2 bf 3c ed 35 c0 68 e9 8d 3f
       0.36454064 -1.894627 -2.8426046 1.1086855
0000c0 85 73 50 c0 b7 70 8d c0 79 41 41 be a3 c0 69 c0
       -3.2570508 -4.420009 -0.18872632 -3.6523826
0000d0 63 ed 8d c0 42 b2 59 be ed 49 b4 bf 49 38 1c c0
       -4.435228 -0.21259406 -1.408506 -2.4409354
0000e0 16 d2 a2 3e 5a ec 31 c0 0e 28 74 c0 90 27 10 3f
       0.31800908 -2.7800508 -3.8149447 0.5631037
0000f0 aa 1f 23 bf 1e 2b d7 bf 62 ed 09 3f f7 7f 13 bf
       -0.6372019 -1.6810033 0.5387784 -0.57617134
000100 e0 51 e4 bf a8 d9 e8 3e 2b 28 6c c0 a8 1b a0 c0
       -1.7837486 0.4547856 -3.6899517 -5.003376
000110 e0 59 49 bf 67 5f 71 c0 d0 dd 9a c0 32 77 28 bf
       -0.78652763 -3.771448 -4.8395767 -0.6580688
000120 74 e1 6f bf fb 6a f0 bf 36 f3 e7 3e ce 86 1a bf
       -0.9370339 -1.8782648 0.45302743 -0.60361946
000130 fd 2e 9d bf ba 06 f5 3e 8f 8f 73 c0 72 05 9a c0
       -1.2279965 0.47856694 -3.8056371 -4.8131647
000140 87 c2 2a bf 4c 63 72 c0 c8 3b 99 c0 9d 74 e7 be
       -0.66703075 -3.7873106 -4.7885475 -0.45206156
000150 10 2b 5f bf 92 ff f4 bf 20 9e e0 3e 04 e0 46 bf
       -0.87175083 -1.9140494 0.4387064 -0.7768557
000160 d2 a5 a2 bf 30 fc f6 3e 2f 32 96 bf e8 f6 74 c0
       -1.2706854 0.4823928 -1.1734065 -3.82757
000170 b8 36 44 be a0 e7 75 c0 e3 d5 99 c0 cf 79 8e bf
       -0.19161499 -3.8422623 -4.807359 -1.1130923
000180 68 55 59 c0 96 d6 86 c0 e0 f9 01 bf 73 c6 64 c0
       -3.3958378 -4.2136946 -0.50771904 -3.5746124
000190 79 33 89 c0 80 9d f2 bd 00 dc 38 bf 25 73 f5 bf
       -4.2875333 -0.11846447 -0.72210693 -1.9175764
0001a0 d0 e0 08 3f db 27 50 bf 11 45 e2 bf 84 90 14 3f
       0.53468037 -0.81310815 -1.7677327 0.58033013
0001b0 8d 74 3d bf 37 17 cc bf 50 71 f9 3e 4f d1 2c bf
       -0.7400597 -1.5944585 0.48719263 -0.6750688
0001c0 8f 99 b2 bf 0a b2 1a 3f 17 4c 83 c0 c2 f9 9c c0
       -1.3953112 0.60427916 -4.1030383 -4.905488
0001d0 39 49 6d bf 30 02 7f c0 c9 25 97 c0 60 d7 43 bf
       -0.92689854 -3.9845085 -4.7233624 -0.7650051
0001e0 3b 5f 3d c0 28 f1 8a c0 0a 76 07 be 20 4e 4c c0
       -2.9589374 -4.341938 -0.13228622 -3.1922684
0001f0 88 9c 89 c0 c3 9d a5 be f5 7d f4 bf ae b2 53 c0
       -4.300358 -0.32346925 -1.9100939 -3.3077807
000200 46 cf c2 3e 77 64 87 bf 7e 4c 23 c0 bc 25 1c 3f
       0.38048762 -1.0577534 -2.5515437 0.6099508
000210 1f 3f 1d bf da 4e b9 bf 66 5f e0 3e a7 31 f7 be
       -0.6142444 -1.4477189 0.43822783 -0.4828007
000220 18 3c 83 bf 20 9e eb 3e be 90 34 c0 4e 1e 80 c0
       -1.0252714 0.46019077 -2.8213344 -4.0036993
000230 8c 99 36 3e dd 6f 2e c0 44 06 79 c0 8d 65 af bc
       0.17832011 -2.7255776 -3.8910074 -0.021410728
000240 37 64 25 bf f8 fd bf bf a0 f0 1a 3f 5e fe b7 be
       -0.6460604 -1.499938 0.60523415 -0.35936254
000250 05 ad 9e bf a5 92 0d 3f 5e ea 1b bf 49 40 ac bf
       -1.2396551 0.55301887 -0.6090449 -1.3457118
000260 2b 92 e1 3e 2e c0 39 bf 5e 2e a2 bf 9f cb 1b 3f
       0.4405683 -0.7255887 -1.26704 0.60857576
000270 41 bc 8b bf 20 e3 03 c0 31 90 b6 3e 17 e0 a4 bf
       -1.0916826 -2.0607376 0.35656884 -1.2880887
000280 de 8d 0d c0 1e 1f ed 3e a4 b2 57 c0 b3 fd 95 c0
       -2.211784 0.46312803 -3.3702784 -4.687219
000290 e8 1f 54 bf 7f b3 77 c0 82 cf 97 c0 18 2b 26 bf
       -0.82861185 -3.8703306 -4.7440805 -0.64909506
0002a0 d9 02 73 c0 d9 31 96 c0 aa f8 4c bf 5d 76 80 c0
       -3.7970488 -4.693585 -0.8006693 -4.0144486
0002b0 94 25 9d c0 b2 4f 29 bf 32 ac 67 bf c6 08 bc bf
       -4.910837 -0.6613723 -0.90497124 -1.4690177
0002c0 84 54 c0 3e 3a d7 6c bf a2 a9 b8 bf 2e ac c8 3e
       0.3756448 -0.9251591 -1.4426768 0.39193863
0002d0 f6 75 77 bf 75 96 f0 bf b3 55 11 3f 44 bd a5 bf
       -0.9666437 -1.8795916 0.5677139 -1.2948384
0002e0 9b 17 de bf 28 9f ef 3e ff f5 32 bf 8c de c9 bf
       -1.7350954 0.46801114 -0.6990661 -1.5771041
0002f0 07 a4 f6 3e 90 00 55 bf dc a5 9e bf 93 b4 00 3f
       0.48172018 -0.83203983 -1.2394366 0.50275534
000300 30 9d 3d bf 35 14 c2 bf 35 ce 10 3f f8 e7 5d bf
       -0.74067974 -1.5162417 0.56564647 -0.8668208
000310 a8 01 cb bf a1 7d ee 3e 75 49 5d bf 48 f4 d4 bf
       -1.585988 0.46580222 -0.8644021 -1.6637049
000320 b7 cd ee 3e a5 bd 47 bf c0 38 c8 bf e0 e4 e3 3e
       0.46641323 -0.7802375 -1.5642319 0.44510555
000330 d0 cc 80 bf c8 1f ff bf 04 c4 e7 3e d2 42 37 bf
       -1.0062504 -1.9931574 0.45266736 -0.71586335
000340 b2 9b c6 bf 04 26 b6 3e 7c e1 c2 bf 44 bb 2b c0
       -1.5516264 0.3557588 -1.5225062 -2.6833048
000350 43 3d 11 3f 7c 9f 07 c0 9f 78 59 c0 45 13 df 3e
       0.567341 -2.1191092 -3.3979871 0.4356939
000360 a5 aa 6f c0 bf c4 96 c0 e6 42 56 bf e6 dc 6b c0
       -3.7447903 -4.711517 -0.8369583 -3.6853576
000370 f0 e4 94 c0 31 29 16 bf 81 8e 20 bf dc 06 b3 bf
       -4.6529465 -0.58656603 -0.62717444 -1.3986468
000380 25 28 f6 3e 4c 76 62 bf 91 4d c5 bf b4 df c4 3e
       0.48077503 -0.88461757 -1.5414296 0.38451922
000390 da 0e c9 bf 05 62 32 c0 35 9b be 3e 26 3c 43 bf
       -1.5707657 -2.7872326 0.3722779 -0.76263654
0003a0 e7 a1 01 c0 58 df 2d 3f d5 74 95 bf 21 ba 13 c0
       -2.0255067 0.6791892 -1.1676279 -2.3082354
0003b0 62 72 a8 3e cf 47 b4 bf 52 90 dc bf 53 51 99 3e
       0.32899767 -1.4084414 -1.7231543 0.29944858
0003c0 c8 64 5d c0 a6 2b 92 c0 55 5a 62 be 68 b1 70 c0
       -3.4592762 -4.567828 -0.22104771 -3.760828
0003d0 82 e3 8e c0 2c 13 a5 be cd e4 38 c0 cf f7 83 c0
       -4.465272 -0.3224119 -2.888965 -4.124
0003e0 a7 d4 81 bd fb 56 4a c0 54 c8 8c c0 54 54 97 be
       -0.06339388 -3.1615589 -4.399454 -0.29556525
0003f0 35 c7 4e c0 5e 81 88 c0 52 77 e9 3d 06 27 51 c0
       -3.2309086 -4.265792 0.11399712 -3.2680068

bayes_fc1.bias_mu f4 [64]
000000 94 01 9d bc 50 98 77 3d 06 fb 1e bd fa d0 6d 3c
       -0.019165792 0.06044799 -0.038813613 0.014515156
000010 f1 ce 82 bc 2b 58 ee 3c 6f cb 56 bd 85 31 7f 3c
       -0.015967818 0.029094776 -0.052440103 0.015575771
000020 40 2c 98 bd 85 dc 72 bc 05 c4 36 3b b1 d3 23 bd
       -0.07430315 -0.014823084 0.0027887833 -0.039996807
000030 3d b9 12 bd ed 6d eb 3c 84 e8 1a 3c a0 d1 f3 3c
       -0.03582119 0.02873894 0.00945485 0.029763043
000040 10 98 3a 3d 31 d5 03 bd 72 07 3c 3b e8 ba bf ba
       0.045555174 -0.032185737 0.0028690961 -0.0014627846
000050 cf 2d e0 bc 80 49 0e bd fe 2d 0a bd 31 49 d8 bc
       -0.027365593 -0.034738064 -0.033735268 -0.026402088
000060 2a 28 a0 3c 0a d2 cf 3c 33 e2 7b bc 12 45 02 3d
       0.019550402 0.02536871 -0.015373754 0.03180415
000070 00 de b9 3c 6f 94 29 3b 6e ef f5 bc dc 6f 21 3c
       0.022688866 0.0025875827 -0.030021396 0.0098533295
000080 93 02 51 bd 2d 97 1e 3b 7c 86 81 3b ab 05 b8 3c
       -0.051027846 0.0024198995 0.0039527994 0.02246364
000090 57 2f 40 bc aa 9e 32 3b e5 8c 0b bc a0 30 3b bc
       -0.011730037 0.0027255216 -0.008517479 -0.011425167
0000a0 87 cd 4d bb 8a c8 50 bd 98 59 c5 bc 34 51 7b bc
       -0.0031403021 -0.0509725 -0.024090573 -0.015339185
0000b0 16 98 e9 bc 38 b8 a3 3c a4 59 07 3b 7d 73 ef bc
       -0.028514903 0.019985303 0.0020652795 -0.029229874
0000c0 27 52 0a bd fc 12 ba bb 59 bb 95 bb 79 94 86 3c
       -0.033769753 -0.0056785326 -0.0045694527 0.01642822
0000d0 1f 9c 59 3c b9 50 ea 3c fd 7b d4 bc f9 7a 0f 3d
       0.013281851 0.028602945 -0.025938028 0.035029385
0000e0 8b 90 56 bb fb aa dc 3c 0a 26 4a 3d c2 45 9f 3d
       -0.0032739963 0.026936999 0.049352683 0.07776977
0000f0 36 4a 54 bd 40 3e b6 3c 7e d1 45 3b 87 2c 72 3c
       -0.051828586 0.02224648 0.0030184682 0.014781124

bayes_fc1.bias_rho f4 [64]
000000 38 51 3d be 3c 10 ba bf 4a 49 be bf 70 2e be bf
       -0.18488014 -1.4536204 -1.4866116 -1.4857922
000010 85 1e c5 bf 9a 18 ef bf 26 7a 34 be 33 a9 25 bf
       -1.5399939 -1.8679383 -0.17624721 -0.647113
000020 53 5d bf bf 9e 94 2c bf bd 82 a9 be c4 09 ef bf
       -1.4950355 -0.6741427 -0.33107558 -1.8674855
000030 08 31 a0 be 93 07 e0 bf 3e b6 a8 be d7 90 c0 bf
       -0.31287408 -1.7502311 -0.3295154 -1.5044202
000040 fb ab c6 bf 71 b3 98 be f2 bb 8e be 98 cb f7 bf
       -1.5521234 -0.29824403 -0.27877766 -1.9359007
000050 be 56 ad bf ac bc 0e bf 93 05 84 be 56 4d 88 bf
       -1.3542097 -0.5575664 -0.25785503 -1.0648601
000060 05 bd 07 be 80 35 5f be 3a be 09 bf 5d 78 eb bf
       -0.13255699 -0.21797752 -0.5380589 -1.8396107
000070 47 6d e9 bf 94 54 c3 be 71 63 d6 be da cc 97 be
       -1.8236474 -0.38150465 -0.41872743 -0.29648477
000080 73 31 8f be f1 d6 c2 be ef e5 c0 be ab b3 1a bf
       -0.27967414 -0.38054612 -0.37675425 -0.604304
000090 80 51 ef bf 41 e8 94 be 44 6f e6 be 5a 45 14 bf
       -1.8696747 -0.29083446 -0.45006764 -0.5791832
0000a0 a0 a5 ca bf 7e 0f a8 bf 9d b9 a1 bf 23 87 db be
       -1.5831795 -1.3129728 -1.263477 -0.4287654
0000b0 60 da 97 be 67 70 6a be 05 af 02 bf 38 98 4e bf
       -0.29658794 -0.2289444 -0.5104831 -0.8070102
0000c0 e0 0c c1 be e2 30 95 be 95 ed 8f be 13 7c fd be
       -0.37705135 -0.29138857 -0.28110948 -0.49508724
0000d0 81 65 54 be b9 5b fb bf ad 69 a7 be eb 69 dc bf
       -0.20741846 -1.9637367 -0.32697812 -1.7219824
0000e0 6e 05 d8 bf 8c 49 ec bf 40 d7 67 bf a2 1c 08 bf
       -1.6876657 -1.8459945 -0.9056282 -0.5316869
0000f0 98 53 ba be 73 7d 08 c0 24 85 ed bf d9 7b e2 be
       -0.36391902 -2.1326568 -1.8556256 -0.44235113

bayes_fc1.prior_mu_old_bias f4 [64]
000000 94 01 9d bc 50 98 77 3d 06 fb 1e bd fa d0 6d 3c
       -0.019165792 0.06044799 -0.038813613 0.014515156
000010 f1 ce 82 bc 2b 58 ee 3c 6f cb 56 bd 85 31 7f 3c
       -0.015967818 0.029094776 -0.052440103 0.015575771
000020 40 2c 98 bd 85 dc 72 bc 05 c4 36 3b b1 d3 23 bd
       -0.07430315 -0.014823084 0.0027887833 -0.039996807
000030 3d b9 12 bd ed 6d eb 3c 84 e8 1a 3c a0 d1 f3 3c
       -0.03582119 0.02873894 0.00945485 0.029763043
000040 10 98 3a 3d 31 d5 03 bd 72 07 3c 3b e8 ba bf ba
       0.045555174 -0.032185737 0.0028690961 -0.0014627846
000050 cf 2d e0 bc 80 49 0e bd fe 2d 0a bd 31 49 d8 bc
       -0.027365593 -0.034738064 -0.033735268 -0.026402088
000060 2a 28 a0 3c 0a d2 cf 3c 33 e2 7b bc 12 45 02 3d
       0.019550402 0.02536871 -0.015373754 0.03180415
000070 00 de b9 3c 6f 94 29 3b 6e ef f5 bc dc 6f 21 3c
       0.022688866 0.0025875827 -0.030021396 0.0098533295
000080 93 02 51 bd 2d 97 1e 3b 7c 86 81 3b ab 05 b8 3c
       -0.051027846 0.0024198995 0.0039527994 0.02246364
000090 57 2f 40 bc aa 9e 32 3b e5 8c 0b bc a0 30 3b bc
       -0.011730037 0.0027255216 -0.008517479 -0.011425167
0000a0 87 cd 4d bb 8a c8 50 bd 98 59 c5 bc 34 51 7b bc
       -0.0031403021 -0.0509725 -0.024090573 -0.015339185
0000b0 16 98 e9 bc 38 b8 a3 3c a4 59 07 3b 7d 73 ef bc
       -0.028514903 0.019985303 0.0020652795 -0.029229874
0000c0 27 52 0a bd fc 12 ba bb 59 bb 95 bb 79 94 86 3c
       -0.033769753 -0.0056785326 -0.0045694527 0.01642822
0000d0 1f 9c 59 3c b9 50 ea 3c fd 7b d4 bc f9 7a 0f 3d
       0.013281851 0.028602945 -0.025938028 0.035029385
0000e0 8b 90 56 bb fb aa dc 3c 0a 26 4a 3d c2 45 9f 3d
       -0.0032739963 0.026936999 0.049352683 0.07776977
0000f0 36 4a 54 bd 40 3e b6 3c 7e d1 45 3b 87 2c 72 3c
       -0.051828586 0.02224648 0.0030184682 0.014781124

bayes_fc1.prior_sigma_small_bias f4 [64]
000000 8d df 1a 3f b3 13 57 3e 0e c3 50 3e b0 ea 50 3e
       0.6049736 0.21003608 0.20386907 0.20402026
000010 b5 e5 46 3e 4e 10 13 3e f7 e0 1b 3f 68 93 d7 3e
       0.19423564 0.14361688 0.60890144 0.4210465
000020 2c 2d 4f 3e b5 dc d2 3e 46 8f 0a 3f 30 20 13 3e
       0.20232075 0.4118401 0.5412487 0.14367747
000030 81 84 0c 3f d5 08 24 3e 07 ba 0a 3f 49 6c 4d 3e
       0.54889685 0.16018994 0.54190105 0.20060839
000040 2d b7 44 3e 39 1b 0e 3f b7 3d 10 3f e2 05 0a 3e
       0.19210501 0.5551029 0.5634417 0.13478807
000050 a2 27 6b 3e 56 cc e7 3e e0 8f 12 3f 22 ab 97 3e
       0.22964337 0.45273083 0.57250786 0.2962275
000060 4e 0a 21 3f e0 0f 17 3f 1d 75 eb 3e 05 fe 16 3e
       0.6290635 0.590086 0.45987788 0.14745338
000070 b2 3f 19 3e 19 3e 05 3f 2f 6b 01 3f 5d 4c 0e 3f
       0.14965704 0.5204788 0.50554174 0.5558527
000080 6a 24 10 3f 98 57 05 3f 9a bc 05 3f cd 36 df 3e
       0.56305563 0.5208678 0.5224091 0.43596497
000090 75 d3 12 3e 85 ea 0e 3f ad 87 fc 3e c1 cb e3 3e
       0.14338477 0.558266 0.49322262 0.4449139
0000a0 61 3a 3f 3e 4e f6 73 3e 08 eb 7e 3e ed 66 00 3f
       0.18674614 0.23824427 0.24894345 0.5015705
0000b0 7b 49 0e 3f 7f d0 15 3f 27 b5 f0 3e bc e4 bc 3e
       0.5558087 0.58521265 0.47013208 0.3689326
0000c0 ae b4 05 3f fd da 0e 3f ee fb 0f 3f b3 ad f3 3e
       0.5222882 0.558029 0.5624379 0.4759346
0000d0 37 45 18 3f d9 78 06 3e a5 ff 0a 3f 38 5e 28 3e
       0.59480613 0.13132037 0.5429633 0.16442192
0000e0 28 c6 2d 3e 3a 19 16 3e ea d6 ad 3e 9d a9 ec 3e
       0.16970122 0.1465806 0.3395303 0.46223155
0000f0 2f 14 07 3f 88 64 e5 3d 6b c2 14 3e 65 12 fe 3e
       0.5276517 0.112008154 0.1452729 0.4962341

bayes_fc1.prior_mu_old f4 [64, 6]
000000 cb 21 17 bf c6 b5 37 bf c6 08 72 be a2 8f 2f bf
       -0.5903594 -0.7176174 -0.2363616 -0.6857854
000010 31 dc fe be 55 1e 5f be 17 ab 0d 3f 66 9c bf bd
       -0.49777368 -0.21788915 0.5533919 -0.093560025
000020 91 99 ef 3f 7a 0b c7 be c4 d3 f2 3d 0f f1 60 bf
       1.871874 -0.38875943 0.11856797 -0.87867826
000030 74 67 bf be 31 6b 5e 3e 34 2d a2 bf f3 67 bc 3e
       -0.37383616 0.21720578 -1.2670045 0.36798057
000040 af f0 19 be 00 76 5b 3f b2 c6 c4 be 99 20 3b 3e
       -0.1503322 0.8572693 -0.38432842 0.18274154
000050 ad 5a a5 bf a2 5c d1 3e 8b 4b 05 be ce b4 84 3e
       -1.2918297 0.40890986 -0.13017099 0.25919193
000060 1a f6 be be 13 c4 4f 3e a0 9b a4 bf a1 a0 c6 3e
       -0.37297136 0.2028964 -1.2859993 0.38794425
000070 0a d4 1c be 1c 0d 0a 3f bb 5c 93 3e de 2b fc bd
       -0.15315261 0.53926253 0.28781685 -0.123130545
000080 50 5b 03 40 3c ae 9f be 38 4d 3b 3e 9a 40 3c 3d
       2.0524483 -0.31187618 0.18291175 0.045960046
000090 f6 76 2a bf 16 d6 11 bf f7 b4 48 be 65 dd 11 bf
       -0.6658777 -0.56967294 -0.19600283 -0.56978446
0000a0 37 5d 12 bf ef 0b 7b be 33 db f6 be ef 8b 82 3e
       -0.57173485 -0.24516271 -0.4821411 0.25497386
0000b0 c0 4d ec be 9f 42 af be a7 4c 94 be d8 6b d5 3f
       -0.4615307 -0.34230515 -0.2896473 1.6673536
0000c0 be 28 9b be 6e be f0 3d 42 2b ca bf 03 0b 05 3f
       -0.3030452 0.117550716 -1.5794451 0.5196993
0000d0 30 5f 0f be 3f 87 91 3e 15 ba 4f bf 6a d7 85 be
       -0.14001155 0.28423497 -0.81143314 -0.2614091
0000e0 82 fd bc be 40 9f 1c be 5b 60 ea 3d 96 bb ff 3e
       -0.3691216 -0.15295124 0.114441596 0.49947804
0000f0 26 a7 fb be 74 2e ca be 91 9e e3 bd 8b b3 19 bf
       -0.49150962 -0.39488566 -0.111142285 -0.60039586
000100 7b 6a 8e be 7d c8 22 be 9e 15 67 be a1 06 ba 3d
       -0.27815613 -0.15896793 -0.2256684 0.090832956
000110 c9 4a 06 c0 ba 5d fa 3e 6d 83 9b bd 42 98 c3 be
       -2.0983145 0.48899633 -0.07593427 -0.382021
000120 cc ca 29 bf cb d6 94 be 1a eb 4c be ca 06 09 bf
       -0.6632507 -0.29070124 -0.20011559 -0.53525984
000130 71 85 24 bf cf 2e 67 be a1 22 ea 3e 6e 79 07 be
       -0.64266115 -0.2257645 0.45729545 -0.13229915
000140 bd 41 c1 3f 08 24 c3 be be 88 2c 3e d5 bf f7 be
       1.5098187 -0.38113427 0.16849038 -0.48388544
000150 15 35 fe be a0 c8 8f be 8d 30 5b be e6 c7 16 bf
       -0.49649873 -0.28082752 -0.2140524 -0.5889877
000160 1b 97 14 bf 59 05 5f be c9 89 78 bf c6 b7 52 be
       -0.5804307 -0.21779384 -0.97085243 -0.20577917
000170 4f ba a1 bf cd 45 97 bd ba 5b 06 3d 5a 04 4d 3f
       -1.2634982 -0.0738636 0.03280232 0.80084765
000180 ba 6b b7 3e 82 d5 13 be ac 89 22 40 e5 73 bb be
       0.35824376 -0.14436916 2.5396528 -0.36611858
000190 24 9f 3e 3e e3 b6 58 bd ce a6 03 bf b7 db 4c be
       0.18615395 -0.05290879 -0.514264 -0.2000569
0001a0 4e 97 38 be bd 00 1d bf c4 f2 cd be 48 8d 6a be
       -0.18026468 -0.6132925 -0.40224278 -0.22905457
0001b0 35 98 12 bf 72 f1 ee be bd 28 3c be 61 9a 15 bf
       -0.572635 -0.46668583 -0.18374915 -0.5843869
0001c0 3a 4e 0a bf 0e 5d 93 be 9d fa a5 3e ad 46 d0 bd
       -0.54025614 -0.28781933 0.32417765 -0.1016973
0001d0 c6 ae cc 3f c4 fd c4 be f2 41 39 3e 70 3c 07 bf
       1.5990837 -0.38474858 0.18091562 -0.52826595
0001e0 41 5c 8a be df 63 53 3d 29 fe aa bf be e1 bd 3e
       -0.2702351 0.051608916 -1.3358814 0.3708629
0001f0 43 e3 e0 bd 1e 4a 05 3f c1 37 c4 be f8 39 b0 3d
       -0.10980847 0.5206622 -0.38323787 0.08604807
000200 b2 77 a0 be 41 41 09 bf 66 7d 65 be 57 e6 b5 3d
       -0.3134132 -0.53615195 -0.22411117 0.088818245
000210 1d ab e9 be 17 24 cb be 6c 80 30 bd 80 c6 2e bf
       -0.45638362 -0.39675972 -0.043091223 -0.68271637
000220 b1 65 21 bf 8f 2d c9 bd 74 7d ba be c7 a9 22 3e
       -0.63045794 -0.09823143 -0.36423838 0.15885077
000230 40 8e 69 bf 67 52 d5 3e 53 97 0d be 5c 69 39 3f
       -0.9123268 0.4166443 -0.13827257 0.7242639
000240 7a 92 e7 be d2 05 f9 be 2a 3c d9 bd 4d 85 1c bf
       -0.4522894 -0.48637253 -0.106071785 -0.611409
000250 ef 38 11 bf e2 e2 58 be 21 88 da be 9f 59 dc be
       -0.567275 -0.21180299 -0.42681983 -0.43037125
000260 fb e4 90 bd 91 0b ce be f9 25 09 bf fc 6d 0f be
       -0.070749246 -0.402432 -0.53573567 -0.140068
000270 e7 0f 06 bf 9f d8 a9 be 7a ee 7b be 29 95 f0 be
       -0.52368015 -0.3317308 -0.2460269 -0.469888
000280 2a b2 8a be 22 9b a1 be b5 88 8b 3e 9b 11 03 be
       -0.27089053 -0.3156367 0.27252737 -0.12799685
000290 cc 0c e9 3f 21 ff ae be ca 02 3d 3e ce 4d ce 3d
       1.820703 -0.34179023 0.18458095 0.10073434
0002a0 4f f1 ad 3e b3 46 ef bd be 84 c8 3f 25 9b 88 be
       0.33973166 -0.11683407 1.566551 -0.26680866
0002b0 f5 87 1a 3e 67 1f f4 bd 8c 26 fa be 7e 43 04 bf
       0.15090926 -0.11920052 -0.48857534 -0.51665485
0002c0 0a 86 98 be 01 4d fc be 42 df 07 bf ab fb 5c be
       -0.29789764 -0.492775 -0.5307504 -0.21580379
0002d0 a9 ea 0a bf 14 29 a1 be bb 3c 67 be 89 1a 9c be
       -0.54264313 -0.31476653 -0.2258176 -0.30488995
0002e0 39 c4 c6 be e4 ad 93 be 3d d1 12 bf e2 13 e8 be
       -0.3882158 -0.28843606 -0.5735052 -0.4532767
0002f0 c0 ce 02 be ff b1 d8 be ec 2f 25 bf 4e 01 96 be
       -0.12774181 -0.423233 -0.6452625 -0.2929787
000300 15 b3 f0 be 60 87 b8 be 17 8d 8b be 0d c2 08 bf
       -0.4701163 -0.36040783 -0.2725608 -0.534211
000310 30 d3 a8 be 63 be 7c be cf 86 1c bf bd 6c c4 be
       -0.32973623 -0.24682002 -0.611432 -0.3836421
000320 86 c2 8c be 7c d9 0e bf b9 a8 cb be 02 87 36 be
       -0.2749216 -0.55800605 -0.39777163 -0.17824939
000330 0e d8 b9 be bf c6 3d be 88 ba 52 be 97 ea f1 be
       -0.3629765 -0.18532847 -0.20578969 -0.4724929
000340 53 37 01 bf ff f6 12 be e3 c4 c1 be d7 b1 8e be
       -0.50475043 -0.14352034 -0.37845525 -0.27870056
000350 fd 15 a5 3e 03 63 cd be f3 6d 10 3e c8 f9 c8 3e
       0.32243338 -0.40114602 0.14104442 0.39253068
000360 ed 3e dd be d7 81 7a 3e 56 4e cf bf dd 13 a2 3e
       -0.4321207 0.24463592 -1.6195781 0.3165578
000370 44 2e fe bd 62 91 6d 3e 39 2b 29 bf 19 c9 25 bf
       -0.12411168 0.2319999 -0.6608158 -0.64759976
000380 74 db 8e be 98 b5 30 bf 99 0e c7 be 85 cb 9f be
       -0.27901804 -0.6902709 -0.38878325 -0.3120996
000390 cd 81 fc be 6a c6 c8 3d 76 e4 cd bd 5a 50 b4 be
       -0.4931778 0.098034695 -0.10053341 -0.35217553
0003a0 19 1a bc be 64 43 b1 3e 2b 1d c5 be 5c e7 60 be
       -0.3673866 0.34621727 -0.38498816 -0.21963257
0003b0 87 80 6f be 24 f1 98 be cc 99 be be a2 a8 3e be
       -0.23388873 -0.29871476 -0.37226713 -0.18619016
0003c0 1b c3 b2 be a8 ae 33 3e 66 fe a9 bf 02 61 b2 3e
       -0.3491448 0.17547095 -1.3280761 0.34839636
0003d0 b1 2e ea bd ec 52 e9 3e a0 09 ac be 08 61 fd 3d
       -0.11434687 0.45571077 -0.33601093 0.12372023
0003e0 ab 0d ce bf ee 0d dc 3e 41 d9 f2 bd b5 f3 ee 3e
       -1.6097921 0.42979378 -0.11857844 0.4667031
0003f0 52 14 9b be 45 09 b9 3d 39 1a b6 bf 0a 12 06 3f
       -0.3028894 0.09034971 -1.4226753 0.52371275

bayes_fc1.prior_sigma_small f4 [64, 6]
000000 f4 2f cc 3e 28 4b 8c 3e 66 84 78 3f 91 64 e9 3e
       0.39880335 0.2740109 0.97077024 0.4558454
000010 c6 51 71 3e e8 e7 7a 3f fe 40 d6 3c b5 9e 45 3c
       0.2356635 0.9801011 0.026154038 0.0120617645
000020 c5 de 0a 3f 4d c6 50 3d 35 87 55 3c eb bd 08 3f
       0.5424617 0.050970364 0.013032724 0.5341479
000030 a6 9b 07 3d 55 bf 5b 3c e8 2f 0c 3f ba a8 0d 3d
       0.033107422 0.013412316 0.547606 0.03458474
000040 a5 53 6e 3c de 83 2b 3f c6 97 ef 3c d5 cd 20 3c
       0.01454631 0.6699809 0.029247176 0.009814699
000050 cf f4 12 3f 80 5e d5 3c cd f3 2e 3c 5c d5 eb 3e
       0.574048 0.026046038 0.010678244 0.46061218
000060 dc dd f8 3c 92 e5 1e 3c ce 01 1b 3f 75 55 e3 3c
       0.030379228 0.0096982885 0.6054963 0.02775071
000070 14 a9 5d 3c a2 78 db 3e 6f eb f8 3c bd 2e 51 3c
       0.013529081 0.42865473 0.030385701 0.012767491
000080 92 37 ab 3e ef 0e b9 3c 02 98 d7 3b ae 78 e4 3e
       0.33440834 0.022590129 0.0065794 0.4462332
000090 59 e9 d2 3e 88 83 7e 3e e5 8e 73 3f 18 ed d3 3e
       0.41193655 0.24854863 0.95139915 0.41391826
0000a0 f4 ed 7c 3e 21 54 81 3f df be b8 3d fe 19 d3 3c
       0.24700147 1.0103799 0.09020781 0.02576923
0000b0 05 56 64 3f 17 73 0f 3e 48 fe 67 3d f7 69 b2 3f
       0.89193755 0.14008747 0.056638986 1.3938588
0000c0 3c be 1a 3d 78 fd 43 3c 42 6d 1a 3f 9a b4 d1 3c
       0.037779078 0.011962287 0.60322964 0.025598813
0000d0 20 0c 41 3c 5d ad 17 3f 83 fd 5f 3e 3a ff aa 3d
       0.011782676 0.59248906 0.21874051 0.08349462
0000e0 9a 5f 5d 3f df 86 76 3d 0c 95 b2 3c ea c4 81 3f
       0.86474 0.060187217 0.021799587 1.0138218
0000f0 45 53 d9 3e 85 d7 2e 3e 8f 96 7f 3f aa 59 e4 3e
       0.42446342 0.17074402 0.9983911 0.44599658
000100 b5 06 1f 3e 74 38 72 3f 59 11 ca 3c 34 4f db 3b
       0.15529902 0.9461739 0.024666475 0.0066927914
000110 ea 26 c0 3e 84 6e ba 3c 17 18 01 3c b6 a7 d5 3e
       0.3752969 0.022757776 0.007879279 0.41729516
000120 03 43 a9 3e c6 a7 11 3e fd f1 71 3f 83 56 df 3e
       0.33058938 0.14224157 0.9450987 0.4362069
000130 a4 84 83 3e 53 f6 75 3f e1 3b b4 3c 04 89 04 3c
       0.25687134 0.96078986 0.022001209 0.008089308
000140 21 18 d4 3e c5 87 b7 3c 20 d3 07 3c fb 21 fc 3e
       0.4142466 0.022403607 0.008290082 0.49244675
000150 c5 e4 b2 3e 23 df 0c 3e cd b5 6f 3f ec b4 c1 3e
       0.34940162 0.13756995 0.9363678 0.37833345
000160 c4 4b 7d 3e 3e 91 76 3f 17 fc 89 3e 9d 5d b0 3c
       0.24735934 0.9631537 0.26950142 0.021529013
000170 93 17 1a 3f 0c d2 ad 3c c4 4d 05 3c 27 73 91 3e
       0.6019222 0.021218322 0.008136217 0.28408167
000180 61 04 07 3d 2e 92 70 3c 28 3d f1 3e d5 6e e2 3c
       0.03296316 0.014683289 0.4711697 0.02764074
000190 55 90 5f 3c 26 bb 22 3f 07 b4 ca 3e 7c 68 0c 3e
       0.013645251 0.63566816 0.39590475 0.13711733
0001a0 14 ed 7e 3f a7 ee bb 3e c6 66 21 3e b5 2d 83 3f
       0.995805 0.36705515 0.15761861 1.0248324
0001b0 5e b7 c7 3e 10 45 3d 3e eb 53 77 3f c0 b3 d2 3e
       0.39007086 0.18483377 0.96612424 0.41152763
0001c0 b4 a8 62 3e 02 27 85 3f d8 3e 86 3c ac c7 f1 3b
       0.22134668 1.0402529 0.016387388 0.007378539
0001d0 57 ba aa 3e f6 fb 96 3c dc ee 10 3c 31 a0 c3 3e
       0.3334529 0.018430691 0.008846011 0.38208154
0001e0 fe 25 4f 3d 50 cd 53 3c 98 12 21 3f d0 e4 24 3d
       0.05057334 0.012927368 0.62918997 0.040257275
0001f0 ef bb 5c 3c 17 60 0b 3f a2 64 0d 3e 85 39 13 3d
       0.013472541 0.54443496 0.1380792 0.035943527
000200 ca c0 66 3f 95 9a 98 3e 16 bf 99 3d 4e 9f 85 3f
       0.9013792 0.29805437 0.0750715 1.0439241
000210 e2 6b dd 3e 7c 39 58 3e bc a2 6f 3f e3 11 f6 3e
       0.4324637 0.21115679 0.9360769 0.4806052
000220 32 f1 9c 3e 65 11 73 3f d6 d6 6c 3d df 23 94 3c
       0.30652767 0.94948417 0.05782207 0.01808351
000230 6e 49 49 3f 22 f3 81 3d 41 a2 a5 3c 43 b8 2e 3f
       0.7862767 0.06345202 0.02021897 0.6824991
000240 d5 c2 d7 3e 3f 42 4e 3e 3f 3b 85 3f c9 8e 07 3f
       0.42140833 0.20142458 1.0408705 0.5295225
000250 07 2c 82 3e be f2 80 3f 90 5b de 3e 41 f2 6c 3e
       0.25424215 1.0074079 0.43429232 0.23139288
000260 02 00 70 3f 01 1f ca 3e 7a 1d 7e 3e 1e 82 85 3f
       0.9375001 0.3947678 0.24815932 1.0430334
000270 bb 2e 94 3e ea 82 f5 3d 36 22 63 3f c9 6a 79 3e
       0.28941903 0.119878605 0.88724077 0.24357142
000280 e9 d0 d4 3d 79 87 73 3f 42 74 0a 3d 2a 3e 16 3c
       0.10391409 0.9512859 0.03380228 0.0091700945
000290 ae 81 b9 3e 0d 0f a9 3c 5a f9 0d 3c 30 3a d7 3e
       0.3623175 0.02063706 0.008665407 0.4203658
0002a0 78 c5 b5 3c 35 4b 15 3c b8 e5 bd 3e 02 92 92 3c
       0.022188887 0.009112169 0.37089324 0.017891888
0002b0 ad 7e f0 3b 25 14 d5 3e b6 ef ad 3e cc 1b 54 3e
       0.0073393197 0.41616932 0.33971947 0.20713729
0002c0 74 04 66 3f 07 fb aa 3e 99 35 59 3e 96 7f 68 3f
       0.89850545 0.33394644 0.21211852 0.9081968
0002d0 14 0a a5 3e b0 79 11 3e 41 25 82 3f 4a ed 77 3e
       0.32234251 0.14206576 1.0167619 0.24211612
0002e0 ee 57 26 3e 13 4c 74 3f 08 97 ce 3e 5b 4a 40 3e
       0.1624448 0.9542858 0.40349603 0.18778364
0002f0 fd 75 76 3f 47 f9 b8 3e 76 32 82 3e 92 cd 79 3f
       0.96273786 0.36127684 0.25429124 0.975793
000300 1f 9d c7 3e b7 3b 4b 3e 08 fa 81 3f a8 a3 b3 3e
       0.3898706 0.19846998 1.0154428 0.35085797
000310 1b bd 3e 3e 18 f3 73 3f 8c 01 b4 3e 82 a4 31 3e
       0.18626826 0.95292807 0.3515743 0.17347911
000320 b3 0b 74 3f 75 29 c1 3e 29 8f 42 3e 14 b5 70 3f
       0.9533035 0.37726942 0.18999924 0.94026303
000330 02 88 9f 3e e2 cf 02 3e 90 e3 71 3f 22 c0 cb 3e
       0.31158453 0.12774613 0.9448786 0.39795023
000340 f4 cd 44 3e fe 02 63 3f d9 14 4a 3e 1a 61 87 3d
       0.1921919 0.8867644 0.19734515 0.066103175
000350 74 1d 82 3f c0 59 e8 3d 61 bb 06 3d d8 3d 6f 3f
       1.0165238 0.113452435 0.032893542 0.9345374
000360 f4 68 bf 3c 01 a7 12 3c 24 36 b8 3e 9e fc ca 3c
       0.023365475 0.00895095 0.35978806 0.02477866
000370 df 74 1b 3c 11 71 e2 3e 5c 1b db 3e 50 fb 61 3e
       0.009488313 0.44226888 0.4279431 0.22068524
000380 b4 4f 76 3f b3 f5 b0 3e 4e a3 46 3e dc 5d 67 3f
       0.9621537 0.34562454 0.19398233 0.90377593
000390 93 67 41 3e 79 d0 74 3d bc 81 65 3f db 02 c4 3e
       0.18887167 0.059769128 0.89651084 0.3828343
0003a0 89 ca fd 3d 1f 6f 8b 3f 6a af 8a 3e 5d 25 c2 3d
       0.12392146 1.0893286 0.27086955 0.09479783
0003b0 6b 01 5f 3f d7 00 60 3e a9 2f 28 3e 45 a2 5a 3f
       0.8711154 0.2187532 0.16424431 0.85403854
0003c0 a5 b0 fd 3c 76 32 29 3c 45 b6 16 3f 41 66 bc 3c
       0.03096802 0.010326972 0.5887187 0.022997977
0003d0 c1 5d 3b 3c 31 7d 0b 3f 49 c3 5d 3d a5 7b 83 3c
       0.011435927 0.544879 0.054141317 0.01605017
0003e0 b8 75 29 3f 52 ee 29 3d 20 09 48 3c 11 66 0e 3f
       0.6619525 0.041487046 0.012209207 0.5562449
0003f0 6a c3 1e 3d 8a 71 64 3c f3 73 40 3f 8e 16 19 3d
       0.03876058 0.013943085 0.75176924 0.037375025

bayes_fc2.weight_mu f4 [1, 64]
000000 b2 d4 20 3c f7 20 6b 3d 88 bc 52 bd 51 43 30 bd
       0.0098163355 0.057404485 -0.05144933 -0.043032948
000010 64 f7 43 bd 99 b5 76 3d b5 04 8a 3d ad 44 3f bd
       -0.047843352 0.06023178 0.06739179 -0.046696354
000020 6b 66 5c bd 0e 79 da 3d d8 5d e7 bc db 6e a8 bd
       -0.05380861 0.106676206 -0.02824299 -0.08224269
000030 53 1d 90 3b 90 6a 86 3d 54 33 e5 bc 40 48 c0 3e
       0.004398027 0.06563294 -0.027978577 0.37555122
000040 29 36 41 3d e1 90 76 bb 58 1c 1c 3d a5 99 7d 3d
       0.04717079 -0.0037622976 0.03811297 0.061914105
000050 87 85 9c bd 14 83 93 bd d5 cd d1 bb d7 07 0a bd
       -0.07642656 -0.072027355 -0.006402711 -0.033698883
000060 00 86 8b 3b aa d9 f4 bc 29 ac 85 bd b7 52 7d 3d
       0.0042579174 -0.029888947 -0.065269776 0.06184646
000070 e7 64 94 3d 58 7c 07 3e 96 9f 0c 3d 37 ab c6 3b
       0.07245808 0.13231027 0.03433188 0.006062891
000080 ac 85 e0 3c 9a 13 c2 3b 95 2b 30 bd 85 2b 7c 3d
       0.02740749 0.005922747 -0.043010313 0.06156494
000090 17 34 6e bd 1a 32 a2 3d 94 74 80 bc 64 4b f8 3d
       -0.058155145 0.07919712 -0.015680589 0.121237546
0000a0 7d 5e 52 bd fa 1a 62 bd 09 b1 2f bd 67 d0 5b 3b
       -0.051359642 -0.055201508 -0.042893443 0.0033540966
0000b0 d7 dc a9 3c 04 0b cc bc 88 44 04 bb 67 f6 e4 bc
       0.020735187 -0.024907596 -0.002018245 -0.027949525
0000c0 d3 8c 04 3d 37 04 3f 3b 30 f7 3e bb 78 09 06 bd
       0.032360863 0.00291468 -0.0029139034 -0.032723874
0000d0 9a 0d 4d bd 36 dd 79 3d d2 4e 66 3b 0d 00 74 3d
       -0.0500618 0.06100198 0.0035142195 0.05957036
0000e0 d4 66 9b 3d e2 54 7c 3d 02 03 e5 3d cc d8 ad 3d
       0.07587972 0.061604388 0.11182214 0.08488616
0000f0 91 3e c4 3d 95 30 a1 3d ab 3d 8b bd 90 44 99 3c
       0.09582246 0.078705944 -0.067988716 0.018709451

bayes_fc2.weight_rho f4 [1, 64]
000000 ab 7d 9b bf b0 7c ab c0 41 5f a9 c0 b3 3d af c0
       -1.2147726 -5.3589706 -5.2928777 -5.4762816
000010 09 0a a6 c0 d2 3a ad c0 5f 80 9d bf 41 72 97 c0
       -5.188725 -5.41343 -1.2304801 -4.732697
000020 09 a3 a8 c0 05 29 6b c0 c0 02 4d c0 67 e7 ac c0
       -5.2699018 -3.6743786 -3.2032928 -5.4032474
000030 d7 45 e8 bf 38 69 b3 c0 8e ae e2 bf ca 68 62 c0
       -1.8146313 -5.606594 -1.770952 -3.5376458
000040 f8 02 b0 c0 66 ec 1e c0 7e 93 e0 bf 9c 8a ad c0
       -5.5003624 -2.4831786 -1.7545011 -5.42317
000050 3e 95 97 c0 cc 0e 3b c0 d9 a2 0e c0 26 28 a9 c0
       -4.736968 -2.9227781 -2.2286894 -5.286151
000060 d7 d6 0f c0 44 f7 15 c0 b9 05 02 bf db 3a a4 c0
       -2.2474878 -2.343217 -0.5078998 -5.1321845
000070 b6 8f ad c0 51 f9 50 bf 2c c1 ab bf 81 00 ca bf
       -5.423793 -0.81630427 -1.3418326 -1.5781404
000080 fa 53 26 c0 63 94 91 bf d7 d5 1a c0 36 62 80 c0
       -2.5988755 -1.1373409 -2.4193017 -4.0119886
000090 29 04 ad c0 d3 91 16 bf 70 92 89 c0 8c ad 2f bf
       -5.406758 -0.5881626 -4.2991257 -0.68624187
0000a0 d9 fb a9 c0 92 7b a1 c0 b4 72 a8 c0 58 4c 14 c0
       -5.311993 -5.0463343 -5.264002 -2.3171597
0000b0 c1 14 17 c0 bf 3d b1 bf 5e 14 bd bf cd 70 a1 c0
       -2.3606417 -1.3846968 -1.477184 -5.0450196
0000c0 60 2f a5 bf dc 1c 34 c0 62 51 10 c0 54 e4 69 c0
       -1.2905083 -2.8142614 -2.2549672 -3.654561
0000d0 07 cb fe bf 34 f7 af c0 ea bb 5b bf 98 a1 ac c0
       -1.9905709 -5.498926 -0.8583361 -5.394726
0000e0 8e 1f a9 c0 20 be ab c0 b2 c7 7f c0 f7 df 87 c0
       -5.285102 -5.3669586 -3.9965634 -4.2460895
0000f0 f8 6f 8a bf 27 ae a9 c0 88 f1 ac c0 69 23 25 c0
       -1.081542 -5.302509 -5.404484 -2.5802863

bayes_fc2.prior_mu_old f4 [1, 64]
000000 b2 d4 20 3c f7 20 6b 3d 88 bc 52 bd 51 43 30 bd
       0.0098163355 0.057404485 -0.05144933 -0.043032948
000010 64 f7 43 bd 99 b5 76 3d b5 04 8a 3d ad 44 3f bd
       -0.047843352 0.06023178 0.06739179 -0.046696354
000020 6b 66 5c bd 0e 79 da 3d d8 5d e7 bc db 6e a8 bd
       -0.05380861 0.106676206 -0.02824299 -0.08224269
000030 53 1d 90 3b 90 6a 86 3d 54 33 e5 bc 40 48 c0 3e
       0.004398027 0.06563294 -0.027978577 0.37555122
000040 29 36 41 3d e1 90 76 bb 58 1c 1c 3d a5 99 7d 3d
       0.04717079 -0.0037622976 0.03811297 0.061914105
000050 87 85 9c bd 14 83 93 bd d5 cd d1 bb d7 07 0a bd
       -0.07642656 -0.072027355 -0.006402711 -0.033698883
000060 00 86 8b 3b aa d9 f4 bc 29 ac 85 bd b7 52 7d 3d
       0.0042579174 -0.029888947 -0.065269776 0.06184646
000070 e7 64 94 3d 58 7c 07 3e 96 9f 0c 3d 37 ab c6 3b
       0.07245808 0.13231027 0.03433188 0.006062891
000080 ac 85 e0 3c 9a 13 c2 3b 95 2b 30 bd 85 2b 7c 3d
       0.02740749 0.005922747 -0.043010313 0.06156494
000090 17 34 6e bd 1a 32 a2 3d 94 74 80 bc 64 4b f8 3d
       -0.058155145 0.07919712 -0.015680589 0.121237546
0000a0 7d 5e 52 bd fa 1a 62 bd 09 b1 2f bd 67 d0 5b 3b
       -0.051359642 -0.055201508 -0.042893443 0.0033540966
0000b0 d7 dc a9 3c 04 0b cc bc 88 44 04 bb 67 f6 e4 bc
       0.020735187 -0.024907596 -0.002018245 -0.027949525
0000c0 d3 8c 04 3d 37 04 3f 3b 30 f7 3e bb 78 09 06 bd
       0.032360863 0.00291468 -0.0029139034 -0.032723874
0000d0 9a 0d 4d bd 36 dd 79 3d d2 4e 66 3b 0d 00 74 3d
       -0.0500618 0.06100198 0.0035142195 0.05957036
0000e0 d4 66 9b 3d e2 54 7c 3d 02 03 e5 3d cc d8 ad 3d
       0.07587972 0.061604388 0.11182214 0.08488616
0000f0 91 3e c4 3d 95 30 a1 3d ab 3d 8b bd 90 44 99 3c
       0.09582246 0.078705944 -0.067988716 0.018709451

bayes_fc2.prior_sigma_small f4 [1, 64]
000000 4c 0f 85 3e 15 d6 99 3b 2b 52 a4 3b ea d7 88 3b
       0.25988233 0.00469471 0.005014678 0.0041761296
000010 f2 4e b6 3b 57 b3 91 3b f8 3a 83 3e a3 97 0f 3c
       0.0055636102 0.004446428 0.25630927 0.00876418
000020 5d 21 a8 3b 26 33 cd 3c 17 1f 23 3d 3d 30 93 3b
       0.0051309303 0.025048804 0.03982457 0.0044918344
000030 7e 89 1a 3e 2e 4f 70 3b e2 eb 20 3e c4 d6 ea 3c
       0.15091512 0.0036668289 0.15714982 0.028666861
000040 17 98 85 3b 2e 33 a4 3d 73 63 23 3e 9b 4a 90 3b
       0.0040769684 0.08017574 0.15955906 0.004403425
000050 a7 fb 0e 3c 55 94 56 3d c0 6c d1 3d 60 6d a5 3b
       0.008726991 0.052387554 0.102258205 0.005048439
000060 d4 b6 cd 3d be c4 bb 3d 42 34 f1 3e cb e1 c0 3b
       0.10044637 0.09168385 0.47110182 0.0058862916
000070 a9 33 90 3b 17 6e bb 3e a5 c4 6d 3e de 1b 40 3e
       0.0044006896 0.3660743 0.23219545 0.1876063
000080 3c e3 92 3d 51 68 8e 3e e1 94 ae 3d 9a ed 92 3c
       0.07172248 0.27813962 0.0852449 0.017935563
000090 7e ac 92 3b 4e 26 e2 3e 22 01 5d 3c 83 c7 d0 3e
       0.004476129 0.4416985 0.01348904 0.40777215
0000a0 a6 37 a1 3b 02 1e d2 3b 65 1f a9 3b e8 7f c0 3d
       0.004919964 0.0064122686 0.005161213 0.09399396
0000b0 bc aa b8 3d 8e d3 64 3e 9b 8c 52 3e 8b 64 d2 3b
       0.0901694 0.22346327 0.20561449 0.006420677
0000c0 cb e1 78 3e e8 78 6e 3d 57 41 cc 3d 43 41 d1 3c
       0.24304883 0.058220774 0.099734 0.025543815
0000d0 49 21 03 3e 25 c9 85 3b bc ed b4 3e fa 71 94 3b
       0.12805666 0.004082816 0.35337627 0.0045301886
0000e0 b6 99 a5 3b 7b 9d 98 3b 01 31 95 3c f6 f4 68 3c
       0.005053724 0.004657445 0.018211843 0.0142185595
0000f0 03 7e 95 3e f8 bf a2 3b c8 01 93 3b a4 8b 95 3d
       0.29197702 0.004966732 0.0044862963 0.07302025
