models/updated_hmnn_model_2013.pth (torch, 13926 bytes, 12 tensors)

bayes_fc1.weight_mu f4 [64, 6]
000000 3e 17 a3 be 2a 45 0d bf 61 83 c0 bd 56 24 cf be
       -0.3185367 -0.5518366 -0.094000585 -0.4045741
000010 88 fa 7d be 1b f6 65 be 93 88 ff 3e 83 7e de bd
       -0.24802601 -0.22457163 0.49908885 -0.10863974
000020 5b 38 cc 3e 77 9c ca be 2d a1 b6 3d 7d b5 97 be
       0.39886746 -0.39572498 0.089174606 -0.29630652
000030 4d 83 b5 be 7c 1d e3 3d c2 7d a0 be 33 c7 ae 3d
       -0.35451737 0.11089608 -0.31345946 0.08534088
000040 4b 6e 3e be c4 4b 13 bc 2e fc b1 be a1 0b fe 3d
       -0.18596761 -0.008990232 -0.3476271 0.12404562
000050 39 8b 01 bf b6 fc d2 3e df e7 f4 bd 97 16 07 3d
       -0.5060306 0.41208428 -0.119582884 0.032980528
000060 61 8d b1 be 8a 35 2e 3e ab 87 a5 be f8 ce af 3e
       -0.34678176 0.17012611 -0.3233007 0.34337592
000070 73 99 cb bd dc be 6b 3d a8 2c 1e 3e 1a 05 e3 bd
       -0.099413775 0.057555065 0.15446723 -0.110849574
000080 c1 ee b8 3e 64 7a 93 be 00 e0 9f 3d 0b 29 24 be
       0.36119655 -0.28804314 0.078063965 -0.16031282
000090 7c b6 aa be cf 8b d1 be ce 08 aa bd ae a6 89 be
       -0.3334235 -0.40926978 -0.083024606 -0.2688498
0000a0 6e 4f e7 be d5 0c 07 be ef 37 f7 be d8 0b fe 3d
       -0.45177788 -0.13188489 -0.4828486 0.12404603
0000b0 b4 c2 65 be 00 03 da bd 65 55 a7 be a7 89 ed bc
       -0.22437555 -0.106451035 -0.32682338 -0.028996302
0000c0 2d de 90 be 90 d8 e0 3d c0 19 18 bf 46 84 e4 3e
       -0.28294507 0.10978806 -0.5941429 0.44632167
0000d0 a1 4f f6 bd 61 12 ce 3d 33 e4 37 be 5c cc 92 be
       -0.12026907 0.10062099 -0.17958145 -0.2867154
0000e0 2f 86 8d bb de a8 7e be d0 56 3b bd 39 f4 db bc
       -0.0043189744 -0.24869105 -0.045737088 -0.026849853
0000f0 83 41 95 be d5 4a 97 be d6 30 17 be b6 7f 8f be
       -0.29151544 -0.2954928 -0.14764723 -0.28027123
000100 b3 2e fc bc 03 ab 9a 3c db f0 4b be e0 6b 0b 3d
       -0.030783987 0.018880373 -0.19916098 0.034038424
000110 f4 09 24 bf d2 90 e5 3e 21 4d f1 bd 6e 49 a7 3c
       -0.6407769 0.44837052 -0.11782289 0.020420756
000120 ec 98 9f be 93 22 0b be e2 44 c2 bd 6f 6d 9a be
       -0.31171358 -0.13587408 -0.094857946 -0.30161616
000130 b2 e2 f2 be 80 ee 2f be 09 14 f5 3e b6 4f e3 bd
       -0.4743858 -0.17180824 0.47866848 -0.11099188
000140 50 02 ca 3e 37 17 a7 be b1 84 f5 3d 85 eb 43 be
       0.3945489 -0.326349 0.119881995 -0.19132812
000150 9c 0d da bd 5b 20 2b be f3 ea e2 bd 51 62 de be
       -0.10647127 -0.16711561 -0.11079969 -0.43434384
000160 78 06 d9 be fb 74 cc bd 79 21 f2 be e3 3f 67 be
       -0.42387748 -0.0998325 -0.47291163 -0.22582965
000170 dc 13 61 bd ee de 31 be 74 a5 e4 bc 24 e5 00 3e
       -0.05495058 -0.17370197 -0.027910925 0.1258741
000180 cc cb bc 3e 18 87 02 be 4b 62 14 3f 28 aa ca be
       0.36874235 -0.12746847 0.57962483 -0.39582944
000190 7f 32 11 3e fc 88 8d be 5f b1 bc be b0 e5 04 be
       0.14179419 -0.27643573 -0.36854073 -0.12978244
0001a0 35 29 25 be d6 b3 7d be 06 d5 99 be a0 7a 96 bd
       -0.16129 -0.24775633 -0.30045336 -0.073476076
0001b0 fc 0e 7f be 1f 10 9c be 2e 19 10 be c0 85 b4 be
       -0.2490806 -0.3048105 -0.14072105 -0.35258293
0001c0 47 72 a5 be 63 47 ff bd 9e 95 9d 3e bf bb b9 bd
       -0.3231375 -0.12464788 0.3077821 -0.09069013
0001d0 6b ea ec 3e 96 af c0 be 08 cd fe 3d 66 63 a2 be
       0.46272597 -0.3763396 0.1244145 -0.3171646
0001e0 dc 5a 9a be c5 d1 86 3d 19 b0 c1 be e8 e7 73 3e
       -0.30147445 0.06582979 -0.37829664 0.23818934
0001f0 c0 73 d4 bd 29 d3 18 3d a6 0a a9 be b9 f9 70 3c
       -0.1037364 0.037310753 -0.33015937 0.014707976
000200 fc 44 44 be 2e 72 a7 be 77 a2 16 be 9f dc 65 3c
       -0.1916694 -0.327043 -0.14710413 0.014029651
000210 08 8c a4 be 73 09 c9 be 07 85 9b bd 95 9b bb be
       -0.32138085 -0.39265022 -0.07593732 -0.36642137
000220 7a 92 f5 be 37 c1 5c bd d0 3b 9a be bf c2 a3 3d
       -0.47963315 -0.0538952 -0.30123758 0.07996129
000230 02 df 48 be 08 35 70 3e ba 77 4e be e7 4b 38 bb
       -0.1961632 0.2345773 -0.2016286 -0.0028121413
000240 b1 b0 df bd e0 f8 4b be f6 5a 26 be 2a 20 b5 be
       -0.10922373 -0.19919157 -0.16245636 -0.35376102
000250 01 69 d0 be 9b 51 01 bd e5 86 9e be 4d 21 b1 be
       -0.40705112 -0.031571966 -0.3096229 -0.3459572
000260 2d 7e b0 bd d1 a8 05 be cd 8f e6 be bc df 54 bd
       -0.08617816 -0.1305268 -0.45031586 -0.051971182
000270 b8 f5 b2 be 5a f7 1f be ec 37 0b bc 0f 01 af be
       -0.34953094 -0.15621701 -0.0084972195 -0.34180495
000280 8d 5a 47 be 16 bb 0a bd ed 65 7c 3e 16 97 ba bd
       -0.19468136 -0.033869825 0.24648257 -0.091108486
000290 b5 33 0a 3f 0e 96 ae be c2 36 21 3e d0 88 32 be
       0.5398515 -0.34098858 0.15743545 -0.17435002
0002a0 64 a3 bc 3e f8 24 a3 bd 85 16 c6 3e fc 55 92 be
       0.36843407 -0.079660356 0.38689056 -0.28581226
0002b0 39 9e bf 3d 5c c7 af bd eb 05 9c be 89 03 91 be
       0.093563505 -0.08582947 -0.30473265 -0.2832301
0002c0 84 95 d5 3b de f5 96 be 86 7a a9 be 86 d5 d3 bd
       0.006518068 -0.29484457 -0.3310129 -0.10343461
0002d0 c2 ce b4 be 7e aa 57 be 45 81 7a be 27 0c 72 bd
       -0.35313994 -0.21061131 -0.24463375 -0.05909362
0002e0 23 93 9a be 9d 92 07 be a2 3b 8a be e5 ce c5 be
       -0.3019038 -0.13239522 -0.2699862 -0.3863441
0002f0 34 f6 bb bd 7b 8c 8b be ed 89 f9 be 2c 9a ba bd
       -0.09177819 -0.27255616 -0.48738042 -0.09111437
000300 f0 50 50 be aa d9 7f be 94 5b 3e be fa 01 92 be
       -0.20343375 -0.24985376 -0.18589622 -0.28517133
000310 cc d2 6e be df b8 88 bd 39 f5 cb be 4a 53 94 be
       -0.233226 -0.06675886 -0.39835528 -0.28969795
000320 c0 2d 4b bd c4 37 dc be 14 71 8a be 35 92 03 be
       -0.049604177 -0.43011296 -0.27039397 -0.12848742
000330 51 ec 5e be 70 7a 42 be 76 6b 02 be 5e 6e b0 be
       -0.21769835 -0.18992019 -0.12736306 -0.34459203
000340 35 8a b7 be eb 33 41 be 31 de 18 3d 06 32 3f be
       -0.3584763 -0.18867461 0.037321273 -0.18671426
000350 f2 94 d0 3d 3b d0 06 bf b3 a5 b5 3d 0d 05 1e be
       0.10184659 -0.52661484 0.08869495 -0.15431614
000360 3f 9c c8 be 97 f7 5d 3e 7b e5 ff be cf e5 63 3e
       -0.39181706 0.2167648 -0.49979767 0.22255634
000370 77 8e b5 bd 35 45 6e 3e 5c ac d2 be e2 70 c4 be
       -0.08865064 0.23268588 -0.41147125 -0.38367373
000380 7d 9b 10 3b 72 71 bd be 16 51 b8 be a5 30 f2 bd
       0.0022065334 -0.37000614 -0.35999364 -0.118256845
000390 6b 71 b0 be 69 57 0d 3e 4e 92 0d be 7c 7b d9 bd
       -0.3446153 0.13802876 -0.13825342 -0.10619256
0003a0 48 c4 8f be 30 ad 62 bd 4c d4 2c be 4d 29 26 be
       -0.28079438 -0.055340946 -0.1687786 -0.16226692
0003b0 a8 b0 ce bc a6 86 19 be b0 71 a3 be f7 fd b6 3d
       -0.02523072 -0.1499277 -0.31922674 0.08935159
0003c0 1b bd ab be fb 7a cb 3d 5b 56 e4 be 19 55 a2 3e
       -0.33542714 0.09935566 -0.44597134 0.3170555
0003d0 26 b5 d3 bd 36 28 f0 3d ae c2 9d be b8 69 00 3d
       -0.10337286 0.1172642 -0.3081259 0.03135082
0003e0 13 1d 80 be 52 81 49 3e 5f 0d 03 be 65 5f 65 3d
       -0.25022182 0.19678238 -0.1279807 0.05599918
0003f0 06 04 95 be 96 e8 bd 3d 7d e3 c3 be 43 45 ef 3e
       -0.29104632 0.09272878 -0.38259497 0.4673253

bayes_fc1.weight_rho f4 [64, 6]
000000 42 7d 5f bf 90 3a 98 bf 2e fa 0b 3f ef 1c 4a bf
       -0.87300503 -1.1892872 0.5467862 -0.789504
000010 3d b1 e8 bf 1a d9 04 3f df 21 1f c0 0b d6 52 c0
       -1.8179089 0.5189377 -2.4864423 -3.2943141
000020 dd b3 25 3e 4f f5 0c c0 ec 3a 47 c0 74 8d 6f 3e
       0.16181894 -2.2024724 -3.1129713 0.23393804
000030 ca cc 03 c0 57 30 34 c0 9b 4e 9a 3e a6 0e c0 bf
       -2.0593743 -2.8154504 0.30138096 -1.500447
000040 69 fc 35 c0 12 90 30 3e 6c c9 20 c0 25 36 61 c0
       -2.843531 0.17242458 -2.5122938 -3.5189297
000050 51 1e 83 bc 16 30 2e c0 7c a1 61 c0 ad d6 82 bc
       -0.016005667 -2.721685 -3.5254812 -0.015971506
000060 c6 91 10 c0 5d b4 49 c0 46 53 33 3e 08 b0 07 c0
       -2.2588973 -3.1516335 0.17512235 -2.120119
000070 a5 e1 40 c0 34 05 1f be 04 03 ec bf f6 50 32 c0
       -3.0137722 -0.15529329 -1.843842 -2.7861915
000080 f1 1e 3a 3e cc 73 11 c0 7c 2b 46 c0 2c d9 d6 3d
       0.18175866 -2.2726927 -3.096404 0.10490641
000090 0b 18 32 bf fe 45 ca bf 2d 8b db 3e 79 11 3f bf
       -0.69567937 -1.580261 0.4287962 -0.74636036
0000a0 00 d9 d7 bf 74 0b ac 3e b9 7d c4 bf 37 da 24 c0
       -1.6863098 0.33602488 -1.5350868 -2.5758188
0000b0 32 3c ea 3e b6 04 80 bf e2 35 05 c0 a4 c0 b0 3e
       0.4574905 -1.0001438 -2.0814137 0.34521973
0000c0 d2 12 22 c0 c5 2e 53 c0 c9 78 3d 3e 3b 89 26 c0
       -2.5323987 -3.2997296 0.18503107 -2.602126
0000d0 7c a6 50 c0 62 4f 3d 3d c9 ce 91 bf 5b ea f2 bf
       -3.2601614 0.046218283 -1.1391231 -1.897777
0000e0 b9 93 e1 3e a7 74 af bf 36 4c 12 c0 4c 59 a9 3e
       0.44058016 -1.3707474 -2.2859015 0.3307594
0000f0 10 39 26 bf 37 dd ea bf 52 52 bd 3e 67 ab 5a bf
       -0.6493082 -1.834876 0.36976868 -0.8541779
000100 74 3f 04 c0 8c 80 1d 3f 42 36 12 c0 d4 05 4e c0
       -2.0663729 0.6152427 -2.2845616 -3.2191057
000110 7b 48 3e 3e 4c 2c 28 c0 e4 a0 5a c0 12 8b c8 3c
       0.18582337 -2.6277037 -3.41607 0.024480376
000120 2f ee 94 bf 92 77 16 c0 b5 b4 c7 3e 36 aa 85 bf
       -1.1635188 -2.351048 0.39005056 -1.0442569
000130 d2 6d bf bf 36 67 e3 3e 5e a4 2f c0 1a 62 65 c0
       -1.495539 0.4441468 -2.7444072 -3.5841126
000140 b4 e3 22 be 19 7b 32 c0 ad 32 65 c0 b0 ed 1f be
       -0.15907174 -2.7887633 -3.581218 -0.15618014
000150 1e 05 a6 bf 75 5a 04 c0 1c a9 c0 3e 38 c1 54 bf
       -1.2970312 -2.068021 0.3762902 -0.8310733
000160 84 9c be bf 73 e0 00 3f f0 dc 97 bf 29 80 0e c0
       -1.4891515 0.5034248 -1.18643 -2.2265723
000170 d3 9d 67 3e 59 df 15 c0 a4 92 39 c0 4d bc e0 3d
       0.22618799 -2.341757 -2.8995752 0.109734155
000180 2e 5c 0f c0 85 bc 51 c0 7f 6f 84 3e 69 43 21 c0
       -2.2400012 -3.2771313 0.25866315 -2.5197394
000190 00 67 50 c0 98 14 c5 3d fa b5 8f bf a5 6d 04 c0
       -3.2562866 0.096230686 -1.122741 -2.0691922
0001a0 cb 99 15 3f a0 a7 81 bf 6b 10 da bf e4 ba d9 3e
       0.58437794 -1.012928 -1.703626 0.425254
0001b0 81 9f 6f bf 9d 57 ec bf e1 3e 0f 3f d3 cd 82 bf
       -0.9360276 -1.8464237 0.5595532 -1.0219063
0001c0 f7 c3 e5 bf 23 7b 82 3e c4 25 28 c0 e8 36 67 c0
       -1.7950429 0.2548457 -2.627305 -3.6127262
0001d0 25 40 18 3d 3c 9c 22 c0 61 31 59 c0 aa 25 58 3c
       0.037170548 -2.5407858 -3.3936388 0.013192574
0001e0 20 78 f3 bf ba e4 3d c0 ba c9 40 3e f1 49 05 c0
       -1.9021034 -2.9670854 0.18826953 -2.082638
0001f0 f1 7b 44 c0 be 69 f6 3d 01 15 c3 bf 12 05 2c c0
       -3.0700648 0.120318875 -1.5240785 -2.6878095
000200 8e 64 b3 3e db e8 9d bf 83 64 17 c0 00 94 9f 3e
       0.35037655 -1.2336687 -2.3655097 0.31167603
000210 2b 13 2c bf 5d 38 d0 bf 97 f4 01 3f f8 54 fe be
       -0.6721675 -1.6267201 0.5076384 -0.496742
000220 53 f2 a0 bf 58 58 fc 3e 56 ab eb bf f6 31 29 c0
       -1.2573951 0.4928615 -1.8411663 -2.6436744
000230 92 04 c0 3e f8 c5 d4 bf 15 35 1d c0 bc bc b7 3e
       0.37503487 -1.6622915 -2.4563649 0.3588618
000240 6a 16 3f bf 48 a0 f1 bf ff 1b 17 3f 28 d7 09 bf
       -0.74643576 -1.8877039 0.59027094 -0.5384393
000250 a4 ac c0 bf 5b 52 04 3f be 80 67 bf 32 24 d6 bf
       -1.5052686 0.51688164 -0.9043082 -1.6729796
000260 76 38 0b 3f 9c 3d 6b bf 4a 86 ad bf 6f 0a e1 3e
       0.5438303 -0.91890883 -1.3556607 0.43953273
000270 2f f1 96 bf 0c 1d 1e c0 be 94 b3 3e c5 b0 a5 bf
       -1.1792353 -2.4705229 0.3507442 -1.2944571
000280 48 ab 10 c0 ac 7b a5 3e 6d a8 2f c0 fc 17 68 c0
       -2.2604542 0.32320917 -2.744655 -3.626464
000290 75 c8 cd be 40 94 3d c0 c8 f2 78 c0 32 b7 6f be
       -0.40192 -2.9621735 -3.8898182 -0.23409727
0002a0 79 5a 44 c0 96 c9 75 c0 50 c2 cd be b8 42 39 c0
       -3.068022 -3.8404288 -0.4018731 -2.8946972
0002b0 8b 85 74 c0 8e dd 1e be 0d 14 7e bf 9b 3d db bf
       -3.8206508 -0.15514204 -0.99249345 -1.7128175
0002c0 b1 8b c5 3e be b0 5a bf 12 82 da bf 39 40 3f 3e
       0.3858314 -0.8542594 -1.7070944 0.18676843
0002d0 a0 78 99 bf 09 27 07 c0 a4 c9 d0 3e 9d 8d c5 bf
       -1.1989937 -2.1117575 0.4077884 -1.5433842
0002e0 b2 13 e9 bf d8 ec 82 3e 78 b4 7e bf ea 33 e0 bf
       -1.8209136 0.25571322 -0.99494123 -1.7515843
0002f0 c2 8d be 3e 4a 2e 67 bf 9d 92 ae bf 16 39 19 3f
       0.37217528 -0.90305007 -1.3638493 0.5985273
000300 8d 0b 79 bf 17 e5 fe bf 53 28 d6 3e d7 f6 6c bf
       -0.9728325 -1.9913663 0.4182764 -0.9256415
000310 62 d4 06 c0 c0 b4 e9 3e c2 7b 68 bf 5c e1 e8 bf
       -2.1067128 0.45645714 -0.9081384 -1.8193774
000320 5b 8c 08 3f b7 77 7e bf ae ac dd bf 67 ac 16 3e
       0.53339165 -0.9940142 -1.7318323 0.14714204
000330 65 49 71 bf e0 f4 04 c0 38 7c ec 3e 62 38 25 bf
       -0.94252616 -2.077446 0.4618852 -0.6453916
000340 5b 64 bf bf a4 a2 02 3f 23 80 a1 bf 94 39 13 c0
       -1.4952501 0.5102942 -1.2617229 -2.3003893
000350 b5 07 98 3e 68 40 bc bf d3 a2 28 c0 0c 06 57 3e
       0.2969338 -1.4707155 -2.634938 0.209984
000360 4f 74 1d c0 75 ee 56 c0 79 ce 97 3d e1 7c 1f c0
       -2.460224 -3.3583043 0.074124284 -2.491997
000370 4f da 51 c0 5a f0 0c 3c 1a ad 65 bf 36 f6 d9 bf
       -3.2789495 0.008602226 -0.8971726 -1.7028263
000380 13 18 d0 3e d6 ba 53 bf 6b fc d2 bf e9 94 d8 3e
       0.40643367 -0.82706964 -1.6483282 0.4230111
000390 00 45 a8 bf 31 71 17 c0 b0 6f ce 3e 54 dd 82 bf
       -1.3146057 -2.3662837 0.40319586 -1.0223794
0003a0 04 53 03 c0 74 59 d6 3e 3c 0b b3 bf 7f 1f 16 c0
       -2.0519419 0.41865122 -1.3987803 -2.3456724
0003b0 d5 a4 6a 3e 34 93 df bf 9d 58 de bf 82 78 3c 3e
       0.22914441 -1.7466798 -1.7370793 0.18405345
0003c0 df 7f 1b c0 e3 ec 42 c0 d4 2b fa 3d 0d 2c 0e c0
       -2.4296796 -3.0457084 0.12215391 -2.2214386
0003d0 94 7c 52 c0 9c 7f 20 3e f6 72 ff bf a5 2a 34 c0
       -3.2888536 0.15673679 -1.9956958 -2.8151028
0003e0 0c 58 99 3e 70 05 e5 bf c3 ee 28 c0 6b 1c 65 3e
       0.29949987 -1.7892284 -2.6395729 0.22374122
0003f0 3a f5 03 c0 48 b4 3b c0 c5 58 6b 3e ed ed 05 c0
       -2.0618424 -2.9328785 0.22983082 -2.0926468

bayes_fc1.bias_mu f4 [64]
000000 56 89 9c 39 09 52 3f 3b ec c9 ac ba b4 e1 19 bc
       0.00029856962 0.0029193184 -0.0013182736 -0.009392191
000010 ce 37 20 3b b8 2f 65 bc 6d a2 11 bd 02 e1 0b 3a
       0.0024447325 -0.013988428 -0.035555292 0.0005335958
000020 05 5e 2e 3c 05 87 01 3c 8f ae d0 bc 67 b7 bf bb
       0.010642533 0.007905726 -0.025473861 -0.0058507207
000030 7c f0 17 ba 53 2c c8 bc e7 1c 94 b9 8e 1d 3e 3a
       -0.0005796028 -0.024435198 -0.00028250294 0.0007252329
000040 e5 47 b4 bc 0a 61 d4 ba cb cd 85 3b 88 c8 83 bb
       -0.022006938 -0.0016203236 0.0040833703 -0.004021708
000050 92 2c 73 bc db 31 c4 bc 66 ab 5e ba b0 ef 1a 3c
       -0.014842169 -0.023949554 -0.0008494168 0.00945656
000060 43 6d cd bc 5c c4 5c bc 9f 3a db 3a f7 f6 2c bc
       -0.025076514 -0.01347455 0.0016725844 -0.010556928
000070 87 38 af bc eb 21 30 3c 51 8d a9 bb 94 ce da bc
       -0.021389259 0.010750274 -0.005174317 -0.026709832
000080 23 c4 46 bc e6 48 b7 bb b7 88 4d 3c c5 db 97 bb
       -0.012131724 -0.005593407 0.012544802 -0.004634353
000090 df 57 62 3b 4a 78 23 bc 3b da 13 bc d4 47 6b bc
       0.0034537239 -0.00997741 -0.009024198 -0.014360387
0000a0 87 7d 47 bb f7 26 d2 3c 52 52 3a 3c 06 bb 8c bc
       -0.003043981 0.025653346 0.011372166 -0.017179023
0000b0 7c f1 82 b9 a7 ab 57 bb 26 83 db bc ba dc 59 3b
       -0.00024975452 -0.003290871 -0.026795935 0.0033243136
0000c0 26 ef 82 bc 5b 66 d9 bc b2 6f b7 bc 3f b5 21 bc
       -0.015983175 -0.026538065 -0.022392128 -0.009869873
0000d0 da e6 f0 3b 4f ae 15 bd 2f 13 19 3c c7 17 cf bc
       0.0073517384 -0.036543187 0.009342953 -0.025279893
0000e0 fa 98 77 bc 78 b1 4c bd cf 91 b4 bb 74 31 c8 3b
       -0.015112156 -0.049973935 -0.005510546 0.006109411
0000f0 ca 9c 2e bc 56 78 7c 3b 5d 1c a8 3c a1 73 08 bd
       -0.010657499 0.0038523874 0.020521337 -0.033313397

bayes_fc1.bias_rho f4 [64]
000000 d4 f9 ab be 28 74 7f bf 75 78 4e bf c0 0d 90 bf
       -0.3358904 -0.99786615 -0.8065255 -1.1254196
000010 c0 1f 86 bf 7d 17 6d bf 12 9b c8 be ac 66 12 bf
       -1.0478439 -0.92613965 -0.3918081 -0.57187915
000020 52 8d 89 bf da b1 10 bf 73 64 ae be 89 38 85 bf
       -1.0746253 -0.5652138 -0.34061012 -1.0407878
000030 40 fa 00 bf 12 a8 a3 bf 69 37 e8 be 6d 2c 55 bf
       -0.5038185 -1.2785666 -0.45354775 -0.83270913
000040 3b 13 77 bf c8 42 d9 be 36 b8 e7 be 70 64 8e bf
       -0.9651372 -0.42433763 -0.4525773 -1.1124401
000050 e0 10 6a bf 9d f5 28 bf 71 5d 85 be c0 49 32 bf
       -0.91432 -0.65999776 -0.26047853 -0.69643784
000060 fc 84 89 be b1 98 ad be ad d1 08 bf dc ea b9 bf
       -0.26859272 -0.33905557 -0.5344494 -1.4524798
000070 41 79 bf bf 39 07 fd be d1 ed 19 bf 2d 1b b1 be
       -1.4958879 -0.49419573 -0.60128504 -0.34591046
000080 66 ce c9 be 79 7b e9 be b9 e3 b1 be c5 f7 35 bf
       -0.39415282 -0.45602015 -0.3474405 -0.7108119
000090 99 45 86 bf f4 a4 d2 be 2f 43 07 bf b2 b1 41 bf
       -1.048999 -0.41141474 -0.5283689 -0.75661767
0000a0 f2 36 76 bf 3f 2d 4d bf d6 f6 60 bf 67 d8 d7 be
       -0.9617759 -0.80147165 -0.8787664 -0.4215729
0000b0 b1 57 b5 be 40 e8 ba be 2c f7 10 bf 53 16 62 bf
       -0.35418466 -0.36505318 -0.56627154 -0.88315314
0000c0 0e e3 ca be 93 50 c5 be af 0c fe be de 7c 0d bf
       -0.39626354 -0.38538036 -0.49619052 -0.5526866
0000d0 74 cf b2 be 71 b9 a1 bf 39 a1 f1 be 4d 27 88 bf
       -0.349239 -1.2634717 -0.47193316 -1.0636994
0000e0 34 c3 80 bf da af 73 bf da 31 59 bf 72 51 03 bf
       -1.0059571 -0.95190203 -0.8484169 -0.5129615
0000f0 0a f1 a9 be 5a 5e 5c bf fd 68 93 bf bc 7b fb be
       -0.3319171 -0.8608147 -1.1516415 -0.4911784

bayes_fc1.prior_mu_old_bias f4 [64]
000000 56 89 9c 39 09 52 3f 3b ec c9 ac ba b4 e1 19 bc
       0.00029856962 0.0029193184 -0.0013182736 -0.009392191
000010 ce 37 20 3b b8 2f 65 bc 6d a2 11 bd 02 e1 0b 3a
       0.0024447325 -0.013988428 -0.035555292 0.0005335958
000020 05 5e 2e 3c 05 87 01 3c 8f ae d0 bc 67 b7 bf bb
       0.010642533 0.007905726 -0.025473861 -0.0058507207
000030 7c f0 17 ba 53 2c c8 bc e7 1c 94 b9 8e 1d 3e 3a
       -0.0005796028 -0.024435198 -0.00028250294 0.0007252329
000040 e5 47 b4 bc 0a 61 d4 ba cb cd 85 3b 88 c8 83 bb
       -0.022006938 -0.0016203236 0.0040833703 -0.004021708
000050 92 2c 73 bc db 31 c4 bc 66 ab 5e ba b0 ef 1a 3c
       -0.014842169 -0.023949554 -0.0008494168 0.00945656
000060 43 6d cd bc 5c c4 5c bc 9f 3a db 3a f7 f6 2c bc
       -0.025076514 -0.01347455 0.0016725844 -0.010556928
000070 87 38 af bc eb 21 30 3c 51 8d a9 bb 94 ce da bc
       -0.021389259 0.010750274 -0.005174317 -0.026709832
000080 23 c4 46 bc e6 48 b7 bb b7 88 4d 3c c5 db 97 bb
       -0.012131724 -0.005593407 0.012544802 -0.004634353
000090 df 57 62 3b 4a 78 23 bc 3b da 13 bc d4 47 6b bc
       0.0034537239 -0.00997741 -0.009024198 -0.014360387
0000a0 87 7d 47 bb f7 26 d2 3c 52 52 3a 3c 06 bb 8c bc
       -0.003043981 0.025653346 0.011372166 -0.017179023
0000b0 7c f1 82 b9 a7 ab 57 bb 26 83 db bc ba dc 59 3b
       -0.00024975452 -0.003290871 -0.026795935 0.0033243136
0000c0 26 ef 82 bc 5b 66 d9 bc b2 6f b7 bc 3f b5 21 bc
       -0.015983175 -0.026538065 -0.022392128 -0.009869873
0000d0 da e6 f0 3b 4f ae 15 bd 2f 13 19 3c c7 17 cf bc
       0.0073517384 -0.036543187 0.009342953 -0.025279893
0000e0 fa 98 77 bc 78 b1 4c bd cf 91 b4 bb 74 31 c8 3b
       -0.015112156 -0.049973935 -0.005510546 0.006109411
0000f0 ca 9c 2e bc 56 78 7c 3b 5d 1c a8 3c a1 73 08 bd
       -0.010657499 0.0038523874 0.020521337 -0.033313397

bayes_fc1.prior_sigma_small_bias f4 [64]
000000 91 0b 0a 3f 1d af a0 3e 55 f8 bc 3e 6f e5 8f 3e
       0.539239 0.313836 0.36908212 0.2810473
000010 95 ea 99 3e 8d d6 aa 3e f3 2c 04 3f 5f 24 e5 3e
       0.30061784 0.33366814 0.5163109 0.4475431
000020 2c 64 96 3e 40 60 e6 3e d2 8a 09 3f 56 db 9a 3e
       0.293733 0.44995308 0.5372745 0.30245465
000030 7c fd f1 3e 69 88 7b 3e 44 d6 fb 3e af de b8 3e
       0.47263706 0.24563755 0.4918691 0.36107394
000040 85 40 a5 3e 88 d9 00 3f b3 07 fc 3e 4c 88 91 3e
       0.32275787 0.50331926 0.49224624 0.284243
000050 f2 8f ac 3e 81 51 d5 3e fd 44 12 3f 83 09 cf 3e
       0.33703572 0.41663745 0.5713652 0.40436944
000060 11 5e 11 3f 30 b5 09 3f b7 23 ec 3e 5f 4c 57 3e
       0.5678416 0.53792095 0.46120998 0.21025227
000070 43 04 4f 3e f6 d9 f3 3e c3 c2 df 3e a8 fa 08 3f
       0.2021647 0.47627228 0.4370328 0.5350747
000080 05 ef 03 3f 74 58 fb 3e 20 d1 08 3f e0 99 cc 3e
       0.5153659 0.49090922 0.534441 0.39961147
000090 4b c3 99 3e c8 29 02 3f bf 4a ed 3e 4e fe c4 3e
       0.3003181 0.50845003 0.4634609 0.3847527
0000a0 33 ba a5 3e 23 c5 bd 3e 46 d6 b1 3e 40 21 01 3f
       0.3236862 0.37064466 0.3473379 0.5044136
0000b0 81 1a 08 3f b8 f5 06 3f 09 2e e6 3e d2 2d b1 3e
       0.5316544 0.5271869 0.44956997 0.3460527
0000c0 59 b7 03 3f 28 d7 04 3f f5 76 f3 3e 97 b5 e8 3e
       0.5145164 0.518908 0.47551695 0.45451042
0000d0 5b a0 08 3f 56 eb 7e 3e 44 33 f8 3e 28 d2 97 3e
       0.53369683 0.24894461 0.48476613 0.29652524
0000e0 4d 92 9f 3e 5a 21 a7 3e 1d 72 b6 3e 67 3b f0 3e
       0.31166306 0.32642633 0.35633937 0.4692032
0000f0 3a 78 0a 3f 1b 8d b4 3e a7 a3 8c 3e f5 6f f4 3e
       0.540897 0.35263905 0.27468607 0.47741666

bayes_fc1.prior_mu_old f4 [64, 6]
000000 3e 17 a3 be 2a 45 0d bf 61 83 c0 bd 56 24 cf be
       -0.3185367 -0.5518366 -0.094000585 -0.4045741
000010 88 fa 7d be 1b f6 65 be 93 88 ff 3e 83 7e de bd
       -0.24802601 -0.22457163 0.49908885 -0.10863974
000020 5b 38 cc 3e 77 9c ca be 2d a1 b6 3d 7d b5 97 be
       0.39886746 -0.39572498 0.089174606 -0.29630652
000030 4d 83 b5 be 7c 1d e3 3d c2 7d a0 be 33 c7 ae 3d
       -0.35451737 0.11089608 -0.31345946 0.08534088
000040 4b 6e 3e be c4 4b 13 bc 2e fc b1 be a1 0b fe 3d
       -0.18596761 -0.008990232 -0.3476271 0.12404562
000050 39 8b 01 bf b6 fc d2 3e df e7 f4 bd 97 16 07 3d
       -0.5060306 0.41208428 -0.119582884 0.032980528
000060 61 8d b1 be 8a 35 2e 3e ab 87 a5 be f8 ce af 3e
       -0.34678176 0.17012611 -0.3233007 0.34337592
000070 73 99 cb bd dc be 6b 3d a8 2c 1e 3e 1a 05 e3 bd
       -0.099413775 0.057555065 0.15446723 -0.110849574
000080 c1 ee b8 3e 64 7a 93 be 00 e0 9f 3d 0b 29 24 be
       0.36119655 -0.28804314 0.078063965 -0.16031282
000090 7c b6 aa be cf 8b d1 be ce 08 aa bd ae a6 89 be
       -0.3334235 -0.40926978 -0.083024606 -0.2688498
0000a0 6e 4f e7 be d5 0c 07 be ef 37 f7 be d8 0b fe 3d
       -0.45177788 -0.13188489 -0.4828486 0.12404603
0000b0 b4 c2 65 be 00 03 da bd 65 55 a7 be a7 89 ed bc
       -0.22437555 -0.106451035 -0.32682338 -0.028996302
0000c0 2d de 90 be 90 d8 e0 3d c0 19 18 bf 46 84 e4 3e
       -0.28294507 0.10978806 -0.5941429 0.44632167
0000d0 a1 4f f6 bd 61 12 ce 3d 33 e4 37 be 5c cc 92 be
       -0.12026907 0.10062099 -0.17958145 -0.2867154
0000e0 2f 86 8d bb de a8 7e be d0 56 3b bd 39 f4 db bc
       -0.0043189744 -0.24869105 -0.045737088 -0.026849853
0000f0 83 41 95 be d5 4a 97 be d6 30 17 be b6 7f 8f be
       -0.29151544 -0.2954928 -0.14764723 -0.28027123
000100 b3 2e fc bc 03 ab 9a 3c db f0 4b be e0 6b 0b 3d
       -0.030783987 0.018880373 -0.19916098 0.034038424
000110 f4 09 24 bf d2 90 e5 3e 21 4d f1 bd 6e 49 a7 3c
       -0.6407769 0.44837052 -0.11782289 0.020420756
000120 ec 98 9f be 93 22 0b be e2 44 c2 bd 6f 6d 9a be
       -0.31171358 -0.13587408 -0.094857946 -0.30161616
000130 b2 e2 f2 be 80 ee 2f be 09 14 f5 3e b6 4f e3 bd
       -0.4743858 -0.17180824 0.47866848 -0.11099188
000140 50 02 ca 3e 37 17 a7 be b1 84 f5 3d 85 eb 43 be
       0.3945489 -0.326349 0.119881995 -0.19132812
000150 9c 0d da bd 5b 20 2b be f3 ea e2 bd 51 62 de be
       -0.10647127 -0.16711561 -0.11079969 -0.43434384
000160 78 06 d9 be fb 74 cc bd 79 21 f2 be e3 3f 67 be
       -0.42387748 -0.0998325 -0.47291163 -0.22582965
000170 dc 13 61 bd ee de 31 be 74 a5 e4 bc 24 e5 00 3e
       -0.05495058 -0.17370197 -0.027910925 0.1258741
000180 cc cb bc 3e 18 87 02 be 4b 62 14 3f 28 aa ca be
       0.36874235 -0.12746847 0.57962483 -0.39582944
000190 7f 32 11 3e fc 88 8d be 5f b1 bc be b0 e5 04 be
       0.14179419 -0.27643573 -0.36854073 -0.12978244
0001a0 35 29 25 be d6 b3 7d be 06 d5 99 be a0 7a 96 bd
       -0.16129 -0.24775633 -0.30045336 -0.073476076
0001b0 fc 0e 7f be 1f 10 9c be 2e 19 10 be c0 85 b4 be
       -0.2490806 -0.3048105 -0.14072105 -0.35258293
0001c0 47 72 a5 be 63 47 ff bd 9e 95 9d 3e bf bb b9 bd
       -0.3231375 -0.12464788 0.3077821 -0.09069013
0001d0 6b ea ec 3e 96 af c0 be 08 cd fe 3d 66 63 a2 be
       0.46272597 -0.3763396 0.1244145 -0.3171646
0001e0 dc 5a 9a be c5 d1 86 3d 19 b0 c1 be e8 e7 73 3e
       -0.30147445 0.06582979 -0.37829664 0.23818934
0001f0 c0 73 d4 bd 29 d3 18 3d a6 0a a9 be b9 f9 70 3c
       -0.1037364 0.037310753 -0.33015937 0.014707976
000200 fc 44 44 be 2e 72 a7 be 77 a2 16 be 9f dc 65 3c
       -0.1916694 -0.327043 -0.14710413 0.014029651
000210 08 8c a4 be 73 09 c9 be 07 85 9b bd 95 9b bb be
       -0.32138085 -0.39265022 -0.07593732 -0.36642137
000220 7a 92 f5 be 37 c1 5c bd d0 3b 9a be bf c2 a3 3d
       -0.47963315 -0.0538952 -0.30123758 0.07996129
000230 02 df 48 be 08 35 70 3e ba 77 4e be e7 4b 38 bb
       -0.1961632 0.2345773 -0.2016286 -0.0028121413
000240 b1 b0 df bd e0 f8 4b be f6 5a 26 be 2a 20 b5 be
       -0.10922373 -0.19919157 -0.16245636 -0.35376102
000250 01 69 d0 be 9b 51 01 bd e5 86 9e be 4d 21 b1 be
       -0.40705112 -0.031571966 -0.3096229 -0.3459572
000260 2d 7e b0 bd d1 a8 05 be cd 8f e6 be bc df 54 bd
       -0.08617816 -0.1305268 -0.45031586 -0.051971182
000270 b8 f5 b2 be 5a f7 1f be ec 37 0b bc 0f 01 af be
       -0.34953094 -0.15621701 -0.0084972195 -0.34180495
000280 8d 5a 47 be 16 bb 0a bd ed 65 7c 3e 16 97 ba bd
       -0.19468136 -0.033869825 0.24648257 -0.091108486
000290 b5 33 0a 3f 0e 96 ae be c2 36 21 3e d0 88 32 be
       0.5398515 -0.34098858 0.15743545 -0.17435002
0002a0 64 a3 bc 3e f8 24 a3 bd 85 16 c6 3e fc 55 92 be
       0.36843407 -0.079660356 0.38689056 -0.28581226
0002b0 39 9e bf 3d 5c c7 af bd eb 05 9c be 89 03 91 be
       0.093563505 -0.08582947 -0.30473265 -0.2832301
0002c0 84 95 d5 3b de f5 96 be 86 7a a9 be 86 d5 d3 bd
       0.006518068 -0.29484457 -0.3310129 -0.10343461
0002d0 c2 ce b4 be 7e aa 57 be 45 81 7a be 27 0c 72 bd
       -0.35313994 -0.21061131 -0.24463375 -0.05909362
0002e0 23 93 9a be 9d 92 07 be a2 3b 8a be e5 ce c5 be
       -0.3019038 -0.13239522 -0.2699862 -0.3863441
0002f0 34 f6 bb bd 7b 8c 8b be ed 89 f9 be 2c 9a ba bd
       -0.09177819 -0.27255616 -0.48738042 -0.09111437
000300 f0 50 50 be aa d9 7f be 94 5b 3e be fa 01 92 be
       -0.20343375 -0.24985376 -0.18589622 -0.28517133
000310 cc d2 6e be df b8 88 bd 39 f5 cb be 4a 53 94 be
       -0.233226 -0.06675886 -0.39835528 -0.28969795
000320 c0 2d 4b bd c4 37 dc be 14 71 8a be 35 92 03 be
       -0.049604177 -0.43011296 -0.27039397 -0.12848742
000330 51 ec 5e be 70 7a 42 be 76 6b 02 be 5e 6e b0 be
       -0.21769835 -0.18992019 -0.12736306 -0.34459203
000340 35 8a b7 be eb 33 41 be 31 de 18 3d 06 32 3f be
       -0.3584763 -0.18867461 0.037321273 -0.18671426
000350 f2 94 d0 3d 3b d0 06 bf b3 a5 b5 3d 0d 05 1e be
       0.10184659 -0.52661484 0.08869495 -0.15431614
000360 3f 9c c8 be 97 f7 5d 3e 7b e5 ff be cf e5 63 3e
       -0.39181706 0.2167648 -0.49979767 0.22255634
000370 77 8e b5 bd 35 45 6e 3e 5c ac d2 be e2 70 c4 be
       -0.08865064 0.23268588 -0.41147125 -0.38367373
000380 7d 9b 10 3b 72 71 bd be 16 51 b8 be a5 30 f2 bd
       0.0022065334 -0.37000614 -0.35999364 -0.118256845
000390 6b 71 b0 be 69 57 0d 3e 4e 92 0d be 7c 7b d9 bd
       -0.3446153 0.13802876 -0.13825342 -0.10619256
0003a0 48 c4 8f be 30 ad 62 bd 4c d4 2c be 4d 29 26 be
       -0.28079438 -0.055340946 -0.1687786 -0.16226692
0003b0 a8 b0 ce bc a6 86 19 be b0 71 a3 be f7 fd b6 3d
       -0.02523072 -0.1499277 -0.31922674 0.08935159
0003c0 1b bd ab be fb 7a cb 3d 5b 56 e4 be 19 55 a2 3e
       -0.33542714 0.09935566 -0.44597134 0.3170555
0003d0 26 b5 d3 bd 36 28 f0 3d ae c2 9d be b8 69 00 3d
       -0.10337286 0.1172642 -0.3081259 0.03135082
0003e0 13 1d 80 be 52 81 49 3e 5f 0d 03 be 65 5f 65 3d
       -0.25022182 0.19678238 -0.1279807 0.05599918
0003f0 06 04 95 be 96 e8 bd 3d 7d e3 c3 be 43 45 ef 3e
       -0.29104632 0.09272878 -0.38259497 0.4673253

bayes_fc1.prior_sigma_small f4 [64, 6]
000000 51 b4 b2 3e 54 13 88 3e 3d 71 80 3f f7 ac bf 3e
       0.34903196 0.26577246 1.0034558 0.3743665
000010 4f 11 1a 3e 67 64 7c 3f 8a af a3 3d 4e 2f 15 3d
       0.15045665 0.985907 0.07992466 0.036422066
000020 db fe 46 3f c3 b4 d6 3d ba 35 32 3d 15 23 51 3f
       0.7773263 0.10483696 0.04350827 0.81694156
000030 b6 d3 f5 3d 6e 32 6e 3d 07 eb 5a 3f e8 29 4e 3e
       0.12003271 0.058153562 0.85514873 0.20133173
000040 d2 c8 67 3d 5a 77 48 3f c4 aa 9f 3d 20 36 ef 3c
       0.056588 0.78307116 0.07796243 0.029200613
000050 b8 67 2f 3f d5 70 82 3d fa ab ed 3c d4 68 2f 3f
       0.6851764 0.06369177 0.029012669 0.6851933
000060 1a 7e cb 3d 47 97 2b 3d 6a d7 48 3f fc 20 e8 3d
       0.09936161 0.041892316 0.78453696 0.11334416
000070 1d 5b 44 3d ce 56 1e 3f 3a 66 16 3e d8 0f 75 3d
       0.047938455 0.61851203 0.14687434 0.059829563
000080 39 c4 49 3f 40 d6 c8 3d 3d 1f 35 3d c8 39 3f 3f
       0.78815037 0.0980649 0.044219244 0.7469754
000090 95 2a cf 3e dc bc 3f 3e b9 2b 6e 3f 32 ad c6 3e
       0.40462175 0.18724388 0.93035465 0.38804013
0000a0 aa fd 2d 3e 9f 0d 60 3f 42 c9 47 3e eb 30 96 3d
       0.16991296 0.87520784 0.19510368 0.07333549
0000b0 f6 a4 72 3f c5 5e a0 3e 72 c5 f0 3d bd 6d 61 3f
       0.9478296 0.31322303 0.1175641 0.8805807
0000c0 82 9b 9c 3d bc 64 14 3d 42 39 4a 3f 78 6d 92 3d
       0.07646848 0.03622888 0.7899362 0.07149786
0000d0 7e 45 1a 3d 12 6e 37 3f a3 2f 8e 3e 4c 07 0f 3e
       0.03766393 0.7165233 0.2777072 0.13967627
0000e0 7c 00 70 3f ef b3 67 3e 39 53 c6 3d 95 44 5f 3f
       0.9375074 0.22627233 0.09683842 0.8721402
0000f0 9a 30 d7 3e 89 a8 17 3e 6f 20 65 3f 37 90 b5 3e
       0.42029268 0.14810385 0.89502615 0.3546159
000100 f9 35 f4 3d c3 0f 86 3f 1a 94 c6 3d a1 9c 20 3d
       0.11924357 1.047356 0.09696217 0.039211873
000110 9f 55 4a 3f 15 db 8e 3d 29 5b 04 3d 2d 99 34 3f
       0.790369 0.0697538 0.0323135 0.7054623
000120 6a 2f 8b 3e 56 5e ba 3d c6 35 68 3f d0 64 9a 3e
       0.27184612 0.091000244 0.9070705 0.3015504
000130 02 15 4f 3e cb 8e 70 3f 09 33 7f 3d 2d 52 e0 3c
       0.20222858 0.93967885 0.06230453 0.027382934
000140 b3 e4 1d 3f 6c 73 74 3d 60 f6 e0 3c 00 3c 1e 3f
       0.6167709 0.059680387 0.02746123 0.618103
000150 cb 71 77 3e e9 d4 f3 3d 88 1d 66 3f b5 1f b9 3e
       0.24164502 0.11905844 0.8988881 0.36157003
000160 62 48 50 3e e9 e8 79 3f d4 6a 88 3e c0 d8 d1 3d
       0.20340112 0.9762102 0.26644003 0.1024642
000170 0b 08 50 3f d7 07 bc 3d e0 7b 5b 3d 75 e0 3f 3f
       0.8126227 0.09181183 0.053584933 0.7495187
000180 35 2f cf 3d 1a b9 17 3d 8c b0 54 3f ff 86 9e 3d
       0.10116426 0.03704176 0.8308189 0.07740592
000190 f4 db 1a 3d 37 0f 3e 3f 8b 3b 90 3e 07 90 f3 3d
       0.03780742 0.74241966 0.28170428 0.118927054
0001a0 cf 82 83 3f 44 9e 9e 3e 80 3d 2b 3e 3c 9f 6d 3f
       1.0274295 0.30980122 0.16722679 0.928211
0001b0 28 68 a9 3e e2 09 16 3e d5 7a 81 3f c9 65 9d 3e
       0.33087277 0.14652207 1.011561 0.30741718
0001c0 e4 5e 1d 3e 7c 23 54 3f 2b e9 8e 3d a9 13 da 3c
       0.15368229 0.82866645 0.06978067 0.026620703
0001d0 6b 3f 36 3f 0c 59 9b 3d 3a 4f 07 3d d1 23 33 3f
       0.7119052 0.07585344 0.03303454 0.69976526
0001e0 ba 73 0e 3e 47 82 4d 3d 40 ad 4a 3f 4a 7e f0 3d
       0.13911334 0.05017307 0.7917061 0.11742838
0001f0 16 d9 39 3d 3a 4f 41 3f 15 cb 49 3e 5a ca 86 3d
       0.045373045 0.75511515 0.19706376 0.06581564
000200 d0 33 62 3f 97 dc 82 3e 29 cf b7 3d ae 6f 5c 3f
       0.8836031 0.25558922 0.089750595 0.8610791
000210 2b 34 d3 3e d9 c4 37 3e 28 95 7a 3f 9b 5b f3 3e
       0.41250739 0.17946185 0.97883844 0.47530827
000220 9b 25 80 3e 4c 3a 78 3f 27 c6 16 3e 1b ab 8c 3d
       0.2502869 0.96963954 0.14724027 0.06868573
000230 c3 ec 65 3f 8e df 31 3e cd 7b a8 3d a5 7a 63 3f
       0.89814395 0.17370436 0.08226738 0.88859016
000240 04 aa c6 3e 0a 61 10 3e ec fe 83 3f bc 62 eb 3e
       0.38801587 0.14099517 1.0312171 0.45973766
000250 df 43 4d 3e f7 0f 7c 3f c0 08 ae 3e ca 22 30 3e
       0.20045422 0.9846186 0.3399105 0.17200771
000260 eb 33 80 3f 22 e4 ab 3e a2 d9 6a 3e ba d6 6f 3f
       1.0015844 0.3357249 0.22934583 0.9368702
000270 01 48 89 3e 65 35 a6 3d f2 41 62 3f ca 02 78 3e
       0.26812747 0.08115653 0.88381875 0.24219814
000280 f3 30 cb 3d 15 25 5e 3f 57 23 7f 3d df 23 d7 3c
       0.09921446 0.8677533 0.062289562 0.026262222
000290 80 22 03 3f ea 7e 4e 3d 34 d4 a5 3c 1c 3b 15 3f
       0.5122452 0.050414003 0.020242788 0.5829332
0002a0 32 38 3a 3d d8 22 ae 3c bb 23 03 3f 5e 87 5c 3d
       0.04546375 0.02125685 0.51226395 0.053840034
0002b0 b8 93 b1 3c 60 5b 1e 3f 2c 6d a1 3e e5 cb 29 3e
       0.021676883 0.6185818 0.31528604 0.16581686
0002c0 09 91 67 3f 07 8d b5 3e b1 b1 2a 3e 77 77 4a 3f
       0.9045568 0.35459158 0.16669346 0.7908854
0002d0 81 eb 86 3e 81 f8 e9 3d 6e ed 6a 3f 08 49 46 3e
       0.2635155 0.114243515 0.9176854 0.19363797
0002e0 6d a3 19 3e 85 43 54 3f 7e 16 a1 3e 5b d4 23 3e
       0.15003748 0.82915527 0.31462473 0.15998976
0002f0 c1 7d 65 3f 4a 38 ae 3e 20 23 69 3e 42 ad 84 3f
       0.8964501 0.3402732 0.22767305 1.0365374
000300 0f 2b a4 3e 3c 08 03 3e 14 8b 6c 3f 14 e9 aa 3e
       0.320641 0.1279611 0.92399716 0.3338095
000310 af 16 eb 3d 7f 7b 72 3f 47 78 ad 3e 92 db 19 3e
       0.11478936 0.9471969 0.33880827 0.15025166
000320 d6 b7 7e 3f 4d 37 a1 3e 5d d8 26 3e d9 f8 44 3f
       0.9949926 0.31487504 0.16293474 0.7694221
000330 c4 78 a8 3e 96 ac f1 3d 7e 55 73 3f fc e0 d7 3e
       0.32904637 0.11800496 0.95052326 0.42163837
000340 e0 22 4f 3e dc 01 7b 3f 6e 50 7f 3e bf 9a c3 3d
       0.20228148 0.9804971 0.24933025 0.09551
000350 ab 43 5a 3f 96 c8 53 3e 65 dc 8d 3d 66 bb 4d 3f
       0.85259503 0.20681986 0.069268025 0.8036407
000360 4d dc a7 3d 00 18 0c 3d 00 1c 3b 3f 6a d0 a2 3d
       0.08196316 0.034202576 0.730896 0.07949908
000370 d5 73 17 3d 94 8c 32 3f f3 16 af 3e cc 5d 2b 3e
       0.0369757 0.69745755 0.34197196 0.16735
000380 1f b8 6a 3f 27 bf b9 3e a8 2a 34 3e 62 46 6d 3f
       0.91687196 0.3627865 0.17594397 0.9268552
000390 9e 9b 73 3e 58 ac b7 3d d7 38 6a 3f 61 55 9d 3e
       0.23789832 0.08968419 0.9149298 0.307292
0003a0 ec 8d f7 3d e5 99 6c 3f 61 f4 61 3e 16 54 bb 3d
       0.12087616 0.92422324 0.2206588 0.091468975
0003b0 e6 73 50 3f d7 92 24 3e 04 0a 26 3e 47 16 4a 3f
       0.81426847 0.1607164 0.16214758 0.7894024
0003c0 65 da ac 3d 47 53 3e 3d ff 8e 41 3f 7b df d2 3d
       0.08440093 0.04646614 0.7560882 0.10296532
0003d0 a3 fc 15 3d 17 4b 46 3f 2c 80 02 3e 07 47 6e 3d
       0.036617886 0.7745833 0.12744206 0.058173206
0003e0 33 a4 5a 3f 91 38 1e 3e 1e 3a 8d 3d e3 ae 4f 3f
       0.854068 0.15451266 0.068958506 0.8112623
0003f0 83 41 f5 3d 5c 7a 54 3d f6 8c 50 3f 77 3b ee 3d
       0.11975386 0.051874503 0.8146509 0.11632436

bayes_fc2.weight_mu f4 [1, 64]
000000 cf 45 11 bd 60 59 ab 3d 25 08 56 bd e1 fd b4 bd
       -0.035466965 0.08366656 -0.05225386 -0.08837486
000010 83 cc 5b bd c1 57 50 3d 38 8b 81 ba 69 6f 9f bd
       -0.053661834 0.05086494 -0.0009883409 -0.07784922
000020 01 cd 9e bd 70 7d be 3b 36 89 29 bc 1f cb 82 bd
       -0.07753945 0.005813293 -0.010347655 -0.063863985
000030 10 98 80 bd 69 36 c8 3d 8e 98 f4 3c bc 42 68 3e
       -0.062790036 0.09776003 0.0298579 0.22681707
000040 0d af 99 3d 48 81 ad bc 0e a5 c8 3d 12 aa b1 3d
       0.075040914 -0.02117981 0.09797107 0.086750165
000050 88 8a 8f bd 78 48 5f bd ca 22 0b bd 31 38 66 bd
       -0.070088446 -0.05451247 -0.033968724 -0.056205932
000060 ef 83 91 3c 85 30 9e bc 6d 38 e9 3d 5b 00 c2 3d
       0.017763106 -0.019310245 0.113877155 0.09472724
000070 5e de f8 3d 0d 86 9c bd e5 02 07 3d 5e b7 c8 3c
       0.12151788 -0.07642756 0.032961745 0.024501499
000080 ed d1 6d bc 90 a7 fe bc 96 7f 4c bd 8e 09 27 3d
       -0.014515382 -0.03108576 -0.049926363 0.040780596
000090 2c bd 84 bd 2f 13 9f 3d 8a c2 0a bd 63 52 0f 3e
       -0.06481394 0.07767331 -0.033876933 0.13996272
0000a0 0c 2c ac bd d9 84 3b bd b9 93 6a bd 40 6d 54 bc
       -0.08406839 -0.04578099 -0.057269786 -0.0129655
0000b0 5b fb d3 bc 03 4e be bd ec 4c 96 3d 1f 85 6f bd
       -0.025876692 -0.09292223 0.073388904 -0.058476564
0000c0 ac 03 21 bd 4e 24 92 bc 41 20 bb 3c ef e9 29 bc
       -0.039310142 -0.017839577 0.022842528 -0.0103707155
0000d0 df 0d 0d 3d 5f 42 92 3d 6e fc fa 3c 4a 0c ba 3d
       0.034437057 0.071415655 0.030637946 0.09084375
0000e0 a4 93 b8 3d 62 92 9a 3d 0b c1 9d 3d ad d1 ad 3c
       0.09012535 0.075474516 0.07702836 0.021218145
0000f0 93 39 06 3d 31 bf b5 3d a3 b0 b4 bd 38 cf a8 3c
       0.03276975 0.088743575 -0.08822753 0.020606622

bayes_fc2.weight_rho f4 [1, 64]
000000 cd 21 80 bf 51 e8 68 c0 d7 7a 4a c0 cb bb 6f c0
       -1.0010315 -3.6391795 -3.1637475 -3.745837
000010 cd ac 64 c0 86 c8 54 c0 9b 09 89 bf 35 a7 4c c0
       -3.573047 -3.324739 -1.0706056 -3.1977055
000020 8c 64 6b c0 cc 13 16 c0 a2 de 2d c0 9c e2 53 c0
       -3.678012 -2.3449583 -2.7167134 -3.3107061
000030 2d e1 d4 bf 93 9f 68 c0 62 4b c7 bf 61 aa 91 bf
       -1.6631218 -3.6347396 -1.556988 -1.138012
000040 72 0f 65 c0 6f d3 04 c0 08 b3 89 bf 74 1c 61 c0
       -3.5790677 -2.075405 -1.0757761 -3.5173616
000050 9f 99 47 c0 e5 4e 0b c0 a5 5a d7 bf 39 9e 4c c0
       -3.1187513 -2.1766903 -1.6824538 -3.1971571
000060 32 ca 28 c0 ef 6b 00 c0 d8 35 f5 be fe b4 6d c0
       -2.637341 -2.0065877 -0.47892642 -3.714172
000070 a1 f5 62 c0 c6 a6 5d bf 86 d5 99 bf 4f 94 ad bf
       -3.546242 -0.865826 -1.2018287 -1.3560885
000080 5b 71 09 c0 57 d5 7d bf bc 2a 05 c0 fb 54 38 c0
       -2.1475437 -0.99153656 -2.0807333 -2.8801868
000090 2f 55 6a c0 a2 b3 70 be 22 f8 47 c0 f5 2e 1a bf
       -3.6614492 -0.23506024 -3.1245198 -0.602279
0000a0 30 34 5a c0 06 04 39 c0 ef f6 5d c0 8f 82 fa bf
       -3.4094353 -2.8908706 -3.4681966 -1.9571093
0000b0 e8 b3 05 c0 67 75 a2 bf 85 37 9a bf 37 42 57 c0
       -2.0891056 -1.2692078 -1.2048193 -3.3634164
0000c0 a7 de ae bf 4f 1e 2e c0 74 b0 1c c0 8b 64 2c c0
       -1.3661698 -2.7206 -2.4482698 -2.6936367
0000d0 c5 c2 b5 bf fe e7 5e c0 89 8a 93 bf a1 03 5c c0
       -1.4200064 -3.4829097 -1.1526653 -3.4377215
0000e0 66 30 50 c0 02 cc 59 c0 9e b0 2f c0 36 47 3b c0
       -3.252954 -3.4030766 -2.7451549 -2.9262214
0000f0 9d fe 8d bf 94 e4 50 c0 6c fa 62 c0 c3 75 10 c0
       -1.1093327 -3.2639513 -3.5465345 -2.2571876

bayes_fc2.prior_mu_old f4 [1, 64]
000000 cf 45 11 bd 60 59 ab 3d 25 08 56 bd e1 fd b4 bd
       -0.035466965 0.08366656 -0.05225386 -0.08837486
000010 83 cc 5b bd c1 57 50 3d 38 8b 81 ba 69 6f 9f bd
       -0.053661834 0.05086494 -0.0009883409 -0.07784922
000020 01 cd 9e bd 70 7d be 3b 36 89 29 bc 1f cb 82 bd
       -0.07753945 0.005813293 -0.010347655 -0.063863985
000030 10 98 80 bd 69 36 c8 3d 8e 98 f4 3c bc 42 68 3e
       -0.062790036 0.09776003 0.0298579 0.22681707
000040 0d af 99 3d 48 81 ad bc 0e a5 c8 3d 12 aa b1 3d
       0.075040914 -0.02117981 0.09797107 0.086750165
000050 88 8a 8f bd 78 48 5f bd ca 22 0b bd 31 38 66 bd
       -0.070088446 -0.05451247 -0.033968724 -0.056205932
000060 ef 83 91 3c 85 30 9e bc 6d 38 e9 3d 5b 00 c2 3d
       0.017763106 -0.019310245 0.113877155 0.09472724
000070 5e de f8 3d 0d 86 9c bd e5 02 07 3d 5e b7 c8 3c
       0.12151788 -0.07642756 0.032961745 0.024501499
000080 ed d1 6d bc 90 a7 fe bc 96 7f 4c bd 8e 09 27 3d
       -0.014515382 -0.03108576 -0.049926363 0.040780596
000090 2c bd 84 bd 2f 13 9f 3d 8a c2 0a bd 63 52 0f 3e
       -0.06481394 0.07767331 -0.033876933 0.13996272
0000a0 0c 2c ac bd d9 84 3b bd b9 93 6a bd 40 6d 54 bc
       -0.08406839 -0.04578099 -0.057269786 -0.0129655
0000b0 5b fb d3 bc 03 4e be bd ec 4c 96 3d 1f 85 6f bd
       -0.025876692 -0.09292223 0.073388904 -0.058476564
0000c0 ac 03 21 bd 4e 24 92 bc 41 20 bb 3c ef e9 29 bc
       -0.039310142 -0.017839577 0.022842528 -0.0103707155
0000d0 df 0d 0d 3d 5f 42 92 3d 6e fc fa 3c 4a 0c ba 3d
       0.034437057 0.071415655 0.030637946 0.09084375
0000e0 a4 93 b8 3d 62 92 9a 3d 0b c1 9d 3d ad d1 ad 3c
       0.09012535 0.075474516 0.07702836 0.021218145
0000f0 93 39 06 3d 31 bf b5 3d a3 b0 b4 bd 38 cf a8 3c
       0.03276975 0.088743575 -0.08822753 0.020606622

bayes_fc2.prior_sigma_small f4 [1, 64]
000000 7d 3f a0 3e ee 74 d4 3c 27 91 29 3d 49 36 bf 3c
       0.31298438 0.025934663 0.041398194 0.023341315
000010 67 c8 e2 3c d4 ca 10 3d 79 ea 96 3e 71 04 24 3d
       0.02768345 0.035349682 0.29475763 0.0400433
000020 ff 76 cc 3c d2 74 bb 3d 0c 12 83 3d 5f cd 12 3d
       0.024959086 0.09153141 0.063999265 0.03584039
000030 dc bc 31 3e d2 63 d5 3c bd d8 43 3e f6 52 8e 3e
       0.173572 0.026048575 0.19125648 0.2779767
000040 a8 70 e1 3c ce 23 f2 3d cb 3d 96 3e d5 94 ef 3c
       0.027519539 0.118232355 0.2934402 0.029245773
000050 66 34 31 3d d7 05 dc 3d e1 9b 2e 3e 05 1b 24 3d
       0.04326286 0.10743301 0.1705165 0.04006483
000060 2c 88 8d 3d 29 2c 01 3e e5 d3 f6 3e 49 4a c5 3c
       0.06910738 0.12614502 0.48208538 0.024083273
000070 6e db e8 3c 42 ca b3 3e 84 95 86 3e a7 c2 6a 3e
       0.028424945 0.35115248 0.26285946 0.22925816
000080 f9 2e e2 3d 1a 8f a1 3e 07 ed f0 3d 66 aa 5f 3d
       0.110441156 0.3155449 0.117639594 0.054605864
000090 28 d6 cf 3c 3d 1f 15 3f ff 34 30 3d a6 94 df 3e
       0.025370672 0.5825079 0.04301929 0.43668097
0000a0 15 39 05 3d 12 5a 5d 3d a7 78 fb 3c 45 4f 07 3e
       0.03252514 0.054040976 0.03069718 0.13213833
0000b0 ac 07 ef 3d b1 a0 7d 3e 03 3b 86 3e 34 64 0b 3d
       0.11671385 0.2476833 0.26216897 0.034031108
0000c0 60 a7 68 3e f5 93 82 3d 3b cc a9 3d 48 08 86 3d
       0.22720098 0.06375877 0.08290907 0.06544548
0000d0 ef af 5d 3e 7e da f7 3c 6f 83 8c 3e c8 90 01 3d
       0.21649145 0.030255552 0.27444026 0.031632215
0000e0 d0 5d 1b 3d 1d 0f 06 3d b2 03 7f 3d 5b dc 55 3d
       0.037931263 0.032729257 0.062259383 0.0522121
0000f0 30 ed 91 3e de b2 19 3d 3d ca e8 3c f3 d2 cb 3d
       0.28501272 0.037524097 0.028416747 0.09952345
